outputs/ConvRNN_D3_K7_H8_SS4_2_04_19-40-04/checkpoints/model-epoch=06-validation_loss=0.19.ckpt (torch, 301774 bytes, 54 tensors)

model.bias f4 [8]
000000 a5 32 17 40 a1 6a 47 bf 40 7d 44 3f de 05 2f bf
       2.362466 -0.7789708 0.76753616 -0.6836833
000010 e3 7f b8 3e e8 d1 3c 3f 94 6a db bf 12 9d 81 3f
       0.3603507 0.7375779 -1.71419 1.0126059

model.input_layers.0.weight f4 [8, 1, 7, 7]
000000 5d cc 10 3e e2 c4 45 3d 34 91 27 3e b5 63 19 3e
       0.14140458 0.048283465 0.16363984 0.14979441
000010 86 5a 3c 3e b0 20 6d 3d 7b 2d 56 3c cc a8 31 bd
       0.18393907 0.0578925 0.013072367 -0.043373868
000020 f1 c2 5d ba fd 3b 0a bc 46 49 81 bd cf 8a b1 3d
       -0.00084595295 -0.008437154 -0.06312804 0.08669054
000030 10 37 0e bd 37 a3 c2 bd 68 76 11 3c 75 11 19 3e
       -0.03472048 -0.09503787 0.008878328 0.14948066
000040 09 11 95 3d 20 62 07 3e 1f a3 ff 3d 81 51 27 3e
       0.0727864 0.13221025 0.12482285 0.16339685
000050 de 65 55 bd 4b 1c 68 bc d3 09 57 bd 3a 4c 47 3d
       -0.0520991 -0.014166902 -0.052499603 0.04865668
000060 ac 0a d7 3d 69 c9 63 3d be 4a 10 3e d1 bf 3c 3e
       0.105000824 0.055612 0.14091012 0.18432547
000070 98 ce 30 bd f2 28 3a 3d 8a 59 88 bc 21 17 bd bd
       -0.043165773 0.045449205 -0.016644258 -0.09232927
000080 9c 9d af 3d 33 eb b7 bd a9 05 0c 3e ca 19 f1 3d
       0.085749835 -0.089804076 0.13674034 0.11772497
000090 55 70 e1 3d 21 e2 13 bd e7 72 05 3e ca c9 fb 3c
       0.11007754 -0.036104325 0.13032113 0.030735869
0000a0 95 50 3f 3e 19 98 45 bd 7b c1 3e bd 32 6c 15 bc
       0.18683083 -0.048240755 -0.046571236 -0.009120034
0000b0 59 8f 1b 3e 99 0e 95 3d ae af de 3d 09 a8 18 3e
       0.15191402 0.07278175 0.10873352 0.1490785
0000c0 56 06 be bd d7 8c e0 3d 09 39 4f 3e ab b3 5c bd
       -0.09278552 0.10964363 0.20236601 -0.053882282
0000d0 c1 08 0d 3e d5 3d 05 3e 79 83 9a 3d a4 dd 90 bd
       0.1377287 0.13011868 0.07544608 -0.070735246
0000e0 7d 05 2b bc f3 88 89 bb 24 d1 0a 3e ff da 84 3d
       -0.01043832 -0.004197234 0.13556343 0.06487083
0000f0 94 7d f5 bc 32 85 53 3c 93 e6 59 bd ae ed ab bc
       -0.029967107 0.012910174 -0.05319841 -0.020987358
000100 54 96 4b 3e 0e 5d 42 3e b5 1a a1 3d 53 e9 01 bd
       0.19881564 0.1898081 0.07866422 -0.031716656
000110 fd 4a 95 bd 70 94 41 bd c3 cd 0a bd 69 3e 08 3e
       -0.072896935 -0.0472607 -0.033887636 0.13305058
000120 cc 62 e0 3d 38 38 68 bc 2e 77 ff bb 73 0c 1a 3d
       0.10956344 -0.01417356 -0.0077961897 0.03760953
000130 10 8e 33 3e 8e dc 4b 3e e8 dd 1f bd 29 74 37 3e
       0.17534661 0.19908354 -0.039029986 0.17915405
000140 97 9c fd bc da 1f 9d 3c 4f f8 2b 3d 56 9d 96 3c
       -0.030958457 0.019180227 0.041984852 0.01838557
000150 62 16 ef 3d 6b fe 4f 3d 0c ff 30 3e d3 57 2b 3e
       0.11674191 0.05077974 0.17284793 0.16732721
000160 9c 79 51 39 b7 37 ec 3d 7c 6d f1 3d 1e c9 42 3d
       0.00019977096 0.11534064 0.117884606 0.04755508
000170 41 c2 c7 3d 73 a7 8f 3d 85 0d d1 3d bb 36 00 3d
       0.09753848 0.0701436 0.10207657 0.031302195
000180 9b 65 60 bd 71 a7 1a 3e 90 82 8f bd 5a 7a d7 3d
       -0.0547844 0.15102936 -0.07007325 0.105213836
000190 41 45 10 3d 02 10 36 3c d9 91 8d bd 36 2f 32 bd
       0.035222296 0.011112215 -0.06912584 -0.043502055
0001a0 e6 ba af 3d d3 8f d6 3d 3f 27 a7 3a 99 fd 36 3e
       0.0858057 0.10476651 0.0012752785 0.17870177
0001b0 79 af a1 3d 51 d0 37 3e 14 15 33 3e 72 c7 3a 3e
       0.07894797 0.1795056 0.1748851 0.18240145
0001c0 50 64 34 3e 5a b5 3a bd eb 44 e5 3d db ae 8a bc
       0.17616391 -0.045583107 0.11194786 -0.01692908
0001d0 c2 1e ab bd 16 de c4 3d b1 b0 91 3c 16 38 00 3e
       -0.08355476 0.09612672 0.017784448 0.12521395
0001e0 95 f9 ee 3d 94 b2 83 3d 05 3c 08 3e 7d cb 27 3e
       0.11668698 0.064305454 0.13304146 0.16386218
0001f0 22 c6 13 3d cf 99 45 bd 87 2e 22 3e 31 33 a7 3d
       0.036077626 -0.048242386 0.15838061 0.08164061
000200 bc d5 1a 3e fc 6e 62 bc 8c c2 79 bd 90 62 9c 3d
       0.15120596 -0.013820406 -0.06097655 0.07635987
000210 f6 45 85 3c c4 c2 24 bd 1f fa f1 3d 7d e0 43 3d
       0.016268712 -0.040224805 0.11815285 0.04782151
000220 af 2f 99 3d 05 19 05 bd 35 a1 2b 3d 65 70 54 bd
       0.07479798 -0.032494564 0.041901786 -0.051865
000230 b3 c2 4a 3d e8 32 b7 bd 71 6e 55 3d 18 fe 04 3d
       0.049502086 -0.089452565 0.05210728 0.032468885
000240 ab 01 db bc 9b 18 7b 3d 57 bd 1e 3e be 53 ec bc
       -0.026734194 0.061302762 0.15501915 -0.028848525
000250 02 02 0d be 04 f3 80 3d 7c 52 91 3d 1f ee a0 3d
       -0.13770297 0.062963516 0.07095811 0.07857918
000260 7b 28 9b bd 09 b9 c8 3c 5b 8f 88 bd fb 17 ef bb
       -0.075760804 0.024502294 -0.06667968 -0.00729656
000270 30 69 cc bd 83 a7 4a 3c 0e 83 2f be ed 11 cb bc
       -0.099810004 0.0123690395 -0.17139837 -0.024788821
000280 d4 4b ad bd 86 4c 91 bc 66 bd 13 be f0 57 2c bb
       -0.08461729 -0.017736685 -0.14427719 -0.0026297532
000290 02 28 1a 3d 60 01 b7 bd d1 16 19 bd 4b d4 9b 3c
       0.03763581 -0.08935809 -0.037375275 0.019022128
0002a0 16 c4 fd bd de a7 d2 bc 7d c9 ca bd 18 ca 07 bd
       -0.12390916 -0.025714811 -0.09901712 -0.033151716
0002b0 5d 1b c5 3d ff c6 23 be 35 5c b1 bd 08 60 59 bd
       0.0962436 -0.1599388 -0.08660165 -0.0530701
0002c0 86 03 88 bc 8e b7 ba 3d c3 e4 01 3c de 7c 36 be
       -0.016603243 0.091170415 0.007928076 -0.1782107
0002d0 0a b7 b6 bd a1 80 f5 bc eb 89 b3 3d bd 11 af bd
       -0.08921631 -0.029968562 0.0876654 -0.08548305
0002e0 c1 63 c0 3d 0b d6 c2 3d 5d 48 ce 3d 4f e4 07 3d
       0.093940265 0.09513482 0.10072396 0.033176716
0002f0 31 c5 2c 3d 98 3b 33 bd 00 8c cf bc 6d c4 f7 bc
       0.042180244 -0.043758005 -0.025335312 -0.03024503
000300 4a 9b 8f 39 ff 7e b4 bc 59 87 ee 3d 9c 3d 48 3d
       0.00027390785 -0.022033213 0.11646909 0.04888688
000310 ea 9c 3f be 1e 75 c1 bd 61 2c 6b 3d bb 0a 5f bd
       -0.18712202 -0.094461665 0.05741537 -0.054453593
000320 f6 d2 c2 3d 9b f9 13 be db 0e 71 3d 51 7e 57 3d
       0.09512894 -0.14450686 0.058852058 0.0526107
000330 70 46 87 bd b9 15 35 be dd 71 4f 3d 37 55 e4 bd
       -0.06605232 -0.17684068 0.050645698 -0.11149066
000340 47 44 9a bd ee 12 a3 3d ba c2 c4 3d 6f 27 ad 3c
       -0.07532554 0.07962595 0.09607454 0.021136967
000350 aa 2c 52 3d e6 24 b6 bd d2 2d 7f 3d b0 62 55 3d
       0.051312126 -0.088937566 0.062299557 0.05209607
000360 61 0f a5 bd b1 e2 f7 bc b3 2e b5 bd 20 f2 23 3c
       -0.08059574 -0.030259462 -0.08846798 0.010006458
000370 3f 9b 3b be 7b 91 27 be dc 6b ba bd 09 35 65 3d
       -0.1832094 -0.1636409 -0.09102604 0.05595878
000380 5e 41 04 be 3c a6 16 bd 57 73 8e bd 5c 08 bd 3d
       -0.1291556 -0.036779627 -0.06955593 0.0923011
000390 24 45 ff bc 6f 95 35 3b 58 3d fc bb d6 b6 40 3c
       -0.031160899 0.0027707478 -0.0076977424 0.0117623415
0003a0 c2 9a 80 3a fb 1c b3 bd 77 38 11 be aa 6c a8 3d
       0.0009811746 -0.08745762 -0.14181696 0.08223851
0003b0 89 da 64 bd 48 9b 6a bd ff ea 2a be 86 88 26 3d
       -0.055872474 -0.057276994 -0.16691206 0.040657543
0003c0 7c f8 58 3c ca 1a ac 3d 90 90 3e 3d 2f 19 3e be
       0.013242837 0.08403547 0.046524584 -0.18564294
0003d0 60 05 3d 3d 7b 1a 46 ba d0 78 31 3e 07 9c 91 3d
       0.046147704 -0.00075570465 0.17331243 0.07109838
0003e0 47 aa 39 3d 03 75 73 bd 72 22 43 3d 59 4b 84 bd
       0.045328405 -0.059437763 0.04764027 -0.06459684
0003f0 2b 1c be 3b e9 88 a2 3d 88 49 af 3d fb 27 a0 bd
       0.0058016977 0.0793627 0.08558947 -0.07820126

model.input_layers.0.bias f4 [8]
000000 79 96 33 be 07 a8 d8 3c c7 45 4a be 75 53 c2 3d
       -0.1753787 0.02644731 -0.1975318 0.094885744
000010 36 68 31 3d 30 3f d1 bd d5 74 ed bc 43 5b 47 be
       0.043312274 -0.1021713 -0.028986374 -0.19468407

model.input_layers.1.weight f4 [8, 8, 7, 7]
000000 03 85 7c bd b6 dc a5 bd da af 6a bd b8 50 4c bd
       -0.061650287 -0.08098738 -0.05729661 -0.049881667
000010 14 18 c0 bd c6 45 4b bd 3d 66 60 bd 4d fc 95 bb
       -0.093795925 -0.049627088 -0.054785002 -0.0045771957
000020 f9 7f 02 bb 1a de 25 bd 58 7b 2b bd 49 7a bb bd
       -0.0019912703 -0.040495016 -0.041865677 -0.091541834
000030 13 d0 28 bd 92 40 9f bd 2f 34 f4 bb 32 96 79 bd
       -0.04121406 -0.07775988 -0.00745251 -0.060934253
000040 c3 92 73 bd b8 58 c5 bc fc 09 80 bd cb 93 61 bd
       -0.059466135 -0.024090156 -0.06251904 -0.055072587
000050 50 d2 72 bd 22 da 9b bd cc f9 45 bd 7f d7 af bd
       -0.0592826 -0.07609965 -0.048333928 -0.085860245
000060 e6 9a b2 bd 83 01 88 bd 76 82 ba bd 71 5a ab bd
       -0.08720951 -0.06640913 -0.09106915 -0.0836686
000070 b4 e9 b4 bd 3b 5c 81 bd 35 63 b6 bc 59 04 bc bc
       -0.08833638 -0.0631642 -0.022264102 -0.022951292
000080 61 75 aa bd c4 4d 35 bb 36 73 dc bb 3e 58 3e bd
       -0.083231695 -0.002766476 -0.0067276014 -0.046470873
000090 a1 8b a9 bd 49 aa 11 bd 7f 88 ae bd f9 4a 2e 3b
       -0.08278585 -0.035562787 -0.08522128 0.002659498
0000a0 58 cc 9e bd 27 df 69 bb 7c cc db bb 4d b4 d7 bc
       -0.07753819 -0.0035685988 -0.006707726 -0.026331091
0000b0 73 df 92 bd 2c 82 9d bd 14 a8 62 bd 24 ed 35 bd
       -0.07171526 -0.07690844 -0.055336073 -0.044415608
0000c0 fb e3 a9 bd fb aa 88 bd 1e c9 16 bd 6a 6f b4 bd
       -0.08295437 -0.06673237 -0.036812894 -0.08810313
0000d0 a9 9e 9a bd 83 e4 41 3b 85 5c 12 bd 92 c2 b7 bd
       -0.07549793 0.0029585666 -0.035732765 -0.08972658
0000e0 67 56 99 bd c3 a0 41 bc 7d f0 e8 bc 54 12 8d bc
       -0.07487183 -0.011818114 -0.028434986 -0.017220654
0000f0 f9 a5 95 3b f5 cb bf bd 64 90 ba bc aa 8e cf bc
       0.0045669046 -0.093650736 -0.022773929 -0.025336582
000100 16 05 0e bd 62 f2 9e bc 80 27 67 bd 32 c6 e5 bc
       -0.03467282 -0.019402687 -0.056434155 -0.028048608
000110 a4 b7 af bc ea dd 8e bd 0b 0a b8 bd 8b e6 8f bd
       -0.021449871 -0.069759205 -0.089862905 -0.070263945
000120 17 60 68 bd 80 b3 b3 bd 9e 4d 94 bd e5 71 ba bd
       -0.056732263 -0.08774471 -0.07241367 -0.09103755
000130 85 b4 bc 3a 26 a1 3b bd 12 70 4e bd ef 74 02 bc
       0.0014397061 -0.04580798 -0.050399847 -0.007962449
000140 ec f4 cb bb f9 04 82 bd e5 44 bf bd dc 7f b9 bd
       -0.0062242653 -0.06348605 -0.093393125 -0.0905759
000150 79 08 91 b9 3b 26 24 3b e0 fe b4 bd a7 c1 52 bc
       -0.00027662868 0.0025047201 -0.08837676 -0.012863553
000160 f4 22 6d bb dd 1b d9 bc ee 03 5e bc 74 aa c6 bc
       -0.0036184164 -0.026502544 -0.013550742 -0.0242512
000170 ff d1 44 bc 19 d5 1c bc 6c 08 00 bd a6 25 7d bd
       -0.012012958 -0.009572291 -0.03125803 -0.061803482
000180 4e 15 8f bd 94 26 34 bd 01 a8 b9 bd 5e e5 05 3b
       -0.069864854 -0.043982103 -0.09065247 0.0020430903
000190 ec 98 bc bc e3 34 23 bb 1b a2 7a bd c5 4a 48 bc
       -0.023022138 -0.002490335 -0.061189752 -0.012224858
0001a0 2b 59 ee bb 55 ef 14 bd 97 d7 87 bd fd d5 39 bd
       -0.0072738132 -0.036361057 -0.066329174 -0.04537009
0001b0 a6 4f 54 bd 09 18 44 bc ab 1d ff bc 78 c2 59 bd
       -0.05183377 -0.011968621 -0.031142076 -0.053163975
0001c0 48 46 bd bd 90 c2 6b bd ea ad 95 bd a4 a4 a4 bc
       -0.09241921 -0.057558596 -0.07308562 -0.020098038
0001d0 52 23 b5 bb 5e dd b2 bd e2 ed b8 bd e6 8d 3a bd
       -0.005527892 -0.08733629 -0.090297475 -0.04554548
0001e0 d0 a5 8d bd 54 2c b8 bd 8a fa e9 bc ca 2d a7 bd
       -0.06916392 -0.0899283 -0.02856185 -0.081630304
0001f0 01 e0 58 bd 51 e3 b6 bd 00 11 75 bd 27 da 8a bd
       -0.052948 -0.08930076 -0.059830666 -0.067798905
000200 a3 f0 74 bd 38 4c a3 bc 8f f8 66 3a 03 d1 4d bd
       -0.0597998 -0.019933805 0.0008810842 -0.050248157
000210 fe 28 dd bc 48 b0 af bd da c0 6b bc bf 84 97 bd
       -0.026997086 -0.08578545 -0.014389241 -0.07398366
000220 0f da a9 bd 1f 25 aa bd cc 95 18 bc 3a df ed bc
       -0.082935445 -0.083078615 -0.009313058 -0.029037107
000230 03 99 aa bd 14 76 56 bd 00 e0 f3 bb 12 0d a5 bd
       -0.08329966 -0.0523587 -0.0074424744 -0.080591336
000240 a8 89 a5 bd ce f4 b5 bd b8 31 12 bc 2c 29 9e bd
       -0.080828965 -0.088845834 -0.008922987 -0.07722697
000250 38 4b b5 bd ca bc 34 bc ec 9a 8e bc b9 ae 8d bd
       -0.088522375 -0.011031339 -0.017407857 -0.06918091
000260 b4 fc 00 bc 90 6f 00 b9 65 00 ab bd 02 89 1e bd
       -0.007872749 -0.00012248592 -0.083496846 -0.03870488
000270 bc cb 1c bd 8a ed 43 bb 9c f7 b1 bc 55 43 a2 bd
       -0.038280234 -0.0029896223 -0.021724515 -0.07922999
000280 b2 c0 d8 bc 82 2c 16 bd c1 4a ac bd 06 37 d4 ba
       -0.026459072 -0.03666354 -0.08412696 -0.0016190715
000290 86 11 53 bc ad 09 ba bc f4 41 a6 bd 4b 15 58 bd
       -0.012882596 -0.022709692 -0.08118048 -0.05275468
0002a0 05 17 65 3b c3 f0 3f bc 16 da 1c bd aa 47 42 bd
       0.0034956348 -0.011715117 -0.03829392 -0.047431625
0002b0 d0 90 4b ba 58 34 95 bd 4a 8e 8f bd 82 68 52 bd
       -0.0007765414 -0.072853744 -0.07009561 -0.051369198
0002c0 99 0e 61 bc 54 c3 b3 bd 0e 50 9d bd 7d 72 42 bd
       -0.0137363905 -0.0877749 -0.07681285 -0.047472466
0002d0 f4 3c 4e bc 16 2e 83 bd 6d 39 97 bd 22 9d 9c bd
       -0.012587775 -0.064052746 -0.07384 -0.07647158
0002e0 2c f4 6c bc 5e 94 d1 bb 10 c2 d6 bc aa 3a 72 bd
       -0.014462512 -0.0063958606 -0.026215583 -0.059137978
0002f0 e0 27 69 bd 8e 2c 97 bd 55 df 45 bc 41 c1 64 bd
       -0.056922793 -0.07381545 -0.012077172 -0.055848364
000300 19 50 27 bd 5c 5a 82 bd 7e a4 f1 bc 3a c2 97 bc
       -0.04084787 -0.06364891 -0.029497381 -0.018525232
000310 07 72 fe bb cd e5 89 bd ac a8 bf bd 8d 75 90 bb
       -0.007765058 -0.06733284 -0.093583435 -0.0044085444
000320 0e d8 06 bd 1b 8e c2 bd 22 8f c9 39 ce c3 bd bb
       -0.03292089 -0.09499761 0.0003844435 -0.005791164
000330 fa 09 92 bd ca 4c 57 bd 2d 55 78 bd 45 0a 7b ba
       -0.07130809 -0.052563466 -0.060628105 -0.00095764204
000340 6a c1 4b bd 45 26 3a bd 36 a6 15 bd a0 38 41 bc
       -0.049745 -0.045446653 -0.036535464 -0.011793286
000350 09 57 99 bd 91 ee 10 bc 63 d3 a1 bd a9 02 41 bd
       -0.07487304 -0.008845941 -0.07901647 -0.047121678
000360 2c 30 36 3b f8 d4 a9 bd 5c 59 52 bd 11 55 66 bd
       0.0027799709 -0.08292574 -0.05135475 -0.05623347
000370 6c 0f ab bd 7b 82 fb bc 9e 71 e2 bc e1 16 87 bd
       -0.08352551 -0.030701866 -0.027642068 -0.06596161
000380 54 76 7a bd 73 25 39 bd eb a0 c0 bd 59 f0 2f bd
       -0.061148003 -0.04520173 -0.09405693 -0.042953823
000390 fa 7f 67 bd 24 de 56 bc 0d fd a5 bd 8f 80 c5 bc
       -0.056518532 -0.013114486 -0.08104906 -0.024109153
0003a0 fb 7c 14 bd da df 8d bd 39 8e 7d bd a2 ea 40 bb
       -0.036252003 -0.06927462 -0.061903212 -0.0029436727
0003b0 ec 94 68 bc 2f a3 b1 bd b8 aa 27 3b b3 da 4c bb
       -0.014195662 -0.08673703 0.0025583934 -0.0031258285
0003c0 28 fc fc bc 2b db 20 bd c0 6e 40 bd c9 55 5f bc
       -0.030881956 -0.039271515 -0.04698062 -0.013631293
0003d0 ee 7c a2 bd 20 e3 71 ba 59 d3 7c bc d6 42 7d bc
       -0.07933985 -0.00092272647 -0.015431249 -0.015457829
0003e0 19 7a 78 bd c4 8c 1e bc e0 86 ad bd fb 3b a3 bd
       -0.060663316 -0.009677116 -0.08472991 -0.07970425
0003f0 4d ea ba bc f4 6c 88 bc 8a 04 84 bc e9 6b 61 bd
       -0.022816801 -0.016653515 -0.016115446 -0.05503455

model.input_layers.1.bias f4 [8]
000000 cc 38 86 bc e9 6f 00 bd 1d e8 41 bd 22 38 0c bd
       -0.016384505 -0.031356726 -0.0473405 -0.03423322
000010 54 73 91 bd 21 d4 9b bd 65 86 c7 bd bc 71 8d bb
       -0.07102075 -0.0760882 -0.097424306 -0.0043165367

model.input_layers.2.weight f4 [8, 8, 7, 7]
000000 10 da 66 3d 86 25 ec 3c 10 c9 9e 3c f1 00 12 3d
       0.056360304 0.028826486 0.019382983 0.03564543
000010 7e 84 de 3c 27 e7 70 3d 9c c0 bd 3d df 25 61 3d
       0.027162787 0.058814194 0.09265253 0.054967757
000020 e9 69 58 3d 9d d8 44 3d 27 08 9a 3d 72 8c ba 3c
       0.05283538 0.04805814 0.07521086 0.022772048
000030 c1 48 8a 3d 8d 33 70 3d 18 6e 9a 3d 81 cb c7 3d
       0.06752158 0.058642913 0.0754053 0.09755612
000040 81 31 6e 3d 5b 09 ac 3d b6 6e d0 3d 27 3b 4d 3d
       0.05815268 0.08400222 0.101773664 0.05010524
000050 52 3a 1e 3d d9 48 ba 3b c4 fc 92 3d 06 e6 5a 3d
       0.038629837 0.0056849536 0.071771175 0.053442024
000060 94 f5 56 3d 6e db 61 3d d3 89 4b 3d a8 6e ca 3d
       0.052480295 0.055140905 0.049691986 0.09884387
000070 a9 17 16 3d 56 12 28 3d 0b b5 c8 3d 27 8e 87 3d
       0.036643658 0.04103311 0.09800156 0.0661891
000080 84 5d 80 3c 3b c1 84 3d d0 a2 14 3d 0e 12 b8 3c
       0.015669592 0.06482168 0.036288083 0.022469547
000090 17 47 8e 3d 2b 85 d8 3c 61 9b 24 3d bd 22 bc 3d
       0.06947153 0.026430687 0.040187243 0.09186313
0000a0 a0 77 14 3d a9 3d 6f 3d ec 29 9d 3d f4 70 c5 3d
       0.036246896 0.058408413 0.076740116 0.09640685
0000b0 b4 77 72 3d f7 81 e5 3c 47 3d 7d 3d fa 76 86 3d
       0.05919619 0.028016074 0.061826017 0.06565662
0000c0 68 04 d1 3d 2e bf ba 3d 15 b0 b8 3d b8 73 85 3c
       0.102059186 0.09118496 0.0901796 0.01629053
0000d0 f8 39 bb 3d 9c 7a d1 3d 90 07 5b 3d 8c c6 a2 3d
       0.09141916 0.10228464 0.05347401 0.07948026
0000e0 cd 02 8d 3c 98 8e 9e 3d d7 a1 24 3d 66 26 25 3d
       0.01721325 0.07742041 0.040193405 0.040319823
0000f0 4d cd 5b 3c 7d e7 ad 3d 6f 74 d9 3d 30 94 8a 3d
       0.013415647 0.084914185 0.10617911 0.06766546
000100 2c 36 52 3d 57 91 28 3d 0d 8e d1 3c fb 19 28 3d
       0.051321194 0.041154232 0.02558043 0.041040402
000110 33 3b da 3d 6b dc 0c 3d 2e 31 b5 3d eb 89 15 3d
       0.106558226 0.034389894 0.08847271 0.036508482
000120 18 fa 8b 3d 2d de f8 3c b2 10 38 3c c6 7f c2 3c
       0.06834811 0.03037938 0.011234449 0.023742568
000130 e0 b5 99 3d 85 b1 ca 3d 32 93 af 3d d3 8b d2 3d
       0.07505393 0.098971404 0.08572997 0.102805756
000140 b3 da cd 3d c0 24 a4 3c cb 62 4b 3d 31 a3 b3 3d
       0.10051479 0.020037055 0.049654763 0.08771361
000150 06 58 34 3c ed 85 66 3d be f9 2c 3d 61 c8 d8 3d
       0.011007315 0.056280065 0.04223036 0.10585094
000160 83 b6 1e 3d 35 4c 1b 3c c2 9e e0 3d 9d ec e3 3c
       0.038748275 0.009478618 0.10967781 0.027822787
000170 de fa 03 3d 56 cf f5 3c d6 0e 95 3c 30 f4 ab 3d
       0.032221667 0.030006092 0.01819555 0.083961844
000180 1f 96 82 3d 9f 46 47 3d 9f 69 bb 3d 0b d8 d5 3c
       0.063762896 0.048651334 0.09151005 0.026103994
000190 f5 87 4b 3d ce bb c5 3c 14 53 37 3d 56 b4 8c 3d
       0.049690206 0.024137404 0.044756964 0.06870334
0001a0 ff a2 b3 3d ce db 84 3d b3 f6 a2 3d f6 0f ad 3d
       0.087713234 0.06487237 0.079572104 0.0845031
0001b0 da ec 24 3d 00 02 2f 3d d1 a5 43 3d 3e 56 6d 3d
       0.04026494 0.042726517 0.047765557 0.057943575
0001c0 8e 32 6a 3d 6a 2c 31 3d 88 2a 01 3d ed a4 95 3d
       0.05717712 0.043255247 0.0315347 0.07306848
0001d0 ec 82 05 3c fe 1e 87 3c fb 2f ee 3c d5 7f 55 3d
       0.00814889 0.01649427 0.029075613 0.052123863
0001e0 d5 8a 2f 3c b0 2b c1 3d 61 fe 0a 3c 06 95 d6 3d
       0.0107142525 0.09432161 0.0084835 0.10477643
0001f0 f6 54 3a 3c 61 e5 87 3c a3 1b e0 3c d0 f4 d1 3d
       0.011372795 0.016588869 0.027356928 0.102517724
000200 e5 ec 87 3d e7 9a 84 3c f5 bf 49 3d 7a 22 70 3c
       0.06636981 0.016187144 0.04925533 0.014656657
000210 87 f2 0e 3d f4 df ab 3d 51 1a 77 3d b6 d7 17 3c
       0.03489926 0.08392325 0.06032783 0.009267738
000220 31 1b cc 3d 52 62 02 3d 14 ea b2 3d 7f be 93 3c
       0.09966124 0.031832047 0.08736053 0.018035172
000230 82 0e 9e 3d 62 40 84 3d 27 90 d9 3d 68 1a 35 3d
       0.07717611 0.064575925 0.10623198 0.044214636
000240 95 24 a2 3d 2b b6 a5 3d 01 e0 b6 3d 24 fc b0 3d
       0.07917134 0.080913864 0.08929444 0.08641842
000250 1b f4 ed 3c be 93 4e 3d 28 ee fc 3c b3 39 b2 3d
       0.029047063 0.050433867 0.03087528 0.087024115
000260 56 da 99 3d b0 43 7e 3d ae d2 83 3d 32 1d 54 3d
       0.075123474 0.06207627 0.06436668 0.051785655
000270 7d 3e 2b 3d 2d 2d d2 3d f4 e6 ce 3d 52 dc d3 3d
       0.04180764 0.10262523 0.101026446 0.10344757
000280 76 0a 76 3d 30 0a c3 3c 67 a1 a7 3d c5 5c 80 3d
       0.06006857 0.023808569 0.08185082 0.062676944
000290 34 a8 a9 3d 8f 6f 2a 3d 9d 1a 0e 3d c5 33 dc 3d
       0.08284035 0.041610297 0.03469335 0.10752062
0002a0 5f 08 31 3d b6 3f b0 3d 20 3f 2d 3d ff 58 41 3d
       0.043220874 0.08605902 0.04229653 0.047204014
0002b0 10 4e 8e 3d f0 58 81 3d c2 4b e1 3d 80 9c 25 3d
       0.06948483 0.063157916 0.11000778 0.040432453
0002c0 70 b1 1f 3d 4f 89 9d 3d d8 33 83 3d 8e 2c ca 3c
       0.038987577 0.07692205 0.06406373 0.024679448
0002d0 54 e7 06 3d ab 38 a8 3d e1 19 22 3c d8 eb d8 3d
       0.032935455 0.082139336 0.009893865 0.105918586
0002e0 2c 77 39 3c c0 b6 c6 3c d6 af 3e 3d e9 e6 4c 3d
       0.011319917 0.024257064 0.04655441 0.0500249
0002f0 b1 c6 91 3d 64 62 02 3d 9e 41 c2 3d 73 18 9a 3d
       0.071179755 0.031832114 0.09485172 0.075241946
000300 66 bf 60 3c b0 de d0 3d ed b4 ea 3c 2f 49 8b 3d
       0.013717508 0.10198724 0.028650725 0.06801068
000310 ff 4b be 3c f1 e6 81 3c 54 1b 15 3d 28 27 24 3d
       0.023229597 0.015857192 0.036403015 0.040076405
000320 17 00 b7 3d 52 61 16 3d 8f 35 93 3d 11 b8 5d 3c
       0.08935564 0.036713906 0.0718795 0.013532654
000330 4a 0a 79 3d e6 34 d4 3d 6f db 88 3d cd c1 fa 3c
       0.060800828 0.10361652 0.06682479 0.03060999
000340 2f 92 75 3d db 7b f1 3c d5 d4 78 3d 5f f5 5b 3c
       0.059953865 0.029478004 0.060749847 0.0134252
000350 7e 1c ed 3c 52 44 68 3c 38 aa 42 3d 6d de 58 3d
       0.02894425 0.014176445 0.047525615 0.052946497
000360 8c 3c 22 3d 72 05 c3 3d 77 82 55 3d 15 2f ae 3d
       0.039608523 0.09522523 0.052126374 0.08505074
000370 25 af 37 3d 7b 76 77 3d 7a 10 24 3d 38 13 23 3d
       0.044844765 0.060415726 0.040054776 0.03981325
000380 15 c0 24 3d e3 e9 4b 3d 7a 6f 8b 3d d4 29 b4 3c
       0.040222246 0.0497836 0.06808372 0.021992601
000390 fd c8 73 3d 50 94 a7 3d 16 06 85 3c 5f dd a0 3c
       0.05951785 0.08182585 0.016238254 0.019636808
0003a0 e4 91 9f 3d a2 95 d2 3d 74 bb 88 3d 76 da b1 3d
       0.07791498 0.102824464 0.06676379 0.08684246
0003b0 af 52 32 3d 98 7f 8d 3d fb 2a 44 3c 77 ff d0 3d
       0.043535884 0.06909102 0.011973138 0.10204976
0003c0 fc 00 d0 3d ce 09 be 3d 28 98 5e 3d 10 da 81 3d
       0.10156438 0.09279214 0.054344326 0.0634042
0003d0 a0 be 17 3d 7b 4a 72 3c 5a e0 f0 3c 67 91 93 3d
       0.03704703 0.014788265 0.029403854 0.07205468
0003e0 d6 4e 4a 3c fd d3 ca 3d 9c 9e 9a 3d 49 e4 ca 3d
       0.0123478975 0.09903715 0.075497836 0.09906823
0003f0 2d e3 9e 3d 46 ef 53 3d 69 96 b6 3d 79 5b 01 3d
       0.07758174 0.05174186 0.08915407 0.031581376

model.input_layers.2.bias f4 [8]
000000 df cb d0 3d 24 12 3d 3d 43 32 3b bb ff 47 8e 3b
       0.10195135 0.04615988 -0.0028563894 0.0043420787
000010 f7 ef 2c bd 2c eb d4 bd fb 42 c4 bd e7 52 9b bd
       -0.042221036 -0.10396418 -0.09583088 -0.07584172

model.hidden_layers.0.weight f4 [8, 8, 7, 7]
000000 23 1f ae 3d 80 a0 39 3d 9b 89 c5 3d 70 ff be 3d
       0.085020326 0.04531908 0.09645387 0.093260646
000010 79 c2 c0 3d 5f 59 db 3d c2 cc c3 3d 66 12 20 3d
       0.09412093 0.107104056 0.09560539 0.039080046
000020 c9 55 0b 3d d4 0c 0b 3d f1 bb 30 3d 79 50 e6 3d
       0.034017358 0.03394778 0.043147985 0.11245818
000030 5b f4 87 3d f5 78 7d 3d 35 ce 39 3d 0b 23 24 3d
       0.06638404 0.06188293 0.04536267 0.040072482
000040 8d c8 e6 3c 94 3c ce 3d 05 38 d1 3d 96 ad e3 3d
       0.028171802 0.10070148 0.10215763 0.11117093
000050 1d 2a ae 3d be 84 d8 3d 89 00 64 3c 59 b1 d3 3d
       0.08504126 0.105721936 0.013916143 0.10336561
000060 e8 12 d7 3d f6 79 15 3d d2 b8 07 3d e1 6f 89 3d
       0.10501653 0.036493264 0.033135243 0.06710792
000070 30 83 d8 3d 66 32 ae 3d ef ee 43 3d 23 8a c5 3d
       0.10571897 0.085057065 0.047835287 0.09645488
000080 0b 2f 32 3c 20 5a 1f 3d cb c3 0e ba bf 88 c5 3d
       0.010875474 0.03890431 -0.00054460455 0.09645223
000090 01 e4 f8 3b 1a 43 d0 3b 25 d9 02 3d ee be aa 3d
       0.0075955396 0.0063556554 0.031945366 0.08337198
0000a0 a8 07 b4 3d 4e ca b3 3c 0f e4 17 3d 18 b9 0c 3d
       0.08790523 0.021947052 0.037082728 0.034356207
0000b0 e5 e1 d0 3d 15 4d b3 3c fc 50 9d 3c d1 32 90 3d
       0.10199336 0.021887342 0.019203655 0.070409425
0000c0 85 c0 cd 3b 84 d8 c5 3d f4 2b 6d 3d 67 d4 18 3a
       0.0062790536 0.09660438 0.057903245 0.000582999
0000d0 a1 b5 7a 3d 6a f2 02 ba e0 8e a4 3b dd 76 b9 3d
       0.06120837 -0.0004995229 0.005021915 0.090558745
0000e0 60 56 3b 3d 28 72 f7 3c bd 94 a4 3d 44 25 9a 3d
       0.04573667 0.030205801 0.08036182 0.07526639
0000f0 52 32 da 3c 28 a9 73 3d 3d 51 7e 3d 1e cf b8 3b
       0.026635323 0.05948749 0.062089194 0.0056399247
000100 9e 6d b7 3d 00 4d 69 3d 0a 81 8e 3d f1 ab 4b 3d
       0.08956455 0.0569582 0.06958206 0.049724523
000110 57 27 ab 3d 65 e6 64 3d e1 9f 93 3d 1b 92 58 3d
       0.08357113 0.055883784 0.07208229 0.052873712
000120 8a 52 94 3d c1 29 8f 3d 9d 6f 0f 3c c1 bd 96 3d
       0.072423056 0.06990386 0.008754638 0.073604114
000130 3c 25 bf 3d ad 53 3c 3d 95 62 a0 3d f6 78 a7 3d
       0.09333274 0.045978237 0.07831303 0.08177368
000140 89 63 90 3c c7 b7 b6 3d bd ab 61 3d 7c 8d c0 3d
       0.017625587 0.089217715 0.055095423 0.09401986
000150 71 ae ae 3d 9b eb 93 3d 7e ff 71 3d 2d ef de 3d
       0.08529366 0.072226726 0.059081547 0.10885463
000160 e3 db be 3d d1 bf d6 3d f1 6e b3 3d 21 21 f6 3c
       0.09319284 0.10485805 0.08761395 0.030045094
000170 06 92 27 3d be 0d 00 3d 11 c7 aa 3b 53 84 69 3c
       0.040910743 0.031263106 0.005211719 0.01425274
000180 df e1 8e 3d 53 aa a6 3d 9f e9 ad 3d 9a 31 4b 3d
       0.06976675 0.081379555 0.08491825 0.04960785
000190 dc ab 88 3d 96 8c 90 3d 6d ec cb 3d 22 31 be 3d
       0.066734046 0.07058065 0.09957204 0.09286715
0001a0 e8 84 17 3d 57 d1 8d 3d 1f f8 46 3d 88 66 56 3c
       0.036991984 0.06924694 0.04857647 0.013085969
0001b0 cc 8b 84 3d ac be 95 3d fa 8e d9 3d bc ed ca 3d
       0.06471977 0.073117584 0.10622974 0.099086255
0001c0 03 43 7b 3d 2d e4 36 3d 6d 15 b9 3c 6c e5 49 3d
       0.061343204 0.0446512 0.022593224 0.04929106
0001d0 2f 41 48 3d 90 e6 33 3d 6a 61 83 3d dc 02 d2 3c
       0.04889029 0.043921053 0.06415065 0.02563613
0001e0 eb c8 1a 3d 80 21 b9 3d e6 3c 9d 3c ad dc 15 3d
       0.037789267 0.09039593 0.019194078 0.036587406
0001f0 dc 42 c2 3d fe f2 db 3d e6 0d 5c 3d 76 f9 0f 3d
       0.09485409 0.107397065 0.053724192 0.035150014
000200 4f 40 96 3d d9 0d 93 3d 2f 35 8d 3d 1c d9 9b 3d
       0.07336485 0.071803756 0.068949096 0.0760977
000210 f7 44 c7 3d 5c 70 b0 3d c4 76 83 3d 19 80 68 3d
       0.09729951 0.08615181 0.06419137 0.05676279
000220 c7 34 9d 3d bd cc 59 3d 8e ca 71 3b 22 59 42 3d
       0.07676082 0.05317377 0.0036894414 0.047448285
000230 ca 57 46 3c 1a ad d8 3b 14 46 c2 3c 73 c8 b7 3d
       0.0121058915 0.006612432 0.023715056 0.089737795
000240 00 cc d7 3d 62 38 7e 3c a2 ec ac 3d c3 e9 74 bc
       0.10536957 0.015516372 0.084435716 -0.014948311
000250 7f bf bc bc 5b ac b6 bd 5c 0d c1 bd ce 2b 7f bc
       -0.023040531 -0.08919593 -0.09426376 -0.015574409
000260 0c 80 cd bd ef 85 14 bd 7a 60 19 bc 22 dd a4 bd
       -0.10034189 -0.03626054 -0.009361381 -0.0804999
000270 bc 35 3e bd 74 4f 99 bd 2b cb cc bd 18 40 68 bd
       -0.046437964 -0.074858576 -0.09999689 -0.05670175
000280 80 85 e4 bd bb 0a a2 bc 9a b0 f4 bc 65 af aa bd
       -0.111582756 -0.019780507 -0.029869366 -0.08334235
000290 10 c8 b2 bd c8 b7 d3 bc 50 b2 31 bd 63 a9 a8 bd
       -0.08729565 -0.02584447 -0.043382943 -0.08235433
0002a0 1a 57 24 bd 5d bc b9 bc 8a 28 b5 bd ff d6 bf bc
       -0.04012213 -0.022672826 -0.08845623 -0.023417948
0002b0 f3 be 93 bd 5c d9 a1 bd 70 9a 25 bd 90 dd 87 bd
       -0.07214155 -0.07902786 -0.040430486 -0.066340566
0002c0 d5 ce 83 bc f5 11 d6 bc a3 8f 97 bd 7e 70 54 bd
       -0.016089836 -0.02613161 -0.074004434 -0.051865093
0002d0 df fa 72 bc 7c a2 b3 bd a3 53 bc bd da 4f cc bd
       -0.01483032 -0.08771226 -0.0919564 -0.09976168
0002e0 6f f8 c8 bd 30 3f 40 bd d7 c9 6b bd 9a 61 3c 3b
       -0.0981301 -0.04693526 -0.057565536 0.0028744699
0002f0 35 a9 a6 bd 50 ed c9 bd 2e 42 ad bd 4d fe 41 bd
       -0.081377424 -0.09859717 -0.084598884 -0.04736166
000300 b1 44 70 bd 4d 61 d3 bd a5 0f 3a bc 78 3b 1c bd
       -0.05865926 -0.10321293 -0.011356269 -0.03814265
000310 e9 02 2b 3d 81 f4 55 3d 0c de e5 3d 8c 99 80 3c
       0.041750822 0.05223513 0.11223993 0.015698217
000320 c3 1f 94 3d fd 34 9f 3d 4b 68 45 3d ba 19 13 3d
       0.072326206 0.077737786 0.048195165 0.035913207
000330 9b d8 3f 3c 58 07 d9 3d 48 63 9b 3d 19 6b aa 3c
       0.011709358 0.10597104 0.07587296 0.020803021
000340 bf ba 06 3d 8c 70 86 3d ba 15 1e 3c ce df 4d 3d
       0.03289294 0.06564435 0.009648735 0.050262265
000350 03 3f 49 3d 43 a4 85 3c 72 46 73 3c a6 a1 23 3d
       0.04913236 0.016313678 0.014848338 0.03994908
000360 7e d8 72 3d 28 89 92 3d e0 8b 25 3d 03 59 14 3d
       0.059288494 0.07155067 0.0404166 0.0362177
000370 91 32 49 3d cb 92 37 3d f1 5b 84 3d 20 66 e3 3d
       0.04912049 0.044817727 0.06462849 0.11103463
000380 93 d9 4a 3d bf f0 7a 3d 02 40 e5 3d e7 d2 b1 3d
       0.0495239 0.06126475 0.11193849 0.086828046
000390 fe d8 46 3d a0 75 98 3d c2 c1 a2 3d 50 0b 8a 3c
       0.048546784 0.0744431 0.079471126 0.016851097
0003a0 55 87 a2 3d 8e 14 a9 3c f1 11 96 3d 67 ce 63 3d
       0.07935969 0.020639684 0.07327641 0.055616762
0003b0 4d 1e a7 3d 6d 67 a0 3d b6 93 ac 3d 43 22 6c 3d
       0.08160076 0.07832227 0.08426611 0.057649862
0003c0 f4 7f 1c 3c fb 7c 68 3d 14 4c 0c 3c 06 89 39 3d
       0.009551991 0.056759816 0.00856306 0.04529669
0003d0 b4 7b d1 3d e1 36 58 3d 33 5c 92 3c 48 02 ba 3c
       0.102286726 0.05278671 0.01786623 0.022706166
0003e0 54 43 91 3d dd 76 22 3d 76 ef 75 3d 78 46 c9 3d
       0.0709292 0.039664138 0.06004282 0.09827894
0003f0 eb 67 63 3d b6 e2 83 3d 0a 08 a8 3d ac 6d f7 3c
       0.055519026 0.06439726 0.08204658 0.030203663

model.hidden_layers.0.bias f4 [8]
000000 ab f9 d9 3d a1 e8 d0 bc b4 42 e3 3c 24 7d 09 bd
       0.106433235 -0.025501551 0.027741767 -0.03356661
000010 ac dd 95 3d aa 58 0a bc ea 3b 87 3b 0e 2b 9f bc
       0.07317671 -0.008443991 0.0041270154 -0.01942971

model.hidden_layers.1.weight f4 [8, 8, 7, 7]
000000 64 8c b2 bd a6 a4 60 bd 3b c4 9f bc 1a 68 d4 bd
       -0.08718184 -0.05484452 -0.01950275 -0.10371418
000010 26 dc d3 bd 3d 04 36 bc 3c e7 a8 bb 92 a0 7b bd
       -0.10344724 -0.011109409 -0.0051545184 -0.06143243
000020 28 c5 d5 bd fd 59 91 bc f5 93 a2 bc 49 dd 61 bc
       -0.10437995 -0.017743105 -0.019845942 -0.013785669
000030 c5 34 93 bd 5d 4d 71 bc f0 31 70 bd 42 96 8b bd
       -0.07187799 -0.0147279175 -0.058641374 -0.06815769
000040 29 4f 8c bd c3 b1 e7 bc 1d 50 89 bd c9 a5 af bd
       -0.06851036 -0.028283006 -0.067047335 -0.08576543
000050 e4 46 5d bd e2 86 c1 bd bb e4 ed bb 08 18 92 bd
       -0.054022685 -0.09449555 -0.007259933 -0.0713349
000060 4a 64 36 bd 12 63 c6 bd 10 c3 8b bd aa b7 23 bd
       -0.044529237 -0.09686865 -0.068243146 -0.039970078
000070 f3 bb c4 bd 51 60 61 bd ab 50 c2 bd 81 9e 96 bd
       -0.09606161 -0.055023495 -0.094880424 -0.07354451
000080 38 c8 2a bc c1 ae d7 bd 59 e6 55 bd 13 75 cd bb
       -0.010423712 -0.105313785 -0.05222163 -0.00627006
000090 48 93 89 bd 8a de ee bc 07 fd 3f bd 08 c6 66 bc
       -0.06717545 -0.02915885 -0.046872165 -0.0140853
0000a0 5a 6f 98 bd 35 ca 5b bd 24 70 12 bd f3 63 3b bd
       -0.074431136 -0.053659637 -0.035751477 -0.045749616
0000b0 32 18 a7 bd 1f 62 fe bc 94 49 0f bc f9 d9 2d bc
       -0.08158912 -0.031052647 -0.00874557 -0.010611051
0000c0 dd 50 ec bc 8d b3 86 bc c7 9c a2 bd 8d 17 ac bb
       -0.028847152 -0.016443038 -0.07940059 -0.005251831
0000d0 89 06 f5 bc b3 1c 81 bd 68 65 26 bd 7d 1f 81 bd
       -0.029910343 -0.06304302 -0.040624052 -0.06304834
0000e0 83 b9 90 bd d2 d2 8a bd 90 ed 07 bd c2 b7 7a bd
       -0.070666336 -0.06778492 -0.03318554 -0.0612104
0000f0 f1 eb 4f bd 33 08 ae bd 0e be ac bd c7 e3 a7 bd
       -0.05076212 -0.084976576 -0.084346876 -0.08197742
000100 dd 52 11 3b 44 38 07 bc 85 be 31 bd de ec 9e bd
       0.0022174635 -0.008253161 -0.043394584 -0.077600226
000110 a0 ce ac ba 7b 3d 9b bd 99 57 8f bd 7b b4 15 bc
       -0.0013184138 -0.07580086 -0.0699913 -0.009137268
000120 3b 85 6a bd d5 0c 79 bd d4 9b 15 bd 9e 4a e1 bc
       -0.057255965 -0.060803253 -0.036525562 -0.0275014
000130 44 50 0e bd 85 56 36 bd 07 5c 62 bd be 79 56 bc
       -0.034744516 -0.044516105 -0.055263545 -0.013090549
000140 ff 3f 81 bd 4c 1f 16 bd 96 86 9e bc bd e7 92 bc
       -0.063110344 -0.03665094 -0.019351285 -0.017932767
000150 0e 05 1b bc 04 79 61 bd d4 2a 3d bd f3 66 84 bd
       -0.009461654 -0.05504705 -0.046183422 -0.064649485
000160 a5 26 9c 39 ec 78 cd bc 01 d3 82 bd a1 c6 21 3b
       0.0002978343 -0.025082074 -0.06387902 0.0024685042
000170 ce 6f 80 bd 39 fc a4 bc 24 92 ee bc 08 d2 2c bc
       -0.06271325 -0.0201398 -0.02912242 -0.010548122
000180 93 90 d6 bc cc 33 14 bd e6 a3 af 3d e2 f8 af 3d
       -0.026191985 -0.03618221 0.08576183 0.085923925
000190 f7 b1 bb 3d a6 b8 04 3d bd 00 97 3d ca 20 81 3d
       0.091648035 0.032402657 0.07373188 0.06305082
0001a0 b3 14 90 3d 3c 1a ad bd 05 ee f6 bb ff b9 54 bc
       0.07035198 -0.084522694 -0.0075356984 -0.012983798
0001b0 fa 0b a6 bb 76 43 24 bd 47 ef 3c bd 08 55 b8 bd
       -0.0050673457 -0.0401034 -0.04612663 -0.090005934
0001c0 97 b5 e4 3d 29 65 87 3c 8b 7f 60 3d 63 69 48 3d
       0.11167448 0.01652773 0.054809134 0.04892863
0001d0 28 b3 1d 3c ab d2 18 3c 43 ae 66 3d a4 00 18 bd
       0.009625234 0.009327571 0.056318533 -0.037109986
0001e0 b9 b9 9e bc 25 eb d8 bd b6 d1 c0 3c 23 b0 80 bd
       -0.019375669 -0.10591725 0.023537498 -0.062835954
0001f0 40 8d ff 3c fe 5e af 3c cc e7 78 3d a3 90 21 3d
       0.031195283 0.0214076 0.060767934 0.039444577
000200 46 5e e6 3d 54 6a 74 3d 93 23 4a 3d ea b6 8e 3d
       0.1124845 0.059671715 0.049350332 0.06968482
000210 e4 6d b3 bc 69 da 62 3d c3 02 91 bc fe 5b 16 bd
       -0.021902986 0.055384073 -0.017701512 -0.036708824
000220 3d f6 86 3d 70 e4 6f 3c 68 8f 74 3d e5 ed 86 3c
       0.06589935 0.014641866 0.059707075 0.016470859
000230 c3 e7 cf bd 85 f3 89 bd 5f 50 ad bd 9c 54 ad 3d
       -0.10151627 -0.06735901 -0.08462595 0.084634036
000240 da 93 8a 3d 7c ae 17 3b fb 9b 44 3d c4 62 18 bc
       0.06766482 0.0023144772 0.048000317 -0.009300891
000250 8b ef 5d bd f4 83 a7 bb 62 55 9c bd f7 e0 4e bd
       -0.054183524 -0.0051121656 -0.07633473 -0.050507512
000260 8b 0c 30 bd 9b 94 35 bc d6 0d 8d bd 86 64 1e bb
       -0.042980712 -0.011082794 -0.068874046 -0.0024168803
000270 c2 66 99 bd 16 32 8b bc 7b 39 af 3a d7 7c 4c bd
       -0.074903026 -0.016991656 0.0013368571 -0.049923744
000280 76 24 f3 bc 9b 9b 39 bd 89 2f aa bc cc 77 82 bb
       -0.029680472 -0.045314413 -0.02077462 -0.003981566
000290 b9 8d 93 bd 57 a6 c0 3a 8f 94 af bd 81 e7 46 bd
       -0.07204766 0.0014698011 -0.08573257 -0.048560623
0002a0 b1 dd 64 bd 6d 5f b5 bc 47 09 2b bc 6f ed 11 bc
       -0.055875484 -0.02214023 -0.010439224 -0.008906706
0002b0 f3 a9 77 bd ba 08 ad bd 59 05 f6 bc 5c 63 aa bd
       -0.06046481 -0.0844893 -0.030031847 -0.083197325
0002c0 5c 25 bc bd 54 b9 ab bd b9 9f 75 bd 36 6a e5 ba
       -0.09186813 -0.08384958 -0.059966777 -0.0017502967
0002d0 b0 b2 a6 bd ff 24 96 bd 73 02 b7 bd 2e 91 fa bc
       -0.08139551 -0.07331275 -0.08936014 -0.030586805
0002e0 77 74 1d bd 3c a0 76 bb 78 21 0f bd 89 97 0c bc
       -0.038441148 -0.0037632128 -0.034944028 -0.008581051
0002f0 a0 99 55 bd 03 38 dd bc bd d5 17 bc 6c 22 20 bd
       -0.05214846 -0.027004248 -0.009267268 -0.039095327
000300 4a c2 1e bc 24 9a b8 bd ee fe 63 bd dc 51 91 bd
       -0.009689877 -0.09013775 -0.05566304 -0.070956916
000310 91 38 00 3d 38 2d 64 3d c9 b5 4c 3d e5 6b f3 3c
       0.031303946 0.055707186 0.04997805 0.029714534
000320 e5 2f 0e 3d 62 01 df 3d 5b ed 80 3d f3 84 ac 3d
       0.034713645 0.108889356 0.06295272 0.084237956
000330 9a 35 c9 3d b6 72 e0 3d 87 92 ce 3d 2e 08 cb 3c
       0.09824677 0.109593794 0.100865416 0.024784174
000340 4e d7 c1 3d bf 31 15 3d 17 9c 9d 3d 80 7d 97 3c
       0.09464894 0.036424395 0.076957874 0.01849246
000350 18 90 cc 3d a4 89 9a 3d dd 19 eb 3c b8 74 49 3d
       0.09988421 0.07545784 0.028698856 0.049183577
000360 b7 1c 3e 3d b4 07 d6 3c e0 3c 94 3d 3a 15 04 3e
       0.046414103 0.02612672 0.072381735 0.12898722
000370 c8 aa fd 3d 93 ab c3 3d b5 f6 d1 3d ff d8 b8 3d
       0.123860896 0.095542096 0.10252134 0.09025764
000380 08 fc 32 3d e8 9e 68 3d 8b 0f e2 3d 31 1e cb 3d
       0.043697387 0.05679217 0.11038121 0.09917868
000390 b6 de de 3c 64 b7 93 3d bd cb 8b 3d a1 7d 3e 3c
       0.027205806 0.07212713 0.06825969 0.011626632
0003a0 75 f8 31 3d 82 38 20 3d d7 76 66 3d d6 af 8d 3d
       0.043449838 0.03911639 0.05626568 0.06918304
0003b0 51 7e ad 3d e9 aa 48 3d 86 d0 02 3d 06 90 ae 3d
       0.084713586 0.048991118 0.031937145 0.08523564
0003c0 48 29 c8 3d c1 cb 2b 3d ad 29 76 3d e3 8e 85 3d
       0.09773499 0.04194236 0.06009834 0.06521394
0003d0 85 b4 b6 3d 6c 30 6a 3b 9e c1 32 bc 2c 11 3d bd
       0.0892115 0.0035734428 -0.01091042 -0.046158955
0003e0 74 95 0e bd 4e fc 1d bd 3e c7 8f bd 94 74 91 bc
       -0.0348105 -0.038570695 -0.07020424 -0.017755784
0003f0 43 0b 0c bd f7 de bf bd ab e7 30 bd 3d c5 f9 bc
       -0.034190428 -0.09368699 -0.043189686 -0.030489558

model.hidden_layers.1.bias f4 [8]
000000 08 8e 9a bd ca 34 6c 3d 22 8b 0d bd 64 80 dc bd
       -0.075466216 0.05766753 -0.034556516 -0.10766676
000010 3a 7a c5 3d 74 08 53 3d b7 a8 bf bd 75 28 d4 bd
       0.096424535 0.051521733 -0.09358352 -0.10359279

model.hidden_layers.2.weight f4 [8, 8, 7, 7]
000000 25 24 e0 3d 13 c3 20 3c 20 06 08 3d b9 a8 dd 3d
       0.10944394 0.009812134 0.033208966 0.10823197
000010 77 ea 7c 3d fa 9e 8b 3d 9c ff d4 3d c0 8a 87 3d
       0.06174704 0.06817432 0.10400316 0.06618261
000020 20 36 45 3d 1b 5f 36 3d 2c 94 76 3d cc 64 60 3d
       0.04814732 0.044524293 0.0601999 0.054783627
000030 ef 19 41 3c a0 d4 22 3d 5b 35 1b 3d fd 96 b1 3d
       0.011785968 0.039753556 0.03789268 0.08671377
000040 e3 55 e0 3c 8c 07 30 3d fa 2f df 3d 34 4e 97 3d
       0.027384704 0.042975947 0.10897823 0.07387963
000050 60 8a 57 3d 9c 65 e2 3c 15 8e fb 3c 1f b5 5a 3d
       0.0526222 0.027636342 0.030707398 0.053395387
000060 79 34 7f 3d 31 4b bb 3d 3d a1 25 3d 14 42 dc 3c
       0.0623059 0.09145201 0.040436972 0.026886977
000070 74 78 ca 3d cc de b8 3d cd 80 d7 3d 0f 84 bd 3d
       0.09886256 0.0902687 0.10522614 0.09253704
000080 ba 87 ba 3d 8a b0 8c 3d 00 7f 10 3d 09 0e 3e 3d
       0.09107919 0.0686961 0.035277367 0.046400104
000090 3c 5d d6 3d 9f 92 11 3d 14 c6 33 3d ef a2 71 3d
       0.10467002 0.03554022 0.043890074 0.058993276
0000a0 0b 5b f2 3c 2b cb 91 3c 1f a0 24 3c f6 a9 77 3d
       0.029584428 0.017797073 0.0100479415 0.06046482
0000b0 9f 93 c4 3d ce 05 9c 3d c4 0c 04 3c 42 e6 b0 3c
       0.09598469 0.07618295 0.008059684 0.02159417
0000c0 5f 47 c1 3b 1e d2 d1 3d 31 ab 82 3d 80 d9 70 3d
       0.0058984007 0.10245155 0.063803084 0.058801174
0000d0 20 09 9c 3d fe e0 47 3d 3a fc c4 3d c8 6d 6a 3d
       0.07618928 0.048798554 0.09618421 0.0572336
0000e0 86 10 a6 3d 16 07 b6 3d bb 5b a8 3d b3 ab b9 3c
       0.0810862 0.0888807 0.08220621 0.02266488
0000f0 99 7c 45 3d c5 e8 28 3d 0d be 56 3d e7 46 9f 3c
       0.04821453 0.04123761 0.05242734 0.019442989
000100 0c 84 a6 3d 79 16 db 3c f6 0a d0 3d 1a 7b 00 3d
       0.08130655 0.026744114 0.10158341 0.0313674
000110 35 c5 d9 3d c0 46 e5 3c 57 af a1 3b f7 b5 c9 3d
       0.106333174 0.027987838 0.004934232 0.0984916
000120 12 4a b1 3d d1 03 89 3d 0c 49 01 3d d7 7e b8 3c
       0.08656706 0.06690181 0.031563804 0.02252142
000130 45 b9 22 3d dc 32 8f 3d cd 65 d3 3b 02 6d 07 3d
       0.039727468 0.069921225 0.0064513446 0.033062942
000140 d4 c4 87 3d f5 38 7d 3d f3 3e 92 3b da 11 b9 3d
       0.06629339 0.061821897 0.0044630705 0.09036608
000150 f1 cb 0b 3d 04 df d2 3d 82 90 c3 3d 8e 7f bc 3d
       0.03413004 0.10296443 0.09549047 0.092040166
000160 5c 28 78 3d 2c 1c 9d 3c e9 a3 91 3d 83 3f c5 3d
       0.060585365 0.019178472 0.071113415 0.096312545
000170 41 db a6 3c f7 97 86 3d 81 7b c3 3d 21 04 56 3c
       0.02036822 0.06571954 0.09545041 0.013062508
000180 d9 1a 87 3d a9 b8 ad 3c c7 8e c3 3d de 25 d4 3d
       0.06596918 0.021206217 0.09548717 0.10358785
000190 63 f9 6f 3d 0b 62 33 3d 39 49 de 3d 9b f3 57 3d
       0.058587443 0.043794673 0.1085381 0.052722555
0001a0 08 c5 23 3d 81 97 d5 3d a3 6e 84 3c 4d 05 49 3d
       0.039982826 0.10429288 0.016166037 0.04907732
0001b0 66 fd 3b 3d cb 05 c0 3d 8e 22 67 3d a5 6f 52 3d
       0.045895956 0.09376105 0.05642944 0.051376004
0001c0 c1 7a d0 3d 93 3c 60 3d 14 2c 3b 3d 4a 56 79 3d
       0.101796634 0.054745268 0.045696333 0.060873307
0001d0 58 75 47 3d 3d 10 52 3d 19 68 b0 3c 96 63 b1 3c
       0.048695892 0.051285017 0.021534013 0.021653932
0001e0 1b 69 23 3c 87 42 a7 3d 62 e8 9a 3d ae b5 40 3d
       0.00997379 0.08166986 0.07563855 0.047048263
0001f0 2a 43 77 3d 12 ae e2 3c 62 9c 2a 3d 43 fa c6 3d
       0.060366787 0.027670894 0.041653045 0.097157024
000200 c5 b2 85 3c df 68 bb 3d a6 7c 50 3d b3 47 cb 3c
       0.016320596 0.09150862 0.050900124 0.024814462
000210 f0 a9 9f 3b 53 e4 46 3c 69 13 b5 3c 2a c8 db 3d
       0.004872553 0.012139398 0.022103982 0.10731538
000220 6b 17 8e 3d 84 74 06 3d 38 0c 8b 3c 96 91 78 3c
       0.069380604 0.03282596 0.0169736 0.015171429
000230 40 6c 81 3d e0 2b 96 3d b4 0e 8f 3d 50 e0 6d 3d
       0.06319475 0.07332587 0.06985226 0.05807525
000240 89 66 94 3d a4 e4 b8 3c b3 ec b3 3c de fb 1a 3c
       0.072461195 0.022569962 0.021963453 0.009459464
000250 e7 bb e5 3c f7 68 d7 bc d3 ba 51 bd 4d 47 e0 bb
       0.0280437 -0.026295168 -0.05120356 -0.006844437
000260 b3 87 5a bd d7 bd 7e bc 3a 76 18 3c f1 e1 f5 3c
       -0.05335207 -0.015548191 0.009305531 0.030014964
000270 b8 be ab bb 0c 4c aa 3c 01 37 5e 3c 84 e3 12 bd
       -0.0052412413 0.020788215 0.013562919 -0.035861507
000280 34 b8 14 3c 82 13 82 3d 00 32 57 bc 56 fe 17 bd
       0.009077121 0.06351377 -0.0131344795 -0.037107788
000290 91 37 38 3c fa 40 c6 3c 02 2f 58 bd b6 2b 89 ba
       0.011243717 0.024200905 -0.052779205 -0.0010465297
0002a0 fc 44 10 3c f6 a7 81 bd 84 43 22 bd e8 bc 85 bd
       0.00880551 -0.06330864 -0.03961517 -0.06530172
0002b0 c4 f8 d3 3b 12 ed 84 bd 14 38 9c bc 50 95 49 bd
       0.006468864 -0.0649053 -0.019069709 -0.04921466
0002c0 48 dd a9 bc f2 11 8d bd bb 63 ab bd 3e f9 a0 bd
       -0.020735398 -0.068881884 -0.083686315 -0.07860039
0002d0 3b fd b2 bd c9 14 8c bc 54 73 a4 bd 91 88 b5 bd
       -0.08739706 -0.017099755 -0.080298096 -0.088639386
0002e0 23 85 21 bd 12 a0 84 bd 94 eb b9 bc 16 77 5e bd
       -0.03943361 -0.064758435 -0.02269534 -0.054312788
0002f0 fe 91 13 bd 19 a5 23 3c ea 17 0d bc c9 f0 a5 bd
       -0.0360279 0.009988093 -0.008611659 -0.08102567
000300 7e ca df bc 39 45 60 bd 90 fc 9b bd e2 e5 89 bd
       -0.027318235 -0.054753516 -0.07616532 -0.067333
000310 27 7c d7 3d c7 f5 a8 3d a6 52 6f 3d 83 46 2b 3d
       0.10521727 0.08250003 0.05842843 0.041815292
000320 42 c4 5e 3d 9c 74 c7 3d 4a eb 09 3d cf e3 c0 3d
       0.054386385 0.09739038 0.033671655 0.09418451
000330 79 e9 99 3d d6 48 77 3c df f9 18 3d 3d 30 85 3d
       0.075152345 0.015093049 0.03734767 0.06503341
000340 2f c6 2c 3c d3 1b 06 3d 37 80 c4 3d 46 47 d3 3d
       0.0105452975 0.03274138 0.095947675 0.10316329
000350 b6 af 9a 3d 8a 9d 6d 3c 88 68 c7 3d 48 70 9d 3d
       0.075530455 0.014502892 0.09736735 0.076874316
000360 63 69 c3 3d ce 01 6a 3d f8 39 20 3c 04 cf be 3d
       0.09541585 0.057130627 0.009779446 0.09316829
000370 a6 68 b3 3d 92 43 87 3c 86 e4 ba 3d b0 a2 6a 3d
       0.087601945 0.016511712 0.09125619 0.057284057
000380 f0 14 06 3d 0a 66 85 3d cc 36 7f 3d b5 60 87 3d
       0.03273481 0.06513603 0.062308118 0.06610242
000390 20 24 30 3d 60 e4 a4 3d fe 3c 0d 3d af 14 d3 3c
       0.0430032 0.080513716 0.034481995 0.025766699
0003a0 e7 93 bf 3d bf ae 78 3d bf 2d ca 3c cb 04 b5 3d
       0.09354382 0.060713526 0.024680017 0.08838805
0003b0 1d 7f c0 3d 8e 05 85 3d 5a 76 cb 3c 3d 36 82 3c
       0.09399245 0.064952 0.024836708 0.015895003
0003c0 8d 3f 89 3c 07 f5 3c 3d 2f b3 57 3d 6d 3f ba 3d
       0.016753936 0.046132114 0.052661117 0.09094129
0003d0 0c 00 d5 3c 1b d1 3f 3d df b9 aa 3d 7e 19 d2 3d
       0.026000999 0.046830278 0.08336233 0.102587685
0003e0 9c c9 9e 3d d1 2d cf 3d 0e 59 b8 3d 04 10 11 3d
       0.07753298 0.10116161 0.09001361 0.035415664
0003f0 63 09 83 3d ee 38 9a 3c e7 18 99 3d 63 1b 9b 3d
       0.06398275 0.018825974 0.07475453 0.07573583

model.hidden_layers.2.bias f4 [8]
000000 74 a6 df 3d c1 66 52 3d c0 dc 82 bb 04 b7 ba bc
       0.1092042 0.051367525 -0.0039936006 -0.022792347
000010 af 61 91 bd 13 9f 58 bd b6 81 b8 bd 7c 4e 6a 3d
       -0.0709871 -0.05288608 -0.090091154 0.057203755
