outputs/ConvRNN_D1_K7_H8_SS4.2_04_20-53-35/checkpoints/model-epoch=02-validation_loss=0.01.ckpt (torch, 61790 bytes, 18 tensors)

model.bias f4 [8]
000000 0d a0 80 bf e9 2d 61 be d6 4e b9 be d3 d2 c9 be
       -1.0048844 -0.2199017 -0.3619296 -0.3941866
000010 f0 5c 76 bf ba fd e0 3f 7f 06 d2 3d 75 fd d1 bf
       -0.9623556 1.7577431 0.10255145 -1.6405474

model.input_layers.0.weight f4 [8, 1, 7, 7]
000000 03 fd dc bc 0d ab 33 be d1 55 d8 3d cb a0 a0 3d
       -0.026976114 -0.1754572 0.10563243 0.07843169
000010 c0 4b 42 bd f5 4e 7b bc 34 6d 85 bd a6 c0 23 be
       -0.047435522 -0.015338649 -0.065149695 -0.15991458
000020 c2 95 0e 3e 55 fa a2 3c d9 bf 82 3e 78 e2 c8 3d
       0.13924316 0.019894758 0.25536993 0.098088205
000030 e1 69 47 3c 84 d3 27 be 54 ea dd 3d 43 fa 53 3c
       0.01217124 -0.1638928 0.1083571 0.012938085
000040 04 2c 58 3e 6c 32 85 3e 0c 33 17 3e 6e bc 06 3d
       0.2111054 0.2601503 0.14765567 0.032894544
000050 71 ee 09 be c2 73 61 3e 1c f5 47 3e a2 e0 42 3e
       -0.13469864 0.22016814 0.19527096 0.19031003
000060 d4 95 4c 3e 6d 21 80 3e 47 49 53 3e bc 2e 3d bd
       0.1997903 0.25025502 0.20633422 -0.046187147
000070 bc 89 86 bd 51 df 87 3d 45 9e 34 3e 2f d8 8c 3e
       -0.065692395 0.06634391 0.176385 0.27508685
000080 f9 fb 24 3e 77 94 7d 3d 9f 30 ef 3d 5a 8e 83 bb
       0.16111745 0.061909165 0.116791956 -0.0040147724
000090 cc da a5 bd f7 56 37 3e 10 c7 80 3d c5 84 21 bd
       -0.08098373 0.17904268 0.06287968 -0.03943326
0000a0 38 28 ee 3d b6 fb 01 bd 3b 4c c2 bd ef 24 bd 3b
       0.11628765 -0.03173419 -0.09487196 0.005772225
0000b0 8f 76 f4 bc 40 10 42 3e 39 93 83 bd 09 26 ef bc
       -0.02984169 0.18951511 -0.06424565 -0.029192941
0000c0 6f 55 25 be 5e 21 f7 3d 9c 1d a8 3d d5 21 40 bd
       -0.16145872 0.12066911 0.082087725 -0.046907265
0000d0 e2 39 e2 bd a8 1b 0d bd 66 a1 c4 3d 23 61 e2 3d
       -0.110461965 -0.034450203 0.09601097 0.110536836
0000e0 b0 ba 80 3d 3c ed f6 bc eb 11 ff bd 05 e6 bd bd
       0.06285608 -0.030142419 -0.124545895 -0.09272388
0000f0 ed 2b 1b bd 7b 6d 52 3d 38 96 16 3d 9f a5 8f bc
       -0.037883688 0.05137394 0.036764354 -0.017535029
000100 98 30 07 be e7 9f c4 bb 91 ce a2 bd 1c a6 a4 3c
       -0.13202131 -0.006000507 -0.07949556 0.020098738
000110 47 61 e4 bd 01 da cb 3d e8 7e 42 be 31 b0 47 be
       -0.11151367 0.0995369 -0.18993723 -0.19500805
000120 b5 f7 05 be 8e ac cc be e3 f0 54 bd 5e 19 1e be
       -0.13082774 -0.399754 -0.05198754 -0.15439364
000130 97 23 3c 3c 20 fb 58 bd 1d 50 42 bc 5d 76 c8 bb
       0.011483095 -0.052973866 -0.011859921 -0.0061176256
000140 88 d8 46 be 99 21 48 be 75 3e 3c 3d 6e 76 b2 3d
       -0.19418538 -0.19544066 0.045958 0.08713995
000150 29 1d 7f 3c 00 dc 0c 3c 3e a9 bc bd 89 33 58 be
       0.015570917 0.008597374 -0.09211968 -0.21113409
000160 72 61 f8 3d df f3 28 3d c2 53 65 3d 1f ee a4 3b
       0.12127961 0.0412482 0.05598808 0.005033269
000170 94 44 62 3e 6b 1e 6d 3d 53 2a 82 3d 17 c5 83 3c
       0.22096473 0.057890337 0.06355729 0.01608519
000180 f2 f4 8a bd 7f d9 1b bc 3f 82 88 3c 7b 55 eb bc
       -0.06785001 -0.009512304 0.016663669 -0.028727284
000190 3d e3 ba 3d 72 87 db bc 7c 84 43 3d 29 8f 94 3c
       0.091253735 -0.026797984 0.04773377 0.01813467
0001a0 e4 94 1c 3e 5f 2f e4 3d ba 29 85 bd 3a a2 0c 3e
       0.15291172 0.11141848 -0.06502099 0.1373376
0001b0 2f f3 fd 3d f0 af ce 3d bb 1f f4 3d 92 ca 64 3e
       0.12399899 0.10092151 0.119201146 0.223429
0001c0 2f 36 43 3d ec 25 d1 bb de 1e 72 3c 37 e8 27 3d
       0.047659095 -0.0063826945 0.014777867 0.04099294
0001d0 45 dd c6 bd b9 b2 e8 bc 5d e5 4e 3e fa af 65 bd
       -0.097101726 -0.028405534 0.20204683 -0.056076027
0001e0 47 f1 06 be f1 db 28 be 62 6f 30 be 52 54 fc bd
       -0.13177978 -0.16490151 -0.17229989 -0.1232077
0001f0 ee fc 94 3c ca f1 93 bc 75 f1 16 3d 18 b7 3e bd
       0.018187013 -0.01805963 0.036851365 -0.04656133
000200 5f b7 95 bc 3e 96 00 be 52 ff d2 3c 95 29 c4 bc
       -0.018275915 -0.12557313 0.025756512 -0.02394561
000210 5d 98 58 3e a6 3a aa 3c 51 06 1d be d8 05 27 3e
       0.21151872 0.020779919 -0.15334441 0.16310823
000220 3b f7 32 3d bf 71 ae bd 9f 1c ca bb d7 4e a6 3d
       0.04369281 -0.08517789 -0.0061679627 0.08120506
000230 cc db ed 3d 67 9f d8 bd 64 0a 7d bd 16 64 d3 3d
       0.116141886 -0.105772786 -0.061777487 0.10321824
000240 8a 0c e9 bd 33 2c 38 3e 5e 52 d4 3c 1d dc 1c be
       -0.11379345 0.1798561 0.025918182 -0.15318342
000250 b8 9d 81 be ad 54 49 bc c7 42 54 3e ba 88 9a 3d
       -0.25315642 -0.012288255 0.20728599 0.0754561
000260 0d 0d 33 be 6f 9a 7f be 25 be 81 be 3c 46 a8 3c
       -0.17485447 -0.24961255 -0.2534038 0.020541303
000270 2d 89 8e bd c0 ca d4 3d f2 09 25 be 63 7c f5 bd
       -0.06959758 0.10390234 -0.16117075 -0.119866155
000280 c1 7b 56 bd e2 a3 38 be ca 54 8d 3d 1f d2 a1 3d
       -0.052364115 -0.18031266 0.06900938 0.079014055
000290 48 32 c9 3e 2d 97 9f 3d 50 f4 e7 3c e1 bf 1b bd
       0.39296174 0.07792506 0.02831474 -0.038024787
0002a0 6b e7 8e 3d f4 17 be 3d 21 54 70 3e cf 4d 07 3f
       0.06977733 0.092819124 0.23469593 0.528531
0002b0 ba bf ae 3e d7 5d 7d 3e 03 e4 63 3e 51 e1 69 bd
       0.3413065 0.24742828 0.22254948 -0.057099644
0002c0 7c 48 2c 3d 62 05 01 3d 62 2d bc 3e a1 b0 60 3e
       0.042061314 0.031499274 0.36753374 0.21942379
0002d0 37 0a 1b 3d 76 5d 53 3b 53 9c b6 bd b1 b1 86 bd
       0.03785154 0.0032251752 -0.08916535 -0.06576861
0002e0 57 18 32 3d d8 3f 21 3e c0 cf 22 bd 22 e8 c2 ba
       0.043480244 0.1574701 -0.039748907 -0.0014870206
0002f0 87 4a 8e be d9 4f b9 bd 1d aa 6b be a2 61 27 bd
       -0.27791235 -0.09048433 -0.23014112 -0.040864594
000300 ed bb 95 3e e3 c1 07 be 74 37 6a bd e5 a1 10 be
       0.29244938 -0.13257556 -0.05718179 -0.14124258
000310 c7 33 17 3d 7b ab 84 3d 2b 29 69 3e db 02 35 3e
       0.036914613 0.0647802 0.2276961 0.1767687
000320 e3 ac 8a 3e 28 06 12 3e bd 01 8b bd 40 4d 28 3e
       0.27085027 0.14260161 -0.06787441 0.16435719
000330 d4 f4 08 3e d6 4b 72 3e e3 e1 46 3e 03 9c 08 3e
       0.13374645 0.23661742 0.19422106 0.13340764
000340 50 48 0a be 53 3d d5 b9 fc e4 74 3d e6 61 11 3e
       -0.13504148 -0.00040672216 0.05978869 0.14197502
000350 b8 1f 53 3d 1d 9a 62 3e 01 3a 1b 3e 3e 79 44 be
       0.05154392 0.22129102 0.15158845 -0.19186875
000360 73 fa 4a be a9 1f 9f 3e 83 63 80 3e 20 c2 8a 3e
       -0.19822101 0.31078842 0.2507592 0.2710123
000370 ca 5f bd 3e 77 12 62 bd 3c b3 a0 3d 19 f8 18 be
       0.36987144 -0.05519339 0.07846686 -0.14938392
000380 48 c5 20 3e 21 82 a0 3c 73 16 00 3e d4 1e 98 3d
       0.15700257 0.0195933 0.12508564 0.07427755
000390 b1 a8 59 3c ad 45 97 bd 01 09 37 be 88 cd 71 bc
       0.013284848 -0.073863365 -0.17874528 -0.014758475
0003a0 39 53 08 3d 42 2f 89 3d 8e 11 49 3e 61 48 d7 39
       0.033282492 0.06698467 0.19635603 0.00041061922
0003b0 ec 92 26 3c ea 95 4f be b1 73 52 bd fc b4 7d 3d
       0.010166865 -0.20272031 -0.051379863 0.06194018
0003c0 dc 61 2e 3e 02 32 87 3d 9f 4d 07 bd 7c 22 5b be
       0.17029518 0.06601335 -0.03303301 -0.21399873
0003d0 e2 b1 ae bd ae 5f fe bd 85 83 29 be 86 2d 07 3d
       -0.08530022 -0.12420593 -0.16554077 0.0330024
0003e0 f9 2a e3 3c 55 44 08 be 19 94 1b be a1 fb bc be
       0.027730452 -0.13307317 -0.15193214 -0.36910728
0003f0 ea 52 dd 3d 9c 54 0e 3e ad d2 d3 3d fe 25 8d 3e
       0.1080683 0.13899463 0.103429176 0.27568048

model.input_layers.0.bias f4 [8]
000000 e2 4c b9 bd 98 aa f3 bc 41 d1 88 bf c3 da 58 bf
       -0.09047867 -0.029744431 -1.0688859 -0.84708804
000010 1c dc 04 be ca 99 bf be 7f 87 2d be 4b 67 22 3f
       -0.1297459 -0.3742202 -0.16946219 0.6343886

model.hidden_layers.0.weight f4 [8, 8, 7, 7]
000000 09 8c 3b be fb df 4e be 52 c2 6c be 15 4b 6c be
       -0.18315138 -0.2020263 -0.23121002 -0.23075517
000010 24 82 70 be 64 09 89 be 1f 2c 8d be 3a 54 79 be
       -0.23487145 -0.26764977 -0.27572724 -0.24348536
000020 19 f9 80 be 3b 40 8c be 38 63 76 be b5 cd 6c be
       -0.25190046 -0.27392754 -0.24061286 -0.23125346
000030 f2 18 4e be 61 01 92 be e4 05 6b be e0 c7 89 be
       -0.20126703 -0.28516677 -0.22951466 -0.26910305
000040 b6 e3 58 be 3c 73 4b be 60 a3 84 be e0 18 7e be
       -0.21180615 -0.19868177 -0.25905895 -0.24814177
000050 46 93 6f be 8b aa 86 be 9d dd 8c be d2 80 7a be
       -0.23396024 -0.2630199 -0.27512828 -0.24463204
000060 5e a8 89 be 06 f6 64 be 50 33 79 be 22 5a 87 be
       -0.26886266 -0.22359475 -0.2433598 -0.26435953
000070 e4 06 87 be 3a ec 64 be 44 ab 61 be 49 f4 5b be
       -0.26372445 -0.22355738 -0.22037989 -0.21479906
000080 bd 3a 80 be 40 a8 6a be 34 c3 69 be 3d ab 79 be
       -0.25044814 -0.22915745 -0.2282837 -0.24381728
000090 22 09 97 be 0b af 96 be 9c ca 43 be 5b 9c 51 be
       -0.29499155 -0.29430422 -0.19120258 -0.20469801
0000a0 75 3c 92 be a3 2d 94 be fb a2 8b be da 1f 5d be
       -0.2856175 -0.28941068 -0.27272782 -0.21594182
0000b0 83 bd 66 be ee fb 62 be 9a ed 92 be e9 ba 5c be
       -0.2253323 -0.22166416 -0.286969 -0.21555676
0000c0 45 7a 5c be f2 4d 70 3d c3 f5 3f bd 17 92 33 bd
       -0.21531017 0.058668084 -0.046865236 -0.043840494
0000d0 17 31 0d bd ac 4e da bc fa 3e c3 bb c3 63 25 3d
       -0.034470644 -0.026648842 -0.005958435 0.040378343
0000e0 c2 2e 24 bd 79 8e 3d bd e6 65 a4 bd 82 f0 a5 bc
       -0.040083654 -0.04627845 -0.08027248 -0.020256285
0000f0 88 f1 d3 bc 2f f7 d0 3c 09 2d e4 3b 33 bb 70 bc
       -0.025872007 0.025508491 0.0069633764 -0.014693069
000100 6a d0 10 bd 53 1a 53 bd bb 65 3c bd 23 b1 1f bd
       -0.03535501 -0.051538777 -0.045995455 -0.03898729
000110 25 bc 89 bc 24 25 94 bd 50 8b b9 3c 17 dd 8d bd
       -0.016813347 -0.072336465 0.022649437 -0.06926935
000120 f6 eb aa bc 37 d7 9f bd cd 06 38 bd 1e 2d 65 bc
       -0.020864468 -0.07804721 -0.04492836 -0.013987808
000130 f1 12 81 bd dc 93 3f bd 8d 02 ed bc e3 13 e8 bc
       -0.06302441 -0.04677187 -0.02893188 -0.028329795
000140 bf 33 be bd 3e 1d 9b bd 45 9f 74 bd aa 53 6f bd
       -0.092872135 -0.07573937 -0.059722204 -0.058429398
000150 2f 40 ed bc 77 46 53 bd 19 6c be bb 69 c8 41 bd
       -0.02896127 -0.051580872 -0.005811226 -0.047310267
000160 24 0b 92 bc 29 a3 ad bc 6b f8 8d bd 3d 04 32 bc
       -0.017827578 -0.021195965 -0.069321476 -0.010865268
000170 82 6a 2f bc 61 a8 8c bd fb 27 93 bd da dc ca bc
       -0.010706546 -0.06868053 -0.0718536 -0.024763513
000180 d2 ea 2b bd 4b ad 7d bd 57 57 80 be 5a 0c 5d be
       -0.04197199 -0.061932843 -0.25066635 -0.21586743
000190 26 a0 77 be 14 d3 9b be 65 c2 8f be f3 b0 95 be
       -0.24182186 -0.30434477 -0.28078 -0.29236564
0001a0 02 92 8a be b1 8f 92 be b0 b4 8d be 99 4d 86 be
       -0.2706452 -0.28625253 -0.27676916 -0.26231077
0001b0 53 5d 76 be db 21 99 be 0c d2 aa be 96 28 86 be
       -0.24059038 -0.29908642 -0.33363378 -0.2620284
0001c0 94 ab 5e be b7 70 a3 be 6a f7 93 be db a9 8d be
       -0.2174514 -0.31921932 -0.288997 -0.27668652
0001d0 30 ec 88 be 8d bc af be d7 2f 92 be 88 5f 73 be
       -0.26742697 -0.3432354 -0.28552124 -0.23766911
0001e0 9d 69 ab be 36 b5 b3 be 0a e5 a5 be 28 a3 b5 be
       -0.33479014 -0.3509919 -0.32401305 -0.3547604
0001f0 62 56 ae be 61 e6 a6 be eb a9 88 be 00 e7 9d be
       -0.3405028 -0.3259764 -0.26692137 -0.30840302
000200 6c 50 8c be 55 79 ad be f1 49 ae be 18 55 b3 be
       -0.27405107 -0.33881631 -0.34040788 -0.3502586
000210 94 83 8c be 99 a3 77 be a8 8b 86 be bc 3d a4 be
       -0.27444136 -0.24183501 -0.26278424 -0.3207835
000220 d2 cb 98 be c3 f3 b3 be 00 00 a7 be e1 54 9a be
       -0.29843003 -0.35146913 -0.32617188 -0.30142882
000230 74 c1 a0 be d9 da a1 be 2c 52 a7 be 6f 6b bf be
       -0.31397593 -0.3161228 -0.3267988 -0.37386653
000240 8e 60 ad be 08 97 a6 be 44 8c a4 be 91 ba c3 bd
       -0.33862728 -0.32537103 -0.32138264 -0.09557069
000250 a5 0c bd bc 7f 18 ff bb de d8 30 bd 09 cb 15 3c
       -0.023077318 -0.0077849026 -0.04317557 0.009142646
000260 cf ff 86 ba b5 39 86 bc 2c cb e5 bd f2 77 44 bd
       -0.0010299626 -0.016384939 -0.112203926 -0.04796595
000270 aa ca c2 bc 0c df a1 bd 18 d3 bf bb ea f9 2d bd
       -0.023778278 -0.07903871 -0.0058540218 -0.042474665
000280 cc 45 7d bd 3c d5 60 bc df a4 f9 bb 13 c2 51 bb
       -0.06183414 -0.013722714 -0.007618531 -0.0032006546
000290 23 8c b6 bd bb 44 e5 3b 62 cb b6 3c 51 5f 91 bc
       -0.08913448 0.0069967187 0.022313777 -0.017745646
0002a0 9b 55 b2 bd a9 ce 79 bd 30 26 b9 bd 71 75 97 bd
       -0.08707734 -0.060988102 -0.09040487 -0.07395447
0002b0 eb 48 a3 b9 f0 2c 76 3b bf 43 a4 ba 95 74 a3 bd
       -0.0003114411 0.0037563406 -0.0012532397 -0.07981221
0002c0 1b 1b 21 bc 83 9f 4b bd bf ac 62 bb ec 05 41 bd
       -0.009833123 -0.04971267 -0.0034587828 -0.04712479
0002d0 41 71 3a bc c3 89 e2 bc e8 2a 5d bd b2 3a 87 bd
       -0.011379541 -0.02765358 -0.053995997 -0.06602992
0002e0 d7 48 1c bd 57 52 c1 bc ed 2b 31 bd b2 ef ad bc
       -0.038155403 -0.023598833 -0.04325478 -0.02123246
0002f0 5d 91 1d 3c e3 eb 98 bd bf 0b 8b bd a5 66 4e 3c
       0.009617177 -0.07466867 -0.0678935 0.012597715
000300 1d b8 68 bd d1 5f f5 bc f1 fd 0a bd 60 f4 95 bc
       -0.05681621 -0.029952915 -0.033933584 -0.018305004
000310 f6 62 52 be 02 bc 47 be 22 2b 4f be 98 31 50 be
       -0.20545563 -0.19505313 -0.20231298 -0.20331419
000320 55 c4 1a be 54 c6 3d be d6 c3 5f be ba cd 17 be
       -0.15113957 -0.18532687 -0.21852049 -0.14824572
000330 16 31 53 be 09 77 fd bd 2a ec e8 bd 82 66 dd bd
       -0.20624194 -0.1237622 -0.1137317 -0.108105674
000340 97 a4 e1 bd a4 e0 30 be 86 82 1b be 7e 9e 03 be
       -0.11017721 -0.17273194 -0.1518651 -0.12853429
000350 fb 21 13 be 9f e7 3f be 1d 9b 2f be 60 63 e2 bd
       -0.14368431 -0.187407 -0.17149015 -0.110541105
000360 ff ee 1b be 66 52 5b be a2 2f d4 bd f5 14 47 be
       -0.15227889 -0.21418151 -0.10360648 -0.19441588
000370 c9 30 05 be 0d ee ec bd 7b 67 1d be 25 39 0b be
       -0.13006891 -0.11568842 -0.15371506 -0.13596018
000380 c7 35 31 be c0 3b 19 be c8 c5 14 be 4d 67 da bd
       -0.1730567 -0.14964199 -0.14528573 -0.10664234
000390 17 40 22 be d7 e0 14 be 08 a5 f0 bd 19 c2 31 be
       -0.15844761 -0.14538895 -0.11750227 -0.17359199
0003a0 7c 9d 33 be 77 d7 29 be ff 18 4b be 96 44 de bd
       -0.17540544 -0.165861 -0.19833754 -0.108529255
0003b0 fe d1 33 be 20 8e 28 be 5d 06 3c be 9f 1c 4c be
       -0.17560574 -0.16460466 -0.18361802 -0.19932793
0003c0 98 8c 4e be ce 1e 30 be 7b d8 01 be aa 3f 2d be
       -0.2017082 -0.17199251 -0.12680237 -0.16918817
0003d0 2f 6a 36 be 18 c6 31 bd 8e 29 f0 bc c6 d7 37 3b
       -0.17813943 -0.043401808 -0.02931669 0.0028052195
0003e0 99 e1 62 bd 30 f9 61 bd 05 d4 1a bd f4 31 db 3c
       -0.055390928 -0.055169284 -0.037799854 0.026757218
0003f0 36 eb 43 3c 81 35 46 3c 8f 18 de bc 6b 57 7e bd
       0.011957934 0.012097717 -0.02711132 -0.062095087

model.hidden_layers.0.bias f4 [8]
000000 2f bf 1b bd c8 e0 ce be 2e e5 00 be c0 01 b3 bd
       -0.038024124 -0.4040587 -0.12587425 -0.08740568
000010 e5 c2 f7 bd 12 96 2f be ea d5 08 be 5a fe b9 be
       -0.1209772 -0.17147091 -0.13362852 -0.36326867

model.output_layers.0.weight f4 [1, 8, 7, 7]
000000 e8 0e ea bc 30 18 63 3c 2b e1 1d 3d 64 0e 54 3c
       -0.028571561 0.013860747 0.038544815 0.012942884
000010 dd 0e 0a 3d 98 a7 81 ba 2d 68 95 3c e0 c1 37 3d
       0.03370558 -0.0009891866 0.018238151 0.044862628
000020 38 c2 e3 3c da 70 7c 3d 2e ca 18 3e 9f 05 67 3d
       0.027802572 0.06163106 0.14920875 0.056401845
000030 c1 ce ce 3c a8 8d 8c 3d e9 73 2e 3d 0b 9e a8 3d
       0.025245072 0.06862956 0.04259101 0.08233269
000040 61 b6 23 3e 5e 51 f2 3d 97 4e ed 3d d4 79 4b 3d
       0.15987541 0.11831926 0.115872554 0.04967673
000050 3f c2 95 3d 3f 7b c6 3d 51 ab 1c 3e 7a 95 53 3e
       0.0731244 0.09691476 0.15299727 0.2066249
000060 5f 6e 1c 3e 04 c0 48 3e 92 82 da 3d 58 33 90 3d
       0.15276478 0.19604498 0.106694356 0.07041043
000070 a7 11 50 bc 6c bd 80 3d e1 61 18 3e a5 18 38 3e
       -0.012699521 0.06286129 0.14881088 0.17978151
000080 aa 42 d7 3d 7d 10 b9 3d 4c a2 00 3e 19 6e 18 bd
       0.10510762 0.09036348 0.12561911 -0.037214372
000090 f9 24 b9 3d bb af 7f 3d d7 e9 cf 3d c3 82 10 3e
       0.09040255 0.06242345 0.10152023 0.14112382
0000a0 75 39 5d 3d a1 39 f9 3b 02 b0 5a bd 0c cc e7 3c
       0.054009873 0.007605747 -0.05339051 0.02829554
0000b0 d8 7c e2 3d ce c5 a9 3d 39 20 5d 3d c1 63 32 3d
       0.11058968 0.082896814 0.053985808 0.043552164
0000c0 36 c0 19 3d 33 20 b1 bd c8 ff 82 bd ec 5f 1a bd
       0.037536822 -0.0864872 -0.06396443 -0.037689134
0000d0 1d 62 a1 be ae c0 71 bd 7b e7 54 bd 69 48 4d be
       -0.31520167 -0.059021644 -0.05197857 -0.20047154
0000e0 80 7e 4c bd c4 58 6f bd 64 1b 87 bd 6d 10 c4 be
       -0.049925327 -0.058434263 -0.06597021 -0.38293782
0000f0 c3 38 33 bd 22 95 8f bc a9 80 51 bd b8 97 f9 bd
       -0.043755304 -0.017527167 -0.05114809 -0.12187141
000100 6c f8 87 bd c1 7d e2 bd b7 b9 cf be 3a 97 84 bd
       -0.066391796 -0.11059142 -0.40571377 -0.06474157
000110 8d 41 33 bd b0 f8 79 bd 83 88 9b be db 71 a4 be
       -0.043763686 -0.061028183 -0.30377588 -0.32118115
000120 34 95 d0 be 4e 8f 3b bf fa 6b a9 be 3f b3 a5 be
       -0.40738833 -0.7326554 -0.33090192 -0.32363316
000130 4e bf b0 be 28 4b 8f bd c0 b0 5c bd 98 33 8b bc
       -0.34520954 -0.06996757 -0.0538795 -0.016992375
000140 ec 4a a2 be e6 9f b5 bd bf 0e a1 3c 4d c1 87 bb
       -0.31697786 -0.08868389 0.019660352 -0.0041429163
000150 87 4c ec bc 81 fc db 3b e6 8d 15 bd 9e 2b 91 be
       -0.028845085 0.0067134504 -0.036512278 -0.2835359
000160 fb e5 82 bd bd e6 89 3d 1b f9 88 bb 40 58 f6 bc
       -0.063915215 0.06733463 -0.0041800863 -0.030071378
000170 5a 6e 90 bc e5 88 a6 bd 0a 49 d1 be a3 a5 95 bd
       -0.017630745 -0.08131579 -0.40876037 -0.07306983
000180 ef 89 0a 3c 9f f4 ec bc c3 42 50 bd c3 8b ed bd
       0.0084557375 -0.028925238 -0.05084492 -0.11598923
000190 26 8b fb bd a9 b9 7d bd a4 cd f6 bc 1a 55 1f be
       -0.122824 -0.061944637 -0.030127354 -0.15559807
0001a0 1b e2 fa bd 5c 7e 08 bd bc 85 40 bd f9 b5 5a bd
       -0.122501574 -0.03332363 -0.04700254 -0.0533962
0001b0 3d e2 c4 bd 98 69 ea bd b0 89 d3 bd bd 8a 6f bd
       -0.09613464 -0.11445922 -0.10328996 -0.05848192
0001c0 99 ff ae bd bf 60 96 bc 0d 04 ce bc 46 19 90 bd
       -0.08544845 -0.018356679 -0.025148416 -0.070360705
0001d0 ae 31 5d bc de 8a 11 be 9e 5b b3 bd 9f a0 ac bd
       -0.013500614 -0.1421313 -0.08757709 -0.084290735
0001e0 94 66 d1 bd b9 a3 a9 bd ce b3 21 be 74 b4 ce bd
       -0.10224643 -0.08283181 -0.15791246 -0.100930125
0001f0 fe c2 ca bd 36 fc 1c be 88 fb b4 bd 49 23 9e bd
       -0.09900473 -0.15330586 -0.08837038 -0.07721574
000200 ac 36 88 bd 51 43 b6 bd a6 f1 b0 bc 57 bd f4 bd
       -0.06651053 -0.08899558 -0.021599602 -0.11950176
000210 a3 e7 97 bd cc 4a 44 bd 3b 53 b6 bc a8 ea 90 bd
       -0.07417228 -0.047922894 -0.022256484 -0.07076007
000220 dc 0e 06 bd 7b 14 59 bc d5 f6 9d bd 71 b8 d3 bd
       -0.032729015 -0.013249512 -0.07713095 -0.10337914
000230 1f 7b 17 bd 5b 91 a4 bd 3e bf dd bd 78 6f e6 bd
       -0.03698265 -0.08035537 -0.10827492 -0.1125173
000240 d5 ab 70 bd 06 b2 d7 bd 02 76 0c be 50 5e a7 3c
       -0.05875762 -0.10532002 -0.13716891 0.020430714
000250 bc 06 1b 3c 59 80 31 bc 6e dd 88 3d 37 94 3e 3d
       0.009462055 -0.010833823 0.06682859 0.046528067
000260 32 c9 5a bd 28 b3 0e bd 7a 93 b6 bb 06 1d 73 bb
       -0.05341453 -0.034838825 -0.00557178 -0.0037096157
000270 f6 0b 63 3d 07 ff 1a 3e 1c d2 01 3d 5d 7a fb bc
       0.05543133 0.15136348 0.031694517 -0.030697996
000280 17 04 3c bd fb dc c2 3d 12 93 b0 3d 54 73 84 3d
       -0.045902338 0.09514805 0.086218014 0.064673096
000290 68 e2 3b 3e de b0 7c 3c 43 f5 38 bd 3d 27 95 bd
       0.18348086 0.015423028 -0.045155775 -0.07282875
0002a0 da 86 2b 3e 06 3d 2f 3e e4 91 5f 3e 86 43 4a 3e
       0.1675066 0.17113122 0.21832997 0.1975232
0002b0 03 a1 05 3e c7 3d b5 3d 85 24 d2 3c f8 ea e5 3c
       0.13049702 0.08849674 0.02565218 0.028066143
0002c0 dc f0 80 3d ac f8 3e 3d 29 43 37 3e ce 68 c8 3b
       0.0629594 0.04662387 0.17896713 0.0061160093
0002d0 7a ec ff 39 02 85 bb bc 1e c0 cc bc 45 28 35 3d
       0.0004881358 -0.022890572 -0.024993952 0.044227857
0002e0 0d 2d 70 3c 55 ac 98 3d cc 9e 14 3d 50 55 77 bc
       0.014659178 0.07454745 0.036284253 -0.015096024
0002f0 b0 26 f6 bd 08 67 0f 3c b2 8e 2a bd c9 b7 f5 bc
       -0.12019098 0.008752592 -0.04163999 -0.029994862
000300 63 2a ec 3d a8 91 11 bd 10 8b b7 bc a4 03 85 bd
       0.11531522 -0.0355393 -0.022405177 -0.06494835
000310 62 f4 16 bd 14 c5 26 bd d7 0d c9 bc 89 84 ae bb
       -0.036854155 -0.040715292 -0.024542732 -0.005325858
000320 80 0e 53 3c e8 c9 fe bc 38 2b 66 bc cc 60 2f bd
       0.012881875 -0.031102136 -0.01404839 -0.042816922
000330 c6 3a 8b bd db 74 5d bc 03 43 5d 3d 37 04 92 bd
       -0.067983195 -0.01351663 0.054018985 -0.0712971
000340 7f 4b 80 bd a0 03 ae ba 0f d1 a6 bd 22 8e b4 bd
       -0.062644 -0.0013276227 -0.081453435 -0.08816172
000350 0e 81 17 bd 2c c5 c2 3b cc 06 f1 3c b7 74 10 bc
       -0.03698831 0.005943915 0.029422186 -0.0088168895
000360 83 a4 91 bd 62 11 2f 3d 8c 0b 46 bc 27 a2 06 3d
       -0.07111456 0.042741187 -0.012087714 0.032869484
000370 33 fc 0b 3e 26 03 d8 3c e4 37 33 3d bc 23 79 3d
       0.13670425 0.026368689 0.043754473 0.060825095
000380 19 2e 82 bd 6e 13 60 bd 78 cb 31 3b b4 58 b2 3d
       -0.06356449 -0.05470603 0.0027129333 0.08708325
000390 ea db 24 bd d2 82 9a 3b 78 6c 98 bc 93 38 51 bd
       -0.04024879 0.004715302 -0.01860641 -0.051079344
0003a0 e0 89 91 bc 3e fd 26 3c 9f 2e ee 3c 2e d4 05 bd
       -0.01776594 0.010192214 0.029074965 -0.032673053
0003b0 94 47 e9 bb 0a 06 3c bd 10 e8 a5 3b 0e 70 0b bd
       -0.0071191285 -0.045904197 0.0050630644 -0.03404241
0003c0 78 11 02 bd 46 c3 62 3d 37 db 54 3d 55 02 d7 bc
       -0.03175494 0.05536201 0.051966872 -0.02624623
0003d0 a5 ad f7 bc 73 e5 a3 bd 97 db 09 bc d2 41 33 bb
       -0.030234167 -0.08002748 -0.008414171 -0.0027352464
0003e0 34 2e 19 bc fa 65 6f bd 5b 89 57 bd 44 a2 4c b9
       -0.009349395 -0.05844686 -0.052621227 -0.00019515405
0003f0 42 a5 8e 3b 81 56 2c bc 78 6f 10 bd 79 2b e9 bc
       0.0043531964 -0.010518671 -0.035262555 -0.028463112

exp_avg f4 [8]
000000 ff a9 1d 3b fc 29 74 ba b1 89 5b bb 37 a4 dd 3a
       0.0024057624 -0.00093141175 -0.0033498819 0.0016909902
000010 e7 a2 b9 b8 16 70 15 b8 02 4a 97 3a a4 1f 48 b9
       -8.85183e-05 -3.5628756e-05 0.0011542442 -0.00019085273

exp_avg_sq f4 [8]
000000 b9 39 39 3b 73 2a 24 3c f6 8f 29 3b 7f 73 38 3a
       0.0028263165 0.010019886 0.002587316 0.0007036253
000010 f0 cb 99 36 6f 4c 97 35 ef 44 a2 38 d6 dc 6f 38
       4.583497e-06 1.1272622e-06 7.737602e-05 5.718771e-05

exp_avg f4 [8, 1, 7, 7]
000000 95 59 1d 39 6b 49 4b 39 63 2b 5d 39 d6 ec 43 39
       0.00015006059 0.00019386939 0.00021092365 0.00018684877
000010 a1 ee 5d 39 7d 98 61 39 7c 8c 48 39 55 da 3a 39
       0.00021165099 0.00021514478 0.00019125821 0.00017819677
000020 44 01 77 39 ab 3b 7b 39 26 fa 62 39 cb fb 7a 39
       0.00023556227 0.00023959453 0.00021646227 0.00023935658
000030 0d a1 7f 39 86 ea 6a 39 44 0a 63 39 01 e5 8d 39
       0.00024378691 0.00022403346 0.00021652231 0.00027064237
000040 44 eb 8d 39 f8 55 82 39 87 2e 8c 39 96 d7 8b 39
       0.00027068902 0.00024859584 0.00026737546 0.0002667277
000050 12 de 81 39 42 8b 7b 39 3a be 92 39 84 a1 93 39
       0.00024770253 0.00023989103 0.0002798902 0.00028158363
000060 8b 79 88 39 d3 07 92 39 59 6c 8f 39 2f 1d 84 39
       0.00026030498 0.0002785312 0.0002735581 0.00025198745
000070 3c e6 9b 39 60 2c ac 39 05 30 af 39 19 47 a5 39
       0.00029735442 0.00032839458 0.00033414378 0.00031524224
000080 87 ee ae 39 8e 19 ab 39 7b cf 9c 39 aa da a1 39
       0.00033365583 0.000326347 0.00029909224 0.0003087123
000090 30 2d b2 39 5d 03 b7 39 e9 4f ae 39 00 e2 b7 39
       0.00033984473 0.00034906986 0.00033247404 0.00035072863
0000a0 9e dc b2 39 6e 76 a2 39 91 75 9d 39 04 f4 ae 39
       0.00034115178 0.00030987285 0.00030032967 0.00033369672
0000b0 27 3d b4 39 e7 a2 ab 39 7d fd b3 39 47 2f ae 39
       0.00034377837 0.00032737033 0.00034330404 0.0003322309
0000c0 3e 4a 9d 39 25 9f 84 39 93 dc 8c 39 8b a8 a0 39
       0.00030000688 0.00025295574 0.00026867221 0.00030643152
0000d0 da 44 11 3a 38 57 e1 39 c1 a1 f3 39 4f 44 17 3a
       0.0005541571 0.00042980327 0.00046469088 0.00057703716
0000e0 9f 1e 83 39 4b 02 8d 39 11 30 ab 39 32 b3 16 3a
       0.00025009082 0.00026895324 0.00032651474 0.0005748748
0000f0 b2 f2 de 39 68 f3 e6 39 c2 96 0e 3a f1 fe 9d 39
       0.00042523962 0.0004405037 0.0005439335 0.0003013532
000100 69 3a a3 39 4f 97 d7 39 32 fc 2e 3a 37 99 03 3a
       0.00031133302 0.0004112073 0.0006675153 0.0005020084
000110 f3 9e 01 3a dc 57 18 3a 3a 0f ea 39 78 2a ec 39
       0.0004944645 0.0005811432 0.00044643303 0.0004504507
000120 68 b1 18 3a 3e 92 62 3a 66 21 37 3a b0 96 31 3a
       0.00058247754 0.00086430076 0.0006985873 0.00067744683
000130 e0 a4 44 3a 62 a6 70 39 af 06 66 39 74 f8 b6 39
       0.0007501375 0.00022950166 0.00021936999 0.00034898857
000140 a4 b8 29 3a 07 d9 09 3a b7 e7 0c 3a 01 24 25 3a
       0.0006474352 0.0005258475 0.00053751044 0.00062996155
000150 d4 8d 0e 39 3c 40 ff 38 f4 9c 76 39 f0 90 0d 3a
       0.0001359501 0.00012171312 0.00023518858 0.00054003205
000160 35 07 f2 39 ab d4 05 3a 37 f8 22 3a 1a 7f fe 38
       0.00046163207 0.00051052374 0.00062167965 0.00012135338
000170 ac 39 e7 38 3f 62 61 39 39 b8 07 3a 52 27 f4 39
       0.000110256806 0.00021494272 0.00051772926 0.00046568603
000180 18 8c 0c 3a ca ec 2a 3a aa 5a 88 38 3d 95 12 3a
       0.0005361452 0.00065202697 6.501873e-05 0.0005591696
000190 aa 5e 14 3a e4 e5 0a 3a 93 93 f3 39 a0 ca de 39
       0.0005659858 0.00052985386 0.00046458523 0.00042494107
0001a0 a9 91 ae 39 32 b4 64 39 c9 b0 3a 3a 5c 87 3b 3a
       0.00033296391 0.00021810902 0.000712168 0.0007153654
0001b0 e0 fc 2b 3a 23 1b 1d 3a 92 e3 01 3a 82 74 79 39
       0.00065608136 0.00059931184 0.000495487 0.00023789893
0001c0 3d da 71 39 1a b5 3f 3a a9 ba 3c 3a a3 d5 29 3a
       0.00023064851 0.0007313058 0.00071994454 0.0006478673
0001d0 ef d0 1a 3a 33 ce db 39 9b 61 2d 39 ff 18 7b 39
       0.00059057673 0.00041924565 0.00016534927 0.00023946537
0001e0 8e ed 41 3a e0 97 36 3a b3 6c 23 3a 44 fd 0e 3a
       0.0007397764 0.000696538 0.0006234154 0.00054546096
0001f0 17 63 a4 39 0a 05 f1 38 1c a3 78 39 3b 5c 3e 3a
       0.00031354345 0.00011492714 0.00023711886 0.0007261668
000200 ac 3e 2d 3a 18 58 1d 3a f2 f3 f4 39 ae d3 5d 39
       0.0006608765 0.00060022017 0.0004672106 0.00021155059
000210 0f b8 d3 38 00 39 77 39 ed 9a 37 3a b2 b6 25 3a
       0.000100955476 0.0002357699 0.0007003982 0.0006321474
000220 c8 49 15 3a e6 77 c5 39 14 48 0f 39 5b 4c c7 38
       0.0005694893 0.000376641 0.00013664394 9.503282e-05
000230 e8 dc 75 39 1d 92 2c 3a 0c 40 1f 3a 07 15 05 3a
       0.00023447315 0.0006583052 0.00060749124 0.00050766807
000240 dc 2b 8a 39 df 8c ce 38 6c 91 ba 38 e3 24 dc b9
       0.0002635409 9.849085e-05 8.896258e-05 -0.00041989153
000250 44 f7 d7 b9 db 84 df b9 88 87 f4 b9 81 f6 f0 b9
       -0.00041192223 -0.0004263286 -0.00046640285 -0.00045960027
000260 23 6c ec b9 f8 15 e8 b9 d9 f0 d8 b9 21 7b d4 b9
       -0.00045093996 -0.00044266856 -0.00041378176 -0.0004052753
000270 49 34 dc b9 d4 cd f1 b9 ed 3a f0 b9 26 87 ec b9
       -0.00042000625 -0.00046120456 -0.0004582027 -0.0004511412
000280 bd ac e8 b9 11 fe d5 b9 99 f6 d0 b9 ff 2a da b9
       -0.00044379188 -0.0004081582 -0.0003985658 -0.00041612235
000290 a4 61 f0 b9 f7 fa ec b9 76 a4 e9 b9 57 e8 e6 b9
       -0.00045849115 -0.0004520041 -0.00044563756 -0.00044042125
0002a0 ea 68 e0 b9 f2 e9 dc b9 62 26 e5 b9 71 f6 fa b9
       -0.00042802776 -0.00042135973 -0.0004370688 -0.0004786733
0002b0 61 ee f5 b9 04 05 f2 b9 8a a9 f0 b9 f7 ec dc b9
       -0.00046907648 -0.00046161574 -0.00045902684 -0.00042138222
0002c0 74 b2 da b9 8e 76 e2 b9 06 2a f6 b9 cc 35 f0 b9
       -0.00041713158 -0.0004319441 -0.00046952086 -0.0004581645
0002d0 4d 68 eb b9 06 16 ea b9 8e b9 d7 b9 1c 40 d5 b9
       -0.00044900403 -0.00044648367 -0.00041146245 -0.0004067429
0002e0 0c d3 dc b9 e5 aa ee b9 62 15 e8 b9 d6 91 e2 b9
       -0.00042118912 -0.00045522224 -0.0004426642 -0.00043214735
0002f0 e7 2e e1 b9 c3 75 d9 b9 56 bd d5 b9 41 bc db b9
       -0.0004295029 -0.00041477205 -0.00040767592 -0.00041911195
000300 16 9d eb b9 f3 78 e4 b9 69 89 de b9 1a e9 de b9
       -0.0004493973 -0.00043577663 -0.00042445518 -0.00042516814
000310 d2 e8 13 36 e8 ea 09 36 4a 5f 04 36 ac 65 ba 35
       2.2040226e-06 2.0551324e-06 1.9724998e-06 1.388767e-06
000320 63 43 b3 34 fc 21 15 b5 5f a6 6b b5 d4 6f 03 36
       3.3390378e-07 -5.555628e-07 -8.7786424e-07 1.9585614e-06
000330 3d d0 de 35 1d 7f bc 35 63 d0 76 35 9d b2 0e 35
       1.6600894e-06 1.4044086e-06 9.1945384e-07 5.315904e-07
000340 67 83 98 33 ba 28 61 b4 d5 9c b5 35 a9 39 a5 35
       7.1019535e-08 -2.0969574e-07 1.3531195e-06 1.2310239e-06
000350 82 e2 98 35 96 83 1d 37 f8 67 1e 37 98 c5 16 37
       1.1390805e-06 9.3885665e-06 9.441741e-06 8.986703e-06
000360 f0 a9 09 37 2d 10 e0 34 8e 10 61 35 6c ba a5 35
       8.205403e-06 4.173502e-07 8.384312e-07 1.2347714e-06
000370 2a 5f 9b 37 fd 14 9b 37 09 be 91 37 0a d7 84 37
       1.8521754e-05 1.8487213e-05 1.7373839e-05 1.5835762e-05
000380 3c 52 14 32 94 f9 3f 35 d3 77 35 35 ca b2 92 37
       8.633432e-09 7.151623e-07 6.760212e-07 1.7487811e-05
000390 9d 0c 92 37 f4 ea 85 37 13 39 71 37 95 3e b6 b5
       1.741043e-05 1.5964244e-05 1.4378008e-05 -1.357827e-06
0003a0 1f 09 68 b5 6e 8a dc b5 84 69 7c 37 02 73 78 37
       -8.644001e-07 -1.6431566e-06 1.5044938e-05 1.4808729e-05
0003b0 37 d9 63 37 18 2a 50 37 d3 41 97 b6 9d 94 8d b6
       1.3580829e-05 1.2407567e-05 -4.5078136e-06 -4.2194283e-06
0003c0 4b ef af b6 dd 23 37 37 aa e6 30 37 da a0 23 37
       -5.243264e-06 1.0916e-05 1.0544123e-05 9.753008e-06
0003d0 a0 b3 1a 37 5f 8d 8f 35 58 6a 2d 35 bb 27 b1 34
       9.2209375e-06 1.0695475e-06 6.460227e-07 3.2997727e-07
0003e0 9e b0 9f 34 2e 01 3e 35 ab a0 39 35 60 5c 15 35
       2.9744564e-07 7.078223e-07 6.9151673e-07 5.564125e-07
0003f0 ab 7a 8b 35 c9 6d 02 35 8c 94 19 34 72 7a cd 33
       1.0392008e-06 4.858853e-07 1.4303276e-07 9.568329e-08

exp_avg_sq f4 [8, 1, 7, 7]
000000 c7 5a 7f 39 ca 33 84 39 a7 61 87 39 4a 6d 88 39
       0.00024352512 0.00025215588 0.00025821963 0.00026021368
000010 47 27 84 39 5e f4 7c 39 f3 3b 70 39 c1 7e 85 39
       0.00025206266 0.00024123627 0.00022910516 0.00025462176
000020 25 fc 8a 39 e6 05 8f 39 08 9e 90 39 83 e7 8b 39
       0.00026509273 0.0002727948 0.00027583563 0.00026684636
000030 41 4a 85 39 b7 f1 7b 39 c0 61 89 39 cb ad 8f 39
       0.0002542306 0.00024027271 0.00026203506 0.0002740457
000040 4b a2 94 39 01 df 96 39 1b 1f 92 39 0f 04 8b 39
       0.00028349677 0.0002877638 0.00027870465 0.0002651517
000050 a3 01 83 39 3b d0 89 39 f0 8c 90 39 9e 38 96 39
       0.00024987487 0.0002628582 0.00027570827 0.00028652413
000060 bd 24 99 39 c0 01 95 39 31 3c 8e 39 b2 23 86 39
       0.00029209806 0.00028420798 0.00027129197 0.00025585067
000070 da 8f 83 39 59 2c 8a 39 9d 0d 90 39 8a 5f 93 39
       0.00025093445 0.00026354453 0.00027475963 0.00028109207
000080 ec 2d 90 39 ad 92 8a 39 08 5a 83 39 20 ac 77 39
       0.00027500035 0.00026430693 0.00025053346 0.00023619877
000090 0b fc 81 39 a5 94 87 39 8a ef 8a 39 80 84 88 39
       0.00024792584 0.00025859955 0.00026499882 0.00026038662
0000a0 a6 20 84 39 e2 36 7c 39 d6 96 67 39 67 b1 72 39
       0.00025201327 0.00024053038 0.00022086067 0.00023145006
0000b0 77 bc 7c 39 9c a8 81 39 fe a9 7f 39 46 a8 78 39
       0.00024102801 0.0002473042 0.00024382022 0.0002371381
0000c0 c9 cb 6e 39 c7 eb c8 39 71 f8 ce 39 0a 55 d3 39
       0.00022773365 0.0003832264 0.00039476485 0.00040308415
0000d0 19 b9 d7 39 0d 8d d6 39 80 56 d4 39 d8 04 d1 39
       0.00041145904 0.00040922352 0.00040500239 0.00039867195
0000e0 18 8e cc 39 77 f6 d2 39 9f c5 d7 39 ac 87 dc 39
       0.0003901578 0.00040237952 0.00041155235 0.00042062753
0000f0 6e 67 db 39 4b 21 d9 39 80 ed d5 39 d4 67 ce 39
       0.00041847996 0.0004141427 0.00040803477 0.0003936874
000100 33 33 d5 39 da 8a da 39 30 8a df 39 86 4f de 39
       0.00040664672 0.00041683653 0.00042636832 0.0004240239
000110 a1 de db 39 ba c8 d8 39 3f f1 ce 39 8b 03 d6 39
       0.00041936807 0.00041348283 0.00039471124 0.000408199
000120 b2 88 db 39 55 7f e0 39 92 2f df 39 fb c9 dc 39
       0.0004187278 0.0004281948 0.00042569317 0.00042112157
000130 6b b5 d9 39 f2 68 ca 39 32 6d d1 39 43 ac d6 39
       0.00041524632 0.00038606633 0.00039944943 0.00040945606
000140 18 57 db 39 ec 0b da 39 74 bd d7 39 0c 8f d4 39
       0.00041835825 0.00041589083 0.0004114915 0.0004054237
000150 77 4e c5 39 b5 4c cc 39 ff 3f d1 39 d8 91 d5 39
       0.0003763323 0.00038967063 0.00039911267 0.00040735188
000160 db 20 d4 39 58 7d d1 39 ea 00 ce 39 27 14 bf 39
       0.0004046027 0.00039956975 0.00039292063 0.00036445374
000170 c8 12 c6 39 00 dd ca 39 f2 d1 ce 39 ef f6 cc 39
       0.00037779496 0.000386931 0.00039447803 0.00039093892
000180 2e db c9 39 82 2c c6 39 bb 14 7f 38 ad f6 99 38
       0.0003850101 0.00037798664 6.0816044e-05 7.3415555e-05
000190 e8 0a 9b 38 d1 f2 9a 38 6f 8b 8e 38 14 66 82 38
       7.3930074e-05 7.38852e-05 6.797059e-05 6.2178966e-05
0001a0 b2 19 74 38 8b ba 88 38 9f 60 a4 38 b4 27 a5 38
       5.8198064e-05 6.519732e-05 7.8381265e-05 7.8752084e-05
0001b0 e2 c2 a2 38 aa 35 94 38 65 ee 89 38 c4 b6 80 38
       7.761062e-05 7.067186e-05 6.5770735e-05 6.1375584e-05
0001c0 d3 72 8b 38 77 01 a7 38 71 3f a8 38 4e c7 a2 38
       6.649424e-05 7.9634534e-05 8.022681e-05 7.761885e-05
0001d0 d6 46 95 38 1d 6a 8c 38 af fc 81 38 f7 5e 8c 38
       7.118068e-05 6.695485e-05 6.198265e-05 6.693409e-05
0001e0 cb 9d a8 38 16 50 a9 38 62 44 a1 38 41 58 96 38
       8.0402555e-05 8.073465e-05 7.6898155e-05 7.168996e-05
0001f0 9a 9a 8d 38 c7 76 82 38 ad c6 88 38 69 93 a3 38
       6.752201e-05 6.221007e-05 6.5219916e-05 7.799903e-05
000200 67 4d a1 38 1c 1d 99 38 44 a3 90 38 93 9c 87 38
       7.6914956e-05 7.3010306e-05 6.896866e-05 6.466466e-05
000210 a5 11 7b 38 d5 ce 83 38 f3 c7 9c 38 dc f6 96 38
       5.9859496e-05 6.285092e-05 7.475903e-05 7.1985385e-05
000220 b2 d8 90 38 7e a9 89 38 ed 4e 80 38 d9 58 70 38
       6.906818e-05 6.5642394e-05 6.118217e-05 5.7303205e-05
000230 32 56 7b 38 3e 0a 91 38 51 84 89 38 59 dd 85 38
       5.992334e-05 6.9160466e-05 6.557315e-05 6.3831634e-05
000240 ce c0 7d 38 81 2f 6c 38 c9 2d 5f 38 48 9e 04 38
       6.0499464e-05 5.6311026e-05 5.3209984e-05 3.1618663e-05
000250 d6 65 06 38 4d 37 07 38 70 db 06 38 ec 0d 05 38
       3.204293e-05 3.223801e-05 3.2152457e-05 3.1722637e-05
000260 66 ca 02 38 b3 d1 ff 37 05 bc 06 38 41 ac 08 38
       3.1182914e-05 3.0496018e-05 3.2123196e-05 3.258535e-05
000270 29 91 09 38 e3 56 09 38 e3 92 07 38 a6 35 05 38
       3.2798536e-05 3.2744265e-05 3.2323307e-05 3.1759635e-05
000280 8d 2f 02 38 7b 0d 08 38 0e 22 0a 38 95 29 0b 38
       3.10387e-05 3.243748e-05 3.293348e-05 3.317891e-05
000290 4a 31 0b 38 5e 69 09 38 eb 02 07 38 43 ea 03 38
       3.3186087e-05 3.2761476e-05 3.2189226e-05 3.1451007e-05
0002a0 9b ca 08 38 db ed 0a 38 2b 31 0c 38 eb 72 0c 38
       3.2613618e-05 3.3123284e-05 3.3424392e-05 3.3485627e-05
0002b0 25 ae 0a 38 43 4f 08 38 80 30 05 38 4c a3 07 38
       3.306395e-05 3.2498745e-05 3.175484e-05 3.233859e-05
0002c0 a3 a0 09 38 33 16 0b 38 ef 70 0b 38 1d d0 09 38
       3.281295e-05 3.3160857e-05 3.324536e-05 3.2857166e-05
0002d0 b3 90 07 38 13 94 04 38 76 ee 05 38 f4 c3 07 38
       3.232127e-05 3.1609157e-05 3.1931755e-05 3.2369004e-05
0002e0 62 6d 09 38 d0 dc 09 38 6b 62 08 38 cb 46 06 38
       3.2765216e-05 3.2868993e-05 3.2516586e-05 3.201402e-05
0002f0 12 77 03 38 a6 31 03 38 1a 01 05 38 88 ba 06 38
       3.1343727e-05 3.1279073e-05 3.1710697e-05 3.212181e-05
000300 71 38 07 38 a9 de 05 38 aa e8 03 38 b1 50 01 38
       3.2239073e-05 3.191704e-05 3.144952e-05 3.0831146e-05
000310 42 f9 0c 33 08 ab 0e 33 91 43 08 33 ee 4d 02 33
       3.282299e-08 3.3217503e-08 3.172642e-08 3.033886e-08
000320 f5 52 f3 32 33 e1 d6 32 08 35 c0 32 b7 eb 16 33
       2.8326648e-08 2.5015288e-08 2.2375858e-08 3.5138978e-08
000330 ff 5d 18 33 91 60 12 33 6e ef 0d 33 f4 ee 03 33
       3.5475747e-08 3.40811e-08 3.304688e-08 3.071814e-08
000340 b5 54 e3 32 00 20 d1 32 42 23 1c 33 a3 45 1d 33
       2.6464798e-08 2.4345354e-08 3.6353647e-08 3.6617745e-08
000350 96 51 19 33 06 03 16 33 86 5a 08 33 1f 5d f1 32
       3.569729e-08 3.4927346e-08 3.1747298e-08 2.809844e-08
000360 c7 ff e0 32 91 5d 1e 33 8f 2f 1f 33 3d 20 1d 33
       2.6193346e-08 3.687234e-08 3.7063327e-08 3.658373e-08
000370 be 0f 1a 33 ad f9 07 33 8a de f9 32 03 0c ec 32
       3.5870237e-08 3.1659216e-08 2.9088614e-08 2.7479478e-08
000380 48 dc 19 33 57 b1 1a 33 f8 25 19 33 f8 40 13 33
       3.5823433e-08 3.601721e-08 3.565762e-08 3.4285193e-08
000390 ad ca 01 33 d7 71 f4 32 1a 47 eb 32 30 c0 12 33
       3.0219486e-08 2.8457107e-08 2.7389934e-08 3.4168067e-08
0003a0 e9 d8 13 33 3c e9 11 33 ec 70 07 33 aa bd f5 32
       3.4423383e-08 3.397257e-08 3.153484e-08 2.8608003e-08
0003b0 3c 98 ea 32 91 a8 e6 32 32 0a 0a 33 73 7b 0b 33
       2.7310413e-08 2.685218e-08 3.21399e-08 3.2475736e-08
0003c0 31 90 08 33 58 5e f8 32 bc 21 e9 32 4f c6 e0 32
       3.179611e-08 2.8913902e-08 2.714011e-08 2.6167212e-08
0003d0 3c e3 e0 32 1e 3d bd 30 aa 8c c0 30 a6 74 c1 30
       2.6180366e-08 1.376893e-09 1.4009818e-09 1.4075752e-09
0003e0 7b ce 11 31 08 77 0f 31 70 a9 00 31 13 d0 f9 30
       2.1217648e-09 2.08769e-09 1.8722766e-09 1.8176273e-09
0003f0 66 28 c3 30 e9 d3 c6 30 52 07 c8 30 df 11 15 31
       1.4199599e-09 1.4466625e-09 1.4553996e-09 2.1692512e-09

exp_avg f4 [8]
000000 0f 49 07 3a 17 84 f7 ba 77 e3 47 38 19 87 f8 b9
       0.0005160728 -0.001888397 4.765714e-05 -0.00047402902
000010 64 e0 0a 37 93 75 e6 36 c2 59 47 b8 80 1b 64 b9
       8.277686e-06 6.8682216e-06 -4.752889e-05 -0.00021754019

exp_avg_sq f4 [8]
000000 1f bd 09 3b 9d 18 68 3b 00 77 39 39 e9 15 7d 38
       0.0021017266 0.0035415061 0.00017687306 6.0340306e-05
000010 3a f0 d9 34 d9 e9 97 33 68 9b 4a 37 7c 76 4b 38
       4.0594188e-07 7.074022e-08 1.2076322e-05 4.850932e-05

exp_avg f4 [8, 8, 7, 7]
000000 53 b4 a1 b4 0b a5 c8 b4 a1 03 ae b4 38 59 a7 b3
       -3.011979e-07 -3.7372988e-07 -3.2412666e-07 -7.792772e-08
000010 63 23 cd b2 37 ec 83 b2 02 ab f9 b2 e1 e3 b6 b4
       -2.3881233e-08 -1.5357825e-08 -2.906518e-08 -3.4065945e-07
000020 f4 35 d3 b4 2b d8 d9 b4 ef 3a 62 b3 7b 4f 61 b3
       -3.934107e-07 -4.0576683e-07 -5.2673325e-08 -5.2459182e-08
000030 e3 2b 89 b3 12 40 95 b3 70 93 99 b4 56 9b b9 b4
       -6.3875426e-08 -6.9500075e-08 -2.8605746e-07 -3.4571957e-07
000040 e9 60 c9 b4 a3 fa 55 33 37 eb c4 32 cb 54 82 b3
       -3.750968e-07 4.982088e-08 2.2924366e-08 -6.0690205e-08
000050 8e dd f2 b3 dd 72 65 b3 8f 72 ae b3 ab 56 2f 33
       -1.1309304e-07 -5.3422685e-08 -8.1233445e-08 4.0824187e-08
000060 8f c3 6b 34 1f f8 2a 34 ba 38 8f 33 c3 3e 0e b3
       2.1957224e-07 1.592275e-07 6.669275e-08 -3.3119033e-08
000070 e9 41 f7 b2 de 5c cb b2 bc 28 c3 34 cd af e5 34
       -2.8784557e-08 -2.3674541e-08 3.6351219e-07 4.2782486e-07
000080 3d 63 c1 34 47 ad a2 34 24 cf 37 34 d1 83 22 b3
       3.6021257e-07 3.0300927e-07 1.711856e-07 -3.783845e-08
000090 1b 69 c8 33 b5 e7 16 35 92 e5 16 35 33 ef 00 35
       9.332344e-08 5.621653e-07 5.6213423e-07 4.8031796e-07
0000a0 53 af f2 34 51 2a ef 34 dd c5 32 b3 56 0a 2b 34
       4.5203578e-07 4.4548008e-07 -4.162381e-08 1.5929376e-07
0000b0 3e f6 19 35 2c a8 29 35 95 a4 27 35 53 29 20 35
       5.735527e-07 6.320213e-07 6.2451846e-07 5.966478e-07
0000c0 75 d3 18 35 a8 ef 07 34 b1 38 0f 34 af 2c 18 34
       5.6932123e-07 1.2660041e-07 1.3338537e-07 1.4172359e-07
0000d0 87 e3 01 34 b6 15 5f b3 9a 7a 24 b4 d7 88 25 b4
       1.2096835e-07 -5.194098e-08 -1.5318292e-07 -1.5416605e-07
0000e0 2f 39 03 34 49 e5 0b 34 ee 35 16 34 63 aa 24 34
       1.2221129e-07 1.3028797e-07 1.3989458e-07 1.5335677e-07
0000f0 08 b0 d8 b3 70 2f 2d b4 01 8a 2b b4 17 62 00 34
       -1.0090304e-07 -1.6129138e-07 -1.5975822e-07 1.1956614e-07
000100 75 4a 0d 34 24 f8 0d 34 47 08 e1 33 92 cc 26 b4
       1.3158736e-07 1.3221921e-07 1.04788846e-07 -1.5534377e-07
000110 aa 31 39 b4 5a 53 39 b4 30 6f 83 33 cb 30 a4 33
       -1.7247535e-07 -1.7259791e-07 6.120388e-08 7.6457205e-08
000120 9b 5d f3 33 0f 39 11 b3 d3 b9 4e b4 c5 73 55 b4
       1.1332596e-07 -3.3812338e-08 -1.9252847e-07 -1.9879288e-07
000130 f3 f0 57 b4 ce cc 34 b4 24 46 f8 b3 da 43 e1 b3
       -2.0111092e-07 -1.6838314e-07 -1.15611584e-07 -1.0489721e-07
000140 1a d4 c8 b4 55 8e c6 b4 52 67 90 b4 d5 d1 63 b4
       -3.7407227e-07 -3.6983934e-07 -2.6897266e-07 -2.1217359e-07
000150 96 00 83 b4 cb e1 5d b4 29 e8 7a b4 57 1e 12 b5
       -2.4401078e-07 -2.0664372e-07 -2.3367524e-07 -5.443339e-07
000160 09 23 15 b5 8a d6 06 b5 25 96 04 b5 19 99 8d b4
       -5.555781e-07 -5.0231085e-07 -4.939232e-07 -2.637469e-07
000170 91 c2 ae b4 cb a6 eb b4 e6 74 3d b5 9f 33 32 b5
       -3.255159e-07 -4.389352e-07 -7.0578096e-07 -6.6385286e-07
000180 f5 62 2e b5 3d 8e 2d b5 d0 d2 2e 34 e1 bd 45 34
       -6.496405e-07 -6.4654506e-07 1.6281706e-07 1.8416132e-07
000190 fc f6 58 34 31 bb 80 34 1f 0c 81 34 28 5b 81 34
       2.020642e-07 2.3978058e-07 2.4036942e-07 2.4094447e-07
0001a0 8b b6 44 34 13 db 2b 34 04 df 44 34 8b 13 58 34
       1.8320331e-07 1.6005315e-07 1.8335055e-07 2.0123677e-07
0001b0 80 14 80 34 30 71 80 34 c8 37 82 34 93 86 6b 34
       2.3856774e-07 2.3924213e-07 2.4254973e-07 2.1935038e-07
0001c0 5c c8 30 34 53 2d 46 34 12 af 5a 34 7d fa 7c 34
       1.6464168e-07 1.8456676e-07 2.0366522e-07 2.3560456e-07
0001d0 b4 d3 80 34 bd 15 79 34 59 d3 7a 34 a0 e0 fa 33
       2.3995892e-07 2.319784e-07 2.3359952e-07 1.1682391e-07
0001e0 2a 0d 3f 34 bc a8 64 34 92 88 81 34 4b cd 83 34
       1.779305e-07 2.129554e-07 2.412749e-07 2.4550022e-07
0001f0 75 b3 65 34 84 a7 5a 34 d1 22 08 30 4d 7e aa 33
       2.1392573e-07 2.0363774e-07 4.952599e-10 7.939216e-08
000200 39 0f 3e 33 56 2c b3 33 5f bc 2b 34 ac 90 67 34
       4.4251667e-08 8.343402e-08 1.5994145e-07 2.1566183e-07
000210 6c 18 67 34 c2 a5 48 b3 db ab c4 b3 01 78 ee b2
       2.1522436e-07 -4.6716885e-08 -9.1582216e-08 -2.7761418e-08
000220 3c 36 f7 32 7d 12 b1 b2 a7 0f ee b2 2b 84 06 34
       2.8779247e-08 -2.061392e-08 -2.7713964e-08 1.2527805e-07
000230 fd 79 37 34 f7 e1 84 33 42 a7 9f b2 1f f6 78 b3
       1.7087582e-07 6.187832e-08 -1.8586096e-08 -5.7965845e-08
000240 8e 36 e2 b3 b6 be 81 b3 a2 32 43 33 fc 10 22 32
       -1.05338685e-07 -6.041721e-08 4.5448026e-08 9.433503e-09
000250 8e 2a 26 b4 76 fc 1b b4 31 4a fa b2 2c f7 5c 34
       -1.5475436e-07 -1.4527345e-07 -2.9137569e-08 2.0579017e-07
000260 48 97 83 34 2f 6c 5f 34 4e 7c b8 b4 e3 dd e6 b4
       2.4510723e-07 2.080785e-07 -3.4363114e-07 -4.3002282e-07
000270 24 d8 d4 b4 5d 5e 11 b4 b6 aa 77 33 e1 0a fd 33
       -3.964534e-07 -1.3538506e-07 5.766443e-08 1.17832094e-07
000280 da 30 1c 34 db e6 e1 b4 9c 4c 03 b5 12 c6 06 b5
       1.4546404e-07 -4.2077485e-07 -4.8912784e-07 -5.020712e-07
000290 69 8f 4e b4 ed ce 13 b4 b5 b4 c4 b3 e9 e7 a5 b3
       -1.9237417e-07 -1.3765721e-07 -9.159832e-08 -7.7255955e-08
0002a0 e1 20 ce b4 75 14 0c b5 c1 1f 19 b5 94 27 68 b4
       -3.8394413e-07 -5.2183833e-07 -5.704315e-07 -2.1621082e-07
0002b0 de 90 49 b4 45 61 40 b4 b4 3e 40 b4 f3 b4 74 b4
       -1.8772286e-07 -1.791678e-07 -1.7904205e-07 -2.27901e-07
0002c0 b2 35 bb b4 7e 1b b4 b4 2b c3 f6 b3 52 21 32 b4
       -3.4870533e-07 -3.3547616e-07 -1.14907685e-07 -1.6589664e-07
0002d0 ed ec 92 b4 72 49 9a b4 5e b6 82 b4 35 25 8d b4
       -2.7367005e-07 -2.8738174e-07 -2.4347077e-07 -2.6290368e-07
0002e0 af e9 0e b4 ff 3c 3c b2 96 36 34 b3 42 48 08 b4
       -1.3309794e-07 -1.0956909e-08 -4.195916e-08 -1.2692274e-07
0002f0 49 c8 47 b4 cc b2 5f b4 6a 01 33 b4 72 4b 19 34
       -1.8606183e-07 -2.083354e-07 -1.6671189e-07 1.4276682e-07
000300 d8 5b 32 34 dc 87 f0 33 a3 46 89 33 6c bf 13 b3
       1.6610954e-07 1.12005836e-07 6.3924084e-08 -3.4400202e-08
000310 e0 e0 7b b4 4d d7 b5 b4 d9 76 d0 b4 ac 5f ca b4
       -2.3458006e-07 -3.387053e-07 -3.8829492e-07 -3.7695042e-07
000320 9a e0 f7 b4 b9 7d 97 b3 c8 7b dd b3 b9 73 43 b4
       -4.6170754e-07 -7.054354e-08 -1.031363e-07 -1.820289e-07
000330 9c 8a 7f b4 10 9e 90 b4 ec 9e 9f b4 96 28 c7 b4
       -2.3799151e-07 -2.6937096e-07 -2.973169e-07 -3.709617e-07
000340 21 c7 3d b3 de 61 dd b3 22 68 7f b4 be 66 87 b4
       -4.41861e-08 -1.03089164e-07 -2.3786609e-07 -2.5220464e-07
000350 63 95 81 b4 85 c2 29 b4 16 e8 13 b3 16 71 27 34
       -2.4136816e-07 -1.5810117e-07 -3.4437186e-08 1.5594227e-07
000360 4b e0 fa 32 46 92 48 b4 d2 fc ee b3 d0 7b 29 b4
       2.9205827e-08 -1.8679665e-07 -1.11287264e-07 -1.5784394e-07
000370 8d 55 10 b4 0a 43 ac 34 ad a2 95 34 3f 2f 5c 34
       -1.3442168e-07 3.2086274e-07 2.7871775e-07 2.0506285e-07
000380 97 8b 65 b4 d2 0b 1f b4 af f7 0c b4 ab 80 8d b3
       -2.137807e-07 -1.4812329e-07 -1.3128623e-07 -6.589229e-08
000390 2f 56 ff 34 db 6a db 34 29 3f c8 34 08 c0 54 b4
       4.7560158e-07 4.0869676e-07 3.7298858e-07 -1.9813899e-07
0003a0 8d e4 18 b4 1d d0 a8 b3 c0 ec 25 33 2e 9f 0b 35
       -1.423925e-07 -7.860965e-08 3.863238e-08 5.201317e-07
0003b0 99 f9 fb 34 53 0d e7 34 27 ad 44 b4 d2 d0 09 b4
       4.6934e-07 4.3036798e-07 -1.8316915e-07 -1.2835088e-07
0003c0 a5 15 88 b3 c6 13 b8 34 be b5 1e 35 d4 4c 27 35
       -6.3369306e-08 3.4287058e-07 5.9124056e-07 6.232415e-07
0003d0 0a 26 18 35 00 0a fb b4 84 df 0d b5 15 5f 1b b5
       5.6679767e-07 -4.675967e-07 -5.285185e-07 -5.788036e-07
0003e0 d2 a2 36 b5 48 0a 35 b5 26 d5 37 b5 e4 22 39 b5
       -6.803722e-07 -6.7442716e-07 -6.8482984e-07 -6.8968643e-07
0003f0 74 1a fb b4 8c 21 0e b5 d5 b0 1b b5 88 b7 34 b5
       -4.677164e-07 -5.294794e-07 -5.7999324e-07 -6.73223e-07
