outputs/ConvRNN_D3_K7_H8_SS4_2_04_19-15-18/checkpoints/model-epoch=03-validation_loss=1.46.ckpt (torch, 301774 bytes, 54 tensors)

model.bias f4 [8]
00000000: 310c 80bf c1b6 083d 938c 2e3f 820d 1bbf
00000010: e59c 72bd 4779 253f da05 5bbf f3c7 a53c
-1.000372 0.033377413 0.6818325 -0.60567486 -0.059231658 0.6463818 -0.85555804 0.020236945

model.input_layers.0.weight f4 [8, 1, 7, 7]
00000000: 0bc7 48bc 9678 153e 0f62 2d3e fc2b b73d
00000010: 9de4 0f3e bca9 9abd 3506 fc3d d11c 383e
00000020: e772 0d3e 078c 043c 8422 46bd 5db8 6fbc
00000030: 784f 243e f703 0f3e 6989 253b 9b9a 733d
00000040: 1e70 8b3d 18d1 143e 73bf 103e 1b6c 263e
00000050: 199c 003e 1733 e53d 086d 873d 696d 333e
00000060: 83df 93bc 2824 f5bc cc35 173e 2eb2 853c
00000070: 511d b33d 6f9e 05bd 985c 833d 4b48 c33c
00000080: ed31 58bd e52c 0a3e ddc4 99bc 1943 db3a
00000090: 7a61 113d ebf3 fc3d ad20 1cbd abd2 1f3e
000000a0: 15e9 153c e13d d93d 57f1 2a3e 98fb 6c3d
000000b0: a73f e73d d344 f03d e6a5 e83c ff54 0c3e
000000c0: 6566 33bd a0f8 9e3d b950 eb3d 830a 31bc
000000d0: 112d 333e f73b e53c 82bb 2b3e 4eb1 40bd
000000e0: 4d56 2a3e f820 3b3e b1c5 2a3e d707 833d
000000f0: 2aa7 e83d cac8 803c 3fa7 253d 8f88 f73d
00000100: 2514 243d f4d5 643d b689 373e 8197 223e
00000110: f2a9 013e c4cb a33d 6c49 033e 11ea a03d
00000120: d5a9 85bd c0c3 9bbc cb3d 93bc 414c bdbc
00000130: 82ad 42bd c37a 92ba 303e 8c3d bb73 183d
00000140: 332e 82bd 14c2 dd3d d753 2cbd 257b 8bbc
00000150: d6da 91bc 3db1 6c3c d378 523d a6ed 1c3d
00000160: db4f c5bc bdf2 60bd 17d1 71bd f8c2 013e
00000170: c4f3 1a3e bb5c d9bd b419 0b3d 30a2 583b
00000180: 974c b5bd e611 67bc a455 0f3d 38ef a5bc
00000190: bcef 8abd 8e64 043e 3625 56bd 6bc0 5bbd
000001a0: 1aee 61bd e33e b6bd 0f09 013e 292d a03d
000001b0: 2728 2a3e 8944 8d3d b108 d43d e3a9 f63d
000001c0: 778e 043e d8fe cc3d 5b2e 103d c42c af3d
000001d0: d19c b23d 442e d93c 7bdc 393e 26f4 aa3d
000001e0: 18c7 89bc edde e13c fce3 023e 0bca 9d3d
000001f0: 7017 143e ac4e 1b3e 202d e43c a062 6f3d
00000200: de32 3b3c 8d22 863b 8a02 953d f63a 97bc
00000210: 1f4b 1d3e 4421 0f3d 1821 8fbc 94f0 b2bd
00000220: 27d0 673d e790 523d 45e4 76bd 07c0 8e3c
00000230: a464 c6bc b025 673d 6605 173c 2947 e63d
00000240: 7567 5abc 9f66 393c 1d5d 19bd 1c95 a73d
00000250: 57b8 ce3d b770 92bd 5e5d 173e 30b3 bb3d
00000260: 0f5d 02bd 207a db3d 41dd 93bd d762 e63d
00000270: 6ded 2abd de84 c93d 75a7 a83d b3c5 af3d
00000280: 9f0f b33d ef72 323e 64a4 863d e362 4a3e
00000290: 977d 94bd 2df3 66bd 9852 b53d 1f96 963d
000002a0: e312 30bd 940f 5c3d 4ffa 923d 159c 333e
000002b0: 97b4 8cb8 917a 4e3e 0312 f1bb d549 233e
000002c0: 348c fb3d 872d 63bd ed10 3f3e 1119 8a3a
000002d0: ca0e f73d 66e7 403e dd4c 2f3d e1fd 833c
000002e0: 4fbe 07bd ffc5 12bd 06a9 d73c 9e53 0f3e
000002f0: 954c 363e b476 f63d b6fb 903d a996 173d
00000300: 3da2 823d 43f7 2c3e 4b42 0e3d 4a83 f23d
00000310: 4c85 433e f8da 2f3e 4373 db3d c244 58bd
00000320: 35f0 b8bd bf19 a73d d36f c23c d7d5 4dbc
00000330: 122f 483e 064d bc3d f7d2 b33d 68fd aabd
00000340: 9f26 0cbd 100c 2fbc c959 463d 574f 423e
00000350: 5894 9a3d 3275 58bd b70c 203e 8165 b4bd
00000360: b70b 443e da49 b13d e44f 3d3e 003d 743d
00000370: b4e0 cbbd d724 4a3c 8015 3a3e 9da1 303e
00000380: a984 903c f6bb 183e 8dee b53d c838 623d
00000390: 0717 443d d9a0 36bd 1f01 d33d 52be 2e3e
000003a0: d34e dcbc 6056 de3d f886 e53c 0082 cd3c
000003b0: f0a3 fe3c 03c2 413d a459 b33b 3704 2d3e
000003c0: 39bb 5bbd 66a6 333e 333d 453e 67ad 1b3c
000003d0: 29da 033c c347 d43d 6273 3c3d 07ad be3d
000003e0: 0b62 6c3e 8799 983d 7193 363e 9680 583e
000003f0: 9aaa 663a dabc 8f3d 1904 423e 236f 0a3e
-0.012254487 0.14596781 0.16931938 0.08943936 0.14052053 -0.075519055 0.123058714 0.17979743
0.13813363 0.008090026 -0.04837276 -0.014631358 0.1604594 0.13966356 0.0025258905 0.059473615
0.06808494 0.14532888 0.14135532 0.16252176 0.12559547 0.11191385 0.06612593 0.17522205
-0.018050915 -0.029924467 0.14766616 0.016320314 0.08745826 -0.032621797 0.06414145 0.023838183
-0.052781988 0.13493688 -0.01877063 0.0016728371 0.03549335 0.12351211 -0.0381171 0.15607707
0.009149809 0.106075056 0.16693626 0.057857126 0.112914376 0.11731877 0.028399419 0.13704298
-0.043798823 0.07762265 0.11490006 -0.010805729 0.1749766 0.027982695 0.16770747 -0.04704409
0.16634484 0.18274295 0.16676976 0.0639798 0.11360009 0.015720744 0.0404427 0.12086593
0.040058274 0.055868104 0.17923626 0.15878107 0.12662485 0.079978496 0.12820977 0.078571446
-0.065265335 -0.01901424 -0.017973801 -0.02310765 -0.04752875 -0.0011175502 0.06847799 0.037219744
-0.06356468 0.10828033 -0.042072143 -0.017026493 -0.017804544 0.014446554 0.05138476 0.038312577
-0.02408593 -0.054918993 -0.059037294 0.12672031 0.15132052 -0.1061339 0.03396006 0.0033055656
-0.08852499 -0.014103388 0.034993783 -0.02025567 -0.06784007 0.12928984 -0.05228158 -0.0536503
-0.055158712 -0.088987134 0.12601112 0.078211136 0.1661688 0.06897838 0.1035322 0.12044122
0.12944971 0.10009545 0.035200458 0.0855346 0.087213166 0.026511319 0.18150513 0.08347349
-0.016818568 0.02757212 0.12782282 0.07704552 0.14462066 0.1516673 0.027853549 0.058443666
0.011425702 0.0040934742 0.07275875 -0.018460732 0.15360688 0.034943834 -0.017471835 -0.08737293
0.056594994 0.05140772 -0.06027629 0.01742555 -0.024217911 0.056432426 0.009217596 0.112440415
-0.01333033 0.011315971 -0.037442315 0.08182737 0.10093754 -0.07150405 0.1478171 0.09165037
-0.03182703 0.10716653 -0.07219935 0.11249321 -0.041730333 0.098397955 0.08235065 0.0858263
0.08743214 0.17426656 0.06574324 0.19764285 -0.07250517 -0.056384254 0.08853644 0.07352852
-0.04298676 0.053725794 0.07176649 0.1754001 -6.709358e-05 0.20163943 -0.0073568835 0.15946133
0.12282601 -0.05546334 0.186588 0.0010536035 0.12063368 0.18838271 0.042797912 0.01611227
-0.033140477 -0.035833355 0.026325714 0.13996741 0.17802651 0.120343596 0.0707926 0.037008915
0.06378601 0.16891198 0.03473119 0.11841448 0.19093817 0.17173374 0.10715344 -0.052799948
-0.09030191 0.081592076 0.023734963 -0.01256319 0.19549206 0.091943786 0.08780473 -0.08349115
-0.03421652 -0.010684028 0.04842547 0.18975578 0.075478256 -0.05284614 0.1562985 -0.08808423
0.19145094 0.08656664 0.18487507 0.059628487 -0.09954968 0.012337885 0.18172264 0.1724915
0.017641382 0.14915451 0.088833906 0.055229932 0.047873523 -0.04458699 0.10302948 0.17064789
-0.026893055 0.108563185 0.02801846 0.025086403 0.03108403 0.047304165 0.0054733325 0.16896139
-0.053645346 0.17543945 0.19261627 0.009501792 0.008047619 0.1036525 0.046008475 0.09310346
0.23084275 0.07451158 0.17829682 0.21142802 0.00087992253 0.070184425 0.18946876 0.13518958

model.input_layers.0.bias f4 [8]
00000000: 4fa2 03be 65e2 8abf 3325 19be 8972 89bb
00000010: d20c 25bf e4ef 20bd bd19 78bc 3b3b 13be
-0.12854885 -1.085034 -0.14955597 -0.004194562 -0.6447269 -0.039291278 -0.015142855 -0.14378063

model.input_layers.1.weight f4 [8, 8, 7, 7]
00000000: 7086 f3bc 7d20 61bd c933 7abd e7ee aabd
00000010: d161 68bd b326 b1bd 4eec 7bbd a7ba a5bd
00000020: c83e a2bd a17c 4cbd 90a3 a4bd 9c93 c4bc
00000030: 141f 14bb 951c 91bc 82ec 71bd e60a a6bc
00000040: d66b babd 26e8 a5bd 2463 a4bd d10b b3bc
00000050: 9a30 c7bc a704 0cbd e06e c9bc 86df 08bd
00000060: 3450 aebd db8b 70bd 6880 3ebd efba 46bd
00000070: ffb0 e2bd 84b9 b7bd ade8 ecbc 807e dabd
00000080: d905 b6bd 27bc 013d d336 113b 5636 67bd
00000090: 9fe1 98bd 3ee6 a73d 6797 afbd b347 b6bd
000000a0: d144 913d 4e3d 963d 8b8a 9ebd 0dc2 93bc
000000b0: 2d9c 7c3d e030 9abb 508b c13d e277 6b3d
000000c0: 3e5c a33d 33be 9cbd 9697 a1bd 605c 1cbd
000000d0: 4763 13bc aaf9 95bc d310 c2bd 8072 a9bd
000000e0: c759 03bd 1d6f acbd 639a 4dbd b9d6 bbbc
000000f0: ec00 27bd 8eab cabd 955e 0cbd 5717 28bd
00000100: 8662 bebd 6a02 1ebd cf0b 98bd a248 32bd
00000110: 3d4c c2bd 4eef e3bd 1a53 31bd 48bf 95bd
00000120: 6aff c9bd a807 fdbc f437 67bd bb11 d3bd
00000130: 2d19 61bd a2d1 91bc af39 9fbd dd51 b8bd
00000140: 9159 4cbc 21d5 84bc 5478 6abd fbb6 cabd
00000150: 5d5d 2bbc 1959 a9bd 2c87 83bd 4245 37bd
00000160: 007b bebc 5c36 d0bd 33a3 f7bd dd53 bebd
00000170: 6562 a9bc dfbc 93bd 75b7 54bd fb4e 45bd
00000180: e62b aabd f936 bebd a8d8 773c 98b3 003d
00000190: b2d8 17bd 6c54 0b3d 5875 843c 2c6a 2b3d
000001a0: ecc4 133c e16a e1bc ff84 7fbd ee40 3bbd
000001b0: 70e6 e9bc c46b 6fbc b80b 50bc ccb6 0f3d
000001c0: 35a4 31bd 11fa cf3c 387e 68bc 2db6 cd3a
000001d0: b46d 853c d079 153d 5c49 31bd 64e3 983c
000001e0: 57c2 47bd 5438 ad3c 54b3 4fbc 80c7 1ebc
000001f0: 58bc 043d 775a 02bd 386e 4e3c 689d e73c
00000200: 63fb f3bc b760 18bd f0a5 8dbc 8e56 85bc
00000210: 3c3b 383c aed5 273d 5c93 59bc defe 07bd
00000220: 11b8 72bb 540e 3b3d 00a1 973c 0a04 0a3d
00000230: 8077 9f3c d46a 8c3c 5470 863c a8e6 c83c
00000240: 6a96 4dbd 1457 1abc 120f 10bd 7185 afbd
00000250: adf6 16bd 3973 b3bd 8fb7 adbc 1f75 8bbd
00000260: 23a1 80bd aa66 abbd 0c3e eabc 8df9 28bd
00000270: 470b 96bc e152 45bd 2737 04bd 8920 8dbb
00000280: 0c96 80bd 017c bbbd 4574 c5bd e96d 95bd
00000290: 1c89 25bb 2b68 40bd e11c 60bd 1e06 3fbd
000002a0: 1ae3 bebd 662c 98bd 0cf8 64bc 47c2 9fbd
000002b0: 9550 7bbd 6963 1fbd f579 a6bd b26c 40bd
000002c0: 2043 96bd 6496 25bb 8c15 d1bb 8cd5 1fbd
000002d0: fa6d e5bc 1837 0ebd b2da 7fbd 9170 e2bc
000002e0: 4acf b6bd 7450 63bd 1b37 27bd 8569 11bd
000002f0: b169 ccbd 519b 2abd 9a4b 66bd 7d8c 2abc
00000300: 650f 27bb 57fa a6bd 4f39 d4bb 45f8 2ebd
00000310: 098e 81bd 8e1b 3fbd 5f0a 1ebd 73fd c2bd
00000320: 5879 c2bd 7f38 aebd 606b 5dbd c4fa febc
00000330: 4faf bbbd d15a 3abd 7b64 dfbd 9bc6 bfbd
00000340: efbb d1bd f9db bdbd f315 4bbc 5305 47bd
00000350: d6b0 99bd b93a bcbd f406 8fbd eb4b 52bd
00000360: 8755 3dbd 2529 2cbd 336e 7ebd 493c 3dbd
00000370: c8d7 9cbd 9638 97bd b083 88bd 24f4 84bd
00000380: f5b8 eebc 2f1e c6bd cf91 c4bd 8364 58bd
00000390: 3e0c 2cbc 93ff 06bd 93f5 8fbd e003 1abd
000003a0: e7a2 97bd ef65 a0bd 5112 8dbc ccfd 91bd
000003b0: 3a0b 97bc 555b e7bc c141 6ebd a9d2 7bbd
000003c0: ab0e 58bd f700 d8bd 30e3 b9bd 9228 8cbd
000003d0: 8688 60bd b172 e83b ddc0 ff3a 05e8 48bc
000003e0: 4f15 133d e247 4bbb 13c0 2a3c 7a2d b8bc
000003f0: 9d75 66bd 2d1d 7abd d070 a2bd 0e0f 79bd
-0.02972719 -0.054962624 -0.061084542 -0.08346348 -0.05673391 -0.086499594 -0.061504655 -0.08092242
-0.07922131 -0.049923543 -0.080390096 -0.023996167 -0.0022601532 -0.017713824 -0.059063442 -0.020268869
-0.09102599 -0.081009194 -0.08026722 -0.02185622 -0.024315167 -0.034184124 -0.024589002 -0.033416294
-0.08511391 -0.058727127 -0.046509176 -0.048518118 -0.110689156 -0.08970931 -0.028919542 -0.10668659
-0.08887834 0.031673577 0.0022157922 -0.056448303 -0.07464909 0.08198212 -0.085737996 -0.08900394
0.07093204 0.07335912 -0.07741269 -0.018036867 0.06167238 -0.0047055334 0.094504 0.057487376
0.07976578 -0.07653465 -0.07890241 -0.038174033 -0.0089958375 -0.018307526 -0.09475865 -0.08273792
-0.03206804 -0.08419631 -0.050196063 -0.022929536 -0.040772364 -0.09896003 -0.034269888 -0.041037884
-0.092961356 -0.03857652 -0.07424127 -0.0435263 -0.094871975 -0.11129628 -0.043292142 -0.07311875
-0.098631695 -0.03088744 -0.056449845 -0.10306116 -0.05495565 -0.017800156 -0.07774674 -0.08999989
-0.012472526 -0.016214909 -0.05724366 -0.09898182 -0.010459271 -0.08268947 -0.06422266 -0.044743784
-0.02325201 -0.10166618 -0.12091675 -0.092933394 -0.020676801 -0.07213759 -0.05193277 -0.048171025
-0.08309154 -0.09287829 0.0151273385 0.031421274 -0.03707189 0.034016058 0.016169235 0.0418493
0.009019118 -0.027516784 -0.062382694 -0.04571622 -0.028552264 -0.014613096 -0.0126981065 0.035086438
-0.04336949 0.025387796 -0.014190249 0.0015694551 0.016287662 0.036493123 -0.04328285 0.018663116
-0.04876932 0.021145023 -0.0126770325 -0.009691119 0.03240618 -0.031824555 0.01259952 0.0282733
-0.029782956 -0.03720161 -0.01729104 -0.016276624 0.011244591 0.040975265 -0.013279762 -0.033202045
-0.0037035982 0.04566796 0.018509388 0.03369526 0.019466162 0.017140783 0.016410984 0.024524048
-0.050192274 -0.009420175 -0.035170622 -0.08570374 -0.036856342 -0.08762211 -0.021205692 -0.068094485
-0.062807344 -0.08369191 -0.02859404 -0.041253615 -0.018315924 -0.048174743 -0.03227916 -0.004306857
-0.06278619 -0.09154511 -0.09641317 -0.07296354 -0.0025258726 -0.046974342 -0.05471504 -0.046636693
-0.0932066 -0.07430343 -0.013975155 -0.07800727 -0.061356146 -0.038913164 -0.0812873 -0.04697866
-0.07337022 -0.0025266642 -0.0063807424 -0.039022014 -0.028006542 -0.03472051 -0.062464423 -0.027641566
-0.08926256 -0.055496648 -0.040824037 -0.035501022 -0.099810965 -0.041652028 -0.056224443 -0.010409472
-0.0025491354 -0.08153217 -0.0064765583 -0.042717237 -0.06325919 -0.046657138 -0.03858411 -0.09520998
-0.09495801 -0.085068695 -0.05405748 -0.031125434 -0.09164297 -0.045496766 -0.10907837 -0.09364053
-0.102409236 -0.09270472 -0.01239537 -0.048589062 -0.07504432 -0.09190888 -0.06983748 -0.051341932
-0.046224143 -0.042031426 -0.062116813 -0.04620007 -0.076583445 -0.0738384 -0.066657424 -0.06491879
-0.029140929 -0.09673726 -0.09598123 -0.05283023 -0.010500966 -0.03295858 -0.070292614 -0.03760135
-0.07404118 -0.07831942 -0.017220648 -0.07128486 -0.01843797 -0.028241793 -0.058168177 -0.061480198
-0.052748363 -0.10547059 -0.09076536 -0.06843676 -0.0548177 0.0070937504 0.0019512434 -0.012262349
0.035908993 -0.0031018187 0.010421771 -0.022482622 -0.05626451 -0.06106298 -0.079316735 -0.060805373

model.input_layers.1.bias f4 [8]
00000000: 5c4e 04bc 0e51 99be d9ad a1bd 9f18 c0bc
00000010: 3409 95bd ce44 2cbe 6c03 3dbe 0d07 dcbd
-0.008075323 -0.29944652 -0.07894487 -0.02344924 -0.07277146 -0.16823122 -0.18458337 -0.10743532

model.input_layers.2.weight f4 [8, 8, 7, 7]
00000000: 151f 26bd 6539 5ebd 3c7b 29bb e5bf a4bd
00000010: c8e3 84bc 3736 b8bc 1a37 a8bc d627 4bbd
00000020: 60b4 943b 9f10 61bd a112 15bd ac1c 99bd
00000030: d689 b6bd bd7d 60bd 4e69 b3bc 01c3 44bc
00000040: 842f b6bd a5e9 3ebd 9920 a8bd c74e a8bd
00000050: 4359 8cbc 6e9a a8bd 74c0 b1bd bbf0 49bd
00000060: 393a c9ba ccc3 e5bd 740c 80bc 9b46 94bc
00000070: 8c68 42bd b863 bebc 8fc9 a9bd 9587 b6bc
00000080: 1cfe 56bd bf42 41bd adf5 c8bc 52b2 15bd
00000090: 5618 17bc c491 37bd cbb3 53bd 8dfc 70bd
000000a0: 0cdb 79bc 0f6a 63bd 0e80 bebd b4ae 5abd
000000b0: 385b 97bd d312 a8bd 281f 98bd 8419 e5bd
000000c0: fabf 12bd 1e57 533d 2196 30bc 36c1 32bc
000000d0: 8ce5 583b f1aa 7b3d 7fd6 153c df41 11bc
000000e0: 541b 33bd b32a 4abc eaef 1e3d df90 103d
000000f0: 887c 413d c67a 1d3b ac3a 243d 1cda e93c
00000100: b3eb 13bc 95a9 93bc a120 54bb 6f6f bebc
00000110: 9840 e23c ea32 363d 5602 6bbd dcb2 a4bc
00000120: f2eb 9b3c 028b c33c 1d90 a53a 0924 123c
00000130: 24ed 04bd 8a12 56bd a7a5 b63c aac0 6bbc
00000140: eabf 33bd fb6d 6cbd b615 2cbd 7443 6cbd
00000150: 8b88 13ba 28f7 febc 3d38 2cbc c815 02bd
00000160: 44cf 81bd b1af 80bd 01ad 22bd 77e3 1abc
00000170: 40a6 453d 7ea4 2f3d 6b6f e7bc 101b 7ebd
00000180: 92da 9bbd ea74 183b c94a 883e 69d1 963e
00000190: 8dd0 593e b9ee 8b3e 3433 903e c0c6 1b3e
000001a0: 9bfb 173e e95a a03e b744 7a3e ad22 7e3e
000001b0: 10a4 973e 3e9f 663e 8606 a53d 8faf fc3d
000001c0: 4f29 8d3e 7407 7a3e e1ba 993e 89fe 5b3e
000001d0: e932 533e 9d34 e23d 119d 9b3d c198 803e
000001e0: e07e 5b3e 0e9a 5f3e 84c5 423e 78dc 023e
000001f0: 0ebe 083e 78a6 573d d494 ff3d 237f fa3d
00000200: 70b1 053e bc35 853d 850d da3d 4857 ab3d
00000210: db5c 843d 0b83 9b3e 5fc6 703e 21eb 8d3e
00000220: 904f 083e 89ea 273e 9fe6 953d a256 f73d
00000230: 70f1 d53d 02d3 ea3d 27c2 8a3e a0ed 293e
00000240: f537 b13d 0579 843d f5f9 b43d 651a 423f
00000250: fc0d a73e ea5a 883e be0c 4a3c f2f3 9e3d
00000260: 3910 9b3e 0c88 e33e 8366 8e3e 7e17 9a3e
00000270: 773a 993e e2a0 5dbe 6d3f b6bd 092f 883e
00000280: c3e7 f13e 9b6d 54be 42d3 883e 8d83 7c3e
00000290: 5d17 99be 410e 0e3d 4611 803e b97a 2c3f
000002a0: 5161 02bf 5705 80bd f9c1 62be 3593 1cbf
000002b0: 3210 e9be f07e 14be 214d be3e ee01 79be
000002c0: 841b 26bd bbee 2cbe eff3 b1be a507 91be
000002d0: 6345 75be 0bc8 ef3e 4027 10be 1d2f 943e
000002e0: f78e e73d cbec b9be 2e2b c9be 61e4 253a
000002f0: dfe5 463f 3604 863e b736 fd3e 6056 0f3e
00000300: d995 16bf 7ab4 a4be 4d14 803e 1128 623f
00000310: be31 3bbd b616 acbd 1f1a 21bd d45f a8bc
00000320: bc86 00bd 2cee b3bd 97ab dd3a 3be0 64bd
00000330: 8f5a 1dbd d44b 65bd 06f8 99bd 0627 c6bd
00000340: 7f5a e1bc 2c39 16bd 7e94 9dbd b924 bbbd
00000350: 961d 0ebd aa6f 54bd aac8 3cbd 2c0d 9ebd
00000360: b7d9 7bbd 76f7 0fbd b01a c1bd 8ebf b8bb
00000370: f614 cbbd 4dea 4dbd 9771 ffbc 0605 8fbd
00000380: d3d7 b5bd 3f93 a5bc e02d 12bd 55ee cebb
00000390: 59df c1bd d388 c2bd 2a4e 91bd d048 8fbd
000003a0: daa0 31bc 9d39 6ebc 1c22 76bd 62de 97ba
000003b0: ba7f 88bd 3e0e bebd b0d8 52bd 4182 70bd
000003c0: 4b2d 3ebd c26e 1bbd 8701 86bd 1048 0cbd
000003d0: 9648 34bc 4d99 a73d a468 74bd 5426 bdbc
000003e0: a008 b8bd 8bb2 82bd ba9f 63ba e47d b2bd
000003f0: 791e a43d 998f 4bbd 1756 84bc aa0a 0fbc
-0.040556986 -0.054253954 -0.0025860807 -0.080444135 -0.016221896 -0.02248679 -0.020534087 -0.049598537
0.004538104 -0.05494749 -0.03639472 -0.07476172 -0.08913009 -0.054807413 -0.0219008 -0.012009383
-0.08895782 -0.04660954 -0.082093425 -0.082181506 -0.017132407 -0.0823258 -0.08679286 -0.049301844
-0.0015352435 -0.11218986 -0.015630938 -0.018100074 -0.047462985 -0.023240909 -0.082903974 -0.022281447
-0.05248843 -0.047182795 -0.02453121 -0.036547013 -0.009222111 -0.044816747 -0.051685136 -0.0588346
-0.015249979 -0.055521067 -0.09301768 -0.053389266 -0.073904455 -0.082067154 -0.074278176 -0.11186507
-0.035827614 0.051596753 -0.010777981 -0.010910323 0.0033095805 0.06144232 0.009145378 -0.008865803
-0.043727234 -0.012339282 0.03880302 0.03529441 0.047237903 0.0024029477 0.040095016 0.028546385
-0.009028363 -0.018025199 -0.003236808 -0.023246495 0.027618691 0.04448215 -0.057375275 -0.020104818
0.019033406 0.023869995 0.001263145 0.008919724 -0.032452717 -0.052263774 0.022295786 -0.014389196
-0.043884195 -0.057722073 -0.042012893 -0.057681516 -0.00056279515 -0.031123713 -0.010511455 -0.031759053
-0.06338361 -0.062835105 -0.03971577 -0.009453646 0.04825425 0.04288148 -0.02825137 -0.062037528
-0.07610048 0.0023263046 0.26619557 0.29456642 0.21270962 0.27330568 0.28164065 0.15212536
0.14842074 0.3131936 0.24440275 0.24817915 0.29617357 0.22521684 0.08057885 0.12338173
0.27570578 0.24416906 0.3002539 0.21483816 0.2062489 0.110451914 0.075983174 0.25116542
0.21435118 0.21836111 0.19020659 0.12779415 0.1335375 0.05264899 0.124795586 0.12231281
0.13055968 0.0650439 0.1064711 0.08366257 0.06463023 0.30373415 0.23513173 0.27718452
0.133116 0.16398062 0.07319378 0.12077071 0.10446441 0.11466028 0.2710125 0.16594553
0.08653251 0.06468395 0.08836738 0.75821525 0.32627857 0.26631862 0.01233214 0.077613726
0.30285814 0.44439733 0.27812585 0.30096048 0.29927418 -0.21643403 -0.08898816 0.26598385
0.47247133 -0.20744936 0.26723677 0.24659558 -0.29900637 0.034681562 0.2501318 0.6737476
-0.50929743 -0.062510185 -0.22144307 -0.6116212 -0.4552017 -0.14501548 0.3716822 -0.24317142
-0.040553585 -0.16887943 -0.3475642 -0.28326145 -0.2395225 0.46832308 -0.14077473 0.28942195
0.11306565 -0.3631347 -0.39290756 0.00063282816 0.77694505 0.26175088 0.49455807 0.13997793
-0.588224 -0.32168943 0.25015488 0.88342386 -0.045701735 -0.08402769 -0.03933155 -0.020553507
-0.031378493 -0.08785662 0.00169121 -0.055877905 -0.03841644 -0.05598052 -0.0751801 -0.09675412
-0.027508972 -0.036675617 -0.07694338 -0.09137864 -0.034696184 -0.051864304 -0.046089806 -0.07717356
-0.061486926 -0.035148107 -0.09428918 -0.0056380695 -0.09916107 -0.050272275 -0.031182094 -0.0698338
-0.08879056 -0.020211814 -0.03568828 -0.0063150325 -0.09466428 -0.094987534 -0.07094987 -0.0699631
-0.010841573 -0.014540103 -0.060091123 -0.0011586661 -0.06664987 -0.0928006 -0.05147618 -0.05871797
-0.046429913 -0.037947424 -0.0654326 -0.03424841 -0.011003634 0.08183537 -0.059670106 -0.023089565
-0.0898602 -0.063817106 -0.0008683164 -0.08715418 0.08013625 -0.049697492 -0.016154332 -0.00873057

model.input_layers.2.bias f4 [8]
00000000: e17e 023f 6fe1 d1bd 8218 21bd bc13 b2bc
00000010: bf01 28bc 8082 be3d 72e0 32bd 8750 14be
0.5097485 -0.10248076 -0.039330013 -0.021737926 -0.010254323 0.09302235 -0.04367108 -0.14483844

model.hidden_layers.0.weight f4 [8, 8, 7, 7]
00000000: 84c9 acbb eb9e ef3c 1b72 16bc 02c9 82bd
00000010: 7f72 00bb 4ca7 cbbc debe a83c b707 cf3c
00000020: 6925 933b ead5 c2bc 6437 d5bc 5d55 efbc
00000030: 9eb1 6dbc 9ca0 85bb 8d1d 2fbd e32c 5abc
00000040: 9f1f 2ebd ac04 ffbc a55e 9abb 0f1e 51bd
00000050: 9dc2 14bd 2c6d 9d3c bc49 8abd 6f16 3abd
00000060: ad05 11bd 45cc 88bb 3203 d93b 8dd8 20bd
00000070: b67a 62bc 581a 1fbd e21d c9bb d64d 1cbd
00000080: 2137 01bd cc45 06bd 2028 febc a0a4 32bd
00000090: 78fd db3c 3259 713c ef39 b7bb bd97 b63b
000000a0: b048 34bd 360c 8dbd 2e5f 2bbd f932 b73c
000000b0: cc5a fbbc 7a99 83bd 49f4 f3bc cf86 81bd
000000c0: 7f41 48bd 95c8 f6bd eac5 b7bd f3a7 94bd
000000d0: dc0e 04be 5348 91bd 430b e7bd 1beb 11be
000000e0: 0548 cfbd b921 a0bd 3e55 84bd 68fc debd
000000f0: 7af6 4fbd e2d1 14be ae9a 80bd 8af5 c3bd
00000100: 8d64 f1bd 6278 0abe 6f14 09be 476e c2bd
00000110: 6088 d5bd 73b9 22be 43fc b4bd 1c65 c5bd
00000120: caa9 d4bd f39f 29be 7f1e 08be 0e1f abbd
00000130: 7d2f 2abe 86f0 11be 2cc7 12be 3687 74bd
00000140: 3bfc 4ebd 8213 85bd cbcb bfbd f224 adbd
00000150: 21c6 13be 4fdf f4bd 705a a7bd 7919 91bd
00000160: dae3 84bd 726b 89bd c948 95bd 8adf fbbd
00000170: ff66 bbbd 801b 18be ce7d e8bd 1913 cfbd
00000180: 4310 8abd d4fd 18be 9024 67bd dd42 54bd
00000190: d496 33bd 1e2d 9bbd 046b 06be caf7 d6bd
000001a0: 2cff acbd 54d5 d9bd bd6c 4fbd 3bd6 86bd
000001b0: 42b2 07be cb41 a0bd ec3f adbd d175 e7bd
000001c0: fc23 d0bd aaff 80bd 343a 98bd 4433 0abe
000001d0: dc34 e6bd 0845 8fbd b83f d5bd 544b 99bd
000001e0: 8dd0 b2bd 533b 08be 23c4 4abd 3a64 d8bd
000001f0: 0428 3abd ac27 63bd b7e9 8dbd aedf 7dbd
00000200: 7f49 82bd ca02 acbd 8f9c 80bd a5f3 60bd
00000210: 0db3 6cbd 4fa1 07be 1188 02be 88b3 72bd
00000220: 98cf cebd ff11 a1bd 0a8a e2bd 2b41 23bd
00000230: c7a1 02be 7537 3ebd 3955 75bd 33f6 08be
00000240: 53fb d5bd 6ffc 5abd 6e9c cabd a914 28bc
00000250: f8a6 b2bc 7d89 b03b 54e9 92bc 22a7 8ab9
00000260: 2dde 44bd 4b37 99bd 5ac5 1a3b 6c1a 8bbc
00000270: 0664 10bd 68a4 f3bc 61e0 cbba d25f 69bc
00000280: bb4f 83bd 425f 24bc 91d5 09bd f0aa fabc
00000290: 1e3b e0bb e614 57bd 3e86 6abc fab1 15bc
000002a0: 4c4a 44bc 0f0f 3dbd 1d81 86bd 327f 04bd
000002b0: f552 8abd f3fe 8fbb 68be 86bd f0fc 59bd
000002c0: 7d61 71bb 3131 2dbc 691f 2cbd a734 c5bc
000002d0: dfc9 73bd e7e9 263c 8deb dcbc 1392 2ebd
000002e0: 7341 b53b 9e69 0abd b9e6 a6bd bfa6 78bb
000002f0: 0c6f 0bbd fcf3 63bd 33cb a1bd 4e05 02bd
00000300: b484 44bd 816b 3ebc 30a8 98bd 6b9a 49bd
00000310: b080 6a3c d18a 08bd f4f0 773c 6eb9 23bd
00000320: 0b1b 243c 304d 8ebd d001 cb3a 6110 5ebc
00000330: eadc 02bd b1cc 3f3b 36ed 4b3c 251d 6ebc
00000340: 6f72 64bd 3d37 20bd 1a00 87bd e3a4 47bd
00000350: b56b 7abd b802 41bd 8a9e c8bb 47f0 6fbd
00000360: f8df 98bd f223 4fbd 1d51 31bc 885d a3bc
00000370: 1dbf 3fbc d096 81bd 6177 6ebc 3a71 82bc
00000380: 387a 03bc 8704 8cbd 83a9 b8bb 4bd9 8bbc
00000390: 63e4 f7bb 93c6 8bbb e9b9 04bd 0512 b23c
000003a0: 15e5 77bd aa20 fcbc 1eb6 12bd 66f1 4d3c
000003b0: 7a8e 67bb f9be 2cbd 6e08 3abd b0ac 10bd
000003c0: 08ba 70bd 305f 9dbc 00ba 95bd dd60 aebb
000003d0: 7e11 7cbd ce93 09be 05a4 fdbd 19f0 57bd
000003e0: 6a3b f6bd 73f2 8dbd fc75 d8bd c4ac 6fbd
000003f0: 6c13 3ebd 1599 cdbd 4978 f1bd 7eea 95bd
-0.005273046 0.029250583 -0.009182478 -0.063859954 -0.0019599495 -0.024860047 0.020598825 0.025272233
0.0044905436 -0.023783643 -0.026027389 -0.02921551 -0.014507679 -0.004077984 -0.04275279 -0.013316366
-0.042510625 -0.031130157 -0.0047109895 -0.051054057 -0.03631841 0.019217096 -0.06752345 -0.04543155
-0.035405803 -0.0041747415 0.0066226954 -0.03926902 -0.013823202 -0.038843483 -0.0061375955 -0.038160168
-0.031546716 -0.032781407 -0.031024992 -0.04361403 0.026854262 0.0147307385 -0.005591623 0.005572288
-0.044014633 -0.06887095 -0.041838817 0.022363173 -0.030682944 -0.06425758 -0.02977957 -0.06324541
-0.048890587 -0.12049977 -0.08973296 -0.07258596 -0.12896293 -0.07093873 -0.11281445 -0.14249842
-0.101211585 -0.07818932 -0.06461571 -0.108879864 -0.050772168 -0.14533189 -0.06279503 -0.09568317
-0.11786757 -0.13522485 -0.13386701 -0.0949369 -0.10426402 -0.15891056 -0.088371776 -0.09638426
-0.10383947 -0.16564922 -0.13292883 -0.083555326 -0.16619678 -0.14251909 -0.1433379 -0.05969926
-0.050533514 -0.064978614 -0.09365042 -0.084543124 -0.14431049 -0.11956655 -0.081715465 -0.07084937
-0.06488772 -0.06709947 -0.07289273 -0.12298496 -0.09150504 -0.1485424 -0.1135212 -0.101110645
-0.06741383 -0.14940578 -0.056431353 -0.05182158 -0.043845013 -0.07576965 -0.1312676 -0.10496481
-0.08447108 -0.10636392 -0.05064081 -0.0658383 -0.13251594 -0.07825049 -0.08459458 -0.113017686
-0.101631135 -0.06298764 -0.07432976 -0.13496119 -0.11240551 -0.069955885 -0.10412544 -0.07485071
-0.08731184 -0.1330388 -0.049503457 -0.10565992 -0.045448318 -0.055457756 -0.06929343 -0.061980896
-0.063616745 -0.083989695 -0.06279861 -0.054919858 -0.057787944 -0.13245128 -0.12747218 -0.059253246
-0.10098189 -0.078647606 -0.11061485 -0.03985707 -0.12757026 -0.046439607 -0.059895728 -0.13375168
-0.10448327 -0.053463396 -0.09893118 -0.010258832 -0.021808133 0.0053874836 -0.017933525 -0.00026445935
-0.048063446 -0.074812494 0.0023616166 -0.016980372 -0.03525164 -0.029741481 -0.0015554541 -0.014244037
-0.06411692 -0.010032477 -0.03365094 -0.030599087 -0.006842985 -0.052510165 -0.014314232 -0.009136671
-0.011980604 -0.04615694 -0.06567595 -0.032347865 -0.06754104 -0.004394406 -0.06579286 -0.053219736
-0.003683179 -0.01057081 -0.042022143 -0.024072958 -0.05951869 0.010187603 -0.026967788 -0.042619776
0.005531484 -0.03379213 -0.081494756 -0.0037941185 -0.03404145 -0.055652604 -0.07900085 -0.03174334
-0.047978118 -0.011622311 -0.07453954 -0.04921953 0.014312908 -0.03333551 0.015133131 -0.03997176
0.010016213 -0.06948316 0.0015488211 -0.01355371 -0.03194896 0.0029266293 0.012446692 -0.014533316
-0.055773195 -0.03911518 -0.06591816 -0.048741233 -0.061137874 -0.047121733 -0.006122415 -0.058578756
-0.07464594 -0.05057139 -0.010822562 -0.01994206 -0.01170328 -0.06327593 -0.014554829 -0.015923131
-0.008024745 -0.06836801 -0.0056354417 -0.017071387 -0.0075650676 -0.0042656153 -0.03240386 0.021737108
-0.060521204 -0.030777294 -0.03581821 0.012569761 -0.0035332725 -0.042174313 -0.045418195 -0.035320938
-0.058771163 -0.019210428 -0.07310867 -0.0053216056 -0.06154012 -0.1343529 -0.123848 -0.05271921
-0.12023051 -0.06931009 -0.10569379 -0.05851437 -0.04640524 -0.10038964 -0.11790521 -0.073201165

model.hidden_layers.0.bias f4 [8]
00000000: 00c3 d9bd 1a57 08bc 54d5 7ebd a8ed 82bd
00000010: 4383 3dbc b307 be3d 5d20 d2bd 5278 50bd
-0.106328964 -0.008321548 -0.062215164 -0.063929856 -0.01156694 0.09278812 -0.10260079 -0.050895996

model.hidden_layers.1.weight f4 [8, 8, 7, 7]
00000000: 5ec5 31bd 7ca4 92bd 69da 55bc 49c3 c53c
00000010: 543a 883c d1f3 aebc f18e 14bd d7ed c93c
00000020: f655 813c 0ea1 03bd 9f5f 65bd 58df 53bd
00000030: 6443 183c 3b27 6bbd ab30 84bc c258 203b
00000040: 933a 95bc c0ea ffbc 8384 b4bd 763d 64bd
00000050: 2ca7 48bd d109 24bd b297 87bd 8995 4ebd
00000060: a975 febc 6274 82bd e7b9 2fbb cb4f c7bd
00000070: 6b33 9abd 48d7 f3bc 6f64 b5bd 2ef2 58bd
00000080: 9ad3 c0bd 3b3c 0fbd 9caf 81bd b36b 0bbd
00000090: d78c c3bd b46c e9bc 0a95 4cbc 4e54 60bd
000000a0: 8124 81bd 9bfd 36bd 104b 3abd 7672 10bc
000000b0: b569 063c 48b2 3fbc 844c 9dbd a97e a1bc
000000c0: b7c9 013c 95a8 60bd 2b77 75bd aa14 b33c
000000d0: 95b1 ca3c 2101 94bd a9d1 41bd e80f 913c
000000e0: 2de4 8ebd 0246 6ebc 2a7f 30bd 3c5d b9bc
000000f0: 90e4 173c 3fd4 86bd 7973 23bd fd15 9e3c
00000100: f955 38bc ae89 3e3c 111a 43bd 34fa d83b
00000110: d64c a83b 415b d33c 69ce 48bc 2be4 d53b
00000120: 5ed9 203b c6d5 68bd 7830 34bd 6bbd bd3c
00000130: 60dc 5bbc 2cb2 b23c bebc 56bd c777 f1bb
00000140: 2128 cfbc 4f22 81bd 456b 123b ca34 9dbc
00000150: b451 dd3c e6f8 86b9 a820 e839 6380 81bc
00000160: 4d53 6ebd 4b9b 783b 7b07 debc d827 71bd
00000170: 5085 ffbb d32e 5cbd 040c 3cbc 8c1f 44bd
00000180: 6f3e 1abd 736d 5f3b 5d21 1bbd bdd4 b1bd
00000190: 4cd8 93bd f672 37b8 29bc 88bd 89a0 6dbd
000001a0: aab7 a7bd 62f6 91bd 4e44 a7bd 48e9 9dbd
000001b0: 33bd 63bd 6e28 c1bd 5dd9 c1bd b5b0 9bbd
000001c0: 5a2f f8bc 87cf 24bd 3b01 aabc c206 59bd
000001d0: e345 bdbd 0077 17bd 1142 afbd 0e25 c7bd
000001e0: a7e9 46bd d0a9 9bbc f1d7 12bd 087f afbd
000001f0: e3df dabd 554e 7dbc 5ded 87bd 8641 67bd
00000200: ffbc 42bd 9cb9 33bd 543f 98bd 6b04 acbd
00000210: 1337 95bd df61 10bd cf86 313a 4996 bbbc
00000220: 62e3 f8bc 9e75 f2bc a860 8abd 23c5 88bd
00000230: 8e92 dcbc 37e4 ffbc 70d6 9bbd 99b7 c6bc
00000240: e49f c8bc 1136 6abc 45ec 86bc 19ce 9cbd
00000250: 8d8d 6fbc 3574 81bd cfba 0abd e352 1cbd
00000260: 4e10 92bb 9821 1bbd 3b8c a1bd 3d56 e9bc
00000270: b7db 95bd 1bf0 c7bc 073e 30bd 926a 0ebd
00000280: 1741 52bd 8d66 49bd 55d3 a9bd 7726 033c
00000290: 12e6 7cbd 9600 3fbd b46c 80bd e275 ccbd
000002a0: c7b3 52bd 13a1 e0bc 9dbd b1bd a200 15bd
000002b0: 07a4 81bd f41f f1bc 4ff1 60bd 6b33 23bd
000002c0: 9512 74bd c7f1 6cbc 1a9f fdbc 46d3 49bd
000002d0: 468b 8bbb cb7f edbd 93c4 0abd 792d a8bd
000002e0: ba81 1cbd 5c31 abbd eb68 efbc 3971 18bd
000002f0: 2db4 aabb c1c1 38bc cdbe afbb ccb4 8abc
00000300: 8728 06bd 921f 1cbc 4b69 03bc c4ad 8fbd
00000310: e002 48bd bfaf e1bc ae44 76bd 966f c23b
00000320: 730e b4ba 2bc1 92bc 17da 553a 0b5e 5abd
00000330: b8bf 09bb 1e06 81bc 3b95 aabd cbf4 5abd
00000340: 49d6 96bd b731 32bd 58f9 f3bc 547c c1bd
00000350: cf8e 45bc 7ae5 83bd 01de 9bbd 68ac 42bd
00000360: d459 21bd f1ad b2bd 9b48 d7bc 6740 85bd
00000370: 119b c2bc bdaa b7bc cad7 dbbc 9036 02bd
00000380: 073f 6abd 07d0 9fbd a999 9bbb 8ee3 e1bc
00000390: 064b 80bd 0b57 5abd c195 eeba c8bb 86bd
000003a0: 1f0e 893c a345 85bd 1ecb e9bc 69af a83b
000003b0: c272 74bd 4fe4 06bc 0c2b 99bd 4c01 8abd
000003c0: a1df fabc 6de6 02bd 6fe5 183c 47c0 2d3c
000003d0: 644c fcbb 2361 29bd e42c fabd 1d4d cfbd
000003e0: ebd4 9fbd 5525 97bd fce2 f0bd 9f10 f6bd
000003f0: dfcd dabd 20f2 3fbd a9c4 67bd 5d94 76bd
-0.043401115 -0.07160279 -0.013052561 0.02414097 0.016629376 -0.021356495 -0.036269132 0.024649544
0.01578806 -0.032136016 -0.055999395 -0.05172667 0.009293411 -0.05741046 -0.016136488 0.0024466966
-0.018216407 -0.031239867 -0.08814337 -0.055722676 -0.048987553 -0.040048424 -0.066207305 -0.050435577
-0.031061964 -0.063698545 -0.0026813687 -0.09732016 -0.075293384 -0.02976574 -0.08857047 -0.052965336
-0.0941536 -0.03496955 -0.06332323 -0.034038257 -0.095483474 -0.028494217 -0.012486706 -0.0547679
-0.06305791 -0.04467545 -0.04548174 -0.008816352 0.008203913 -0.01170022 -0.0768061 -0.019713717
0.007921628 -0.054848272 -0.0599281 0.02186044 0.02474288 -0.07226778 -0.047319088 0.01770778
-0.06977115 -0.014543058 -0.043090023 -0.022627465 0.009270802 -0.065834515 -0.039905045 0.019297594
-0.011250966 0.011629505 -0.04763228 0.0066216234 0.0051361127 0.02580035 -0.012256243 0.006527444
0.0024543623 -0.056844495 -0.043991536 0.02316161 -0.013419241 0.021813475 -0.052426092 -0.007369015
-0.02528769 -0.06305372 0.002234177 -0.01919021 0.027016498 -0.00025743915 0.0004427482 -0.01580829
-0.05818491 0.0037934359 -0.027103176 -0.05887589 -0.0077978745 -0.053755593 -0.011477474 -0.047881648
-0.037657198 0.0034092336 -0.037873615 -0.08683155 -0.0721899 -4.3737666e-05 -0.06676514 -0.058014426
-0.08189328 -0.07127072 -0.08167325 -0.077105105 -0.055600356 -0.094315395 -0.09465287 -0.076020636
-0.030296016 -0.040236976 -0.02075254 -0.05298496 -0.092418455 -0.03697872 -0.08557523 -0.097238645
-0.048562672 -0.019001871 -0.03585047 -0.08569151 -0.10687234 -0.01546057 -0.0663707 -0.056458972
-0.047543522 -0.043878183 -0.07433954 -0.0839928 -0.07285895 -0.035249587 0.0006772102 -0.02289881
-0.030381862 -0.0295971 -0.06756717 -0.06678226 -0.026925351 -0.031236751 -0.0760926 -0.024257468
-0.024490304 -0.014295117 -0.016470084 -0.076564975 -0.014621151 -0.06320993 -0.03386956 -0.038164984
-0.00445751 -0.037873834 -0.07888075 -0.028483504 -0.07317298 -0.024406483 -0.043027904 -0.034769602
-0.051331606 -0.049170066 -0.082922615 0.008004776 -0.06174285 -0.04663142 -0.062707335 -0.09983422
-0.05144098 -0.027420556 -0.08678744 -0.036377557 -0.06330114 -0.029434182 -0.05491763 -0.039843958
-0.059588034 -0.014461941 -0.030959655 -0.04927375 -0.004258546 -0.1159664 -0.033878874 -0.08211798
-0.038209654 -0.08359024 -0.029224833 -0.037217353 -0.005209467 -0.011276663 -0.0053633214 -0.016931914
-0.032753494 -0.009529011 -0.008020709 -0.07015565 -0.048830867 -0.027549623 -0.06012409 0.0059337122
-0.0013737216 -0.017914375 0.0008157803 -0.053312343 -0.0021018814 -0.015749987 -0.08329245 -0.05345611
-0.073650904 -0.043504443 -0.029781982 -0.09447542 -0.012057974 -0.064402536 -0.07610703 -0.0475277
-0.039392307 -0.08724583 -0.026279738 -0.065064244 -0.023755582 -0.022420282 -0.026836295 -0.031790316
-0.057189014 -0.0780335 -0.0047485423 -0.027574327 -0.062643096 -0.053305667 -0.0018202589 -0.06578785
0.016730366 -0.06507423 -0.028539237 0.0051478636 -0.059679754 -0.008233144 -0.07478914 -0.067385286
-0.030624213 -0.031958032 0.009332045 0.0106049245 -0.007699536 -0.041352402 -0.122155935 -0.1012213
-0.07804283 -0.073801674 -0.11762044 -0.12014889 -0.10683798 -0.046861768 -0.056584034 -0.060200084

model.hidden_layers.1.bias f4 [8]
00000000: e1f3 9dbd 9db5 d5bd 967b b4bd 66c6 1fbc
00000010: abc8 b6bd 0c93 c1bd f7ab a1bb 3593 23bc
-0.07712532 -0.104350306 -0.08812635 -0.009751892 -0.08924993 -0.09451875 -0.00493383 -0.009983827

model.hidden_layers.2.weight f4 [8, 8, 7, 7]
00000000: a670 40bc 5264 9abd ce0d adbd 9deb f3bc
00000010: ffba 4dbc b387 62bd 073c bebd 05db 65bd
00000020: 3212 88bd a05f 61bd fa10 cebd 1baf 4dbd
00000030: 0343 ffbb daef 21bc 3ab6 1abd e703 49bd
00000040: 669f c9bd 13b7 b0bd 7ba6 afbd 508d b9bd
00000050: 1c6f 53bd 11ec b7bc 9de9 cabd 3104 96bd
00000060: 58c2 9fbb 4ace 31bc 895a 99bd adc6 2cbd
00000070: 4f83 c7bd 86c9 46bc 5155 9cbd c8c3 c8bd
00000080: 314b babd 11a3 b1bb 9eb6 bfbc d303 c6bd
00000090: a07e 82bd 350e a3bd 4728 1cbd 8f63 8ebd
000000a0: b7b6 babc 865e 66bd 01ea 00bd cca7 a1bd
000000b0: cfe4 10bd 7416 54bd 06c2 a7bc fe0d 4cbd
000000c0: f5de 37bd c1ea d03d 3a05 813d fc47 ec3c
000000d0: 2d72 a93d 285f dd3d 4238 703c 97ea 1f3d
000000e0: 3148 b73d 84ca bc3d 16eb 593d f51c 383c
000000f0: 435e 863d 0677 ae3d fa8f a63d 3818 763c
00000100: 176a c13d f73d 843d 6c75 473d c6d2 4d3d
00000110: ee2b be3d e6b6 c43d 9155 483c 34cf 363d
00000120: 4811 ad3d f1ec d03d 472e b83c cdd5 d23d
00000130: c489 a33d 27b5 1e3d e880 d03d 7d93 343d
00000140: 3f30 eb3c 4ecf 8e3d 6c5c d43c 24d6 8c3d
00000150: 756d 433d 4c02 023d 4381 053d a6b4 843d
00000160: 815d c83d bb91 db3d 80e6 743d 6d49 123d
00000170: 34f7 d63d 9b2f 683d 6cb3 963d ad82 d73d
00000180: 1c44 a03d d023 8d3d 236a 73bd ffa5 9dbd
00000190: 0b7a 00bd 7e20 b6bc 586d b0bd c053 c3bd
000001a0: 53c7 98bc 0288 8abd 7212 0ebd 1502 a2bd
000001b0: a4ab 8cbd 4a3e 85bd 9773 a5bd f815 aabb
000001c0: b599 6ebd 9e7f 6cbd 09f5 8fbd 2731 b3bc
000001d0: 45d4 07bd 0624 d1bd 355f a8bd 69b1 a2bc
000001e0: 3388 acbc fb6e 4bbd 2309 b5bc 0a41 91bd
000001f0: db92 cdbd 456c 97bb 0792 5dbc 4940 b1bd
00000200: cd2a aebd ea2f c2bd e5ee 68bd d22e 5dbc
00000210: 03dc a3bc 7a2b 50bd ba45 a1bd 9fb9 b1bd
00000220: 68d7 7fbc 2723 b6bd 7c83 3cbd 3a99 93bd
00000230: 25a1 15bd 95fa cabc 0c70 93bc 137e e7bc
00000240: 68be 46bd f867 0cbd 0711 adbb de8b d2bc
00000250: 3055 7bbd 4efa 83bd c6c8 06bd e9c2 63bd
00000260: 365b b1bd 77b8 20bd ceba fdbc ae3d 13bd
00000270: d3be a1bd f502 bcbd 998c 38bd cc94 3bbd
00000280: 43bb f8bc f6b8 57bd fae5 d2bd 7c7f 85bd
00000290: 013d a0bd f6a5 a8bc f5f1 8dbd 3117 61bd
000002a0: de09 13bd c408 84bd a529 c2bd 3ba6 c8bc
000002b0: d524 b3bd 6beb a8bb 7c70 97bd 4fda 52bd
000002c0: 1625 31bd cc98 a7bd 713c 5cbc 55af 44bc
000002d0: 19c1 f3bc 327e b7bd 37a0 b8bd f448 e5bc
000002e0: 083f 83bd dbd4 07bd 8d4f 56bd 056b fcbc
000002f0: d94b c1bd b1fe 97bd e5a4 c0bd e4c4 a7bd
00000300: 2edb b5bd 7b6e 98bd cd07 a7bd 5e5b 09bd
00000310: 2c76 df3d 6201 813d 22b7 693d cca3 aa3d
00000320: 247a 5c3d f3ca 7d3d bea2 b93d 7172 a3bd
00000330: 78d0 a4bc 532a abbd b821 7ebd 626b 4cbb
00000340: ed07 8ebd 78f1 bdbd aa9b 873d d1d7 633d
00000350: 6a15 843d a222 f03d 3b82 e83d 829d e13d
00000360: 88aa 803d 2276 b6bc 0b67 f7bc 1333 4abd
00000370: 58ea a8bc c819 f13c cbf4 123c 90d4 573d
00000380: 017a f9bc ae0e 4abd 9813 8cbd da67 48bd
00000390: 0e32 bbbd b406 7abd 9472 223d 8bdd 4ebc
000003a0: 3173 99bd 82b9 15bd 6cf6 91bc d279 3e3c
000003b0: a4ab cb3d 4a7c 1c3d f8d8 b63c 0b2f 45bd
000003c0: baaa 5d3d a36d dc3c e931 c23d 27b9 913c
000003d0: 88ef 023d ce72 063d 7831 e83b fe3d 2d3d
000003e0: b45a c93c db3a 36bd 03f8 74bd d625 8cbd
000003f0: 6d9e 09bd 683a 893d decf 353d f8c5 263c
-0.0117456075 -0.07538666 -0.08449899 -0.029775435 -0.01255679 -0.055305194 -0.09288793 -0.056117076
-0.066440955 -0.055022836 -0.10061832 -0.05021582 -0.007789971 -0.009883845 -0.03777144 -0.049075987
-0.09844856 -0.08628669 -0.085766755 -0.09060156 -0.051619634 -0.022451432 -0.099078394 -0.07325018
-0.0048754625 -0.010852406 -0.07487971 -0.04218166 -0.09741842 -0.012133008 -0.0763346 -0.09802967
-0.09096373 -0.0054210504 -0.023402508 -0.09668698 -0.06371808 -0.07961694 -0.03812435 -0.06952583
-0.022792203 -0.05624249 -0.031473164 -0.07893333 -0.03537446 -0.051779225 -0.02047826 -0.04981803
-0.044890363 0.10201026 0.06299825 0.028842919 0.082737304 0.10809165 0.01466185 0.03904208
0.08949316 0.09218314 0.05320271 0.011237373 0.06560948 0.08518796 0.0813293 0.015020423
0.09444063 0.06457131 0.048695967 0.050249837 0.09285723 0.096051976 0.012227432 0.044631198
0.08450562 0.10201443 0.022483004 0.102946855 0.07985261 0.03874698 0.10180837 0.04408597
0.028709529 0.06973134 0.025922976 0.068767816 0.04771181 0.03174047 0.032593977 0.064797685
0.097834595 0.10721155 0.059790134 0.035714556 0.10496369 0.056686025 0.07358441 0.10522971
0.07825491 0.06891596 -0.05942739 -0.07697677 -0.03136639 -0.02223229 -0.08614606 -0.095374584
-0.018649733 -0.06764223 -0.03468556 -0.07910553 -0.06868675 -0.06506021 -0.08078688 -0.005190607
-0.058252055 -0.057738893 -0.070291586 -0.021874024 -0.03316142 -0.10211949 -0.08221284 -0.019859986
-0.021061039 -0.049666386 -0.022099083 -0.07092483 -0.10037776 -0.004621061 -0.013523585 -0.086548395
-0.08504257 -0.09481795 -0.056868453 -0.013499932 -0.02000237 -0.050822712 -0.078746274 -0.086779825
-0.015615322 -0.088934235 -0.04602383 -0.0720696 -0.036530633 -0.02477769 -0.017997764 -0.028258359
-0.04852143 -0.03427884 -0.005281571 -0.02570146 -0.061360538 -0.06444226 -0.032906316 -0.055605803
-0.08659975 -0.03923842 -0.030972864 -0.035947494 -0.07897725 -0.091802515 -0.04505596 -0.0457962
-0.03036273 -0.052666627 -0.10297771 -0.06518456 -0.078241356 -0.020586949 -0.06930915 -0.054953758
-0.035898082 -0.064469844 -0.09480599 -0.024493327 -0.087472595 -0.005155017 -0.073945016 -0.051477727
-0.04324826 -0.081834406 -0.013442145 -0.012004693 -0.029755162 -0.08959617 -0.090149336 -0.027988888
-0.06408507 -0.03316198 -0.05232196 -0.03081275 -0.09438295 -0.074216254 -0.09406451 -0.08191851
-0.08879696 -0.074429475 -0.08155785 -0.0335344 0.10911211 0.06299092 0.057059415 0.08332023
0.05382742 0.061961126 0.09064244 -0.07980812 -0.020118937 -0.08357682 -0.062043875 -0.0031191935
-0.069351055 -0.09274572 0.066214874 0.05562574 0.06449397 0.11725356 0.113529645 0.1101637
0.06282526 -0.022273127 -0.030200502 -0.049365114 -0.020619556 0.029431239 0.008969496 0.05269295
-0.030453684 -0.049330406 -0.06839675 -0.048927166 -0.091404065 -0.06104155 0.03966005 -0.012626062
-0.07492674 -0.036553867 -0.017817698 0.011625724 0.09944847 0.03820447 0.022320256 -0.048140567
0.054117896 0.026907748 0.09482176 0.017788483 0.031966716 0.03282433 0.0070859753 0.04229545
0.024579383 -0.044489723 -0.059806835 -0.06843154 -0.033598352 0.06700593 0.04438769 0.010179035

model.hidden_layers.2.bias f4 [8]
00000000: 39b2 a6bc 9fdd 583d 3827 873d cf08 8abc
00000010: 81f4 9abd 1deb e43d 07d1 74bd 7c3d bfbd
-0.020348655 0.05294573 0.06599277 -0.016849903 -0.07566167 0.11177657 -0.059769657 -0.09337899

model.output_layers.0.weight f4 [8, 8, 7, 7]
00000000: 79c3 ad3d 68b5 803d c8de 113c e8ad 333d
00000010: f88c a23c cbb6 1c3d 3673 7fbc a69b 833d
00000020: a5e2 8a3d dc73 3e3c afee a5bc 1538 483d
00000030: 585c 86ba 4d0b 203c fb67 7b3c ba00 813d
00000040: b27b 8abb f207 e9bc 0111 873c 5953 94bb
00000050: dd0d 913c 1a47 3f3d b312 4a3d 29f6 2cbd
00000060: 7f67 3fbd 929b a83b ca8d 953c 16fc 33bd
00000070: c1e6 663c 47b3 793d 4480 5cbb cfb0 05bd
00000080: c7eb f0bc d47e 423d 4917 7d3b 9cd9 da3c
00000090: 09cb 143d 6020 eb3c 3970 1bbd fb2b 1ebd
000000a0: a29b 413c b55d 0bbd 3caf 4e3d 5881 723d
000000b0: 8444 08bd f77e a73c 3ee1 36bd 8e85 303d
000000c0: 070d e0bc a354 5abd 24c9 77bd f4d6 c1bc
000000d0: 053f 5bbd e3a0 82bd b95b 9b3b 0558 59bd
000000e0: b55c 67bd 226e 85bc 3f7b a3bc 76de 01bc
000000f0: 11c4 13bd ef80 87bd ad81 95bc 7de1 c1bc
00000100: 20a8 9ebd 0b81 58bc 1de5 cabc c4b8 49bd
00000110: 6cc2 463c 7d9a 683b abf7 aabd ef20 823c
00000120: 5214 81bd f5e0 adbc 178b 0c3d 8f23 66bd
00000130: 21ec 7cbd 0771 7abd 7d64 7ebd 542e 94bd
00000140: 410f 34bd 1740 8bbc a50f 93bd a6d1 47bd
00000150: 5cf4 96bd 7d70 bdbc c2bd b2bd 0d87 dcbc
00000160: ee1c 47bc baa9 20bd 0923 6bbd 446f 97bd
00000170: fc2f d3bd f6e8 c7bd 3aab 53bd 4378 afbc
00000180: e3b4 52bd ca67 95bd 6827 273d 3fe3 1f3d
00000190: a947 673d f18d 123d a928 9ebc 8241 d33c
000001a0: 9309 e3ba 44b8 353d fd88 73bc 0701 b9bc
000001b0: c3d1 82bc e70d 7a3c 3cd1 843d 8fd9 82bc
000001c0: cefd 383d 69ab 82bc 08ea cc3c b056 3e3d
000001d0: fe58 833b 465a 173d 5203 4f3d b15b fabb
000001e0: 6425 253d 7296 5b3c a385 403d 80fc 7b3d
000001f0: d98e 903c be99 113d 078b a53c d813 74bc
00000200: ea43 813d 2191 933d 3de6 113d 79bf ef3b
00000210: 4f31 223d cb20 663d 07c1 8d3d a3f7 193d
00000220: 7470 9c3d 7948 123d 5599 913d 2161 813d
00000230: 8cb6 2d3d 041e b8bc 2c87 3fbc 9792 9b3d
00000240: bc5a 043d c99f 663d b1cc 973c 34e8 f9bd
00000250: a349 8abd 2ab9 f9bd 9a3f bdbd 2e6c 80bd
00000260: f437 b6bc 1841 94bd 95f3 d8bd 4692 a5bd
00000270: e6b6 8bbc 8fe0 21bd 8c67 71bd 3582 52bd
00000280: 5782 87bc 0677 bebd 9ee0 44bd 2269 9cbd
00000290: ae62 46bd e3de b0bd 886a 12bd 473b c8bd
000002a0: c3cb 67bd 10d1 c5bd 5d67 a4bc f4cf 48bc
000002b0: 41bd b2bc 1b33 adbd 301d cdbb a4b5 9cbd
000002c0: 57f5 bfbd 9374 c0bc 886a 6abc 2171 9dbd
000002d0: 9d02 98bd 9769 44bc 8094 19bd b21b 09bd
000002e0: 9246 61bd cd71 62bd 0df0 84bc 2054 52bd
000002f0: dd41 60bd 8681 c6bd a41f 64bd a9bf 7ebd
00000300: c91d b0bd 5650 3dbd fe5a 42bd 68dc aabd
00000310: fb80 b43d be45 fb3d d8e1 233d 8756 003d
00000320: edcc 003d 48f2 453d 8b66 d93d 6f04 af3d
00000330: cf1b e33d 99a4 9b3d 91b9 bf3d 3e97 193d
00000340: 2192 773d 6985 383d 8445 283c 4c53 323c
00000350: 5a96 c33d 3694 b43d c2e0 533c 0b19 be3c
00000360: 1a1a 1d3d f190 bb3d 9a4f 883d 70e8 8839
00000370: f455 553d 6de9 963d e8ce 0a3c 94a9 503c
00000380: e2f6 863d 127e 683c 9834 63bb a329 a73d
00000390: 28ae 053d 2e39 493c 6454 3cbc 4e82 313d
000003a0: ddc7 533c d431 c13d a7cd b13d 13f1 103d
000003b0: a839 213c 5e25 3c3d 004b 6e3c ef27 8f3d
000003c0: 8737 b73d 383e 463d de6a 733d f823 833d
000003d0: 0d76 c73c 50eb 05bd 7f8b d33c 9538 133d
000003e0: ae34 9e3c b89b dc3c cfaf 113d d3ae 3e3d
000003f0: 6caf cbbb 4dd6 1dbd 2b96 283d d8b3 1d3d
0.08484549 0.062846005 0.008903213 0.04386702 0.01984261 0.038260262 -0.015591433 0.06426172
0.0678151 0.011624303 -0.020255415 0.04888161 -0.0010250909 0.009768319 0.015344615 0.06298967
-0.0042261714 -0.028446171 0.0164876 -0.0045265374 0.017706806 0.046698667 0.04933424 -0.042226944
-0.04672956 0.0051454986 0.018256087 -0.04394158 0.014093102 0.060961988 -0.0033645788 -0.03263932
-0.029409302 0.047484234 0.0038618615 0.026715092 0.036326442 0.028701961 -0.03794882 -0.03861616
0.011816891 -0.034024913 0.050460085 0.059205383 -0.033268467 0.020446284 -0.0446484 0.043096118
-0.027349962 -0.053303372 -0.060494557 -0.023662068 -0.053526897 -0.06378343 0.004741159 -0.053062458
-0.056484897 -0.016287867 -0.01995623 -0.007926574 -0.036075655 -0.06616389 -0.01825031 -0.023667092
-0.07746911 -0.01321436 -0.024767453 -0.04924847 0.012131315 0.0035492473 -0.0834802 0.015884845
-0.06302704 -0.021225432 0.034312334 -0.056186255 -0.061748628 -0.061142948 -0.06210755 -0.07235399
-0.04395986 -0.016998334 -0.07180718 -0.04878392 -0.073708266 -0.023124928 -0.087276 -0.026919866
-0.0121528935 -0.039224364 -0.05740646 -0.07394269 -0.10311887 -0.09761231 -0.051676966 -0.02141965
-0.05144204 -0.07295187 0.040809065 0.03903508 0.056464825 0.035779897 -0.019306498 0.025788072
-0.0017321579 0.044365183 -0.0148642035 -0.022583498 -0.015969163 0.015262104 0.06485221 -0.01597288
0.045163922 -0.015950875 0.025013939 0.04646939 0.0040084114 0.036951326 0.050540276 -0.007640325
0.04031886 0.013402568 0.047002446 0.0615201 0.01764624 0.03554701 0.020207895 -0.014897309
0.06311782 0.072054155 0.035619963 0.0073165265 0.039597806 0.056183618 0.06921583 0.03758968
0.07638636 0.035713647 0.07109324 0.06317354 0.04241042 -0.02247525 -0.011689942 0.07596319
0.032313094 0.056304727 0.018530222 -0.12202492 -0.06752326 -0.1219352 -0.09240647 -0.06270634
-0.022243477 -0.07238978 -0.105933346 -0.0808454 -0.017054986 -0.039520796 -0.05893664 -0.051393706
-0.016541643 -0.09300046 -0.048065774 -0.0763724 -0.048433952 -0.08636262 -0.035746127 -0.09776931
-0.056590807 -0.09659016 -0.020068819 -0.012256611 -0.021818759 -0.08457013 -0.006259583 -0.07651833
-0.09372967 -0.023493087 -0.014307626 -0.07687593 -0.074223734 -0.011988065 -0.037495136 -0.033473678
-0.05499894 -0.05528431 -0.016227746 -0.05134976 -0.054750312 -0.096926734 -0.055694237 -0.0621945
-0.08599431 -0.046219192 -0.04745006 -0.083428204 0.088136636 0.12269162 0.040010303 0.03133252
0.031445432 0.04832676 0.10615262 0.085457675 0.110892884 0.07599754 0.09361566 0.03749775
0.060442094 0.045049105 0.01027048 0.010884117 0.09550162 0.088173315 0.012932004 0.0232053
0.03835497 0.09158505 0.06655808 0.0002611312 0.052083924 0.07368741 0.008472182 0.012735743
0.06590058 0.014190214 -0.00346688 0.081622384 0.03263679 0.012281699 -0.01149473 0.04333716
0.012926069 0.09433332 0.08681803 0.035386156 0.0098404065 0.045934074 0.014544249 0.069900386
0.08946138 0.04839918 0.05942809 0.06403345 0.024348283 -0.032695115 0.025823353 0.035942633
0.019312229 0.026929721 0.035568055 0.046553444 -0.0062159803 -0.03853445 0.041158836 0.03850159

model.output_layers.0.bias f4 [8]
00000000: d74a 813c 9c9b 503e da43 04bd 7553 163e
00000010: 6ece 90bd ac74 283e 7930 d2bc 8ec4 60bd
0.015782757 0.2037186 -0.03229127 0.14680274 -0.07070623 0.16450757 -0.02565788 -0.05487495
