outputs/2025-01-04/16-48-37/model/ConvRNNCell_D1_K5_H4_SS3.1_04-16-48-38/model-epoch=01-validation_loss=1.36.ckpt (torch, 22110 bytes, 18 tensors)

model.bias f4 [4]
000000 cf 90 27 bf 46 51 40 3f 2f 7d a8 bd 6e 2b 82 bd
       -0.65455335 0.75124013 -0.08227002 -0.0635594

model.input_layers.0.weight f4 [4, 1, 5, 5]
000000 a1 2e bb bc 7a 7d 4a 3e 7b 6e df 3c a7 3c e0 3d
       -0.022849383 0.19774428 0.02727436 0.109490685
000010 a2 cc 1e 3e 9f ea 52 3d d9 19 46 3e 3f 73 76 3d
       0.15507749 0.051493283 0.19345798 0.0601685
000020 ed ed 01 be 76 af 82 3e ee b4 dd 3d 58 72 9e 3d
       -0.12688418 0.2552449 0.10825525 0.07736653
000030 5e aa 64 3e be 82 0d 3e 7d 70 c4 3d 60 6e 1d 3e
       0.22330615 0.13819405 0.09591768 0.15374136
000040 08 9b 6f 3e 7f 68 4e bd f2 a5 82 3e 71 f7 75 3d
       0.23398983 -0.050392624 0.2551723 0.06005043
000050 11 94 8e 3d bb 3e 87 bd c3 cf 53 3e 0f e0 66 bd
       0.06961835 -0.06603762 0.20684724 -0.056366023
000060 b7 82 92 bc 76 a7 66 3d 31 b7 87 bc 2d e0 fe bd
       -0.017884595 0.056312047 -0.016566845 -0.12445102
000070 9f f0 07 3c f4 7e f2 3b af bf 3a be 0d 58 77 be
       0.008297115 0.007400388 -0.18237184 -0.24154682
000080 29 26 b5 bb b3 80 53 bd 37 a7 16 be 8e 79 80 3d
       -0.0055282307 -0.05163641 -0.14712225 0.06273185
000090 2d 0a b8 3d 05 c8 77 be e1 ea bd 3c 96 d2 3b be
       0.08986316 -0.24197395 0.023183288 -0.18342051
0000a0 7b d9 28 3d 89 c4 4a bd 0d b5 3c be ba cc 08 bd
       0.04122303 -0.049503837 -0.1842844 -0.033398367
0000b0 96 4b ce bd 2c 74 8b be 00 e8 c6 bd a9 57 11 be
       -0.100730106 -0.2723707 -0.09712219 -0.14193596
0000c0 72 61 54 be 2f 85 8d be 98 6b d9 bc c2 dd a4 3c
       -0.20740297 -0.27640674 -0.026540563 0.020125274
0000d0 60 9d 52 3d d0 f4 b8 bd d3 4e 8e 3d a2 71 a0 bd
       0.051419616 -0.09031069 0.06948628 -0.07834174
0000e0 9e 30 6a 3e 27 39 00 bd b7 e2 ca bc fc f6 1e 3e
       0.22870108 -0.031304505 -0.02476631 0.15523905
0000f0 bb 64 d2 3d 9d 00 18 3e 00 e5 dc bb 29 09 8d bd
       0.10273119 0.14843984 -0.006741166 -0.06886513
000100 be e1 9d bd 7c 56 5f 3e 6b 73 9a 3c 4c 51 26 3e
       -0.077090725 0.21810335 0.018853864 0.1624195
000110 90 ba 0d 3e 83 bd 77 3e 2d 76 c7 bd 1b 95 bf 3d
       0.13840699 0.24193387 -0.09739337 0.093546115
000120 da 3c 60 3c 35 00 2f 3d 80 9e 7f 3e be ca 5c 3e
       0.013686383 0.042724807 0.24962807 0.21561715
000130 30 3a a8 3d 75 0a 77 3d 08 2d d5 bd 30 d2 79 3d
       0.082142234 0.060312707 -0.1040898 0.060991466
000140 0e 29 87 3d 41 81 13 bd 6f c8 c3 bc ef 7d 3f 3e
       0.065996274 -0.036011938 -0.023899285 0.18700384
000150 71 eb 0a 3c cc 76 99 bd 6f dc e8 3d 1a 37 b7 bc
       0.008478985 -0.07493362 0.11370169 -0.022365142
000160 78 c3 80 bd 27 90 5e 3e c1 53 d5 3d 50 29 dc bc
       -0.06287283 0.21734677 0.104163654 -0.026875168
000170 78 25 60 bd f4 6e 80 3e 71 eb b5 3d 50 a3 cc bd
       -0.054723233 0.2508465 0.088827975 -0.09992087
000180 16 18 13 3e 3e 75 82 3e 72 6c 9f bd d2 f0 f9 3d
       0.14364657 0.25480074 -0.07784356 0.12204136

model.input_layers.0.bias f4 [4]
000000 b1 a6 89 bd 34 b4 e3 bd 19 08 4b be 5a 69 fa 3c
       -0.06721247 -0.111183554 -0.19827308 0.030567814

model.hidden_layers.0.weight f4 [4, 4, 5, 5]
000000 ef 9b 9d 3b fd 88 14 3c 97 c2 e1 3d 22 6f 6a 3d
       0.0048098485 0.009065864 0.11023443 0.05723489
000010 8d 34 8f bd f3 c6 c1 3d 51 ed 17 3d 80 62 0b 3c
       -0.06992445 0.09461775 0.037091557 0.008507371
000020 97 c8 37 bd 7e 86 b1 3d 44 ef f6 3c 46 ae 97 bd
       -0.04486903 0.086682305 0.030143388 -0.07406287
000030 75 a6 a6 3d cb dd e9 3d 1d 30 09 bd 92 63 16 3d
       0.08137218 0.11419257 -0.03349315 0.03671605
000040 89 de 8f 3c a9 a2 0f 3d 21 0b ad bc e9 7c fe bc
       0.017562168 0.035067234 -0.02112347 -0.031065421
000050 bd 3d 3c bc c0 6e db 3d 22 c7 a5 bd fb 8d 5e bc
       -0.011489329 0.10714483 -0.08094622 -0.0135836555
000060 18 a8 a3 bd de 44 f5 3c 76 e2 a3 3d 72 1f 14 3d
       -0.07991046 0.029940065 0.08002178 0.0361628
000070 8f 97 a0 3c c0 53 7b bd bb f9 ba bb ec 00 33 bd
       0.019603519 -0.061359167 -0.0057060397 -0.04370205
000080 3d aa 94 3c e1 f1 eb bd 50 6b ae bc 1f ad 47 3d
       0.018147582 -0.11520744 -0.021291405 0.048749086
000090 f2 44 88 3b ab 0f ec bd 31 67 7e 3b 0a d5 00 bd
       0.0041586095 -0.11526426 0.003881883 -0.03145317
0000a0 ee 13 d8 bc df 48 86 bd b9 d3 1c bd ba c6 fa bb
       -0.02637669 -0.06556868 -0.038287852 -0.0076530846
0000b0 2e f4 7a 3d 08 6a fb bc de 2c 77 3d 17 87 cd bd
       0.061268024 -0.030690208 0.060345523 -0.10035532
0000c0 1b ec 06 3d 63 e4 6d bd 9d 5c 8d 3d 15 18 38 3e
       0.03294001 -0.058079135 0.0690243 0.17977937
0000d0 4d 23 a3 3c 57 3d 12 3d 56 e7 8c 3b 0f 7f 09 3e
       0.019914294 0.03570303 0.0043000383 0.13427375
0000e0 83 55 1d 3e c7 cd 83 3b 8c 99 79 3d 90 53 50 3d
       0.15364651 0.0040223333 0.06093745 0.05086094
0000f0 f9 e9 dc 3d fb 3e dc 3d f7 1e 8b 3d 1a 25 02 3d
       0.10786814 0.107542 0.067930155 0.031773664
000100 1c 61 76 3d 9e 53 1e 3e 6a 1e f5 3d f5 5c 25 3d
       0.060151204 0.15461585 0.11968692 0.040371854
000110 e7 ea 7e 3d c9 84 25 3e 7c ef 63 3d d4 07 2e 3d
       0.06223574 0.16163935 0.055648312 0.042487934
000120 5e 7a 28 3e cc 30 2e 3a 90 9e d9 3d 97 f8 e3 3b
       0.1645293 0.00066448445 0.106259465 0.0069571245
000130 96 44 3b 3b 2a 99 c0 3d 2e 73 28 3c 46 84 bd 3d
       0.0028574816 0.09404214 0.010281367 0.09253745
000140 e7 2c 03 3e 1b fb dd 3d 81 14 ea 3d 99 34 ef 3d
       0.12810098 0.1083891 0.11429692 0.11679954
000150 43 0b 06 3e f2 c7 32 3b ec e4 03 3e da 92 32 3e
       0.13090234 0.0027279821 0.12880296 0.17438832
000160 8e cb 2c 3d c4 98 0c 3e 9c bf 43 3e 25 22 2e 3e
       0.042186312 0.1373015 0.19116062 0.17005213
000170 af 81 a7 3d 4c 42 0b 3e 21 d0 de 3d e0 dc f4 3d
       0.08179032 0.13599509 0.10879541 0.11956191
000180 77 98 06 3e 26 c3 92 3d 43 d2 08 3e 7b d6 5f 3d
       0.13144098 0.07166128 0.13361458 0.054647904
000190 8f 28 b1 bd 81 fb 07 bc 7e 86 af bb 70 4f 61 bc
       -0.08650314 -0.008299709 -0.005356609 -0.0137518495
0001a0 7a 9f 7e bd 99 5c f8 bd 1e 94 a2 bd 14 50 f6 bd
       -0.062163807 -0.121270366 -0.07938407 -0.120269924
0001b0 f0 5c 16 be d2 f9 a8 bc d4 83 e2 3c 2b 20 c8 bc
       -0.1468389 -0.020626936 0.027650751 -0.024429401
0001c0 5f 6d f4 bd b8 72 20 be 3a c9 d2 bb 46 eb 15 bd
       -0.119349234 -0.15668762 -0.0064326795 -0.036601327
0001d0 f1 03 f9 3c bc 48 93 3c b1 3c f3 bd ac 21 24 be
       0.030397387 0.017979018 -0.1187681 -0.1602847
0001e0 c3 a0 98 bd de 2e 34 bd 4b 10 0c be 57 02 38 be
       -0.07452538 -0.04399001 -0.1367809 -0.17969643
0001f0 0e 9f 8f bc 70 04 9e 3c 13 1b da 3c 78 bb c2 3c
       -0.017531898 0.019289225 0.026624238 0.023771033
000200 c4 2a 25 3e f3 4f 38 3d a7 ef 93 3d 84 70 bc 3d
       0.16129595 0.04499812 0.072234444 0.09201148
000210 38 b0 a7 3d 5d d1 4c bc 3d a7 13 3d 18 5f ba 3c
       0.08187908 -0.012501088 0.036048163 0.022750422
000220 6e 1d d5 3c d8 92 0c 3e bc 4b ce bc db 69 0c 3e
       0.02601501 0.13727891 -0.025182597 0.13712256
000230 c8 14 e5 3c 72 b6 3d 3d 61 d3 a8 3b fd 5b 36 3e
       0.02796401 0.04631657 0.0051521515 0.17808528
000240 4e a0 0c 3e 42 8b e9 ba 81 f2 95 3d d0 fd 03 3e
       0.13733026 -0.0017817991 0.073216446 0.1288979
000250 59 4d 37 3e 60 5a 80 bb 8b 93 9f 3d 9b 5b 8e bd
       0.179006 -0.0039170235 0.077918135 -0.06951066
000260 a6 3f 9c 3c 9e f9 7d 3d 8f 24 a2 3c 57 8c 96 3c
       0.019073319 0.06200563 0.019792823 0.018377466
000270 44 6b 96 bd 85 7a 72 bd 69 e2 d6 bd 6a b0 a2 39
       -0.07344678 -0.059198875 -0.10492403 0.00031030487
000280 1c aa b4 3d c7 ac 89 3d 63 74 4e bc 23 19 45 3d
       0.08821508 0.06722408 -0.012600991 0.048119675
000290 ab dd 56 3d 00 48 a7 3d 4c 66 26 3d 19 b0 47 3d
       0.052457493 0.0816803 0.0406249 0.048751924
0002a0 dc 0d 3c 3c 1e 76 c0 bd 9a 6b 0f 3d 64 dd ca 3d
       0.011477914 -0.09397529 0.035014726 0.09905508
0002b0 01 64 d2 3d 83 d9 96 3d a5 27 c8 3d 5b 73 03 be
       0.102729805 0.07365706 0.097731866 -0.12836973
0002c0 2a 8a ba bd 59 26 dd 39 f2 34 74 bd 7b 30 92 3a
       -0.09108384 0.00042180976 -0.059620805 0.0011153364
0002d0 c5 2d 96 bd 5f ff 29 be b0 a7 1f be 72 1b 97 bd
       -0.073329486 -0.16601323 -0.15591311 -0.07378282
0002e0 d3 07 d5 bc 26 1f 0d bd 80 f5 32 bc 7e d1 78 bd
       -0.026004707 -0.034453534 -0.01092279 -0.060746662
0002f0 86 92 d6 bc 9e 26 47 bb 9c 87 68 bc a2 74 19 3c
       -0.026192915 -0.0030388008 -0.014192488 0.009366186
000300 38 71 a4 3c 8b 81 eb bd 5d b0 0e bc ca 69 2a 3d
       0.020073518 -0.11499318 -0.0087090405 0.041604795
000310 1c bb ee bc 4f 72 93 3d 75 9a 25 bd d7 21 f0 bd
       -0.029141955 0.07199537 -0.040430505 -0.117252044
000320 81 44 02 3e b2 cb b8 3c 65 eb 03 3d 0b 2f ab bc
       0.12721445 0.022558067 0.03220691 -0.020896455
000330 6b 7f df 3d fc 93 1c 3e 4e 96 8f 3d 8b ff 9e 3d
       0.10912975 0.15290827 0.0701109 0.07763585
000340 21 a4 c9 3d c0 09 48 3d ee 8c 5d 3d 36 a8 10 3e
       0.09845758 0.048837423 0.05408948 0.14126667
000350 01 ab c6 3d 7f e1 b9 3d 08 58 5a bb 26 87 1d 3e
       0.09700585 0.09076213 -0.003331663 0.15383586
000360 bf 7a 98 3d 30 38 dc bc 12 52 17 3e 29 90 22 bd
       0.07445287 -0.026882261 0.14777401 -0.039688263
000370 d5 f9 a3 bc f9 6b b9 3d f3 7c 68 3d 5f 63 2b bc
       -0.02001659 0.09053797 0.056759786 -0.010460704
000380 9c ee 52 bc 27 f9 1e 3d 3e 1d dd bd 26 f8 1b bd
       -0.012874272 0.03881183 -0.10796593 -0.03807845
000390 46 81 b1 bd 0f 25 f7 bd 4c ad ab bc b7 4b 2b bd
       -0.08667235 -0.12067615 -0.020956658 -0.041820254
0003a0 05 d4 c6 bd f9 c7 10 bd 10 d8 fe bd 91 46 bc bd
       -0.09708408 -0.03534696 -0.124435544 -0.09193147
0003b0 c3 c8 dd bd 92 be 29 bb b8 03 0d be de 52 91 bb
       -0.10829308 -0.0025900942 -0.1377095 -0.0044349274
0003c0 f3 23 1a 3c 23 3b 5e bc df d6 b7 3b bf fe 1b be
       0.009407985 -0.013563904 0.0056103314 -0.15233897
0003d0 36 e0 e6 3c 32 d0 bc bd 8d 42 fd bd 0d cb eb bd
       0.028183084 -0.092193976 -0.12366209 -0.11513338
0003e0 a7 97 c1 bd 8e 82 c8 bd 5d 2b 84 bd bc a4 c6 bd
       -0.094527535 -0.09790526 -0.064535834 -0.09699389
0003f0 17 d5 22 bd 1a 7d c9 bb ad 42 a8 3d 36 8f 2d 3c
       -0.039754 -0.0061489465 0.082158424 0.010593226

model.hidden_layers.0.bias f4 [4]
000000 01 dc 89 bd f4 6f 06 3e b6 f2 c6 bd 4e 46 9a bd
       -0.067314155 0.13128644 -0.09714262 -0.07532941

model.output_layers.0.weight f4 [1, 4, 5, 5]
000000 a7 cd 09 3e a9 27 e8 bc 30 0a 79 be 5d e8 4a 3d
       0.13457356 -0.028339224 -0.24320292 0.049538005
000010 15 50 21 3e fd 04 02 3d 12 a2 5c bc 0f 29 bd be
       0.15753205 0.03174304 -0.013466375 -0.36945388
000020 04 a2 2d bc ec 46 37 3d f0 84 6f be 8d e4 b1 be
       -0.01059771 0.04474537 -0.23390555 -0.34744683
000030 97 13 17 bf b6 8e 9a be 6a ce 49 be 46 05 d5 3d
       -0.59014267 -0.30187005 -0.19707647 0.104013965
000040 91 1e b9 bd c1 bb 91 be a4 4b ba bd 89 a0 c3 3c
       -0.09039033 -0.28463557 -0.090964586 0.02388026
000050 91 e5 2f 3e 3f 3c c2 3d af e3 70 be 4e d6 25 bb
       0.17177416 0.09484147 -0.23524354 -0.0025304738
000060 83 1d f0 3d 03 04 6d 3d d8 07 93 3d 75 28 ae 3e
       0.11724379 0.057865154 0.071792305 0.3401524
000070 3e 9c 5f 3c ef 48 a0 3d df 80 db 3c 3e 20 f3 3d
       0.013648091 0.07826411 0.026794849 0.11871384
000080 63 f0 ac 3e 0b 15 b8 3c 75 0a 79 bc 1c 7a 40 3e
       0.3377715 0.022470972 -0.015200247 0.18796581
000090 f7 a7 91 3e 38 48 eb 3e 18 06 c1 3e 32 1d a2 3e
       0.2844846 0.45953536 0.37699962 0.316629
0000a0 e8 d1 2a 3d 13 16 31 3d 12 af 5d 3e bd fe 74 3d
       0.04170409 0.043233942 0.21648815 0.05981325
0000b0 ea 0a b4 3d 6f 37 c7 bc ba 5d 36 3d 6a b0 8e 3e
       0.08791144 -0.024318425 0.04452298 0.27868968
0000c0 14 03 87 bd c0 b5 23 bd f1 2e f5 3d b1 51 82 3c
       -0.06592384 -0.039968252 0.11971844 0.015908094
0000d0 d7 56 2c 3d 03 95 17 bd c5 26 d0 3d cf 20 df bc
       0.042075004 -0.037007343 0.10163645 -0.027237324
0000e0 64 70 73 bd 9c 35 9d bd 24 75 d0 bc e2 ca 51 3d
       -0.059433356 -0.07676241 -0.025446482 0.051218875
0000f0 db 86 d5 3b d5 86 18 be 16 3f 81 be 1f fb 88 bd
       0.00651632 -0.14895184 -0.25243443 -0.066885225
000100 4e 12 97 3c 26 89 79 3d 81 2e 9c 3d 2b d0 29 be
       0.018441346 0.06092181 0.076260574 -0.16583316
000110 fd cb 2c bd b8 77 23 3e 3f 73 58 3e c3 52 2e 3b
       -0.042186726 0.15963638 0.21137713 0.0026599623
000120 73 de 4a bc 7d 7d 1d bc 6d 47 06 3e dc fb db 3d
       -0.012382138 -0.009612438 0.13113184 0.10741398
000130 cf 11 a4 3d 6f 27 aa bd 37 17 0f 3e 10 99 df 3d
       0.08011209 -0.083083026 0.139737 0.10917866
000140 73 20 d3 3d 88 b5 b0 3d b3 5f 0c bc 5c b7 a2 bd
       0.103089236 0.08628374 -0.008567738 -0.07945129
000150 aa 38 96 3c db 89 ad bd d5 0c d8 bd cd 2c 83 be
       0.018337566 -0.084735595 -0.105493225 -0.25620118
000160 9d 7a cd bd 4e b1 03 be 55 b1 cb bc ba 6d 87 3d
       -0.10033152 -0.12860605 -0.024864832 0.066127256
000170 1f a1 06 bc 30 be bd bc 6a a9 e3 bb d5 24 95 3d
       -0.008217125 -0.023161978 -0.006947686 0.07282416
000180 bc f4 ed 3d 7d 47 2f bd 46 17 e8 bc 51 ab 1c 3e
       0.11618945 -0.042792786 -0.02833141 0.15299727

exp_avg f4 [4]
000000 35 d9 3d bd cd 9b 46 37 a0 70 e3 bb 95 91 13 bc
       -0.046349723 1.1837995e-05 -0.006940916 -0.009006877

exp_avg_sq f4 [4]
000000 74 91 43 3e 66 4b 70 32 85 f2 20 3b 1e 4c 01 3c
       0.19098455 1.3986982e-08 0.0024558615 0.007891683

exp_avg f4 [4, 1, 5, 5]
000000 04 00 00 80 04 00 00 80 04 00 00 80 04 00 00 80
       -6e-45 -6e-45 -6e-45 -6e-45
000010 04 00 00 80 04 00 00 80 04 00 00 80 04 00 00 80
       -6e-45 -6e-45 -6e-45 -6e-45
000020 04 00 00 80 04 00 00 80 04 00 00 80 04 00 00 80
       -6e-45 -6e-45 -6e-45 -6e-45
000030 04 00 00 80 04 00 00 80 04 00 00 80 04 00 00 80
       -6e-45 -6e-45 -6e-45 -6e-45
000040 04 00 00 80 04 00 00 80 04 00 00 80 04 00 00 80
       -6e-45 -6e-45 -6e-45 -6e-45
000050 04 00 00 80 04 00 00 80 04 00 00 80 04 00 00 80
       -6e-45 -6e-45 -6e-45 -6e-45
000060 04 00 00 80 79 32 85 b7 3a 87 87 b7 cd 63 8d b7
       -6e-45 -1.5878339e-05 -1.6156224e-05 -1.6854983e-05
000070 2f 6e 45 b7 1f ea 33 b7 0d d2 86 b7 11 2f 89 b7
       -1.1767769e-05 -1.0723742e-05 -1.6071857e-05 -1.635359e-05
000080 b7 32 8f b7 e7 9d 46 b7 ae b6 34 b7 97 0d 9c b7
       -1.7070544e-05 -1.1838484e-05 -1.07713695e-05 -1.8602977e-05
000090 41 98 9e b7 28 f4 a4 b7 b3 62 60 b7 93 31 4a b7
       -1.8905966e-05 -1.9664018e-05 -1.3374421e-05 -1.2051681e-05
0000a0 8c 6b 2b b7 df 55 2d b7 c7 9e 34 b7 1c 80 a0 b6
       -1.02174345e-05 -1.0331597e-05 -1.0765804e-05 -4.7832855e-06
0000b0 14 1b 83 b6 22 b1 0d b7 41 2a 0f b7 25 21 15 b7
       -3.9072565e-06 -8.445497e-06 -8.533302e-06 -8.888809e-06
0000c0 7b 8a 63 b6 06 f2 36 b6 cf 15 5f 91 a2 4d 69 91
       -3.3906242e-06 -2.726099e-06 -1.7598318e-28 -1.8404382e-28
0000d0 45 27 18 b5 28 0a 15 b5 2e 89 11 b5 4b a1 5c 91
       -5.668156e-07 -5.5521605e-07 -5.421633e-07 -1.7404642e-28
0000e0 4f 4f 82 91 83 2a 1f b5 cb e1 1b b5 b0 95 14 b5
       -2.0559261e-28 -5.929398e-07 -5.807057e-07 -5.535212e-07
0000f0 2d c8 5b 91 ed 20 38 92 e0 bf 23 b5 a8 54 22 b5
       -1.7337738e-28 -5.8100747e-28 -6.1001447e-07 -6.0472894e-07
000100 16 85 1d b5 04 00 00 80 04 00 00 80 91 82 3d 8c
       -5.8680723e-07 -6e-45 -6e-45 -1.4599321e-31
000110 bf 17 df 8a 27 94 d2 8a 04 00 00 80 04 00 00 80
       -2.1483051e-32 -2.0277993e-32 -6e-45 -6e-45
000120 39 fd 96 8b 0e fd d2 8a 63 0c d3 8a 04 00 00 80
       -5.8158905e-32 -2.0317453e-32 -2.032322e-32 -6e-45
000130 04 00 00 80 04 00 00 80 04 00 00 80 04 00 00 80
       -6e-45 -6e-45 -6e-45 -6e-45
000140 04 00 00 80 04 00 00 80 04 00 00 80 04 00 00 80
       -6e-45 -6e-45 -6e-45 -6e-45
000150 04 00 00 80 04 00 00 80 04 00 00 80 04 00 00 80
       -6e-45 -6e-45 -6e-45 -6e-45
000160 04 00 00 80 04 00 00 80 04 00 00 80 04 00 00 80
       -6e-45 -6e-45 -6e-45 -6e-45
000170 04 00 00 80 04 00 00 80 04 00 00 80 04 00 00 80
       -6e-45 -6e-45 -6e-45 -6e-45
000180 04 00 00 80 04 00 00 80 04 00 00 80 04 00 00 80
       -6e-45 -6e-45 -6e-45 -6e-45

exp_avg_sq f4 [4, 1, 5, 5]
000000 dd 7e d6 32 d8 b1 27 31 56 5f 99 30 ea 55 d9 2e
       2.497057e-08 2.440279e-09 1.1159311e-09 9.883279e-11
000010 f2 02 c9 2e 51 1b 9f 32 3c 2c 53 2f fe 92 ab 2f
       9.140945e-11 1.8522458e-08 1.9206053e-10 3.1209163e-10
000020 5a 04 c9 2e ad 9a ce 2e 39 ca c9 31 f9 d7 5c 2e
       9.141195e-11 9.3952714e-11 5.87286e-09 5.021403e-11
000030 b4 2b cb 2e c8 72 cf 2e 0b b1 d2 2e 77 60 3b 30
       9.2391345e-11 9.4336594e-11 9.5811435e-11 6.816729e-10
000040 8f e5 5e 2e e1 d4 cf 2e 5e d7 d4 2e a9 83 d3 2e
       5.0680845e-11 9.451085e-11 9.678901e-11 9.6185566e-11
000050 a1 35 a0 2e 94 08 61 2e cd 55 d4 2e 30 8e d6 2e
       7.285484e-11 5.1166696e-11 9.655885e-11 9.756851e-11
000060 f8 a1 d2 2e be c5 d5 33 21 b2 d5 33 8a b1 d7 33
       9.578466e-11 9.9545545e-08 9.950987e-08 1.0044012e-07
000070 b5 9b b5 33 a4 54 90 33 2e cd d7 33 7c 38 d7 33
       8.456792e-08 6.7209186e-08 1.004904e-07 1.0021992e-07
000080 f4 c0 d8 33 51 09 b6 33 18 99 90 33 2d f0 fb 33
       1.0093382e-07 8.47673e-08 6.73337e-08 1.1731786e-07
000090 4f df fa 33 e9 d7 fb 33 f5 82 d2 33 12 05 a5 33
       1.1682152e-07 1.1727372e-07 9.802708e-08 7.6843335e-08
0000a0 86 93 dd 33 65 21 dd 33 01 7d de 33 fc b3 b8 33
       1.0317949e-07 1.0297189e-07 1.0360419e-07 8.600907e-08
0000b0 be 38 8d 33 02 f8 de 33 c5 54 df 33 73 e6 e0 33
       6.5761455e-08 1.0382793e-07 1.0399666e-07 1.0472731e-07
0000c0 21 a4 bc 33 e7 a8 8e 33 03 23 05 3a cd 2b 15 3a
       8.784287e-08 6.6431134e-08 0.00050787645 0.0005690426
0000d0 5a e8 17 3a 67 fb 16 3a 6d 75 15 3a f2 01 0f 3a
       0.0005794816 0.0005759508 0.0005701397 0.0005455307
0000e0 c3 eb 1f 3a ea f9 22 3a 27 be 21 3a 69 f2 1f 3a
       0.00061005 0.00062170497 0.00061699975 0.00061014906
0000f0 b9 8f 10 3a e4 b9 21 3a ca 19 25 3a 45 06 24 3a
       0.00055145804 0.00061693625 0.00062980934 0.0006257038
000100 81 e7 21 3a 49 96 11 3a 0c e2 22 3a 0b a2 26 3a
       0.00061761594 0.0005553705 0.0006213493 0.0006356544
000110 19 fc 25 3a 2b df 23 3a 89 f8 0d 3a f0 e3 1e 3a
       0.0006331816 0.0006251211 0.0005415758 0.0006061187
000120 e7 a4 22 3a 6f 4d 22 3a 46 7c 20 3a 4e dd 66 39
       0.0006204382 0.0006191348 0.0006122034 0.00022016952
000130 e7 13 70 39 0c 6f 66 39 a9 e9 5a 39 ee db 58 39
       0.00022895598 0.00021975877 0.00020877145 0.00020681295
000140 5d b9 6f 39 85 39 79 39 5b bd 6f 39 a3 6d 64 39
       0.0002286187 0.00023767918 0.00022863357 0.00021784617
000150 ab 7e 62 39 51 6d 77 39 55 b9 80 39 ff 2a 78 39
       0.00021600227 0.00023596479 0.00024552146 0.0002366714
000160 a0 c2 6c 39 95 de 6a 39 17 38 68 39 cf 20 72 39
       0.00022579217 0.00022398897 0.00022146139 0.0002309114
000170 ef 4e 69 39 79 45 5f 39 e8 ac 5c 39 0b 81 5f 39
       0.00022250017 0.00021292818 0.00021045248 0.0002131501
000180 60 73 69 39 93 10 61 39 ed 3a 57 39 03 5d 54 39
       0.00022263592 0.00021463846 0.0002052595 0.00020252545

exp_avg f4 [4]
000000 04 00 00 00 cd 9b 46 37 f4 53 cb 33 04 00 00 00
       6e-45 1.1837995e-05 9.468195e-08 6e-45

exp_avg_sq f4 [4]
000000 db 22 cf 2d 5f 59 6d 32 ad 8b 3f 38 d3 59 93 37
       2.3548654e-11 1.3815536e-08 4.566803e-05 1.7565593e-05

exp_avg f4 [4, 4, 5, 5]
000000 04 00 00 80 04 00 00 80 04 00 00 80 04 00 00 80
       -6e-45 -6e-45 -6e-45 -6e-45
000010 04 00 00 80 04 00 00 80 04 00 00 80 04 00 00 80
       -6e-45 -6e-45 -6e-45 -6e-45
000020 04 00 00 80 04 00 00 80 04 00 00 80 04 00 00 80
       -6e-45 -6e-45 -6e-45 -6e-45
000030 04 00 00 80 04 00 00 80 04 00 00 80 04 00 00 80
       -6e-45 -6e-45 -6e-45 -6e-45
000040 04 00 00 80 04 00 00 80 04 00 00 80 04 00 00 80
       -6e-45 -6e-45 -6e-45 -6e-45
000050 04 00 00 80 04 00 00 80 04 00 00 80 04 00 00 80
       -6e-45 -6e-45 -6e-45 -6e-45
000060 04 00 00 80 04 00 00 00 04 00 00 00 04 00 00 00
       -6e-45 6e-45 6e-45 6e-45
000070 04 00 00 00 04 00 00 00 04 00 00 00 04 00 00 00
       6e-45 6e-45 6e-45 6e-45
000080 04 00 00 00 04 00 00 00 04 00 00 00 04 00 00 00
       6e-45 6e-45 6e-45 6e-45
000090 04 00 00 00 04 00 00 00 04 00 00 00 04 00 00 00
       6e-45 6e-45 6e-45 6e-45
0000a0 04 00 00 00 04 00 00 00 04 00 00 00 04 00 00 00
       6e-45 6e-45 6e-45 6e-45
0000b0 04 00 00 00 04 00 00 00 04 00 00 00 04 00 00 00
       6e-45 6e-45 6e-45 6e-45
0000c0 04 00 00 00 04 00 00 00 04 00 00 80 04 00 00 80
       6e-45 6e-45 -6e-45 -6e-45
0000d0 04 00 00 80 04 00 00 80 04 00 00 80 04 00 00 80
       -6e-45 -6e-45 -6e-45 -6e-45
0000e0 04 00 00 80 04 00 00 80 04 00 00 80 04 00 00 80
       -6e-45 -6e-45 -6e-45 -6e-45
0000f0 04 00 00 80 04 00 00 80 04 00 00 80 04 00 00 80
       -6e-45 -6e-45 -6e-45 -6e-45
000100 04 00 00 80 04 00 00 80 04 00 00 80 04 00 00 80
       -6e-45 -6e-45 -6e-45 -6e-45
000110 04 00 00 80 04 00 00 80 04 00 00 80 04 00 00 80
       -6e-45 -6e-45 -6e-45 -6e-45
000120 04 00 00 80 04 00 00 80 04 00 00 80 04 00 00 80
       -6e-45 -6e-45 -6e-45 -6e-45
000130 04 00 00 80 04 00 00 80 04 00 00 80 04 00 00 80
       -6e-45 -6e-45 -6e-45 -6e-45
000140 04 00 00 80 04 00 00 80 04 00 00 80 04 00 00 80
       -6e-45 -6e-45 -6e-45 -6e-45
000150 04 00 00 80 04 00 00 80 04 00 00 80 04 00 00 80
       -6e-45 -6e-45 -6e-45 -6e-45
000160 04 00 00 80 04 00 00 80 04 00 00 80 04 00 00 80
       -6e-45 -6e-45 -6e-45 -6e-45
000170 04 00 00 80 04 00 00 80 04 00 00 80 04 00 00 80
       -6e-45 -6e-45 -6e-45 -6e-45
000180 04 00 00 80 04 00 00 80 04 00 00 80 04 00 00 80
       -6e-45 -6e-45 -6e-45 -6e-45
000190 49 59 b8 b6 c7 4d bb b6 41 59 c3 b6 99 f4 87 b6
       -5.4940215e-06 -5.5820888e-06 -5.8218434e-06 -4.0517884e-06
0001a0 46 41 76 b6 dc ba ba b6 9a b9 bd b6 88 ef c5 b6
       -3.669485e-06 -5.5649853e-06 -5.654246e-06 -5.8989426e-06
0001b0 9e ed 88 b6 bd c7 77 b6 70 05 d8 b6 bc 69 db b6
       -4.080778e-06 -3.692213e-06 -6.4379346e-06 -6.5390177e-06
0001c0 74 20 e4 b6 be 24 9a b6 2d 4e 8a b6 9f 97 6a b6
       -6.7987075e-06 -4.593835e-06 -4.1218213e-06 -3.4956972e-06
0001d0 50 59 6d b6 d3 d5 76 b6 c6 71 e3 b5 e5 f2 bc b5
       -3.5367739e-06 -3.6781319e-06 -1.694593e-06 -1.4077783e-06
0001e0 72 e4 40 b6 a5 21 43 b6 32 1c 4b b6 7d ef a3 b5
       -2.8743202e-06 -2.9076848e-06 -3.026577e-06 -1.2214147e-06
0001f0 19 c6 86 b5 a0 4d 1e 37 c3 b8 20 37 ee 6e 27 37
       -1.0041432e-06 9.435607e-06 9.579761e-06 9.9798035e-06
000200 13 69 e9 36 3a 7f d3 36 54 b3 1f 37 8e 02 22 37
       6.9561734e-06 6.303101e-06 9.518892e-06 9.656547e-06
000210 f5 bc 28 37 b5 a4 e9 36 e3 94 d3 36 eb 91 37 37
       1.0057575e-05 6.9631155e-06 6.3056227e-06 1.0941624e-05
000220 ac e6 39 37 98 bd 40 37 59 4b 02 37 9b 2b ea 36
       1.1080567e-05 1.1488235e-05 7.766147e-06 6.97882e-06
000230 00 7c c8 36 3d 4b ca 36 fc eb d1 36 c5 a0 41 36
       5.9749e-06 6.028828e-06 6.2561576e-06 2.8852821e-06
000240 b9 22 21 36 be 5e a5 36 4c 0a a7 36 09 95 ad 36
       2.401108e-06 4.9284126e-06 4.9781866e-06 5.1731517e-06
000250 83 7f 0c 36 f0 47 e7 35 28 5d 71 b5 7b 53 75 b5
       2.0935847e-06 1.7231778e-06 -8.9915056e-07 -9.139109e-07
000260 fb 19 80 b5 2a 45 31 b5 d5 7d 20 b5 3b 99 74 b5
       -9.544304e-07 -6.6038285e-07 -5.9787754e-07 -9.1120063e-07
000270 28 9d 78 b5 1c db 81 b5 c4 96 32 b5 58 86 21 b5
       -9.261589e-07 -9.675018e-07 -6.652956e-07 -6.017267e-07
000280 f7 2c 8e b5 bb 72 90 b5 aa 55 96 b5 24 db 49 b5
       -1.0592911e-06 -1.0762227e-06 -1.1200802e-06 -7.5197227e-07
000290 b4 fd 34 b5 93 5f 1b b5 2f 33 1d b5 45 87 23 b5
       -6.742441e-07 -5.788108e-07 -5.856154e-07 -6.0919075e-07
0002a0 38 ef 94 b4 6e be 76 b4 30 8c 00 b5 9a 06 02 b5
       -2.7741203e-07 -2.2979813e-07 -4.7887715e-07 -4.843838e-07
0002b0 b1 54 07 b5 c2 09 58 b4 43 e1 30 b4 57 a6 37 b5
       -5.041466e-07 -2.0120117e-07 -1.6473227e-07 -6.841487e-07
0002c0 d4 a7 3a b5 fc e5 42 b5 57 f4 06 b5 d5 5e f4 b4
       -6.953462e-07 -7.2605303e-07 -5.027445e-07 -4.551754e-07
0002d0 b4 19 3a b5 86 25 3d b5 a5 8e 45 b5 2a f4 07 b5
       -6.93278e-07 -7.046259e-07 -7.3595794e-07 -5.0646725e-07
0002e0 bd ef f5 b4 9b 38 58 b5 65 ab 5b b5 af 97 64 b5
       -4.580924e-07 -8.054864e-07 -8.183327e-07 -8.515735e-07
0002f0 84 97 19 b5 02 ba 09 b5 b2 18 ec b4 3b df ee b4
       -5.7217426e-07 -5.1307154e-07 -4.3976394e-07 -4.4493376e-07
000300 be 7a f8 b4 a2 a2 62 b4 97 cd 3b b4 c1 2e c3 b4
       -4.6282906e-07 -2.1107056e-07 -1.7490525e-07 -3.6355598e-07
000310 0a 6e c5 b4 ab 7c cd b4 04 3f 24 b4 6f 8b 06 b4
       -3.6774173e-07 -3.8274933e-07 -1.5296615e-07 -1.2530448e-07
000320 04 00 00 80 04 00 00 80 04 00 00 80 04 00 00 80
       -6e-45 -6e-45 -6e-45 -6e-45
000330 04 00 00 80 04 00 00 80 04 00 00 80 04 00 00 80
       -6e-45 -6e-45 -6e-45 -6e-45
000340 04 00 00 80 04 00 00 80 04 00 00 80 04 00 00 80
       -6e-45 -6e-45 -6e-45 -6e-45
000350 04 00 00 80 04 00 00 80 04 00 00 80 04 00 00 80
       -6e-45 -6e-45 -6e-45 -6e-45
000360 04 00 00 80 04 00 00 80 04 00 00 80 04 00 00 80
       -6e-45 -6e-45 -6e-45 -6e-45
000370 04 00 00 80 04 00 00 80 04 00 00 80 04 00 00 80
       -6e-45 -6e-45 -6e-45 -6e-45
000380 04 00 00 80 04 00 00 00 04 00 00 00 04 00 00 00
       -6e-45 6e-45 6e-45 6e-45
000390 04 00 00 00 04 00 00 00 04 00 00 00 04 00 00 00
       6e-45 6e-45 6e-45 6e-45
0003a0 04 00 00 00 04 00 00 00 04 00 00 00 04 00 00 00
       6e-45 6e-45 6e-45 6e-45
0003b0 04 00 00 00 04 00 00 00 04 00 00 00 04 00 00 00
       6e-45 6e-45 6e-45 6e-45
0003c0 04 00 00 00 04 00 00 00 04 00 00 00 04 00 00 00
       6e-45 6e-45 6e-45 6e-45
0003d0 04 00 00 00 04 00 00 00 04 00 00 00 04 00 00 00
       6e-45 6e-45 6e-45 6e-45
0003e0 04 00 00 00 04 00 00 00 04 00 00 00 04 00 00 00
       6e-45 6e-45 6e-45 6e-45
0003f0 04 00 00 00 04 00 00 80 04 00 00 80 04 00 00 00
       6e-45 -6e-45 -6e-45 6e-45

exp_avg_sq f4 [4, 4, 5, 5]
000000 69 9c a7 38 54 1d ae 38 32 42 b3 38 96 39 af 38
       7.992314e-05 8.302429e-05 8.547715e-05 8.3553765e-05
000010 80 1e aa 38 04 e0 a8 38 a8 63 af 38 64 97 b4 38
       8.111913e-05 8.0525904e-05 8.363213e-05 8.6112675e-05
000020 80 87 b0 38 af 69 ab 38 fa d5 a9 38 63 5a b0 38
       8.417573e-05 8.1736005e-05 8.098404e-05 8.40917e-05
000030 a9 9f b5 38 ea 8a b1 38 5b 62 ac 38 a6 f7 a4 38
       8.6604916e-05 8.4658925e-05 8.219919e-05 7.8662575e-05
000040 9f 29 ab 38 5d 3e b0 38 be 50 ac 38 a9 60 a7 38
       8.161668e-05 8.40395e-05 8.2166385e-05 7.981185e-05
000050 44 2a 9f 38 07 03 a5 38 2c d2 a9 38 42 10 a6 38
       7.5895834e-05 7.868377e-05 8.0976955e-05 7.918525e-05
000060 51 55 a1 38 50 26 83 39 55 3e 88 39 89 49 8c 39
       7.69297e-05 0.00025014812 0.00025986382 0.0002675767
000070 b6 11 89 39 a6 fa 84 39 d5 fb 83 39 22 11 89 39
       0.00026143872 0.0002536375 0.00025173897 0.0002614344
000080 48 25 8d 39 b2 e9 89 39 84 d2 85 39 41 70 84 39
       0.00026921392 0.00026304793 0.00025524583 0.00025260638
000090 ee 80 89 39 de 9e 8d 39 a3 60 8a 39 6d 43 86 39
       0.00026226736 0.0002701198 0.0002639341 0.00025608708
0000a0 41 74 80 39 52 44 85 39 d0 3c 89 39 a6 1d 86 39
       0.00024500678 0.0002541864 0.00026175985 0.00025580561
0000b0 25 2c 82 39 a1 be 77 39 5f 6a 80 39 0d 2d 84 39
       0.00024828422 0.0002362677 0.00024493315 0.00025210567
0000c0 a3 30 81 39 fc d0 7a 39 d8 ba b5 38 64 e6 b4 38
       0.00024641035 0.0002391971 8.665555e-05 8.6259824e-05
0000d0 57 8c b7 38 fe 61 bb 38 ca 92 b5 38 4a c1 b9 38
       8.75226e-05 8.935107e-05 8.658094e-05 8.85749e-05
0000e0 b5 f4 b8 38 14 be bb 38 a5 b2 bf 38 06 f2 b9 38
       8.819384e-05 8.95226e-05 9.140865e-05 8.866568e-05
0000f0 0d 74 b7 38 45 91 b6 38 73 c2 b8 38 9c 82 bc 38
       8.747736e-05 8.705495e-05 8.810023e-05 8.9888665e-05
000100 9d 46 b7 38 b9 f0 b8 38 8c e2 b7 38 ff 85 b9 38
       8.739273e-05 8.818642e-05 8.768318e-05 8.846446e-05
000110 91 04 bd 38 e5 f3 b7 38 0c ee b7 38 52 b0 b6 38
       9.013073e-05 8.771549e-05 8.77046e-05 8.7112785e-05
000120 69 f6 b7 38 92 4f bb 38 d5 55 b6 38 c2 84 10 38
       8.7720175e-05 8.931676e-05 8.694424e-05 3.4455916e-05
000130 ae 68 16 38 a2 7c 18 38 a5 74 17 38 0a 29 16 38
       3.5860277e-05 3.6355697e-05 3.610984e-05 3.5801007e-05
000140 8e 3d 14 38 45 5a 1a 38 d6 73 1c 38 49 4b 1b 38
       3.5343277e-05 3.680053e-05 3.730118e-05 3.7024995e-05
000150 fd e0 19 38 f6 6e 13 38 3e 80 19 38 96 a2 1b 38
       3.668758e-05 3.515087e-05 3.6597477e-05 3.71063e-05
000160 cd 79 1a 38 5a fe 18 38 fd dc 13 38 9e aa 19 38
       3.6829897e-05 3.6476507e-05 3.5253343e-05 3.6636942e-05
000170 0c 81 1b 38 04 47 1a 38 46 ee 18 38 05 99 11 38
       3.7075064e-05 3.67826e-05 3.6461533e-05 3.4713205e-05
000180 8f 0a 17 38 12 a3 18 38 ec 8b 17 38 9b 48 16 38
       3.601104e-05 3.6391495e-05 3.6131518e-05 3.5830406e-05
000190 1a 0e 97 31 a0 ae 98 31 f4 ab 9b 31 d1 5b 84 31
       4.3962816e-09 4.443635e-09 4.5306425e-09 3.852144e-09
0001a0 49 e6 53 31 4c ce 98 31 cb 74 9a 31 05 7d 9d 31
       3.0835443e-09 4.4472355e-09 4.4952677e-09 4.5835145e-09
0001b0 3b ce 85 31 65 30 56 31 94 49 b2 31 88 31 b4 31
       3.894255e-09 3.1168608e-09 5.1888467e-09 5.2443205e-09
0001c0 0e 92 b7 31 d2 aa 9c 31 5d 06 7a 31 9e b3 98 31
       5.3426055e-09 4.5596176e-09 3.6383405e-09 4.4442023e-09
0001d0 d3 97 9a 31 2c c3 9d 31 69 ac 85 31 7d 63 52 31
       4.4992503e-09 4.59149e-09 3.89041e-09 3.0615575e-09
0001e0 a2 f6 91 31 f3 d5 93 31 42 dd 96 31 10 8c 7f 31
       4.2480943e-09 4.3025863e-09 4.3907287e-09 3.7187e-09
0001f0 8d 58 47 31 0b c2 69 32 3e 5e 6a 32 3e 1a 6d 32
       2.9008647e-09 1.3606505e-08 1.3642021e-08 1.3801182e-08
000200 37 ca 4a 32 74 4b 23 32 30 85 67 32 38 f2 67 32
       1.1803926e-08 9.505005e-09 1.3476253e-08 1.3501044e-08
000210 b6 85 6a 32 28 5e 48 32 1e 00 21 32 73 1b 86 32
       1.3650995e-08 1.1662941e-08 9.37146e-09 1.5612136e-08
000220 d1 5a 86 32 c2 6f 87 32 00 58 68 32 1c 06 3a 32
       1.5640952e-08 1.576689e-08 1.3524186e-08 1.0828014e-08
000230 b2 98 69 32 6b a6 6a 32 83 43 6d 32 65 28 4a 32
       1.3597104e-08 1.3658432e-08 1.3810566e-08 1.1767132e-08
000240 91 d6 1f 32 dc a0 5f 32 2a 85 60 32 54 f8 62 32
       9.303805e-09 1.3016884e-08 1.3068794e-08 1.3211395e-08
000250 0f 7c 41 32 79 f5 17 32 85 83 6d 30 6b dc 67 30
       1.1262286e-08 8.845171e-09 8.6407e-10 8.4350543e-10
000260 17 7b 5e 30 93 a8 29 30 0f d6 1a 30 20 f5 6c 30
       8.093805e-10 6.17214e-10 5.632907e-10 8.6204643e-10
000270 89 9b 6b 30 8e 27 62 30 22 58 26 30 27 f8 19 30
       8.571353e-10 8.227453e-10 6.051569e-10 5.601372e-10
000280 e5 b7 34 30 fc 9b 44 30 49 70 38 30 05 7d ef 2f
       6.574495e-10 7.152605e-10 6.7098377e-10 4.3562678e-10
000290 95 67 f2 2f 20 f7 e0 2f f8 9b fc 2f 87 b9 f2 2f
       4.4093143e-10 4.0920956e-10 4.5949355e-10 4.415137e-10
0002a0 5a 0c 87 2f c8 78 88 2f 4d f2 c5 30 ce 88 c5 30
       2.4565133e-10 2.4824076e-10 1.4402503e-09 1.4372519e-09
0002b0 1c 50 c4 30 44 84 90 30 8d 65 7e 30 20 dd b0 30
       1.4283645e-09 1.0514971e-09 9.2548974e-10 1.2868533e-09
0002c0 61 bd 8a 30 f9 55 55 30 6f ba 66 30 ce 7b 66 30
       1.0094646e-09 7.7611123e-10 8.393845e-10 8.384945e-10
0002d0 06 2a 9d 30 18 d8 73 30 23 71 38 30 b1 60 47 30
       1.1435197e-09 8.870997e-10 6.7099587e-10 7.2533185e-10
0002e0 f3 91 4a 30 22 05 89 30 65 f8 4e 30 6c 8c 13 30
       7.369458e-10 9.969521e-10 7.5295353e-10 5.367784e-10
0002f0 e6 82 23 30 17 fe 2b 30 9f b6 81 30 e3 3c 41 30
       5.948507e-10 6.257052e-10 9.437889e-10 7.0299516e-10
000300 d9 da 08 30 69 a6 17 30 6a c5 1d 30 49 0c b0 30
       4.9787513e-10 5.5169963e-10 5.739681e-10 1.2809177e-09
000310 d0 38 8f 30 c0 46 74 30 b2 38 78 30 53 0b 63 30
       1.0420766e-09 8.8867225e-10 9.0302443e-10 8.259821e-10
000320 4b ab c8 30 4b ab c8 30 6c 08 d1 30 29 cb d7 2b
       1.46006e-09 1.46006e-09 1.5209145e-09 1.5333057e-12
000330 98 f3 a2 2b 7f 3c cc 30 58 e1 d0 30 6a 05 ef 30
       1.1578403e-12 1.4860148e-09 1.5198038e-09 1.7391077e-09
000340 64 af 88 2d da 54 7b 2d 7f 3c cc 30 58 e1 d0 30
       1.5539299e-11 1.4286539e-11 1.4860148e-09 1.5198038e-09
000350 10 82 fc 30 83 ff e4 2d b6 aa d6 2d d1 be c7 30
       1.8372379e-09 2.6034069e-11 2.4404794e-11 1.4533389e-09
000360 99 56 cc 30 e9 82 f7 30 83 ff e4 2d b6 aa d6 2d
       1.4867566e-09 1.8008822e-09 2.6034069e-11 2.4404794e-11
000370 56 f1 bc 30 25 69 c1 30 3d 78 eb 30 b6 aa d6 2d
       1.3747392e-09 1.4072482e-09 1.7132674e-09 2.4404794e-11
000380 b6 aa d6 2d 58 55 98 31 68 c4 87 31 f4 60 94 31
       2.4404794e-11 4.4334847e-09 3.951346e-09 4.318389e-09
000390 1b 10 9e 2c af 2f 6e 2c 2e ac 9a 31 b0 b1 8d 31
       4.492418e-12 3.3848304e-12 4.5015645e-09 4.123841e-09
0003a0 9a cd aa 31 c7 c7 4c 2e 15 7b 3b 2e cb 9e 99 31
       4.9710254e-09 4.6561668e-11 4.2628196e-11 4.4709387e-09
0003b0 be 7e 8b 31 21 6a b3 31 b2 84 ab 2e 69 61 a2 2e
       4.0598414e-09 5.221651e-09 7.799751e-11 7.3842106e-11
0003c0 ea 48 96 31 16 11 88 31 4b cc af 31 51 f3 ac 2e
       4.373864e-09 3.9600634e-09 5.1163958e-09 7.864876e-11
0003d0 85 b9 a3 2e 51 69 8e 31 89 4d 81 31 f3 d9 a7 31
       7.445337e-11 4.144717e-09 3.763209e-09 4.8851176e-09
0003e0 1d a6 a3 2e 8c 88 a3 2e 54 a7 40 31 35 75 80 31
       7.4418895e-11 7.4366374e-11 2.8034792e-09 3.738615e-09
0003f0 a2 1d 2f 30 d2 63 17 2b eb f3 03 2b 59 3a 4a 31
       6.370674e-10 5.3784505e-13 4.6879053e-13 2.9428036e-09

exp_avg f4 [4]
000000 04 00 00 00 cd 9b 46 37 04 00 00 00 04 00 00 00
       6e-45 1.1837995e-05 6e-45 6e-45

exp_avg_sq f4 [4]
000000 cc b1 8e 39 33 af 6e 32 3b b3 c1 31 97 17 97 37
       0.0002721682 1.3893259e-08 5.6374154e-09 1.8011588e-05

exp_avg f4 [1, 4, 5, 5]
000000 1d 97 41 bc f4 1e 41 bc 3d b3 07 bc 9b fc 38 bc
       -0.011815813 -0.011787165 -0.00828248 -0.011290695
000010 22 7d 3a bc 8e c5 49 bc 21 2d 49 bc cb c3 0e bc
       -0.011382373 -0.012315167 -0.012278826 -0.008713673
000020 6b 1d 41 bc 75 d9 42 bc 48 50 20 bc 72 d3 1e bc
       -0.011786799 -0.011892666 -0.009784766 -0.009693967
000030 b2 a2 c5 bb ed 00 17 bc 2e d0 19 bc 8e cf 63 bc
       -0.0060313577 -0.009216529 -0.009388013 -0.013904465
000040 6e 92 63 bc 65 a1 29 bc d9 ca 5b bc 2a 39 5d bc
       -0.013889892 -0.010353421 -0.013415062 -0.0135023985
000050 3e 88 77 bc d1 bd 77 bc 21 30 3f bc 00 d8 6f bc
       -0.015108166 -0.015120939 -0.01166919 -0.014638901
000060 76 95 70 bc 9d 9d 94 3c 5c f5 93 3c 95 c5 44 3c
       -0.014684072 0.018141562 0.018061332 0.012009998
000070 13 f3 8c 3c ec 7a 8e 3c cf 67 9b 3c 9f a2 9a 3c
       0.01720575 0.017392598 0.018970398 0.018876372
000080 7b 6a 50 3c 7f b0 93 3c 96 6c 95 3c 0f 20 6f 3c
       0.012720699 0.018028496 0.018240254 0.014595046
000090 1c 0b 6c 3c 3d 70 04 3c 35 90 5e 3c 67 e3 63 3c
       0.014406946 0.0080834 0.013584186 0.013909197
0000a0 15 c8 b1 3c 52 51 b1 3c 22 97 7e 3c dc 9d aa 3c
       0.021701852 0.021645222 0.015538963 0.020827226
0000b0 5d 17 ac 3c 3e fa c2 3c 29 e7 c2 3c b4 13 92 3c
       0.021007234 0.023800965 0.023791866 0.01783166
0000c0 e4 19 bc 3c 97 fa bc 3c 7a be f0 ba 34 ed f0 ba
       0.022961564 0.02306871 -0.0018367313 -0.0018381239
0000d0 50 35 a4 ba d6 9d e7 ba 3e 65 ea ba f5 4f fb ba
       -0.0012528095 -0.001767094 -0.0017882956 -0.0019173609
0000e0 c1 58 fb ba 0a 51 ad ba c6 23 f2 ba 7b 36 f5 ba
       -0.0019176231 -0.0013223004 -0.0018473796 -0.0018708253
0000f0 f7 c1 c2 ba aa 9b c1 ba fe e2 62 ba 41 b9 b8 ba
       -0.0014858831 -0.0014771123 -0.00086550403 -0.0014093296
000100 ad 3a bd ba e9 bd 0e bb 0b fe 0e bb 24 93 d0 ba
       -0.0014437042 -0.0021780676 -0.0021818902 -0.0015912992
000110 a2 8e 0a bb d4 e0 0b bb 91 cd 1b bb 59 57 1c bb
       -0.0021142145 -0.0021343725 -0.002377365 -0.0023855774
000120 21 1d ed ba a4 ce 17 bb 4b a9 18 bb fb e9 bb ba
       -0.0018090346 -0.002316394 -0.0023294266 -0.0014336699
000130 0d 06 bc ba 74 de 81 ba 29 d1 b4 ba 26 cf b6 ba
       -0.0014345065 -0.0009908215 -0.0013795245 -0.0013947233
000140 8f 03 c4 ba 87 02 c4 ba 14 dc 88 ba 95 e1 bc ba
       -0.0014954674 -0.0014954366 -0.0010441565 -0.001441049
000150 e1 18 bf ba 0b 44 99 ba 22 5d 98 ba 8d 30 37 ba
       -0.0014579558 -0.0011693252 -0.0011624435 -0.00069881306
000160 e1 7a 91 ba 49 c8 94 ba 97 fe dd ba 81 58 de ba
       -0.0011099243 -0.0011351194 -0.0016936836 -0.0016963632
000170 89 aa a3 ba ee 79 d7 ba 28 5e d9 ba db c8 f1 ba
       -0.0012486737 -0.0016439536 -0.0016583847 -0.00184467
000180 e2 92 f2 ba ab 4a b9 ba df 8e eb ba 1c be ec ba
       -0.0018506909 -0.0014136633 -0.0017971656 -0.0018062028

exp_avg_sq f4 [1, 4, 5, 5]
000000 40 de be 3c 0b 29 c4 3c c7 f1 c8 3c 1f 26 c4 3c
       0.023299336 0.023945352 0.02452935 0.023943959
000010 36 18 bf 3c 11 9f c3 3c 8c 14 c9 3c 51 1c ce 3c
       0.023326974 0.02387956 0.02454593 0.025159987
000020 68 14 c9 3c 6e dd c3 3c f9 3c c8 3c 87 ea cd 3c
       0.024545863 0.023909297 0.024443137 0.025136245
000030 d5 75 d3 3c 0a f2 cd 3c bc 80 c8 3c 34 4f c3 3c
       0.025813023 0.025139827 0.024475448 0.023841478
000040 9a bf c8 3c ee c0 cd 3c 36 be c8 3c 3d 8b c3 3c
       0.024505425 0.02511641 0.024504762 0.023870105
000050 c6 14 be 3c f4 54 c3 3c f4 0c c8 3c 3b 4f c3 3c
       0.023203265 0.02384422 0.024420239 0.023841491
000060 f5 4a be 3c fa 99 94 3d 79 c1 98 3d 31 ae 9c 3d
       0.023229102 0.07255931 0.07458777 0.07650412
000070 de de 98 3d f5 dd 94 3d b2 8f 98 3d db d9 9c 3d
       0.074643835 0.072688974 0.07449283 0.0765874
000080 b7 f8 a0 3d bc f9 9c 3d 17 d6 98 3d b5 53 9c 3d
       0.078599386 0.076648206 0.074627094 0.07633153
000090 33 ca a0 3d 96 4b a5 3d 08 f1 a0 3d 95 9f 9c 3d
       0.078510664 0.080710575 0.07858473 0.07647625
0000a0 d9 62 98 3d 4b ab 9c 3d 9d c7 a0 3d 1b cc 9c 3d
       0.07440729 0.07649859 0.07850573 0.076561175
0000b0 81 aa 98 3d 6f 40 94 3d 8f 63 98 3d 35 48 9c 3d
       0.07454396 0.07238852 0.07440864 0.0763096
0000c0 ac 81 98 3d 58 85 94 3d 17 5b 12 3c 8b fa 15 3c
       0.07446608 0.07251996 0.00893285 0.009153972
0000d0 6f 9c 19 3c a8 19 16 3c 62 97 12 3c e8 9e 16 3c
       0.009375676 0.00916139 0.008947225 0.00919316
0000e0 f0 60 1a 3c f0 22 1e 3c 55 71 1a 3c 42 c8 16 3c
       0.009422526 0.009651884 0.0094264345 0.009203019
0000f0 00 8e 17 3c 8d 70 1b 3c 96 5b 1f 3c b8 7a 1b 3c
       0.009250164 0.009487283 0.009726426 0.009489708
000100 b3 bc 17 3c 72 14 16 3c ea e5 19 3c 29 8e 1d 3c
       0.009261298 0.009160148 0.009393195 0.009616413
000110 59 de 19 3c ac 37 16 3c 13 d5 13 3c c9 90 17 3c
       0.009391391 0.009168547 0.009022969 0.009250828
000120 2d 17 1b 3c ba 8c 17 3c 85 fb 13 3c d9 96 7e 3b
       0.009465975 0.00924986 0.009032135 0.0038847236
000130 8c c4 82 3b b0 28 86 3b 33 0c 84 3b d2 45 81 3b
       0.0039907154 0.004094206 0.0040297746 0.003945091
000140 69 1b 83 3b 4c b7 86 3b 86 3d 8a 3b cd 01 88 3b
       0.0040010703 0.004111206 0.00421876 0.0041506053
000150 97 1c 85 3b d0 e2 85 3b 95 9e 89 3b bd 57 8d 3b
       0.004062246 0.004085876 0.0041998127 0.0043134377
000160 df f1 8a 3b f5 ef 87 3b 61 3b 83 3b 97 d7 86 3b
       0.004240259 0.004148478 0.0040048813 0.004115056
000170 3c 59 8a 3b 30 14 88 3b 96 26 85 3b 63 3e 7f 3b
       0.0042220633 0.004152797 0.0040634377 0.0038947097
000180 ff 1b 83 3b 42 78 86 3b 8e 47 84 3b 4e 6f 81 3b
       0.00400114 0.0041036913 0.0040368503 0.003950036
