outputs/ConvRNN_D1_K7_H8_SS7.6_04_21-05-40/checkpoints/model-epoch=06-validation_loss=0.14.ckpt (torch, 61790 bytes, 18 tensors)

model.bias f4 [8]
0	0xbf24f5d8	-0.6443763
1	0x3f942395	1.1573359
2	0xbeaf9815	-0.34295717
3	0xbf57d139	-0.84303623
4	0xbf034fdd	-0.51293737
5	0x3da9c6b1	0.082898505
6	0xbe328655	-0.17434056
7	0xbd235003	-0.039871227

model.input_layers.0.weight f4 [8, 1, 7, 7]
0	0x3f000312	0.50004685
1	0x3e899d48	0.2687781
2	0x3edfc16c	0.43702257
3	0x3f05aac5	0.522137
4	0x3f049aa7	0.5179848
5	0x3e896da2	0.26841456
6	0x3ec5cb0d	0.38631478
7	0x3f2b0bff	0.6681518
8	0x3eda04f2	0.42581898
9	0x3f01438f	0.5049371
10	0x3f036756	0.51329553
11	0x3eaf9499	0.3429306
12	0x3ebc3910	0.36762285
13	0x3ebf3d90	0.37351656
14	0x3eb3d94e	0.35126728
15	0x3dc1e526	0.09467535
16	0x3e380952	0.17972305
17	0x3ea1c057	0.31592056
18	0x3e1c3a1b	0.1525654
19	0x3ea496e1	0.3214636
20	0x3e915885	0.28387848
21	0x3d99dde4	0.075130254
22	0xbe5c26c6	-0.21499166
23	0xbe428aac	-0.18998212
24	0xbba96eee	-0.0051706946
25	0xbdd989aa	-0.106219605
26	0xbe8347b7	-0.25640652
27	0xbe0b439a	-0.13600007
28	0x3ea92cc9	0.3304198
29	0xbd24e1b9	-0.04025433
30	0x3e6989bf	0.22806452
31	0x3e93a368	0.28835607
32	0x3da7f8d5	0.08201758
33	0x3c2c4f9d	0.010517028
34	0x3e596d21	0.21233036
35	0x3f129ad6	0.5726751
36	0x3eb30553	0.34965
37	0x3f13bfdc	0.5771463
38	0x3eef77c1	0.46771052
39	0x3efe38bc	0.4965266
40	0x3e8fde6c	0.28099382
41	0x3e8080ab	0.25098166
42	0x3f483471	0.7820502
43	0x3f1798b2	0.5921737
44	0x3f21b195	0.63161594
45	0x3f1c9316	0.61161935
46	0x3f0da6e7	0.553328
47	0x3ee71ad8	0.45137668
48	0x3ed061da	0.40699655
49	0x3eb583c0	0.3545208
50	0x3eb5c5d4	0.35502493
51	0x3f181aff	0.5941619
52	0x3eb964d6	0.36209744
53	0x3eba360a	0.36369354
54	0x3ed35523	0.41275892
55	0x3f09a628	0.5376916
56	0x3ee47128	0.4461758
57	0x3ef3bce3	0.47605047
58	0x3effbd6f	0.49949214
59	0x3e97a5be	0.2961864
60	0x3e154011	0.1457522
61	0x3eea9081	0.45813373
62	0x3ef0f02e	0.47058243
63	0x3e93c97c	0.28864658
64	0x3e7e5123	0.24835639
65	0x3e0134ad	0.1261775
66	0x3e01fc97	0.12694012
67	0x3dc5846a	0.096443966
68	0x3e2327a2	0.15933087
69	0x3e803954	0.25043738
70	0x3e01ab43	0.12662987
71	0x3d1addb0	0.037809074
72	0x3c85d8df	0.016338764
73	0xbce61496	-0.028085988
74	0x3db5ff77	0.08886617
75	0x3e6079f2	0.21921518
76	0x3e302374	0.17201024
77	0x3da00ff6	0.07815544
78	0x3d8a5f01	0.06756402
79	0x3e4e1722	0.20126012
80	0xbdb43e9b	-0.088010035
81	0xbdabcbac	-0.08388457
82	0x3e23399f	0.1593995
83	0x3e991485	0.29898468
84	0x3e20bf9b	0.15698092
85	0x3e02ada5	0.12761553
86	0x3e21c191	0.15796496
87	0xbe16a614	-0.14711791
88	0x3de3f87d	0.1113138
89	0x3cac9bba	0.02107035
90	0x3c1a83bd	0.009430823
91	0x3e2d5a8b	0.1692907
92	0x3e87a3d2	0.26492172
93	0x3d947212	0.0724832
94	0xbe6300d7	-0.22168289
95	0xbe26014d	-0.16211434
96	0x3e30f0ec	0.17279404
97	0x3e008dce	0.12554094
98	0xbd8b17c8	-0.06791645
99	0xbd8bcf7a	-0.068266824
100	0x3e22dfa5	0.15905626
101	0x3f0ae211	0.542512
102	0xbd20465c	-0.0391296
103	0xbe5357c3	-0.20638947
104	0xbd5e8afd	-0.05433177
105	0xbe6da70b	-0.23208253
106	0xbde1cebb	-0.11025759
107	0xbe51f5aa	-0.2050387
108	0x3ed65544	0.41861928
109	0xbd7e60ba	-0.062103964
110	0xbe249eb2	-0.16076162
111	0xbda675f2	-0.08127965
112	0x3d2669ff	0.04062843
113	0xbdeb8656	-0.11500232
114	0xbdfe3ad5	-0.12413565
115	0x3ee99feb	0.4562982
116	0xbe1976af	-0.1498668
117	0xbe2a6013	-0.16638212
118	0xbd60a25d	-0.05484234
119	0x3eeadc01	0.45870975
120	0x3ee1c2d3	0.44093952
121	0x3e848ef1	0.25890306
122	0x3f73c526	0.952227
123	0x3e93e712	0.2888723
124	0x3e2583d9	0.16163577
125	0x3ee407ac	0.44537103
126	0x3d8e2535	0.069406904
127	0xbdb0bfc2	-0.08630325
128	0xbca88b72	-0.020574305
129	0x3ef69082	0.48157126
130	0x3c1758c5	0.009237473
131	0xbe679245	-0.22614391
132	0x3deb0d65	0.11477164
133	0x3d623125	0.05522265
134	0xbea61e5f	-0.32445046
135	0xbdf952da	-0.12174006
136	0x3e3a268d	0.18178768
137	0xbe7132a0	-0.23554468
138	0xbe821778	-0.2540853
139	0xbd8c7f9f	-0.06860279
140	0xbd3114a5	-0.04323258
141	0xba17802d	-0.00057792926
142	0x3e08c962	0.13358071
143	0x3f012e70	0.50461483
144	0x3e188620	0.14894915
145	0xbd96ba26	-0.07359724
146	0xbe236d96	-0.15959772
147	0xbce2a037	-0.027664287
148	0xbe0f81a9	-0.14014305
149	0xbd87206b	-0.0659798
150	0x3d3466d6	0.044043384
151	0x3d5fd2ba	0.054644324
152	0x3e1ee904	0.15518576
153	0x3d540d12	0.051770277
154	0xbd429210	-0.047502577
155	0x3d262f9c	0.040572748
156	0xbd5fe837	-0.054664817
157	0xbd9e6102	-0.077333465
158	0x3ddebcd1	0.108758576
159	0x3dc126af	0.094312064
160	0xbc80d455	-0.015726248
161	0xbe62d04d	-0.22149773
162	0xbe3b8d5d	-0.18315645
163	0x3de43bee	0.11144243
164	0xbdb40a9d	-0.08791087
165	0x3e1e3add	0.15452142
166	0x3e1a8720	0.15090609
167	0x3e6021c6	0.21887884
168	0xbe0be71d	-0.13662381
169	0x3d784d19	0.0606204
170	0x3c8ba8e3	0.017048305
171	0x3dfb76fd	0.122785546
172	0xbd6a1356	-0.057147346
173	0xbcb48283	-0.02203489
174	0x3c442369	0.011971333
175	0xbe60b818	-0.21945226
176	0xbd845442	-0.064613834
177	0x3d0b60e6	0.034027956
178	0x3cf2c425	0.029634545
179	0x3d49912f	0.049210723
180	0xbcfdfe2e	-0.031004991
181	0x3e311c29	0.17295898
182	0x3ce6ed0c	0.028189205
183	0x3d7cd3f7	0.061725583
184	0x3e16ca05	0.14725502
185	0x3b4e44e9	0.003147418
186	0xbd4bda71	-0.04976887
187	0x3e1f6cfd	0.1556892
188	0x3d63c2e9	0.055605803
189	0xbd794c09	-0.06086353
190	0xbb54a636	-0.0032447702
191	0x3e239aca	0.15977016
192	0xbbbf4b28	-0.0058378167
193	0xbdd18e9b	-0.10232278
194	0xbd34bf73	-0.044127893
195	0x3d3edf9e	0.046599977
196	0xbd05f8ff	-0.032708164
197	0x3c19c39c	0.009385016
198	0xbda7920b	-0.08182152
199	0xbea10870	-0.3145175
200	0xbdec561a	-0.1153986
201	0x3e2f96a2	0.17147306
202	0x3c141e9a	0.009040499
203	0xbd8d825b	-0.06909629
204	0x3e89e232	0.26930386
205	0x3e637d8c	0.22215861
206	0xbe82139a	-0.2540558
207	0x3e4422be	0.19153878
208	0x3e338fdc	0.17535347
209	0x3e42fbdb	0.19041388
210	0xbe7909a1	-0.2432008
211	0x3cd5a901	0.026081564
212	0x3e34338c	0.17597789
213	0xbe5bd0f8	-0.21466434
214	0x3e399814	0.1812442
215	0x3e3d12a0	0.18464136
216	0x3dccac36	0.09993784
217	0xbf03a5b8	-0.5142474
218	0xbe94bb05	-0.29048935
219	0xbdeb3944	-0.11485532
220	0xbefab7d4	-0.48968375
221	0xbd99dbfa	-0.0751266
222	0xbe7fad52	-0.2496846
223	0xbee1d593	-0.44108257
224	0xbd666dc9	-0.056257043
225	0x3e4b0c06	0.19828805
226	0x3e0de793	0.1385787
227	0xbea1c16c	-0.31592882
228	0x3d167da4	0.036740914
229	0x3dff7a7d	0.12474535
230	0xbd92f24f	-0.07175123
231	0x3d6bcf4e	0.057570748
232	0x3ea7ad7a	0.3274954
233	0x3e310834	0.17288285
234	0xbe09a702	-0.13442615
235	0xbc44037d	-0.011963722
236	0x3e810aaa	0.2520345
237	0x3e61e615	0.22060426
238	0x3d9fcfc0	0.07803297
239	0x3e05fcdc	0.1308474
240	0xbe0b3559	-0.1359457
241	0xbef399ca	-0.4757827
242	0x3c608639	0.013703876
243	0x3df951a9	0.121737786
244	0xbd4d9dc7	-0.050199296
245	0xbe7c4ee3	-0.24639468
246	0xbe6ef730	-0.23336482
247	0xbe9a6675	-0.30156294
248	0xbe52ec36	-0.2059792
249	0xbeb81f50	-0.3596139
250	0xbef406a7	-0.47661325
251	0xbeccf3cd	-0.40029755
252	0xbebc54c2	-0.36783415
253	0xbef4b76d	-0.47796193
254	0xbed17e16	-0.40916508
255	0xbe9d5cdc	-0.3073491

model.input_layers.0.bias f4 [8]
0	0xbf25a213	-0.6470043
1	0xbfa91095	-1.3208185
2	0xbf421b61	-0.75823027
3	0xbfb16559	-1.3859054
4	0xbc19748e	-0.009366168
5	0x3ee35d69	0.44407204
6	0xbf7f5717	-0.99742264
7	0xbf71a220	-0.9438801

model.hidden_layers.0.weight f4 [8, 8, 7, 7]
0	0xbe8af4e9	-0.27139977
1	0xbe7e19fc	-0.248146
2	0xbea2ab54	-0.31771338
3	0xbe78e765	-0.2430702
4	0xbe5566ea	-0.2084004
5	0xbe4279bf	-0.18991755
6	0xbe177459	-0.14790477
7	0xbe569d79	-0.20958509
8	0xbe81ebb7	-0.2537515
9	0xbeaad6ae	-0.33366913
10	0xbe89464c	-0.26811445
11	0xbe6549a6	-0.22391376
12	0xbe38e59b	-0.18056338
13	0xbdd0d3b8	-0.10196632
14	0xbe910f01	-0.2833176
15	0xbe8e147a	-0.27749997
16	0xbeb305f8	-0.3496549
17	0xbe9e9f15	-0.30980745
18	0xbe8d2f5b	-0.27575192
19	0xbe69a741	-0.22817709
20	0xbe220eec	-0.15826005
21	0xbeae2ff7	-0.3402097
22	0xbeb26997	-0.34846184
23	0xbeb364a3	-0.35037717
24	0xbebb91af	-0.36634585
25	0xbe95e2ad	-0.29274502
26	0xbe358975	-0.17728217
27	0xbe08d4c7	-0.13362418
28	0xbe997ce8	-0.29978108
29	0xbe8acdb5	-0.27110067
30	0xbeaf14e8	-0.34195638
31	0xbeb03e7f	-0.3442268
32	0xbe927e7d	-0.28612128
33	0xbdec607c	-0.115418404
34	0xbdd085c9	-0.101817675
35	0xbe8ec943	-0.27887926
36	0xbeb3575b	-0.35027584
37	0xbe9ced47	-0.30649778
38	0xbe9c084e	-0.30475086
39	0xbe88f67e	-0.2675056
40	0xbddf140f	-0.10892498
41	0xbe2d55f1	-0.16927315
42	0xbe5313e6	-0.2061306
43	0xbe95fe25	-0.2929546
44	0xbea7b62e	-0.3275618
45	0xbe92fbb1	-0.2870765
46	0xbe561108	-0.20904934
47	0xbe0e75bf	-0.13912104
48	0xbda2e60c	-0.07954034
49	0x3e0acd43	0.13554864
50	0x3e35e710	0.17763925
51	0x3e5aa841	0.21353246
52	0x3e5e2606	0.21694192
53	0x3e6e5f4f	0.23278545
54	0x3e5250ae	0.2053859
55	0x3e48ab71	0.1959665
56	0x3e0031f6	0.12519059
57	0x3e30ed4f	0.17278026
58	0x3e590237	0.21192251
59	0x3e3563f0	0.17713904
60	0x3e663353	0.22480516
61	0x3e83ee31	0.25767663
62	0x3e7044ba	0.23463717
63	0x3decd331	0.11563719
64	0x3e44f7d6	0.19235167
65	0x3e2a3312	0.16621044
66	0x3e44c5e8	0.1921612
67	0x3e30e1cc	0.17273635
68	0x3e2c3f9b	0.16821139
69	0x3e41f035	0.18939288
70	0x3e2197b9	0.15780534
71	0x3e59693d	0.21231551
72	0x3e466ceb	0.19377486
73	0x3dc8d0b6	0.098054335
74	0x3e381d08	0.17979825
75	0x3e45ae23	0.19304709
76	0x3e4b5545	0.19856746
77	0x3e49e8ec	0.19717759
78	0x3e808f90	0.2510953
79	0x3e6cb21c	0.23114818
80	0x3e4bd684	0.1990605
81	0x3e58106d	0.21100016
82	0x3e2de02f	0.1698005
83	0x3e85faef	0.2616801
84	0x3e2e368d	0.17012997
85	0x3e8a12d2	0.26967484
86	0x3e2af687	0.16695605
87	0x3e47ea9a	0.19523087
88	0x3e8abe67	0.2709839
89	0x3e914420	0.28372288
90	0x3e6015e0	0.21883345
91	0x3e3074be	0.17232034
92	0x3e6e1412	0.23249844
93	0x3e3cb570	0.18428588
94	0x3e3609d7	0.17777191
95	0x3e4f1d67	0.2022606
96	0x3e50b98b	0.20383279
97	0x3e82f02a	0.25573856
98	0x3e10a277	0.14124475
99	0x3e7e796a	0.24851003
100	0x3e5b419f	0.21411751
101	0x3e164d03	0.14677815
102	0x3e2a7268	0.16645205
103	0x3e6801bb	0.2265691
104	0x3e5a047f	0.21290778
105	0x3e4afe28	0.19823515
106	0x3e490c5f	0.19633625
107	0x3e55aa50	0.2086575
108	0x3e524152	0.2053273
109	0x3e2796d3	0.16366129
110	0x3e5e2e04	0.21697241
111	0x3e823a67	0.25435182
112	0x3e036807	0.12832652
113	0x3e0b83c8	0.1362449
114	0x3e2893f2	0.16462687
115	0x3e1d9eb1	0.15392567
116	0x3e62caa1	0.2214761
117	0x3e78ba4f	0.24289821
118	0x3e1c03dd	0.15235849
119	0x3d8e2f5a	0.06942625
120	0x3dfcc702	0.12342645
121	0x3e1a5fb5	0.15075572
122	0x3e2b4a8f	0.1672766
123	0x3df4ca8e	0.11952697
124	0x3e26b126	0.16278514
125	0x3e64cd8c	0.22344035
126	0x3dc3f5ed	0.09568391
127	0x3e573e04	0.21019751
128	0x3e500805	0.20315559
129	0x3e345553	0.17610674
130	0x3e6b4aee	0.22977802
131	0x3e66837e	0.22511098
132	0x3e565842	0.20932105
133	0x3e4e2845	0.20132549
134	0x3e521e10	0.2051928
135	0x3e5a6b6e	0.21330044
136	0x3e4cf52d	0.20015402
137	0x3e2e6e5f	0.1703429
138	0x3e53030b	0.2060663
139	0x3e7a909d	0.24469228
140	0x3e5f03d1	0.217788
141	0x3e36bb9f	0.1784501
142	0x3e3764b8	0.17909515
143	0x3e6670dc	0.2250399
144	0x3e6f4504	0.23366171
145	0x3e433574	0.1906336
146	0x3e5cc0e1	0.21557952
147	0xbf1521af	-0.5825452
148	0xbf2451fe	-0.6418761
149	0xbf201340	-0.62529373
150	0xbf2e099a	-0.679834
151	0xbee7a1b1	-0.45240548
152	0xbed45232	-0.4146896
153	0xbe9d45c4	-0.3071729
154	0xbf24c709	-0.64366204
155	0xbf2eba7c	-0.682533
156	0xbf283ee2	-0.6572095
157	0xbf31ac1f	-0.6940326
158	0xbf060b16	-0.52360666
159	0xbef6bb2c	-0.48189676
160	0xbeb6b26a	-0.35682994
161	0xbf2f2fd4	-0.68432355
162	0xbf465ec9	-0.7748838
163	0xbf33a34c	-0.70171046
164	0xbf3b573a	-0.7317997
165	0xbf16508d	-0.5871666
166	0xbf13f22d	-0.57791406
167	0xbee1c8e9	-0.44098595
168	0xbf35c61c	-0.71005416
169	0xbf505356	-0.8137716
170	0xbf5236b4	-0.8211472
171	0xbf541943	-0.82851046
172	0xbf2ff49e	-0.6873263
173	0xbf1d83c1	-0.61529166
174	0xbf097dca	-0.53707564
175	0xbf2b3139	-0.6687198
176	0xbf3e199f	-0.74257845
177	0xbf32f907	-0.69911236
178	0xbf4a06de	-0.7891673
179	0xbf1e0fdb	-0.61742944
180	0xbf020bc7	-0.5079922
181	0xbee045d1	-0.43803266
182	0xbf25ac97	-0.64716476
183	0xbf42598d	-0.75917894
184	0xbf3b9a3d	-0.73282224
185	0xbf4b9f57	-0.7954001
186	0xbf148fd5	-0.5803197
187	0xbf0d9dd3	-0.55318946
188	0xbed8a60c	-0.42314184
189	0xbf134431	-0.57525927
190	0xbf2e9a6d	-0.68204385
191	0xbf2e4c91	-0.6808558
192	0xbf323f2d	-0.6962765
193	0xbf01e5d3	-0.5074131
194	0xbee77939	-0.45209673
195	0xbed9305b	-0.42419705
196	0x3e65884c	0.22415274
197	0x3e829b6e	0.25509208
198	0x3e82ec6b	0.25570998
199	0x3e84835d	0.25881472
200	0x3e66e1d3	0.22547083
201	0x3e6e2681	0.23256876
202	0x3e77d61c	0.2420277
203	0x3e2eb28f	0.17060302
204	0x3e7ddfd9	0.24792422
205	0x3e64f3d5	0.2235864
206	0x3e833f5d	0.2563428
207	0x3e61c9d4	0.22049648
208	0x3e809865	0.25116268
209	0x3e4e4c00	0.20146179
210	0x3e68d840	0.22738743
211	0x3e877360	0.26455212
212	0x3e8701ed	0.26368657
213	0x3e50c5d0	0.2038796
214	0x3e58f71b	0.21188013
215	0x3e7a12cc	0.24421233
216	0x3e78f2c3	0.24311356
217	0x3e3137d2	0.1730645
218	0x3e8283f6	0.25491303
219	0x3e6e43f6	0.23268113
220	0x3e75abf3	0.23991375
221	0x3e6c2dd4	0.23064357
222	0x3e7b4ea7	0.24541722
223	0x3e2b05ac	0.16701382
224	0x3e732038	0.23742759
225	0x3e8c5c9c	0.27414405
226	0x3e7a2dcb	0.24431531
227	0x3e3fbf4a	0.18725315
228	0x3e6d3fa8	0.23168814
229	0x3e494117	0.19653736
230	0x3e802875	0.25030866
231	0x3e440084	0.19140822
232	0x3e8c68cd	0.27423707
233	0x3e8f76b6	0.28020257
234	0x3e6d635a	0.23182431
235	0x3e44e581	0.19228174
236	0x3e5f5069	0.21808018
237	0x3e629c4d	0.22129937
238	0x3e17d0cb	0.14825742
239	0x3e9cf014	0.30651915
240	0x3e4048d2	0.18777779
241	0x3e4b6380	0.19862175
242	0x3e80f164	0.25184166
243	0x3e7dab63	0.2477241
244	0x3e61b91a	0.22043267
245	0xbba3afd3	-0.004995325
246	0x3c5ebdbf	0.013595044
247	0x3da05642	0.07828952
248	0xbd80c62b	-0.062877975
249	0x3d268367	0.04065266
250	0xbc54835f	-0.012970774
251	0x3d0ededf	0.034880515
252	0xbd559f6f	-0.052154
253	0x3b83bcec	0.004020324
254	0x3ce48f37	0.027900321
255	0xbc2323c9	-0.009957262

model.hidden_layers.0.bias f4 [8]
0	0x3c51f38a	0.012814412
1	0x3f54a9f3	0.8307182
2	0xbeb96473	-0.3620945
3	0xbc9af664	-0.018916316
4	0xbe4f2c31	-0.20231701
5	0x3ef7f5f9	0.4842985
6	0xbd3795fa	-0.044820763
7	0xbda138bb	-0.078721486

model.output_layers.0.weight f4 [1, 8, 7, 7]
0	0x3cba013d	0.022705669
1	0x3d3d5deb	0.046232145
2	0xbc35101a	-0.011051202
3	0x3cafb78a	0.021449823
4	0x3d5cdd89	0.05392221
5	0x3ced9685	0.029002437
6	0x3c525103	0.0128366975
7	0x3d987b83	0.07445433
8	0x3dcc360f	0.09971248
9	0x3d51cd97	0.051221456
10	0x3d49d472	0.04927487
11	0x3db69490	0.08915055
12	0x3d9563da	0.07294436
13	0x3cd1a90c	0.025593303
14	0x3d8cb861	0.06871105
15	0x3d2526ad	0.040320087
16	0x3cf129eb	0.029438933
17	0x3da9df43	0.08294537
18	0x3db97313	0.09055152
19	0x3d6389e4	0.055551425
20	0x3d195c0a	0.03744129
21	0x3e01af6b	0.12664573
22	0x3daaefbd	0.08346508
23	0x3d7a9341	0.06117559
24	0x3d9e8aa8	0.0774129
25	0x3d88e268	0.066838086
26	0x3da741e0	0.081668615
27	0x3d94bd8d	0.072627164
28	0x3d2d776a	0.04235021
29	0x3d99667f	0.07490253
30	0x3d1ab079	0.037765954
31	0x3dbf522b	0.09341844
32	0x3c99ff52	0.018798504
33	0x3de52e03	0.11190417
34	0x3dbe2c78	0.092858255
35	0x3e08e573	0.13368778
36	0x3cc956ac	0.024577461
37	0x3d8af089	0.0678416
38	0x3db5687b	0.08857819
39	0x3dc4df87	0.09612947
40	0x3cfe9ce4	0.03108067
41	0x3d04b5d1	0.032399956
42	0x3d89a00a	0.06719978
43	0x3d78a446	0.06070354
44	0x3d931669	0.07182009
45	0x3dc03812	0.093856946
46	0x3d81d6f1	0.06339825
47	0x3d0ee8c0	0.034889936
48	0x3d21ff82	0.039550312
49	0xbd4e9901	-0.050438885
50	0xbdf878b1	-0.12132395
51	0xbe142916	-0.14468798
52	0xbde7fdfd	-0.11327741
53	0xbe11b9b1	-0.14230992
54	0xbd473e44	-0.048643366
55	0xbd883f6e	-0.06652723
56	0xbdc49cf2	-0.096002474
57	0xbd33b17f	-0.043870445
58	0xbdbbe33a	-0.091741994
59	0xbdc8894f	-0.097918145
60	0xbddd268d	-0.107983686
61	0xbdc26d96	-0.09493558
62	0xbe0f70dd	-0.14007898
63	0xbdc56f84	-0.096404105
64	0xbd82c1b0	-0.06384599
65	0xbdcd5a57	-0.100269966
66	0xbe0c2d30	-0.13689113
67	0xbdbce3e8	-0.09223157
68	0xbd6176f4	-0.055045083
69	0xbe08c01b	-0.13354532
70	0xbe1132ae	-0.14179489
71	0xbdb15ec8	-0.08660656
72	0xbde60953	-0.11232247
73	0xbe57ad78	-0.21062267
74	0xbe3a9604	-0.18221289
75	0xbdbb777e	-0.09153651
76	0xbe2b2d8f	-0.16716598
77	0xbd996efa	-0.0749187
78	0xbdddd97f	-0.108325
79	0xbdbdf170	-0.09274566
80	0xbe33f7ef	-0.17575048
81	0xbdf8bd7c	-0.12145516
82	0xbdc5ed0d	-0.096643545
83	0xbe2b164a	-0.16707721
84	0xbd4d99be	-0.050195448
85	0xbdb9d63a	-0.090740636
86	0xbe154358	-0.14576471
87	0xbe171eb1	-0.14757802
88	0xbd832dfd	-0.06405256
89	0xbd51918f	-0.051164206
90	0xbdf48c65	-0.11940841
91	0xbdd28cf6	-0.102807924
92	0xbd7b273b	-0.06131671
93	0xbe257f62	-0.16161874
94	0xbe0c61bf	-0.13709162
95	0xbdca608f	-0.09881698
96	0xbdfe44fd	-0.12415502
97	0xbdf5c321	-0.120001085
98	0x3dd34d55	0.10317484
99	0xbd828a99	-0.06374092
100	0x3d882777	0.06648152
101	0x3eb05f14	0.3444754
102	0x3bdc3ee8	0.006721366
103	0xbd5caf83	-0.05387832
104	0xbdadaff9	-0.0848083
105	0x3e2f46ad	0.17116804
106	0xbcc07d99	-0.02349739
107	0x3ce631f7	0.028099997
108	0x3eaf5a6e	0.3424868
109	0xbd6c38dc	-0.057671413
110	0xbd6e99de	-0.058252208
111	0xbe04cd0e	-0.12968847
112	0x3e8e9fb1	0.2785621
113	0x3e0ffad9	0.14060535
114	0x3e29e8ce	0.16592714
115	0x3edf38b1	0.4359794
116	0x3dd58c65	0.10427169
117	0x3d8995b3	0.06718006
118	0x3d6d4f78	0.057937115
119	0x3f1b551e	0.60676754
120	0x3ed4ba14	0.41548216
121	0x3efda589	0.49540356
122	0x3f3adc56	0.72992456
123	0x3ec658bf	0.38739583
124	0x3eb98a03	0.36238107
125	0x3ead6a52	0.33870178
126	0x3e87dd4c	0.26536024
127	0x3dfdd8f8	0.12394899
128	0x3db807e9	0.08985884
129	0x3edba88d	0.42902032
130	0x3e21c025	0.15795954
131	0x3d899380	0.067175865
132	0x3cf64922	0.03006417
133	0x3e30bcfe	0.17259595
134	0xbd5fa4f7	-0.054600682
135	0x3dae8825	0.08522061
136	0x3eca0037	0.3945329
137	0x3d1280ae	0.03576725
138	0xbd956073	-0.07293787
139	0xbd974d29	-0.07387764
140	0x3e05c7a3	0.13064437
141	0x3d13a95a	0.036050178
142	0x3e2fe668	0.17177737
143	0x3f061085	0.52368957
144	0x3e2acb3e	0.16679093
145	0x3d287421	0.041126374
146	0xbdeac5c2	-0.114635006
147	0xbe0a9a81	-0.13535501
148	0xbd80305e	-0.06259225
149	0xbdfc3524	-0.12314823
150	0xbd3a9394	-0.045550898
151	0xbd5cdcf5	-0.05392166
152	0xbd694da1	-0.0569588
153	0xbd73ee74	-0.05955358
154	0xbd3c125e	-0.045915954
155	0xbd24cdd8	-0.04023537
156	0xbdbaaa2e	-0.091144904
157	0xbdcfe3fb	-0.10150906
158	0xbc368dcd	-0.011142206
159	0xbcca7079	-0.024711834
160	0x3baea76d	0.0053300173
161	0xbdbd77bd	-0.09251354
162	0xbd62e234	-0.055391505
163	0xbdc8c900	-0.09803963
164	0xbcdef4cc	-0.027216338
165	0xbd7b604e	-0.06137114
166	0xbd64bc1c	-0.055843458
167	0x3aa0f948	0.0012281323
168	0xbdf35ac2	-0.11882545
169	0xbd03e0a2	-0.03219665
170	0xbd2b91f9	-0.041887257
171	0xbd92a2a8	-0.071599305
172	0x3c8ecd09	0.017431753
173	0xbbfbd1a2	-0.0076849023
174	0xbd30254f	-0.04300433
175	0xbdb97f50	-0.09057486
176	0xbd10e569	-0.035375033
177	0xbd152435	-0.036411483
178	0xbce5a1a5	-0.02803118
179	0xbb9fc57d	-0.0048758374
180	0xbd6c6ed5	-0.057722885
181	0xbd04c91b	-0.03241835
182	0xbcc5bfef	-0.024139373
183	0xbdb05fac	-0.08611998
184	0xbd17e863	-0.037086856
185	0xbc470997	-0.0121482825
186	0xbd2c8840	-0.042122126
187	0xbc509c6e	-0.012732608
188	0xbdcc0d36	-0.09963457
189	0xbdb27b50	-0.08714926
190	0xbd565294	-0.052324846
191	0xbdc7614d	-0.097353555
192	0xbda6546b	-0.0812157
193	0xbd6811ec	-0.056657717
194	0xbdaabe31	-0.083370574
195	0xbcc22afe	-0.02370214
196	0xbec67ee7	-0.38768694
197	0xbe782bfe	-0.24235532
198	0xbee06a13	-0.43830928
199	0xbf49235d	-0.78569585
200	0xbea4df04	-0.32201397
201	0xbe1cae7c	-0.15300936
202	0xbefcda69	-0.49385384
203	0xbe6abc5e	-0.22923419
204	0xbda2e66e	-0.07954107
205	0xbe12f310	-0.14350533
206	0xbf15e6eb	-0.5855548
207	0xbd8d4b3e	-0.06899117
208	0x3c8c6799	0.017139243
209	0xbe9965c4	-0.29960454
210	0xbf03b50c	-0.5144813
211	0xbe735c99	-0.23765792
212	0xbed0564a	-0.40690833
213	0xbf41ab7a	-0.7565228
214	0xbe568e3c	-0.20952696
215	0xbde28b42	-0.110617176
216	0xbf056166	-0.52101743
217	0xbf85f322	-1.0464823
218	0xbf358fe4	-0.70922685
219	0xbf512317	-0.8169417
220	0xbf8da589	-1.1066142
221	0xbf1d4a91	-0.61441904
222	0xbf099894	-0.5374844
223	0xbf62bf33	-0.88572997
224	0xbf098d8e	-0.5373162
225	0xbeb32549	-0.34989384
226	0xbebc23ef	-0.36746165
227	0xbf25ea4d	-0.6481064
228	0xbe187e06	-0.14891824
229	0x3d17be27	0.037046578
230	0xbeb570b7	-0.35437557
231	0xbeb6605c	-0.3562039
232	0xbe574546	-0.2102252
233	0xbe4b90d8	-0.19879472
234	0xbf10d184	-0.56569695
235	0x3d57e3c2	0.05270744
236	0x3dc7b39c	0.09751055
237	0xbde428e1	-0.111406095
238	0xbf15c1fa	-0.5849911
239	0xbeeb53e0	-0.4596243
240	0xbee523d7	-0.44753906
241	0xbf403a0e	-0.75088584
242	0xbe4402a2	-0.1914163
243	0x3c854afa	0.016271103
244	0xbe5f45a6	-0.21803913
245	0xbd5bb43c	-0.05363868
246	0xbc5272d0	-0.012844756
247	0xbdbc878c	-0.09205541
248	0xbdfb6b6a	-0.12276347
249	0xbdde3794	-0.108504444
250	0xbd97c9cd	-0.07411537
251	0x3b9da206	0.0048105745
252	0xbd51d503	-0.051228534
253	0xbc77d71c	-0.01512697
254	0xbc35586e	-0.011068447
255	0xbd86f559	-0.06589765

exp_avg f4 [8]
0	0xb00b9fe1	-5.0795107e-10
1	0xae9a96e1	-7.029911e-11
2	0xb9b9f71d	-0.00035470063
3	0x30082edf	4.954312e-10
4	0x3a8a51d7	0.0010552955
5	0x30188a56	5.5493865e-10
6	0xb942a7bf	-0.00018563772
7	0x39bdeba9	0.0003622447

exp_avg_sq f4 [8]
0	0x3386b8df	6.273489e-08
1	0x33561be0	4.985111e-08
2	0x3af10115	0.0018387163
3	0x368f2418	4.265934e-06
4	0x3c40db91	0.011771099
5	0x3155a96f	3.1091891e-09
6	0x39b1f00e	0.00033938925
7	0x3abb4c99	0.0014289796

exp_avg f4 [8, 1, 7, 7]
0	0x2a2da5c9	1.5423005e-13
1	0xa9aae915	-7.58995e-14
2	0xaacc55dd	-3.629726e-13
3	0xab37adfa	-6.52561e-13
4	0xaa47712d	-1.7714016e-13
5	0x2aa5b327	2.94342e-13
6	0x2afc0899	4.4770158e-13
7	0xab61ac8c	-8.0175515e-13
8	0xab37c7cf	-6.529195e-13
9	0xab1a559c	-5.48306e-13
10	0xab0c30d4	-4.9805754e-13
11	0x29c21c19	8.620205e-14
12	0x2b2fba6f	6.243122e-13
13	0x2b52ed1e	7.4936053e-13
14	0xabb42511	-1.2800057e-12
15	0xab773b4f	-8.7834335e-13
16	0xaa9b7ef2	-2.7621617e-13
17	0x2a31dcf5	1.5797418e-13
18	0x2b48fde3	7.140661e-13
19	0x2b8b1bbc	9.884242e-13
20	0x2b836649	9.3365e-13
21	0xabf2aac6	-1.7242533e-12
22	0xab979e6a	-1.0773164e-12
23	0xa98841c9	-6.051025e-14
24	0x2b2a1d54	6.0436833e-13
25	0x2ba0e636	1.143258e-12
26	0x2bc00e22	1.3646343e-12
27	0x2b9db296	1.1205089e-12
28	0xac059345	-1.8982188e-12
29	0xabb3d653	-1.2778202e-12
30	0xaa305b4b	-1.5663614e-13
31	0x2b7f9f6f	9.081546e-13
32	0x2bdeb8f5	1.5825385e-12
33	0x2c1021d3	2.0482407e-12
34	0x2c07bfff	1.9291233e-12
35	0xac020cdf	-1.8481256e-12
36	0xabb70554	-1.3004411e-12
37	0xaa8d26f2	-2.5073655e-13
38	0x2b5b5708	7.792521e-13
39	0x2beed655	1.6970406e-12
40	0x2c229a1d	2.3107135e-12
41	0x2c2b50cc	2.4345413e-12
42	0xabea56c9	-1.6650788e-12
43	0xab993732	-1.0886624e-12
44	0xa9f89dba	-1.10407736e-13
45	0x2b909dee	1.027565e-12
46	0x2c15116e	2.118385e-12
47	0x2c3ea136	2.7090114e-12
48	0x2c437180	2.7774172e-12
49	0x2a9b66e2	2.760492e-13
50	0x2b367161	6.4816734e-13
51	0x2b8e0a8e	1.0092636e-12
52	0x2b98d335	1.0858871e-12
53	0x2b98f337	1.0867755e-12
54	0x2b9501cb	1.0587584e-12
55	0x2b88dfc2	9.725486e-13
56	0x2a73d6aa	2.1657212e-13
57	0x2b0ce31c	5.005317e-13
58	0x2b722759	8.6030277e-13
59	0x2b8a1532	9.811373e-13
60	0x2b8d3982	1.0034614e-12
61	0x2b89c790	9.789825e-13
62	0x2b803ff8	9.112702e-13
63	0x2a314205	1.5743663e-13
64	0x2ac29245	3.4562818e-13
65	0x2b339de9	6.381272e-13
66	0x2b674567	8.2164e-13
67	0x2b822f82	9.250242e-13
68	0x2b7c077b	8.9538766e-13
69	0x2b647375	8.11621e-13
70	0x29d3d839	9.407791e-14
71	0x2a84f26d	2.3616127e-13
72	0x2adf9a96	3.9720023e-13
73	0x2b20ca37	5.712405e-13
74	0x2b5b3d7e	7.7889767e-13
75	0x2b682208	8.2470185e-13
76	0x2b409f3b	6.843308e-13
77	0x2861397a	1.2502472e-14
78	0x2a2c2896	1.529075e-13
79	0x2a67145a	2.0523982e-13
80	0x2a8c2d7a	2.4900551e-13
81	0x2b0b7140	4.9539886e-13
82	0x2b3b5a2a	6.6560874e-13
83	0x2b283c49	5.976925e-13
84	0xa8ffe4a1	-2.8409839e-14
85	0x2a007009	1.1407554e-13
86	0x2a234749	1.450204e-13
87	0x2999d403	6.831343e-14
88	0x2a38363b	1.6361298e-13
89	0x2af1d1af	4.2955697e-13
90	0x2b0da7f8	5.0326366e-13
91	0xa94fc80d	-4.613675e-14
92	0x29fcf034	1.1232717e-13
93	0x2a345809	1.6017755e-13
94	0x2920bf84	3.569325e-14
95	0xa9106112	-3.2058618e-14
96	0x2a37eef6	1.6336571e-13
97	0x2ac7fc0f	3.5524402e-13
98	0xb978efbc	-0.00023740431
99	0xb973a8a2	-0.00023237107
100	0xb95837d9	-0.0002062017
101	0xb9618b7d	-0.00021509636
102	0xb947814a	-0.00019026283
103	0xb9534765	-0.00020149125
104	0xb95bb759	-0.0002095377
105	0xb951c75a	-0.00020006057
106	0xb9443c8a	-0.00018714569
107	0xb9248a55	-0.00015691791
108	0xb930ece4	-0.00016872917
109	0xb91e5cb3	-0.00015102587
110	0xb93353eb	-0.00017102032
111	0xb9449790	-0.00018748478
112	0xb9287d80	-0.00016068481
113	0xb916de22	-0.00014387866
114	0xb8efcd68	-0.00011434668
115	0xb909aef4	-0.00013130513
116	0xb8f73c65	-0.00011789127
117	0xb9176e9d	-0.00014441689
118	0xb9306cd2	-0.00016825207
119	0xb912b5d2	-0.00013991378
120	0xb90029d2	-0.0001222261
121	0xb8cd092e	-9.7768716e-05
122	0xb9015e92	-0.00012337629
123	0xb8f39cc0	-0.0001161634
124	0xb91b4ef2	-0.00014811361
125	0xb9396b2b	-0.00017682898
126	0xb8a013b0	-7.6330616e-05
127	0xb880e9ce	-6.147065e-05
128	0xb824af5c	-3.9263963e-05
129	0xb895f9a7	-7.151375e-05
130	0xb8a3398a	-7.783163e-05
131	0xb8f3f0f1	-0.00011632022
132	0xb9192193	-0.00014603724
133	0xb88f7007	-6.839638e-05
134	0xb883ef61	-6.2911546e-05
135	0xb84b76bf	-4.8509562e-05
136	0xb8b6e669	-8.7213535e-05
137	0xb8c61637	-9.4455136e-05
138	0xb90b597d	-0.0001328941
139	0xb926b9b4	-0.00015900173
140	0xb880a95b	-6.1350605e-05
141	0xb886bcf4	-6.424813e-05
142	0xb873d7eb	-5.8136804e-05
143	0xb8cce677	-9.7704054e-05
144	0xb8d210fa	-0.000100167425
145	0xb90b4a00	-0.0001328364
146	0xb920a452	-0.00015320003
147	0xb0659a1b	-8.352871e-10
148	0xb0248d29	-5.9863453e-10
149	0xb0145adb	-5.39712e-10
150	0xb0147f3e	-5.402291e-10
151	0xb011804c	-5.2933014e-10
152	0xafafb758	-3.1962588e-10
153	0xaedb394d	-9.9691456e-11
154	0xb075054a	-8.9137997e-10
155	0xb01d9243	-5.732412e-10
156	0xb0141123	-5.386644e-10
157	0xb013d7b3	-5.3784815e-10
158	0xb014613c	-5.3980265e-10
159	0xafcadf6d	-3.690234e-10
160	0xae77f007	-5.6374485e-11
161	0xb03f5f3c	-6.962073e-10
162	0xb015c00b	-5.4478794e-10
163	0xb013db99	-5.3790356e-10
164	0xb012933b	-5.332372e-10
165	0xb00fa708	-5.226046e-10
166	0xafc217ea	-3.5305386e-10
167	0xae5d5444	-5.0324425e-11
168	0xb01de0e6	-5.7435867e-10
169	0xb0135e4f	-5.361231e-10
170	0xb0139078	-5.368359e-10
171	0xb0120104	-5.3115934e-10
172	0xb0111944	-5.27866e-10
173	0xaf639402	-2.0698113e-10
174	0xae04f854	-3.0233885e-11
175	0xb00d2486	-5.1347404e-10
176	0xb00d3f6d	-5.1385635e-10
177	0xb00defef	-5.163647e-10
178	0xb00bffcf	-5.093143e-10
179	0xafdd35d6	-4.0237919e-10
180	0xaece4277	-9.379602e-11
181	0xad9e9c92	-1.8032052e-11
182	0xaf235a4e	-1.4856846e-10
183	0xaf0e418e	-1.2938114e-10
184	0xaf10e3c8	-1.3177648e-10
185	0xaf1b8ded	-1.414759e-10
186	0x2d1a0efa	8.757212e-12
187	0xad2c7f6d	-9.805362e-12
188	0xad263505	-9.44778e-12
189	0x2e7998e1	5.675183e-11
190	0x2e7abdac	5.701188e-11
191	0x2e6aa1e0	5.3349214e-11
192	0xad4b8489	-1.1568643e-11
193	0xae1cabc7	-3.5622862e-11
194	0xac53a0bf	-3.0074135e-12
195	0xaccd189a	-5.8291818e-12
196	0x39fb7290	0.00047959806
197	0x397bdeb4	0.00024020189
198	0x38bebe2b	9.0953276e-05
199	0x377d5754	1.5100308e-05
200	0xb843fcd8	-4.6727102e-05
201	0x3710c4a2	8.628851e-06
202	0x38907c09	6.8895584e-05
203	0x3a1ce437	0.00059849344
204	0x39c239a0	0.00037045497
205	0x394f396c	0.0001976245
206	0x38b4cf52	8.621685e-05
207	0x36715185	3.595925e-06
208	0x3882969f	6.2269384e-05
209	0x390db05e	0.0001351251
210	0x3a5245a0	0.0008021239
211	0x3a18c547	0.00058277365
212	0x39cb6962	0.00038797694
213	0x39816142	0.0002467726
214	0x390c731d	0.00013394323
215	0x393a8777	0.00017788807
216	0x39748a22	0.00023321112
217	0x3a85f481	0.0010219963
218	0x3a55ed46	0.00081606617
219	0x3a20a2d2	0.0006127778
220	0x39f38427	0.00046447033
221	0x39acd64d	0.00032966063
222	0x39b05dcc	0.0003363922
223	0x39b57290	0.00034608366
224	0x3a89c3d7	0.0010510635
225	0x3a5d5feb	0.0008444774
226	0x3a30946f	0.00067359855
227	0x3a10d74d	0.00055252464
228	0x39d7d937	0.00041169833
229	0x39c805bb	0.00038151242
230	0x39ba9027	0.00035584086
231	0x3a8fa2c0	0.0010958537
232	0x3a6c1ff2	0.0009007446
233	0x3a4980ab	0.00076867145
234	0x3a2d2973	0.00066056027
235	0x3a037c41	0.00050157687
236	0x39eb3414	0.00044861494
237	0x39d3d3e0	0.00040402915
238	0x3a960d75	0.0011448102
239	0x3a802180	0.0009775609
240	0x3a6027a3	0.0008550828
241	0x3a404984	0.00073351734
242	0x3a12aff4	0.0005595677
243	0x3a01a4f3	0.0004945539
244	0x39e49f8b	0.00043606418
245	0x2c0bedd2	1.9885105e-12
246	0x2bed5612	1.6863752e-12
247	0x2bbb87f4	1.3324884e-12
248	0x2ca54116	4.696808e-12
249	0x2c71ee34	3.438039e-12
250	0x2c026c85	1.8534352e-12
251	0x29c22852	8.622325e-14
252	0x2c12a89d	2.0841447e-12
253	0x2bc2d207	1.3842823e-12
254	0x2b44da3b	6.9936044e-13
255	0x2c9d0fff	4.4639843e-12

exp_avg_sq f4 [8, 1, 7, 7]
0	0x2e893c08	6.2407024e-11
1	0x2e99f145	7.0004925e-11
2	0x2ea407bb	7.45923e-11
3	0x2ea580b9	7.526197e-11
4	0x2e9d95e7	7.1661614e-11
5	0x2e9265f1	6.65742e-11
6	0x2e86d8dd	6.132137e-11
7	0x2e8e6c8c	6.476694e-11
8	0x2ea0428b	7.287778e-11
9	0x2eab5c62	7.79259e-11
10	0x2eadd09e	7.904187e-11
11	0x2ea608ca	7.550367e-11
12	0x2e9a2317	7.0093424e-11
13	0x2e8ce07a	6.406338e-11
14	0x2e8eb385	6.4893015e-11
15	0x2ea16405	7.3391994e-11
16	0x2eacc365	7.8563635e-11
17	0x2eaf67d3	7.9765215e-11
18	0x2ea88054	7.662551e-11
19	0x2e9ccc89	7.1303914e-11
20	0x2e8f8a55	6.52746e-11
21	0x2e8b5fa3	6.337977e-11
22	0x2e9e5ba1	7.201285e-11
23	0x2eaa4434	7.74282e-11
24	0x2ead844c	7.89063e-11
25	0x2ea74696	7.606819e-11
26	0x2e9c964c	7.120757e-11
27	0x2e906192	6.565694e-11
28	0x2e833684	5.966874e-11
29	0x2e961ca2	6.8262965e-11
30	0x2ea2e8bc	7.408249e-11
31	0x2ea7b6d4	7.6267576e-11
32	0x2ea31e36	7.4177484e-11
33	0x2e99c6d7	6.9929555e-11
34	0x2e8e4652	6.469904e-11
35	0x2e74cb79	5.5659897e-11
36	0x2e8cb281	6.3981716e-11
37	0x2e998b42	6.9823716e-11
38	0x2e9fb7f9	7.263163e-11
39	0x2e9d5a2e	7.1555525e-11
40	0x2e9591fa	6.801666e-11
41	0x2e8ad2e9	6.3129786e-11
42	0x2e5eaace	5.062866e-11
43	0x2e800db7	5.823202e-11
44	0x2e8b9355	6.3471596e-11
45	0x2e9189ab	6.618291e-11
46	0x2e90bb26	6.581606e-11
47	0x2e8b15ad	6.3248386e-11
48	0x2e824eda	5.9257224e-11
49	0x2e864900	6.106582e-11
50	0x2e89559a	6.2452446e-11
51	0x2e8bf12a	6.3638275e-11
52	0x2e931c78	6.689843e-11
53	0x2e91f621	6.637558e-11
54	0x2e8e5efc	6.474285e-11
55	0x2e8a3365	6.284643e-11
56	0x2e8fb8a8	6.535689e-11
57	0x2e93d963	6.723402e-11
58	0x2e9722c1	6.8728585e-11
59	0x2e9e8f2c	7.2104406e-11
60	0x2e9d53b7	7.154404e-11
61	0x2e98e7ee	6.953359e-11
62	0x2e93c4f5	6.719773e-11
63	0x2e999875	6.984716e-11
64	0x2e9f50a3	7.244807e-11
65	0x2ea397ee	7.43937e-11
66	0x2eab2c23	7.78402e-11
67	0x2ea961af	7.702582e-11
68	0x2ea3c94d	7.44814e-11
69	0x2e9d391f	7.14968e-11
70	0x2ea30ee0	7.415024e-11
71	0x2eaa5ef0	7.747569e-11
72	0x2eafd2a0	7.995493e-11
73	0x2eb7d005	8.358828e-11
74	0x2eb54456	8.243066e-11
75	0x2eae77ff	7.9339195e-11
76	0x2ea61e2d	7.554166e-11
77	0x2ea9a16f	7.7139066e-11
78	0x2eb21b5c	8.099363e-11
79	0x2eb8a630	8.396872e-11
80	0x2ec17da5	8.798943e-11
81	0x2ebebe45	8.673998e-11
82	0x2eb6e746	8.317484e-11
83	0x2ead1235	7.8703634e-11
84	0x2ead3bf8	7.877782e-11
85	0x2eb64036	8.287808e-11
86	0x2ebd4cab	8.608344e-11
87	0x2ec67b4b	9.025899e-11
88	0x2ec40719	8.914309e-11
89	0x2ebc0306	8.549787e-11
90	0x2eb1635a	8.0666765e-11
91	0x2ead2922	7.874436e-11
92	0x2eb5c9e6	8.2667914e-11
93	0x2ebce05e	8.589106e-11
94	0x2ec621ab	9.009978e-11
95	0x2ec41041	8.9159354e-11
96	0x2ebc46bb	8.5618145e-11
97	0x2eb1ceb0	8.085743e-11
98	0x374b9b67	1.2135925e-05
99	0x3754cd00	1.2683915e-05
100	0x375c2e67	1.3123826e-05
101	0x375fbe21	1.3336104e-05
102	0x3757e868	1.286911e-05
103	0x374e019d	1.2278932e-05
104	0x3743788a	1.1650971e-05
105	0x37559025	1.2729351e-05
106	0x375ffb45	1.3350339e-05
107	0x376896f0	1.38634205e-05
108	0x376d0829	1.4128201e-05
109	0x37649bc9	1.3626131e-05
110	0x37598954	1.2966182e-05
111	0x374e1ac0	1.2284785e-05
112	0x375e96d3	1.3267348e-05
113	0x3769d337	1.39370595e-05
114	0x37731a26	1.4490017e-05
115	0x377820fa	1.478963e-05
116	0x376f9ca8	1.42819845e-05
117	0x3763f10a	1.3586376e-05
118	0x3757d8f4	1.2865512e-05
119	0x3763ec73	1.3585307e-05
120	0x376fb292	1.4287087e-05
121	0x3779827c	1.4871937e-05
122	0x377f0d7c	1.5202324e-05
123	0x37769b32	1.4698877e-05
124	0x376ac40e	1.3993134e-05
125	0x375e715a	1.3258623e-05
126	0x375d2744	1.3181769e-05
127	0x3768c5f6	1.3874369e-05
128	0x3772a2a1	1.4462189e-05
129	0x377822a4	1.4790017e-05
130	0x37702d86	1.4315714e-05
131	0x3764c148	1.3634861e-05
132	0x3758f6f6	1.2932103e-05
133	0x37535619	1.2596626e-05
134	0x375e5ed3	1.3254309e-05
135	0x3767f007	1.3824559e-05
136	0x376d5b72	1.4147592e-05
137	0x37661f81	1.3716403e-05
138	0x375b8dff	1.3086478e-05
139	0x37507ac9	1.2426354e-05
140	0x374823f6	1.1929302e-05
141	0x3752845b	1.2547792e-05
142	0x375b7af3	1.3082044e-05
143	0x3760aebb	1.3392123e-05
144	0x375a5ab1	1.3014928e-05
145	0x3750f813	1.2455525e-05
146	0x3746cf8f	1.1850046e-05
147	0x32548c90	1.2371984e-08
148	0x3254ae54	1.2379662e-08
149	0x3255032b	1.2398952e-08
150	0x3254c632	1.23850885e-08
151	0x325404d3	1.2341121e-08
152	0x32529622	1.2257745e-08
153	0x324ff9a4	1.21057475e-08
154	0x3257bd84	1.2557738e-08
155	0x3257c9c2	1.25605215e-08
156	0x3257e1ec	1.2566016e-08
157	0x32576159	1.2536781e-08
158	0x32567bfa	1.2484628e-08
159	0x32553c2b	1.2411912e-08
160	0x3252ef5f	1.22780355e-08
161	0x32579f2c	1.2550839e-08
162	0x3257d52c	1.2563117e-08
163	0x32579cf5	1.2550335e-08
164	0x3256b8f0	1.2498489e-08
165	0x3255a012	1.24346275e-08
166	0x325487c4	1.2370894e-08
167	0x325299ee	1.2258608e-08
168	0x3256ccf8	1.2503044e-08
169	0x325785a7	1.2545036e-08
170	0x32574b5c	1.2531782e-08
171	0x32560430	1.2457392e-08
172	0x3254929c	1.2373359e-08
173	0x325364fb	1.2304777e-08
174	0x32519c2f	1.2200913e-08
175	0x3253b56b	1.2323066e-08
176	0x3255831d	1.24280435e-08
177	0x3255f8bb	1.24547865e-08
178	0x3254ed4f	1.2393982e-08
179	0x325364f8	1.2304774e-08
180	0x3251faa7	1.2222393e-08
181	0x32500ea7	1.2110525e-08
182	0x324e14e6	1.199553e-08
183	0x3250f4b9	1.2162837e-08
184	0x3252b111	1.2263869e-08
185	0x3252b1fd	1.2264079e-08
186	0x32519292	1.2198727e-08
187	0x32500c87	1.2110042e-08
188	0x324df8f6	1.1989178e-08
189	0x32472337	1.15913315e-08
190	0x324ad3a5	1.180607e-08
191	0x324dd15c	1.1980173e-08
192	0x324f0ef5	1.2052387e-08
193	0x324eb28f	1.2031378e-08
194	0x324d5f67	1.19542625e-08
195	0x324b0aec	1.18186385e-08
196	0x39f5489e	0.00046784146
197	0x39ffc77e	0.00048786023
198	0x3a042953	0.0005041558
199	0x3a068c1f	0.0005132574
200	0x3a03b4cd	0.0005024195
201	0x39fe55e2	0.00048510643
202	0x39f3463f	0.0004640091
203	0x3a007c28	0.0004901313
204	0x3a0643a9	0.00051217765
205	0x3a0ad729	0.00052963436
206	0x3a0d6427	0.0005393647
207	0x3a0a3815	0.0005272639
208	0x3a054b55	0.0005084773
209	0x39fec052	0.00048589945
210	0x3a050d8a	0.0005075565
211	0x3a0b767e	0.0005320086
212	0x3a1060d1	0.0005507591
213	0x3a1325e2	0.000561325
214	0x3a0ff71c	0.0005491839
215	0x3a0af50b	0.00053007965
216	0x3a04b13a	0.0005061809
217	0x3a07010f	0.0005149999
218	0x3a0df79c	0.000541562
219	0x3a138476	0.0005627343
220	0x3a16e45c	0.0005756074
221	0x3a13ffa3	0.0005645698
222	0x3a0f13a3	0.0005457943
223	0x3a089364	0.0005209951
224	0x3a0366e6	0.00050125865
225	0x3a0a4d3d	0.00052757916
226	0x3a1063b2	0.000550802
227	0x3a146e8b	0.0005662224
228	0x3a121a57	0.0005573383
229	0x3a0d77a7	0.0005396553
230	0x3a0740a0	0.0005159471
231	0x39fc6db4	0.0004814692
232	0x3a04e036	0.00050688104
233	0x3a0b20b3	0.0005307302
234	0x3a0f7b61	0.0005473402
235	0x3a0da8e5	0.00054038904
236	0x3a097864	0.0005244075
237	0x3a03dbcd	0.0005030006
238	0x39f048df	0.0004583066
239	0x39fd16b7	0.00048272844
240	0x3a048a5b	0.0005056017
241	0x3a08cbdd	0.0005218366
242	0x3a07798e	0.00051679544
243	0x3a03fec0	0.0005035214
244	0x39fe3251	0.00048484144
245	0x2f128c0e	1.332838e-10
246	0x2f099c32	1.2515569e-10
247	0x2f003e03	1.1663563e-10
248	0x2eecc670	1.0767287e-10
249	0x2ed809ba	9.8242706e-11
250	0x2ec96e84	9.160053e-11
251	0x2ebf3d94	8.696613e-11
252	0x2f05ca92	1.2168247e-10
253	0x2efa11f3	1.1371872e-10
254	0x2ee90549	1.0596552e-10
255	0x2ed8c754	9.8579506e-11

exp_avg f4 [8]
0	0x2cb76388	5.212223e-12
1	0x2c8bf45b	3.9777465e-12
2	0xba8293a6	-0.0009962216
3	0x2e981dc0	6.9174444e-11
4	0xbacc9701	-0.0015608968
5	0x2f480a45	1.8193543e-10
6	0x390513de	0.0001269127
7	0xb98a6378	-0.0002639552

exp_avg_sq f4 [8]
0	0x31a75be0	4.8707847e-09
1	0x2f634317	2.0669365e-10
2	0x38cf8d92	9.896899e-05
3	0x32de5306	2.5881956e-08
4	0x3b4986cc	0.0030750511
5	0x308ebb4a	1.0385091e-09
6	0x37d6d9df	2.5612242e-05
7	0x37f6f352	2.943879e-05

exp_avg f4 [8, 8, 7, 7]
0	0xae8ace8a	-6.312202e-11
1	0xae8ace50	-6.312162e-11
2	0xae8ac086	-6.3097125e-11
3	0xae8556fd	-6.063592e-11
4	0xacb2d371	-5.082539e-12
5	0x2beff0f6	1.7048851e-12
6	0x2bdc967c	1.5673708e-12
7	0xae8acdb3	-6.312053e-11
8	0xae8ace13	-6.3121196e-11
9	0xae8ac05f	-6.3096854e-11
10	0xae853faf	-6.059452e-11
11	0xacaf70d7	-4.986327e-12
12	0x2c00ba0e	1.8293175e-12
13	0x2bfca040	1.7950155e-12
14	0xae8ace6f	-6.3121834e-11
15	0xae8ace9e	-6.312216e-11
16	0xae8ac0bf	-6.309752e-11
17	0xae852c11	-6.0559675e-11
18	0xacae2569	-4.949531e-12
19	0x2c036c62	1.8676384e-12
20	0x2c037475	1.8680866e-12
21	0xae8ad0a6	-6.312577e-11
22	0xae8ad21f	-6.3128384e-11
23	0xae8abe1b	-6.309283e-11
24	0xae838614	-5.9810074e-11
25	0xac935ceb	-4.1883073e-12
26	0x2c38f977	2.6286453e-12
27	0x2c38f7df	2.6285569e-12
28	0xae895525	-6.2451634e-11
29	0xae895617	-6.245331e-11
30	0xae894fe8	-6.244233e-11
31	0xae876410	-6.156864e-11
32	0xacd1537d	-5.9494063e-12
33	0x2b746205	8.6822243e-13
34	0x2b746fec	8.6841537e-13
35	0xae89473b	-6.242692e-11
36	0xae89478b	-6.242747e-11
37	0xae8940ab	-6.241526e-11
38	0xae878910	-6.1634364e-11
39	0xacd3e908	-6.0228524e-12
40	0x2b5fe41f	7.9542097e-13
41	0x2b61dd0a	8.024281e-13
42	0xae894660	-6.24254e-11
43	0xae8946b6	-6.2425995e-11
44	0xae893f98	-6.241335e-11
45	0xae8786b6	-6.163019e-11
46	0xacd3b551	-6.017111e-12
47	0x2b62c069	8.055835e-13
48	0x2b67a8fb	8.2302193e-13
49	0x2ef477fa	1.11171475e-10
50	0x2ef477fa	1.11171475e-10
51	0x2ef45f73	1.11127905e-10
52	0x2eeaad9b	1.06719265e-10
53	0x2d1a6d00	8.778089e-12
54	0xac632d77	-3.2283878e-12
55	0xac632f85	-3.2285019e-12
56	0x2ef477fa	1.11171475e-10
57	0x2ef477fa	1.11171475e-10
58	0x2ef45f73	1.11127905e-10
59	0x2eeaad9b	1.06719265e-10
60	0x2d1a6d00	8.778089e-12
61	0xac632d77	-3.2283878e-12
62	0xac632f85	-3.2285019e-12
63	0x2ef477fa	1.11171475e-10
64	0x2ef477fa	1.11171475e-10
65	0x2ef45f73	1.11127905e-10
66	0x2eea8ba4	1.0665893e-10
67	0x2d195d3c	8.717745e-12
68	0xac676c7b	-3.2887293e-12
69	0xac676e87	-3.288843e-12
70	0x2ef48415	1.1119298e-10
71	0x2ef48415	1.1119298e-10
72	0x2ef45e99	1.1112639e-10
73	0x2ee7a56d	1.0534049e-10
74	0x2d01cb08	7.377883e-12
75	0xaca2daae	-4.6285953e-12
76	0xaca2dbb4	-4.628709e-12
77	0x2ef1eb27	1.10011826e-10
78	0x2ef1eb27	1.10011826e-10
79	0x2ef1de3a	1.09988865e-10
80	0x2eee7802	1.08443046e-10
81	0x2d3856ab	1.0478433e-11
82	0xabd70d93	-1.5280436e-12
83	0xabd711aa	-1.5281572e-12
84	0x2ef1d516	1.0997263e-10
85	0x2ef1d516	1.0997263e-10
86	0x2ef1c82e	1.099497e-10
87	0x2eeec0db	1.0857245e-10
88	0x2d3a9d24	1.0607768e-11
89	0xabc4d9e7	-1.3987118e-12
90	0xabc4ddff	-1.3988254e-12
91	0x2ef1d48c	1.0997167e-10
92	0x2ef1d48c	1.0997167e-10
93	0x2ef1c79a	1.09948675e-10
94	0x2eeec04b	1.0857145e-10
95	0x2d3a98ba	1.0606788e-11
96	0xabc4fd3f	-1.3996928e-12
97	0xabc50156	-1.3998063e-12
98	0xae1f186a	-3.61741e-11
99	0xae1f1874	-3.6174133e-11
100	0xae1f0841	-3.6159745e-11
101	0xae18a06a	-3.4703275e-11
102	0xac476f1d	-2.8341281e-12
103	0x2b96fa4f	1.0727616e-12
104	0x2b96f610	1.0726437e-12
105	0xae1f1874	-3.6174133e-11
106	0xae1f1874	-3.6174133e-11
107	0xae1f0841	-3.6159745e-11
108	0xae18a077	-3.470332e-11
109	0xac47701b	-2.8341832e-12
110	0x2b96f4c7	1.072608e-12
111	0x2b96f610	1.0726437e-12
112	0xae1f1874	-3.6174133e-11
113	0xae1f1874	-3.6174133e-11
114	0xae1f0841	-3.6159745e-11
115	0xae188942	-3.4682708e-11
116	0xac45f1f3	-2.8129693e-12
117	0x2b99c2b0	1.092534e-12
118	0x2b99c404	1.0925709e-12
119	0xae1f1d3e	-3.6178387e-11
120	0xae1f203d	-3.6181048e-11
121	0xae1f07b2	-3.615925e-11
122	0xae16968e	-3.423977e-11
123	0xac230ddc	-2.3171387e-12
124	0x2bd81d52	1.5355861e-12
125	0x2bd7ebf1	1.5342156e-12
126	0xae1d6c7d	-3.5794024e-11
127	0xae1d6f6c	-3.579663e-11
128	0xae1d6736	-3.5789337e-11
129	0xae1b250b	-3.527582e-11
130	0xac6f3f9b	-3.399925e-12
131	0x2b0e1870	5.048245e-13
132	0x2b0e1a42	5.0484974e-13
133	0xae1d604e	-3.5783203e-11
134	0xae1d613a	-3.578402e-11
135	0xae1d573e	-3.5775154e-11
136	0xae1b3d92	-3.5297605e-11
137	0xac7267ac	-3.4447818e-12
138	0x2b02047f	4.619152e-13
139	0x2b020687	4.6194336e-13
140	0xae1d5f02	-3.578205e-11
141	0xae1d60a9	-3.578352e-11
142	0xae1c2f07	-3.5512062e-11
143	0xae1994f8	-3.4920483e-11
144	0xac724aad	-3.4431722e-12
145	0x2b021f0d	4.622837e-13
146	0x2b021d87	4.6226255e-13
147	0xad4ab68c	-1.1522904e-11
148	0x2e81e970	5.907708e-11
149	0x2ef46f33	1.1115588e-10
150	0x2efb33cd	1.142336e-10
151	0x2d8dd90b	1.612623e-11
152	0x2c201073	2.2746499e-12
153	0x2c1c349f	2.2198144e-12
154	0x2dc05622	2.1866123e-11
155	0x2ee3691a	1.0341435e-10
156	0x2ef488db	1.1120146e-10
157	0x2efb0e31	1.14166794e-10
158	0x2d8d0f93	1.603676e-11
159	0x2c1f645c	2.265097e-12
160	0x2c1c3385	2.2197532e-12
161	0x2e108155	3.285668e-11
162	0x2ef2beff	1.10388136e-10
163	0x2ef48a70	1.1120427e-10
164	0x2ef51fa8	1.11469334e-10
165	0x2d84d664	1.5101871e-11
166	0x2c222d72	2.3046812e-12
167	0x2c1f1e75	2.2612166e-12
168	0x2e2c8627	3.9227423e-11
169	0x2ef433eb	1.1105058e-10
170	0x2ef48b09	1.1120533e-10
171	0x2ee04a3b	1.01995266e-10
172	0x2d530363	1.1994713e-11
173	0x2c60d41c	3.195006e-12
174	0x2c5fe90a	3.1819569e-12
175	0x2e945c02	6.746605e-11
176	0x2ef1d125	1.0996563e-10
177	0x2ef1ddce	1.09988116e-10
178	0x2e8de65f	6.45286e-11
179	0x2bb2d217	1.2705972e-12
180	0x2b93d8ef	1.0505189e-12
181	0x2b93d766	1.0504763e-12
182	0x2ee36ef9	1.03424776e-10
183	0x2ef1c00d	1.0993526e-10
184	0x2ef1a2e2	1.0988345e-10
185	0x2de426f4	2.5937898e-11
186	0xac9caade	-4.4527567e-12
187	0x2b875182	9.61495e-13
188	0x2b875448	9.61572e-13
189	0x2ef094c7	1.09403646e-10
190	0x2ef1bff5	1.09935096e-10
191	0x2eec1ef6	1.0737537e-10
192	0x2d63f75e	1.2958383e-11
193	0xaceaf429	-6.6777872e-12
194	0x2b8769c3	9.621682e-13
195	0x2b876c93	9.622462e-13
196	0x2ef4788f	1.1117251e-10
197	0x2ef46c2f	1.11150526e-10
198	0x2ef41db6	1.1101113e-10
199	0x2ef30639	1.1051466e-10
200	0x2d87e8b8	1.5451071e-11
201	0x2c52d222	2.9959442e-12
202	0x2c2bce4f	2.4415086e-12
203	0x2ef47935	1.1117366e-10
204	0x2ef2589d	1.1020627e-10
205	0x2ef34326	1.10622886e-10
206	0x2ef8a4b0	1.1306989e-10
207	0x2d8659c3	1.5273898e-11
208	0x2c27446f	2.3770116e-12
209	0x2c08d95a	1.9447417e-12
210	0x2ef47888	1.1117246e-10
211	0x2ed2bad8	9.5828845e-11
212	0x2eeb73f2	1.0707159e-10
213	0x2efa3bca	1.13793044e-10
214	0x2d885cfb	1.5502702e-11
215	0x2c2c1bd2	2.4458113e-12
216	0x2c34fc81	2.5719706e-12
217	0x2ef471ee	1.1116073e-10
218	0x2eca1370	9.189349e-11
219	0x2eecc964	1.07678116e-10
220	0x2efb1d3e	1.1419353e-10
221	0x2d8ecbf7	1.623411e-11
222	0x2c5b4b80	3.1163683e-12
223	0x2c6ace40	3.3367892e-12
224	0x2ef1d0d9	1.099651e-10
225	0x2eeb8772	1.0710623e-10
226	0x2eefeb33	1.09102415e-10
227	0x2ef2b182	1.10364176e-10
228	0x2d5f4c8a	1.26930775e-11
229	0x2b5051c4	7.4009917e-13
230	0x2b54aa46	7.555383e-13
231	0x2ef183e6	1.0982841e-10
232	0x2ef1a4d1	1.09886884e-10
233	0x2ef17b84	1.0981352e-10
234	0x2eeff15a	1.0911334e-10
235	0x2d517479	1.1906137e-11
236	0x2b265a3c	5.910027e-13
237	0x2b42e37b	6.923834e-13
238	0x2eefb5c1	1.0900748e-10
239	0x2eeef793	1.0866965e-10
240	0x2ef18239	1.09825433e-10
241	0x2ed48303	9.663916e-11
242	0x2d16c939	8.571193e-12
243	0x2b3d92e7	6.7350156e-13
244	0x2b4fe771	7.386236e-13
245	0x2ef477fa	1.11171475e-10
246	0x2ef477fa	1.11171475e-10
247	0x2ef45f73	1.11127905e-10
248	0x2eeaad9c	1.0671927e-10
249	0x2d1a6d00	8.778089e-12
250	0xac632d77	-3.2283878e-12
251	0xac632f85	-3.2285019e-12
252	0x2ef477fa	1.11171475e-10
253	0x2ef477fa	1.11171475e-10
254	0x2ef45f73	1.11127905e-10
255	0x2eeaada1	1.0671931e-10
