outputs/2025-01-04/15-18-05/model/ConvRNNCell_D1_K5_H4_SS3.1_04-15-18-06/model-epoch=04-validation_loss=0.09.ckpt (torch, 22174 bytes, 18 tensors)

model.bias f4 [4]
000000 58 5e 6b be 2d 13 5d bf 0b e2 6b bf 63 5c 43 bf
       -0.22985208 -0.86357385 -0.9214179 -0.76312846

model.input_layers.0.weight f4 [4, 1, 5, 5]
000000 e1 d8 d6 bd 8b 60 bc bc 26 75 11 be 84 ff a4 be
       -0.10490585 -0.022995254 -0.14204845 -0.32226193
000010 be 73 77 bc 6b 5d e8 bc 61 31 2e be 77 f0 5c bb
       -0.015103279 -0.028364858 -0.17011024 -0.0033712664
000020 ed 90 94 be 82 cb 55 be 12 a3 a3 be 4e 66 8c be
       -0.2901682 -0.20878413 -0.3196035 -0.27421802
000030 70 04 90 be 9e 33 b2 bd 1f b3 24 be 56 2d 07 bc
       -0.28128386 -0.087012514 -0.16083954 -0.008250555
000040 90 2e 6a be 0c 35 6f be 13 3e 74 be f8 95 96 be
       -0.22869325 -0.2336008 -0.23851804 -0.29411292
000050 d9 38 cf bd cc 17 99 be 52 fd 7a bc 99 e7 96 be
       -0.10118265 -0.29900968 -0.015319185 -0.2947357
000060 ef 14 8f 3d 62 04 c6 bd c1 c7 1b 3e d2 a0 12 bc
       0.06986415 -0.09668805 0.15212919 -0.008949475
000070 78 98 19 bd 3a 29 28 bb f8 17 f3 3d fb df 0e bd
       -0.03749892 -0.0025659339 0.11869806 -0.034881573
000080 58 28 c6 bd 30 44 ef bc e6 16 92 3d 55 af 46 3d
       -0.09675664 -0.029207319 0.07133274 0.048507053
000090 4a 27 ee bd 45 8c b9 bc 2f c4 13 bd e5 7b 28 3d
       -0.116285875 -0.022649894 -0.036075767 0.04113378
0000a0 3d d2 86 be dc d4 ca bd 6a fe c8 bd ec d7 90 3d
       -0.26332274 -0.09903881 -0.09814151 0.07072434
0000b0 20 1d 10 bd 64 a5 45 3e 0e 22 f7 3d 39 a6 89 be
       -0.035184026 0.19301373 0.12067042 -0.2688463
0000c0 53 e2 2f 3e 6e b5 94 bd 20 89 77 bc 14 a2 91 bd
       0.1717618 -0.072611675 -0.015108377 -0.07110992
0000d0 9f 45 aa bc b2 60 e9 3d d4 99 c3 3d 76 97 d1 3d
       -0.020785151 0.11395396 0.09550825 0.10233967
0000e0 be 16 e2 3d 72 35 d0 3c 67 ae c7 bd 20 d7 cd 3c
       0.11039494 0.02541611 -0.097500615 0.025126994
0000f0 02 61 d5 3d c7 5c 9b bd 1e e8 6b 3e 1b f0 6d 3e
       0.104188934 -0.07586055 0.23037764 0.23236124
000100 58 b7 57 3e 1d 57 c4 bd 74 91 6c 3d 62 7f 11 3e
       0.21066034 -0.09586928 0.057755902 0.14208749
000110 6b 53 fa 3d 35 64 1d 3a ee c9 c6 3d 59 4b 4b 3e
       0.12222942 0.0006004007 0.09706484 0.19852962
000120 e3 a1 b1 bc 3d 22 9e 3d 57 8c ad bd 22 5f 95 ba
       -0.021683639 0.07721374 -0.08474033 -0.001139615
000130 0f be 26 3d 1c 95 c2 3c b3 8a 8a 3e dc 43 45 3d
       0.040708598 0.023752742 0.27058944 0.04816042
000140 d3 4d 6d 3e d2 5f 17 3d e7 50 d5 bd 3d 9a 75 3e
       0.23174219 0.036956616 -0.104158215 0.23984618
000150 06 0d 10 3e 34 3c 84 3e 43 f7 58 bd 7c 8a 76 3e
       0.14067468 0.2582718 -0.052970182 0.24076265
000160 54 43 36 3e 6e 59 1e bb 79 7b 38 3e 42 45 15 3e
       0.17799121 -0.002416219 0.18015851 0.14577201
000170 30 37 5f 3e 8c eb 19 3d c2 01 f9 3c a0 ce d7 bb
       0.21798396 0.03757815 0.030396346 -0.006585911
000180 5d cc 1c bd b7 5c 16 3e d1 cd 7f 3e 39 a6 29 3e
       -0.038280834 0.14683805 0.24980856 0.16567315

model.input_layers.0.bias f4 [4]
000000 ac 76 67 be 88 a6 02 bf 02 e8 18 3d e0 88 7d be
       -0.22603863 -0.51035357 0.037330635 -0.24759245

model.hidden_layers.0.weight f4 [4, 4, 5, 5]
000000 03 46 d7 3d ce 91 71 bd b5 a7 52 bb 81 9e 36 3a
       0.105114006 -0.05897694 -0.0032143418 0.0006966368
000010 18 0e d4 bb 1e 6d a7 3d 13 e4 de 3d 8e b7 2f 3d
       -0.0064714067 0.08175109 0.108833455 0.04289966
000020 c5 09 ab bc 4b 12 95 bd ce 36 35 3d bd a8 02 bd
       -0.020878682 -0.0727888 0.04424172 -0.031899203
000030 9d 6a f2 bd 24 80 a2 bd 1c 77 bd 3a 20 55 c6 3d
       -0.11836741 -0.07934597 0.0014455053 0.09684205
000040 7d c6 6a 3d cd 92 34 3d 72 3e d3 bd 5b 6d 0d bd
       0.0573182 0.044085313 -0.10314645 -0.034528118
000050 47 88 89 3d d7 ee 86 bb 57 42 7c bd 90 26 32 bd
       0.06715446 -0.0041178274 -0.061586704 -0.043493807
000060 5c 26 a1 bb a7 dd b4 3d f2 1f d5 3d 83 cb 60 3e
       -0.004917903 0.08831339 0.10406484 0.21952634
000070 b8 c6 8c 3e 2e a9 9a 3e dc 64 f0 3d fd 67 67 3e
       0.2749536 0.302072 0.117379874 0.22598262
000080 24 74 30 3e c4 b4 3e 3e fc 51 a9 3e 16 41 64 3e
       0.17231804 0.18623644 0.33070362 0.22290453
000090 f1 09 60 3e 62 65 53 3e f9 12 62 3e 83 f2 8a 3e
       0.21878792 0.20644143 0.2207755 0.27138147
0000a0 ca c0 30 3e 92 6f 62 3e d0 6a 75 3e 18 50 a0 3e
       0.17261043 0.22112873 0.23966527 0.31311107
0000b0 9e a2 a5 3e 05 6a 31 3e dc f2 2a 3e 48 5b d6 3d
       0.3235063 0.173256 0.16694206 0.10466629
0000c0 44 52 5a 3e 9b b4 52 3e 81 db 0e be d4 6f b4 bd
       0.21320444 0.20576708 -0.13950922 -0.08810392
0000d0 09 4a 75 bd 1a 15 aa bd 22 43 e0 3c 15 cf b7 bd
       -0.05988506 -0.08304806 0.027375761 -0.08975045
0000e0 20 83 02 be e7 29 2d bd f5 d0 a5 3d 3a d8 5c bd
       -0.12745333 -0.04227629 0.08096496 -0.053917147
0000f0 22 29 f9 bd a4 47 58 3d ef bb 44 bd 56 81 ac 3d
       -0.121660486 0.052802697 -0.04803079 0.08423106
000100 b5 ec 86 bd 85 ec 3d bc 1b 63 e5 bd 3a 1a 45 bd
       -0.06588117 -0.011592035 -0.112005435 -0.048120715
000110 fe 53 8e 3d ef 1b 5d 3d 04 a4 1f be 91 f6 fa 3c
       0.06949614 0.053981718 -0.15589911 0.03063515
000120 dc 36 f1 bc 69 f9 4a bd cd fc 99 bc a2 e1 6e bd
       -0.029445104 -0.049554262 -0.018797303 -0.05832065
000130 ec 9c e8 3c db a1 8b bd 96 60 23 3d 0d 88 6b 3d
       0.028395139 -0.06817981 0.039887033 0.057502795
000140 00 71 b7 bd f4 19 6c bc 6f de 60 3d ae 9f af 3d
       -0.089571 -0.014410485 0.05489963 0.08575378
000150 02 de a9 bb 02 54 f7 bd fd 6b d1 bd ea be 38 3d
       -0.005183936 -0.1207657 -0.10225675 0.045103945
000160 9e 87 48 3b b1 de 43 bd d8 38 52 bd cb 11 93 bd
       0.0030598412 -0.047819797 -0.05132374 -0.07181128
000170 b8 8b f8 bd d8 18 84 3d 51 83 19 3d 9e ba 08 be
       -0.12136024 0.06450051 0.03747875 -0.13352439
000180 f8 a7 01 3d ab 77 05 be 93 b6 22 3d c0 2f 37 bd
       0.031654328 -0.13033931 0.039724898 -0.044723272
000190 57 9b 92 bd 56 49 21 3d 4c 09 5d bd 5c cd d0 bd
       -0.07158535 0.03937658 -0.053963944 -0.10195419
0001a0 9c e6 07 be 58 62 3f bc 78 70 1c bd f6 d8 41 bd
       -0.13271564 -0.011681162 -0.038193196 -0.04732605
0001b0 4d 9b fe bd eb 01 34 bd 21 a2 ae bd 8d 25 14 bd
       -0.12431965 -0.04394714 -0.085270174 -0.036168624
0001c0 70 33 0f be c5 54 1e be 8d 1f 9a bc 7c 0f 14 be
       -0.13984466 -0.15462025 -0.018813873 -0.14459032
0001d0 85 89 9a bd 71 5f f3 bd a0 6f 8f 3c bf e3 4e bd
       -0.07545761 -0.118834384 0.017509282 -0.050510164
0001e0 b3 d5 e1 bd 46 0c 15 be 01 88 98 bd d6 03 02 be
       -0.11027088 -0.14555463 -0.07447816 -0.12696776
0001f0 26 95 60 bd 2e 6e 00 be d2 40 c9 bd ad e9 57 3c
       -0.05482974 -0.1254203 -0.098268166 0.013178271
000200 ba b8 ec 3c ac 7b d4 3a e2 ce a4 bb 57 71 0b 3d
       0.028896678 0.0016211173 -0.005029545 0.034043636
000210 d9 dc 8e bd 52 dd 2d bd 0c 61 c4 3c fe f8 d5 bd
       -0.06975717 -0.042447396 0.023972057 -0.10447882
000220 a9 58 cd bd 7a 57 80 bd 7c 47 a5 3c d5 78 09 be
       -0.10026676 -0.06266685 0.020175688 -0.13425
000230 1e 8f e4 bd ed 8f 1b 3d 15 46 be bd 03 15 06 be
       -0.1116011 0.037979055 -0.09290711 -0.13093953
000240 b3 69 cb bc 20 b2 0e be 77 56 ea bd c2 e5 a7 bd
       -0.024830675 -0.13935137 -0.11442273 -0.0819812
000250 47 39 60 bd da 75 0e be d8 29 0f 3e 1c c5 12 3d
       -0.054742124 -0.13912144 0.13980806 0.03583251
000260 50 77 00 bb 77 13 2c 3d d4 7b 21 bd 62 44 89 3d
       -0.0019602366 0.04201075 -0.039424732 0.06702496
000270 a7 13 1a 3e aa 39 0f 3e 22 92 3f 3d 45 31 6a 3b
       0.1504656 0.13986841 0.046770222 0.0035734933
000280 68 76 cd 3d 41 94 11 bd 0d 13 0d 3e 0a fe f6 3b
       0.1003235 -0.035541777 0.13776799 0.007537608
000290 0d 9c 72 3c 5d a2 8d bc d5 95 b3 3d a2 11 19 3e
       0.014807713 -0.017289335 0.087688126 0.14948133
0002a0 d8 c3 0a 3e ef 33 57 3c d6 0b b3 3c fb 0f 03 3c
       0.13551271 0.0131349405 0.02185623 0.0079994155
0002b0 f2 e0 13 bd 89 9b 93 3c db ec ce 3d d2 0e 07 3c
       -0.036103196 0.0180185 0.1010377 0.0082432795
0002c0 6c 90 31 bc f5 20 ae 3d 59 ff 03 3d 4e d9 5a 3d
       -0.0108376555 0.0850238 0.03222594 0.053429894
0002d0 d6 55 65 3d 63 9c e1 3c dc 15 2e bb 7d 06 0c 3e
       0.055990063 0.027540391 -0.0026563322 0.1367435
0002e0 7f bf 0a 3e 2f f6 13 3d af c1 13 3e d2 44 0f 3e
       0.13549612 0.03612345 0.14429353 0.13991097
0002f0 0e 26 06 3e dc 1d ff bc 37 5b bd 3d 24 6d 14 bd
       0.13100454 -0.031142168 0.092459135 -0.036236897
000300 56 cd c9 3d d3 ac 2b 3d dc a6 9a 3d 61 f4 56 3d
       0.09853618 0.041912865 0.07551357 0.05247915
000310 1d 59 21 3d 96 1a f0 3c 79 37 2b 3d d1 89 39 3d
       0.039391626 0.029309552 0.04180095 0.045297448
000320 c1 16 ba be c4 4b de be 90 34 93 be 73 21 c6 be
       -0.36345485 -0.4341718 -0.2875104 -0.38697395
000330 1f 9c 9e be 95 94 81 be 1a 81 8c be 0c 05 84 be
       -0.30978486 -0.25308672 -0.27442247 -0.257851
000340 85 68 b2 be 2c c2 80 be 2e 0b a0 be 9e b6 ca be
       -0.34845367 -0.2514814 -0.3125853 -0.3959245
000350 f1 03 62 be 2e 55 33 be 2c 80 80 be e9 2f 60 be
       -0.22071816 -0.17512962 -0.25097787 -0.21893276
000360 de 45 ae be 35 71 68 be 10 bb 86 be b4 b5 8b be
       -0.3403768 -0.22699435 -0.26314592 -0.27287066
000370 c1 da 83 be d8 03 76 be f0 ad 81 be 16 63 9f be
       -0.25752833 -0.24024904 -0.25328016 -0.31130284
000380 06 1c 71 be 75 39 22 3e c5 0e 98 3e 44 c1 8c 3e
       -0.23545846 0.1584223 0.29698768 0.274912
000390 ee 42 9d 3e c7 4a c8 3e e1 01 e7 3d 81 16 ef 3d
       0.30715126 0.3911955 0.11279655 0.11674214
0003a0 9b b8 79 3e d7 76 54 3e 9e e3 97 3e d6 71 5b 3e
       0.24386828 0.20748459 0.29665846 0.21430144
0003b0 a2 de f0 3d 01 e7 78 3e 52 80 57 3e 06 64 16 3e
       0.11761214 0.24306871 0.21045044 0.14686593
0003c0 39 97 69 3e a1 eb a3 3d 46 44 05 3e cf 25 1a 3e
       0.22811593 0.08003927 0.13014325 0.15053485
0003d0 f1 fb 04 3e 10 6c a8 3e d4 d1 1e 3e 8d be 0d 3e
       0.12986733 0.32894945 0.1550973 0.1384222
0003e0 96 72 3b 3e 7a 4d 3a 3e 72 63 b0 3e 7f 18 8f 3e
       0.1830543 0.18193617 0.3445087 0.27948377
0003f0 97 9e e3 3e e8 73 be 3e d8 53 b8 3e 74 9a 9a 3e
       0.44456932 0.37197804 0.36001468 0.30195963

model.hidden_layers.0.bias f4 [4]
000000 ff e9 13 3d 4a 4c a3 bd eb ac 8e be 6c b4 d8 bd
       0.036111828 -0.07973535 -0.278663 -0.10581288

model.output_layers.0.weight f4 [1, 4, 5, 5]
000000 74 f6 b6 3d d7 73 62 3d b4 5f 13 be ee 1c 09 be
       0.08933726 0.055286255 -0.14391977 -0.13389942
000010 51 e3 29 bd dc 01 32 bd 94 2b c7 3c 37 97 43 be
       -0.04147655 -0.043458804 0.024312772 -0.19100653
000020 1b 45 5a 3d cf a4 8f bd 83 c3 97 be 5f 61 84 be
       0.05328856 -0.070138566 -0.2964135 -0.25855538
000030 1a 2e 13 bf 1e ba c4 be e7 cb c1 be 2c 59 f6 3d
       -0.5749222 -0.38423246 -0.37850878 0.12028727
000040 84 fa af 3b d9 57 7d be af dc 4f bc de fc b4 3d
       0.00537044 -0.24740542 -0.012686892 0.08837293
000050 20 3b c3 3d 80 06 99 bc fd dd 5c be f5 a6 58 bd
       0.095327616 -0.018679857 -0.21569057 -0.052893598
000060 05 e2 71 3d 4f f0 8e 3d 0c 31 79 be 1c 65 49 bf
       0.05905344 0.06979429 -0.24335116 -0.78669906
000070 99 19 63 be e6 1b 5a 3e da b1 4f bd ef d5 99 be
       -0.22177733 0.21299705 -0.05070672 -0.3004603
000080 e6 3c 6f bf bd 9f 26 bf 55 39 ac be 6a 03 f1 bc
       -0.934523 -0.6508749 -0.3363749 -0.029420573
000090 a6 c5 44 be a6 fe 40 bf 85 af c4 be 9c 61 5a be
       -0.19216022 -0.7538856 -0.3841516 -0.21326298
0000a0 c4 03 c5 bd eb 11 df bd 64 68 d3 be 45 2b d8 bc
       -0.09619859 -0.108920895 -0.4129058 -0.02638782
0000b0 29 9a ce 3b 77 b8 c4 bd 7b 4d 8c bd df f6 91 be
       0.0063049984 -0.096054964 -0.06850716 -0.2850866
0000c0 1f b6 a7 3d 17 e3 25 3e d1 19 87 bc 5e e7 c0 bd
       0.08189034 0.16199909 -0.016491802 -0.0941913
0000d0 41 d0 26 3e b9 e3 c5 bc 9f 86 f8 bc 80 dc 57 3d
       0.1629038 -0.024156438 -0.03033763 0.05270052
0000e0 06 d5 8c 3c ea e1 6d 3e f7 32 44 3a 80 19 c6 bd
       0.017191421 0.2323071 0.0007484401 -0.096728325
0000f0 09 34 2b 3e 92 d7 a5 3e 0f fa da 3e b7 dc 69 3e
       0.16719069 0.3239103 0.42768905 0.22838102
000100 7b 3c 87 3e 51 b4 54 bd 4d cb 3e bd 86 d4 91 3d
       0.2641333 -0.051929776 -0.0465806 0.07120614
000110 94 78 5e bc 24 2b 50 bd dd 1d a0 bd b4 82 be bd
       -0.013578553 -0.050822392 -0.07818196 -0.093022734
000120 46 f3 14 3e 78 05 92 bc a5 28 fb 3c d8 7c 4e 3d
       0.14545926 -0.017824873 0.03065903 0.05041203
000130 d9 96 c0 bc 25 af 98 3e 22 b1 c5 3d 5f 78 33 bc
       -0.02350943 0.29821125 0.09652926 -0.010953992
000140 3d ed 59 bd fa e9 e4 bb bb 71 02 3e 66 2d 1a 3c
       -0.053204764 -0.0069859 0.12738697 0.009410238
000150 22 e6 06 3d b9 1c 36 3e 73 62 7c 3e a4 ea 11 3f
       0.032934316 0.17784394 0.2464693 0.5699866
000160 ab da 7f 3e 0f a9 74 3e 27 63 ef bd 52 d2 17 bd
       0.24985759 0.23892616 -0.11688834 -0.03706581
000170 21 92 6f 3e 18 c7 fb 3c f2 30 39 bb 80 3c 41 3c
       0.23395588 0.030734584 -0.0028257933 0.0117942095
000180 9d fd 00 be 3a 6f 89 3e c9 b1 be 3d d9 8e 01 bd
       -0.12596746 0.26842672 0.093112536 -0.03163037

exp_avg f4 [4]
000000 9d 60 83 37 e3 25 91 3c d3 9c e7 3b 4c 09 66 3c
       1.5661406e-05 0.017718261 0.0070682555 0.0140403025

exp_avg_sq f4 [4]
000000 d6 df 00 38 30 37 e0 3e ee 28 5a 3c b9 66 39 3d
       3.072604e-05 0.43792105 0.013315422 0.04526398

exp_avg f4 [4, 1, 5, 5]
000000 8f 44 07 b7 44 27 0c b7 d0 d5 3f b7 b8 52 1a b7
       -8.06259e-06 -8.3537925e-06 -1.1434269e-05 -9.198375e-06
000010 ca dc 18 b7 91 2b 14 b7 d3 38 19 b7 b3 95 50 b7
       -9.1113125e-06 -8.831631e-06 -9.132741e-06 -1.2432621e-05
000020 c9 b4 26 b7 90 d1 24 b7 b5 83 84 b7 65 f1 88 b7
       -9.936463e-06 -9.823954e-06 -1.5796957e-05 -1.6324871e-05
000030 12 0b b7 b7 6d 97 9a b7 fe 60 98 b7 01 00 43 b7
       -2.1820455e-05 -1.8428744e-05 -1.8164978e-05 -1.1622907e-05
000040 d6 af 49 b7 2e fb 92 b7 09 b9 77 b7 83 b9 74 b7
       -1.2021474e-05 -1.7521521e-05 -1.4765429e-05 -1.4586726e-05
000050 dc a7 40 b7 3c 15 47 b7 36 6a 91 b7 91 bf 75 b7
       -1.1483175e-05 -1.1866268e-05 -1.7334805e-05 -1.46477405e-05
000060 3e fa 72 b7 a9 96 b1 3a 32 4e 59 bb 70 5a c5 bc
       -1.4482588e-05 0.0013548929 -0.003315818 -0.024090976
000070 86 de 10 bd 8d bd 25 bd 51 15 41 3a a9 5d 1f bc
       -0.035368465 -0.040463973 0.0007365542 -0.00972692
000080 79 8b 06 bd ba 21 2b bd ea 6e 3d bd bb ba 1b 3c
       -0.032847855 -0.04178021 -0.046248354 0.009504969
000090 ec b4 c9 bb 2e ca d3 bc b9 1d 0b bd 61 ec 23 bd
       -0.006155601 -0.025853243 -0.033963893 -0.04002035
0000a0 fb 9e 70 3b d0 30 7d bc 00 16 f9 bc 5c 16 14 bd
       0.0036715853 -0.015453532 -0.030405998 -0.036154136
0000b0 da 04 2e bd 1c a0 a1 3a 89 d4 9b bc 22 b2 00 bd
       -0.042485096 0.0012331042 -0.019022243 -0.03141988
0000c0 6c 25 05 bd f8 95 1f bd 00 00 00 00 00 00 00 00
       -0.03250639 -0.03896138 0.0 0.0
0000d0 04 00 00 80 04 00 00 80 04 00 00 80 00 00 00 00
       -6e-45 -6e-45 -6e-45 0.0
0000e0 00 00 00 00 04 00 00 80 04 00 00 80 04 00 00 80
       0.0 -6e-45 -6e-45 -6e-45
0000f0 00 00 00 00 00 00 00 00 04 00 00 80 04 00 00 80
       0.0 0.0 -6e-45 -6e-45
000100 04 00 00 80 00 00 00 00 00 00 00 00 04 00 00 80
       -6e-45 0.0 0.0 -6e-45
000110 04 00 00 80 04 00 00 80 00 00 00 00 00 00 00 00
       -6e-45 -6e-45 0.0 0.0
000120 04 00 00 80 04 00 00 80 04 00 00 80 04 00 00 80
       -6e-45 -6e-45 -6e-45 -6e-45
000130 04 00 00 80 04 00 00 80 04 00 00 80 04 00 00 80
       -6e-45 -6e-45 -6e-45 -6e-45
000140 04 00 00 80 04 00 00 80 04 00 00 80 04 00 00 80
       -6e-45 -6e-45 -6e-45 -6e-45
000150 04 00 00 80 04 00 00 80 04 00 00 80 04 00 00 80
       -6e-45 -6e-45 -6e-45 -6e-45
000160 04 00 00 80 04 00 00 80 00 00 00 00 04 00 00 80
       -6e-45 -6e-45 0.0 -6e-45
000170 04 00 00 80 04 00 00 80 04 00 00 80 00 00 00 00
       -6e-45 -6e-45 -6e-45 0.0
000180 04 00 00 80 04 00 00 80 04 00 00 80 04 00 00 80
       -6e-45 -6e-45 -6e-45 -6e-45

exp_avg_sq f4 [4, 1, 5, 5]
000000 73 dd 4e 39 d9 81 50 39 8b 7c 53 39 0a 4d 4f 39
       0.00019728187 0.00019884798 0.00020168924 0.00019769758
000010 ed a1 4a 39 94 4a 50 39 cc 7f 51 39 79 80 54 39
       0.00019324543 0.00019864208 0.00019979401 0.00020265755
000020 5e 88 50 39 c4 18 4c 39 4b 27 51 39 38 b2 51 39
       0.00019887227 0.00019464182 0.00019946431 0.00019998185
000030 6c f1 54 39 29 86 51 39 f5 8c 4d 39 b9 e7 4b 39
       0.00020307832 0.00019981772 0.00019602834 0.00019445912
000040 da a6 4b 39 fd 20 4e 39 ab 65 4b 39 15 03 48 39
       0.00019421746 0.0001965798 0.00019397463 0.00019074634
000050 8f 85 45 39 e7 4e 45 39 ce e0 47 39 7b 60 45 39
       0.00018837138 0.00018816777 0.00019061865 0.00018823326
000060 af 5b 42 39 7f 02 b5 40 9c 29 b9 40 d1 a7 bb 40
       0.00018535437 5.6565547 5.7863293 5.8642354
000070 79 0f b9 40 58 a2 b4 40 19 79 b9 40 75 bb bd 40
       5.7831388 5.6448174 5.7960324 5.929133
000080 ae 44 c0 40 70 b3 bd 40 88 2e b9 40 4d c3 bc 40
       6.0083838 5.928154 5.78693 5.8988404
000090 be 13 c1 40 22 b3 c3 40 4b 2a c1 40 4f 96 bc 40
       6.03366 6.115617 6.0364127 5.893348
0000a0 e5 f8 bc 40 06 40 c1 40 7a f6 c3 40 64 7b c1 40
       5.9053826 6.0390654 6.1238375 6.0463123
0000b0 10 f0 bc 40 60 91 ba 40 03 c1 be 40 03 7f c1 40
       5.9043045 5.830246 5.961061 6.0467544
0000c0 24 14 bf 40 68 9d ba 40 00 00 00 00 00 00 00 00
       5.9712086 5.8317146 0.0 0.0
0000d0 e7 38 3e 2f a8 16 2c 2d f8 46 18 2c 00 00 00 00
       1.7300615e-10 9.782099e-12 2.1639895e-12 0.0
0000e0 00 00 00 00 0e 3c 97 2e a1 71 32 2c ac c5 19 2c
       0.0 6.877353e-11 2.5358398e-12 2.1852338e-12
0000f0 00 00 00 00 00 00 00 00 60 d9 4b 2d 90 2c 1b 2c
       0.0 0.0 1.1587481e-11 2.2051562e-12
000100 80 54 19 2c 00 00 00 00 00 00 00 00 47 53 1a 2c
       2.1789515e-12 0.0 0.0 2.1930944e-12
000110 88 55 18 2c d9 0f 17 2c 00 00 00 00 00 00 00 00
       2.1647979e-12 2.1467188e-12 0.0 0.0
000120 88 0b 16 2c a1 fe 14 2c 61 72 15 2c 75 15 c5 2e
       2.1322683e-12 2.1173412e-12 2.1237667e-12 8.962334e-11
000130 5c ff 8c 33 78 12 11 33 71 7a ae 30 cf 46 2c 30
       6.5657076e-08 3.377724e-08 1.2694966e-09 6.267386e-10
000140 88 41 c4 2e 75 66 83 33 34 bc 41 32 4e 4e 2b 30
       8.924689e-11 6.1188e-08 1.1276871e-08 6.2320715e-10
000150 fa 96 2c 30 ba 49 c2 2e de 5c 3a 33 8c 8b 45 31
       6.2787786e-10 8.835195e-11 4.3390962e-08 2.8746596e-09
000160 46 ce 2b 30 6c b4 2c 30 00 00 00 00 65 c3 97 32
       6.250257e-10 6.282963e-10 0.0 1.7667569e-08
000170 a7 7a 2a 30 82 a0 11 30 03 41 10 30 00 00 00 00
       6.201994e-10 5.297879e-10 5.247928e-10 0.0
000180 59 a1 4f 31 ed 0c 13 30 c9 52 11 30 ae 02 0f 30
       3.021418e-09 5.3496657e-10 5.286834e-10 5.2026905e-10

exp_avg f4 [4]
000000 9d 60 83 37 4a 27 35 3c 04 00 00 00 04 00 00 00
       1.5661406e-05 0.0110567305 6e-45 6e-45

exp_avg_sq f4 [4]
000000 07 82 e8 37 51 da d1 3e 45 29 8d 2a c9 d0 b4 2e
       2.7717104e-05 0.40986875 2.5075268e-13 8.22254e-11

exp_avg f4 [4, 4, 5, 5]
000000 f3 d4 e2 34 53 d3 e2 34 6e 81 e2 34 7f 4a a8 2f
       4.225072e-07 4.224954e-07 4.2189953e-07 3.0611955e-10
000010 1f d6 79 2e af d3 f9 34 84 cc f9 34 00 ff f8 34
       5.6806223e-11 4.6533884e-07 4.652867e-07 4.6379137e-07
000020 35 b5 a7 2f 4e 04 77 2e d3 76 0b 35 40 61 0b 35
       3.0505878e-10 5.616512e-11 5.1954447e-07 5.192305e-07
000030 fa d1 09 35 13 fc 2c 2f ab 16 be ae c7 9f a8 34
       5.1342033e-07 1.5732864e-10 -8.644226e-11 3.1408692e-07
000040 b7 94 a8 34 a4 bf a7 34 40 36 1c af 96 cd 1c af
       3.1400643e-07 3.124561e-07 -1.4207391e-10 -1.4261156e-10
000050 82 4f 98 34 8d 4d 98 34 89 f9 97 34 9b d3 21 af
       2.8370056e-07 2.8368632e-07 2.8307502e-07 -1.4718042e-10
000060 91 cd 1c af d7 85 8e b4 6e e8 8e b4 1e d3 49 b4
       -1.4261149e-10 -2.6546942e-07 -2.6618676e-07 -1.8796388e-07
000070 ee 91 83 2c db 2b 31 ad cf 08 86 b4 f1 9d 75 b4
       3.7394454e-12 -1.0071023e-11 -2.4965854e-07 -2.2874862e-07
000080 46 6d 4c b4 5b cb 8d 2e 8a e6 9c 2d 2c 06 b1 b4
       -1.9038734e-07 6.448061e-11 1.7837527e-11 -3.297331e-07
000090 d4 94 b2 b4 fe 89 90 b4 e2 3d 88 af b2 03 bf ae
       -3.326337e-07 -2.6922493e-07 -2.4782226e-10 -8.686331e-11
0000a0 b3 24 51 b4 31 52 50 b4 72 6f 10 b4 9e da bb ae
       -1.9477993e-07 -1.940141e-07 -1.3451589e-07 -8.54261e-11
0000b0 5c 2b 03 ae d9 e0 3a b4 93 52 39 b4 0f 92 fe b3
       -2.9824462e-11 -1.7404399e-07 -1.7259508e-07 -1.18543646e-07
0000c0 0f ac c8 ad fe 1f c6 ad dc 8c a4 b4 dc 8c a4 b4
       -2.2813777e-11 -2.2524201e-11 -3.064987e-07 -3.064987e-07
0000d0 5f 8c a4 b4 ed 4c 74 af e7 46 35 ae e1 3e b5 b4
       -3.0649514e-07 -2.2219e-10 -4.121761e-11 -3.3759628e-07
0000e0 e1 3e b5 b4 53 3e b5 b4 1f 78 73 af 66 3b 33 ae
       -3.3759628e-07 -3.3759224e-07 -2.2143397e-10 -4.0752644e-11
0000f0 c0 62 ca b4 bc 62 ca b4 85 53 ca b4 50 cb fb ae
       -3.7697282e-07 -3.769727e-07 -3.76862e-07 -1.1450274e-10
000100 29 dd 89 2e 5a b3 74 b4 4f b3 74 b4 fc 95 74 b4
       6.2693246e-11 -2.2789519e-07 -2.2789503e-07 -2.2778835e-07
000110 77 9b e2 2e 40 7d e3 2e 2f 05 5d b4 24 05 5d b4
       1.0304906e-10 1.0345014e-10 -2.0584115e-07 -2.0584099e-07
000120 d3 e7 5c b4 8b c4 ea 2e 39 7d e3 2e b5 7b 91 b4
       -2.0573434e-07 1.0676001e-10 1.0345009e-10 -2.7098363e-07
000130 b5 7b 91 b4 47 7b 91 b4 7e 0e 58 af 5d 4a 20 ae
       -2.7098363e-07 -2.709805e-07 -1.9650234e-10 -3.6445836e-11
000140 dc 3f a0 b4 dc 3f a0 b4 5d 3f a0 b4 68 52 57 af
       -2.9848786e-07 -2.9848786e-07 -2.9848425e-07 -1.9583413e-10
000150 8b 7b 1e ae 5c f0 b2 b4 57 f0 b2 b4 e4 e2 b2 b4
       -3.603477e-11 -3.3329968e-07 -3.3329954e-07 -3.3320168e-07
000160 48 c0 de ae ec c1 73 2e 79 5c 58 b4 70 5c 58 b4
       -1.0129547e-10 5.542404e-11 -2.0150209e-07 -2.0150196e-07
000170 84 42 58 b4 c5 57 c8 2e cc 20 c9 2e 8b 6d 43 b4
       -2.0140766e-07 9.110538e-11 9.1462476e-11 -1.8200642e-07
000180 81 6d 43 b4 97 53 43 b4 25 8f cf 2e c6 20 c9 2e
       -1.8200627e-07 -1.81912e-07 9.438698e-11 9.1462435e-11
000190 04 00 00 00 04 00 00 00 04 00 00 00 04 00 00 00
       6e-45 6e-45 6e-45 6e-45
0001a0 04 00 00 00 04 00 00 00 04 00 00 00 04 00 00 00
       6e-45 6e-45 6e-45 6e-45
0001b0 04 00 00 00 04 00 00 00 04 00 00 00 04 00 00 00
       6e-45 6e-45 6e-45 6e-45
0001c0 04 00 00 00 04 00 00 00 04 00 00 00 04 00 00 00
       6e-45 6e-45 6e-45 6e-45
0001d0 04 00 00 00 04 00 00 00 04 00 00 00 04 00 00 00
       6e-45 6e-45 6e-45 6e-45
0001e0 04 00 00 00 04 00 00 00 04 00 00 00 04 00 00 00
       6e-45 6e-45 6e-45 6e-45
0001f0 04 00 00 00 04 00 00 00 04 00 00 00 04 00 00 00
       6e-45 6e-45 6e-45 6e-45
000200 04 00 00 00 04 00 00 00 04 00 00 00 04 00 00 00
       6e-45 6e-45 6e-45 6e-45
000210 04 00 00 00 04 00 00 00 04 00 00 00 04 00 00 00
       6e-45 6e-45 6e-45 6e-45
000220 04 00 00 00 04 00 00 00 04 00 00 00 04 00 00 00
       6e-45 6e-45 6e-45 6e-45
000230 04 00 00 00 04 00 00 00 04 00 00 00 04 00 00 00
       6e-45 6e-45 6e-45 6e-45
000240 04 00 00 00 04 00 00 00 04 00 00 00 04 00 00 00
       6e-45 6e-45 6e-45 6e-45
000250 04 00 00 00 04 00 00 00 04 00 00 80 04 00 00 80
       6e-45 6e-45 -6e-45 -6e-45
000260 04 00 00 80 04 00 00 80 04 00 00 80 04 00 00 80
       -6e-45 -6e-45 -6e-45 -6e-45
000270 04 00 00 80 04 00 00 80 04 00 00 80 04 00 00 80
       -6e-45 -6e-45 -6e-45 -6e-45
000280 04 00 00 80 04 00 00 80 04 00 00 80 04 00 00 80
       -6e-45 -6e-45 -6e-45 -6e-45
000290 04 00 00 80 04 00 00 80 04 00 00 80 04 00 00 80
       -6e-45 -6e-45 -6e-45 -6e-45
0002a0 04 00 00 80 04 00 00 80 04 00 00 80 04 00 00 80
       -6e-45 -6e-45 -6e-45 -6e-45
0002b0 04 00 00 80 04 00 00 80 04 00 00 80 04 00 00 80
       -6e-45 -6e-45 -6e-45 -6e-45
0002c0 04 00 00 80 04 00 00 80 04 00 00 80 04 00 00 80
       -6e-45 -6e-45 -6e-45 -6e-45
0002d0 04 00 00 80 04 00 00 80 04 00 00 80 04 00 00 80
       -6e-45 -6e-45 -6e-45 -6e-45
0002e0 04 00 00 80 04 00 00 80 04 00 00 80 04 00 00 80
       -6e-45 -6e-45 -6e-45 -6e-45
0002f0 04 00 00 80 04 00 00 80 04 00 00 80 04 00 00 80
       -6e-45 -6e-45 -6e-45 -6e-45
000300 04 00 00 80 04 00 00 80 04 00 00 80 04 00 00 80
       -6e-45 -6e-45 -6e-45 -6e-45
000310 04 00 00 80 04 00 00 80 04 00 00 80 04 00 00 80
       -6e-45 -6e-45 -6e-45 -6e-45
000320 c2 09 00 00 e4 09 00 00 ff 09 00 00 fb 09 00 00
       3.5e-42 3.548e-42 3.586e-42 3.58e-42
000330 e9 09 00 00 44 0a 00 00 69 0a 00 00 85 0a 00 00
       3.555e-42 3.683e-42 3.734e-42 3.774e-42
000340 7f 0a 00 00 6e 0a 00 00 98 0a 00 00 bd 0a 00 00
       3.765e-42 3.741e-42 3.8e-42 3.852e-42
000350 da 0a 00 00 d6 0a 00 00 c1 0a 00 00 95 0a 00 00
       3.893e-42 3.887e-42 3.858e-42 3.796e-42
000360 bb 0a 00 00 d8 0a 00 00 d2 0a 00 00 be 0a 00 00
       3.85e-42 3.89e-42 3.882e-42 3.854e-42
000370 91 0a 00 00 b4 0a 00 00 d1 0a 00 00 ca 0a 00 00
       3.79e-42 3.84e-42 3.88e-42 3.87e-42
000380 b8 0a 00 00 ff 05 00 80 17 06 00 80 27 06 00 80
       3.845e-42 -2.151e-42 -2.185e-42 -2.207e-42
000390 1f 06 00 80 0d 06 00 80 3b 06 00 80 53 06 00 80
       -2.196e-42 -2.17e-42 -2.235e-42 -2.269e-42
0003a0 64 06 00 80 5b 06 00 80 47 06 00 80 53 06 00 80
       -2.293e-42 -2.28e-42 -2.252e-42 -2.269e-42
0003b0 6d 06 00 80 82 06 00 80 78 06 00 80 64 06 00 80
       -2.305e-42 -2.335e-42 -2.32e-42 -2.293e-42
0003c0 50 06 00 80 6d 06 00 80 84 06 00 80 7c 06 00 80
       -2.264e-42 -2.305e-42 -2.337e-42 -2.326e-42
0003d0 6a 06 00 80 47 06 00 80 64 06 00 80 7b 06 00 80
       -2.301e-42 -2.252e-42 -2.293e-42 -2.325e-42
0003e0 78 06 00 80 66 06 00 80 38 08 00 80 56 08 00 80
       -2.32e-42 -2.295e-42 -2.948e-42 -2.99e-42
0003f0 6b 08 00 80 6a 08 00 80 5e 08 00 80 9f 08 00 80
       -3.02e-42 -3.018e-42 -3.002e-42 -3.093e-42

exp_avg_sq f4 [4, 4, 5, 5]
000000 52 33 a7 36 2b 38 a6 36 d8 29 8e 36 24 8e 8a 36
       4.9829623e-06 4.9537243e-06 4.236801e-06 4.129268e-06
000010 56 a2 85 36 d4 66 a5 36 1d 96 a3 36 80 ec 8a 36
       3.9826073e-06 4.929354e-06 4.875254e-06 4.1402527e-06
000020 fa d5 87 36 bd a7 83 36 8f e5 83 36 23 d3 81 36
       4.0482237e-06 3.9236315e-06 3.9308284e-06 3.869079e-06
000030 32 cb 59 36 49 98 56 36 73 6a 51 36 83 16 7d 36
       3.2453795e-06 3.1977127e-06 3.1205388e-06 3.7713041e-06
000040 04 87 79 36 0b f7 52 36 1d 1a 51 36 8e 68 4c 36
       3.718248e-06 3.1436236e-06 3.1158627e-06 3.0459228e-06
000050 c1 cf 76 36 b3 90 74 36 97 69 50 36 37 36 4f 36
       3.6777785e-06 3.644306e-06 3.1055877e-06 3.087696e-06
000060 3f 1b 4a 36 63 5f 3e 35 6b 89 3e 35 91 ae 3c 35
       3.0116205e-06 7.091932e-07 7.0980485e-07 7.0289485e-07
000070 bf b9 2b 35 fb 66 26 35 5d d4 3c 35 55 09 3d 35
       6.397276e-07 6.1989675e-07 7.0344487e-07 7.0421567e-07
000080 40 69 3b 35 a5 e6 2a 35 2b 77 25 35 82 44 41 35
       6.981609e-07 6.3665567e-07 6.16407e-07 7.1997795e-07
000090 38 38 41 35 7a 86 3f 35 b5 d4 2d 35 74 68 28 35
       7.197991e-07 7.1348734e-07 6.475705e-07 6.2736876e-07
0000a0 fa 4b 22 35 bc 69 22 35 39 b9 21 35 b7 35 13 35
       6.0460263e-07 6.0503567e-07 6.024671e-07 5.483993e-07
0000b0 dd fa 0e 35 cf 8d 1b 35 25 fe 1b 35 dd 1f 1b 35
       5.3264176e-07 5.794836e-07 5.811183e-07 5.7788367e-07
0000c0 b7 28 0d 35 c4 50 09 35 f9 c7 b9 36 5c f9 b9 36
       5.258584e-07 5.1154007e-07 5.5367095e-06 5.542459e-06
0000d0 37 21 ba 36 3b f1 a9 36 e1 e4 a4 36 26 94 ba 36
       5.5470987e-06 5.0646754e-06 4.914226e-06 5.5604787e-06
0000e0 23 c5 ba 36 f6 ec ba 36 82 9d aa 36 d9 89 a5 36
       5.5661817e-06 5.570818e-06 5.084731e-06 4.933431e-06
0000f0 47 aa ba 36 e9 da ba 36 34 03 bb 36 3a ae aa 36
       5.563055e-06 5.5687165e-06 5.573407e-06 5.0866774e-06
000100 2c 99 a5 36 42 3e a1 36 82 54 a1 36 96 6a a1 36
       4.9352147e-06 4.8054217e-06 4.808012e-06 4.810582e-06
000110 df 65 93 36 c0 25 8f 36 27 f0 9a 36 cd 04 9b 36
       4.3928007e-06 4.266127e-06 4.617515e-06 4.619919e-06
000120 0d 19 9b 36 5f 9a 8d 36 e3 9d 89 36 57 48 89 36
       4.6222763e-06 4.2200986e-06 4.1012986e-06 4.0913396e-06
000130 cf 6d 89 36 47 8c 89 36 c3 07 7b 36 ca 91 73 36
       4.0957016e-06 4.0992486e-06 3.7406433e-06 3.6294682e-06
000140 64 df 89 36 75 04 8a 36 14 23 8a 36 f1 06 7c 36
       4.1089243e-06 4.1132394e-06 4.116804e-06 3.7554967e-06
000150 c8 85 74 36 81 e7 89 36 7f 0c 8a 36 dc 2d 8a 36
       3.6436704e-06 4.1098688e-06 4.114175e-06 4.118059e-06
000160 99 10 7c 36 a2 8f 74 36 87 21 6e 36 16 43 6e 36
       3.7560587e-06 3.6442439e-06 3.548428e-06 3.5503813e-06
000170 09 60 6e 36 81 94 59 36 c5 51 53 36 56 d2 64 36
       3.5520663e-06 3.242196e-06 3.1489046e-06 3.409708e-06
000180 c8 f1 64 36 e5 0a 65 36 20 0b 51 36 ef 27 4b 36
       3.4115383e-06 3.413e-06 3.1149902e-06 3.0272602e-06
000190 17 35 12 35 b5 12 15 35 81 9d 05 35 30 34 f1 34
       5.4466494e-07 5.553405e-07 4.977556e-07 4.492772e-07
0001a0 dc cf e4 34 34 c5 0a 35 24 93 0b 35 55 0f f8 34
       4.2619547e-07 5.1695974e-07 5.1995653e-07 4.6204755e-07
0001b0 a5 5f e3 34 ea 2d de 34 51 43 58 34 22 ce 56 34
       4.2351635e-07 4.138413e-07 2.0141057e-07 2.0005294e-07
0001c0 ff 6c 38 34 c4 25 2e 34 28 be 35 34 11 fb 65 34
       1.7175988e-07 1.6218752e-07 1.6926117e-07 2.1418624e-07
0001d0 cb 96 68 34 7c 8e 56 34 b0 b4 57 34 91 55 65 34
       2.1661542e-07 1.9982139e-07 2.0089169e-07 2.1358416e-07
0001e0 9c ae cd 33 b4 4d d8 33 97 ec ce 33 9d d8 d9 33
       9.577818e-08 1.0072418e-07 9.635658e-08 1.0144252e-07
0001f0 88 f8 f0 33 b9 aa c1 33 7a 55 cc 33 ad 94 cc 33
       1.12210785e-07 9.018317e-08 9.5150384e-08 9.526534e-08
000200 b5 07 c6 33 af 08 c3 33 b9 aa c1 33 7a 55 cc 33
       9.2214954e-08 9.0819746e-08 9.018317e-08 9.5150384e-08
000210 ad 94 cc 33 b5 07 c6 33 af 08 c3 33 b9 4c c3 33
       9.526534e-08 9.2214954e-08 9.0819746e-08 9.094351e-08
000220 51 e3 cd 33 a9 5e cd 33 c7 62 c6 33 0b 52 c3 33
       9.587405e-08 9.563275e-08 9.238061e-08 9.0953186e-08
000230 d9 71 7b 33 a5 bf 85 33 92 67 85 33 11 b4 80 33
       5.8544035e-08 6.228155e-08 6.2121345e-08 5.9932184e-08
000240 95 60 7e 33 b6 b9 73 33 46 26 81 33 99 c1 80 33
       5.9226824e-08 5.674675e-08 6.0139925e-08 5.99568e-08
000250 e1 36 79 33 99 c7 76 33 af 33 5a 35 9d 38 66 35
       5.8024742e-08 5.745787e-08 8.128654e-07 8.576406e-07
000260 b7 7f 66 35 41 1e 5f 35 61 be 5b 35 af 33 5a 35
       8.5867526e-07 8.3118e-07 8.1860895e-07 8.128654e-07
000270 9d 38 66 35 b7 7f 66 35 41 1e 5f 35 61 be 5b 35
       8.576406e-07 8.5867526e-07 8.3118e-07 8.1860895e-07
000280 af 33 5a 35 9d 38 66 35 b7 7f 66 35 41 1e 5f 35
       8.128654e-07 8.576406e-07 8.5867526e-07 8.3118e-07
000290 61 be 5b 35 f9 65 0d 35 17 36 16 35 17 36 16 35
       8.1860895e-07 5.2674983e-07 5.5958066e-07 5.5958066e-07
0002a0 e1 e7 10 35 c5 48 0f 35 83 59 08 35 ed b9 10 35
       5.398161e-07 5.3377545e-07 5.0794205e-07 5.391474e-07
0002b0 ed b9 10 35 a1 37 0c 35 8e da 0a 35 93 b9 20 35
       5.391474e-07 5.2235015e-07 5.1727045e-07 5.987469e-07
0002c0 f1 93 29 35 6e c8 29 35 80 58 24 35 26 dc 21 35
       6.317269e-07 6.324907e-07 6.1223545e-07 6.029753e-07
0002d0 93 b9 20 35 f1 93 29 35 6e c8 29 35 80 58 24 35
       5.987469e-07 6.317269e-07 6.324907e-07 6.1223545e-07
0002e0 26 dc 21 35 d8 94 20 35 e6 6e 29 35 08 96 29 35
       6.029753e-07 5.982124e-07 6.3118785e-07 6.317573e-07
0002f0 57 38 24 35 73 be 21 35 d5 4a d0 34 47 43 dd 34
       6.1176746e-07 6.0254314e-07 3.8797467e-07 4.1213409e-07
000300 39 21 dd 34 b2 73 d5 34 25 00 d3 34 8f b7 c8 34
       4.118863e-07 3.975852e-07 3.9301918e-07 3.738646e-07
000310 51 0e d5 34 fc 05 d5 34 96 69 ce 34 4a 6c cc 34
       3.9684758e-07 3.9678696e-07 3.8447314e-07 3.8076752e-07
000320 c9 da c1 38 ba 41 c7 38 6d 59 cb 38 45 a3 ca 38
       9.243709e-05 9.501302e-05 9.696451e-05 9.662522e-05
000330 97 f3 c7 38 57 ef d6 38 c8 e9 dc 38 fc 82 e1 38
       9.5344316e-05 0.00010248896 0.000105339626 0.00010753234
000340 5e bf e0 38 60 b7 dd 38 2b b4 eb 38 c2 42 f2 38
       0.00010716797 0.000105722575 0.00011239232 0.00011551894
000350 26 60 f7 38 09 84 f6 38 3b 22 f3 38 0e 9c eb 38
       0.00011795787 0.000117547876 0.00011593519 0.00011234741
000360 b8 18 f2 38 d3 12 f7 38 ab 0e f6 38 69 a4 f2 38
       0.000115440635 0.00011781384 0.00011732926 0.00011570083
000370 06 aa ea 38 33 07 f1 38 40 c8 f5 38 a7 af f4 38
       0.00011189659 0.000114931165 0.0001171981 0.000116675445
000380 5a 42 f1 38 4d 98 12 38 56 27 17 38 e6 14 1a 38
       0.000115041345 3.4950954e-05 3.603784e-05 3.6735924e-05
000390 c0 80 18 38 58 02 15 38 cd 1b 1e 38 96 2e 23 38
       3.635953e-05 3.552655e-05 3.7696027e-05 3.8905615e-05
0003a0 48 8d 26 38 7e a8 24 38 df a7 20 38 52 53 27 38
       3.9709063e-05 3.9257568e-05 3.8303315e-05 3.98935e-05
0003b0 eb f7 2c 38 e0 f7 30 38 a7 09 2f 38 92 f3 2a 38
       4.1238887e-05 4.219252e-05 4.173224e-05 4.0758e-05
0003c0 2f a6 26 38 2d ab 2c 38 24 0c 31 38 16 93 2f 38
       3.9732255e-05 4.1167415e-05 4.2211395e-05 4.1860236e-05
0003d0 21 d2 2b 38 5b 8d 24 38 ea c6 2a 38 56 71 2f 38
       4.0965275e-05 3.9232295e-05 4.071641e-05 4.1828804e-05
0003e0 77 80 2e 38 f1 fa 2a 38 9f 9e 89 38 74 61 8d 38
       4.1604475e-05 4.0764866e-05 6.5622145e-05 6.741556e-05
0003f0 68 49 90 38 aa 09 90 38 67 97 8e 38 28 8c 97 38
       6.880128e-05 6.868255e-05 6.7992885e-05 7.226347e-05

exp_avg f4 [4]
000000 2c 20 0b 35 04 00 00 00 69 0b 00 00 04 00 00 00
       5.182835e-07 6e-45 4.093e-42 6e-45

exp_avg_sq f4 [4]
000000 4e 20 40 37 ec e8 e8 35 50 c4 08 39 20 6b 00 33
       1.1451613e-05 1.7353136e-06 0.00013043103 2.9899752e-08

exp_avg f4 [1, 4, 5, 5]
000000 74 9a 95 3b 4b 5e d9 3b 6b 1b 0d 3c 94 f5 15 3c
       0.0045655314 0.006633555 0.008612494 0.009152789
000010 e8 e5 14 3c 15 11 ac 3b 51 25 f2 3b c0 5e 1c 3c
       0.009088017 0.00525106 0.0073897024 0.009544075
000020 79 0a 25 3c 4a 72 23 3c 45 f1 e5 3b ea 68 17 3c
       0.010073298 0.009975979 0.007017287 0.009241322
000030 e1 dc 3d 3c 57 c6 44 3c fa e2 41 3c 8f c9 e6 3b
       0.011588306 0.0120101785 0.011833901 0.0070430706
000040 d3 a9 14 3c 2d 10 36 3c e0 8a 3f 3c c1 91 3d 3c
       0.009073692 0.011112255 0.011690825 0.011570395
000050 61 49 0b 3c 67 fa 2a 3c fd 9a 49 3c 15 77 54 3c
       0.008501382 0.010435677 0.0123050185 0.0129678445
000060 67 62 52 3c 7f 41 2e 3c 18 76 47 3c 6a 6a 51 3c
       0.012840844 0.010635733 0.012174152 0.012781719
000070 61 3d 32 3c 51 b8 2b 3c ec d2 44 3c 02 79 59 3c
       0.010878892 0.010480956 0.012013178 0.013273479
000080 d3 3d 66 3c 2a f9 55 3c 6d 25 40 3c 33 67 5a 3c
       0.014052826 0.013059894 0.011727673 0.013330269
000090 23 d1 69 3c 69 c5 72 3c c5 16 61 3c cf 7f 3e 3c
       0.0142710535 0.014817574 0.013738339 0.011627152
0000a0 79 4a 51 3c 72 60 59 3c a8 74 62 3c 4e 7c 48 3c
       0.012774103 0.013267623 0.013821758 0.012236668
0000b0 40 63 2a 3c d3 f2 4d 3c cb e6 50 3c 1b 16 60 3c
       0.01039964 0.012570101 0.012750338 0.013677145
0000c0 c9 78 3f 3c 3d 5b 30 3c e9 9f 57 bb 97 f6 9c bb
       0.011686512 0.01076394 -0.003290171 -0.004790138
0000d0 9f fb cb bb f1 de d8 bb c4 56 d7 bb d1 2d 78 bb
       -0.006225064 -0.0066183736 -0.0065716226 -0.0037869106
0000e0 6a eb ae bb 8e 1c e2 bb 27 bc ee bb e5 6d ec bb
       -0.005338122 -0.0069003766 -0.007285613 -0.007215249
0000f0 fe 06 a6 bb d2 e4 da bb 5d 55 09 bc e5 5e 0e bc
       -0.0050667515 -0.0066801095 -0.008382169 -0.008689617
000100 2b 47 0c bc 2a b4 a6 bb 3a f8 d6 bb 55 b4 03 bc
       -0.00856189 -0.005087395 -0.0065603526 -0.0080386
000110 a3 99 0a bc 09 2c 09 bc b8 63 c9 bb e0 5c f7 bb
       -0.008459481 -0.008372315 -0.0061459206 -0.0075489134
000120 74 e3 11 bc 88 c9 19 bc 12 48 18 bc d8 16 3e bb
       -0.008904327 -0.009386428 -0.009294527 -0.0029005315
000130 e0 7f 8a bb 3f 12 b4 bb 49 79 bf bb 0f 20 be bb
       -0.0042266697 -0.005495339 -0.0058433157 -0.0058021615
000140 02 dd 5a bb 08 5f 9a bb d8 a1 c7 bb fd cc d2 bb
       -0.003339589 -0.0047110356 -0.0060922913 -0.006433128
000150 a5 c4 d0 bb ff 82 92 bb 8d 40 c1 bb 3d 90 f2 bb
       -0.006371098 -0.0044711824 -0.0058975876 -0.0074024484
000160 85 7a fb bb b6 c8 f7 bb ab 1d 93 bb e7 c9 bd bb
       -0.0076745176 -0.0075617684 -0.0044896207 -0.005791891
000170 b5 9d e8 bb 35 d1 f4 bb 26 4c f2 bb ee c9 b1 bb
       -0.0070988783 -0.0074712285 -0.0073943315 -0.005425683
000180 35 6f da bb fe d9 00 bc c0 d6 07 bc b1 82 06 bc
       -0.006666089 -0.007864473 -0.0082909465 -0.00820987

exp_avg_sq f4 [1, 4, 5, 5]
000000 8e ce d7 3c 6a 2d de 3c 4c 57 e3 3c bd 3d df 3c
       0.02634361 0.027121264 0.027751587 0.027251119
000010 65 d1 d9 3c 99 88 dc 3c e0 1d e3 3c dd 83 e8 3c
       0.026589105 0.026920604 0.027724206 0.02838319
000020 db 41 e4 3c c6 b3 de 3c c9 0d e0 3c 32 d5 e6 3c
       0.027863434 0.027185332 0.027350323 0.028177831
000030 f4 a5 ec 3c 6f 15 e8 3c d5 6b e2 3c db 6b db 3c
       0.028887726 0.028330533 0.027639309 0.026784828
000040 bc 06 e2 3c b9 72 e7 3c 71 42 e3 3c 56 bf dd 3c
       0.027591102 0.028252946 0.027741643 0.027068775
000050 a7 b9 d5 3c e2 25 dc 3c ce 5e e1 3c 69 60 dd 3c
       0.026089502 0.026873533 0.027511027 0.027023511
000060 f0 04 d8 3c f9 39 09 3b 2d f8 11 3b 5e c8 1b 3b
       0.026369542 0.0020939095 0.0022273168 0.0023770551
000070 ce d4 19 3b 88 8e 13 3b 77 c5 0c 3b a5 a7 15 3b
       0.0023472789 0.0022515375 0.0021480003 0.002283552
000080 37 f6 1f 3b 61 76 1d 3b a0 b8 14 3b 90 b7 0f 3b
       0.002440823 0.0024026858 0.0022693053 0.002192948
000090 54 1f 19 3b c7 fa 23 3b 8f 59 1f 3b f4 f4 14 3b
       0.002336462 0.00250213 0.0024314856 0.0022729011
0000a0 c0 af 0c 3b e3 0f 16 3b a0 19 20 3b 09 6d 18 3b
       0.002146706 0.0022897653 0.0024429336 0.002325835
0000b0 b6 af 0e 3b aa 70 09 3b 4f b2 12 3b 8a ca 1a 3b
       0.0021772212 0.0020971694 0.0022384112 0.0023619258
0000c0 56 39 11 3b 8c 5a 09 3b 9f c3 6e 3c 7c c8 75 3c
       0.002215942 0.002095851 0.014573007 0.0150014125
0000d0 19 b1 7b 3c 00 1f 77 3c 93 20 71 3c 1b f8 73 3c
       0.015362048 0.015083075 0.014717239 0.014890696
0000e0 71 38 7b 3c e9 b1 80 3c ff a5 7c 3c c8 83 76 3c
       0.015333281 0.015709834 0.015420436 0.015046068
0000f0 53 18 78 3c d0 91 7f 3c f4 18 83 3c b8 8e 80 3c
       0.015142518 0.015598729 0.01600311 0.015693054
000100 84 dc 7a 3c c5 fa 72 3c 1b 45 7a 3c 5d 3d 80 3c
       0.015311364 0.014830296 0.015275265 0.01565426
000110 4b cc 7b 3c 64 b7 75 3c b2 b0 6c 3c 5c c8 73 3c
       0.015368531 0.014997337 0.014446424 0.014879312
000120 e0 c5 79 3c 6c 4f 75 3c f3 66 6f 3c 9e aa 35 3c
       0.015244931 0.014972549 0.014611947 0.011088042
000130 c1 00 3b 3c 51 7a 3f 3c a9 0c 3c 3c 03 83 37 3c
       0.011413754 0.011686877 0.011477628 0.011200669
000140 60 a2 39 3c 09 26 3f 3c 4a d2 43 3c de 43 40 3c
       0.011330217 0.011666783 0.011951992 0.011734931
000150 09 9f 3b 3c 64 bf 3c 3c 2a 6e 42 3c f3 72 47 3c
       0.011451491 0.01152024 0.0118670855 0.012173402
000160 96 a3 43 3c fd e7 3e 3c 12 e5 38 3c 80 70 3e 3c
       0.011940857 0.01165199 0.011285083 0.011623502
000170 d8 24 43 3c 64 a2 3f 3c c9 07 3b 3c 52 21 34 3c
       0.01191064 0.011696432 0.01141543 0.010994272
000180 7d 86 39 3c a8 10 3e 3c cf b7 3a 3c ab 3e 36 3c
       0.011323568 0.011600651 0.011396362 0.01112334
