outputs/2025-01-04/15-18-05/model/ConvRNNCell_D1_K5_H4_SS3.1_04-15-18-06/model-epoch=07-validation_loss=0.08.ckpt (torch, 22174 bytes, 18 tensors)

model.bias f4 [4]
-0.38837194 -0.9691707 -0.8586135 -0.73326844
00000000: b0d8 c6be 921b 78bf 18ce 5bbf 7bb7 3bbf

model.input_layers.0.weight f4 [4, 1, 5, 5]
-0.24250714 -0.17028697 -0.29349387 -0.45395997 -0.13937327 -0.19186395 -0.343664 -0.18893741
-0.45747557 -0.36889878 -0.363849 -0.33064875 -0.36747706 -0.15620783 -0.22343348 -0.11538818
-0.3385277 -0.35049295 -0.34040362 -0.39007336 -0.20996773 -0.41002268 -0.1306225 -0.3959036
-0.025921384 -0.09645444 0.14257881 -0.009236 -0.031856067 -0.0052773766 0.11733419 -0.03710917
-0.08857932 -0.01846521 0.07137845 0.011976308 -0.1546725 -0.05939533 -0.06914301 0.005951404
-0.22936516 -0.06241208 -0.066826776 0.09852449 -0.004710096 0.18311353 0.13210477 -0.26083618
0.1628485 -0.07646456 -0.015108377 -0.07110992 -0.020785151 0.11395396 0.09550825 0.10233967
0.11039494 0.02541611 -0.097500615 0.025126994 0.104188934 -0.07586055 0.23037764 0.23236124
0.21066034 -0.09586928 0.057755902 0.14208749 0.12222942 0.0006004007 0.09706484 0.19852962
-0.021683639 0.07721374 -0.08474033 -0.001139615 0.040708598 0.023752742 0.27058944 0.04816042
0.23174219 0.036956616 -0.104158215 0.23984618 0.14067468 0.2582718 -0.052970182 0.24076265
0.17799121 -0.002416219 0.18015851 0.14577201 0.21798396 0.03757815 0.030396346 -0.006585911
-0.038280834 0.14683805 0.24980856 0.16567315
00000000: cb53 78be b55f 2ebe d444 96be 716d e8be
00000010: deb7 0ebe fc77 44be baf4 afbe cf78 41be
00000020: 3d3a eabe 4de0 bcbe 6b4a babe cb4a a9be
00000030: f425 bcbe f2f4 1fbe bfcb 64be a350 ecbd
00000040: 8153 adbe d073 b3be 6249 aebe b2b7 c7be
00000050: c801 57be 7eee d1be e8c1 05be e0b3 cabe
00000060: 1559 d4bc e889 c5bd 2e00 123e 9752 17bc
00000070: 827b 02bd d8ed acbb e84c f03d c9ff 17bd
00000080: 1369 b5bd 5a44 97bc dd2e 923d 4738 443c
00000090: 7862 1ebe 8448 73bd da9a 8dbd ff03 c33b
000000a0: b3de 6abe cfa3 7fbd 7adc 88bd 35c7 c93d
000000b0: 2657 9abb 1d82 3b3e 7946 073e 528c 85be
000000c0: c2c1 263e 7499 9cbd 2089 77bc 14a2 91bd
000000d0: 9f45 aabc b260 e93d d499 c33d 7697 d13d
000000e0: be16 e23d 7235 d03c 67ae c7bd 20d7 cd3c
000000f0: 0261 d53d c75c 9bbd 1ee8 6b3e 1bf0 6d3e
00000100: 58b7 573e 1d57 c4bd 7491 6c3d 627f 113e
00000110: 6b53 fa3d 3564 1d3a eec9 c63d 594b 4b3e
00000120: e3a1 b1bc 3d22 9e3d 578c adbd 225f 95ba
00000130: 0fbe 263d 1c95 c23c b38a 8a3e dc43 453d
00000140: d34d 6d3e d25f 173d e750 d5bd 3d9a 753e
00000150: 060d 103e 343c 843e 43f7 58bd 7c8a 763e
00000160: 5443 363e 6e59 1ebb 797b 383e 4245 153e
00000170: 3037 5f3e 8ceb 193d c201 f93c a0ce d7bb
00000180: 5dcc 1cbd b75c 163e d1cd 7f3e 39a6 293e

model.input_layers.0.bias f4 [4]
-0.40241835 -0.45885327 0.037330635 -0.24759245
00000000: c709 cebe d1ee eabe 02e8 183d e088 7dbe

model.hidden_layers.0.weight f4 [4, 4, 5, 5]
0.1446316 -0.016080055 -0.043522768 -0.01910492 -0.01844602 0.11992616 0.14991279 -0.0024350376
-0.041994676 -0.085754596 0.06349067 -0.0076217116 -0.18774511 -0.0981604 -0.0059065814 0.13021992
0.09490102 0.0051536276 -0.10326685 -0.0255388 0.10166954 0.034476038 -0.097225964 -0.04221956
0.0052735577 -0.074618824 -0.057063017 0.103053205 0.29493877 0.30919042 -0.06043548 0.054678023
0.036467154 0.18867029 0.32176656 0.08163461 0.084911846 0.096937165 0.28194186 0.32528096
0.009884608 0.062653154 0.11543866 0.36332747 0.34396002 0.010938599 0.0059118695 -0.011861886
0.2392349 0.2201837 -0.19516563 -0.14381982 -0.11553113 -0.070611596 0.034912217 -0.1456159
-0.18337967 -0.09831135 0.09415342 -0.045551818 -0.16637519 0.007605812 -0.104221046 0.0947456
-0.061283227 -0.0648286 -0.16564423 -0.113346435 0.06948163 0.04842601 -0.20932643 -0.023203038
-0.09510246 -0.05049688 -0.02520848 -0.1162794 -0.029624593 -0.1261251 0.052850068 0.06536244
-0.14774501 -0.07264744 -0.0034486852 0.09950222 0.0035416216 -0.16732389 -0.14931634 -0.013397129
0.014040453 -0.043000497 -0.10676793 -0.12767425 -0.18929078 0.06450685 0.031711962 -0.18916586
-0.024414359 -0.19871852 0.038763788 -0.051381946 -0.07158535 0.03937658 -0.053963944 -0.10195419
-0.13271564 -0.011681162 -0.038193196 -0.04732605 -0.12431965 -0.04394714 -0.11190919 -0.063502975
-0.16924524 -0.1847557 -0.0481722 -0.15542719 -0.08505422 -0.12827136 0.00827293 -0.05913525
-0.118036635 -0.15120123 -0.079353526 -0.13145891 -0.05864146 -0.1254203 -0.098268166 0.013178271
0.028896678 0.0016211173 -0.005029545 0.034043636 -0.06975717 -0.042447396 0.023972057 -0.16123429
-0.15732554 -0.11979457 -0.037906945 -0.19276713 -0.18155819 -0.03204451 -0.1630153 -0.20223616
-0.09652324 -0.21033844 -0.18560398 -0.15326405 -0.12712504 -0.21183687 0.13980806 0.03583251
-0.0019602366 0.04201075 -0.039424732 0.06702496 0.1504656 0.13986841 0.046770222 0.0035734933
0.08187876 -0.0540813 0.1192396 -0.011293408 -0.004166694 -0.040175598 0.06476266 0.12655587
0.112174146 -0.010334412 -0.0014470458 -0.015353515 -0.0594561 -0.0057043107 0.07719953 0.0082432795
-0.0108376555 0.0850238 0.03222594 0.053429894 0.055990063 0.027540391 -0.0026563322 0.1367435
0.13549612 0.016824778 0.12489619 0.12052232 0.1113032 -0.05099301 0.06852589 -0.06021172
0.07455423 0.017506553 0.050966986 0.02810184 0.014962813 0.004878901 0.01698514 0.020362131
-0.36345485 -0.4341718 -0.2875104 -0.38697395 -0.30978486 -0.25308672 -0.27442247 -0.257851
-0.34845367 -0.2514814 -0.3125853 -0.3959245 -0.22071816 -0.17512962 -0.25097787 -0.21893276
-0.3403768 -0.22699435 -0.26314592 -0.27287066 -0.25752833 -0.24024904 -0.25328016 -0.31130284
-0.23545846 0.1584223 0.29698768 0.274912 0.30715126 0.3911955 0.11279655 0.11674214
0.24386828 0.20748459 0.29665846 0.21430144 0.11761214 0.24306871 0.21045044 0.14686593
0.22811593 0.08003927 0.13014325 0.15053485 0.12986733 0.32894945 0.1550973 0.1384222
0.1830543 0.18193617 0.3445087 0.27948377 0.44456932 0.37197804 0.36001468 0.30195963
00000000: 4e1a 143e 52ba 83bc ee44 32bd ec81 9cbc
00000010: 1c1c 97bc d99b f53d bd82 193e 2795 1fbb
00000020: 9c02 2cbd 1ba0 afbd 6507 823d 8dbf f9bb
00000030: 4140 40be 5208 c9bd ff8b c1bb 5f58 053e
00000040: 775b c23d c3df a83b 927d d3bd bf36 d1bc
00000050: 1f38 d03d bf36 0d3d 681e c7bd 6bee 2cbd
00000060: cfcd ac3b c1d1 98bd e9ba 69bd 8f0d d33d
00000070: 3702 973e 354e 9e3e 328b 77bd 10f6 5f3d
00000080: 955e 153d c932 413e 96be a43e 0c30 a73d
00000090: 43e6 ad3d fe86 c63d af5a 903e 3a8b a63e
000000a0: 0df3 213c 4c50 803d 1b6b ec3d 0f06 ba3e
000000b0: 871b b03e cf37 333c 5bb8 c13b 5b58 42bc
000000c0: fef9 743e d677 613e 80d9 47be 8145 13be
000000d0: 969b ecbd d09c 90bd 1d00 0f3d 561c 15be
000000e0: e1c7 3bbe 7657 c9bd 82d3 c03d 8b94 3abd
000000f0: 425e 2abe 2d3a f93b d871 d5bd fb09 c23d
00000100: 1f04 7bbd dbc4 84bd a49e 29be 2d22 e8bd
00000110: 634c 8e3d 5a5a 463d ab59 56be 4c14 bebc
00000120: 14c5 c2bd d1d5 4ebd 0482 cebc e523 eebd
00000130: 46af f2bc f026 01be 5079 583d bedc 853d
00000140: 784a 17be 2ec8 94bd 5603 62bb d2c7 cb3d
00000150: 8d1a 683b f456 2bbe 62e6 18be a27f 5bbc
00000160: ee09 663c 4a21 30bd 25a9 dabd 0abd 02be
00000170: 71d5 41be 2b1c 843d 67e4 013d b2b4 41be
00000180: 9f00 c8bc de7c 4bbe c7c6 1e3d e075 52bd
00000190: 579b 92bd 5649 213d 4c09 5dbd 5ccd d0bd
000001a0: 9ce6 07be 5862 3fbc 7870 1cbd f6d8 41bd
000001b0: 4d9b febd eb01 34bd a530 e5bd d90d 82bd
000001c0: a04e 2dbe 9930 3dbe 3650 45bd 4e28 1fbe
000001d0: e830 aebd 9159 03be 2f8b 073c ce37 72bd
000001e0: 31bd f1bd 7fd4 1abe 1a84 a2bd 2a9d 06be
000001f0: 0732 70bd 2e6e 00be d240 c9bd ade9 573c
00000200: bab8 ec3c ac7b d43a e2ce a4bb 5771 0b3d
00000210: d9dc 8ebd 52dd 2dbd 0c61 c43c 9a1a 25be
00000220: f219 21be db56 f5bd 5044 1bbd bf64 45be
00000230: 64ea 39be 1b41 03bd 7ced 26be ff16 4fbe
00000240: faad c5bd f662 57be f80e 3ebe 40f1 1cbe
00000250: 112d 02be c4eb 58be d829 0f3e 1cc5 123d
00000260: 5077 00bb 7713 2c3d d47b 21bd 6244 893d
00000270: a713 1a3e aa39 0f3e 2292 3f3d 4531 6a3b
00000280: 0db0 a73d 5a84 5dbd e433 f43d fd07 39bc
00000290: c388 88bb 2b8f 24bd 49a2 843d dd97 013e
000002a0: 8fbb e53d aa51 29bc cdaa bdba 4f8d 7bbc
000002b0: 3d88 73bd 3aeb babb ca1a 9e3d d20e 073c
000002c0: 6c90 31bc f520 ae3d 59ff 033d 4ed9 5a3d
000002d0: d655 653d 639c e13c dc15 2ebb 7d06 0c3e
000002e0: 7fbf 0a3e 1ed4 893c 93c9 ff3d 68d4 f63d
000002f0: eff2 e33d 0cde 50bd 4d57 8c3d 91a0 76bd
00000300: e3af 983d e769 8f3c c2c2 503d d435 e63c
00000310: 9626 753c 30df 9f3b 6c24 8b3c 7cce a63c
00000320: c116 babe c44b debe 9034 93be 7321 c6be
00000330: 1f9c 9ebe 9594 81be 1a81 8cbe 0c05 84be
00000340: 8568 b2be 2cc2 80be 2e0b a0be 9eb6 cabe
00000350: f103 62be 2e55 33be 2c80 80be e92f 60be
00000360: de45 aebe 3571 68be 10bb 86be b4b5 8bbe
00000370: c1da 83be d803 76be f0ad 81be 1663 9fbe
00000380: 061c 71be 7539 223e c50e 983e 44c1 8c3e
00000390: ee42 9d3e c74a c83e e101 e73d 8116 ef3d
000003a0: 9bb8 793e d776 543e 9ee3 973e d671 5b3e
000003b0: a2de f03d 01e7 783e 5280 573e 0664 163e
000003c0: 3997 693e a1eb a33d 4644 053e cf25 1a3e
000003d0: f1fb 043e 106c a83e d4d1 1e3e 8dbe 0d3e
000003e0: 9672 3b3e 7a4d 3a3e 7263 b03e 7f18 8f3e
000003f0: 979e e33e e873 be3e d853 b83e 749a 9a3e

model.hidden_layers.0.bias f4 [4]
0.10003238 -0.061419185 -0.278663 -0.10581288
00000000: c7dd cc3d af92 7bbd ebac 8ebe 6cb4 d8bd

model.output_layers.0.weight f4 [1, 4, 5, 5]
0.12824182 0.06443741 -0.15922599 -0.14781244 -0.019625843 -0.01284386 0.024275225 -0.22527659
0.021310454 -0.064478286 -0.26576626 -0.25988212 -0.62128067 -0.41974056 -0.37088615 0.17309405
0.041088495 -0.23235235 0.0005526195 0.14156246 0.06425964 -0.05733195 -0.25904778 -0.1062459
0.04615626 0.2476537 -0.147864 -0.8205343 0.056841608 0.44734177 0.033707526 -0.23760325
-1.0497613 -0.71098906 -0.41506317 -0.092080735 -0.28349015 -0.9520156 -0.56764627 -0.34730902
-0.072579294 -0.086574234 -0.46648115 -0.0155275045 0.053544726 -0.15118594 -0.05094635 -0.3699411
0.088132724 0.14455798 -0.0514112 -0.10021952 0.18191122 -0.0064497446 -0.047590975 0.027315885
0.021590704 0.27162793 0.037436638 -0.09685636 0.1390281 0.3270953 0.4767825 0.26599637
0.25944346 -0.10072911 -0.07865334 0.060525432 -0.022794463 -0.09916466 -0.04536519 -0.05288193
0.19110681 0.03759665 0.04654518 0.013289592 -0.03138493 0.3156209 0.11272345 -0.030143067
-0.08072236 -0.0043519353 0.16532126 0.044777874 0.031038722 0.14738311 0.247746 0.6176965
0.28604037 0.23228376 -0.16815723 -0.071410045 0.22120549 0.019571625 -0.05358846 0.043228146
-0.087131806 0.31276834 0.14745155 -0.017306646
00000000: d351 033e c3f7 833d 230c 23be 255c 17be
00000010: 60c6 a0bc 0e6f 52bc d6dc c63c e8ae 66be
00000020: 4393 ae3c 310d 84bd 8412 88be 450f 85be
00000030: 400c 1fbf 3ce8 d6be cae4 bdbe 913f 313e
00000040: 694c 283d c6ed 6dbe abdd 103a c0f5 103e
00000050: 8f9a 833d e8d4 6abd e9a1 84be 7397 d9bd
00000060: 590e 3d3d ee98 7d3e a969 17be 890e 52bf
00000070: bfd2 683d fb09 e53e e710 0a3d 444e 73be
00000080: 945e 86bf 6103 36bf 2983 d4be d394 bcbd
00000090: 9f25 91be 4bb7 73bf 4451 11bf 7dd2 b1be
000000a0: 74a4 94bd d54d b1bd 9ed6 eebe 1367 7ebc
000000b0: b751 5b3d 7dd0 1abe 1fad 50bd eb68 bdbe
000000c0: ee7e b43d 0207 143e 8d94 52bd e43f cdbd
000000d0: ef46 3a3e 6158 d3bb c1ee 42bd 90c5 df3c
000000e0: fdde b03c d112 8b3e 2957 193d a15c c6bd
000000f0: 625d 0e3e 0979 a73e d61c f43e ad30 883e
00000100: c6d5 843e 104b cebd 0115 a1bd 84e9 773d
00000110: 74bb babc d716 cbbd d9d0 39bd b99a 58bd
00000120: 81b1 433e f2fe 193d 29a6 3e3d 97bc 593c
00000130: 7c8d 00bd 1099 a13e 8ddb e63d 98ee f6bc
00000140: c451 a5bd ae9a 8ebb fa49 293e 0169 373d
00000150: eb44 fe3c 99eb 163e 21b1 7d3e 5c21 1e3f
00000160: e273 923e cbdb 6d3e 6931 2cbe 6e3f 92bd
00000170: b183 623e ac54 a03c 937f 5bbd ff0f 313d
00000180: 2972 b2bd 2c23 a03e 8afd 163e abc6 8dbc

exp_avg f4 [4]
8.2081607e-07 -0.024505863 0.0027348509 0.0047515887
00000000: 0d56 5c35 85c0 c8bc 2f3b 333b 37b3 9b3b

exp_avg_sq f4 [4]
0.0003433512 0.5460749 0.01515257 0.047830924
00000000: d103 b439 91cb 0b3f 7c42 783c 5cea 433d

exp_avg f4 [4, 1, 5, 5]
-6.7270754e-08 -9.757978e-08 -4.5470964e-07 -4.532871e-07 -4.556014e-07 -6.819096e-08 -9.879265e-08 -4.6732916e-07
-4.6606843e-07 -4.6775656e-07 -1.915408e-07 -2.5373464e-07 -9.99516e-07 -9.955393e-07 -9.957189e-07 -1.3209723e-07
-1.7461518e-07 -8.034217e-07 -8.0129536e-07 -8.0079053e-07 -1.3147992e-07 -1.7345913e-07 -7.959312e-07 -7.934485e-07
-7.933715e-07 0.04723002 0.05046027 0.054922607 0.060712337 0.06502865 0.04651336 0.05021078
0.05714766 0.06476896 0.06922679 0.05181602 0.058549725 0.069291495 0.07691405 0.078449614
0.040375262 0.046746664 0.058174327 0.06724839 0.06736056 0.05820842 0.059616856 0.06793531
0.077949256 0.07706124 0.0 0.0 -6e-45 -6e-45 -6e-45 0.0
0.0 -6e-45 -6e-45 -6e-45 0.0 0.0 -6e-45 -6e-45
-6e-45 0.0 0.0 -6e-45 -6e-45 -6e-45 0.0 0.0
-6e-45 -6e-45 -6e-45 -6e-45 -6e-45 -6e-45 -6e-45 -6e-45
-6e-45 -6e-45 -6e-45 -6e-45 -6e-45 -6e-45 -6e-45 -6e-45
-6e-45 -6e-45 0.0 -6e-45 -6e-45 -6e-45 -6e-45 0.0
-6e-45 -6e-45 -6e-45 -6e-45
00000000: 7d76 90b3 0d8d d1b3 d11e f4b4 4e5b f3b4
00000010: 6199 f4b4 6070 92b3 d527 d4b3 3be5 fab4
00000020: f537 fab4 f91f fbb4 56aa 4db4 0639 88b4
00000030: 1c27 86b5 789e 85b5 a4a4 85b5 9cd6 0db4
00000040: db7d 3bb4 b8aa 57b5 9918 57b5 e8f5 56b5
00000050: ed2c 0db4 1540 3ab4 faa7 55b5 5efd 54b5
00000060: 13f8 54b5 4474 413d 6eaf 4e3d 87f6 603d
00000070: 80ad 783d be2d 853d cb84 3e3d d2a9 4d3d
00000080: aa13 6a3d 97a5 843d c6c6 8d3d 093d 543d
00000090: d6d1 6f3d b3e8 8d3d 1d85 9d3d 31aa a03d
000000a0: 8860 253d 6e79 3f3d 3448 6e3d 86b9 893d
000000b0: 55f4 893d f46b 6e3d ce30 743d ab21 8b3d
000000c0: dca3 9f3d 49d2 9d3d 0000 0000 0000 0000
000000d0: 0400 0080 0400 0080 0400 0080 0000 0000
000000e0: 0000 0000 0400 0080 0400 0080 0400 0080
000000f0: 0000 0000 0000 0000 0400 0080 0400 0080
00000100: 0400 0080 0000 0000 0000 0000 0400 0080
00000110: 0400 0080 0400 0080 0000 0000 0000 0000
00000120: 0400 0080 0400 0080 0400 0080 0400 0080
00000130: 0400 0080 0400 0080 0400 0080 0400 0080
00000140: 0400 0080 0400 0080 0400 0080 0400 0080
00000150: 0400 0080 0400 0080 0400 0080 0400 0080
00000160: 0400 0080 0400 0080 0000 0000 0400 0080
00000170: 0400 0080 0400 0080 0400 0080 0000 0000
00000180: 0400 0080 0400 0080 0400 0080 0400 0080

exp_avg_sq f4 [4, 1, 5, 5]
0.0007401256 0.0007637488 0.0008067541 0.0007956733 0.00078074785 0.000774313 0.0007987532 0.0008442234
0.00083249813 0.00081682 0.00082141755 0.00084730086 0.0008958427 0.00088395865 0.0008676505 0.0007832831
0.0008063044 0.00085045636 0.0008395418 0.0008241002 0.00077189377 0.0007944415 0.00083770393 0.0008271581
0.00081211334 7.7507224 7.9337263 8.046202 7.92882 7.728658 7.940341 8.130114
8.245695 8.124504 7.919276 8.072881 8.267857 8.385198 8.262532 8.054537
8.051386 8.246714 8.363868 8.243939 8.038495 7.92373 8.116431 8.232658
8.117725 7.9168596 0.0 0.0 3.9869545e-11 2.2542987e-12 4.98694e-13 0.0
0.0 1.5848944e-11 5.8438774e-13 5.035906e-13 0.0 0.0 2.6703542e-12 5.081816e-13
5.02143e-13 0.0 0.0 5.054019e-13 4.988806e-13 4.947137e-13 0.0 0.0
4.9138395e-13 4.87944e-13 4.894254e-13 2.0653772e-11 1.5130786e-08 7.7840046e-09 2.9255745e-10 1.4443302e-10
2.0567086e-11 1.4100864e-08 2.5987705e-09 1.4361891e-10 1.4469538e-10 2.0360836e-11 9.999517e-09 6.6246947e-10
1.4403805e-10 1.4479165e-10 0.0 4.071521e-09 1.4292603e-10 1.2209043e-10 1.2093923e-10 0.0
6.9628997e-10 1.2328372e-10 1.2183575e-10 1.1989683e-10
00000000: fd04 423a 5036 483a 5a7c 533a bb94 503a
00000010: 1aab 4c3a 44fb 4a3a 6b63 513a e04e 5d3a
00000020: 013c 5a3a dd1f 563a 6654 573a 661d 5e3a
00000030: fcd6 6a3a 76b9 673a 0a73 633a 3d55 4d3a
00000040: 2c5e 533a 29f1 5e3a b214 5c3a 6e08 583a
00000050: ea58 4a3a 1142 503a 5c99 5b3a a4d5 583a
00000060: 01e4 543a eb05 f840 16e1 fd40 3ebd 0041
00000070: e5b8 fd40 2b51 f740 4617 fe40 f214 0241
00000080: 5eee 0341 f8fd 0141 b66a fd40 852a 0141
00000090: 2449 0441 c529 0641 5533 0441 62df 0041
000000a0: 7ad2 0041 8af2 0341 67d2 0541 2de7 0341
000000b0: ad9d 0041 328f fd40 e7dc 0141 f8b8 0341
000000c0: 34e2 0141 ea56 fd40 0000 0000 0000 0000
000000d0: 1e59 2f2e d6a1 1e2c b15e 0c2b 0000 0000
000000e0: 0000 0000 a668 8b2d 937d 242b 87bf 0d2b
000000f0: 0000 0000 0000 0000 d3e8 3b2c 580a 0f2b
00000100: 3757 0d2b 0000 0000 0000 0000 0c42 0e2b
00000110: 236c 0c2b e13f 0b2b 0000 0000 0000 0000
00000120: f24f 0a2b 1258 092b d1c2 092b 29ac b52d
00000130: f3f8 8132 6aba 0532 cdd5 a02f 48ce 1e2f
00000140: f6e8 b42d 4140 7232 0e96 3231 21e9 1d2f
00000150: 2118 1f2f 8718 b32d 57ca 2b32 2519 3630
00000160: 1b5f 1e2f 3a33 1f2f 0000 0000 7ae5 8b31
00000170: 1a26 1d2f 673d 062f 5ef9 042f 0000 0000
00000180: 0d65 3f30 488d 072f b7f5 052f f5d3 032f

exp_avg f4 [4]
8.2081607e-07 -0.02825697 6e-45 6e-45
00000000: 0d56 5c35 297b e7bc 0400 0000 0400 0000

exp_avg_sq f4 [4]
0.0003406533 0.5376271 5.778631e-14 1.8948945e-11
00000000: b699 b239 eea1 093f 8a1f 8229 3bad a62d

exp_avg f4 [4, 4, 5, 5]
3.1678806e-09 3.1678649e-09 3.1669223e-09 1.1055046e-09 6.175844e-11 3.1820302e-09 3.1818326e-09 3.1768295e-09
1.1043437e-09 6.1758376e-11 5.2403495e-09 5.238018e-09 5.2052758e-09 1.7207664e-09 1.6821214e-10 2.2186695e-09
2.2185942e-09 2.2171867e-09 6.8242056e-10 1.06469195e-10 2.150899e-09 2.1508921e-09 2.1505293e-09 6.5502204e-10
1.0646931e-10 -2.312284e-09 -2.322072e-09 -2.1501225e-09 -7.5140216e-10 -3.579789e-11 -2.0615982e-09 -1.9465842e-09
-1.9268964e-09 -6.9736134e-10 -2.1665867e-11 -3.6794097e-09 -3.7748085e-09 -3.525259e-09 -1.1700899e-09 -9.4745864e-11
-1.5167395e-09 -1.5285586e-09 -1.2497777e-09 -3.7583478e-10 -5.5902453e-11 -1.4591444e-09 -1.476177e-09 -1.2604053e-09
-3.7486642e-10 -5.224092e-11 -2.2026612e-09 -2.2026612e-09 -2.2026612e-09 -7.692188e-10 -4.2939884e-11 -2.2125208e-09
-2.2125208e-09 -2.2125208e-09 -7.705814e-10 -4.2939895e-11 -3.644392e-09 -3.644392e-09 -3.64423e-09 -1.2132542e-09
-1.1695701e-10 -1.5427126e-09 -1.5427126e-09 -1.5425514e-09 -4.751871e-10 -7.402519e-11 -1.4955643e-09 -1.4955643e-09
-1.4954031e-09 -4.555074e-10 -7.402519e-11 -1.9791688e-09 -1.9791688e-09 -1.9791688e-09 -6.9117295e-10 -3.858378e-11
-1.9880286e-09 -1.9880286e-09 -1.9880286e-09 -6.9239714e-10 -3.858378e-11 -3.2746403e-09 -3.2746403e-09 -3.2744953e-09
-1.0901614e-09 -1.0509151e-10 -1.3862078e-09 -1.3862078e-09 -1.3860629e-09 -4.269798e-10 -6.6514995e-11 -1.3438429e-09
-1.3438429e-09 -1.343698e-09 -4.092967e-10 -6.6514995e-11 6e-45 6e-45 6e-45 6e-45
6e-45 6e-45 6e-45 6e-45 6e-45 6e-45 2.3677448e-19 2.421927e-19
2.415585e-19 2.406647e-19 2.394455e-19 9.8958525e-20 8.811392e-20 8.322082e-20 8.166649e-20 7.862858e-20
4.7404764e-20 3.534068e-20 2.9843772e-20 2.8206914e-20 2.5177444e-20 6e-45 6e-45 6e-45
6e-45 6e-45 6e-45 6e-45 6e-45 6e-45 6e-45 3.445172e-19
3.5570385e-19 3.5570385e-19 3.5570385e-19 3.5570385e-19 3.445172e-19 3.5570385e-19 3.5570385e-19 3.5570385e-19
3.5570385e-19 3.445172e-19 3.5570385e-19 3.5570385e-19 3.5570385e-19 3.5570385e-19 -6e-45 -6e-45
-6e-45 -6e-45 -6e-45 -6e-45 -6e-45 -6e-45 -6e-45 -6e-45
3.285753e-19 3.3924378e-19 3.3924378e-19 3.3924378e-19 3.3924378e-19 3.285753e-19 3.3924378e-19 3.3924378e-19
3.3924378e-19 3.3924378e-19 3.285753e-19 3.3924378e-19 3.3924378e-19 3.3924378e-19 3.3924378e-19 -6e-45
-6e-45 -6e-45 -6e-45 -6e-45 -6e-45 -6e-45 -6e-45 -6e-45
-6e-45 2.949828e-19 3.0456077e-19 3.0456077e-19 3.0456077e-19 3.0456077e-19 2.949828e-19 3.0456077e-19
3.0456077e-19 3.0456077e-19 3.0456077e-19 2.949828e-19 3.0456077e-19 3.0456077e-19 3.0456077e-19 3.0456077e-19
6e-45 6e-45 6e-45 6e-45 6e-45 6e-45 6e-45 6e-45
6e-45 6e-45 6e-45 6e-45 6e-45 6e-45 6e-45 6e-45
6e-45 6e-45 6e-45 6e-45 6e-45 6e-45 6e-45 6e-45
6e-45 -6e-45 -6e-45 -6e-45 -6e-45 -6e-45 -6e-45 -6e-45
-6e-45 -6e-45 -6e-45 -6e-45 -6e-45 -6e-45 -6e-45 -6e-45
-6e-45 -6e-45 -6e-45 -6e-45 -6e-45 -6e-45 -6e-45 -6e-45
-6e-45 -6e-45 -6e-45 -6e-45 -6e-45 -6e-45 -6e-45 -6e-45
00000000: f2b1 5931 abb1 5931 16a1 5931 7cf0 9730
00000010: e9ce 872e deaa 5a31 64a7 5a31 604f 5a31
00000020: a4c7 9730 e0ce 872e 9a0e b431 18fa b331
00000030: 17da b231 1680 ec30 82f3 382f 3f77 1831
00000040: ec75 1831 295d 1831 1495 3b30 d420 ea2e
00000050: 04cf 1331 e5ce 1331 83c8 1331 140d 3430
00000060: e520 ea2e 21e6 1eb1 5392 1fb1 5bc1 13b1
00000070: 3a8b 4eb0 d770 1dae 05ac 0db1 acc4 05b1
00000080: 526a 04b1 71b0 3fb0 3293 bead dcd8 7cb1
00000090: 91b3 81b1 0341 72b1 e1d0 a0b0 2e59 d0ae
000000a0: 8775 d0b0 6015 d2b0 a5c4 abb0 0b9e ceaf
000000b0: 91dc 75ae 148b c8b0 5ce2 cab0 923a adb0
000000c0: c215 ceaf 0cc2 65ae a05d 17b1 a05d 17b1
000000d0: a05d 17b1 f670 53b0 03da 3cae 140b 18b1
000000e0: 140b 18b1 140b 18b1 d8d0 53b0 06da 3cae
000000f0: d270 7ab1 d270 7ab1 f96d 7ab1 96bf a6b0
00000100: 7998 00af 6007 d4b0 6007 d4b0 b401 d4b0
00000110: 529e 02b0 7ac8 a2ae 7e8c cdb0 7e8c cdb0
00000120: d286 cdb0 f86a faaf 7ac8 a2ae e801 08b1
00000130: e801 08b1 e801 08b1 f9fc 3db0 79b1 29ae
00000140: c59d 08b1 c59d 08b1 c59d 08b1 1e53 3eb0
00000150: 79b1 29ae 1508 61b1 1508 61b1 8805 61b1
00000160: a5d4 95b0 4319 e7ae da84 beb0 da84 beb0
00000170: c17f beb0 11bc eaaf 9d44 92ae 45b2 b8b0
00000180: 45b2 b8b0 2cad b8b0 6403 e1af 9d44 92ae
00000190: 0400 0000 0400 0000 0400 0000 0400 0000
000001a0: 0400 0000 0400 0000 0400 0000 0400 0000
000001b0: 0400 0000 0400 0000 59c4 8b20 20f7 8e20
000001c0: 4a97 8e20 3910 8e20 fb57 8d20 c2a8 e91f
000001d0: 990d d01f e67f c41f 5dd4 c01f 0fa8 b91f
000001e0: d8dc 5f1f 43e4 261f e8ee 0c1f 1134 051f
000001f0: 53cb ed1e 0400 0000 0400 0000 0400 0000
00000200: 0400 0000 0400 0000 0400 0000 0400 0000
00000210: 0400 0000 0400 0000 0400 0000 f85d cb20
00000220: 72f8 d120 72f8 d120 72f8 d120 72f8 d120
00000230: f85d cb20 72f8 d120 72f8 d120 72f8 d120
00000240: 72f8 d120 f85d cb20 72f8 d120 72f8 d120
00000250: 72f8 d120 72f8 d120 0400 0080 0400 0080
00000260: 0400 0080 0400 0080 0400 0080 0400 0080
00000270: 0400 0080 0400 0080 0400 0080 0400 0080
00000280: e5f4 c120 1241 c820 1241 c820 1241 c820
00000290: 1241 c820 e5f4 c120 1241 c820 1241 c820
000002a0: 1241 c820 1241 c820 e5f4 c120 1241 c820
000002b0: 1241 c820 1241 c820 1241 c820 0400 0080
000002c0: 0400 0080 0400 0080 0400 0080 0400 0080
000002d0: 0400 0080 0400 0080 0400 0080 0400 0080
000002e0: 0400 0080 8a20 ae20 ecc7 b320 ecc7 b320
000002f0: ecc7 b320 ecc7 b320 8a20 ae20 ecc7 b320
00000300: ecc7 b320 ecc7 b320 ecc7 b320 8a20 ae20
00000310: ecc7 b320 ecc7 b320 ecc7 b320 ecc7 b320
00000320: 0400 0000 0400 0000 0400 0000 0400 0000
00000330: 0400 0000 0400 0000 0400 0000 0400 0000
00000340: 0400 0000 0400 0000 0400 0000 0400 0000
00000350: 0400 0000 0400 0000 0400 0000 0400 0000
00000360: 0400 0000 0400 0000 0400 0000 0400 0000
00000370: 0400 0000 0400 0000 0400 0000 0400 0000
00000380: 0400 0000 0400 0080 0400 0080 0400 0080
00000390: 0400 0080 0400 0080 0400 0080 0400 0080
000003a0: 0400 0080 0400 0080 0400 0080 0400 0080
000003b0: 0400 0080 0400 0080 0400 0080 0400 0080
000003c0: 0400 0080 0400 0080 0400 0080 0400 0080
000003d0: 0400 0080 0400 0080 0400 0080 0400 0080
000003e0: 0400 0080 0400 0080 0400 0080 0400 0080
000003f0: 0400 0080 0400 0080 0400 0080 0400 0080

exp_avg_sq f4 [4, 4, 5, 5]
1.1839776e-06 1.1791855e-06 9.92369e-07 9.570177e-07 9.2263656e-07 1.1729056e-06 1.1621833e-06 9.706077e-07
9.3853424e-07 9.0921833e-07 9.464843e-07 9.341163e-07 7.6652447e-07 7.4442784e-07 7.259366e-07 9.0325534e-07
8.9276296e-07 7.3957904e-07 7.2378646e-07 7.0712224e-07 8.8079304e-07 8.748553e-07 7.3055e-07 7.1725185e-07
6.9915416e-07 1.9232424e-07 1.9243889e-07 1.80815e-07 1.4823253e-07 1.4326321e-07 1.8942603e-07 1.8916711e-07
1.787747e-07 1.472058e-07 1.4223832e-07 1.9861639e-07 1.982653e-07 1.8638204e-07 1.5078605e-07 1.4549946e-07
1.6834066e-07 1.6821534e-07 1.5820073e-07 1.2730109e-07 1.2315736e-07 1.616094e-07 1.6179914e-07 1.5187507e-07
1.220749e-07 1.18310936e-07 1.3130051e-06 1.3143319e-06 1.3155196e-06 1.1711043e-06 1.1351003e-06 1.3197294e-06
1.3210479e-06 1.3222375e-06 1.1759058e-06 1.1396231e-06 1.3243723e-06 1.3257082e-06 1.3270794e-06 1.1781293e-06
1.1413226e-06 1.1441132e-06 1.1447389e-06 1.1456369e-06 1.0166013e-06 9.859231e-07 1.0995896e-06 1.1001724e-06
1.10102e-06 9.767039e-07 9.4789607e-07 9.726175e-07 9.736248e-07 9.745368e-07 8.651877e-07 8.3850165e-07
9.776686e-07 9.786697e-07 9.79587e-07 8.687545e-07 8.4185257e-07 9.81138e-07 9.821562e-07 9.832856e-07
8.7030645e-07 8.430185e-07 8.4721495e-07 8.4769135e-07 8.483228e-07 7.5058927e-07 7.2789913e-07 8.1427015e-07
8.147139e-07 8.152948e-07 7.211951e-07 6.998324e-07 1.2551892e-07 1.279789e-07 1.1470858e-07 1.0353674e-07
9.8217214e-08 1.1913428e-07 1.1982479e-07 1.0647943e-07 9.760002e-08 9.537031e-08 4.683339e-08 4.653991e-08
4.001733e-08 3.7808213e-08 3.9433896e-08 4.9432487e-08 4.9977192e-08 4.610081e-08 4.634555e-08 4.9266884e-08
2.2088955e-08 2.3221304e-08 2.2212118e-08 2.338347e-08 2.5863853e-08 2.0782837e-08 2.192751e-08 2.1954005e-08
2.1251074e-08 2.092955e-08 2.0782837e-08 2.192751e-08 2.1954005e-08 2.1251074e-08 2.092955e-08 2.1843066e-08
2.3037662e-08 2.2982105e-08 2.2232642e-08 2.1903663e-08 1.4376535e-08 1.5296257e-08 1.5259332e-08 1.4754847e-08
1.4592303e-08 1.39623335e-08 1.48027075e-08 1.4760493e-08 1.4315254e-08 1.4184623e-08 1.8732598e-07 1.9764454e-07
1.9788291e-07 1.9154645e-07 1.8864947e-07 1.8732598e-07 1.9764454e-07 1.9788291e-07 1.9154645e-07 1.8864947e-07
1.8813124e-07 1.9850269e-07 1.9874093e-07 1.9240457e-07 1.8950745e-07 1.2219516e-07 1.2981425e-07 1.2981425e-07
1.2525966e-07 1.2386727e-07 1.1786103e-07 1.2510552e-07 1.2510552e-07 1.2123458e-07 1.2006387e-07 1.379822e-07
1.455823e-07 1.4575846e-07 1.4109068e-07 1.389564e-07 1.379822e-07 1.455823e-07 1.4575846e-07 1.4109068e-07
1.389564e-07 1.3850787e-07 1.4614993e-07 1.4628097e-07 1.4167445e-07 1.3954862e-07 9.0058144e-08 9.566856e-08
9.561147e-08 9.231561e-08 9.126341e-08 8.680658e-08 9.21457e-08 9.213176e-08 8.929387e-08 8.844004e-08
2.1302252e-05 2.1895909e-05 2.234563e-05 2.22674e-05 2.1972222e-05 2.3618742e-05 2.4275703e-05 2.4780982e-05
2.4697005e-05 2.436393e-05 2.5901e-05 2.6621485e-05 2.71836e-05 2.7089056e-05 2.6717375e-05 2.5890633e-05
2.6603446e-05 2.7150378e-05 2.7038684e-05 2.666344e-05 2.5786707e-05 2.648605e-05 2.7008486e-05 2.6888054e-05
2.651145e-05 8.054488e-06 8.304966e-06 8.465853e-06 8.379098e-06 8.18715e-06 8.687099e-06 8.965849e-06
9.151002e-06 9.046954e-06 8.8270635e-06 9.193518e-06 9.5035575e-06 9.723322e-06 9.617265e-06 9.392744e-06
9.156365e-06 9.4870875e-06 9.727671e-06 9.646732e-06 9.440501e-06 9.041133e-06 9.383158e-06 9.639509e-06
9.587828e-06 9.394327e-06 1.5122741e-05 1.5536014e-05 1.585535e-05 1.5827984e-05 1.5669075e-05 1.6653197e-05
00000000: 29e9 9e35 8144 9e35 8a31 8535 e172 8035
00000010: 1aab 7735 bb6c 9d35 50fc 9b35 d445 8235
00000020: 95ef 7b35 0211 7435 e811 7e35 fcbf 7a35
00000030: 29c3 4d35 b1d4 4735 fcdd 4235 3c77 7235
00000040: 34a6 6f35 7c87 4635 3a4a 4235 12d1 3d35
00000050: a36f 6c35 99d7 6a35 041b 4435 2c89 4035
00000060: 82ad 3b35 af81 4e34 33a1 4e34 0c26 4234
00000070: d929 1f34 e4d3 1934 0865 4b34 dc1d 4b34
00000080: 37f5 3f34 9f0f 1e34 2cba 1834 4243 5534
00000090: c0e2 5434 4e20 4834 c1e7 2134 963a 1c34
000000a0: 21c1 3434 ae9e 3434 e3dd 2934 42b0 0834
000000b0: 3d3d 0434 db86 2d34 02bb 2d34 1a13 2334
000000c0: b113 0334 2012 fe33 833a b035 1a68 b035
000000d0: e990 b035 d62e 9d35 c059 9835 8f21 b135
000000e0: dc4e b135 bc77 b135 d1d3 9d35 27f5 9835
000000f0: 16c1 b135 fdee b135 1a1e b235 3720 9e35
00000100: 8c2f 9935 6e8f 9935 eea4 9935 c9c3 9935
00000110: 2872 8835 0f54 8435 9c95 9335 a3a9 9335
00000120: c2c6 9335 4a17 8335 ec72 7e35 e28a 8235
00000130: 7ead 8235 d4cc 8235 3f3f 6835 6515 6135
00000140: 7038 8335 d65a 8335 5a7a 8335 5b34 6935
00000150: abfb 6135 a5af 8335 a1d2 8335 70f9 8335
00000160: 019f 6935 ca4b 6235 2b6c 6335 e88c 6335
00000170: 4db8 6335 1a7c 4935 d964 4335 3894 5a35
00000180: b7b2 5a35 a2da 5a35 2698 4135 1edc 3b35
00000190: 61c6 0634 926a 0934 b555 f633 ed57 de33
000001a0: 7ceb d233 c3d6 ff33 30a9 0034 b0a9 e433
000001b0: 2e98 d133 62ce cc33 db25 4933 2ce3 4733
000001c0: 85df 2b33 9262 2233 075e 2933 984f 5433
000001d0: 81a6 5633 6000 4633 790d 4733 8399 5333
000001e0: 20be bd32 3078 c732 f7cc be32 cbdc c832
000001f0: 372b de32 f185 b232 1b5b bc32 5e95 bc32
00000200: 9b8b b632 91c8 b332 f185 b232 1b5b bc32
00000210: 5e95 bc32 9b8b b632 91c8 b332 69a1 bb32
00000220: 5be4 c532 2f6a c532 19fa be32 aa26 bc32
00000230: abfc 7632 d364 8332 a013 8332 817c 7d32
00000240: a1b1 7a32 fede 6f32 ff4e 7e32 5695 7d32
00000250: 27ef 7532 a2b0 7332 c623 4934 1e38 5434
00000260: a479 5434 e3ab 4d34 928f 4a34 c623 4934
00000270: 1e38 5434 a479 5434 e3ab 4d34 928f 4a34
00000280: 1f01 4a34 0124 5534 7e65 5534 c497 4e34
00000290: 697b 4b34 c034 0334 1263 0b34 1263 0b34
000002a0: 1d7f 0634 6000 0534 c91a fd33 be54 0634
000002b0: be54 0634 b52c 0234 e8ea 0034 4228 1434
000002c0: 5c51 1c34 c881 1c34 b67e 1734 0b34 1534
000002d0: 4228 1434 5c51 1c34 c881 1c34 b67e 1734
000002e0: 0b34 1534 c1b8 1434 63ed 1c34 6811 1d34
000002f0: 2d1f 1834 d5d6 1534 fd65 c133 5972 cd33
00000300: f652 cd33 0b3f c633 97fc c333 6c6a ba33
00000310: a2e1 c533 f9d9 c533 d3c1 bf33 6dec bd33
00000320: 3db2 b237 1bad b737 e072 bb37 e1ca ba37
00000330: fd50 b837 dd20 c637 ada3 cb37 c1e0 cf37
00000340: 6a2c cf37 2461 cc37 f945 d937 3451 df37
00000350: 5608 e437 4e3d e337 201f e037 b62f d937
00000360: 772a df37 fec0 e337 22d1 e237 4dab df37
00000370: 8850 d837 5c2e de37 4890 e237 a88d e137
00000380: e864 de37 c321 0737 8f55 0b37 9008 0e37
00000390: f493 0c37 8b5b 0937 cebe 1137 076c 1637
000003a0: 4187 1937 5fc8 1737 f317 1437 dc3d 1a37
000003b0: 7871 1f37 5a21 2337 d759 2137 8795 1d37
000003c0: 4a9e 1937 bb2a 1f37 0734 2337 66d8 2137
000003d0: a562 1e37 5faf 1737 5b6c 1d37 60b9 2137
000003e0: 68db 2037 549c 1d37 aeb7 7d37 5653 8237
000003f0: 1b01 8537 56c6 8437 1571 8337 78b2 8b37

exp_avg f4 [4]
5.2226903e-09 -4.7671644e-19 6e-45 6e-45
00000000: 4573 b331 adb3 0ca1 0400 0000 0400 0000

exp_avg_sq f4 [4]
2.733478e-06 4.015999e-07 3.0058014e-05 6.8904353e-09
00000000: cb70 3736 789b d734 1825 fc37 e9c0 ec31

exp_avg f4 [1, 4, 5, 5]
0.0039111986 0.003723163 0.0033090948 0.0029724755 0.0025599962 0.0039984942 0.0037962392 0.0034676741
0.003105603 0.0026675502 0.003899655 0.0036879103 0.0034560824 0.002981807 0.0024733914 0.0040610055
0.0037132534 0.003224982 0.0029181766 0.0024559821 0.0049832524 0.0045409696 0.0038759126 0.0036591908
0.003183909 -0.00095884176 -0.0009333868 -8.781991e-05 -0.00041494626 0.00010063862 -0.0014878454 -0.0016238893
-0.0005017148 7.5734184e-05 0.0008181386 -0.0005691739 -0.00040978682 0.0006825942 0.0013950838 0.0020688288
-0.00083553727 -0.0006702527 0.00011614488 0.00056225545 0.0012175033 -0.00015557838 -0.00022911174 0.00036712337
0.0005216245 0.0010467987 -0.0027166214 -0.0025857992 -0.0022978042 -0.002063858 -0.0017771114 -0.0027772717
-0.0026365607 -0.0024080256 -0.002156368 -0.0018518397 -0.0027084264 -0.002561127 -0.002399863 -0.0020702546
-0.0017168068 -0.002820817 -0.0025789575 -0.0022393824 -0.002026135 -0.0017048183 -0.003462044 -0.0031544552
-0.002691965 -0.0025413595 -0.0022109433 -0.0024403904 -0.0023228219 -0.0020640236 -0.0018538091 -0.0015961585
-0.0024948758 -0.0023684215 -0.002163052 -0.0019369217 -0.0016632945 -0.0024330162 -0.0023006434 -0.0021557172
-0.0018595452 -0.0015419609 -0.002534029 -0.0023166887 -0.002011542 -0.0018199267 -0.0015312121 -0.0031102044
-0.0028338057 -0.002418214 -0.0022828842 -0.0019859946
00000000: 8329 803b 4f00 743b 66dd 583b ddcd 423b
00000010: 9cc5 273b cd05 833b 53ca 783b eb41 633b
00000020: 5f87 4b3b 11d2 2e3b 5b91 7f3b deb0 713b
00000030: 717f 623b 6c6a 433b 9f18 223b 2f12 853b
00000040: 0e5a 733b 385a 533b e13e 3f3b 8bf4 203b
00000050: 8d4a a33b 6acc 943b 0603 7e3b 09cf 6f3b
00000060: 21a9 503b c85a 7bba 87ae 74ba f52b b8b8
00000070: 258d d9b9 f30d d338 cf03 c3ba afd8 d4ba
00000080: 8385 03ba 7bd3 9e38 5a78 563a 9d34 15ba
00000090: a8d8 d6b9 1ff0 323a 3fdb b63a 3095 073b
000000a0: f507 5bba e6b3 2fba cf92 f338 5364 133a
000000b0: a294 9f3a c122 23b9 b73d 70b9 777a c039
000000c0: a1bd 083a bc34 893a 5809 32bb 8376 29bb
000000d0: c296 16bb cb41 07bb f7ed e8ba e302 36bb
000000e0: 26ca 2cbb f7cf 1dbb da51 0dbb 6eb9 f2ba
000000f0: db7f 31bb 95d8 27bb 0547 1dbb 1cad 07bb
00000100: 7a06 e1ba 75dd 38bb ba03 29bb 9ac2 12bb
00000110: e8c8 04bb 3674 dfba 76e3 62bb faba 4ebb
00000120: ae6b 30bb f08c 26bb 79e5 10bb f5ee 1fbb
00000130: 7c3a 18bb 9244 07bb 83fb f2ba 3136 d1ba
00000140: 1281 23bb 8537 1bbb fec1 0dbb 4fe0 fdba
00000150: e702 daba 3d73 1fbb 64c6 16bb ef46 0dbb
00000160: fcbb f3ba 9f1b caba f411 26bb 96d3 17bb
00000170: 13d4 03bb 9b8a eeba f4b2 c8ba 92d4 4bbb
00000180: 5fb7 39bb e67a 1ebb 719c 15bb 7627 02bb

exp_avg_sq f4 [1, 4, 5, 5]
0.022252975 0.022882715 0.023377903 0.023012888 0.022471987 0.022749664 0.023398869 0.023913516
0.023537207 0.022983538 0.023067178 0.023733014 0.024273144 0.023882193 0.023319976 0.022658115
0.023310838 0.023831667 0.02345761 0.022907339 0.022085788 0.022722358 0.023229318 0.022867758
0.02233166 0.0014999505 0.0016124994 0.0017286758 0.0017043418 0.0016317666 0.0015377713 0.0016568949
0.0017839216 0.0017534649 0.0016405768 0.0015954695 0.001725093 0.001865481 0.0018125933 0.0016637577
0.0015671159 0.0016976214 0.0018328326 0.0017370649 0.0015901981 0.001539611 0.0016706905 0.0017871964
0.0016530042 0.0015353769 0.011585362 0.011912693 0.012175543 0.011980576 0.011698677 0.011843775
0.012181235 0.012454379 0.012253512 0.0119650485 0.012015271 0.012361577 0.012648288 0.012439409
0.012146332 0.011798848 0.0121382885 0.0124148065 0.012214984 0.011928334 0.011501139 0.011832216
0.012101344 0.011908325 0.0116290385 0.009127449 0.009385171 0.0095917275 0.009439135 0.009217543
0.00933128 0.009596999 0.009811631 0.009654444 0.009427675 0.009465828 0.009738422 0.009963658
0.0098002795 0.009569945 0.009296146 0.0095634265 0.009780746 0.009624365 0.009399032 0.00906199
0.009322668 0.009534267 0.009383145 0.009163582
00000000: df4b b63c 8874 bb3c 0483 bf3c 8685 bc3c
00000010: 2c17 b83c 815d ba3c fcae bf3c 47e6 c33c
00000020: 1ad1 c03c f947 bc3c 61f7 bc3c bd6b c23c
00000030: 79d8 c63c 97a4 c33c 8909 bf3c 839d b93c
00000040: 5ff6 be3c a13a c33c 2c2a c03c 2ca8 bb3c
00000050: 41ed b43c 3d24 ba3c 694b be3c 2a55 bb3c
00000060: e3f0 b63c fd99 c43a 805a d33a bc94 e23a
00000070: 3964 df3a 00e1 d53a 0b8f c93a 2b2c d93a
00000080: 7ad2 e93a 85d4 e53a 9f08 d73a 131f d13a
00000090: 841c e23a 2883 f43a 8a94 ed3a 7212 da3a
000000a0: af67 cd3a b982 de3a a83b f03a 3aae e33a
000000b0: 326e d03a c6cc c93a 12fb da3a 5c40 ea3a
000000c0: 9ea9 d83a b33e c93a 88d0 3d3c 752d 433c
000000d0: ee7b 473c 2e4a 443c cfab 3f3c 650c 423c
000000e0: cd93 473c 740d 4c3c f4c2 483c 0d09 443c
000000f0: b3db 443c 3688 4a3c c43a 4f3c aace 4b3c
00000100: 6901 473c f54f 413c acdf 463c 7967 4b3c
00000110: 5b21 483c 0f6f 433c 466f 3c3c e9db 413c
00000120: b744 463c 231b 433c b987 3e3c 4c8b 153c
00000130: 43c4 193c 9f26 1d3c 9aa6 1a3c 2d05 173c
00000140: 3ae2 183c bb3c 1d3c f7c0 203c ac2d 1e3c
00000150: 8976 1a3c 8f16 1b3c e78d 1f3c 9c3e 233c
00000160: 5a91 203c 42cb 1c3c dd4e 183c ebaf 1c3c
00000170: 6c3f 203c 83af 1d3c 66fe 193c be78 143c
00000180: 1bbe 183c 9d35 1c3c c3bb 193c d922 163c
