outputs/ConvLSTM_D1_K7_H8_SS8.4_05_21-34-55/checkpoints/model-epoch=03-validation_loss=0.07.ckpt (torch, 178842 bytes, 9 tensors)

model.combined_conv_layers.0.weight f4 [32, 9, 7, 7]
-0.9468042 -0.9542133 -0.85844225 -0.87346923 -0.7189614 -0.51827043 -0.45458397 -1.0325702
-0.94161785 -0.9301493 -0.8237663 -0.74682516 -0.50213706 -0.4243713 -1.0353435 -1.0151631
-0.94479793 -0.93235993 -0.7526648 -0.61388046 -0.47991574 -1.0811567 -0.9859453 -0.9823295
-0.96798223 -0.7392915 -0.6107641 -0.4519647 -1.0996984 -0.99041337 -0.9171202 -0.8993419
-0.7567164 -0.5568221 -0.42966565 -0.9620639 -0.84880686 -0.8230441 -0.84148294 -0.69432336
-0.52580726 -0.4499929 -0.9606376 -0.83017296 -0.75954956 -0.72839916 -0.6360822 -0.49309427
-0.43364206 0.32351968 0.28151044 0.1993981 0.20113018 0.14059272 0.18874097 0.11911085
0.3193634 0.20360304 0.20735963 0.19604042 0.22394158 0.21040113 0.18091491 0.3789853
0.27701244 0.22322147 0.21217026 0.28155127 0.23311886 0.2310308 0.39902502 0.21861784
0.23495352 0.22244827 0.259271 0.27073252 0.299814 0.36865672 0.34980458 0.2986993
0.30662984 0.38208663 0.36917606 0.26654375 0.47028896 0.3850482 0.3380132 0.3906761
0.37011144 0.36858082 0.34470856 0.42372963 0.38134196 0.39952424 0.40426382 0.42255104
0.35186112 0.36769775 0.14842878 0.15507789 0.17707005 0.08374803 0.028982569 0.04162158
0.11935233 0.08779965 0.10973614 0.1437857 0.12151872 0.050642353 0.0964457 0.06727442
0.12699012 0.1344164 0.13494667 0.0758162 0.018185174 0.06101947 0.066671744 0.07442338
0.08046187 0.12257376 0.08825386 0.05322811 0.017816627 0.09577058 0.026409034 0.11561997
0.13063842 0.11471913 0.11716401 0.043374393 0.0780501 0.04186278 0.099485435 0.05255692
0.115113944 0.058430426 0.02712642 0.06540012 0.08050649 0.04420193 0.08568246 0.078450084
0.08824517 0.06905359 0.028398117 -0.70859456 -0.58152133 -0.49837312 -0.47146615 -0.42621303
-0.4434972 -0.43906692 -0.6407973 -0.59709257 -0.52191925 -0.52313167 -0.46749696 -0.45360464
-0.41787186 -0.65712166 -0.57627857 -0.52545226 -0.5128025 -0.43951994 -0.37786883 -0.43189716
-0.648934 -0.5649428 -0.54130274 -0.5194346 -0.47702098 -0.47212455 -0.45945874 -0.5942904
-0.4936765 -0.4975503 -0.45255616 -0.47501966 -0.43013963 -0.449911 -0.66957045 -0.5228035
-0.5367834 -0.5444001 -0.4660512 -0.42415118 -0.48957887 -0.77835387 -0.61174697 -0.600782
-0.527269 -0.4872017 -0.45837727 -0.5192462 0.28353253 0.2652622 0.33052906 0.26003996
0.2451282 0.2016189 0.13965498 0.27844134 0.3215294 0.38701463 0.2939475 0.22560312
0.22189566 0.15132144 0.30882677 0.3318617 0.3945615 0.3077937 0.26276428 0.23839654
0.23306559 0.32660523 0.3562551 0.36480802 0.39490122 0.3164659 0.28801677 0.25165215
0.27325147 0.28298646 0.327337 0.33935544 0.3273679 0.35917255 0.29011706 0.22847213
0.31427172 0.34949267 0.31331712 0.25863028 0.22983979 0.27780637 0.19961244 0.19773848
0.31151694 0.30414218 0.20450275 0.2539915 0.18130928 0.18824367 0.2687966 0.24895956
0.27248207 0.20466445 0.10685751 0.107255824 0.17738679 0.21418035 0.17952888 0.19639604
00000000: c361 72bf 5347 74bf dfc2 5bbf ae9b 5fbf
00000010: db0d 38bf 5fad 04bf 3bbf e8be 432b 84bf
00000020: de0d 71bf 441e 6ebf 59e2 52bf ef2f 3fbf
00000030: 0e8c 00bf 3247 d9be 2386 84bf ddf0 81bf
00000040: 47de 71bf 24af 6ebf a4ae 40bf 4527 1dbf
00000050: 84b7 f5be 5863 8abf e966 7cbf f279 7bbf
00000060: afcd 77bf 3542 3dbf 095b 1cbf eb67 e7be
00000070: ebc2 8cbf bb8b 7dbf 64c8 6abf 453b 66bf
00000080: 2ab8 41bf e58b 0ebf 23fd dbbe d249 76bf
00000090: 684b 59bf 05b3 52bf 6d6b 57bf 2dbf 31bf
000000a0: 4e9b 06bf 7865 e6be 59ec 75bf 3786 54bf
000000b0: d771 42bf 5e78 3abf 48d6 22bf da76 fcbe
000000c0: 5506 debe 5fa4 a53e 2322 903e 042f 4c3e
000000d0: 12f5 4d3e 8af7 0f3e 5045 413e 64f0 f33d
000000e0: 9983 a33e 517d 503e 1556 543e d2be 483e
000000f0: f150 653e 6573 573e c241 393e 5c0a c23e
00000100: 93d4 8d3e 2b94 643e 2943 593e 7d27 903e
00000110: b6b6 6e3e 5793 6c3e 024d cc3e 5bdd 5f3e
00000120: a897 703e 7bc9 633e 2bbf 843e 749d 8a3e
00000130: 3881 993e 93c0 bc3e 9619 b33e 1def 983e
00000140: 96fe 9c3e dca0 c33e a504 bd3e 6c78 883e
00000150: b7c9 f03e 0a25 c53e 1110 ad3e b306 c83e
00000160: 3f7f bd3e a0b6 bc3e a47d b03e 17f3 d83e
00000170: 413f c33e 718e cc3e abfb ce3e 9c58 d83e
00000180: 2427 b43e e142 bc3e b7fd 173e bdcc 1e3e
00000190: da51 353e 1684 ab3d da6c ed3c 647b 2a3d
000001a0: ff6e f43d 4ed0 b33d 57bd e03d 8f3c 133e
000001b0: cfde f83d 5b6e 4f3d 5385 c53d 2cc7 893d
000001c0: b309 023e 74a4 093e 762f 0a3e 8645 9b3d
000001d0: 13f9 943c 8def 793d 328b 883d 496b 983d
000001e0: 31c9 a43d f407 fb3d 71be b43d b805 5a3d
000001f0: 2df4 913c 5e23 c43d c257 d83c 2aca ec3d
00000200: 14c6 053e ddf1 ea3d aff3 ef3d 59a9 313d
00000210: bbd8 9f3d 4e78 2b3d 05bf cb3d ed45 573d
00000220: dcc0 eb3d be54 6f3d 3a38 de3c 80f0 853d
00000230: 96e0 a43d 150d 353d 497a af3d 70aa a03d
00000240: e2b9 b43d f86b 8d3d 2ba3 e83c 7466 35bf
00000250: 95de 14bf c32a ffbe 0364 f1be 9838 dabe
00000260: 1112 e3be 61cd e0be 4b0b 24bf 0fdb 18bf
00000270: 809c 05bf f5eb 05bf c35b efbe de3e e8be
00000280: 4df3 d5be 2039 28bf fe86 13bf 0a84 06bf
00000290: 0647 03bf c208 e1be 0678 c1be a021 ddbe
000002a0: 8a20 26bf 17a0 10bf d192 0abf aaf9 04bf
000002b0: 183c f4be 4fba f1be 2d3e ebbe 6a23 18bf
000002c0: 2bc3 fcbe eabe febe 71b5 e7be c735 f3be
000002d0: 433b dcbe bc5a e6be f868 2bbf 73d6 05bf
000002e0: a36a 09bf ce5d 0bbf 439e eebe 582a d9be
000002f0: 15aa fabe 3342 47bf 739b 1cbf d9cc 19bf
00000300: 1afb 06bf 8072 f9be 6db0 eabe 52ed 04bf
00000310: 2d2b 913e 72d0 873e 1b3b a93e f523 853e
00000320: e302 7b3e 2f75 4e3e b701 0f3e dd8f 8e3e
00000330: 809f a43e c826 c63e 4980 963e 8104 673e
00000340: 9e38 633e 02f4 1a3e 8b1e 9e3e c7e9 a93e
00000350: f703 ca3e 2397 9d3e 0a89 863e 391e 743e
00000360: bfa8 6e3e cd38 a73e 1267 b63e 1ec8 ba3e
00000370: 7e30 ca3e d207 a23e ef76 933e 8dd8 803e
00000380: 9ee7 8b3e 9ae3 903e b798 a73e ffbf ad3e
00000390: c49c a73e 77e5 b73e 398a 943e 99f4 693e
000003a0: 39e8 a03e b4f0 b23e 1a6b a03e 306b 843e
000003b0: 1f5b 6b3e a33c 8e3e 3467 4c3e f57b 4a3e
000003c0: 267f 9f3e 86b8 9b3e 2b69 513e 2d0b 823e
000003d0: 24a9 393e f3c2 403e b59f 893e 41ef 7e3e
000003e0: c582 8b3e 8f93 513e 1cd8 da3d f1a8 db3d
000003f0: e2a4 353e 1852 5b3e 6bd6 373e 0b1c 493e

model.combined_conv_layers.0.bias f4 [32]
-0.82948 0.68660206 -0.4111097 0.1683602 -0.15975036 -0.46824014 -0.25687623 -0.16504852
-0.59395456 0.48259133 0.18578796 -0.1416479 0.6673715 0.03084523 -0.3598668 0.28100848
-0.53987926 0.32985932 -0.88592577 -0.26674837 0.24222976 -0.79333687 -0.7481688 0.8387482
0.19119437 -0.8669408 0.45740932 0.283087 -0.32745928 0.2660084 -0.10157237 0.43738198
00000000: cd58 54bf 27c5 2f3f f87c d2be 9e66 2c3e
00000010: 9995 23be 2cbd efbe 4885 83be 7b02 29be
00000020: 680d 18bf 3616 f73e 333f 3e3e 260c 11be
00000030: dcd8 2a3f 23af fc3c 7640 b8be 58e0 8f3e
00000040: 8735 0abf 52e3 a83e 08cc 62bf 3e93 88be
00000050: 140b 783e 2018 4bbf fe87 3fbf 34b8 563f
00000060: 75c8 433e d5ef 5dbf 8e31 ea3e c7f0 903e
00000070: bea8 a7be 4132 883e 2d05 d0bd 88f0 df3e

mapping_layer.weight f4 [1, 8, 1, 1]
-4.624592 1.6651338 0.94585735 0.54335743 1.110263 1.7119648 -0.7367081 -0.5140667
00000000: a8fc 93c0 1b23 d53f b523 723f 7919 0b3f
00000010: 191d 8e3f aa21 db3f e798 3cbf e099 03bf

exp_avg f4 [32, 9, 7, 7]
6.745091e-07 9.261343e-07 9.0901614e-07 7.4108476e-07 5.5891445e-07 3.9199108e-07 2.669919e-07 9.593023e-07
1.2006897e-06 1.1939517e-06 9.827384e-07 7.580397e-07 5.6016455e-07 3.7127674e-07 1.1267846e-06 1.3824306e-06
1.3607307e-06 1.1106193e-06 7.7502875e-07 4.966149e-07 2.5031926e-07 1.1814565e-06 1.4506904e-06 1.3565024e-06
9.779501e-07 4.971663e-07 1.1000958e-07 -1.7499832e-07 9.549456e-07 1.2061661e-06 1.1350795e-06 7.4699284e-07
3.0791023e-07 -7.288755e-08 -3.3037196e-07 7.819789e-07 9.858445e-07 8.7818677e-07 4.2999224e-07 9.0747896e-08
-1.9712814e-07 -3.9101144e-07 7.0548276e-07 7.815377e-07 5.60225e-07 8.024322e-08 -1.2837612e-07 -3.4661696e-07
-4.875357e-07 -4.3252885e-07 -3.8367773e-07 -2.6035994e-07 -7.444773e-08 -3.326031e-08 5.0850193e-08 1.3152315e-07
-5.267157e-07 -4.627184e-07 -2.9378907e-07 -8.593643e-08 -7.1438095e-08 2.8545255e-08 1.3147859e-07 -5.925673e-07
-5.2585676e-07 -3.2170482e-07 -1.8617785e-08 -2.4795233e-08 8.9514074e-08 2.2685015e-07 -6.0894354e-07 -4.851694e-07
-1.9139046e-07 1.667391e-07 1.5892384e-07 3.1171746e-07 4.7774256e-07 -5.0407976e-07 -3.9579137e-07 -1.04611246e-07
2.6674974e-07 2.7185914e-07 3.9627577e-07 5.8690995e-07 -4.3255045e-07 -3.475163e-07 -8.773461e-08 2.7877815e-07
3.320216e-07 4.853459e-07 6.784757e-07 -3.7589862e-07 -2.9407425e-07 -6.065347e-08 3.1270883e-07 4.2760865e-07
6.3813104e-07 8.225202e-07 -1.3525333e-07 -1.3780559e-07 -1.5365463e-07 -1.638551e-07 -6.8139094e-08 -4.7658965e-08
-6.025175e-08 -1.3427773e-07 -1.1967887e-07 -1.3027501e-07 -1.4858185e-07 -5.1283664e-08 -3.2118134e-08 -5.0701694e-08
-1.2878789e-07 -9.388212e-08 -1.0514853e-07 -1.4111265e-07 -4.0767485e-08 -2.452067e-08 -4.8167415e-08 -1.1661484e-07
-7.850349e-08 -9.7486556e-08 -1.3306457e-07 -3.6069583e-08 -2.463375e-08 -4.7546326e-08 -8.37794e-08 -4.631916e-08
-6.468582e-08 -1.02613576e-07 -3.4687762e-08 -2.8790026e-08 -4.2861718e-08 -6.188326e-08 -3.6823298e-08 -6.285967e-08
-1.0828136e-07 -5.3522584e-08 -4.5710774e-08 -4.8885912e-08 -5.095782e-08 -4.0286555e-08 -7.643046e-08 -1.2819187e-07
-7.607876e-08 -6.3455715e-08 -5.998437e-08 2.4193696e-08 2.2551445e-08 1.9429917e-08 2.7048811e-08 2.3341963e-08
2.1096184e-08 1.9595822e-08 1.942407e-08 1.5646432e-08 1.3466986e-08 2.2728566e-08 1.7168823e-08 1.576984e-08
1.5152224e-08 1.216678e-08 3.8379477e-09 4.982834e-09 2.0283347e-08 9.328055e-09 7.777279e-09 6.41835e-09
9.006762e-09 2.489379e-09 7.88828e-09 2.3129823e-08 1.0100158e-08 6.5819776e-09 4.1955106e-09 1.0438072e-08
3.536362e-09 6.5665007e-09 2.0723565e-08 1.2602448e-08 9.442e-09 6.637754e-09 1.23276775e-08 3.6254308e-09
4.2855177e-09 2.0620458e-08 1.6423996e-08 1.1777451e-08 7.660886e-09 1.26138096e-08 2.7904414e-09 2.0303241e-09
1.8609926e-08 1.5541245e-08 1.1209731e-08 8.4301535e-09 1.0197666e-07 1.0330948e-07 1.0596122e-07 1.08881956e-07
1.084025e-07 1.03170855e-07 9.363729e-08 1.0548583e-07 1.0611368e-07 1.0418644e-07 1.025738e-07 1.03006435e-07
9.956602e-08 9.029433e-08 9.681207e-08 9.981793e-08 9.9400815e-08 9.712239e-08 9.5250705e-08 9.419277e-08
8.586276e-08 8.856342e-08 8.728705e-08 8.516424e-08 8.430325e-08 8.547585e-08 8.821069e-08 8.094771e-08
8.796373e-08 8.4479446e-08 8.020094e-08 7.862231e-08 8.013801e-08 8.410487e-08 7.7117285e-08 8.251487e-08
7.8514965e-08 7.518082e-08 7.50152e-08 7.742083e-08 8.150162e-08 7.4299365e-08 7.353002e-08 6.929851e-08
6.6498025e-08 6.707695e-08 7.078811e-08 7.6020804e-08 7.089364e-08 6.2037066e-07 7.248407e-07 6.891619e-07
5.8169655e-07 5.7579217e-07 5.640636e-07 5.909664e-07 6.640796e-07 7.90497e-07 7.802741e-07 6.7583585e-07
00000000: ea0f 3535 779b 7835 1d03 7435 f5ee 4635
00000010: 4f08 1635 d872 d234 1657 8f34 60c1 8035
00000020: 6227 a135 de3f a035 a2e6 8335 177c 4b35
00000030: 375e 1635 e353 c734 063c 9735 f48b b935
00000040: 5aa2 b635 9710 9535 920b 5035 1e4f 0535
00000050: 9e63 8634 8992 9e35 58b5 c235 1111 b635
00000060: 1c42 8335 0275 0535 683e ec33 2ce7 3bb4
00000070: ae2b 8035 8de3 a135 0959 9835 f584 4835
00000080: dc4e a534 5b86 9cb3 fa5d b1b4 2ee9 5135
00000090: 5c51 8435 89bc 6b35 afd9 e634 2fe1 c233
000000a0: 2caa 53b4 34ec d1b4 6860 3d35 ddca 5135
000000b0: 5e62 1635 2d52 ac33 c2d7 09b4 ac16 bab4
000000c0: 33df 02b5 5036 e8b4 44fc cdb4 99c7 8bb4
000000d0: 13e0 9fb3 19da 0eb3 6166 5a33 cf38 0d34
000000e0: a163 0db5 886b f8b4 10ba 9db4 0d8c b8b3
000000f0: 8269 99b3 ae33 f532 8f2c 0d34 ea10 1fb5
00000100: 9a28 0db5 c6b6 acb4 f1ec 9fb2 4bfd d4b2
00000110: e23a c033 1894 7334 4876 23b5 963c 02b5
00000120: 0281 4db4 e508 3334 a7a4 2a34 1f5a a734
00000130: 383e 0035 1950 07b5 277d d4b4 a4a6 e0b3
00000140: ce35 8f34 09f4 9134 babf d434 258c 1d35
00000150: 4839 e8b4 4792 bab4 9d68 bcb3 faaa 9534
00000160: b440 b234 b748 0235 7f20 3635 1dcf c9b4
00000170: 42e1 9db4 9940 82b3 60e2 a734 1692 e534
00000180: 084c 2b35 28cb 5c35 273a 11b4 b6f7 13b4
00000190: 43fc 24b4 26f0 2fb4 dd53 92b3 96b1 4cb3
000001a0: c063 81b3 fb2d 10b4 1481 00b4 b9e1 0bb4
000001b0: de89 1fb4 fc42 5cb3 43f2 09b3 1ac3 59b3
000001c0: f248 0ab4 3e9c c9b3 04ce e1b3 c084 17b4
000001d0: 5318 2fb3 86a1 d2b2 a2e0 4eb3 b06d fab3
000001e0: c095 a8b3 cd59 d1b3 83e0 0eb4 edea 1ab3
000001f0: 309a d3b2 bd35 4cb3 36ea b3b3 74f0 46b3
00000200: 68e9 8ab3 695c dcb3 99fb 14b3 f04d f7b2
00000210: f516 38b3 afe4 84b3 a527 1eb3 78fd 86b3
00000220: 4f88 e8b3 b4e0 65b3 8753 44b3 a1f6 51b3
00000230: b7dc 5ab3 8907 2db3 1722 a4b3 1da5 09b4
00000240: be60 a3b3 2645 88b3 c2d0 80b3 80d2 cf32
00000250: 27b7 c132 d7e6 a632 f758 e832 8581 c832
00000260: 0037 b532 ab53 a832 fbd9 a632 de66 8632
00000270: 6e5c 6732 a53c c332 a47a 9332 3f76 8732
00000280: 1828 8232 1006 5132 f2de 8331 7935 ab31
00000290: 8d3b ae32 3841 2032 d69c 0532 6788 dc31
000002a0: 28bc 1a32 9e11 2b31 0685 0732 05af c632
000002b0: f784 2d32 b027 e231 1a28 9031 2053 3332
000002c0: 5704 7331 8d9f e131 9a03 b232 2782 5832
000002d0: 5b36 2232 4d12 e431 b3c9 5332 4123 7931
000002e0: d03f 9331 de20 b132 c014 8d32 c755 4a32
000002f0: ef9c 0332 1fb4 5832 f7c1 3f31 d785 0b31
00000300: a9db 9f32 8f7f 8532 eb94 4032 35d4 1032
00000310: 43fe da33 fdda dd33 cc8c e333 7dd2 e933
00000320: e8ca e833 c78e dd33 a515 c933 7387 e233
00000330: 9de0 e333 1abd df33 8b46 dc33 6334 dd33
00000340: 00d1 d533 d5e7 c133 00e7 cf33 7d5b d633
00000350: 2d76 d533 9991 d033 a18c cc33 0647 ca33
00000360: 8d63 b833 4130 be33 9072 bb33 89e3 b633
00000370: 340a b533 d88e b733 576e bd33 79d5 ad33
00000380: 92e6 bc33 116b b533 ef3a ac33 12d7 a833
00000390: 5618 ac33 249d b433 ad9b a533 0833 b133
000003a0: 0f9c a833 1873 a133 0b18 a133 8d42 a633
000003b0: fd05 af33 828e 9f33 8ee7 9d33 42d1 9433
000003c0: adcd 8e33 f10b 9033 2d04 9833 e140 a333
000003d0: 313e 9833 8c87 2635 ac92 4235 d8fe 3835
000003e0: e225 1c35 2390 1a35 286a 1735 e7a2 1e35
000003f0: 3443 3235 8a32 5435 0774 5135 166b 3535

exp_avg_sq f4 [32, 9, 7, 7]
1.4268735e-09 1.3979942e-09 1.4417073e-09 1.5210898e-09 1.5019695e-09 1.4800361e-09 1.452215e-09 1.448017e-09
1.4499655e-09 1.5066428e-09 1.5922803e-09 1.5731633e-09 1.5493206e-09 1.5181622e-09 1.4710071e-09 1.5003916e-09
1.5638041e-09 1.6556411e-09 1.6365768e-09 1.6122329e-09 1.5780145e-09 1.4887882e-09 1.5402721e-09 1.6099464e-09
1.707162e-09 1.6885819e-09 1.6639317e-09 1.6334153e-09 1.433585e-09 1.490624e-09 1.5610758e-09 1.65568e-09
1.6397856e-09 1.6179116e-09 1.5904846e-09 1.3776701e-09 1.4346874e-09 1.5051697e-09 1.597587e-09 1.5843978e-09
1.565988e-09 1.5400914e-09 1.3190964e-09 1.37341e-09 1.4407623e-09 1.5306993e-09 1.5210504e-09 1.5070616e-09
1.4838772e-09 5.0724347e-10 5.344038e-10 5.6703187e-10 6.1655847e-10 6.068188e-10 5.9442395e-10 5.767612e-10
5.2812943e-10 5.627381e-10 6.011904e-10 6.5509553e-10 6.4164896e-10 6.2416255e-10 6.008742e-10 5.454215e-10
5.876166e-10 6.332479e-10 6.911675e-10 6.7406075e-10 6.511507e-10 6.2344785e-10 5.595901e-10 6.0631794e-10
6.568394e-10 7.173532e-10 6.9885614e-10 6.7286837e-10 6.430208e-10 5.379677e-10 5.81103e-10 6.282794e-10
6.864079e-10 6.709575e-10 6.480265e-10 6.2086686e-10 5.128346e-10 5.510432e-10 5.9364363e-10 6.48963e-10
6.3812683e-10 6.1952093e-10 5.9604127e-10 4.882615e-10 5.2242943e-10 5.5932864e-10 6.109598e-10 6.041074e-10
5.893743e-10 5.692982e-10 6.25195e-10 6.51279e-10 6.800638e-10 7.17893e-10 7.1290046e-10 7.01155e-10
6.8275696e-10 6.5009786e-10 6.783936e-10 7.092133e-10 7.490851e-10 7.443886e-10 7.319967e-10 7.1201556e-10
6.72466e-10 7.0250916e-10 7.3477185e-10 7.7680073e-10 7.7240614e-10 7.593699e-10 7.379239e-10 6.9076417e-10
7.2222217e-10 7.556727e-10 7.99516e-10 7.9522783e-10 7.814712e-10 7.591825e-10 6.7102796e-10 7.0141215e-10
7.342828e-10 7.770422e-10 7.731486e-10 7.5971684e-10 7.3813317e-10 6.4760086e-10 6.7689565e-10 7.0920914e-10
7.5073175e-10 7.4736145e-10 7.348778e-10 7.1464656e-10 6.1939964e-10 6.476617e-10 6.7911443e-10 7.1946005e-10
7.169669e-10 7.057891e-10 6.8727873e-10 8.970414e-11 8.897148e-11 8.823611e-11 8.833137e-11 8.4918315e-11
8.186077e-11 7.961073e-11 9.186621e-11 9.201732e-11 9.1899634e-11 9.2402495e-11 8.895628e-11 8.518794e-11
8.191777e-11 9.2248376e-11 9.330844e-11 9.4024e-11 9.502445e-11 9.1846905e-11 8.7996305e-11 8.429259e-11
9.158851e-11 9.358254e-11 9.513317e-11 9.6841625e-11 9.419978e-11 9.070823e-11 8.73301e-11 8.7395154e-11
8.995264e-11 9.197047e-11 9.406587e-11 9.2131934e-11 8.946527e-11 8.67273e-11 8.382675e-11 8.6272704e-11
8.852871e-11 9.096834e-11 8.9700386e-11 8.773763e-11 8.557167e-11 8.200608e-11 8.381019e-11 8.578756e-11
8.836692e-11 8.747293e-11 8.5973687e-11 8.4109004e-11 1.216003e-09 1.2498859e-09 1.2805093e-09 1.3227432e-09
1.3217808e-09 1.3102509e-09 1.2823845e-09 1.2763809e-09 1.3196033e-09 1.3557382e-09 1.3867938e-09 1.3683844e-09
1.3415048e-09 1.3052232e-09 1.3114126e-09 1.3619023e-09 1.40704e-09 1.4336389e-09 1.3997369e-09 1.3658693e-09
1.3272026e-09 1.3172444e-09 1.3663668e-09 1.4202725e-09 1.45607e-09 1.4206442e-09 1.3814377e-09 1.3413164e-09
1.2735317e-09 1.3133343e-09 1.3606299e-09 1.3986895e-09 1.3769011e-09 1.3469788e-09 1.3096046e-09 1.2275827e-09
1.2558863e-09 1.2907304e-09 1.3201616e-09 1.3093265e-09 1.3063625e-09 1.2831481e-09 1.179273e-09 1.2019642e-09
1.2308439e-09 1.256567e-09 1.2486249e-09 1.2555531e-09 1.2444534e-09 9.423198e-10 9.942429e-10 1.0463255e-09
1.118361e-09 1.0999425e-09 1.0770302e-09 1.0523202e-09 9.770831e-10 1.0285599e-09 1.0826635e-09 1.1568853e-09
00000000: a61b c430 8c23 c030 9125 c630 970e d130
00000010: db6d ce30 246a cb30 4697 c730 9203 c730
00000020: 2048 c730 4812 cf30 62d7 da30 c336 d830
00000030: dfef d430 95a7 d030 762c ca30 5636 ce30
00000040: 77ed d630 b18c e330 eded e030 6795 dd30
00000050: 73e1 d830 149e cc30 82b1 d330 f444 dd30
00000060: 6ca1 ea30 b213 e830 64b0 e430 b17e e030
00000070: ca07 c530 abde cc30 798d d630 108e e330
00000080: d45e e130 345d de30 3498 da30 7558 bd30
00000090: 932e c530 73de ce30 1892 db30 0bc2 d930
000000a0: 4e3a d730 26ab d330 944b b530 92c2 bc30
000000b0: 5104 c630 b260 d230 340d d130 0421 cf30
000000c0: 4af1 cb30 166e 0b30 53e5 1230 52dd 1b30
000000d0: 727a 2930 14cd 2630 de64 2330 f689 1e30
000000e0: ce2b 1130 2caf 1a30 0341 2530 4012 3430
000000f0: 0860 3030 8991 2b30 c32a 2530 a0ec 1530
00000100: d885 2130 dc10 2e30 97fc 3d30 cf48 3930
00000110: a8fc 3230 3e5f 2b30 a7d1 1930 d5a9 2630
00000120: f78c 3430 3e2f 4530 a119 4030 e7f4 3830
00000130: 91c0 3030 1de0 1330 7dbb 1f30 3bb3 2c30
00000140: a9ad 3c30 706e 3830 d020 3230 9fa9 2a30
00000150: 87f7 0c30 3878 1730 f52d 2330 b662 3230
00000160: 2f68 2f30 e94a 2a30 add6 2330 5936 0630
00000170: b49a 0f30 41bf 1930 79f0 2730 470e 2630
00000180: 8801 2230 cd7c 1c30 30da 2b30 af05 3330
00000190: 3cef 3a30 3b55 4530 e9f5 4330 66bb 4030
000001a0: c0ac 3b30 92b2 3230 b579 3a30 73f2 4230
000001b0: 2ee8 4d30 b19d 4c30 b035 4930 a4b7 4330
000001c0: 97d8 3830 b01a 4130 f9f8 4930 7e86 5530
000001d0: 4051 5430 e8bb 5030 c7d6 4a30 35e0 3d30
000001e0: de85 4630 bdb7 4f30 f0c4 5b30 2f97 5a30
000001f0: 26cf 5630 b8ae 5030 6573 3830 7ecd 4030
00000200: 8fd6 4930 7c97 5530 7f85 5430 52d4 5030
00000210: 81e5 4a30 dc02 3230 4c10 3a30 28f2 4230
00000220: 0d5c 4e30 e36e 4d30 6e00 4a30 c870 4430
00000230: 6042 2a30 2407 3230 6eac 3a30 80c3 4530
00000240: 0f14 4530 7e01 4230 f1ea 3c30 f142 c52e
00000250: 7ea6 c32e 8408 c22e 243e c22e c3bc ba2e
00000260: 8403 b42e db10 af2e 1404 ca2e 2559 ca2e
00000270: e516 ca2e fb31 cb2e ef9d c32e 8c54 bb2e
00000280: 9b23 b42e 38db ca2e fb2f cd2e cec2 ce2e
00000290: 02f6 d02e 36f9 c92e 8481 c12e 825c b92e
000002a0: bf67 c92e 49ca cd2e 3733 d12e fdf4 d42e
000002b0: c325 cf2e 3278 c72e 7a0a c02e 192f c02e
000002c0: d6ce c52e c63e ca2e 61da ce2e ab99 ca2e
000002d0: 78bc c42e 21b7 be2e 4456 b82e 37b7 bd2e
000002e0: 3cad c22e 9f0a c82e d440 c52e e5ef c02e
000002f0: 912c bc2e 5255 b42e f14c b82e 1aa6 bc2e
00000300: 2752 c22e e25a c02e e20e bd2e 29f5 b82e
00000310: 4d20 a730 73c8 ab30 eafd af30 e4cb b530
00000320: 07aa b530 5b14 b430 e53f b030 a96c af30
00000330: 6a5d b530 cc54 ba30 7899 be30 bf11 bc30
00000340: 0160 b830 7563 b330 3b3d b430 ad2d bb30
00000350: d261 c130 af09 c530 dd60 c030 41b9 bb30
00000360: ca68 b630 6b0a b530 c2ca bb30 6533 c330
00000370: e91e c830 7940 c330 05dd bd30 6059 b830
00000380: 6a08 af30 d880 b430 e900 bb30 033c c030
00000390: 673d bd30 9a20 b930 9efd b330 bab7 a830
000003a0: 929b ac30 8a65 b130 0f71 b530 d5f3 b330
000003b0: 8b8b b330 c35a b030 fb13 a230 5b32 a530
000003c0: 782a a930 85b3 ac30 159c ab30 d98f ac30
000003d0: 5009 ab30 ee82 8130 d0a5 8830 4ece 8f30
000003e0: d4b4 9930 c92c 9730 a206 9430 3aa1 9030
000003f0: 0e4a 8630 3c5d 8d30 d6cc 9430 4800 9f30

exp_avg f4 [32]
-3.6181822e-07 8.58082e-07 -4.438314e-09 1.4633746e-07 2.5130682e-06 -1.6006378e-06 1.7430889e-08 1.2901288e-06
-1.4595243e-05 9.749176e-06 -1.3937852e-06 3.5358978e-06 -5.6596973e-06 -8.8968034e-07 -4.3586655e-07 -2.9705214e-07
2.7764252e-05 -9.649409e-06 -1.7300312e-06 7.5148278e-06 -5.3640226e-05 2.1578311e-05 -4.6858104e-06 -5.9305283e-05
-4.8690003e-06 -4.6373138e-05 -5.500724e-06 3.5764853e-05 -4.201325e-06 2.2597962e-05 2.2329976e-05 5.309578e-06
00000000: eb3f c2b4 f256 6635 d37f 98b1 ef20 1d34
00000010: 2fa6 2836 7fd5 d6b5 eeba 9532 7d28 ad35
00000020: 17de 74b7 6490 2337 1812 bbb5 434a 6d36
00000030: 6ee8 bdb6 5ed2 6eb5 0b01 eab4 897a 9fb4
00000040: 47e7 e837 e5e3 21b7 6b33 e8b5 e127 fc36
00000050: c1fb 60b8 1203 b537 ce3a 9db6 90be 78b8
00000060: 6560 a3b6 c780 42b8 dc92 b8b6 3802 1638
00000070: 1bf9 8cb6 c190 bd37 4251 bb37 ed28 b236

exp_avg_sq f4 [32]
5.1004285e-09 6.4408795e-07 1.1121351e-07 3.858979e-08 1.6449232e-07 9.6943324e-08 1.2071198e-09 7.903185e-08
2.3760286e-08 1.11183894e-07 6.484401e-08 1.1200491e-07 2.792553e-07 1.9723095e-06 1.636802e-08 2.3889825e-07
1.3278404e-06 1.5449825e-05 4.530903e-06 1.2374485e-06 9.005804e-06 1.34746915e-05 7.959875e-08 1.9634797e-05
3.290724e-06 6.562452e-07 8.624257e-07 1.1166135e-06 7.304246e-07 1.9642967e-07 1.5251689e-07 5.2984083e-06
00000000: d83f af31 63e5 2c35 46d4 ee33 ecbd 2533
00000010: 4e9f 3034 282f d033 c1e7 a530 38b8 a933
00000020: 6c19 cc32 fec3 ee33 5f40 8b33 5a87 f033
00000030: 8eec 9534 055c 0436 a899 8c32 ed41 8034
00000040: 4038 b235 3f9a 8137 2908 9836 6816 a635
00000050: a217 1737 5c11 6237 e0ef aa33 68b5 a437
00000060: 35d6 5c36 d428 3035 7181 6735 8cde 9535
00000070: 6512 4435 2dea 5234 86c3 2334 fbc8 b136

exp_avg f4 [1, 8, 1, 1]
0.00042031423 -0.00013939504 1.928856e-06 -5.1688444e-06 -0.0006569681 -0.00048384498 1.2256565e-06 0.0009984719
00000000: 9f5d dc39 922a 12b9 7e71 0136 0970 adb6
00000010: 6238 2cba 93ac fdb9 3d81 a435 28df 823a

exp_avg_sq f4 [1, 8, 1, 1]
2.7725334e-06 1.6416052e-05 0.00014258087 1.7296688e-05 0.0002835145 1.841308e-05 6.454774e-07 0.00097010133
00000000: c30f 3a36 34b5 8937 c381 1539 5b18 9137
00000010: aca4 9439 ca75 9a37 df44 2d35 664e 7e3a
