outputs/ConvLSTM_D1_K7_H8_SS8.4_05_21-34-55/checkpoints/model-epoch=01-validation_loss=0.07.ckpt (torch, 178714 bytes, 9 tensors)

model.combined_conv_layers.0.weight f4 [32, 9, 7, 7]
-0.7793852 -0.66665506 -0.5249101 -0.52953285 -0.40162632 -0.24787778 -0.23887673 -0.7750703
-0.55762 -0.51797235 -0.40045783 -0.36297846 -0.17662407 -0.1704727 -0.6675216 -0.5445429
-0.45033216 -0.43589935 -0.30911222 -0.23736688 -0.18894601 -0.6445798 -0.48388678 -0.45689827
-0.4449181 -0.27000383 -0.2164938 -0.15154071 -0.6541194 -0.50761163 -0.4095779 -0.39517197
-0.3013784 -0.17724183 -0.13568263 -0.5587202 -0.4248034 -0.37438968 -0.39187935 -0.2841633
-0.18269615 -0.17760119 -0.60381895 -0.466974 -0.38074082 -0.34651136 -0.28706858 -0.20297757
-0.19462277 0.24065001 0.19819863 0.13337548 0.16773759 0.15231265 0.22582646 0.20104238
0.18392277 0.058068566 0.07572827 0.09635063 0.1477334 0.18656489 0.21129519 0.199884
0.08047639 0.035264328 0.054339577 0.13825561 0.14911576 0.20419368 0.1973179 -0.0048089377
0.01564949 0.019137936 0.07146242 0.1456021 0.23295465 0.16624568 0.123905495 0.07328708
0.069977246 0.18198773 0.23482959 0.191776 0.28794706 0.18524218 0.13902426 0.17441776
0.18613352 0.2446616 0.2721488 0.27054664 0.21693528 0.21580271 0.22981359 0.27433595
0.25324202 0.31139198 0.0833446 0.10058436 0.114325754 0.04651609 -0.011226783 -0.006333245
0.06448547 0.036099195 0.06762979 0.0933628 0.09906188 0.01802494 0.05354975 0.017230392
0.083088316 0.0975451 0.095041074 0.060394675 -0.011737947 0.020224331 0.019416366 0.029268421
0.038464434 0.08578655 0.06947279 0.01909129 -0.02622722 0.04717976 -0.022421373 0.06971354
0.08827264 0.08629367 0.07542808 -0.005853135 0.026371842 -0.015463223 0.051180445 0.00015708621
0.07464677 0.008224467 -0.027698938 0.009613031 0.01663624 -0.0075005447 0.025368555 0.027782897
0.029392641 0.0070418916 -0.033826962 -0.37442034 -0.2489746 -0.17410477 -0.15836492 -0.13718605
-0.18685228 -0.21063322 -0.3138213 -0.27102995 -0.19986382 -0.20232077 -0.16860688 -0.1833777
-0.17452568 -0.33457154 -0.25439426 -0.20509924 -0.18702024 -0.13377759 -0.10116589 -0.17473173
-0.32487017 -0.24154055 -0.21674629 -0.18590626 -0.15853418 -0.17908278 -0.18578468 -0.2605874
-0.16317153 -0.16283518 -0.1062445 -0.1383637 -0.116027236 -0.15333708 -0.32118016 -0.17955174
-0.18940866 -0.18463044 -0.11391997 -0.09105787 -0.17511919 -0.41713974 -0.254611 -0.24174221
-0.15838401 -0.12658434 -0.115431696 -0.19496098 0.15609294 0.08220579 0.12583633 0.11506151
0.13324364 0.109684326 0.068448894 0.122223884 0.103772715 0.13485998 0.09734296 0.069578946
0.09537798 0.051803578 0.13400383 0.090855375 0.10303351 0.052067704 0.0451892 0.055636436
0.082848616 0.12500612 0.0889974 0.03730332 0.085926354 0.03616142 0.03847214 0.03732539
0.10111137 0.05510037 0.041340064 0.059177008 0.06012293 0.11173186 0.06724099 0.09879791
0.12742756 0.1017175 0.07433984 0.04026048 0.024207165 0.083796695 0.11141977 0.048565354
0.10301068 0.10073296 0.032314967 0.10573504 0.034598105 -0.11343422 0.00941433 0.02814244
0.07135368 0.018308109 -0.07713112 -0.08893753 -0.07272881 0.016588604 0.02873757 0.07138965
00000000: ca85 47bf e8a9 2abf 8260 06bf 778f 07bf
00000010: f7a1 cdbe acd3 7dbe 1a9c 74be 026b 46bf
00000020: 2fc0 0ebf d699 04bf cf08 cdbe 50d8 b9be
00000030: f1dc 34be 6590 2ebe b2e2 2abf 2a67 0bbf
00000040: f091 e6be 332e dfbe f543 9ebe 4e10 73be
00000050: 107b 41be 2f03 25bf 02c0 f7be 92ee e9be
00000060: 4ecc e3be f13d 8abe 8db0 5dbe 7d2d 1bbe
00000070: 5e74 27bf d6f2 01bf 32b4 d1be fb53 cabe
00000080: 454e 9abe e27e 35be 63f0 0abe 4908 0fbf
00000090: d57f d9be 01b0 bfbe 69a4 c8be da7d 91be
000000a0: b314 3bbe 16dd 35be e193 1abf 3717 efbe
000000b0: 76f0 c2be f069 b1be a7fa 92be 5ad9 4fbe
000000c0: 314b 47be f56c 763e 95f4 4a3e 9593 083e
000000d0: 67c3 2b3e d9f7 1b3e 0d3f 673e 0ede 4d3e
000000e0: 4056 3c3e 4ed9 6d3d 6c17 9b3d 7b53 c53d
000000f0: 6d47 173e de0a 3f3e c45d 583e 64ae 4c3e
00000100: ced0 a43d 5471 103d 2d93 5e3d e192 0d3e
00000110: cdb1 183e 2618 513e b40d 4a3e 4b94 9dbb
00000120: 5c33 803c 29c7 9c3c e45a 923d b818 153e
00000130: aa8b 6e3e 4f3c 2a3e 2ac2 fd3d 8917 963d
00000140: 3b50 8f3d fe5a 3a3e 2b77 703e ee60 443e
00000150: cc6d 933e 20b0 3d3e 605c 0e3e 929a 323e
00000160: c999 3e3e 9288 7a3e 1657 8b3e 1785 8a3e
00000170: 4824 5e3e 63fb 5c3e 4154 6b3e c375 8c3e
00000180: f0a8 813e c56e 9f3e 93b0 aa3d 2cff cd3d
00000190: 9f23 ea3d a887 3e3d 8af0 37bc 1c87 cfbb
000001a0: f510 843d c0dc 133d 7d81 8a3d ff34 bf3d
000001b0: f4e0 ca3d 0aa9 933c fc56 5b3d c026 8d3c
000001c0: 352a aa3d bac5 c73d e5a4 c23d 6860 773d
000001d0: 8550 40bc 7fad a53c 120f 9f3c 54c4 ef3c
000001e0: e28c 1d3d dcb0 af3d c047 8e3d 5665 9c3c
000001f0: 78da d6bc 903f 413d 07ad b7bc f9c5 8e3d
00000200: 49c8 b43d bcba b03d 0a7a 9a3d a8cb bfbb
00000210: c309 d83c 7559 7dbc 96a2 513d 82b7 2439
00000220: 68e0 983d eabf 063c e2e8 e2bc f97f 1d3c
00000230: b948 883c 21c7 f5bb b7d1 cf3c f598 e33c
00000240: d6c8 f03c abbf e63b 248e 0abd 06b4 bfbe
00000250: 33f3 7ebe 8548 32be 6a2a 22be 807a 0cbe
00000260: 3456 3fbe 3cb0 57be 2fad a0be 70c4 8abe
00000270: 1aa9 4cbe 2d2d 4fbe 48a7 2cbe 5dc7 3bbe
00000280: dcb6 32be f64c abbe f73f 82be 8905 52be
00000290: 3c82 3fbe fefc 08be 1030 cfbd e0ec 32be
000002a0: 6255 a6be 6856 77be bdf2 5dbe 365e 3ebe
000002b0: c956 22be 7a61 37be 573e 3ebe b66b 85be
000002c0: 7016 27be 44be 26be b796 d9bd 37af 0dbe
000002d0: b09f edbd 6504 1dbe ba71 a4be 69dc 37be
000002e0: 58f4 41be c30f 3dbe e04e e9bd 8c7c babd
000002f0: 7252 33be 5793 d5be 5f5c 82be 458b 77be
00000300: 6b2f 22be 539f 01be 7467 ecbd daa3 47be
00000310: d4d6 1f3e 825b a83d 3ddb 003e 5ea5 eb3d
00000320: 0571 083e 2da2 e03d ef2e 8c3d 8450 fa3d
00000330: ca86 d43d bc18 0a3e bf5b c73d 687f 8e3d
00000340: 8855 c33d fd2f 543d 4d38 093e 6212 ba3d
00000350: 3c03 d33d f244 553d 5018 393d 08e3 633d
00000360: 89ac a93d 9b01 003e 4544 b63d 5ecb 183d
00000370: 28fa af3d ff1d 143d f694 1d3d 82e2 183d
00000380: 7a13 cf3d edb0 613d 3354 293d 9763 723d
00000390: 7643 763d acd3 e43d a5b5 893d 8f56 ca3d
000003a0: 5f7c 023e 4451 d03d 7c3f 983d 2ce8 243d
000003b0: 1b4e c63c 9a9d ab3d 0c30 e43d 77ec 463d
000003c0: 43f7 d23d 154d ce3d b35c 043d 9d8b d83d
000003d0: beb6 0d3d 3350 e8bd 903e 1a3c f98a e63c
000003e0: e121 923d e3fa 953c ecf6 9dbd e124 b6bd
000003f0: d8f2 94bd d3e4 873c 0d6b eb3c bd34 923d

model.combined_conv_layers.0.bias f4 [32]
-0.5943185 0.68887496 -0.21032044 0.11686979 -0.38139334 -0.28248253 -0.21504158 -0.21727759
-0.2525151 0.5469732 0.23800749 -0.035247706 -0.12588528 0.13722947 -0.5198489 0.14047487
-0.537894 0.18665412 -0.89005625 0.04699327 -0.29765123 -0.48680562 -0.74542826 0.19177102
0.26609284 -0.4118828 0.43232605 0.355461 -0.01304731 0.24697898 -0.01957957 0.30484226
00000000: 4225 18bf 1c5a 303f 3e5e 57be 6e59 ef3d
00000010: fd45 c3be 8da1 90be dc33 5cbe 047e 5ebe
00000020: a949 81be 7006 0c3f 3cb8 733e e65f 10bd
00000030: 12e8 00be e285 0c3e d114 05bf a5d8 0f3e
00000040: 6cb3 09bf 4222 3f3e bada 63bf 047c 403d
00000050: be65 98be 963e f9be 63d4 3ebf 9f5f 443e
00000060: 523d 883e 4de2 d2be d759 dd3e fcfe b53e
00000070: 62c4 55bc 0fe8 7c3e 5665 a0bc 4914 9c3e

mapping_layer.weight f4 [1, 8, 1, 1]
-2.604147 1.1843083 1.051678 0.104298316 1.218541 1.1760372 -0.73462754 -0.48710474
00000000: 58aa 26c0 6a97 973f 629d 863f 5b9a d53d
00000010: 27f9 9b3f 6388 963f 8d10 3cbf cb65 f9be

exp_avg f4 [32, 9, 7, 7]
-1.0272927e-05 -9.836428e-06 -9.704412e-06 -9.486467e-06 -9.224549e-06 -9.074427e-06 -8.828904e-06 -1.0394268e-05
-1.0266775e-05 -1.0121234e-05 -9.89102e-06 -9.605133e-06 -9.406521e-06 -9.093528e-06 -1.0272425e-05 -1.0305965e-05
-1.0206849e-05 -1.0047559e-05 -9.78117e-06 -9.577936e-06 -9.239481e-06 -1.0187832e-05 -1.03144475e-05 -1.02338e-05
-1.01201795e-05 -9.870979e-06 -9.684565e-06 -9.349219e-06 -9.638228e-06 -9.831493e-06 -9.788261e-06 -9.689838e-06
-9.420901e-06 -9.215598e-06 -8.862839e-06 -9.246715e-06 -9.555375e-06 -9.622141e-06 -9.5650375e-06 -9.257397e-06
-8.964433e-06 -8.541962e-06 -8.753709e-06 -9.167155e-06 -9.371257e-06 -9.384146e-06 -9.065955e-06 -8.73524e-06
-8.274847e-06 5.199896e-06 4.762388e-06 4.5031597e-06 4.454086e-06 4.342577e-06 4.4369394e-06 4.7343206e-06
4.9915566e-06 4.5457205e-06 4.2489714e-06 4.1481185e-06 3.8884523e-06 4.069335e-06 4.3837e-06 4.809112e-06
4.4123526e-06 4.1366975e-06 3.9979845e-06 3.6425304e-06 3.759972e-06 4.089859e-06 4.73779e-06 4.380917e-06
4.172775e-06 4.0196533e-06 3.6540714e-06 3.689308e-06 3.999503e-06 4.36442e-06 4.0226287e-06 3.845745e-06
3.6792144e-06 3.4180102e-06 3.4375523e-06 3.7134753e-06 4.224446e-06 3.9396423e-06 3.7993852e-06 3.682336e-06
3.5043818e-06 3.568201e-06 3.8360527e-06 4.2470574e-06 4.0493996e-06 3.8955714e-06 3.9380857e-06 3.8052572e-06
3.912647e-06 4.182253e-06 -8.852265e-06 -9.104006e-06 -9.273409e-06 -9.225458e-06 -8.98742e-06 -8.746989e-06
-8.38458e-06 -9.244564e-06 -9.500065e-06 -9.689911e-06 -9.66359e-06 -9.413684e-06 -9.1655165e-06 -8.782662e-06
-9.527342e-06 -9.807907e-06 -1.0034383e-05 -1.0005127e-05 -9.803522e-06 -9.535823e-06 -9.137876e-06 -9.683413e-06
-1.00060615e-05 -1.0262057e-05 -1.0219393e-05 -1.0073629e-05 -9.80932e-06 -9.408391e-06 -9.444397e-06 -9.825817e-06
-1.0098184e-05 -1.0088334e-05 -9.972501e-06 -9.730329e-06 -9.329543e-06 -9.0740405e-06 -9.528862e-06 -9.799646e-06
-9.895931e-06 -9.801059e-06 -9.5827745e-06 -9.201163e-06 -8.522483e-06 -9.058091e-06 -9.387753e-06 -9.571147e-06
-9.514744e-06 -9.341565e-06 -9.004421e-06 -1.4913269e-08 -2.5636059e-08 -2.901528e-08 -2.7380668e-08 -1.2079326e-08
1.8480778e-08 4.9716316e-08 -2.8469428e-08 -3.6281516e-08 -4.651741e-08 -4.3571006e-08 -4.894611e-08 -2.917274e-08
-2.2699741e-12 -6.328133e-09 -2.7606069e-08 -5.2871982e-08 -5.3746355e-08 -7.6258615e-08 -8.259793e-08 -5.316676e-08
-3.6682333e-09 -2.387471e-08 -6.254099e-08 -7.628708e-08 -1.01950775e-07 -1.2069134e-07 -9.931821e-08 -1.89288e-08
-2.4268326e-08 -5.1330296e-08 -6.863339e-08 -1.02862394e-07 -1.2972254e-07 -1.2723977e-07 -2.3696684e-08 -2.6978881e-08
-5.573316e-08 -7.058497e-08 -9.3225914e-08 -1.2174561e-07 -1.297447e-07 -2.1648303e-08 -3.471207e-08 -5.586661e-08
-7.48982e-08 -8.729552e-08 -1.09598204e-07 -1.2143437e-07 9.4188636e-07 9.4346825e-07 9.576363e-07 9.778794e-07
9.722552e-07 9.5194014e-07 9.2015796e-07 9.405724e-07 9.3621395e-07 9.439116e-07 9.596359e-07 9.55813e-07
9.4058333e-07 9.1699826e-07 9.342159e-07 9.2741857e-07 9.281646e-07 9.421361e-07 9.4431675e-07 9.4167046e-07
9.3469737e-07 9.1191873e-07 9.092769e-07 9.080387e-07 9.233366e-07 9.279098e-07 9.376449e-07 9.548047e-07
8.00979e-07 8.1278984e-07 8.207308e-07 8.353851e-07 8.366774e-07 8.5030365e-07 8.893787e-07 6.981477e-07
7.308268e-07 7.6234545e-07 7.910222e-07 7.92429e-07 8.05382e-07 8.559759e-07 6.0342535e-07 6.5368226e-07
7.120552e-07 7.5890944e-07 7.6390205e-07 7.759303e-07 8.2935975e-07 -1.7833372e-05 -1.785034e-05 -1.7893413e-05
-1.7990966e-05 -1.7311251e-05 -1.683249e-05 -1.6302647e-05 -1.8110139e-05 -1.8166073e-05 -1.825036e-05 -1.8391593e-05
00000000: e359 2cb7 2307 25b7 22d0 22b7 1128 1fb7
00000010: 23c3 1ab7 5e3e 18b7 db1f 14b7 0b63 2eb7
00000020: 763f 2cb7 5ece 29b7 9cf1 25b7 bb25 21b7
00000030: b3d0 1db7 6890 18b7 bb57 2cb7 c8e7 2cb7
00000040: 153e 2bb7 f091 28b7 ce19 24b7 ecb0 20b7
00000050: 4503 1bb7 68ec 2ab7 370c 2db7 d6b1 2bb7
00000060: d7c9 29b7 889b 25b7 e47a 22b7 97da 1cb7
00000070: e0b3 21b7 f1f1 24b7 4338 24b7 8a91 22b7
00000080: 760e 1eb7 b19c 1ab7 9bb1 14b7 5722 1bb7
00000090: 0650 20b7 c86e 21b7 8679 20b7 3850 1bb7
000000a0: f265 16b7 734f 0fb7 e5dc 12b7 a2cc 19b7
000000b0: 3e39 1db7 9a70 1db7 fb19 18b7 928d 12b7
000000c0: 32d4 0ab7 c47a ae36 9acc 9f36 d919 9736
000000d0: 4f74 9536 74b6 9136 05e1 9436 81db 9e36
000000e0: 257d a736 7187 9836 6392 8e36 1130 8b36
000000f0: 8d79 8236 528b 8836 b217 9336 f55d a136
00000100: d20d 9436 f6cd 8a36 6d26 8636 3272 7436
00000110: d453 7c36 9f3b 8936 4ef9 9e36 caff 9236
00000120: dd03 8c36 8fe0 8636 7838 7536 d495 7736
00000130: 7833 8636 1572 9236 1efa 8636 b30a 8136
00000140: 6ce8 7636 f860 6536 b3b0 6636 0535 7936
00000150: b7bf 8d36 4531 8436 f1f8 7e36 0d1e 7736
00000160: d22c 6b36 3a75 6f36 71b7 8036 f281 8e36
00000170: 14e0 8736 b4b6 8236 e623 8436 d25d 7f36
00000180: 6249 8336 4855 8c36 3084 14b7 68bd 18b7
00000190: fd94 1bb7 0ac7 1ab7 adc8 16b7 08c0 12b7
000001a0: 7fab 0cb7 1a19 1bb7 7862 1fb7 da91 22b7
000001b0: ce20 22b7 77ef 1db7 98c5 19b7 3f59 13b7
000001c0: 9fd7 1fb7 a48c 24b7 5959 28b7 b1db 27b7
000001d0: ce79 24b7 0cfc 1fb7 e14e 19b7 f175 22b7
000001e0: b5df 27b7 332b 2cb7 f573 2bb7 e801 29b7
000001f0: b592 24b7 bbd8 1db7 6073 1eb7 90d9 24b7
00000200: 5f6b 29b7 1141 29b7 914f 27b7 723f 23b7
00000210: 1586 1cb7 b53c 18b7 27de 1fb7 2969 24b7
00000220: b306 26b7 3a6f 24b7 b4c5 20b7 b25e 1ab7
00000230: c9fb 0eb7 34f8 17b7 1880 1db7 c393 20b7
00000240: 84a1 1fb7 b7b9 1cb7 b211 17b7 a01a 80b2
00000250: 4a36 dcb2 473d f9b2 ba32 ebb2 7085 4fb2
00000260: a9bf 9e32 ab87 5533 ef8c f4b2 f3d3 1bb3
00000270: 6fca 47b3 d422 3bb3 d138 52b3 8997 fab2
00000280: 38bc 1fac d96e d9b1 6322 edb2 5c15 63b3
00000290: bed6 66b3 9ec3 a3b3 b160 b1b3 7959 64b3
000002a0: 3e14 7cb1 0b15 cdb2 464e 86b3 44d3 a3b3
000002b0: 08f0 dab3 6297 01b4 c348 d5b3 df98 a2b2
000002c0: 9d76 d0b2 4276 5cb3 9b63 93b3 33e5 dcb3
000002d0: dc49 0bb4 679f 08b4 8f8d cbb2 30bf e7b2
000002e0: 425f 6fb3 7f94 97b3 7d33 c8b3 2eb9 02b4
000002f0: f44f 0bb4 1ff5 b9b2 5316 15b3 fdf1 6fb3
00000300: b9d7 a0b3 3877 bbb3 405c ebb3 a063 02b4
00000310: f0d5 7c35 a542 7d35 2288 8035 ae3f 8335
00000320: 6f7e 8235 d488 7f35 c600 7735 a57b 7c35
00000330: 2250 7b35 1c61 7d35 d7cc 8035 7c49 8035
00000340: 657c 7c35 a427 7635 d4c6 7a35 b8f3 7835
00000350: fc26 7935 1ae7 7c35 f47c 7d35 1ac7 7c35
00000360: eae7 7a35 94ca 7435 0815 7435 f2bf 7335
00000370: 35db 7735 7a15 7935 78b2 7b35 d726 8035
00000380: dc02 5735 7e2e 5a35 3150 5c35 3a3f 6035
00000390: 0898 6035 6c40 6435 a4bd 6e35 5868 3b35
000003a0: 092e 4435 fba3 4c35 a256 5435 4eb7 5435
000003b0: 6e31 5835 37c6 6535 13fb 2135 b478 2f35
000003c0: 1024 3f35 dcb7 4b35 f30e 4d35 8649 5035
000003d0: 2ba1 5e35 e098 95b7 50bd 95b7 d019 96b7
000003e0: 4eeb 96b7 a137 91b7 7f33 8db7 abc1 88b7
000003f0: 3aeb 97b7 5863 98b7 5a18 99b7 a547 9ab7

exp_avg_sq f4 [32, 9, 7, 7]
2.0379698e-09 2.1510893e-09 2.2868423e-09 2.4429854e-09 2.416265e-09 2.38269e-09 2.3477746e-09 2.137052e-09
2.2719402e-09 2.4253561e-09 2.5940279e-09 2.5649611e-09 2.5242741e-09 2.4797058e-09 2.2313131e-09 2.3852431e-09
2.5521927e-09 2.7341547e-09 2.703081e-09 2.6591676e-09 2.6022435e-09 2.3100084e-09 2.4804443e-09 2.6585036e-09
2.851377e-09 2.8208123e-09 2.7789824e-09 2.7124192e-09 2.237472e-09 2.4089255e-09 2.585331e-09 2.7745326e-09
2.7510512e-09 2.7169518e-09 2.6492128e-09 2.1678974e-09 2.3331597e-09 2.504229e-09 2.6873956e-09 2.6707512e-09
2.6427718e-09 2.5796603e-09 2.0874005e-09 2.2428766e-09 2.4045361e-09 2.5791314e-09 2.5693718e-09 2.5447477e-09
2.4903897e-09 1.1986925e-09 1.293427e-09 1.3870934e-09 1.4954488e-09 1.4833048e-09 1.4554032e-09 1.4106699e-09
1.2613526e-09 1.3666912e-09 1.4715708e-09 1.5878047e-09 1.5724871e-09 1.5377993e-09 1.4851022e-09 1.3157037e-09
1.4326641e-09 1.5513406e-09 1.6774776e-09 1.6596962e-09 1.6175747e-09 1.5567677e-09 1.3587989e-09 1.4851207e-09
1.6138134e-09 1.7456044e-09 1.7287376e-09 1.6844125e-09 1.6191624e-09 1.3125805e-09 1.4363479e-09 1.5611868e-09
1.6873568e-09 1.6753177e-09 1.6361822e-09 1.5742584e-09 1.2688469e-09 1.3856613e-09 1.5018904e-09 1.6219015e-09
1.613794e-09 1.5815611e-09 1.5265258e-09 1.2210194e-09 1.3291742e-09 1.4350876e-09 1.5489973e-09 1.5435625e-09
1.5164967e-09 1.4690213e-09 1.9255508e-09 2.049755e-09 2.162457e-09 2.2775013e-09 2.2671132e-09 2.2337328e-09
2.1770796e-09 2.0107604e-09 2.1427724e-09 2.2625306e-09 2.3831481e-09 2.3723488e-09 2.3362923e-09 2.2740436e-09
2.086958e-09 2.22441e-09 2.349294e-09 2.4747602e-09 2.4640687e-09 2.4260036e-09 2.3594247e-09 2.1507351e-09
2.290961e-09 2.4186215e-09 2.5484372e-09 2.5380882e-09 2.4986284e-09 2.4300915e-09 2.0870266e-09 2.221132e-09
2.3439426e-09 2.4703983e-09 2.4617477e-09 2.4245586e-09 2.3592477e-09 2.016257e-09 2.1440876e-09 2.2614197e-09
2.3841493e-09 2.3771383e-09 2.3433733e-09 2.2829294e-09 1.9332669e-09 2.055035e-09 2.1663797e-09 2.2849005e-09
2.279791e-09 2.249767e-09 2.194624e-09 1.08151675e-10 1.080987e-10 1.1014776e-10 1.1629458e-10 1.13435684e-10
1.1156438e-10 1.10780794e-10 1.08571915e-10 1.0879349e-10 1.1096955e-10 1.1715151e-10 1.140626e-10 1.1178214e-10
1.1054642e-10 1.0996316e-10 1.1048555e-10 1.1283337e-10 1.1911579e-10 1.15800126e-10 1.1312857e-10 1.1146368e-10
1.12453186e-10 1.1319905e-10 1.15709664e-10 1.2212956e-10 1.1861753e-10 1.1569292e-10 1.1375351e-10 1.0781748e-10
1.0849079e-10 1.10869834e-10 1.1686926e-10 1.1372191e-10 1.1110374e-10 1.0940317e-10 1.0417321e-10 1.0452825e-10
1.0669186e-10 1.12422634e-10 1.0959717e-10 1.074054e-10 1.0614721e-10 1.019601e-10 1.0185628e-10 1.0370298e-10
1.09206e-10 1.0662988e-10 1.0488595e-10 1.0418606e-10 1.1328474e-10 1.1542498e-10 1.1815446e-10 1.2141586e-10
1.2028005e-10 1.1888801e-10 1.1658029e-10 1.1863596e-10 1.2139054e-10 1.2478348e-10 1.2866476e-10 1.2768431e-10
1.2632279e-10 1.2389836e-10 1.2415893e-10 1.2762633e-10 1.3176936e-10 1.3631184e-10 1.3539178e-10 1.3398198e-10
1.3142809e-10 1.2988555e-10 1.3404927e-10 1.3896445e-10 1.4423121e-10 1.433446e-10 1.4187103e-10 1.3922094e-10
1.2893493e-10 1.3325133e-10 1.38182e-10 1.4339065e-10 1.4260194e-10 1.412379e-10 1.3873735e-10 1.2739784e-10
1.3161468e-10 1.3620836e-10 1.4109164e-10 1.4038429e-10 1.3923354e-10 1.3701947e-10 1.2512912e-10 1.290975e-10
1.3320785e-10 1.3767051e-10 1.370004e-10 1.3607106e-10 1.3417836e-10 1.867578e-09 2.0043143e-09 2.1446904e-09
2.3045335e-09 2.3031081e-09 2.2794286e-09 2.2358138e-09 1.9600106e-09 2.1136743e-09 2.272426e-09 2.4449045e-09
00000000: 580c 0c31 5dd2 1331 8e26 1d31 74e1 2731
00000010: 620b 2631 babc 2331 7d56 2131 6bdb 1231
00000020: 6520 1c31 51ab 2631 9f42 3231 4643 3031
00000030: 8077 2d31 7267 2a31 ad55 1931 a4e9 2331
00000040: a662 2f31 c2e3 3b31 1bc1 3931 92bc 3631
00000050: 27d3 3231 19be 1e31 7074 2a31 e4b0 3631
00000060: f4f1 4331 41d8 4131 60f8 3e31 6265 3a31
00000070: 06c2 1931 448a 2531 a0a9 3131 18aa 3e31
00000080: 010d 3d31 1fb5 3a31 720d 3631 0efa 1431
00000090: 6155 2031 dd16 2c31 2aad 3831 5a88 3731
000000a0: 229c 3531 dd45 3131 f071 0f31 1a21 1a31
000000b0: 0c3d 2531 8f3c 3131 de90 3031 addf 2e31
000000c0: 6623 2b31 3ebf a430 6bc4 b130 03a4 be30
000000d0: 6d88 cd30 26dd cb30 7307 c830 89e1 c130
000000e0: e65b ad30 2cd6 bb30 4b40 ca30 e939 da30
000000f0: f91e d830 815a d330 631c cc30 35d4 b430
00000100: 63e7 c430 f236 d530 ff8c e630 5e1b e430
00000110: 5a51 de30 e5f5 d530 7cc0 ba30 0a1d cc30
00000120: 03cd dd30 ffe9 ef30 8c98 ed30 ff80 e730
00000130: 3689 de30 5266 b430 0069 c530 6191 d630
00000140: 97e8 e730 0041 e630 0be0 e030 4b5d d830
00000150: 9563 ae30 9f71 be30 126b ce30 96e9 de30
00000160: 54cc dd30 3c5e d930 dacd d130 cdd0 a730
00000170: 29ae b630 a83c c530 7fe4 d430 4725 d430
00000180: fc6c d030 98e6 c930 a652 0431 acdb 0c31
00000190: 599a 1431 3a82 1c31 7acb 1b31 3e80 1931
000001a0: 979b 1531 ac2d 0a31 0d40 1331 dc7a 1b31
000001b0: c9c4 2331 cd06 2331 7d8c 2031 6645 1c31
000001c0: 276a 0f31 3cdc 1831 3871 2131 7110 2a31
000001d0: 5b54 2931 b5b6 2631 7023 2231 22cc 1331
000001e0: 036f 1d31 d734 2631 9520 2f31 856a 2e31
000001f0: 56b4 2b31 9ffe 2631 5c6b 0f31 91a2 1831
00000200: 1313 2131 b5c3 2931 862b 2931 499d 2631
00000210: 5320 2231 5e8e 0a31 3057 1331 5167 1b31
00000220: 66d6 2331 0f5b 2331 0f09 2131 b8e1 1c31
00000230: 64da 0431 8f38 0d31 5bdf 1431 6504 1d31
00000240: 82aa 1c31 529a 1a31 3cd0 1631 fbd3 ed2e
00000250: 28b6 ed2e ad37 f22e 07bc ff2e 9d72 f92e
00000260: 2a55 f52e 0b9c f32e 8ec0 ee2e 4a3d ef2e
00000270: 4e06 f42e 38cf 002f 89d3 fa2e c0cf f52e
00000280: 1a18 f32e c1cf f12e d6f5 f22e 8a1f f82e
00000290: 1df8 022f ada5 fe2e b9c5 f82e 791c f52e
000002a0: 8449 f72e 66ed f82e c072 fe2e 6a48 062f
000002b0: de6b 022f 5369 fe2e 8825 fa2e d817 ed2e
000002c0: e392 ee2e 2bce f32e c67f 002f be13 fa2e
000002d0: d851 f42e 8294 f02e 4e14 e52e 2cdc e52e
000002e0: 2d9e ea2e 5138 f72e b901 f12e dd2f ec2e
000002f0: 916b e92e 6f36 e02e fdfb df2e 960b e42e
00000300: 8325 f02e 497b ea2e 8aa5 e62e 8a1b e52e
00000310: a41d f92e 7dd2 fd2e 86e9 012f 877f 052f
00000320: d33f 042f 00b8 022f 6f2e 002f 0e71 022f
00000330: 6678 052f 6d33 092f e977 0d2f f063 0c2f
00000340: b4e4 0a2f 4a3a 082f a283 082f 9e53 0c2f
00000350: c7e1 102f 5fe0 152f 66dd 142f 9350 132f
00000360: b881 102f 88cf 0e2f 8463 132f 04cb 182f
00000370: 7a95 1e2f eb9b 1d2f 25fd 1b2f 3613 192f
00000380: f5c3 0d2f ea82 122f c6ee 172f e1a8 1d2f
00000390: e1ca 1c2f ef4a 1b2f 188b 182f 4e13 0c2f
000003a0: 3db6 102f 3fc3 152f c421 1b2f aa5a 1a2f
000003b0: c216 192f 8da7 162f b794 092f b7f1 0d2f
000003c0: ad76 122f ce5e 172f 2fa2 162f 999c 152f
000003d0: da87 132f c856 0031 45bc 0931 cb61 1331
000003e0: c85d 1e31 b544 1e31 22a4 1c31 daa4 1931
000003f0: dfb0 0631 2740 1131 f128 1c31 3703 2831

exp_avg f4 [32]
2.4288052e-05 -1.1206441e-06 7.5277403e-06 5.5638243e-06 5.785993e-05 1.1782831e-05 -9.880021e-08 5.2545843e-06
2.911604e-05 -3.9897102e-05 1.3431259e-05 4.4683755e-05 -1.8503604e-05 2.7210708e-06 -5.173569e-07 1.6952132e-05
0.00031187382 -2.812974e-05 -3.1285444e-06 9.658157e-05 9.217868e-05 -3.0633084e-05 3.0563765e-06 -2.6165282e-05
8.586173e-05 0.00027148434 -2.296772e-05 7.6563185e-05 0.00015006219 -6.813022e-05 -2.924303e-05 0.00034992746
00000000: 32be cb37 0a69 96b5 cc96 fc36 e3b0 ba36
00000010: a0ae 7238 e0ae 4537 fd2b d4b3 8950 b036
00000020: 383e f437 3057 27b8 d156 6137 d16a 3b38
00000030: 3038 9bb7 a49b 3636 7fe0 0ab5 6d34 8e37
00000040: ff82 a339 28f8 ebb7 fcf3 51b6 d68b ca38
00000050: 0d50 c138 067c 00b8 261c 4d36 847d dbb7
00000060: aa10 b438 0356 8e39 ceaa c0b7 8c90 a038
00000070: 035a 1d39 22e1 8eb8 ee4e f5b7 7876 b739

exp_avg_sq f4 [32]
6.580945e-09 2.285748e-06 3.3025407e-07 8.3974456e-08 2.5126182e-08 3.004639e-07 4.276206e-09 1.14850586e-07
4.0179454e-08 3.138754e-07 2.1635492e-07 1.959625e-07 3.974138e-08 6.7286114e-06 5.2337388e-08 7.742017e-07
2.3296477e-07 2.5925092e-05 1.6035396e-05 4.2074635e-06 2.3785308e-06 3.7992457e-05 2.8095647e-07 3.1732675e-06
5.3907615e-07 1.083223e-06 3.051212e-06 3.1098225e-06 2.034159e-06 5.9459796e-07 5.192385e-07 1.6349211e-05
00000000: 9b1e e231 da64 1936 c64d b134 7255 b433
00000010: 0fd5 d732 724f a134 e8ed 9231 c7a3 f633
00000020: c791 2c33 b582 a834 304f 6834 c369 5234
00000030: 1cb0 2a33 55c6 e136 91c9 6033 bcd2 4f35
00000040: de24 7a34 b679 d937 c083 8637 d62d 8d36
00000050: d99e 1f36 175a 1f38 5dd6 9634 52f4 5436
00000060: 08b5 1035 4263 9135 6cc3 4c36 58b2 5036
00000070: 9682 0836 769c 1f35 cc61 0b35 aa25 8937

exp_avg f4 [1, 8, 1, 1]
0.00059862813 -0.0008415997 3.463128e-06 -0.00010254362 0.0017496352 -0.00068840245 5.7142618e-08 0.00045332767
00000000: 41ed 1c3a cd9e 5cba 1668 6836 b00c d7b8
00000010: 0454 e53a e875 34ba f96c 7533 9cac ed39

exp_avg_sq f4 [1, 8, 1, 1]
6.798748e-06 4.883884e-05 0.00045264894 5.3667743e-05 4.7343303e-05 4.545063e-05 2.290562e-06 0.00036504242
00000000: cd20 e436 4ed8 4c38 8351 ed39 4d19 6138
00000010: 7c92 4638 3ea2 3e38 8eb7 1936 2a63 bf39
