outputs/ConvLSTM_D1_K7_H8_SS8.4_05_21-34-55/checkpoints/model-epoch=02-validation_loss=0.07.ckpt (torch, 178842 bytes, 9 tensors)

model.combined_conv_layers.0.weight f4 [32, 9, 7, 7]
000000 2d 78 23 bf 38 8f 0e bf 9c 14 d0 be 26 82 d3 be
       -0.6385525 -0.55687284 -0.40640724 -0.41310233
000010 23 d0 95 be 61 42 ff bd 54 f7 bf bd 22 b8 2d bf
       -0.29260358 -0.12463833 -0.09373346 -0.6785909
000020 22 b2 f6 be 79 d6 de be 46 70 a3 be 1a 68 8f be
       -0.4818278 -0.43523005 -0.31921595 -0.2800911
000030 df 82 94 bd eb 1b 1e bd ab 18 20 bf 6d fe 02 bf
       -0.07251524 -0.038600843 -0.6253764 -0.5116947
000040 f2 ed d2 be 53 31 c9 be 53 be 81 be 0f ba 1d be
       -0.41197163 -0.39295444 -0.25340518 -0.15403007
000050 db a0 95 bd 00 7f 21 bf 12 dc f1 be 79 dd df be
       -0.07306071 -0.6308441 -0.47238213 -0.43723658
000060 5b b7 d5 be 59 25 68 be 2e 03 11 be 0d 6b 2f bd
       -0.41741452 -0.22670497 -0.14161369 -0.0428267
000070 18 f8 26 bf 62 98 00 bf df 90 ca be 43 00 be be
       -0.6522231 -0.5023252 -0.39563653 -0.37109575
000080 f1 0a 86 be 2c 77 d3 bd 86 cf 08 bd 08 f9 09 bf
       -0.26180223 -0.103254646 -0.033401035 -0.53895617
000090 01 89 c9 be 71 89 aa be 09 41 af be 32 26 64 be
       -0.39362338 -0.33307984 -0.34229305 -0.22280195
0000a0 76 06 b7 bd a2 35 84 bd 7d e0 0f bf b7 fb cf be
       -0.08936779 -0.06455542 -0.56201917 -0.4062173
0000b0 34 6f 9b be bb d1 85 be 64 3d 46 be ed a0 ab bd
       -0.3035828 -0.26136574 -0.19359356 -0.083803035
0000c0 80 03 81 bd 1d 7d 6c 3e a3 63 37 3e 20 5e ca 3d
       -0.06299496 0.23094602 0.17909102 0.09881234
0000d0 19 2f 0b 3e 16 9b 00 3e 2a f3 4f 3e 4f 7c 2e 3e
       0.13592185 0.1255916 0.20307603 0.17039607
0000e0 ac 0f 3b 3e 15 c3 35 3d a3 a8 3d 3d 0e c4 93 3d
       0.18267697 0.044375498 0.046303403 0.07215129
0000f0 b7 8e 11 3e 54 e8 37 3e 02 eb 4a 3e 6c 35 55 3e
       0.14214598 0.1795972 0.19816211 0.2082116
000100 4c 55 93 3d cd 0f 0e 3c f3 67 0c 3d 0d 6b 15 3e
       0.071940035 0.008670759 0.03427882 0.14591618
000110 3b 82 21 3e ca d8 55 3e ed 5d 5b 3e 86 13 09 bc
       0.15772335 0.2088348 0.21422549 -0.008366471
000120 1e bb 09 bc 09 e9 db 3b 8c 6a b2 3d 29 68 27 3e
       -0.008406429 0.0067111296 0.087117285 0.16348328
000130 ca fe 7e 3e 70 61 51 3e 9d b6 12 3e 90 49 93 3d
       0.24901882 0.20447326 0.14327474 0.07191765
000140 8e 9b b7 3d 1f 0c 5c 3e bc 63 88 3e 3d ee 61 3e
       0.089652166 0.21488999 0.2663859 0.22063537
000150 cd 66 ad 3e c3 96 5e 3e bd e8 18 3e 16 c5 50 3e
       0.33867493 0.21737199 0.14932533 0.20387682
000160 1a b1 66 3e 05 aa 8f 3e 16 c1 9c 3e ea 62 ab 3e
       0.22528496 0.28059402 0.30616063 0.33473903
000170 2b b5 86 3e 7b 02 80 3e 91 10 88 3e 97 2b a2 3e
       0.26310095 0.25001892 0.2657514 0.3167388
000180 65 ac 94 3e bc b2 b0 3e d0 9e 58 3e 3e 9d 65 3e
       0.29037777 0.34511364 0.21154332 0.22423264
000190 cc b6 74 3e d5 ff 16 3e 58 df ab 3d e7 5e bd 3d
       0.23897856 0.1474603 0.08392209 0.09246617
0001a0 e5 a9 2c 3e 2f 36 27 3e b1 8b 41 3e 26 6a 5c 3e
       0.16861685 0.16329263 0.18900944 0.21524867
0001b0 be 36 46 3e 72 03 e4 3d 3e fb 1a 3e 24 13 f5 3d
       0.1935682 0.1113347 0.15134904 0.119665414
0001c0 26 27 59 3e 18 99 61 3e 75 a8 5b 3e f5 87 1c 3e
       0.2120634 0.22031057 0.2145098 0.15286238
0001d0 cb 82 a9 3d 67 d2 f3 3d e1 1e fa 3d 22 3b 24 3e
       0.082769 0.119053654 0.12212921 0.16038182
0001e0 37 13 28 3e 92 39 4f 3e 82 e9 26 3e 33 66 ec 3d
       0.1641358 0.20236805 0.16300014 0.115429305
0001f0 f4 2b 97 3d 0b cb 19 3e 11 eb e2 3d bf 5a 4a 3e
       0.0738143 0.15018861 0.110799916 0.1976118
000200 53 55 54 3e eb 2e 3e 3e bc 28 35 3e 03 57 c9 3d
       0.20735674 0.18572585 0.1769132 0.09831049
000210 d8 f1 07 3e 30 27 f2 3d 67 5e 34 3e 6e 7b f8 3d
       0.1327585 0.11823881 0.17614137 0.12132917
000220 52 dd 36 3e 5b f3 e6 3d 15 e1 a0 3d 3a 3b f1 3d
       0.17857864 0.11276885 0.07855431 0.11778875
000230 e1 33 15 3e a9 7e e2 3d af 84 13 3e c8 7a 07 3e
       0.14570571 0.11059315 0.14406084 0.13230431
000240 c0 9a 09 3e fd 3b e8 3d de 89 98 3d 5f 01 32 bf
       0.13437939 0.11339567 0.07448171 -0.6953334
000250 ae ab 12 bf 13 91 fc be 31 6c e8 be 1e 8a d3 be
       -0.5729321 -0.49329433 -0.45395043 -0.41316313
000260 8b 5e e0 be f1 cd e0 be 63 2c 21 bf 95 05 17 bf
       -0.4382213 -0.4390712 -0.62958354 -0.5899289
000270 68 23 04 bf 2b 79 00 bf ba 55 e8 be ca f8 e4 be
       -0.51616526 -0.5018489 -0.45377904 -0.4472106
000280 2e 9b d4 be 9b b4 25 bf f7 26 12 bf 39 29 05 bf
       -0.41524643 -0.6472871 -0.57090706 -0.52016026
000290 ac 9e f9 be 5d 8f d7 be 12 79 bd be ea 23 d9 be
       -0.4875387 -0.42101565 -0.37006432 -0.42410213
0002a0 b5 1c 23 bf 70 e4 0e bf c0 98 08 bf 08 8e fa be
       -0.6371568 -0.5581732 -0.5335808 -0.48936486
0002b0 27 98 e6 be 38 8b e8 be 4c 2c e3 be 23 06 14 bf
       -0.45037958 -0.45418715 -0.44369733 -0.57821864
0002c0 8e af f8 be 3a a4 f9 be 2c 1f d6 be 46 83 e1 be
       -0.48571438 -0.48758107 -0.41820657 -0.44045466
0002d0 cc ac cd be 0d ba d8 be 34 65 25 bf 15 98 02 bf
       -0.40170896 -0.42329445 -0.6460755 -0.5101331
0002e0 1c ae 05 bf b0 09 01 bf 34 7c d9 be 8a b5 c5 be
       -0.52218795 -0.50405407 -0.42477572 -0.38615066
0002f0 aa c3 e8 be 39 ac 3f bf ce a9 17 bf 59 02 14 bf
       -0.4546178 -0.74872166 -0.59243476 -0.5781608
000300 d4 8c f5 be b3 63 e1 be a8 23 d5 be 1c c0 f6 be
       -0.47959006 -0.44021377 -0.41628766 -0.48193443
000310 d4 97 5f 3f ad 39 5b 3f 25 5f 6d 3f c3 0b 5f 3f
       0.87341046 0.8563488 0.92723304 0.8712732
000320 7f 8b 5d 3f 99 ac 52 3f 87 98 42 3f 3a 47 5f 3f
       0.8654098 0.82294613 0.7601399 0.8721806
000330 19 4e 6a 3f 96 9d 7c 3f 04 1f 67 3f 23 52 57 3f
       0.9152542 0.9867796 0.902817 0.84109706
000340 4d 4b 56 3f 24 df 43 3f e3 4e 67 3f 9d dc 6d 3f
       0.8370865 0.7651236 0.90354747 0.92914754
000350 63 f2 7f 3f 20 7a 6b 3f da 7f 60 3f ee a5 59 3f
       0.9997923 0.9198322 0.87695086 0.85018814
000360 0d 58 57 3f 7a 5f 6a 3f ba d7 72 3f d9 f2 76 3f
       0.8411873 0.91551936 0.9486042 0.96464306
000370 66 67 80 3f fa da 6d 3f ee 6c 65 3f 45 03 5a 3f
       1.0031555 0.92912257 0.8961934 0.8516124
000380 66 86 5c 3f a7 de 5f 3f d6 2b 6d 3f 52 25 72 3f
       0.86142576 0.87449116 0.92645013 0.94588196
000390 22 12 71 3f 36 49 79 3f 1c ec 64 3f 95 1c 51 3f
       0.94168293 0.97377336 0.89422774 0.8168424
0003a0 e9 ee 66 3f 97 13 71 3f 8e aa 69 3f eb 81 5e 3f
       0.902083 0.94170517 0.9127587 0.8691699
0003b0 27 24 59 3f 58 46 64 3f c5 89 49 3f 4f 14 48 3f
       0.8482079 0.89169836 0.78725845 0.7815599
0003c0 e7 d2 65 3f dd a8 65 3f 84 6e 4f 3f be ab 5f 3f
       0.89774936 0.8971079 0.8102801 0.8737143
0003d0 e3 33 4d 3f f6 93 95 bc d5 ca be 3d 78 54 cd 3d
       0.801573 -0.01825903 0.09316031 0.10025877
0003e0 bb b3 09 3e e1 10 52 3d 5a 8a 58 bd d1 ac 64 bd
       0.13447468 0.05128563 -0.052866317 -0.055828873
0003f0 d5 a8 45 bb a9 f0 8f 3d 75 3a 8a 3d 84 d9 ca 3d
       -0.0030160446 0.07028324 0.06749431 0.09904769

model.combined_conv_layers.0.bias f4 [32]
000000 5e 5e fb be 99 7e 30 3f 89 8e ae be d0 2d 35 3e
       -0.49095434 0.6894317 -0.3409312 0.17693257
000010 cf e6 02 bf b1 9c cd be 1c ce 67 be 42 f5 7f bd
       -0.51133436 -0.4015861 -0.22637218 -0.062489755
000020 6f 42 9f be 5d a1 29 3f c2 1e 1f 3e 49 fe 5a 3c
       -0.31105372 0.66261846 0.15539077 0.01336629
000030 fc d4 08 be 8c 77 bf 3d f3 ab bb be 3b 12 1f 3e
       -0.13362497 0.09348974 -0.36654624 0.15534298
000040 6f 4f de be a3 af 1c 3e ea b2 65 bf bb 1a 19 bd
       -0.43419978 0.15301375 -0.89726126 -0.037379008
000050 31 ce 56 be dc 27 2b bf c9 56 3e bf d2 88 e0 3e
       -0.20977093 -0.66857696 -0.74351174 0.43854386
000060 01 d8 61 3e fb 18 1a bf 6f eb e6 3e 5d dd c6 3e
       0.22055055 -0.6019437 0.45101497 0.38840762
000070 48 9e 7a be 6f f8 8f 3e 55 ea 65 3c 50 35 b0 3e
       -0.24474442 0.28119227 0.01403292 0.34415674

mapping_layer.weight f4 [1, 8, 1, 1]
000000 0f 7a 69 c0 a0 d5 b6 3f 7e 0d 72 3f 33 c7 03 3f
       -3.6480749 1.4283943 0.9455184 0.5147583
000010 cb 97 8b 3f 89 df b0 3f a2 19 3c bf 35 0d 21 bf
       1.0905699 1.3818218 -0.7347661 -0.6291078

exp_avg f4 [32, 9, 7, 7]
000000 8b 92 9c b7 11 c8 99 b6 8c 92 4f b6 bf 20 93 b5
       -1.8664889e-05 -4.583046e-06 -3.0930705e-06 -1.0961884e-06
000010 57 e6 78 34 0f 93 f6 34 40 67 36 35 c2 a5 67 b7
       2.3180597e-07 4.592807e-07 6.795053e-07 -1.3807266e-05
000020 5e 32 d9 b5 c2 88 1a b6 60 21 d8 b4 cb 61 91 34
       -1.6182419e-06 -2.3027392e-06 -4.025742e-07 2.7079508e-07
000030 41 90 14 35 24 ea 53 35 03 e1 ce b6 dc 33 fc b4
       5.5344213e-07 7.8944345e-07 -6.165473e-06 -4.697639e-07
000040 5c 4c 88 b5 4b 0a 66 34 69 f6 0a 35 eb e9 57 35
       -1.0155013e-06 2.1424164e-07 5.176758e-07 8.0434137e-07
000050 6a 09 86 35 c7 3e 72 b5 1d 0d 0c 35 ec f4 01 35
       9.986518e-07 -9.024338e-07 5.2173147e-07 4.8412653e-07
000060 60 43 34 35 a2 bc 82 35 15 d4 a1 35 b3 f9 b1 35
       6.715327e-07 9.740654e-07 1.2057159e-06 1.32602e-06
000070 56 cf 50 35 5e d1 3b 35 fc 43 45 35 fa db 4b 35
       7.778775e-07 6.99676e-07 7.348715e-07 7.59435e-07
000080 fd 71 92 35 d7 d6 ab 35 6a 4c b5 35 dc 0f 28 35
       1.0911023e-06 1.280302e-06 1.350779e-06 6.2607955e-07
000090 73 2d 03 35 cb 6b 04 35 47 47 fd 34 bf c0 4e 35
       4.886744e-07 4.933069e-07 4.7176783e-07 7.702146e-07
0000a0 8c 62 81 35 8a c4 8d 35 e5 cd 11 35 04 44 c6 34
       9.63993e-07 1.0562519e-06 5.4316325e-07 3.6929862e-07
0000b0 39 22 97 34 bc aa 30 34 c4 ba d9 34 d3 66 24 35
       2.8150842e-07 1.645339e-07 4.055529e-07 6.124439e-07
0000c0 d7 fe 48 35 44 0c ff 35 46 19 1a 36 ed 30 3a 36
       7.4876647e-07 1.900255e-06 2.29625e-06 2.7744638e-06
0000d0 80 c3 2f 36 21 b4 09 36 06 17 4f 35 d3 70 20 35
       2.6190828e-06 2.051944e-06 7.714701e-07 5.9768826e-07
0000e0 fa 48 e7 35 ae 80 0d 36 83 65 2e 36 d8 7f 25 36
       1.723208e-06 2.1085539e-06 2.5987108e-06 2.466133e-06
0000f0 91 07 32 35 89 79 fc 34 e7 19 73 34 69 a7 c3 35
       6.632118e-07 4.7027086e-07 2.2640562e-07 1.4577355e-06
000100 f5 6d f8 35 47 39 1e 36 8a 71 16 36 03 df 66 34
       1.8509442e-06 2.3577174e-06 2.241783e-06 2.150155e-07
000110 1a 6f 20 34 51 b4 d4 b3 b5 fd 98 35 aa 65 c4 35
       1.494158e-07 -9.904819e-08 1.1398721e-06 1.4632726e-06
000120 89 80 fd 35 86 bc ab 35 4f c0 c9 b4 58 0b af b4
       1.8887378e-06 1.279536e-06 -3.757909e-07 -3.2604544e-07
000130 7b 0f db b4 ae 2d 64 35 74 51 8b 35 71 08 a6 35
       -4.0803192e-07 8.500309e-07 1.0380013e-06 1.237042e-06
000140 8c 95 59 b5 6c cf 70 b5 92 99 4e b5 6c 03 2f b5
       -8.105642e-07 -8.9708806e-07 -7.6964454e-07 -6.519756e-07
000150 84 f5 57 35 dd 57 81 35 fa df 8f 35 50 69 87 b5
       8.0451014e-07 9.63682e-07 1.0719516e-06 -1.0088934e-06
000160 d1 99 89 b5 f5 bf 67 b5 58 0c 38 b5 e3 3b 43 35
       -1.0252062e-06 -8.633354e-07 -6.8563304e-07 7.273031e-07
000170 ed 2a 6a 35 73 fe 2b b5 f4 da 99 b5 1c 08 90 b5
       8.723426e-07 -6.4072736e-07 -1.1463112e-06 -1.0731196e-06
000180 c0 8f 6a b5 c2 b9 31 b5 09 48 de b5 56 0d e5 b5
       -8.7380977e-07 -6.620795e-07 -1.6561254e-06 -1.7065711e-06
000190 fe 1f 06 b6 e4 ef 90 b3 1d 1c a9 34 95 b3 6b 34
       -1.9986178e-06 -6.7491584e-08 3.1499158e-07 2.1951412e-07
0001a0 fa eb 86 34 11 8d d2 b5 37 a1 d2 b5 ca 5c c6 b5
       2.513114e-07 -1.5687275e-06 -1.5693139e-06 -1.4779155e-06
0001b0 8a f3 f4 34 49 a5 e9 34 2d 2a b3 34 be 4f a0 34
       4.562574e-07 4.3519893e-07 3.3372035e-07 2.9860342e-07
0001c0 73 83 be b5 fb e8 b5 b5 3c b2 03 b5 5d 8b 25 35
       -1.419436e-06 -1.3553357e-06 -4.906067e-07 6.167009e-07
0001d0 77 51 04 35 66 52 c7 34 df e1 a6 34 a2 72 a8 b5
       4.929238e-07 3.712659e-07 3.1084252e-07 -1.2550338e-06
0001e0 30 5f cc b5 52 20 36 34 0b f4 41 35 c1 b4 17 35
       -1.5226888e-06 1.6961829e-07 7.225323e-07 5.6514915e-07
0001f0 ac cc e2 34 67 69 bc 34 2b e5 ae b5 d9 51 8a b5
       4.22447e-07 3.509442e-07 -1.3030707e-06 -1.0305622e-06
000200 ae 27 ba 34 cd 58 40 35 b0 7b 19 35 ab ab eb 34
       3.467407e-07 7.1654796e-07 5.717693e-07 4.3897066e-07
000210 2d b4 c8 34 98 95 c0 b5 9b da bc b3 42 01 cc 34
       3.7383998e-07 -1.4348652e-06 -8.794196e-08 3.7998876e-07
000220 3f 06 3b 35 d3 cf 1c 35 8e 8c fe 34 fa 01 e0 34
       6.967202e-07 5.841695e-07 4.7413454e-07 4.172469e-07
000230 c4 f0 b1 b5 95 35 a3 34 f9 dd d8 34 8e e9 39 35
       -1.32576e-06 3.0400102e-07 4.0394642e-07 6.925774e-07
000240 2e 49 23 35 9b 19 0c 35 14 94 fe 34 e0 e2 8d b2
       6.082872e-07 5.2191325e-07 4.7418928e-07 -1.6517731e-08
000250 24 d8 9e b2 20 4f da b2 bf ea 8f b3 69 11 40 b4
       -1.849191e-08 -2.5414522e-08 -6.7016565e-08 -1.7887727e-07
000260 00 2e 17 b5 9b c3 81 b5 9c 55 ab b2 f9 55 d8 b2
       -5.631882e-07 -9.668178e-07 -1.994595e-08 -2.5184805e-08
000270 55 df d1 b2 3c 01 2d b2 ad 51 c2 b3 85 d7 fc b4
       -2.4432362e-08 -1.0070206e-08 -9.048686e-08 -4.709547e-07
000280 43 aa 73 b5 35 fb e6 b2 fa 12 04 b3 bc e7 f4 b2
       -9.077232e-07 -2.688976e-08 -3.0750904e-08 -2.851072e-08
000290 c8 de dc 31 32 49 5b b3 30 5e d8 b4 53 9e 67 b5
       6.42817e-09 -5.105648e-08 -4.0301666e-07 -8.62846e-07
0002a0 bc 4c 00 b3 c2 78 fb b2 f3 63 be b2 30 85 d6 32
       -2.9872112e-08 -2.927516e-08 -2.2164363e-08 2.4973446e-08
0002b0 b1 6d 87 b2 65 3d b4 b4 bd 76 5d b5 41 f9 11 b3
       -1.576595e-08 -3.3572283e-07 -8.25017e-07 -3.398714e-08
0002c0 c5 bf dc b2 d1 4d 68 b2 81 6b 11 33 57 e4 3d 32
       -2.5698577e-08 -1.3521871e-08 3.3858218e-08 1.1053166e-08
0002d0 f8 de 9e b4 a7 ad 5e b5 a5 af fb b2 af 74 e4 b2
       -2.9592024e-07 -8.295414e-07 -2.930012e-08 -2.6595755e-08
0002e0 80 09 6c b1 f9 b8 bb 32 28 16 73 b2 6c ec a8 b4
       -3.434792e-09 2.1853781e-08 -1.4149499e-08 -3.1464458e-07
0002f0 dc f4 6f b5 66 5c 17 b3 3d 9b 3d b3 4b ac 56 b3
       -8.9390755e-07 -3.5241463e-08 -4.414618e-08 -4.9982457e-08
000300 f2 14 3b b3 3e 99 cd b3 f5 90 cd b4 b7 1d 85 b5
       -4.355838e-08 -9.573931e-08 -3.8289696e-07 -9.91792e-07
000310 b7 0a fe b5 3e 38 f9 b5 8a 0d df b5 a5 8f 7c b5
       -1.8927593e-06 -1.8568314e-06 -1.6618735e-06 -9.4086346e-07
000320 02 3f cb b4 1b 4a 9b b4 6e 3c 88 b4 e4 97 0f b6
       -3.785754e-07 -2.892492e-07 -2.5375942e-07 -2.1397072e-06
000330 d8 f4 0d b6 33 61 fc b5 95 a8 94 b5 a1 a9 de b4
       -2.1153155e-06 -1.8803752e-06 -1.1075923e-06 -4.1474144e-07
000340 25 d4 9b b4 a6 25 7d b4 da 1d 1c b6 46 1e 1d b6
       -2.9025355e-07 -2.3576158e-07 -2.3263187e-06 -2.3412445e-06
000350 c5 e7 0f b6 93 34 b7 b5 6f 5f 09 b5 d8 0d 9c b4
       -2.1443568e-06 -1.3649864e-06 -5.117535e-07 -2.9067337e-07
000360 b0 f5 5f b4 d0 e9 21 b6 25 38 25 b6 03 63 1b b6
       -2.0857874e-07 -2.4126966e-06 -2.4619596e-06 -2.3154432e-06
000370 41 dd d6 b5 bd 18 32 b5 7d b3 cb b4 a0 0a 83 b4
       -1.6008636e-06 -6.6346166e-07 -3.7942291e-07 -2.4408382e-07
000380 9a 39 1e b6 c6 10 21 b6 ef f4 18 b6 e1 35 dd b5
       -2.3577363e-06 -2.4000633e-06 -2.2792335e-06 -1.6481464e-06
000390 c7 af 52 b5 19 0b 06 b5 53 29 be b4 bd f6 12 b6
       -7.8486886e-07 -4.993504e-07 -3.5420325e-07 -2.1899316e-06
0003a0 41 42 15 b6 54 de 0f b6 b4 51 d4 b5 f5 ef 51 b5
       -2.2241295e-06 -2.1438073e-06 -1.581901e-06 -7.820775e-07
0003b0 91 a3 03 b5 f6 96 d9 b4 44 fa 0c b6 28 40 10 b6
       -4.9039323e-07 -4.0529238e-07 -2.10073e-06 -2.1495016e-06
0003c0 ab b3 0c b6 50 bb d2 b5 ff 21 5d b5 2a b5 05 b5
       -2.0966206e-06 -1.5700734e-06 -8.2378386e-07 -4.980999e-07
0003d0 b5 f9 ed b4 21 2b 9d b5 e5 05 b6 b5 dc 92 ea b5
       -4.4326376e-07 -1.1709964e-06 -1.3561772e-06 -1.74771e-06
0003e0 90 01 14 b6 55 5a 8e b5 32 dd ac 33 98 77 af 34
       -2.2054628e-06 -1.0606115e-06 8.049609e-08 3.2683306e-07
0003f0 82 ba 72 b5 49 c3 91 b5 83 5a c3 b5 ba 7d f8 b5
       -9.042343e-07 -1.0860177e-06 -1.4554975e-06 -1.8514031e-06

exp_avg_sq f4 [32, 9, 7, 7]
000000 dd f8 e6 30 7a c3 e2 30 70 c4 eb 30 ca 2a fb 30
       1.6805434e-09 1.6499222e-09 1.7154331e-09 1.8274815e-09
000010 98 7e f6 30 cf 7e f1 30 47 36 ec 30 ca f7 e8 30
       1.7934836e-09 1.7571099e-09 1.7186687e-09 1.6950648e-09
000020 d2 2b ec 30 82 63 f7 30 3b 36 04 31 90 cd 01 31
       1.7183714e-09 1.7999897e-09 1.9239355e-09 1.888882e-09
000030 73 b6 fd 30 cf b1 f7 30 b7 66 ed 30 1d 67 f5 30
       1.8460028e-09 1.8022152e-09 1.7273213e-09 1.7855403e-09
000040 9d 0b 01 31 64 64 0a 31 20 f2 07 31 d3 bf 04 31
       1.8778572e-09 2.0138708e-09 1.9782718e-09 1.9317568e-09
000050 dd 3e 01 31 1f 2b f3 30 68 c3 fd 30 c7 d1 05 31
       1.8807704e-09 1.7692833e-09 1.8463711e-09 1.9473292e-09
000060 6c b1 0f 31 0e 3e 0d 31 16 17 0a 31 27 2d 06 31
       2.0910091e-09 2.0553474e-09 2.0094766e-09 1.9525233e-09
000070 6d 24 eb 30 7f 53 f6 30 d1 1c 02 31 e5 a0 0b 31
       1.7108853e-09 1.7922587e-09 1.893387e-09 2.031862e-09
000080 1e 6d 09 31 fb b4 06 31 dd c0 02 31 12 23 e3 30
       1.999815e-09 1.9602442e-09 1.902712e-09 1.6526391e-09
000090 7b 17 ee 30 4f cf fb 30 bc 27 07 31 98 40 05 31
       1.7323453e-09 1.8321574e-09 1.9667672e-09 1.9390765e-09
0000a0 6d e7 02 31 5f 3f fe 30 0d 0f da 30 3b 5c e4 30
       1.904904e-09 1.8498943e-09 1.5865865e-09 1.6615397e-09
0000b0 d2 5c f1 30 1d 9f 01 31 9f 28 00 31 31 27 fc 30
       1.7561439e-09 1.8862416e-09 1.8649542e-09 1.8346552e-09
0000c0 66 32 f5 30 44 57 5d 30 37 37 6a 30 e2 0d 78 30
       1.784042e-09 8.0523344e-10 8.520717e-10 9.0241603e-10
0000d0 71 bc 85 30 e9 e6 83 30 9f 29 81 30 fb 4e 7b 30
       9.730582e-10 9.597133e-10 9.397815e-10 9.1425506e-10
0000e0 a7 6c 67 30 6e 0b 76 30 36 da 82 30 c2 57 8d 30
       8.4191715e-10 8.951052e-10 9.520764e-10 1.0284043e-09
0000f0 37 09 8b 30 e8 c8 87 30 46 93 83 30 a2 3b 70 30
       1.01162e-09 9.879644e-10 9.573362e-10 8.7396235e-10
000100 15 5f 80 30 8a 48 89 30 ed 96 94 30 f1 f3 91 30
       9.34025e-10 9.988679e-10 1.0811313e-09 1.0619471e-09
000110 e2 12 8e 30 fe 24 89 30 1f 0e 77 30 d0 96 84 30
       1.0337227e-09 9.978576e-10 8.9878144e-10 9.647128e-10
000120 ab 53 8e 30 26 17 9a 30 e2 6e 97 30 b8 44 93 30
       1.035564e-09 1.1211554e-09 1.1018211e-09 1.0715189e-09
000130 b1 e6 8d 30 93 6b 6e 30 56 19 80 30 b7 94 89 30
       1.0324667e-09 8.673677e-10 9.320427e-10 1.0010329e-09
000140 6e e1 94 30 b7 9d 92 30 96 ba 8e 30 71 85 89 30
       1.0832488e-09 1.0667723e-09 1.0384891e-09 1.0005988e-09
000150 a9 d2 65 30 04 88 76 30 2e 16 84 30 8e b2 8e 30
       8.360908e-10 8.968757e-10 9.610568e-10 1.0382608e-09
000160 da e0 8c 30 2b 89 89 30 4c da 84 30 2c e5 5c 30
       1.0250247e-09 1.0007047e-09 9.666308e-10 8.0361207e-10
000170 0e 54 6c 30 3e f6 7b 30 ce d5 87 30 42 72 86 30
       8.597575e-10 9.16632e-10 9.88331e-10 9.782257e-10
000180 e2 9d 83 30 6d 1b 7f 30 4b 50 a0 30 df 11 a7 30
       9.576377e-10 9.2807434e-10 1.1664353e-09 1.2155928e-09
000190 dc 6a ae 30 44 13 b8 30 8a bc b6 30 18 90 b3 30
       1.2690538e-09 1.3393238e-09 1.3295829e-09 1.3064918e-09
0001a0 06 ad ae 30 d3 bc a6 30 03 07 ae 30 30 df b5 30
       1.2709342e-09 1.2131757e-09 1.2662159e-09 1.3232917e-09
0001b0 0c 00 c0 30 56 ae be 30 fd 51 bb 30 35 06 b6 30
       1.3969852e-09 1.3873869e-09 1.3629343e-09 1.3244007e-09
0001c0 9e 7c ac 30 e2 2d b4 30 5c 57 bc 30 57 ef c6 30
       1.2550065e-09 1.3109764e-09 1.3703629e-09 1.447442e-09
0001d0 3e a7 c5 30 3b 26 c2 30 e4 85 bc 30 9a 26 b1 30
       1.438117e-09 1.4126224e-09 1.3716854e-09 1.2889416e-09
0001e0 71 28 b9 30 cc 8c c1 30 9d 8a cc 30 99 48 cb 30
       1.3472016e-09 1.4082615e-09 1.488235e-09 1.4790827e-09
0001f0 56 aa c7 30 f1 e5 c1 30 18 10 ac 30 08 bf b3 30
       1.4527568e-09 1.4107951e-09 1.2519221e-09 1.3078258e-09
000200 b0 f1 bb 30 8b a4 c6 30 b7 81 c5 30 9b 09 c2 30
       1.3674732e-09 1.4453162e-09 1.4370504e-09 1.4118088e-09
000210 83 84 bc 30 ee 0d a6 30 b2 6f ad 30 18 7e b5 30
       1.3716462e-09 1.2082049e-09 1.2619152e-09 1.3205321e-09
000220 82 e8 bf 30 0f f0 be 30 4a c1 bb 30 a7 a1 b6 30
       1.3963162e-09 1.3892548e-09 1.3660977e-09 1.3288187e-09
000230 79 d9 9e 30 bb f8 a5 30 0a d7 ad 30 94 02 b8 30
       1.1557822e-09 1.2076024e-09 1.2648524e-09 1.3388495e-09
000240 c8 4a b7 30 14 79 b4 30 50 d1 af 30 63 42 38 2f
       1.3336257e-09 1.3131136e-09 1.2792416e-09 1.6758288e-10
000250 f4 c2 36 2f f4 24 35 2f 90 97 34 2f 4c 0f 2e 2f
       1.6622065e-10 1.6474982e-10 1.642475e-10 1.5830642e-10
000260 2e 0e 28 2f 57 60 23 2f 12 ca 3c 2f e3 1b 3d 2f
       1.5284549e-10 1.485899e-10 1.717029e-10 1.7199357e-10
000270 66 c1 3c 2f e3 18 3d 2f 5c a4 36 2f 97 44 2f 2f
       1.716721e-10 1.7198291e-10 1.6611196e-10 1.5940525e-10
000280 a5 8e 28 2f d0 95 3d 2f ed cf 3f 2f 39 33 41 2f
       1.5330189e-10 1.7242674e-10 1.7445219e-10 1.7571446e-10
000290 2a a4 42 2f f3 d0 3c 2f 3b 5f 35 2f a5 e0 2d 2f
       1.770252e-10 1.7172734e-10 1.6495687e-10 1.5814068e-10
0002a0 ef 44 3c 2f 20 6d 40 2f 6a 94 43 2f 22 8c 46 2f
       1.712299e-10 1.7501067e-10 1.7787874e-10 1.805778e-10
0002b0 75 ed 41 2f 24 57 3b 2f fd 4e 34 2f 77 e5 33 2f
       1.763761e-10 1.703851e-10 1.6398967e-10 1.6361477e-10
0002c0 49 18 39 2f ce 3f 3d 2f 1d 1f 41 2f 1c 09 3e 2f
       1.683428e-10 1.7212118e-10 1.7564301e-10 1.7283636e-10
0002d0 15 ef 38 2f 5a 29 33 2f c1 19 2d 2f be 0b 32 2f
       1.6819642e-10 1.6294646e-10 1.5743408e-10 1.6193177e-10
0002e0 b7 ab 36 2f 26 38 3b 2f 49 2d 39 2f fb 63 35 2f
       1.6613809e-10 1.7027499e-10 1.684174e-10 1.6497374e-10
0002f0 51 d3 30 2f 9f 82 29 2f d3 3c 2d 2f d0 44 31 2f
       1.6082181e-10 1.5416866e-10 1.5755867e-10 1.6122503e-10
000300 21 fa 35 2f d2 8e 34 2f ae b8 31 2f 0c dc 2d 2f
       1.6550718e-10 1.6421645e-10 1.6163668e-10 1.5812435e-10
000310 1e 31 bd 2e 97 03 ca 2e 9c 22 de 2e c7 a2 fc 2e
       8.60345e-11 9.186534e-11 1.0101539e-10 1.1488548e-10
000320 a3 79 f8 2e be bd f3 2e ab a0 ed 2e 84 11 cc 2e
       1.1299341e-10 1.10840656e-10 1.08060526e-10 9.2799574e-11
000330 96 c9 da 2e 65 3c f1 2e b3 d8 08 2f 73 0a 06 2f
       9.949301e-11 1.09701394e-10 1.2446115e-10 1.2190941e-10
000340 3a 27 03 2f 9e 70 ff 2e 3b a2 dc 2e f6 66 ee 2e
       1.1928317e-10 1.1616062e-10 1.00332596e-10 1.08412765e-10
000350 a5 bb 04 2f ae 50 17 2f 3e c7 13 2f f8 ee 0f 2f
       1.2071995e-10 1.3762033e-10 1.3440357e-10 1.3090673e-10
000360 bf 2e 0b 2f 7a 13 f0 2e 13 d3 02 2f a5 bd 13 2f
       1.2658584e-10 1.0917396e-10 1.189842e-10 1.3436947e-10
000370 80 b6 2a 2f f0 d2 26 2f 2d ac 21 2f ac 9c 1b 2f
       1.5526247e-10 1.5172552e-10 1.4704034e-10 1.4152829e-10
000380 bf 59 e3 2e 69 08 f8 2e 19 ac 0c 2f 00 c0 22 2f
       1.0338707e-10 1.1279228e-10 1.2794067e-10 1.4802026e-10
000390 7f 44 20 2f 24 df 1c 2f 48 ac 17 2f 13 93 d8 2e
       1.457625e-10 1.4267393e-10 1.3794577e-10 9.8486684e-11
0003a0 5e 8d ec 2e 87 6f 06 2f d2 b4 1b 2f fe 9f 19 2f
       1.0757149e-10 1.2226851e-10 1.4161408e-10 1.397211e-10
0003b0 6e 43 17 2f 23 b7 13 2f b2 66 cd 2e 3c 15 e0 2e
       1.3757326e-10 1.3434635e-10 9.340563e-11 1.01901126e-10
0003c0 15 a7 fe 2e 77 57 13 2f 76 35 11 2f 97 6f 0f 2f
       1.15802624e-10 1.3400646e-10 1.3206666e-10 1.3045419e-10
0003d0 35 08 0d 2f 04 f9 ab 30 ca d0 b7 30 71 a6 c3 30
       1.2826791e-10 1.2512662e-09 1.3374344e-09 1.4235423e-09
0003e0 2a 14 d2 30 97 74 cf 30 f5 ac cc 30 8f 7f c9 30
       1.5285242e-09 1.5094369e-09 1.4892111e-09 1.4660929e-09
0003f0 5a ef b2 30 20 08 c0 30 3b 3b cd 30 f5 b4 dc 30
       1.3019232e-09 1.3972148e-09 1.4932547e-09 1.6058538e-09

exp_avg f4 [32]
000000 96 e8 fd b5 20 22 53 b4 64 ad 0f b7 f0 fd 33 34
       -1.891766e-06 -1.9663321e-07 -8.563835e-06 1.6763056e-07
000010 bb 7e 84 35 a6 01 2c 36 cd 4c 51 32 7f 26 ad b8
       9.87165e-07 2.5630957e-06 1.2182864e-08 -8.256453e-05
000020 4b e4 49 b4 df d7 29 b6 e0 e9 57 36 5c 0d 88 b5
       -1.8802636e-07 -2.5308616e-06 3.217363e-06 -1.0136678e-06
000030 ea f6 a2 b7 aa e0 b8 b5 cb 83 db b6 d4 9e a1 b7
       -1.9426883e-05 -1.3774454e-06 -6.5420513e-06 -1.9266656e-05
000040 94 b8 4e b7 bf d0 31 b9 df 3a 48 b6 56 1a 85 35
       -1.2321532e-05 -0.000169578 -2.983659e-06 9.916937e-07
000050 c7 7e cc b9 46 0f 25 39 ae 8a 02 36 2e f3 7e ba
       -0.0003900437 0.00015741316 1.9452232e-06 -0.00097255677
000060 96 01 a1 b7 73 a1 b2 b6 e7 4a 33 b7 21 fa 98 37
       -1.9193434e-05 -5.3236085e-06 -1.0686671e-05 1.8236287e-05
000070 7b d4 8b b6 cc 41 85 37 45 97 19 36 52 00 8b b7
       -4.167259e-06 1.5885475e-05 2.2886827e-06 -1.657024e-05

exp_avg_sq f4 [32]
000000 ba 9c a1 31 5f da a2 35 f5 a8 52 34 c8 e6 9b 33
       4.7035345e-09 1.2133495e-06 1.961924e-07 7.259729e-08
000010 de c0 8c 32 9e a3 33 34 52 02 1c 31 c0 08 94 33
       1.6385851e-08 1.6730198e-07 2.2702307e-09 6.893379e-08
000020 8f 93 df 32 f1 aa 38 34 2e 0f 02 34 a0 47 60 34
       2.6027719e-08 1.7198523e-07 1.2112716e-07 2.0887683e-07
000030 c1 f8 1f 33 fe 26 70 36 f7 16 01 33 73 d2 e8 34
       3.7246313e-08 3.5785483e-06 3.005604e-08 4.336649e-07
000040 55 8b d9 34 e3 82 cb 37 c0 04 0f 37 c8 51 17 36
       4.0520777e-07 2.4260435e-05 8.52457e-06 2.2548356e-06
000050 6f 88 8e 36 cc 63 c1 37 a3 5d 20 34 2d 80 88 37
       4.2478127e-06 2.3053864e-05 1.4935226e-07 1.627215e-05
000060 4e 7f a4 34 2a 7d 41 35 31 c4 d9 35 32 e0 0b 36
       3.0640007e-07 7.208024e-07 1.6224859e-06 2.0843113e-06
000070 f9 c0 b6 35 25 1c bc 34 eb 91 96 34 72 f6 23 37
       1.3616219e-06 3.5038207e-07 2.8045847e-07 9.772937e-06

exp_avg f4 [1, 8, 1, 1]
000000 5c 63 44 3a 5a c1 2a ba 8e a7 e1 b4 49 8a 0f ba
       0.00074916123 -0.0006513797 -4.2031428e-07 -0.0005475623
000010 b1 df 4f ba 73 24 4b b8 3a ed 81 35 3f c0 1d 3b
       -0.0007929756 -4.8432918e-05 9.680291e-07 0.0024070886

exp_avg_sq f4 [1, 8, 1, 1]
000000 2b b1 82 36 d8 c7 fb 37 9e d2 8c 39 8f 91 08 38
       3.894927e-06 3.0014591e-05 0.00026859803 3.256049e-05
000010 14 5a 50 38 48 78 e4 37 73 33 a3 35 77 38 29 3a
       4.9674956e-05 2.7235728e-05 1.215942e-06 0.00064552523
