outputs/2025-01-04/17-00-04/model/ConvRNNCell_D1_K5_H4_SS3.1_04-17-00-05/model-epoch=01-validation_loss=1.33.ckpt (torch, 22110 bytes, 18 tensors)

model.bias f4 [4]
000000 76 4c be be da 38 05 40 34 c8 91 bf af d8 2b bf
       -0.3716771 2.081595 -1.1389222 -0.6712751

model.input_layers.0.weight f4 [4, 1, 5, 5]
000000 67 9f e6 bd db ac 92 be c1 40 89 be d4 90 dd be
       -0.11260872 -0.28647503 -0.26807216 -0.43274558
000010 67 10 85 be 23 2c cd be 58 63 2c be c5 7e be be
       -0.25989076 -0.40072736 -0.16834772 -0.37206092
000020 b0 b5 ce bd 4f c2 47 be 7e 7e ed bd cf d7 b5 be
       -0.10093248 -0.19507717 -0.11596392 -0.3551621
000030 78 c2 ef be 44 ee 5e be 0b 25 90 be b7 cd e6 be
       -0.46828055 -0.21770579 -0.28153262 -0.45078823
000040 14 f2 77 be fd cf 47 be 3d fb 7d be 7e 35 6c be
       -0.24213439 -0.19512935 -0.24802871 -0.2306728
000050 f6 c8 35 be dd 8a 7e be fe df 89 be a5 99 85 be
       -0.17752442 -0.2485766 -0.26928705 -0.26093784
000060 07 80 9d be 11 2e 47 3e e8 11 24 3d f3 17 40 3e
       -0.3076174 0.19451167 0.04005614 0.18759136
000070 c9 b0 12 be 08 ef f6 bd c0 bc bf 3b 59 bd bd 3c
       -0.1432525 -0.1205731 0.005851358 0.023161577
000080 c4 f3 91 3d 3d 4b 3c bd 3e c1 07 3e f8 39 30 bd
       0.07126573 -0.04597019 0.1325731 -0.043024033
000090 71 d7 30 3e 53 ec 9b 3d 76 e5 48 3d 33 48 8d 3d
       0.17269684 0.07613435 0.049046956 0.068985365
0000a0 ef 11 34 3e d2 c3 dd bd 2d bd 9d 3c 8e 4e 4d 3e
       0.17584966 -0.108283654 0.019255245 0.20049497
0000b0 e5 ac 82 3b d5 b6 3d 3e b2 5c 64 3d 45 75 eb 3d
       0.003987896 0.18526776 0.055752464 0.11496977
0000c0 8f fe fe bd e6 7e 19 3e 4b d9 83 bd 98 ac 57 3b
       -0.12450897 0.14989814 -0.0643793 0.003290927
0000d0 23 8d 92 be 9c 96 6a be e0 cf 23 bd a6 d4 ec bd
       -0.28623304 -0.22909015 -0.039993167 -0.11563997
0000e0 62 3e 7b be 7f 0a 54 bd 12 ac 8a be 82 ac f5 bd
       -0.24535516 -0.051767822 -0.27084404 -0.11995794
0000f0 33 cd 9d be cb 4d 51 3d d8 43 62 be a2 d8 f2 bd
       -0.30820617 0.05109958 -0.22096193 -0.11857726
000100 23 2b 9b 3d ad c8 25 be 59 0a c2 bd c4 ce 8f bd
       0.07576587 -0.16189833 -0.0947463 -0.07021859
000110 01 f3 8f be ae 98 88 be ab 8f 57 3d a7 ea 9b bc
       -0.28115085 -0.26678985 0.052627247 -0.01903279
000120 08 e3 6b be ce 85 95 be 42 db 8d be 8f ca a0 be
       -0.23035824 -0.29203647 -0.27706343 -0.3140454
000130 1d 9b 62 be 97 12 b6 be 84 51 11 bd 0a 9a a0 be
       -0.22129484 -0.35561058 -0.03547813 -0.31367522
000140 86 09 9f be 44 eb c7 be 66 cf 49 bd e0 84 b0 be
       -0.31061953 -0.3904668 -0.049270056 -0.34476376
000150 e0 69 a2 be 80 fe 44 be 39 eb 17 be f1 09 51 be
       -0.317214 -0.19237709 -0.14835824 -0.20413949
000160 2e 1f 89 bc 26 68 0a be 6f ef 86 be 7b e4 a0 be
       -0.0167385 -0.13516292 -0.26354548 -0.31424317
000170 a2 46 74 be be f7 39 be b3 9f 30 be 94 35 94 be
       -0.2385507 -0.18160912 -0.1724842 -0.28947127
000180 bd 07 ae bc 96 bf 8d be 9f 5d 27 be d9 25 b8 be
       -0.021243924 -0.2768523 -0.16344307 -0.35966375

model.input_layers.0.bias f4 [4]
000000 14 4b 4e 3e 99 49 0e 3e 13 3a 65 be cd 61 70 3e
       0.20145828 0.13895263 -0.22385435 0.23474808

model.hidden_layers.0.weight f4 [4, 4, 5, 5]
000000 69 9b a7 bd 86 a7 25 be 99 93 65 bc da 80 3b be
       -0.08183939 -0.16177186 -0.014012241 -0.18310872
000010 cb 75 ce bd f3 75 24 bd fc 75 90 bd 0e 0b 00 be
       -0.10081061 -0.040151548 -0.07053754 -0.12504217
000020 2f 67 17 bd 6e a5 14 bd 15 dc ef bd 6c 33 97 bd
       -0.036963638 -0.03629058 -0.11711899 -0.07382855
000030 79 cf d0 bd 73 2c 27 be ff b4 28 bd 0e 7b eb bd
       -0.10195822 -0.1632555 -0.041188236 -0.1149808
000040 3e 94 bf bd 48 6b 26 be b8 c0 31 bd 74 a4 3d be
       -0.09354447 -0.16251862 -0.04339668 -0.18519765
000050 e2 55 1d bd 77 1c 26 be 49 6e 11 be 13 93 03 bd
       -0.038411982 -0.16221796 -0.14202227 -0.032122683
000060 fb 8c 10 be 29 7a 3e 3e 35 ff fa 3c b6 62 08 3e
       -0.1411628 0.18601288 0.03063927 0.13318905
000070 be b8 28 bb cd e4 13 3e 1f c4 02 3d e3 8c 05 3d
       -0.002574488 0.1444275 0.031925317 0.032605063
000080 4b 52 9d 3d f3 56 0e 3e 6d f4 f8 3d ec ff 1f 3e
       0.07681712 0.13900356 0.121559955 0.1562497
000090 f7 e0 95 3d be 7e 33 3e df 3a 1f 3e 09 cd 85 3d
       0.07318299 0.17528817 0.15549801 0.06533248
0000a0 cd aa 3e 3e 1e fd f8 3d db 43 84 3d cd 0d ea 3b
       0.18619843 0.12157653 0.06458255 0.0071427585
0000b0 48 41 36 3e 10 65 33 3d da e9 18 3e e8 01 24 3e
       0.1779834 0.043797553 0.14932957 0.16016352
0000c0 a0 c0 3f 3e 7c 58 fa 3d 45 e0 e6 3c 4c 85 f3 3d
       0.18725824 0.12223908 0.028183112 0.11890659
0000d0 c7 22 e3 3d 78 82 e8 3c e5 30 be 3d 57 19 1d 3e
       0.110906176 0.028382525 0.0928667 0.15341698
0000e0 bb 61 b8 3d 11 b3 02 3e 30 03 44 3e 13 52 16 3e
       0.090030156 0.12763621 0.19141841 0.14679746
0000f0 7e f4 3b 3e 26 4c 00 3e d2 42 52 3d 07 5d b1 3d
       0.18354985 0.12529048 0.051333256 0.08660322
000100 2a c9 3d 3e bc 8c 2e 3d 9d f8 70 3c 93 33 d8 3d
       0.18533769 0.042614684 0.0147077115 0.10556712
000110 f1 84 9e 3d 4b 27 b2 3d 22 0d 21 3e ce c6 b5 3d
       0.077402 0.08698901 0.15727666 0.088758096
000120 5b c1 86 3d 24 ec af 3d fc 10 f4 3d fa ef 88 3d
       0.065798484 0.08589962 0.11917302 0.06686397
000130 bf 09 1f 3d 50 62 ca 3c b9 31 11 3e 8e 3b 07 3e
       0.038827654 0.024705082 0.14179124 0.13206312
000140 d6 51 c3 3d 24 be 1d 3e af 15 49 3e 9b 60 03 3e
       0.09537093 0.15404564 0.19637178 0.12829821
000150 77 9f 1b 3e 02 7f 41 3e 38 c5 ba 3c fc cd 57 3d
       0.1519755 0.18896106 0.02279912 0.052686676
000160 3e 85 13 3e dd 50 30 3c 67 57 aa 3d 46 46 f5 3d
       0.14406297 0.010761467 0.08317452 0.11976294
000170 ed 96 bc 3b da c4 2d 3e 7b dd 00 3e b1 b5 b4 3d
       0.0057552964 0.16969624 0.12584488 0.088237174
000180 19 7c f7 3d 97 1a 92 3d 5b 0b d1 3d 43 0d 81 3d
       0.120842166 0.07133978 0.10207244 0.063013576
000190 07 c2 27 be d7 12 22 bc 05 b3 2c bc af d4 02 bc
       -0.1638261 -0.009892187 -0.010540728 -0.007985278
0001a0 d3 44 5f 3c 33 92 1a bd e9 09 02 3d 47 0e 17 be
       0.013627249 -0.037737083 0.031747732 -0.1475154
0001b0 2a 6e d0 3c aa f1 35 bc f3 5b ac bd 84 1a d0 bc
       0.025443155 -0.0111049805 -0.084159754 -0.025403269
0001c0 b5 64 9a bc 6f 07 92 bb c2 cb 7f bb 4e ee 92 bd
       -0.018846849 -0.0044564526 -0.0039031361 -0.07174359
0001d0 42 07 05 be cc 5a 78 bd df ea db bd 19 04 13 bd
       -0.1299105 -0.060633466 -0.107381575 -0.03589258
0001e0 e2 a3 cf 3c a4 03 c7 3a cc 2e 9f bd c9 d9 f9 bd
       0.0253467 0.001518358 -0.07772598 -0.12199742
0001f0 3c 58 84 bd 2a 2d 26 3d ab bf 4e 3e e6 8a 18 3e
       -0.06462142 0.040570416 0.20190303 0.14896736
000200 a4 70 78 3d 87 f2 24 3e 5f 97 0e 3c 5b 0b 2d 3e
       0.060654297 0.16108142 0.008703082 0.16898863
000210 5d 39 9a 3d 1a 13 4c 3e 5e f6 0c 3e e9 f7 4b 3e
       0.075304724 0.19929162 0.13765857 0.19918789
000220 1b 30 45 3e 31 6f 42 3e 4b 5f aa 3d c8 06 56 3e
       0.19256632 0.18987729 0.08318957 0.20901024
000230 05 49 65 3d 91 c8 a6 3d da 42 1e 3e 96 cf 0d 3d
       0.05597784 0.08143724 0.1545519 0.034621798
000240 4f a1 d3 3d 27 fa 3e 3e a5 d1 3d 3e 42 4e 1b 3e
       0.103335015 0.18650113 0.18537004 0.15166572
000250 7d 72 78 3d be c8 15 3e 78 93 58 3c b8 92 af 3d
       0.06065606 0.14627358 0.013218753 0.08572906
000260 72 41 e3 3d 2b d4 92 3d b5 8e c0 3d 3e 8c 3c 3d
       0.11096467 0.07169374 0.09402219 0.046032183
000270 e3 d7 b4 3d fe ce 06 3d e2 8f 23 3d a6 9c 28 3e
       0.088302396 0.032912247 0.03993214 0.16466007
000280 7c 7b 9a 3d cf 9c 11 3e 5b de 1b 3e 3d 1c 7d 3c
       0.07543084 0.14219974 0.1522154 0.015448627
000290 bd 85 74 3d 03 e1 78 3d f2 16 14 3e 23 fc e6 3d
       0.059697855 0.060761463 0.14461878 0.1127856
0002a0 af b6 f5 3d bb 78 ee 3d de 5d 8c 3d b4 fa c3 3d
       0.11997735 0.11644121 0.06853841 0.09569302
0002b0 5c 4f 6f 3d eb df 9d 3d 06 26 b0 3d ce 61 46 3e
       0.058425292 0.077087246 0.086010024 0.19373247
0002c0 70 f9 e8 3c db 20 48 3e 6a 85 9c 3d 54 5f 26 3e
       0.028439254 0.19543783 0.07642634 0.16247302
0002d0 a7 d2 f3 3d da 10 4b 3e ae f4 44 3e 22 62 c9 3d
       0.11905413 0.19830647 0.19233963 0.098331705
0002e0 71 13 92 3d f9 41 53 3e e8 28 e1 3d 29 a6 88 3d
       0.071326144 0.20630635 0.109941304 0.066723175
0002f0 fa 16 53 3e ca 78 84 3d 64 b2 e3 3d 69 ce a0 3d
       0.20614234 0.06468351 0.1111801 0.078518696
000300 4a 98 07 3e 9a fe b2 3d 28 33 24 3e 67 2f dd 3d
       0.13241687 0.08739968 0.1603514 0.10800057
000310 02 fb 89 3d 36 13 20 3e 46 3f b6 3d 16 ac a4 3d
       0.06737329 0.15632328 0.08898787 0.08040635
000320 2b 6a f5 be c6 87 9b be e0 1d 81 be 49 13 d9 be
       -0.47932562 -0.30377024 -0.25218105 -0.42397526
000330 14 a7 b4 be 42 60 df be ed 8d d0 be a5 33 de be
       -0.3528372 -0.43628126 -0.4073328 -0.43398777
000340 dd d2 cc be 83 0d d4 be 27 a7 e8 be f6 17 c5 be
       -0.40004626 -0.4141656 -0.45440027 -0.38494843
000350 3d 47 cc be 8e fe 8d be f5 38 81 be 86 0b b5 be
       -0.398981 -0.27733272 -0.25238767 -0.35360354
000360 c0 bd a6 be c4 d5 6a be 57 91 c0 be bc 52 67 be
       -0.32566643 -0.22933108 -0.37610886 -0.22590154
000370 95 0c a1 be 49 07 ba be dd e7 a4 be 44 9a 56 be
       -0.31454912 -0.36333683 -0.32208148 -0.20957285
000380 78 51 94 be a9 9f 4e be 16 1f 39 bd 3c d9 1e be
       -0.28968406 -0.20178093 -0.04519566 -0.15512556
000390 92 ff 07 be eb 90 45 be cd fb 18 be 63 0d ab bd
       -0.13281086 -0.19293563 -0.14939804 -0.08352163
0003a0 14 2a c5 bd 80 c0 25 be 3d aa 35 bd 64 b9 76 bd
       -0.096271664 -0.16186714 -0.044351805 -0.060235396
0003b0 4a 4a 0f be 73 45 42 be 3b 60 09 be 7e cd 4e bd
       -0.13993183 -0.18971805 -0.13415615 -0.05048894
0003c0 7f 84 da bd f8 96 65 bd e6 93 1c be dc 94 14 be
       -0.10669803 -0.05605218 -0.15290794 -0.1450991
0003d0 62 57 0f be c3 52 bc bc 3d 96 24 be 2c 36 d2 3a
       -0.13998178 -0.022988683 -0.16072936 0.0016037873
0003e0 fc 00 81 bd c9 ea 85 3c ce 72 50 be a8 db 67 be
       -0.06299016 0.016347306 -0.20356295 -0.22642386
0003f0 39 ee a3 bd 12 a2 43 bd 75 36 96 bd bb 6e cc bd
       -0.08004422 -0.047761984 -0.073346056 -0.09982058

model.hidden_layers.0.bias f4 [4]
000000 d0 d3 09 3e 08 b2 0a 3b bc 8e 44 be 77 6d 1e 3d
       0.13459706 0.0021163244 -0.19195074 0.038678613

model.output_layers.0.weight f4 [1, 4, 5, 5]
000000 22 d0 c2 bd 10 e1 76 3d c0 8d dd 3d 77 de 29 3d
       -0.095123544 0.06027323 0.10818052 0.041471925
000010 9d d6 09 3d 71 4a ae bd e8 12 6e bd 8b cb 53 3e
       0.033651937 -0.08510292 -0.0581235 0.20683114
000020 7d da bf bd c9 4b 3b 3d 07 4c 62 3e 6e 3e f7 3d
       -0.09367845 0.04572657 0.22099315 0.120724544
000030 d8 73 97 3e 37 e0 1a 3e 96 dd 1d 3e 62 4e f6 bd
       0.2958057 0.15124594 0.1541656 -0.12026669
000040 e4 52 9d 3d 86 74 3e 3e 3a 7d a5 3d 4b 57 4c bd
       0.07681826 0.18599138 0.08080526 -0.049887937
000050 4b b9 18 3b ff ac 30 bc 66 d6 db 3d e2 75 6f 3d
       0.0023303803 -0.010783433 0.10734253 0.05846203
000060 f8 8e 05 be f5 eb 28 3d 4d 56 17 bd 06 3c 59 3e
       -0.1304282 0.04124065 -0.036947537 0.21214303
000070 e5 d2 6e bd 25 a7 ae bd d6 10 ec bc db f7 e8 bc
       -0.058306593 -0.08527974 -0.028816622 -0.0284385
000080 c2 26 58 3e f4 f9 66 3c 67 42 57 bb f3 34 67 3e
       0.21108535 0.014097679 -0.0032845975 0.22578792
000090 4b b3 10 3e fa 30 e5 3e d5 97 fc 3d e6 32 0f 3e
       0.14130895 0.4476393 0.12333647 0.1398426
0000a0 90 76 42 3d a4 8a 80 bc 82 cc 90 3e a6 f7 58 3c
       0.04747635 -0.015691109 0.28281027 0.013242638
0000b0 ec 0d 5b 3c c2 64 08 bd 05 bd 77 bc 59 bb 19 3e
       0.013370018 -0.033299215 -0.015120749 0.15012874
0000c0 c4 9a 88 bc 75 2f b2 3c 30 bf b6 bd b9 55 d5 bd
       -0.01667536 0.021751145 -0.08923185 -0.10416741
0000d0 35 9d 44 3e 88 6f 16 3d ef 5f b0 bd 87 3e 59 bc
       0.19200595 0.03672746 -0.08612048 -0.013259537
0000e0 67 1e 50 3d 88 ae fe 3d b1 52 2d 3d ca 46 83 bc
       0.050810244 0.12435633 0.04231519 -0.016024966
0000f0 fe 65 b3 3d 47 67 34 3e 87 64 da 3e 0e ef 2a 3e
       0.08759688 0.17617522 0.4265482 0.16692755
000100 92 74 21 3e c4 75 26 bc c0 05 0b bd 2d a5 63 3d
       0.15767124 -0.010159913 -0.03394103 0.055577446
000110 60 8c f8 bd 28 5a 11 bd bd f1 f0 bd 18 d8 9b bd
       -0.121361494 -0.03548637 -0.11764858 -0.07609576
000120 ef 79 23 3e d6 79 08 be 8e e7 8f 3b cf 56 25 3c
       0.15964483 -0.13327727 0.004391617 0.010091498
000130 01 05 d2 bd 2e ee 18 3e f5 d7 8b bc d8 c9 ac bc
       -0.10254861 0.14934608 -0.01707075 -0.02109234
000140 21 7c c8 bd c8 7e 73 3d 60 26 6b 3e 7d 4e 0e 3d
       -0.09789301 0.05944708 0.22963858 0.03474282
000150 09 45 a4 bd 17 0f ea 3d 91 ef 91 3e 59 94 f0 3e
       -0.0802098 0.114286594 0.28503087 0.4698818
000160 e4 77 2f 3e e1 ad 2e 3e d1 6a 8e bb 41 e4 88 bd
       0.17135578 0.17058517 -0.0043462296 -0.06684161
000170 c8 62 4b 3e 43 f6 a8 3d f0 aa dd bc 88 39 3d bd
       0.19861901 0.08250096 -0.027059048 -0.046197444
000180 87 08 fa 3c ad a4 dd 3d 13 92 a4 bd fc 05 f9 bd
       0.030521644 0.10822425 -0.08035674 -0.121593446

exp_avg f4 [4]
000000 68 7a 23 31 74 dd e7 b4 ea 57 eb 39 3b 58 ae 36
       2.3789202e-09 -4.318823e-07 0.00044888194 5.1958755e-06

exp_avg_sq f4 [4]
000000 53 2e eb 39 13 d7 38 36 91 8d 2b 3b 7b 70 42 3b
       0.00044857207 2.7543326e-06 0.002617691 0.0029669094

exp_avg f4 [4, 1, 5, 5]
000000 78 a0 9c af 7d 3a c7 af d0 95 be b0 b5 9a a1 b0
       -2.8490255e-10 -3.6239448e-10 -1.3866899e-09 -1.1758262e-09
000010 fe f0 a4 b0 61 d3 a8 af d3 1d d3 af 8a af c3 b0
       -1.2001065e-09 -3.0709216e-10 -3.8401868e-10 -1.4238009e-09
000020 f5 59 a2 b0 0b 25 a4 b0 2a 25 b8 b0 c4 92 c5 b0
       -1.1812619e-09 -1.1943099e-09 -1.3398325e-09 -1.437535e-09
000030 88 b8 6c b1 c1 0e 1a b1 70 7c 18 b1 41 68 9a b0
       -3.4447414e-09 -2.2418336e-09 -2.2189646e-09 -1.1234605e-09
000040 c0 54 9d b0 08 af 1a b1 1c 2b a6 b0 c7 9e a2 b0
       -1.1447341e-09 -2.2509443e-09 -1.2090342e-09 -1.1832179e-09
000050 a2 10 9b b0 d2 f9 9d b0 8b 69 15 b1 d4 ee 9a b0
       -1.1282462e-09 -1.1494257e-09 -2.1742348e-09 -1.1272854e-09
000060 5d df 96 b0 00 00 00 00 04 00 00 80 04 00 00 80
       -1.097742e-09 0.0 -6e-45 -6e-45
000070 04 00 00 80 04 00 00 80 00 00 00 00 04 00 00 80
       -6e-45 -6e-45 0.0 -6e-45
000080 04 00 00 80 04 00 00 80 04 00 00 80 00 00 00 00
       -6e-45 -6e-45 -6e-45 0.0
000090 04 00 00 80 04 00 00 80 04 00 00 80 04 00 00 80
       -6e-45 -6e-45 -6e-45 -6e-45
0000a0 00 00 00 00 04 00 00 80 04 00 00 80 04 00 00 80
       0.0 -6e-45 -6e-45 -6e-45
0000b0 04 00 00 80 00 00 00 00 04 00 00 80 04 00 00 80
       -6e-45 0.0 -6e-45 -6e-45
0000c0 04 00 00 80 04 00 00 80 d8 11 02 ba 7e bb 09 ba
       -6e-45 -6e-45 -0.00049617654 -0.0005254074
0000d0 34 e4 16 ba e0 0d a7 b9 ea f5 a3 b9 a3 f3 07 ba
       -0.0005756051 -0.0003186306 -0.00031273003 -0.0005186146
0000e0 bc cf 0f ba ee 61 1d ba 42 c7 ab b9 2f 30 a8 b9
       -0.0005485972 -0.00060036674 -0.0003276412 -0.00032079357
0000f0 75 0e 29 ba 07 c8 32 ba 8d 9e 41 ba 8b ef e4 b9
       -0.00064489926 -0.00068199675 -0.00073859916 -0.00043666022
000100 6c 1c de b9 71 17 06 ba 92 d7 0c ba 29 b7 17 ba
       -0.00042364316 -0.00051151874 -0.00053726987 -0.0005787486
000110 90 6e 91 b9 08 6e 8a b9 c2 6e 01 ba da 72 07 ba
       -0.0002773893 -0.0002640339 -0.00049374637 -0.00051669555
000120 63 c8 10 ba d4 fe 84 b9 83 e6 7b b9 89 0a f4 b3
       -0.0005523024 -0.00025366864 -0.00024023098 -1.1364052e-07
000130 b2 a6 eb b4 b1 dd 89 b6 3e 06 83 b6 7a 75 83 b6
       -4.3893448e-07 -4.1087264e-06 -3.904831e-06 -3.9177803e-06
000140 51 62 1e b4 24 24 01 b5 5a 61 8f b6 e3 c6 86 b6
       -1.4750664e-07 -4.8108836e-07 -4.2730653e-06 -4.0166647e-06
000150 dd ca 86 b6 db 06 e0 b5 cd 4c 18 b6 97 36 ea b6
       -4.0171276e-06 -1.6691296e-06 -2.269447e-06 -6.9800985e-06
000160 2b c0 d7 b6 68 1a d3 b6 71 ed 85 b5 2d 2d ba b5
       -6.4298706e-06 -6.291364e-06 -9.978377e-07 -1.3871228e-06
000170 39 21 9a b6 9f 6d 89 b6 a9 ce 84 b6 6e ff 82 b5
       -4.5934253e-06 -4.0956797e-06 -3.957965e-06 -9.760095e-07
000180 f8 50 b4 b5 0a 36 8c b6 94 0b 77 b6 50 56 6d b6
       -1.343461e-06 -4.178616e-06 -3.6812608e-06 -3.5365993e-06

exp_avg_sq f4 [4, 1, 5, 5]
000000 0b b6 9e 35 4d d4 9f 35 e4 72 a1 35 d1 c3 86 35
       1.1824899e-06 1.1908211e-06 1.2028872e-06 1.0040768e-06
000010 9e 78 57 35 aa 3d a2 35 ea f0 a2 35 31 39 a4 35
       8.026926e-07 1.2087887e-06 1.2140056e-06 1.2235597e-06
000020 ad e7 87 35 e8 1a 55 35 7b 78 a1 35 d5 f0 a1 35
       1.012571e-06 7.9387837e-07 1.2030499e-06 1.2065526e-06
000030 ec 31 a3 35 85 dd 86 35 03 ea 52 35 80 15 a2 35
       1.2158976e-06 1.0048249e-06 7.857163e-07 1.2076198e-06
000040 35 a5 a2 35 e7 cb a3 35 23 06 86 35 14 ef 50 35
       1.2118022e-06 1.220379e-06 9.985564e-07 7.783394e-07
000050 7c b3 a1 35 cc 44 a2 35 db 28 a3 35 1b 1e 84 35
       1.2047672e-06 1.2089963e-06 1.2156337e-06 9.843528e-07
000060 a8 89 4c 35 00 00 00 00 44 4e 6a 1b 05 6f c1 20
       7.619624e-07 0.0 1.9381315e-22 3.2768938e-19
000070 2e 44 d8 20 a1 6c fa 20 00 00 00 00 d8 64 3e 1b
       3.663694e-19 4.2423532e-19 0.0 1.5749016e-22
000080 0c 1f bb 20 46 29 c9 20 ae 37 e1 20 00 00 00 00
       3.1699577e-19 3.4078037e-19 3.8153328e-19 0.0
000090 64 6e 3b 1b 0c 59 b8 20 f4 95 bd 20 ba c2 c9 20
       1.5503947e-22 3.122974e-19 3.2117076e-19 3.4179584e-19
0000a0 00 00 00 00 8f 16 3b 1b d9 e0 53 1c ff d5 4d 1c
       0.0 1.5475567e-22 7.010465e-22 6.8105394e-22
0000b0 31 9e 46 1c 00 00 00 00 bb 64 38 1b 19 a7 50 1c
       6.571716e-22 0.0 1.5252671e-22 6.9037396e-22
0000c0 af 29 4c 1c 8b 19 47 1c 38 b3 2f 3d 87 39 35 3d
       6.7551813e-22 6.587659e-22 0.042895526 0.044244315
0000d0 a6 61 37 3d d2 f9 37 3d 2d 61 2f 3d 22 1d 36 3d
       0.04477086 0.04491598 0.042817283 0.044461377
0000e0 9a 09 3c 3d 5c 5f 3e 3d 9c 06 3f 3d c6 04 36 3d
       0.045907594 0.04647766 0.046637163 0.044438146
0000f0 67 0a 3b 3d 68 38 41 3d a7 d5 43 3d 23 b6 44 3d
       0.045664217 0.047172934 0.047811177 0.04802526
000100 b1 a0 3b 3d a7 b9 3b 3d 60 07 42 3d 98 ff 44 3d
       0.045807544 0.04583135 0.047370315 0.048095316
000110 4f 79 46 3d 75 dd 3d 3d 4b f1 37 3d 49 34 3e 3d
       0.048455533 0.046353776 0.04490785 0.04643658
000120 92 43 41 3d 32 0a 43 3d 85 11 3b 3d 30 63 38 3d
       0.04718358 0.047617145 0.045671005 0.045016468
000130 69 ad 40 3d 25 2c 40 3d 6d c3 3b 3d 7e 9c 33 3d
       0.047040377 0.0469171 0.04584067 0.043850414
000140 62 8c 44 3d 82 3f 4d 3d 7e d3 4c 3d 06 07 48 3d
       0.047985442 0.050109394 0.050006382 0.048834823
000150 09 66 3f 3d f4 27 45 3d fd ec 4d 3d ba 97 4d 3d
       0.046728168 0.048133805 0.050274838 0.050193526
000160 f1 b5 48 3d a7 09 40 3d be 2e 3b 3d e1 9c 43 3d
       0.049001638 0.046884205 0.045698874 0.047757033
000170 5a 47 43 3d 9c ac 3e 3d 7a 69 36 3d f0 1e 34 3d
       0.047675468 0.046551332 0.044534184 0.043974817
000180 6f 26 3c 3d 7b cf 3b 3d 13 63 37 3d 70 8e 2f 3d
       0.04593509 0.045852166 0.04477222 0.04286045

exp_avg f4 [4]
000000 68 7a 23 31 04 00 00 00 ea 57 eb 39 66 ba ae 36
       2.3789202e-09 6e-45 0.00044888194 5.2073037e-06

exp_avg_sq f4 [4]
000000 74 9c ab 35 a1 d0 18 20 24 7a 25 3b 8f 59 33 3b
       1.2786027e-06 1.294393e-19 0.0025249803 0.0027366614

exp_avg f4 [4, 4, 5, 5]
000000 4d 11 58 2f 9c e6 8c 2f 9b 17 8d 30 ec c1 75 30
       1.9651232e-10 2.562971e-10 1.0265809e-09 8.940606e-10
000010 0b dd 74 30 6b c8 6a 2f 5b 3f 96 2f e0 29 91 30
       8.9080804e-10 2.1353379e-10 2.7329858e-10 1.056204e-09
000020 37 5e 79 30 34 6e 78 30 de 64 7d 30 7c a2 89 30
       9.071956e-10 9.037848e-10 9.2184205e-10 1.0014243e-09
000030 cb 7a 23 31 f5 bc d7 30 74 e2 d3 30 da 28 54 30
       2.3789422e-09 1.5697014e-09 1.5416632e-09 7.7183204e-10
000040 51 2e 5a 30 db 7a cf 30 28 63 57 30 c9 7e 50 30
       7.937376e-10 1.509615e-09 7.8357454e-10 7.585013e-10
000050 10 46 53 30 cc d5 58 30 ba a7 c6 30 59 66 46 30
       7.686092e-10 7.8884166e-10 1.4454067e-09 7.2177425e-10
000060 dd 7f 3f 30 59 79 51 2f b9 9a 88 2f 74 cb 88 30
       6.96671e-10 1.905155e-10 2.4848193e-10 9.953127e-10
000070 24 42 6e 30 0f 64 6d 30 53 a0 63 2f fa b0 91 2f
       8.6677887e-10 8.636229e-10 2.0702488e-10 2.6501096e-10
000080 37 cb 8c 30 89 c4 71 30 d9 d9 70 30 b3 af 75 30
       1.0244098e-09 8.795458e-10 8.762107e-10 8.9380164e-10
000090 22 81 85 30 95 c6 1e 31 f7 36 d1 30 90 6f cd 30
       9.713725e-10 2.3104907e-09 1.5222373e-09 1.4947421e-09
0000a0 61 af 4d 30 7c 87 53 30 69 34 c9 30 48 d3 50 30
       7.4827794e-10 7.695389e-10 1.4639571e-09 7.597021e-10
0000b0 8a 22 4a 30 5a d3 4c 30 ba 37 52 30 1a 99 c0 30
       7.3536255e-10 7.4515116e-10 7.6476747e-10 1.4013353e-09
0000c0 98 58 40 30 db a7 39 30 fe de 55 2f ef 2e 8a 2f
       6.997509e-10 6.7541145e-10 1.945146e-10 2.5135402e-10
0000d0 46 1a 87 30 16 39 72 30 44 b0 73 30 94 11 61 2f
       9.83001e-10 8.812021e-10 8.8653374e-10 2.0469876e-10
0000e0 43 c1 87 2f 4c 30 6d 30 7c d1 63 30 d3 66 72 30
       2.4693678e-10 8.628873e-10 8.2879814e-10 8.818521e-10
0000f0 ed 04 66 30 24 87 50 30 8d 5c 96 30 82 6f 97 30
       8.368051e-10 7.5862006e-10 1.0940241e-09 1.1018388e-09
000100 fb 17 bc 30 bc 3b 52 30 0f 36 51 30 49 95 9b 30
       1.3685616e-09 7.648244e-10 7.611058e-10 1.1320164e-09
000110 a1 28 48 30 2c 61 4c 30 8b eb 52 30 5b ee 56 30
       7.2817313e-10 7.4352857e-10 7.673228e-10 7.819147e-10
000120 99 ac b1 30 e2 b4 43 30 cd 23 3f 30 c4 0c 58 2f
       1.29275e-09 7.1197637e-10 6.953627e-10 1.9649621e-10
000130 a9 d4 8c 2f 19 f1 8c 30 df bb 75 30 45 dc 74 30
       2.5616956e-10 1.0254865e-09 8.939746e-10 8.9079705e-10
000140 c2 a7 6a 2f d2 c0 95 2f 96 2b 90 30 4a 35 79 30
       2.1341776e-10 2.723995e-10 1.0489767e-09 9.06614e-10
000150 ce 67 78 30 df fc 7c 30 ef 69 88 30 4e d5 1f 31
       9.036939e-10 9.203642e-10 9.92541e-10 2.3258795e-09
000160 37 ad d6 30 e5 b5 d3 30 9f 25 54 30 88 0d 5a 30
       1.561978e-09 1.5403968e-09 7.7178614e-10 7.9327167e-10
000170 85 a8 ce 30 ac 36 57 30 0a 79 50 30 91 45 53 30
       1.5036369e-09 7.829424e-10 7.5841966e-10 7.686021e-10
000180 56 d2 58 30 4f 94 c6 30 49 63 46 30 77 7f 3f 30
       7.887925e-10 1.4448548e-09 7.2173073e-10 6.9666534e-10
000190 99 c2 15 b4 80 f6 14 b4 ed 9a 4e b4 5f 0c 98 b3
       -1.39475e-07 -1.387325e-07 -1.9241607e-07 -7.080302e-08
0001a0 34 20 8e b3 57 a9 1c b4 fe d4 1b b4 8f a4 5f b4
       -6.618248e-08 -1.4590238e-07 -1.4512986e-07 -2.082836e-07
0001b0 2e 74 ab b3 8f f4 a0 b3 5f e4 83 b4 d4 19 87 b4
       -7.983941e-08 -7.4950655e-08 -2.4566813e-07 -2.5164502e-07
0001c0 48 28 d4 b4 ca 21 76 b4 9a 2f 68 b4 6c b8 37 b4
       -3.9517386e-07 -2.2922828e-07 -2.1624001e-07 -1.7110295e-07
0001d0 9e f4 3c b4 cb 51 9d b4 6f 2e 42 b4 44 9b 3a b4
       -1.7597856e-07 -2.930304e-07 -1.808455e-07 -1.7379085e-07
0001e0 28 1a 2c b4 02 6d 31 b4 21 31 96 b4 c0 d2 40 b4
       -1.6028264e-07 -1.6524066e-07 -2.7975423e-07 -1.7958064e-07
0001f0 c4 bb 39 b4 9c 30 11 b4 b9 6a 10 b4 94 4c 48 b4
       -1.7297776e-07 -1.3521861e-07 -1.344987e-07 -1.865431e-07
000200 6f 68 93 b3 d0 c9 89 b3 6b e1 17 b4 78 13 17 b4
       -6.864217e-08 -6.416269e-08 -1.4144977e-07 -1.4070054e-07
000210 58 d0 58 b4 79 38 a6 b3 07 0b 9c b3 bd bb 7f b4
       -2.0192363e-07 -7.74025e-08 -7.266322e-08 -2.3817024e-07
000220 fd f9 82 b4 9a ac cd b4 36 9e 6e b4 76 19 61 b4
       -2.4396277e-07 -3.830981e-07 -2.2223034e-07 -2.096402e-07
000230 1a 1d 32 b4 4f 30 37 b4 44 84 98 b4 42 41 3c b4
       -1.6588129e-07 -1.7060778e-07 -2.8408442e-07 -1.7532605e-07
000240 57 e9 34 b4 a2 d9 26 b4 de 02 2c b4 9c 9b 91 b4
       -1.6848695e-07 -1.5539129e-07 -1.6019791e-07 -2.7121575e-07
000250 41 f0 3a b4 ae 10 34 b4 69 c9 15 b4 6f 0f 15 b4
       -1.7410004e-07 -1.6769874e-07 -1.3949979e-07 -1.3882321e-07
000260 61 b6 50 b4 e3 f4 98 b3 cc 39 8e b3 bd d3 1c b4
       -1.9437859e-07 -7.122596e-08 -6.6229035e-08 -1.4605662e-07
000270 f4 35 1c b4 60 b0 63 b4 71 11 ae b3 c7 7c a1 b3
       -1.454826e-07 -2.1205187e-07 -8.105679e-08 -7.5198436e-08
000280 77 ac 84 b4 6c 55 88 b4 5e 25 da b4 7e 8e 7c b4
       -2.47124e-07 -2.5394127e-07 -4.0632852e-07 -2.3521167e-07
000290 f8 77 6a b4 3a f0 37 b4 a9 62 3d b4 1e 7b 9f b4
       -2.1836593e-07 -1.7130597e-07 -1.7637889e-07 -2.9705637e-07
0002a0 ca ca 43 b4 08 03 3b b4 ab 1f 2c b4 f4 83 31 b4
       -1.8234564e-07 -1.7416835e-07 -1.6030269e-07 -1.6532414e-07
0002b0 ff 4b 97 b4 d9 74 41 b4 7e d6 39 b4 d6 c1 15 b4
       -2.8181236e-07 -1.8017035e-07 -1.73075e-07 -1.3947223e-07
0002c0 7b f5 14 b4 8f 95 4e b4 fb f9 97 b3 2f 19 8e b3
       -1.387288e-07 -1.9239654e-07 -7.0769566e-08 -6.616971e-08
0002d0 4b a8 1c b4 26 d5 1b b4 fd ad 5f b4 2f 64 ab b3
       -1.4589857e-07 -1.4513043e-07 -2.083179e-07 -7.981031e-08
0002e0 dc eb a0 b3 df e3 83 b4 f8 1e 87 b4 a4 4b d4 b4
       -7.493483e-08 -2.456645e-07 -2.5168242e-07 -3.9543113e-07
0002f0 45 21 76 b4 d0 28 68 b4 76 b4 37 b4 47 f1 3c b4
       -2.2922639e-07 -2.1621531e-07 -1.7108854e-07 -1.759664e-07
000300 a8 52 9d b4 a6 21 42 b4 e1 93 3a b4 99 17 2c b4
       -2.930367e-07 -1.8079899e-07 -1.7376398e-07 -1.6027333e-07
000310 cc 69 31 b4 56 2d 96 b4 ce c6 40 b4 8b b6 39 b4
       -1.6522898e-07 -2.7972663e-07 -1.7953718e-07 -1.7295876e-07
000320 43 bb 1c 20 f9 b1 1d 20 13 d2 1e 20 60 33 1d 20
       1.3275674e-19 1.3357303e-19 1.3452628e-19 1.3315416e-19
000330 7b 4d 1d 20 62 61 1d 20 40 4d 1e 20 b8 62 1f 20
       1.3324053e-19 1.3330639e-19 1.340868e-19 1.3500487e-19
000340 17 80 1d 20 4b 88 1d 20 01 2e 1f 20 ac 11 20 20
       1.3340799e-19 1.3343513e-19 1.3483045e-19 1.3558374e-19
000350 20 15 21 20 19 c1 1e 20 46 8a 1e 20 fc 14 1f 20
       1.364422e-19 1.3447011e-19 1.3428871e-19 1.3474767e-19
000360 b4 ee 1f 20 c9 ed 20 20 5c 7a 1e 20 08 32 1e 20
       1.3546804e-19 1.3631204e-19 1.3423606e-19 1.3399675e-19
000370 81 97 1e 20 c9 64 1f 20 75 4d 20 20 23 cc 1d 20
       1.3433249e-19 1.3501171e-19 1.3578156e-19 1.336596e-19
000380 f3 76 1d 20 71 b1 2b 20 4f b4 2c 20 25 ea 2d 20
       1.3337774e-19 1.4542974e-19 1.4628626e-19 1.4731142e-19
000390 87 fc 2b 20 b8 e9 2b 20 e5 98 2c 20 75 9d 2d 20
       1.4567818e-19 1.4561594e-19 1.4619555e-19 1.4705768e-19
0003a0 ad d5 2e 20 89 aa 2c 20 84 8a 2c 20 0b ad 2e 20
       1.4809073e-19 1.4625392e-19 1.4614798e-19 1.4795628e-19
0003b0 b5 bc 2f 20 62 fa 30 20 d2 50 2e 20 09 f3 2d 20
       1.4885514e-19 1.4990625e-19 1.4765114e-19 1.4734084e-19
0003c0 bb 97 2e 20 4f a0 2f 20 e8 d8 30 20 9c 2f 2e 20
       1.4788577e-19 1.4876118e-19 1.4979548e-19 1.4754126e-19
0003d0 08 d2 2d 20 66 84 2e 20 29 87 2f 20 3d b5 30 20
       1.4723163e-19 1.478218e-19 1.4867797e-19 1.4967747e-19
0003e0 32 0f 2e 20 c9 b1 2d 20 72 82 17 20 e8 78 18 20
       1.4743401e-19 1.4712494e-19 1.2833358e-19 1.2914905e-19
0003f0 34 7a 19 20 f1 11 18 20 4d 37 18 20 9b fb 17 20
       1.3000038e-19 1.2880837e-19 1.2893198e-19 1.2873447e-19

exp_avg_sq f4 [4, 4, 5, 5]
000000 9f a8 e5 38 86 d6 ea 38 f6 88 e7 38 88 60 d8 38
       0.00010950979 0.000111979476 0.00011040449 0.00010317663
000010 97 d7 cb 38 ef 7a ed 38 20 ce f2 38 57 4c ef 38
       9.719951e-05 0.00011323939 0.00011577853 0.000114106275
000020 bd 6d df 38 a4 7b d2 38 14 4b ee 38 e1 81 f3 38
       0.00010653909 0.0001003661 0.00011362709 0.00011611335
000030 70 e2 ef 38 f2 e1 df 38 52 f8 d2 38 20 cd e9 38
       0.00011438585 0.00010675554 0.000100598336 0.00011148513
000040 6b c6 ee 38 bb 05 eb 38 75 67 db 38 b1 c8 ce 38
       0.000113856826 0.000112067406 0.00010462004 9.860227e-05
000050 ef 6e e7 38 a9 50 ec 38 96 8d e8 38 13 2c d9 38
       0.00011035601 0.00011268381 0.000110889945 0.00010355576
000060 95 cc cc 38 0f 7a 22 3a 33 81 27 3a ce 10 29 3a
       9.7655844e-05 0.0006197998 0.00063897966 0.00064493425
000070 fb df 27 3a 78 32 24 3a a4 23 28 3a 1f 4f 2d 3a
       0.000640392 0.0006263624 0.0006414002 0.0006611216
000080 9b eb 2e 3a f6 ac 2d 3a 87 d7 29 3a 84 d1 28 3a
       0.0006672681 0.00066251995 0.00064789545 0.00064399117
000090 4e f3 2d 3a 8e 8a 2f 3a f5 49 2e 3a ea 75 2a 3a
       0.00066356815 0.00066963665 0.00066485937 0.0006502556
0000a0 a9 84 25 3a 5e 7a 2a 3a 64 00 2c 3a 78 bc 2a 3a
       0.00063140184 0.00065032195 0.00065613375 0.00065130694
0000b0 27 f2 26 3a 3f bf 23 3a 1b 9f 28 3a b1 1c 2a 3a
       0.0006368481 0.00062464544 0.00064324 0.00064892607
0000c0 5b d7 28 3a 31 0f 25 3a 28 5b e4 39 e3 9a eb 39
       0.0006440782 0.0006296514 0.00043555466 0.00044938092
0000d0 17 d8 e9 39 de 0a e1 39 bb c7 d0 39 80 b7 ec 39
       0.00044602223 0.0004292344 0.00039821662 0.00045150146
0000e0 38 1c f4 39 b6 49 f2 39 ce 42 e9 39 01 90 d8 39
       0.0004656033 0.00046212756 0.00044490997 0.00041306022
0000f0 aa 1c f0 39 40 65 f7 39 37 8b f5 39 63 83 ec 39
       0.00045797724 0.00047186948 0.00046833765 0.00045111318
000100 6f b1 db 39 75 b8 ec 39 93 e4 f3 39 db f9 f1 39
       0.00041903133 0.0004515086 0.00046518873 0.0004615326
000110 d3 0a e9 39 c3 8c d8 39 87 6f e3 39 c5 64 ea 39
       0.00044449288 0.00041303606 0.00043379908 0.00044707037
000120 50 97 e8 39 a2 0a e0 39 21 25 d0 39 ec 4f fd 39
       0.00044363225 0.0004273253 0.00039700515 0.00048315467
000130 0f 4f 03 3a f5 12 07 3a 33 b3 07 3a 5d 4a 05 3a
       0.0005009034 0.0005152666 0.0005176544 0.00050846284
000140 ec c4 02 3a 5f 97 07 3a 42 8e 0b 3a 0c 44 0c 3a
       0.000498845 0.00051723974 0.0005323627 0.0005350716
000150 93 c1 09 3a bc 82 0a 3a b4 a7 0f 3a f5 d1 13 3a
       0.000525498 0.0005283763 0.0005480007 0.0005638891
000160 1c 7b 14 3a d8 bf 11 3a 98 8b 0a 3a 59 a5 0f 3a
       0.00056640967 0.0005559898 0.00052850833 0.0005479656
000170 66 c0 13 3a 52 4b 14 3a 2e 7a 11 3a 7b 43 08 3a
       0.00056362746 0.00056569756 0.0005549517 0.00051980437
000180 23 3b 0d 3a 8b 3c 11 3a 46 c7 11 3a c9 01 0f 3a
       0.0005387535 0.00055403326 0.0005561005 0.0005455283
000190 ed 2f 6f 33 54 e4 74 33 ff 16 7f 33 b6 85 83 33
       5.5690112e-08 5.701834e-08 5.939273e-08 6.124485e-08
0001a0 52 75 77 33 87 4f 79 33 6e 1f 7f 33 85 fb 84 33
       5.761587e-08 5.804716e-08 5.94004e-08 6.19248e-08
0001b0 e0 0a 89 33 e8 be 80 33 77 a8 74 33 1e 54 7a 33
       6.381538e-08 5.99519e-08 5.6963895e-08 5.8284165e-08
0001c0 f5 f7 82 33 e3 00 87 33 98 45 7d 33 c6 14 6a 33
       6.0987e-08 6.286589e-08 5.8969448e-08 5.4501264e-08
0001d0 55 90 6f 33 fe f8 7a 33 7e 5f 81 33 63 b5 72 33
       5.5777793e-08 5.8434118e-08 6.0244005e-08 5.6509986e-08
0001e0 92 a1 5f 33 5c f2 64 33 a4 1b 70 33 c2 84 77 33
       5.206818e-08 5.330581e-08 5.5904493e-08 5.762991e-08
0001f0 fe 29 68 33 ab cc a8 34 3c 9c b0 34 76 06 bc 34
       5.40549e-08 3.1441354e-07 3.289623e-07 3.502243e-07
000200 4c 4e b9 34 42 a0 bd 34 fb 1a b0 34 ce 48 b8 34
       3.4515904e-07 3.5320596e-07 3.2802186e-07 3.4325643e-07
000210 ed 67 c4 34 88 81 c1 34 64 ef c5 34 eb d6 ac 34
       3.658346e-07 3.6043298e-07 3.686829e-07 3.219387e-07
000220 2a fa b4 34 c8 69 c1 34 a0 8d be 34 d1 03 c3 34
       3.370963e-07 3.6026017e-07 3.5493304e-07 3.6324357e-07
000230 1e 72 a5 34 0f 43 ad 34 56 20 b9 34 43 6c b6 34
       3.0816676e-07 3.2272553e-07 3.4482463e-07 3.3978912e-07
000240 a9 ce ba 34 98 24 9e 34 e0 aa a5 34 1a 25 b1 34
       3.4795565e-07 2.945642e-07 3.0857973e-07 3.2995814e-07
000250 a1 9a ae 34 2a e4 b2 34 6d 51 78 34 24 82 82 34
       3.2522533e-07 3.3321095e-07 2.3126422e-07 2.4309077e-07
000260 54 78 89 34 d2 16 8e 34 35 f3 83 34 b9 0a 80 34
       2.560579e-07 2.6466165e-07 2.4577608e-07 2.384966e-07
000270 7b b0 86 34 b9 0a 8e 34 ad c6 92 34 fb 6b 88 34
       2.5087851e-07 2.6457363e-07 2.7339175e-07 2.541054e-07
000280 f6 4f 7d 34 5d 72 85 34 72 0a 8d 34 56 fe 91 34
       2.3591551e-07 2.485639e-07 2.6270897e-07 2.7193408e-07
000290 6f c6 87 34 20 90 70 34 49 8e 7d 34 b5 53 86 34
       2.529009e-07 2.2404174e-07 2.3614224e-07 2.502035e-07
0002a0 fd 5a 8b 34 12 9c 81 34 48 51 69 34 0d dc 75 34
       2.595697e-07 2.4141679e-07 2.1729386e-07 2.2897457e-07
0002b0 7c 4a 82 34 d2 42 87 34 8d b6 7b 34 2e 42 89 34
       2.4268581e-07 2.5194328e-07 2.3442608e-07 2.556639e-07
0002c0 19 63 8c 34 14 a3 96 34 08 84 97 34 da b8 9d 34
       2.6149135e-07 2.8058332e-07 2.8222007e-07 2.9378026e-07
0002d0 1e 44 8d 34 8f 86 90 34 05 11 9b 34 c5 30 9c 34
       2.6312858e-07 2.6919994e-07 2.8883383e-07 2.909275e-07
0002e0 ec ab a2 34 32 50 98 34 01 e0 9b 34 84 12 a7 34
       3.029994e-07 2.8370556e-07 2.9033984e-07 3.1119646e-07
0002f0 b8 45 a8 34 96 18 af 34 53 2b 92 34 05 ad 95 34
       3.1343166e-07 3.261418e-07 2.7226142e-07 2.78793e-07
000300 57 ba a0 34 70 12 a2 34 f4 d3 a8 34 2f 44 8a 34
       2.9937902e-07 3.0188266e-07 3.1446655e-07 2.5754113e-07
000310 08 9e 8d 34 c7 44 98 34 24 b8 99 34 c4 4d a0 34
       2.637828e-07 2.8362248e-07 2.863245e-07 2.9858904e-07
000320 ed 86 f0 35 fa f3 fd 35 d0 2b 01 36 3c f5 f0 35
       1.7920662e-06 1.8920975e-06 1.9248e-06 1.7952766e-06
000330 65 a4 ef 35 40 59 f3 35 14 7c 00 36 57 93 02 36
       1.7854733e-06 1.8130886e-06 1.914571e-06 1.9457273e-06
000340 cf f2 f2 35 eb 93 f1 35 79 e5 03 36 ce d1 0a 36
       1.8101072e-06 1.7998949e-06 1.9654092e-06 2.0685725e-06
000350 87 c9 0c 36 c0 d3 02 36 c0 9b 01 36 2b e3 02 36
       2.097893e-06 1.9494764e-06 1.9313156e-06 1.9503739e-06
000360 9c ea 0a 36 bb 08 0d 36 79 2b 02 36 ed a2 00 36
       2.0700163e-06 2.101572e-06 1.9396814e-06 1.9168322e-06
000370 4f 1a 02 36 26 20 0a 36 98 2e 0c 36 22 40 01 36
       1.9386823e-06 2.0582315e-06 2.0888747e-06 1.9259828e-06
000380 28 72 ff 35 80 f5 5b 36 44 cc 5e 36 67 37 61 36
       1.9032204e-06 3.2776443e-06 3.3199476e-06 3.355986e-06
000390 1a cb 53 36 e1 6f 52 36 05 38 63 36 97 ff 65 36
       3.155967e-06 3.135756e-06 3.3858244e-06 3.4272432e-06
0003a0 71 87 68 36 e0 64 5a 36 b5 af 58 36 73 c5 8d 36
       3.4649531e-06 3.2543248e-06 3.2288783e-06 4.2251136e-06
0003b0 fd 1b 90 36 e2 a5 91 36 0d 9c 89 36 8d 3b 88 36
       4.2947927e-06 4.340648e-06 4.101085e-06 4.0600485e-06
0003c0 9b ca 8a 36 4a 0f 8d 36 46 77 8e 36 ff b0 87 36
       4.136307e-06 4.2039073e-06 4.245815e-06 4.0439186e-06
0003d0 a2 8c 86 36 11 33 8a 36 32 6c 8c 36 ed c9 8d 36
       4.009883e-06 4.1186654e-06 4.1849207e-06 4.2256347e-06
0003e0 88 31 87 36 cf 1f 86 36 1e 23 34 36 bd e0 35 36
       4.0290797e-06 3.997214e-06 2.684253e-06 2.7101917e-06
0003f0 73 aa 2a 36 db 7c 28 36 70 ec 23 36 2f 62 37 36
       2.5431189e-06 2.5106626e-06 2.4426517e-06 2.7326275e-06

exp_avg f4 [4]
000000 68 7a 23 31 c9 dc e7 b4 5f f1 35 20 9a 84 d4 2f
       2.3789202e-09 -4.3187745e-07 1.5411159e-19 3.8656794e-10

exp_avg_sq f4 [4]
000000 e1 1c eb 39 ea cd d5 34 0a 60 9b 36 4a c5 18 37
       0.0004484421 3.9824164e-07 4.6305404e-06 9.105841e-06

exp_avg f4 [1, 4, 5, 5]
000000 08 de a6 3d b9 be ac 3d 69 5b a6 3d 16 65 b2 3d
       0.08147818 0.08434815 0.08122904 0.08710687
000010 f2 8c b0 3d e5 ad a9 3d b5 96 af 3d 95 f8 a8 3d
       0.08620633 0.08285121 0.08573667 0.08250538
000020 57 44 b5 3d 02 77 b3 3d 54 9e 9e 3d a4 40 a4 3d
       0.088509254 0.08762933 0.077450424 0.08020142
000030 10 1c 9d 3d b1 e7 a9 3d cc 63 a8 3d ae e8 a7 3d
       0.07671368 0.08296145 0.0822216 0.08198677
000040 56 c4 ad 3d e8 15 a7 3d fd 49 b3 3d d7 71 b1 3d
       0.08484714 0.08158475 0.087543465 0.08664291
000050 26 79 a2 3d ea 47 a8 3d 63 c5 a1 3d 01 a0 ad 3d
       0.079332635 0.082168415 0.07898977 0.08477784
000060 20 b8 ab 3d ff dd a6 3d ae be ac 3d 6e 5b a6 3d
       0.083847284 0.08147811 0.08434807 0.081229076
000070 11 65 b2 3d ea 8c b0 3d e0 ad a9 3d af 96 af 3d
       0.08710683 0.08620627 0.08285117 0.085736625
000080 9e f8 a8 3d 57 44 b5 3d ff 76 b3 3d 5d 9e 9e 3d
       0.08250545 0.088509254 0.08762931 0.07745049
000090 ae 40 a4 3d 30 1c 9d 3d bb e7 a9 3d d0 63 a8 3d
       0.08020149 0.07671392 0.08296152 0.08222163
0000a0 aa e8 a7 3d 54 c4 ad 3d f6 15 a7 3d fa 49 b3 3d
       0.08198674 0.08484712 0.081584856 0.08754344
0000b0 d4 71 b1 3d 21 79 a2 3d eb 47 a8 3d 6a c5 a1 3d
       0.08664289 0.0793326 0.08216842 0.07898982
0000c0 ff 9f ad 3d 1d b8 ab 3d 54 ad a6 3d 24 8c ac 3d
       0.084777825 0.08384726 0.081385285 0.08425167
0000d0 f0 f6 a5 3d 95 f5 b1 3d 26 1c b0 3d a1 7a a9 3d
       0.0810374 0.08689419 0.08599119 0.08275343
0000e0 00 62 af 3d 59 95 a8 3d 9f d6 b4 3d c3 06 b3 3d
       0.08563614 0.08231611 0.08829998 0.08741524
0000f0 0e 41 9e 3d 76 e3 a3 3d 3e 99 9c 3d f5 5d a9 3d
       0.07727252 0.08002369 0.07646416 0.08269874
000100 f4 d8 a7 3d fe 8b a7 3d 2c 67 ad 3d f2 92 a6 3d
       0.081956774 0.08180998 0.08466944 0.08133496
000110 fe c7 b2 3d 1b f3 b0 3d 31 1f a2 3d b8 ec a7 3d
       0.08729552 0.08640119 0.079161055 0.081994474
000120 70 44 a1 3d 94 21 ad 3d f7 3d ab 3d 3f dd a6 3d
       0.078743815 0.0845367 0.08361428 0.08147668
000130 ee bd ac 3d a2 5a a6 3d be 64 b2 3d a1 8c b0 3d
       0.08434664 0.081227556 0.08710621 0.08620573
000140 1a ad a9 3d ed 95 af 3d d8 f7 a8 3d 07 44 b5 3d
       0.0828497 0.08573518 0.082503974 0.08850866
000150 b9 76 b3 3d 37 9d 9e 3d 9b 3f a4 3d 2b 1b 9d 3d
       0.08762879 0.0774483 0.08019944 0.076711975
000160 55 e7 a9 3d 7b 63 a8 3d c3 e7 a7 3d 75 c3 ad 3d
       0.08296076 0.082220994 0.08198502 0.08484546
000170 23 15 a7 3d ca 49 b3 3d af 71 b1 3d 3e 78 a2 3d
       0.081583284 0.087543085 0.086642615 0.079330906
000180 0b 47 a8 3d 99 c4 a1 3d d0 9f ad 3d f9 b7 ab 3d
       0.08216675 0.07898826 0.084777474 0.083846994

exp_avg_sq f4 [1, 4, 5, 5]
000000 ef a2 2c 3e 48 64 31 3e 56 a3 35 3e 85 c9 31 3e
       0.16859029 0.1732341 0.17738089 0.1736203
000010 a0 4b 2d 3e 0b 4d 31 3e bb 3a 36 3e 89 ac 3a 3e
       0.1692338 0.17314546 0.17795841 0.1822988
000020 59 a7 36 3e 07 04 32 3e 93 47 35 3e 8e 6e 3a 3e
       0.17837276 0.17384349 0.17703085 0.18206236
000030 b6 4c 3f 3e 73 e4 3a 3e cd 15 36 3e c1 80 31 3e
       0.18681607 0.18251209 0.17781754 0.17334272
000040 b0 70 36 3e a8 e2 3a 3e 89 e1 36 3e 1c 3f 32 3e
       0.17816424 0.18250525 0.17859472 0.17406887
000050 ac 1a 2d 3e 34 e4 31 3e 1b 2c 36 3e 69 51 32 3e
       0.16904706 0.17372209 0.17790262 0.17413868
000060 1d d3 2d 3e df a3 3b 3e 35 e8 40 3e 91 a9 45 3e
       0.16975065 0.1832423 0.1883858 0.19302966
000070 da 34 41 3e 30 29 3c 3e 74 d7 40 3e af 4c 46 3e
       0.18867818 0.18375087 0.18832189 0.1936519
000080 4f 45 4b 3e 8a 9f 46 3e 42 69 41 3e a4 88 45 3e
       0.19850658 0.19396797 0.18887809 0.19290406
000090 1d 3d 4b 3e 33 a8 50 3e 4b 98 4b 3e 0a 30 46 3e
       0.19847532 0.20376663 0.19882314 0.19354263
0000a0 a1 12 41 3e 3e 8a 46 3e 2b 83 4b 3e bf e1 46 3e
       0.18854763 0.19388673 0.19874255 0.19422053
0000b0 1e ac 41 3e 32 10 3c 3e 2d 5c 41 3e 2f 26 46 3e
       0.18913314 0.18365553 0.18882819 0.19350503
0000c0 6c b1 41 3e cb a5 3c 3e 11 b1 33 3e 74 a3 38 3e
       0.18915337 0.1842262 0.17548014 0.18031102
0000d0 25 df 3b 3e 9c aa 37 3e 35 e3 32 3e 13 8a 38 3e
       0.18346842 0.17936176 0.17469485 0.18021421
0000e0 3d ab 3d 3e ba 14 41 3e 60 b2 3c 3e e2 c3 37 3e
       0.18522353 0.18855563 0.1842742 0.17945817
0000f0 fa 54 3c 3e c4 b0 41 3e 92 85 45 3e 76 c2 40 3e
       0.18391791 0.18915087 0.19289234 0.18824181
000100 d2 aa 3b 3e c4 88 38 3e f3 ae 3d 3e d0 1e 41 3e
       0.18326882 0.18020922 0.18523769 0.1885941
000110 f9 c3 3c 3e 37 d8 37 3e d3 cf 33 3e 3f cd 38 3e
       0.18434133 0.17953573 0.17559747 0.18047045
000120 38 1b 3c 3e 74 eb 37 3e 34 27 33 3e a5 d9 36 3e
       0.18369758 0.17960912 0.17495424 0.17856462
000130 62 bf 3b 3e 0d 3f 40 3e 70 4e 3c 3e 98 ba 37 3e
       0.18334725 0.18774052 0.18389297 0.17942274
000140 6a d7 3b 3e bd eb 40 3e 3b a1 45 3e bf 85 41 3e
       0.18343893 0.18839927 0.19299786 0.18898676
000150 dc ca 3c 3e 6d 39 40 3e 4a 89 45 3e 72 ae 4a 3e
       0.1843676 0.18771906 0.19290653 0.19793108
000160 58 2f 46 3e 92 46 41 3e b5 03 3d 3e 19 22 42 3e
       0.19353998 0.18874577 0.18458445 0.1895832
000170 92 df 46 3e 5a c5 42 3e 7e 04 3e 3e 6c 75 38 3e
       0.19421223 0.19020596 0.18556401 0.18013543
000180 69 6d 3d 3e a0 00 42 3e 71 0d 3e 3e eb 70 39 3e
       0.18498768 0.18945551 0.18559815 0.18109481
