outputs/ConvRNN_D3_K7_H8_SS4_2_04_21-52-10/checkpoints/model-epoch=05-validation_loss=0.25.ckpt (torch, 301134 bytes, 54 tensors)

model.bias f4 [8]
0	0x3f024dfb	0.5090024
1	0x3e5b6808	0.21426404
2	0xbf3ef126	-0.74586713
3	0x3fbb5e19	1.4638091
4	0x3f5610d2	0.83619416
5	0xbea9b358	-0.3314464
6	0xbe4f22ce	-0.2022812
7	0x3eec67da	0.46172982

model.input_layers.0.weight f4 [8, 1, 7, 7]
0	0x3cb21812	0.021739993
1	0x3cf32a98	0.029683396
2	0xbe0d3aef	-0.13792013
3	0x3d2edf32	0.042693324
4	0xbe4adad3	-0.19810037
5	0xbd7d0647	-0.061773565
6	0xbd979b24	-0.074026376
7	0xbe0d021c	-0.13770336
8	0xbdbd2449	-0.092354365
9	0xbdee3b59	-0.116324134
10	0xbe54bee8	-0.2077595
11	0xbe3e22b1	-0.18567921
12	0x3c095543	0.008382144
13	0xbd7c0431	-0.061527435
14	0xbe233dc3	-0.15941529
15	0xbd96b66b	-0.07359012
16	0x3cf35f9b	0.029708674
17	0xbc4db896	-0.012556216
18	0xbe31abfa	-0.1735076
19	0xbe21f5be	-0.158164
20	0x3ae27314	0.0017276728
21	0xbcff720d	-0.031182313
22	0xbe02120a	-0.12702194
23	0xbd87ec08	-0.06636816
24	0x3ca74a12	0.020421062
25	0xbdd0ea32	-0.10200919
26	0x3bc16d7b	0.0059029437
27	0x3d44667d	0.047949303
28	0x3d443d3f	0.04790997
29	0x3d0389b2	0.03211374
30	0xbceab62a	-0.028651316
31	0xbdd0d24f	-0.10196363
32	0xbe0f6b81	-0.14005853
33	0x3d817cbf	0.063226216
34	0xbce5c411	-0.028047593
35	0xbe07c7a9	-0.13259758
36	0x3d973334	0.07382813
37	0x3d991255	0.074742
38	0x3c97da03	0.018536573
39	0xbe0cbc8f	-0.13743804
40	0x3d033be0	0.032039523
41	0xbe1bce17	-0.15215336
42	0x3d780c1c	0.060558423
43	0xbddd33c5	-0.1080089
44	0xbd8e9b12	-0.06963171
45	0xbe0f3c68	-0.13987887
46	0xbb2c28a4	-0.002626934
47	0xbe012832	-0.1261299
48	0xbe41a269	-0.18909611
49	0x3ccb3193	0.024803912
50	0xbe0cdda6	-0.13756427
51	0xbe3a828c	-0.18213862
52	0xbad6a32b	-0.0016375532
53	0x3c861c8d	0.016371036
54	0xbdb4f669	-0.088360615
55	0x3d95f4ba	0.073220685
56	0xbd4a2cec	-0.049359247
57	0xbd535f18	-0.05160436
58	0xbd2d8178	-0.0423598
59	0x3d705381	0.058673386
60	0xbe092332	-0.13392332
61	0xbd1af679	-0.03783271
62	0x3d8b7006	0.06808476
63	0xbe269d4d	-0.16270943
64	0x3d907a44	0.0705457
65	0x3d00ac6a	0.031414427
66	0xbd31586a	-0.04329721
67	0xbd837c87	-0.06420236
68	0x3d102ba4	0.03519787
69	0xbe0c60cb	-0.13708799
70	0xbe168bb7	-0.14701734
71	0xbe2febef	-0.17179845
72	0xbe0197aa	-0.12655511
73	0xbe03f281	-0.12885477
74	0xbd365960	-0.04451883
75	0x3d00b718	0.03142461
76	0xbce41dbc	-0.02784621
77	0xbd69544b	-0.056965154
78	0xbc40b0fb	-0.011760945
79	0xbe25bad0	-0.16184545
80	0x3d4aafe2	0.04948414
81	0xbe3bc8ea	-0.18338361
82	0x3ce1623e	0.027512666
83	0x3d8c2b36	0.06844179
84	0xbdaf354f	-0.0855509
85	0xbde646a0	-0.112439394
86	0xbda9bd0f	-0.08288013
87	0xbe37d147	-0.17950927
88	0xbe50baf2	-0.20383814
89	0x3d7a25ac	0.061071083
90	0xbb7bcc6f	-0.0038421412
91	0x3d193864	0.037407294
92	0xbe3f6f95	-0.18694909
93	0xbe2044c4	-0.15651232
94	0xbd81c8b0	-0.06337106
95	0xbda120b3	-0.07867565
96	0xbe3c98c9	-0.18417658
97	0xbd01f35a	-0.03172622
98	0x3e42e0b7	0.19031034
99	0x3e2c6725	0.16836222
100	0xbcd12342	-0.025529508
101	0xbd911a54	-0.070851
102	0x3e23a2be	0.1598005
103	0x3c95a5bf	0.01826751
104	0xbc54edf5	-0.0129961865
105	0xbce35c3d	-0.027753944
106	0x3e4a381f	0.19747971
107	0x3d1dc535	0.03851815
108	0x3dce867f	0.10084247
109	0xbc9ad87c	-0.018902056
110	0xbd9c348b	-0.07627209
111	0xbbf0ac5b	-0.007344765
112	0xbd02ab77	-0.031901803
113	0x3de46b8a	0.11153324
114	0x3e1a39be	0.1506109
115	0x3d8681cf	0.06567728
116	0x3c616a21	0.013758213
117	0xbd4bc434	-0.04974766
118	0x3db782f5	0.08960525
119	0x3c86782e	0.016414728
120	0xbc081ccc	-0.008307647
121	0x3e4d0b38	0.20023811
122	0x3cb0a69a	0.021563817
123	0x3e2b8488	0.16749775
124	0x3b2becb3	0.0026233613
125	0xbd5d6dba	-0.05405972
126	0x3d4faf8e	0.05070453
127	0x3d222b76	0.03959223
128	0x3e353484	0.17695814
129	0x3d99d071	0.0751046
130	0x3daff6d8	0.085920036
131	0x3e3f8870	0.1870439
132	0xbd8794b9	-0.066201635
133	0x3e08db87	0.13364993
134	0x3d8a6224	0.06757
135	0xbd214ebe	-0.039381735
136	0xbc83635a	-0.016038585
137	0x3e0c65ad	0.13710661
138	0xbcd99f40	-0.026565194
139	0x3e40751a	0.1879467
140	0x3e504719	0.20339622
141	0x3e101d74	0.14073735
142	0x3c3ae153	0.011406261
143	0xbd4af634	-0.049551204
144	0x3e4e69de	0.20157573
145	0x3da17b82	0.07884885
146	0x3d29f470	0.04149288
147	0xbd9aaa1a	-0.075519755
148	0xbc8fa078	-0.017532572
149	0xbcddc302	-0.027070526
150	0xbdb4d454	-0.08829561
151	0xbddad2da	-0.10684748
152	0x3dcad792	0.09904398
153	0x3dcee53e	0.10102318
154	0x3c513a47	0.012770242
155	0x3ddba60c	0.1072503
156	0xbc60f1ad	-0.013729495
157	0x3dc0afd1	0.09408534
158	0x3e2c69c3	0.1683722
159	0x3dd23af1	0.102651484
160	0xbd0cfc1d	-0.03442012
161	0x3e1bd6c9	0.15218653
162	0x3d7577b0	0.059928596
163	0x3e0968b7	0.13418852
164	0x3e191693	0.14950018
165	0xbbb93090	-0.005651541
166	0xbbf39a1a	-0.007434142
167	0xbda1d6eb	-0.079023205
168	0x3c9f932f	0.019479362
169	0x3e005ed4	0.12536174
170	0x3dfed221	0.12442423
171	0x3dbb5f09	0.09148986
172	0x3ccbb7e7	0.024867965
173	0x3e0fb043	0.14032082
174	0x3e13e47c	0.14442629
175	0x3b8da40c	0.0043225344
176	0xbcafbf28	-0.021453455
177	0x3c05f6e7	0.008176542
178	0x3bd25914	0.0064193103
179	0xbd15d5cf	-0.036580857
180	0x3e1c8779	0.15286054
181	0x3e1fbf0b	0.15600221
182	0x3d8ffacd	0.07030258
183	0x3c7257d5	0.014791449
184	0xbdbad271	-0.0912217
185	0x3dce9f6c	0.10089001
186	0xbc1dae36	-0.009624055
187	0xbcaa4936	-0.020786863
188	0xbd6baade	-0.057536
189	0x3cc63c0d	0.024198556
190	0x3d84d499	0.06485862
191	0x3e2b9019	0.16754188
192	0x3ca8985c	0.020580463
193	0x3e2d3fc9	0.16918863
194	0x3df247fd	0.11830137
195	0xbd2f4a01	-0.042795185
196	0x3df3327e	0.11874865
197	0x3d848098	0.0646984
198	0x3e45cd76	0.19316658
199	0xbbaab7ed	-0.005209914
200	0x3db01749	0.08598191
201	0x3da96e69	0.08273012
202	0x3e0f29ba	0.13980761
203	0x3d6118ce	0.054955296
204	0x3e45e5c0	0.19325924
205	0xbc53fac9	-0.01293821
206	0x3e286b5f	0.16447209
207	0x3dbab131	0.09115828
208	0x3df0742d	0.11740909
209	0x3c75aeec	0.014995318
210	0x3d62686a	0.05527536
211	0x3e245212	0.16046932
212	0xbbd2346d	-0.006414941
213	0x3e311859	0.17294444
214	0x3dcb00ee	0.09912287
215	0x3dc5639c	0.096381396
216	0x3def1910	0.11674702
217	0x3e2998ea	0.16562238
218	0x3e1da869	0.15396275
219	0x3e04c282	0.12964824
220	0x3e4fc35e	0.2028937
221	0x3ddacf21	0.10684038
222	0x3dce135f	0.100622885
223	0x3c397d09	0.011321315
224	0x3e34260f	0.17592643
225	0x3d7fc910	0.062447608
226	0xbd9be0b5	-0.07611219
227	0x3c813095	0.015770236
228	0xbd8ff80e	-0.070297346
229	0x3e2cba2b	0.16867892
230	0x3df5ffaa	0.12011655
231	0x3e04430e	0.12916204
232	0x3e24ce4a	0.16094318
233	0x3e17a602	0.1480942
234	0x3e0aabbf	0.13542078
235	0xbd0629cc	-0.032754704
236	0x3dc6a08b	0.0969859
237	0x3d5f3339	0.05449221
238	0x3d7c67db	0.06162248
239	0xbd8f02b4	-0.069829375
240	0x3e20d529	0.15706314
241	0x3e165612	0.1468127
242	0x3e2831a7	0.16425191
243	0x3e2cfd07	0.16893397
244	0x3db50880	0.08839512
245	0x3e2d0263	0.16895442
246	0x3dbd18ad	0.09233222
247	0x3e111a58	0.14170206
248	0x3db022b0	0.08600366
249	0xbd85f899	-0.06541557
250	0xbbf159c4	-0.007365437
251	0xbdc9679f	-0.09834217
252	0xbcacba32	-0.021084879
253	0x3e2c727f	0.16840552
254	0x3df5b5de	0.11997579
255	0x3e00fe7d	0.1259708

model.input_layers.0.bias f4 [8]
0	0x3e1cee9d	0.15325399
1	0x3e141979	0.14462842
2	0xbd01d598	-0.03169784
3	0xbde386b1	-0.11109675
4	0xbd067eb3	-0.032835674
5	0xbd5c7b0f	-0.053828295
6	0x3e4392e9	0.1909901
7	0x3d3c304f	0.04594451

model.input_layers.1.weight f4 [8, 8, 7, 7]
0	0x3d0a6cbe	0.03379511
1	0x3d17d180	0.03706503
2	0x3dd10df3	0.10207739
3	0x3daf55f5	0.08561317
4	0x3cb787fb	0.022403708
5	0x3cdbdbf2	0.026838277
6	0x3d859fee	0.06524645
7	0x3d822dc5	0.06356386
8	0x3ca9dd2d	0.020735348
9	0x3da36396	0.07977979
10	0x3dbf0f22	0.09329058
11	0x3c9b457e	0.018954035
12	0x3dc45c7b	0.09587952
13	0x3db7f4f0	0.08982265
14	0x3dce9bec	0.100883335
15	0x3dcf2182	0.10113813
16	0x3dab44d1	0.08362735
17	0x3db5fe75	0.088864245
18	0x3cb1edc8	0.021719828
19	0x3dc984db	0.09839793
20	0x3cb79329	0.022409039
21	0x3c9849aa	0.018589813
22	0x3dbaf9c0	0.09129667
23	0x3d21d847	0.0395129
24	0x3d9180d9	0.07104654
25	0x3d52aae1	0.051432494
26	0x3de1042b	0.10987123
27	0x3d98247d	0.074288346
28	0x3d100524	0.035161152
29	0x3d85227a	0.065007165
30	0x3cac3b1a	0.021024276
31	0x3dc79b7b	0.097464524
32	0x3dd0a8f8	0.10188478
33	0x3d1389f7	0.036020245
34	0x3d4d0bd7	0.05006012
35	0x3da9a1b3	0.08282795
36	0x3d7db71c	0.061942205
37	0x3de4ad3c	0.11165854
38	0x3deb5929	0.11491615
39	0x3d16f353	0.036853146
40	0x3d45ff44	0.048339143
41	0x3dab8b85	0.083762206
42	0x3cd23810	0.025661498
43	0x3cff48ce	0.031162646
44	0x3dc6cae0	0.09706664
45	0x3ce799ab	0.028271517
46	0x3d782b8e	0.060588412
47	0x3d45e6a6	0.048315667
48	0x3cf04137	0.029327972
49	0x3d2fc7b9	0.04291508
50	0x3de63145	0.11239866
51	0x3dd34cc7	0.103173785
52	0x3d650fff	0.05592346
53	0x3d127652	0.03575737
54	0x3dcc954b	0.09989413
55	0x3d86edb5	0.06588308
56	0x3dd29781	0.10282803
57	0x3ce31849	0.027721541
58	0x3d724f46	0.059157632
59	0x3cb2585b	0.021770647
60	0x3cdeca03	0.027195936
61	0x3dbbc477	0.09168332
62	0x3da8e845	0.08247427
63	0x3c85ffce	0.016357329
64	0x3d47480f	0.048652705
65	0x3deb584d	0.114914514
66	0x3d13bd7d	0.036069382
67	0x3d729218	0.059221357
68	0x3cf9c701	0.0304904
69	0x3d51e56a	0.051244177
70	0x3d0d8a34	0.03455563
71	0x3d2acdfd	0.041700352
72	0x3d7bb9e6	0.061456583
73	0x3d1ef274	0.03880544
74	0x3d46f790	0.048575938
75	0x3de09d41	0.10967494
76	0x3ddab7bd	0.106795765
77	0x3cdfbbb8	0.027311191
78	0x3dea5a33	0.114429854
79	0x3d9f3160	0.077730894
80	0x3ce692d8	0.028146192
81	0x3d34ea94	0.044169024
82	0x3d9202be	0.07129429
83	0x3cb25610	0.021769553
84	0x3cbd6eec	0.02312418
85	0x3d1e7ec8	0.038695127
86	0x3dca23ee	0.09870134
87	0x3ddb9932	0.10722579
88	0x3dd3ec58	0.10347813
89	0x3de4655e	0.11152147
90	0x3caba547	0.020952834
91	0x3db64bb5	0.08901159
92	0x3d301ae2	0.042994387
93	0x3d184fbc	0.037185416
94	0x3d864f95	0.06558148
95	0x3d2f882c	0.042854473
96	0x3dacae0b	0.084316336
97	0x3d3bb5ae	0.04582756
98	0x3cbd7297	0.02312593
99	0x3db490b8	0.088166654
100	0x3db4a120	0.08819795
101	0x3dbab9e5	0.09117488
102	0x3d0533bf	0.032520052
103	0x3d2087f0	0.03919214
104	0x3dbf61b2	0.09344806
105	0x3d76ed0b	0.060284656
106	0x3d9d6df2	0.07686986
107	0x3db32298	0.087468326
108	0x3dc52c43	0.09627583
109	0x3d606fe4	0.054794207
110	0x3d13e600	0.036108017
111	0x3d61fe30	0.055174053
112	0x3d8097a6	0.06278925
113	0x3ca7edc4	0.020499118
114	0x3db170e8	0.08664113
115	0x3d5610c9	0.0522621
116	0x3d806539	0.06269307
117	0x3d970736	0.07374422
118	0x3db3d24d	0.08780346
119	0x3d7152d1	0.05891687
120	0x3cd3f805	0.0258751
121	0x3d47671c	0.048682317
122	0x3d5d1d7b	0.053983193
123	0x3dbeb08f	0.0931102
124	0x3d44ff0c	0.048094794
125	0x3d878e3d	0.06618927
126	0x3d770b26	0.060313366
127	0x3ded3e26	0.115841195
128	0x3d82326b	0.06357273
129	0x3d841fd9	0.06451387
130	0x3d46aa28	0.048502117
131	0x3d3ea3d1	0.046542946
132	0x3d3ad7f1	0.045616094
133	0x3d66e324	0.056368962
134	0x3cfe17b1	0.031017156
135	0x3cd98e3b	0.026557079
136	0x3ce62314	0.028092898
137	0x3cec4f58	0.028846428
138	0x3c8f5a93	0.017499244
139	0x3d1329f6	0.03592869
140	0x3de16aca	0.110066965
141	0x3cb8e1c9	0.0225686
142	0x3de49db2	0.111628905
143	0x3dd0c699	0.101941295
144	0x3cc0cebd	0.02353608
145	0x3d7dff79	0.062011216
146	0x3d7ee2bc	0.06222795
147	0x3ddeb1e9	0.108737774
148	0x3de866ed	0.113477565
149	0x3d1ec3e9	0.038761053
150	0x3cb75a7c	0.022382013
151	0x3dac8938	0.0842461
152	0x3cd55452	0.026041184
153	0x3cab8cf5	0.020941237
154	0x3df0c3b1	0.11756075
155	0x3d6d15a9	0.057881985
156	0x3d70be71	0.05877537
157	0x3db03dbc	0.08605525
158	0x3daf63b4	0.08563939
159	0x3d06e155	0.032929737
160	0x3d266f4f	0.040633496
161	0x3dcf0b41	0.101095684
162	0x3db3adc7	0.0877338
163	0x3dc2a810	0.09504712
164	0x3ca048e1	0.019566001
165	0x3d75d50e	0.060017638
166	0x3d8f3fb7	0.069945745
167	0x3d1a6ada	0.037699558
168	0x3dd3cdb5	0.1034197
169	0x3dafb0a2	0.08578612
170	0x3ca153ad	0.01969322
171	0x3c9d9e70	0.019240588
172	0x3dca3a09	0.098743506
173	0x3d8f474a	0.06996019
174	0x3d32a207	0.043611553
175	0x3d48134f	0.04884654
176	0x3ca7ea50	0.020497471
177	0x3dbe672c	0.09297022
178	0x3dd3d898	0.10344046
179	0x3de593d2	0.11209835
180	0x3dc982e8	0.098394215
181	0x3d3256a7	0.04353967
182	0x3cffb051	0.031212004
183	0x3d4f749a	0.05064831
184	0x3dac35c4	0.084086925
185	0x3cd7fc8d	0.026365543
186	0x3dc0bf28	0.0941146
187	0x3dc40a9f	0.09572338
188	0x3defd5dc	0.11710712
189	0x3d600bd6	0.054698788
190	0x3dc35ed6	0.09539573
191	0x3d809be9	0.062797375
192	0x3d8957e4	0.06706217
193	0x3dedda03	0.11613848
194	0x3de3cea3	0.11123397
195	0x3db5bd9a	0.08874054
196	0x3d8f49de	0.06996511
197	0x3d641cdc	0.055691585
198	0x3d800a37	0.06251948
199	0x3d9513b4	0.07279149
200	0x3db62de7	0.08895474
201	0x3cfb390e	0.030666854
202	0x3dd8fa45	0.1059461
203	0x3d0c8781	0.034308914
204	0x3d65ed46	0.056134485
205	0x3dcf5324	0.1012328
206	0x3d7678e5	0.060173888
207	0x3d41b02a	0.047287144
208	0x3dcde47b	0.10053345
209	0x3da7babc	0.08189914
210	0x3d1b3bae	0.03789871
211	0x3d144c57	0.036205616
212	0x3db43384	0.08798888
213	0x3d47a36f	0.048739847
214	0x3ca79d11	0.020460637
215	0x3d81cc22	0.06337763
216	0x3d2b29b0	0.041787803
217	0x3de43622	0.111431375
218	0x3dc634f5	0.096780695
219	0x3dc222c5	0.09479288
220	0x3dbfcdab	0.093654
221	0x3d3d1500	0.046162605
222	0x3dc2ca96	0.095112965
223	0x3daddeeb	0.08489784
224	0x3cbd7e6d	0.023131574
225	0x3d855d5f	0.0651195
226	0x3d61fd20	0.05517304
227	0x3cc8e0f9	0.024521338
228	0x3d1e4b4f	0.03864604
229	0x3d9e1741	0.07719279
230	0x3dd1ee42	0.10250522
231	0x3d7a3e7c	0.061094746
232	0x3de8fb93	0.11376109
233	0x3d0c4e1a	0.03425417
234	0x3d92eb40	0.071737766
235	0x3c9fe640	0.019518971
236	0x3d3da0e6	0.046296023
237	0x3da162d8	0.07880181
238	0x3dad5354	0.08463159
239	0x3d38449b	0.044987302
240	0x3d676017	0.056488123
241	0x3d826e52	0.06368698
242	0x3dd02119	0.10162563
243	0x3dbb61ad	0.091494896
244	0x3dad4708	0.08460814
245	0x3d66922a	0.056291737
246	0x3d1e38e6	0.03862848
247	0x3dbd713f	0.092501156
248	0x3d577e93	0.052610945
249	0x3d188ff9	0.037246678
250	0x3db55bb9	0.08855385
251	0x3dec6ad5	0.11543814
252	0x3c9cb46d	0.019129002
253	0x3db3d148	0.087801516
254	0x3dcbbc14	0.099479824
255	0x3daa5963	0.083178304

model.input_layers.1.bias f4 [8]
0	0x3dc8ff95	0.098143734
1	0x3daefee2	0.08544709
2	0x3d231264	0.03981246
3	0xbdab310c	-0.08358964
4	0x3da989b3	0.08278217
5	0x3c3bafaf	0.01145546
6	0x3d8e4d1b	0.069483005
7	0x3cabb42f	0.020959942

model.input_layers.2.weight f4 [8, 8, 7, 7]
0	0xbd8fd77e	-0.07023524
1	0xbdab12f8	-0.083532274
2	0xbd807712	-0.06272711
3	0xbdcf5622	-0.101238504
4	0xbd80b295	-0.06284062
5	0xbd4b85cc	-0.049688146
6	0xbd5797f4	-0.05263515
7	0xbdcf8143	-0.101320766
8	0xbd2ff207	-0.042955425
9	0xbc63c855	-0.013902743
10	0xbca73b24	-0.020413943
11	0xbd8e41c6	-0.06946139
12	0xbdcaa710	-0.09895146
13	0xbd360af7	-0.04444405
14	0xbd83094a	-0.06398256
15	0xbdd0cd0d	-0.1019536
16	0xbdbc19f9	-0.091846414
17	0xbd8ce1c6	-0.06879
18	0xbc676c9d	-0.0141250165
19	0xbd94e80b	-0.07270821
20	0xbdc90e6e	-0.09817205
21	0xbc2872d0	-0.01028128
22	0xbd20d30f	-0.03926378
23	0xbda5f95e	-0.08104204
24	0xbdc0ab09	-0.09407622
25	0xbd32b3d5	-0.043628532
26	0xbd066758	-0.0328134
27	0xbddca508	-0.10773665
28	0xbd11b79f	-0.035575505
29	0xbcf7571e	-0.030192908
30	0xbdca52ed	-0.09879098
31	0xbcb4f530	-0.02208957
32	0xbd85632a	-0.06513055
33	0xbd6b57f9	-0.057456944
34	0xbd231f6a	-0.03982488
35	0xbda679e9	-0.08128721
36	0xbdc39011	-0.09548963
37	0xbc5ceb0f	-0.013483777
38	0xbcf3100b	-0.029670736
39	0xbdc9a8f0	-0.098466754
40	0xbc7e370a	-0.015516052
41	0xbdcedee2	-0.10101105
42	0xbd59c732	-0.053168483
43	0xbdd6f25d	-0.10495446
44	0xbd4f590d	-0.050622035
45	0xbd8ae4f5	-0.06781951
46	0xbd153666	-0.03642883
47	0xbd006061	-0.031341914
48	0xbdc02804	-0.093826324
49	0xbdb5cc68	-0.08876878
50	0xbd7fbb41	-0.06243444
51	0xbcb741c6	-0.02237023
52	0xbd9d8b1a	-0.07692547
53	0xbdd1ae5c	-0.102383345
54	0xbc84417a	-0.016144503
55	0xbdd506b2	-0.10401668
56	0xbd95bdd2	-0.07311596
57	0xbd7a991b	-0.06118117
58	0xbcb48a89	-0.022038715
59	0xbde0c351	-0.10974754
60	0xbdaf6b58	-0.08565396
61	0xbca03c00	-0.01955986
62	0xbd224b41	-0.03962255
63	0xbdb8b5a4	-0.0901902
64	0xbc22ad5c	-0.009929027
65	0xbdc4d3a6	-0.09610681
66	0xbdb59d77	-0.08867925
67	0xbdb9c2b2	-0.09070338
68	0xbdc13914	-0.09434715
69	0xbc8b4f00	-0.017005444
70	0xbd8ff8d4	-0.07029882
71	0xbd9ccf11	-0.07656682
72	0xbd7e3ccb	-0.062069695
73	0xbda3fa9c	-0.08006784
74	0xbd62aec8	-0.055342466
75	0xbda5c864	-0.08094862
76	0xbcda9271	-0.026681157
77	0xbdc3bb11	-0.095571645
78	0xbd743c92	-0.059628077
79	0xbdb9c1be	-0.090701565
80	0xbd071857	-0.032982197
81	0xbda40681	-0.08009053
82	0xbd9bf209	-0.07614524
83	0xbd91d843	-0.07121327
84	0xbcc960be	-0.024582263
85	0xbd3de339	-0.046359275
86	0xbd8d60e2	-0.069032446
87	0xbd737b52	-0.05944378
88	0xbd217af0	-0.039423883
89	0xbc56d025	-0.013111149
90	0xbd28480a	-0.041084327
91	0xbd8e55a4	-0.069499284
92	0xbdc29529	-0.09501106
93	0xbd0174a1	-0.031605367
94	0xbd531bb7	-0.051540103
95	0xbd35a8f4	-0.04435058
96	0xbd980bb6	-0.07424109
97	0xbdc8bd1d	-0.098016955
98	0x3d812fd3	0.0630795
99	0xbd8c2e27	-0.0684474
100	0x3da01857	0.078171425
101	0x3d82f47a	0.063942865
102	0x3c43caf4	0.011950243
103	0x3d02c81d	0.031929124
104	0x3c8141b7	0.015778406
105	0x3dad0b77	0.08449452
106	0x3c8ca28e	0.017167356
107	0x3ccebfed	0.025238002
108	0x3c8100f8	0.015747532
109	0x3d6df1aa	0.058091797
110	0x3db7269d	0.08942912
111	0x3d3892db	0.045061927
112	0x3d65c6ce	0.056097798
113	0x3daae90d	0.08345232
114	0x3d64d8e0	0.05587089
115	0x3dc3600a	0.09539802
116	0x3d1a7556	0.037709557
117	0x3cbe8b96	0.02325992
118	0x3dde8b27	0.10866385
119	0x3d02392a	0.031792797
120	0x3da6ad9c	0.08138582
121	0x3da89cb3	0.08233013
122	0x3d538425	0.051639695
123	0x3d9bba66	0.07603912
124	0x3d62bdec	0.055356905
125	0x3d3292d6	0.043597065
126	0x3d561ad5	0.052271683
127	0x3cb9a84b	0.022663256
128	0x3d91b75e	0.07115053
129	0x3d9c7fce	0.07641564
130	0x3dc329cc	0.095294565
131	0x3dc165ab	0.0944322
132	0x3caed8c8	0.021343604
133	0x3dd9918b	0.10623463
134	0x3cebcc7a	0.028784025
135	0x3c21e5a1	0.009881408
136	0x3d0c10a0	0.034195542
137	0x3daa825a	0.08325644
138	0x3d06c01c	0.032898054
139	0x3d296f1b	0.041365724
140	0x3d39948b	0.045307677
141	0x3c92a7b3	0.01790223
142	0x3ddd1b08	0.107961714
143	0x3cbc9d68	0.023024276
144	0x3dbb1119	0.091341205
145	0x3d96e8d8	0.0736863
146	0x3dc338d5	0.09532324
147	0xbd3d54cc	-0.046223447
148	0xbd4617d3	-0.048362564
149	0xbc2495fe	-0.010045527
150	0xbcab736b	-0.020929059
151	0xbdc88429	-0.097908325
152	0xbcbe7d27	-0.023253037
153	0xbda9c20e	-0.08288966
154	0xbd4541de	-0.04815852
155	0xbddff9a8	-0.1093629
156	0xbc81b608	-0.01583387
157	0xbd171054	-0.036880806
158	0xbc203d94	-0.009780306
159	0xbd182e60	-0.0371536
160	0xbd9428a0	-0.07234311
161	0xbd25cf64	-0.040480986
162	0xbc57907a	-0.0131570045
163	0xbd92b2ee	-0.071630344
164	0xbd9c2360	-0.07623935
165	0xbd6788d8	-0.05652699
166	0xbdd0638e	-0.101752385
167	0xbd2d6e71	-0.042341653
168	0xbd54de09	-0.05196956
169	0xbc3d5c76	-0.011557689
170	0xbd6a51f1	-0.05720705
171	0xbda470b0	-0.08029306
172	0xbcb8eabe	-0.022572871
173	0xbc89ed4d	-0.016836787
174	0xbd7fc8bc	-0.062447295
175	0xbd9ebaf0	-0.07750499
176	0xbd7b0cd0	-0.061291516
177	0xbdb2dd3a	-0.08733602
178	0xbc959cec	-0.018263303
179	0xbd057f3e	-0.03259205
180	0xbdbfe839	-0.09370465
181	0xbce588b4	-0.028019287
182	0xbdd24c85	-0.10268501
183	0xbdc79c9d	-0.097466685
184	0xbc87f6fd	-0.016597265
185	0xbdb4c43e	-0.08826493
186	0xbd8b915f	-0.06814837
187	0xbdbc5a0e	-0.09196864
188	0xbdc6c024	-0.09704617
189	0xbdd92adb	-0.10603877
190	0xbd788b9f	-0.060680028
191	0xbd7213a4	-0.059100762
192	0xbc5548e5	-0.013017868
193	0xbda80c3e	-0.0820546
194	0xbda27de0	-0.07934165
195	0xbde17da8	-0.11010295
196	0xbde0187d	-0.10942171
197	0xbdddbb36	-0.10826723
198	0xbd93d40f	-0.07218181
199	0xbda8a565	-0.082346715
200	0xbd25bcc8	-0.04046324
201	0xbd8ff955	-0.07029978
202	0xbd1ff528	-0.03905216
203	0xbcd3aedb	-0.025840214
204	0xbdd24b2b	-0.102682434
205	0xbc326ebd	-0.01089066
206	0xbddff158	-0.109347045
207	0xbd28ce8a	-0.041212596
208	0xbd671459	-0.05641589
209	0xbd87dd70	-0.06634033
210	0xbce90703	-0.028445726
211	0xbc88ebde	-0.016714033
212	0xbd430972	-0.04761643
213	0xbd250ff4	-0.040298417
214	0xbd8f6af6	-0.07002823
215	0xbd7c11b5	-0.061540324
216	0xbcb9dfc0	-0.0226897
217	0xbda025ae	-0.07819687
218	0xbdd6a083	-0.10479834
219	0xbdd9ba71	-0.10631264
220	0xbdcaf7fd	-0.09910581
221	0xbd8dcd44	-0.06923917
222	0xbccf4a36	-0.025303941
223	0xbdb8fcbc	-0.0903258
224	0xbdd91890	-0.10600388
225	0xbdc405bf	-0.095714085
226	0xbddab781	-0.10679532
227	0xbc78c247	-0.015183038
228	0xbda4845f	-0.0803306
229	0xbd21a50c	-0.03946404
230	0xbd80d56f	-0.06290709
231	0xbd6423ef	-0.05569833
232	0xbd6f92ea	-0.058489718
233	0xbdd003f6	-0.101570055
234	0xbd99bc90	-0.075066686
235	0xbce8010b	-0.02832081
236	0xbd23196a	-0.03981916
237	0xbd05f3db	-0.03270326
238	0xbce57665	-0.028010556
239	0xbd283ade	-0.041071765
240	0xbcaf7fc5	-0.02142323
241	0xbdc41525	-0.095743455
242	0xbda2e2d7	-0.079534225
243	0xbcf59a12	-0.029980693
244	0xbdcd2093	-0.10015979
245	0xbd4786d3	-0.048712563
246	0xbdcb097c	-0.099139184
247	0xbd47206f	-0.048614915
248	0xbd0f0e0b	-0.0349255
249	0xbdde8876	-0.108658716
250	0xbdc14a05	-0.09437946
251	0xbc95c896	-0.018284123
252	0xbc820b8a	-0.015874643
253	0xbd093c43	-0.033504736
254	0xbd24f47a	-0.040272214
255	0xbd3dda96	-0.046351038

model.input_layers.2.bias f4 [8]
0	0xbd2efc57	-0.04272112
1	0xbd93d6f9	-0.07218737
2	0x3cb90063	0.022583192
3	0xbda39565	-0.07987479
4	0x3b39dc2e	0.0028359997
5	0x3c96e99e	0.018421944
6	0x3cc04154	0.02346865
7	0xbdda00f6	-0.106447145

model.hidden_layers.0.weight f4 [8, 8, 7, 7]
0	0xbc6ebebd	-0.014571843
1	0xbc3d9961	-0.011572213
2	0xbc70cce8	-0.014697291
3	0x3b89a440	0.0042004883
4	0xbd9f1dc4	-0.07769349
5	0xbc98aabc	-0.0186361
6	0xbdc238af	-0.09483468
7	0xbd5fe492	-0.05466134
8	0xbd58e7ac	-0.052955315
9	0xbc242a79	-0.010019892
10	0xbc6cbf28	-0.014449872
11	0xbcb50756	-0.022098225
12	0xbd84aba5	-0.06478051
13	0xbd8b5732	-0.068037406
14	0xbd9bc287	-0.076054625
15	0xbdb86091	-0.090027936
16	0xbcb1b3ad	-0.021692121
17	0xbce13eb2	-0.027495716
18	0xbd9ba589	-0.07599933
19	0xbd16e89b	-0.036842924
20	0xbded8f92	-0.115996495
21	0xbd58f2ee	-0.05296605
22	0xbd4053c0	-0.04695487
23	0xbd82b2b7	-0.063817434
24	0xbdaec0fb	-0.08532902
25	0xbd978f64	-0.074003965
26	0xbbcd7d7c	-0.0062710624
27	0xbcbb2679	-0.022845494
28	0xbd8a03eb	-0.067390285
29	0x3a1a81b4	0.0005893961
30	0xbccf11b1	-0.02527699
31	0xbc8ff632	-0.01757345
32	0xbdaa9d19	-0.08330745
33	0xbc5d7798	-0.013517283
34	0xbcbdd055	-0.02317063
35	0x3ad871b6	0.0016513381
36	0xbc9ae855	-0.018909613
37	0xbc968905	-0.018375883
38	0xbdbdfc4c	-0.092766374
39	0xbc225862	-0.009908767
40	0xbd35a473	-0.044346284
41	0xbd9ddca4	-0.077080995
42	0xbda6a709	-0.08137328
43	0xbd242ece	-0.0400837
44	0xbdbb943f	-0.09159135
45	0xbd889f1b	-0.06670972
46	0xbd2fcbeb	-0.04291908
47	0xbd1a344c	-0.03764753
48	0xbce9bc0a	-0.028532047
49	0xbd8cd940	-0.06877375
50	0xbd608ab9	-0.054819796
51	0xbb238521	-0.0024951177
52	0xbc941823	-0.018077916
53	0xbc3a851f	-0.011384278
54	0xbd4b990d	-0.049706507
55	0xbde97246	-0.11398749
56	0xbd875402	-0.0660782
57	0xbd8a591e	-0.06755279
58	0xbd379506	-0.044819854
59	0xbd751acd	-0.059840012
60	0xbd841633	-0.06449547
61	0xbd462fdc	-0.048385486
62	0xbdc65c63	-0.0968559
63	0xbd8e3df8	-0.06945413
64	0xbc55db66	-0.013052797
65	0xbd879bb6	-0.066214964
66	0xbd9ffceb	-0.07811912
67	0xbc9971f7	-0.0187311
68	0xbcf29742	-0.029613141
69	0xbcae1d1f	-0.02125412
70	0x3ad12663	0.0015956875
71	0xbd92321d	-0.071384646
72	0xbdb1cbfb	-0.08681484
73	0xbd2c2a1a	-0.04203234
74	0xbcbf98c4	-0.023388274
75	0xbd90af1d	-0.0706465
76	0xbd9eb2b4	-0.07748929
77	0xbcbe8e16	-0.023261111
78	0xbd118cbd	-0.03553461
79	0xbdbe12a4	-0.09280899
80	0xbd9ab3d6	-0.07553832
81	0xbda5096b	-0.08058437
82	0xbd9d69a7	-0.07686167
83	0xbd57bea7	-0.052672055
84	0xbcad8f9e	-0.021186646
85	0xbd1d34ea	-0.03838054
86	0xbca11e2b	-0.019667706
87	0xbb9826fe	-0.00464332
88	0xbdb48d80	-0.088160515
89	0xbd6fabef	-0.058513578
90	0xbdce8eff	-0.10085868
91	0xbdb658ec	-0.08903679
92	0xbd3c9fb8	-0.046050757
93	0xbc143c8c	-0.009047639
94	0xbb8f40be	-0.0043717315
95	0x3a6d3a49	0.00090495177
96	0xbd191411	-0.037372652
97	0xbd005213	-0.031328272
98	0x3d477cda	0.048703052
99	0x3d4c140c	0.049823806
100	0x3db992cb	0.09061202
101	0x3d4edc59	0.05050311
102	0x3d58d924	0.052941456
103	0x3dab8450	0.08374846
104	0x3cf2396b	0.029568395
105	0x3dbccc6c	0.09218678
106	0x3b79b03b	0.0038099426
107	0x3d9b91d5	0.07596175
108	0x3d42a847	0.047523763
109	0x3cefd2fc	0.02927541
110	0x3cf2c1c5	0.029633412
111	0x3d140abb	0.036143046
112	0x3d25f887	0.040520217
113	0x3db5f841	0.08885241
114	0x3d937ab2	0.07201137
115	0x3c848251	0.016175421
116	0x3dbca199	0.0921051
117	0x3cb7049d	0.022341067
118	0x3ca90647	0.020632876
119	0x3b91c3df	0.0044483985
120	0x3d7a9bba	0.06118367
121	0x3d30ef76	0.043197118
122	0x3da053f9	0.078285165
123	0x3c35ebb8	0.011103563
124	0xbb448d77	-0.0029991546
125	0x3d2bd875	0.041954476
126	0x3d093531	0.033497993
127	0x3d483993	0.048883032
128	0x3da81118	0.082063854
129	0x3d4de008	0.05026248
130	0x3d5d20c5	0.05398633
131	0x3d85fc71	0.0654229
132	0x3d4b0716	0.049567305
133	0x3d636195	0.055512983
134	0x3d776e1c	0.060407743
135	0x3db22ff8	0.087005556
136	0x3aef3c9a	0.0018252314
137	0x3da5f1d9	0.081027694
138	0x3c84547c	0.016153567
139	0x3de44948	0.1114679
140	0x3da1640b	0.0788041
141	0x3cdf15e9	0.027232127
142	0x3d6afc34	0.057369426
143	0x3dadada4	0.08480385
144	0x3d255b18	0.040370077
145	0x3d3d7c78	0.04626128
146	0x3d98c4f6	0.07459442
147	0xbd5ab359	-0.053393696
148	0xbcb92df2	-0.022604916
149	0xbd86561b	-0.06559392
150	0xbd33f990	-0.043939173
151	0xbd800a66	-0.06251983
152	0xbd7bc584	-0.061467662
153	0xbdec8ca3	-0.11550262
154	0xbce9f0b8	-0.028557166
155	0xbd19ca82	-0.037546642
156	0xbb9b0711	-0.004731067
157	0xbc632370	-0.013863429
158	0xbcc46446	-0.023973595
159	0xbd442582	-0.047887333
160	0xbdbf828a	-0.0935107
161	0xbc93b58d	-0.018030906
162	0xbdc0d45a	-0.09415503
163	0xbdab5b3f	-0.08367013
164	0xbad08c64	-0.001591098
165	0xbd7e3c33	-0.06206913
166	0xbd22fd98	-0.039792627
167	0xbd783c89	-0.060604606
168	0xbdba2d5f	-0.09090685
169	0xbda7ecb0	-0.081994414
170	0xba498b7a	-0.0007688325
171	0x3ab94dd3	0.0014137573
172	0xbd9c364d	-0.076275446
173	0xbd11b623	-0.03557409
174	0xbdcdf940	-0.10057306
175	0xbd217951	-0.039422337
176	0xbd8fa4ae	-0.07013832
177	0xbd645af9	-0.05575082
178	0xbc2479ac	-0.010038774
179	0x3ad64c6d	0.0016349681
180	0xbd87f58b	-0.066386305
181	0xbd9c229d	-0.076237895
182	0xbdb2b501	-0.0872593
183	0xbc62df02	-0.0138471145
184	0xbd3eeb08	-0.046610862
185	0x3aa9949b	0.0012937965
186	0xbdb14f96	-0.08657758
187	0xbd7475e8	-0.059682757
188	0xbd0f4007	-0.03497317
189	0xbd11beda	-0.0355824
190	0xbbe601f2	-0.007019275
191	0x3b9b0342	0.004730613
192	0xbd102f6d	-0.03520148
193	0xbdb425c8	-0.08796269
194	0xbd408e5d	-0.04701077
195	0xbdd203db	-0.102546416
196	0xbd4e5973	-0.050378274
197	0xbca380bd	-0.019958848
198	0xbcf200b9	-0.02954136
199	0xbc8ad78b	-0.016948482
200	0xbd98121c	-0.07425329
201	0xbd0d21ed	-0.034456182
202	0xbde81ac7	-0.113332324
203	0xbd533103	-0.051560413
204	0xbbdf1f08	-0.006809119
205	0xbd1d2e23	-0.038374078
206	0xbd8734a3	-0.066018365
207	0xbd451ec2	-0.048125036
208	0xbced8f3a	-0.02899896
209	0xbd423f50	-0.04742366
210	0xbcf5bd5c	-0.02999752
211	0xbdc45e4a	-0.09588297
212	0xbd4fe71e	-0.05075752
213	0xbd4db9cb	-0.050226014
214	0xbbfd25be	-0.0077254465
215	0xbca64c87	-0.020300163
216	0xbccfe56f	-0.025377957
217	0xbb70b80b	-0.0036730792
218	0xbd565cb7	-0.052334514
219	0xbd50d93c	-0.05098842
220	0xbdc417f9	-0.09574885
221	0xbb8058b5	-0.0039168247
222	0xbda557de	-0.080734
223	0xbd4b992c	-0.049706623
224	0xbda8440d	-0.08216105
225	0xbd9d770c	-0.07688722
226	0xbd3cd961	-0.046105746
227	0xbdaaa717	-0.08332651
228	0xbdb09071	-0.086213
229	0x3a85ebcb	0.0010217367
230	0xbd8bc9c4	-0.06825593
231	0xbd7c45e4	-0.06159009
232	0xbd243db6	-0.040097915
233	0xbd1b8302	-0.037966736
234	0xbd656d0f	-0.05601221
235	0xbba85d6a	-0.005138089
236	0xbdaf8b5b	-0.08571502
237	0xbdc9c086	-0.09851174
238	0xbd535cb9	-0.0516021
239	0xbca185e3	-0.019717162
240	0xbd8a4121	-0.067507036
241	0xbccc11b0	-0.024910778
242	0xbdbc2ebb	-0.09188601
243	0xbd987898	-0.074448764
244	0xbdeaae88	-0.114590704
245	0xbd8f6205	-0.070011176
246	0xbda5fd95	-0.081050076
247	0xbd04bc7a	-0.032406308
248	0xbd848ea5	-0.0647252
249	0xbd0c4e3e	-0.034254305
250	0xbd79805f	-0.06091344
251	0xbcfb9f48	-0.0307156
252	0xbd480a84	-0.048838153
253	0xbda28ca3	-0.079369806
254	0xbdc291d4	-0.09500471
255	0xbd5d66d5	-0.054053146

model.hidden_layers.0.bias f4 [8]
0	0xbd3973c5	-0.045276422
1	0x3d95165e	0.07279657
2	0xbd217b04	-0.039423957
3	0x3d5642ac	0.052309677
4	0xbc4fd0ca	-0.012684057
5	0xbdb3d669	-0.0878113
6	0xbc568583	-0.013093355
7	0xbb21efad	-0.0024709508

model.hidden_layers.1.weight f4 [8, 8, 7, 7]
0	0xbdb9db66	-0.0907505
1	0xbb82164b	-0.0039699427
2	0xbd065e36	-0.03280469
3	0xbca7545f	-0.020425973
4	0xbcddaf24	-0.027061053
5	0xbd4218a6	-0.047386788
6	0xbd84dbc4	-0.064872295
7	0xbdab65a8	-0.08368999
8	0xbdd641cb	-0.10461768
9	0xbd851d3f	-0.06499719
10	0xbd80f751	-0.06297172
11	0xbdd76f81	-0.105193146
12	0xbddc3f6c	-0.10754284
13	0xbdb967fb	-0.09053036
14	0xbdb1422c	-0.086551994
15	0xbd8b666e	-0.06806646
16	0xbce109e4	-0.027470537
17	0xbcf6e85f	-0.0301401
18	0xbdccb463	-0.099953435
19	0xbd7557b2	-0.059898086
20	0xbd81f44e	-0.063454255
21	0xbdc46916	-0.09590356
22	0xbd59ff7e	-0.053222172
23	0xbdbe94a5	-0.093056954
24	0xbddef1fe	-0.10886
25	0xbd6d9b6b	-0.058009546
26	0xbdb6265a	-0.08894034
27	0xbda9439c	-0.082648486
28	0xbdc3de88	-0.09563929
29	0xbdd68d10	-0.10476124
30	0xbdbca969	-0.09212
31	0xbc8e5271	-0.017373296
32	0xbd1b6385	-0.037936706
33	0xbdbc77eb	-0.0920256
34	0xbd299ed8	-0.04141125
35	0xbd795a1a	-0.060876943
36	0xbd95b3d6	-0.073096916
37	0xbc7f2d7a	-0.015574807
38	0xbde5fcb8	-0.11229843
39	0xbdead0e9	-0.11465628
40	0xbdaaea36	-0.083454534
41	0xbcb230ff	-0.021751879
42	0xbccf849c	-0.025331788
43	0xbdc438f8	-0.095811784
44	0xbd0c4962	-0.03424967
45	0xbd6b180a	-0.057395972
46	0xbcadbace	-0.02120724
47	0xbdacc770	-0.08436477
48	0xbcce8f41	-0.025214793
49	0xbd052b2f	-0.032511886
50	0xbd576585	-0.05258705
51	0xbda59cf5	-0.08086578
52	0xbd297225	-0.041368622
53	0xbba35055	-0.0049839416
54	0xbdbd1b9a	-0.0923378
55	0xbc881b22	-0.0166145
56	0xbba67b95	-0.00508065
57	0xbd4637a1	-0.048392896
58	0x3b75e4b8	0.003752036
59	0xbd246fb6	-0.0401456
60	0xbaec2785	-0.0018017149
61	0xbd881669	-0.066448994
62	0xbda62d20	-0.08114076
63	0xbcdeeeec	-0.027213536
64	0xbd59b2c3	-0.053148996
65	0xbc8a7846	-0.016903054
66	0xbdc0a711	-0.094068654
67	0xbd3b2a51	-0.045694653
68	0xbd0474fa	-0.03233812
69	0xbcbf0c4d	-0.023321295
70	0xbd6a1720	-0.05715096
71	0xbc93992d	-0.018017376
72	0xbdbcea41	-0.09224368
73	0xbd24105a	-0.040054657
74	0xbda49031	-0.08035315
75	0xbc9b156d	-0.018931115
76	0xbd0c87b8	-0.03430912
77	0xbd3c5777	-0.04598185
78	0xbcdc7d74	-0.02691529
79	0xbb920edd	-0.0044573382
80	0xbd8fd0ce	-0.07022248
81	0xbda9e0cc	-0.0829483
82	0xbdbe4f87	-0.092925124
83	0xbb8122cb	-0.003940915
84	0xbcdb9eb5	-0.026809076
85	0xbd7be885	-0.061501045
86	0xbd24bf27	-0.04022136
87	0xbda26e7f	-0.07931232
88	0xbc2a85ff	-0.010407924
89	0xbaa88209	-0.0012856136
90	0xbd7f9da8	-0.062406212
91	0xbdbce645	-0.09223608
92	0xbc97dff9	-0.018539416
93	0xbd7c27f1	-0.06156153
94	0xbd59ef40	-0.053206682
95	0xbcd2a1b9	-0.025711881
96	0xbc0aaa84	-0.008463506
97	0x3b91bae5	0.0044473284
98	0xbcabd433	-0.020975208
99	0xbd1a0625	-0.037603516
100	0xbd3f6332	-0.04672546
101	0xbdaab4bb	-0.08335253
102	0xbbc809a8	-0.0061046667
103	0xbd800d69	-0.06252558
104	0xbd9c7143	-0.076387905
105	0xbc3cc0dc	-0.011520591
106	0xbd371db7	-0.044706073
107	0xbd9df4f7	-0.07712739
108	0xbc96667a	-0.018359412
109	0xbd97f44e	-0.07419644
110	0x3a895c34	0.0010479749
111	0xbdbbb6ad	-0.09165702
112	0xbd6e6127	-0.05819812
113	0xbd8d4f5f	-0.068999045
114	0xbda15c90	-0.07878983
115	0xbd5e51c1	-0.054277185
116	0xbd781975	-0.060571153
117	0xba94103a	-0.001129634
118	0xbd8ebf45	-0.069700755
119	0xbd0764c3	-0.03305508
120	0xbd035313	-0.032061648
121	0xbcd9d3f9	-0.026590334
122	0xbca6bda6	-0.020354103
123	0xbca89790	-0.020580083
124	0xbd8aeaf1	-0.06783093
125	0x3b9006b4	0.0043953303
126	0xbd691385	-0.05690338
127	0xbd2004e5	-0.039067168
128	0xbb722be1	-0.0036952423
129	0xbd16e74c	-0.036841676
130	0xbb782fdf	-0.003787033
131	0xbd45612a	-0.048188366
132	0xbcf685d0	-0.030093104
133	0xbd132fe8	-0.03593436
134	0xbd9e06bc	-0.07716128
135	0xbc55c3d4	-0.013047177
136	0xbdbcf1b4	-0.09225789
137	0xbd3b8fe8	-0.045791537
138	0xbd2bc3a9	-0.041934643
139	0xbcca1a3a	-0.024670709
140	0xbc7441b1	-0.01490824
141	0xbd23183a	-0.039818026
142	0xbd148468	-0.036259085
143	0xbdb942fc	-0.090459794
144	0xbdb0bdd2	-0.08629955
145	0xbd858137	-0.065187864
146	0xbd371844	-0.044700876
147	0xbd1af273	-0.037828874
148	0xbd7cf646	-0.061758302
149	0xbbaef4a8	-0.005339224
150	0xbcb0a85d	-0.021564657
151	0xbd784160	-0.06060922
152	0xbd40bb92	-0.04705388
153	0xbd2c7a7f	-0.04210901
154	0xbd8905fc	-0.066905946
155	0xbc8f0f69	-0.017463403
156	0xbcd48796	-0.025943559
157	0x3b01adeb	0.00197875
158	0xbcc58ed1	-0.024115952
159	0xbd39e8b1	-0.045387927
160	0xbd6137a1	-0.054984692
161	0xbce70096	-0.028198522
162	0xbd3df036	-0.04637166
163	0xbd09f776	-0.033683263
164	0xbbe46a26	-0.0069706617
165	0xbc85e043	-0.016342288
166	0xbd0f0500	-0.034916878
167	0x3b4890aa	0.0030603805
168	0xbd9ff2ea	-0.07810004
169	0xbdb5009b	-0.08838006
170	0xbb3e2631	-0.0029014463
171	0xbd9a8c64	-0.07546309
172	0xbd2d645d	-0.042332042
173	0xba181c54	-0.0005802561
174	0xbca84226	-0.020539355
175	0xbd16ab03	-0.036784183
176	0xbcb9999d	-0.022656256
177	0xbc9a69ae	-0.01884922
178	0xbc3da223	-0.011574301
179	0xbd3bd999	-0.045861814
180	0xbc4a216c	-0.01233707
181	0xbd97f51b	-0.07419797
182	0xbdacbafa	-0.084341004
183	0xbd9e3b13	-0.07726111
184	0xb9e84158	-0.00044299173
185	0xbd280464	-0.041019812
186	0xbba3c8dc	-0.0049983095
187	0xbd27feb3	-0.041014384
188	0xbc8c95ed	-0.017161334
189	0xbd0635cf	-0.03276616
190	0xbd19b335	-0.03752442
191	0xbdaca343	-0.08429577
192	0xbc888999	-0.016667174
193	0xbd901b1c	-0.07036421
194	0xbdac44a8	-0.08411533
195	0x3b53310e	0.0032225284
196	0xbdbe9f9d	-0.093077876
197	0xbc38183d	-0.011236248
198	0xbd938a8b	-0.07204159
199	0xbd983c7d	-0.07433412
200	0xbcbae382	-0.022813562
201	0xbdbce920	-0.092241526
202	0xbd0c7410	-0.034290373
203	0x3b3e5b05	0.002904595
204	0xbd8f5f0c	-0.07000551
205	0xbc6092a2	-0.013706835
206	0xbd1928af	-0.037392315
207	0xbd9c74f6	-0.07639496
208	0xbdc3853c	-0.09546897
209	0xbdc27a8b	-0.094960295
210	0xbc7ef67b	-0.015561695
211	0xbc84a6cf	-0.016192822
212	0xbcb924bd	-0.022600526
213	0xbd9202e5	-0.07129458
214	0xbd8dbc59	-0.0692069
215	0xbdb89d12	-0.09014334
216	0xbd537bf2	-0.051631875
217	0xbd138c74	-0.03602262
218	0x39cdcf1e	0.0003925496
219	0xbd9b3a9e	-0.0757954
220	0xbbe158eb	-0.006877055
221	0xbc98aef2	-0.018638108
222	0xbd3b25e1	-0.04569042
223	0xbcdceb02	-0.02696753
224	0xbdb3eb1e	-0.087850794
225	0xbc0ffacb	-0.008787821
226	0xbc470154	-0.012146313
227	0x3b8db9f4	0.004325146
228	0xbd98f3a9	-0.074683495
229	0xbd3ef701	-0.04662228
230	0xbd9c8d2b	-0.07644113
231	0xbd7d13f8	-0.06178662
232	0xbd9ba203	-0.07599261
233	0x3b4444fd	0.0029948347
234	0xbda57ebb	-0.080808125
235	0xbd6d14d9	-0.05788121
236	0xbc481461	-0.01221189
237	0xbd0b5ea8	-0.034025818
238	0xbcdc3f7c	-0.02688574
239	0x39571f4b	0.00020515655
240	0xbd4691bc	-0.048478827
241	0xbd97d443	-0.074135326
242	0xbb8a9469	-0.0042291177
243	0xbd25ba49	-0.04046086
244	0xbd01cd98	-0.03169021
245	0x3cf1d482	0.029520277
246	0x3cd13487	0.025537742
247	0x3dba7217	0.09103792
248	0x3d9cbd8a	0.07653339
249	0x3d0ef68f	0.034903105
250	0x3d9a0268	0.0751999
251	0x3d11e65c	0.03562008
252	0x3c954cc7	0.018225087
253	0x3d866448	0.06562096
254	0x3c499f48	0.012306042
255	0x3d230cf4	0.039807275

model.hidden_layers.1.bias f4 [8]
0	0xbd0dd34b	-0.034625333
1	0xbcc22cbf	-0.023702977
2	0xbd9aa014	-0.07550064
3	0x3d3d5970	0.046227872
4	0xbceabde3	-0.028654998
5	0xbc210579	-0.009827965
6	0x3d0d6d96	0.034528337
7	0xbdccd4c1	-0.10001517

model.hidden_layers.2.weight f4 [8, 8, 7, 7]
0	0xbcc5814d	-0.024109507
1	0xbd895088	-0.06704813
2	0xbdebee56	-0.11520068
3	0xbda15716	-0.078779384
4	0xbd14693e	-0.03623318
5	0xbde7a2d1	-0.11310352
6	0xbdcbffed	-0.09960923
7	0xbdd61251	-0.10452712
8	0xbd292cad	-0.04130237
9	0xbd97264a	-0.0738035
10	0xbd9c0031	-0.07617224
11	0xbdc3b1d4	-0.095554024
12	0xbd24cc04	-0.040233627
13	0xbd4264a7	-0.04745927
14	0xbcdb3d19	-0.026762532
15	0xbd2702ca	-0.040774144
16	0xbdf1db07	-0.11809354
17	0xbd55167b	-0.052023392
18	0xbdbf74e1	-0.09348465
19	0xbd66af7c	-0.0563197
20	0xbce7d887	-0.02830149
21	0xbd9baa84	-0.07600883
22	0xbdaf5123	-0.085603975
23	0xbdc411ea	-0.09573729
24	0xbd618022	-0.055053838
25	0xbd55cf73	-0.052199792
26	0xbd88707b	-0.06662079
27	0xbdaacce9	-0.08339865
28	0xbd1dfe2e	-0.038572483
29	0xbd0fc6f3	-0.035101842
30	0xbd44a8dd	-0.048012603
31	0xbd044dab	-0.032300632
32	0xbd132cc1	-0.035931353
33	0xbd90a90f	-0.07063495
34	0xbdcea7ae	-0.10090576
35	0xbcd062a6	-0.025437664
36	0xbd86f902	-0.06590463
37	0xbd19787f	-0.03746843
38	0xbd554685	-0.052069206
39	0xbcc09709	-0.02350952
40	0xbdd3e585	-0.10346512
41	0xbc5a4e05	-0.013324265
42	0xbca3bf25	-0.019988606
43	0xbd378259	-0.044802044
44	0xbcb4b17b	-0.022057286
45	0xbce07c37	-0.02740298
46	0xbd3973e6	-0.045276545
47	0xbbb29cd8	-0.005450826
48	0xbc948a61	-0.01813239
49	0x3a99ab0e	0.0011723952
50	0xbd118850	-0.03553039
51	0xbd49dee4	-0.04928483
52	0xbd5f2644	-0.054479852
53	0xbd7c5b92	-0.061610766
54	0xbd110212	-0.035402365
55	0xbd7584bf	-0.05994105
56	0xbd898d61	-0.06716419
57	0xbdbc3b22	-0.09190966
58	0xbd0e2b74	-0.03470941
59	0xbd391304	-0.04518415
60	0xbc9bbad3	-0.019009983
61	0xbc22ce9c	-0.009936955
62	0xbd3cb048	-0.046066552
63	0xbd1dc01c	-0.038513288
64	0xbd8b319c	-0.067965716
65	0xbc7982fe	-0.015228985
66	0xbd89c06d	-0.067261554
67	0xbd048637	-0.03235456
68	0xbd471de7	-0.0486125
69	0xbd493a8b	-0.049128097
70	0xbc9cdcf7	-0.019148333
71	0xbd2a8f2c	-0.041640446
72	0xbc46ad87	-0.012126333
73	0xbdb51159	-0.088411994
74	0x3a7e71cf	0.000970629
75	0xbd80f33d	-0.06296394
76	0xbdc08b0d	-0.09401522
77	0xbccca18a	-0.024979372
78	0xbb6618f0	-0.0035110079
79	0xbda1d3a9	-0.07901699
80	0xbdb137df	-0.08653235
81	0xbd3f7281	-0.04674006
82	0xbd4f5cfb	-0.050625782
83	0xbc845280	-0.01615262
84	0xbc003713	-0.007825631
85	0xbcb6a659	-0.022296118
86	0xbcc084de	-0.023500856
87	0xbd57749d	-0.052601445
88	0x398aff01	0.00026511404
89	0xbd92b37a	-0.07163139
90	0xbd8b994a	-0.06816347
91	0xbd814c4d	-0.06313381
92	0xbdbcf85f	-0.092270605
93	0xbbee24ef	-0.0072675864
94	0xbdac70d9	-0.084199615
95	0xbda9034b	-0.08252581
96	0xbd31f1f3	-0.04344363
97	0xba0e40b0	-0.00054265093
98	0x3dd8511e	0.10562347
99	0x3d25cdb8	0.04047939
100	0xbd6092af	-0.05482739
101	0x3d628555	0.055302937
102	0x3d5b32b4	0.05351515
103	0x3dce6e79	0.10079665
104	0x3cba096e	0.022709575
105	0xbd61829a	-0.055056192
106	0xbc6b8b8f	-0.014376535
107	0xbd907468	-0.07053453
108	0xbdc811e1	-0.09769035
109	0xbcc11776	-0.023570757
110	0x3dabcd8f	0.083888166
111	0x3dd802a1	0.105473764
112	0xbd2a0733	-0.041510772
113	0xbd581033	-0.052749824
114	0xbd6f9ee6	-0.058501147
115	0xbdb539aa	-0.08848889
116	0xbd8fe510	-0.07026112
117	0xbd85f420	-0.06540704
118	0x3dcf4995	0.101214565
119	0xbc9ab8f4	-0.01888702
120	0xbd587592	-0.0528465
121	0xbcb7c06e	-0.022430625
122	0xbd376932	-0.044778056
123	0xbdc4fd25	-0.09618596
124	0xbda2e60c	-0.07954034
125	0x3d2f1a9d	0.04274999
126	0x3dc5ce71	0.09658516
127	0x3cf702ce	0.030152705
128	0xbacd4412	-0.0015660545
129	0x3dce532a	0.10074456
130	0x3d2a2b02	0.04154492
131	0x3d97d508	0.07413679
132	0x3dcf6740	0.10127115
133	0x3d2a2924	0.04154314
134	0x3dce9306	0.10086636
135	0x3d0dbfec	0.03460686
136	0x3d31d150	0.043412507
137	0x3d36edb9	0.044660304
138	0x3c852373	0.016252255
139	0x3dcdb5e9	0.10044462
140	0xbda8cbff	-0.08242034
141	0xbc338639	-0.010957294
142	0xbdd4aae0	-0.10384154
143	0xbc9fc913	-0.01950506
144	0xbdd2914d	-0.1028162
145	0x3d04c4f0	0.032414377
146	0x3d797306	0.06090071
147	0xbd3568e9	-0.044289503
148	0xbd78182b	-0.060569923
149	0xbd54ed61	-0.051984195
150	0xbdcba4c4	-0.09943536
151	0xbd1472f6	-0.036242448
152	0xbc9bbe50	-0.019011647
153	0xbdce5561	-0.100748785
154	0xbd6fa37e	-0.058505528
155	0xbd390d5c	-0.045178756
156	0xbc575b05	-0.013144259
157	0xbde881d8	-0.11352891
158	0xbd8165fa	-0.063182786
159	0xbdb27e6c	-0.08715519
160	0xbc8e1f2f	-0.017348854
161	0xbcea3b15	-0.028592626
162	0xbcfd0714	-0.030887164
163	0xbdbdfe0d	-0.09276972
164	0xbd474246	-0.048647188
165	0xbdcb5032	-0.099274054
166	0xbd8eec7f	-0.06978702
167	0xbdce393c	-0.1006951
168	0xbd8619a0	-0.06547856
169	0xbd210cc1	-0.039318804
170	0xbcd6ffc3	-0.026245004
171	0xbd50c07c	-0.050964817
172	0xbd194a3c	-0.03742431
173	0xbc43f84e	-0.011961056
174	0xbcd801ec	-0.026368104
175	0xbd39e672	-0.045385785
176	0xbd2b3446	-0.0417979
177	0xbdb0df10	-0.08636296
178	0xbc9b2dc1	-0.018942716
179	0xbc17ca73	-0.009264576
180	0xbd5983f7	-0.053104367
181	0x39a26c86	0.00030979904
182	0xbcf2757e	-0.02959704
183	0xbd651f6c	-0.05593817
184	0xbd9aa4eb	-0.07550987
185	0xbda691bd	-0.08133266
186	0x3cd37e10	0.025816947
187	0x3c5fbdff	0.013656138
188	0x3cc21e0f	0.023695974
189	0xbd8a0a60	-0.0674026
190	0xbda70ee7	-0.08157139
191	0xbdabd3d0	-0.083900094
192	0xbca71fe2	-0.020400945
193	0x3c2d9baf	0.0105962
194	0xbb06cb26	-0.0020567863
195	0xbcbd806c	-0.023132525
196	0x3d35af5b	0.044356685
197	0x3dc778fe	0.09739874
198	0x3d94869e	0.07252239
199	0x3d47e4d8	0.048802227
200	0x3ca9d319	0.020730542
201	0x3d8ffdd7	0.07030838
202	0x3da0b628	0.078472435
203	0x3d15d74c	0.036582276
204	0x3dc5fdb4	0.09667531
205	0x3dd58fcc	0.10427818
206	0x3d12cd67	0.03584042
207	0x3d5d4093	0.05401666
208	0x3dbaa801	0.091140755
209	0x3dd894a6	0.105752274
210	0xbdd399e2	-0.10332085
211	0xbc930931	-0.017948719
212	0xbda297ea	-0.079391316
213	0xbd4412cc	-0.04786949
214	0xbda72330	-0.08161008
215	0xbcc59374	-0.024118163
216	0xbcec5788	-0.028850332
217	0xbd57c3ae	-0.05267685
218	0xbd7e05dd	-0.06201731
219	0xbc0f3563	-0.008740756
220	0xbd68c600	-0.056829453
221	0xbd5dea20	-0.054178357
222	0xbd49db36	-0.04928132
223	0xbdc4e6ef	-0.096143596
224	0xbdceb791	-0.10093606
225	0xbdbddf43	-0.092710994
226	0xbcfd31a2	-0.030907456
227	0xbd7e0c2c	-0.062023327
228	0xbd0d5439	-0.03450415
229	0xbd82db0b	-0.063894354
230	0xbd890aec	-0.06691536
231	0xbc455f70	-0.01204668
232	0xbd806f7e	-0.062712654
233	0xbcd61dde	-0.026137289
234	0xbc8bec16	-0.017080348
235	0xbda68f6f	-0.081328265
236	0xbdcdfe9a	-0.10058327
237	0xbdae6e97	-0.08517187
238	0xbdc2f9bf	-0.095202915
239	0xbd2f6f46	-0.042830728
240	0xbd882bdb	-0.0664899
241	0xbca0c046	-0.019622933
242	0xbcba2962	-0.022724811
243	0xbd648f27	-0.055800583
244	0xbdca28af	-0.09871041
245	0x3d967bb1	0.07347811
246	0x3d8f0ed5	0.06985251
247	0x3dad34fa	0.0845737
248	0x3d1ada39	0.03780577
249	0x3c8f63b1	0.017503591
250	0x3ce42c46	0.027853142
251	0x3cf57770	0.029964179
252	0x3c20f676	0.009824386
253	0x3d90e634	0.07075158
254	0x3d32844b	0.043583196
255	0x3dbb01e5	0.09131221

model.hidden_layers.2.bias f4 [8]
0	0x3cb2efda	0.021842886
1	0xbd0514c0	-0.032490492
2	0xbd62b3ce	-0.055347256
3	0xbcd58814	-0.026065864
4	0xbc459422	-0.012059243
5	0x3d345858	0.044029564
6	0x3dd12fcd	0.102141954
7	0xbc4e73a4	-0.012600813

model.output_layers.0.weight f4 [8, 8, 7, 7]
0	0xbd0d6390	-0.03451878
1	0xbd9fe628	-0.07807571
2	0xbd9232ff	-0.07138633
3	0xbc15d6e2	-0.00914547
4	0xbd5c1cb1	-0.0537383
5	0xbc95c643	-0.018283015
6	0xbce6145b	-0.028085878
7	0xbc20fec1	-0.009826363
8	0xbcd0527c	-0.025429957
9	0xbc273890	-0.010206357
10	0xbd456620	-0.048193097
11	0xbc4e66fa	-0.012597794
12	0xbd8fe013	-0.07025161
13	0xbd5c585d	-0.053795207
14	0xbd82c102	-0.063844696
15	0xbd6ba160	-0.057526946
16	0xbcfe1b58	-0.031018898
17	0xbd974b2c	-0.07387385
18	0xbb936216	-0.0044977767
19	0xbd8953bb	-0.067054234
20	0xba76d7c5	-0.00094163074
21	0xbdbef283	-0.09323599
22	0xbd8583b4	-0.06519261
23	0xbd5a248d	-0.053257514
24	0xbd6d8005	-0.057983417
25	0xbbb82719	-0.005619895
26	0x394b3714	0.00019380107
27	0xbc065f65	-0.008201455
28	0xbc0c42fb	-0.008560891
29	0xbcd57178	-0.026055083
30	0xbd6634a1	-0.056202535
31	0xbb4638d4	-0.0030246275
32	0xbd7abb22	-0.06121362
33	0xbdbc67c3	-0.091994785
34	0xbd513ac7	-0.051081445
35	0xbc21d959	-0.00987848
36	0xbd708b61	-0.058726672
37	0xbd4fc6d4	-0.050726727
38	0xbdc465f5	-0.09589759
39	0xbc71fd7f	-0.014769911
40	0xbc776ad7	-0.015101156
41	0xbd856acc	-0.065145105
42	0xbaaa8a5f	-0.0013011209
43	0xbd6924a1	-0.056919698
44	0xbcca9c50	-0.024732739
45	0xbd4d551b	-0.05012999
46	0xbda86b6c	-0.08223614
47	0xbcaab09e	-0.02083617
48	0xbcb94a32	-0.022618387
49	0xbdc00498	-0.09375876
50	0xbdb547db	-0.08851596
51	0xbcaf8ed2	-0.021430407
52	0xb9ade7fc	-0.00033169973
53	0xbd1bf93a	-0.038079478
54	0xbdbd0261	-0.09228969
55	0xbd87baea	-0.06627448
56	0xbd72c54a	-0.05927018
57	0xbd39bfa6	-0.045348786
58	0xbda85814	-0.082199246
59	0xbd5b8df6	-0.05360218
60	0xbb8beae3	-0.004269944
61	0xbdc2e7ec	-0.09516892
62	0xbcc96ee0	-0.024589002
63	0xbdb31bca	-0.08745535
64	0xbd67b08b	-0.05656485
65	0xbca65406	-0.020303737
66	0xbb432b68	-0.002978051
67	0xbd6fdd35	-0.05856057
68	0xbd7123c4	-0.058872
69	0xbdc2e214	-0.09515777
70	0xbc3d2c47	-0.011546201
71	0xbcac2214	-0.021012343
72	0xbdb1a72c	-0.08674464
73	0xbd38cb63	-0.04511584
74	0xbd7d7b30	-0.06188506
75	0xbd44674d	-0.047950078
76	0xbcb41de9	-0.021986919
77	0xbcfd97eb	-0.03095623
78	0xbc047563	-0.008084628
79	0xbc24eb32	-0.010065841
80	0xba1931fa	-0.0005843934
81	0xbd5ede67	-0.05441132
82	0xbdba1ed9	-0.09087915
83	0xbc22e1c2	-0.00994152
84	0xbda9b77e	-0.082869515
85	0xbda835b3	-0.08213367
86	0x3b1bf26d	0.002379562
87	0xbdb0f1cd	-0.0863987
88	0xbda0aa00	-0.07844925
89	0xbd99847c	-0.074959725
90	0xbd4176ed	-0.047232557
91	0xbc80046c	-0.015627109
92	0xbd343f67	-0.044005778
93	0xbd1a9c07	-0.037746456
94	0xbdab88e0	-0.08375716
95	0xbd8f133e	-0.06986092
96	0xbd65fff5	-0.056152303
97	0xbd6b61eb	-0.05746643
98	0xbaa86195	-0.0012846465
99	0x3d8fc09d	0.0701916
100	0x3d45fa65	0.048334498
101	0x3d41b439	0.047291014
102	0x3cc2a6e5	0.023761222
103	0x3cdf11ff	0.02723026
104	0x3c901978	0.01759027
105	0x3db12111	0.08648885
106	0x3d6dc2cd	0.058047105
107	0x3d070fb9	0.03297398
108	0x3d76c1f8	0.060243577
109	0x3d935792	0.07194437
110	0x3d7365d4	0.059423283
111	0x3d0d5bba	0.034511305
112	0xbaf1bf1c	-0.0018443796
113	0x3d8d1458	0.06888646
114	0x3d5efea6	0.05444207
115	0xbacab03c	-0.0015463899
116	0x3d184511	0.03717524
117	0x3d46c21a	0.048524953
118	0x3d43e7d8	0.047828525
119	0x3d93ac66	0.07210617
120	0x3da14e4b	0.07876261
121	0x3c8119a2	0.015759293
122	0x3c303a9e	0.010756163
123	0x3d0fd78b	0.035117667
124	0x3b64acd0	0.0034893043
125	0x3c6b38c6	0.014356798
126	0x3d9618db	0.073289596
127	0x3d85222d	0.06500659
128	0x3d3d69bb	0.04624341
129	0x3db1a944	0.08674863
130	0x3d0e1b3a	0.034693934
131	0x3cb5cb60	0.022191703
132	0x3dc3e587	0.09565263
133	0x3d5880b5	0.05285712
134	0x3da8a0e1	0.0823381
135	0xb9959734	-0.0002853215
136	0x3db4e8f5	0.088334955
137	0x3ce5014e	0.027954724
138	0x3cec04f2	0.028810952
139	0x39a2d31b	0.00031056334
140	0x3d8676e1	0.06565643
141	0x3ca5be78	0.020232424
142	0x3d18359f	0.037160512
143	0x3d7b6728	0.061377674
144	0x3b917c8c	0.004439896
145	0x3d91fe3c	0.071285695
146	0x3d81b30e	0.0633298
147	0xbd978e53	-0.07400193
148	0xbd5bd935	-0.05367394
149	0xbd8ea8e6	-0.069658086
150	0xbd8613f0	-0.065467715
151	0xbbcd9e66	-0.006274986
152	0xbd7f43b3	-0.062320422
153	0xbc086f40	-0.008327305
154	0xbc09caa1	-0.008410127
155	0xbd211428	-0.039325863
156	0xbd926b34	-0.071493536
157	0xbd10dbad	-0.03536575
158	0xbd19805b	-0.037475925
159	0xbbdaa7c2	-0.0066728303
160	0x3b2c2472	0.002626684
161	0xbdb1ec15	-0.08687607
162	0xbd544d20	-0.051831365
163	0xbc6150e4	-0.013752196
164	0xbc1fd96e	-0.009756429
165	0xbdaa0416	-0.083015606
166	0xbd171e6c	-0.036894247
167	0xbd8fd643	-0.07023289
168	0xbd4a82fb	-0.04944132
169	0xbdb20e23	-0.086941026
170	0xbd85728d	-0.065159895
171	0x3a073d72	0.00051589974
172	0xbd0ad2be	-0.033892386
173	0xbbd4bbd1	-0.006492116
174	0x3b78b1a6	0.0037947684
175	0xbc9f3080	-0.019432306
176	0xbd5ff234	-0.054674342
177	0xbda05297	-0.07828253
178	0xbd8701a0	-0.06592107
179	0xbc1d81eb	-0.009613494
180	0xbd2d51ff	-0.042314526
181	0xbc1d436e	-0.009598596
182	0xbbc2bc80	-0.005942881
183	0xbdbf6654	-0.093456894
184	0xbcecef20	-0.028922617
185	0xbcb8679e	-0.022510346
186	0xbd870f39	-0.065947
187	0xbb8be652	-0.0042693997
188	0xbc762152	-0.015022593
189	0xbd9ed568	-0.07755548
190	0xbc2f7751	-0.0107096
191	0xbda5f280	-0.08102894
192	0xbdb16aad	-0.08662925
193	0xbd9c15e5	-0.076213636
194	0xbc7e5fed	-0.0155258
195	0xbbdf769e	-0.00681956
196	0xbdc03130	-0.09384382
197	0xbd97347c	-0.073830575
198	0xbccfc64a	-0.025363106
199	0xbceb6ec1	-0.028739335
200	0xbd1bfc83	-0.03808261
201	0xbc0a108e	-0.0084267985
202	0xbd908028	-0.07055694
203	0xbd98b61d	-0.0745661
204	0xbc1f83f3	-0.009736049
205	0xbd9a9ada	-0.07549067
206	0xbd1c52e0	-0.038164973
207	0xbcabba59	-0.02096288
208	0xbd2333f4	-0.03984447
209	0xbcafd95b	-0.021465948
210	0xbca2a3b2	-0.019853447
211	0xba01c48b	-0.00049502467
212	0xbd96f2f6	-0.0737056
213	0xbcd590f4	-0.026070096
214	0xbc80ee45	-0.015738616
215	0xbc90fca6	-0.017698597
216	0xbc777d4f	-0.0151055595
217	0xbbb81e98	-0.0056188814
218	0xbd56f3b8	-0.052478522
219	0xbda49396	-0.08035962
220	0xbba9eaf5	-0.0051854798
221	0xbd5abc8d	-0.053402472
222	0xbc26b5b0	-0.010175154
223	0xbd516a09	-0.051126514
224	0xbd12b286	-0.035814784
225	0xbd112f96	-0.035445772
226	0xbd80b945	-0.06285337
227	0xbc3fb3da	-0.011700595
228	0xbdc09bfb	-0.09404751
229	0xbd366269	-0.044527445
230	0xbcce58fb	-0.025188914
231	0xbbfde11b	-0.007747782
232	0xbccee14f	-0.02525392
233	0xbd889e3d	-0.066708066
234	0xbdb47bc3	-0.08812668
235	0xbbd4f0b1	-0.006498419
236	0xbd8956be	-0.06705998
237	0xbd848a57	-0.06471699
238	0xbd4a9286	-0.049456142
239	0xbcca7ced	-0.024717772
240	0xbd0e1e90	-0.034697115
241	0xbc34b7d9	-0.011030161
242	0xbcafa606	-0.02144147
243	0xbd90f61e	-0.07078193
244	0xbb4fdf7a	-0.0031718896
245	0xbcb91810	-0.022594482
246	0xbde26bbf	-0.11055707
247	0xbd0f395d	-0.034966815
248	0xbda3a43c	-0.079903096
249	0xbde2084a	-0.11036737
250	0xbc7b974e	-0.015355898
251	0xbd16a8c9	-0.03678206
252	0xbd0425e4	-0.032262698
253	0xbcfbbc10	-0.030729324
254	0xbdb5373c	-0.08848426
255	0xbd73821e	-0.05945026

model.output_layers.0.bias f4 [8]
0	0xbd7e0516	-0.06201657
1	0xbdeebc79	-0.11657042
2	0xbd788c32	-0.060680576
3	0xbd04397f	-0.032281395
4	0xbd1f240d	-0.03885274
5	0xbd9a9c30	-0.07549322
6	0xbdb48253	-0.0881392
7	0xbc2d34cd	-0.010571671
