outputs/ConvRNN_D1_K7_H8_SS8.4_05_21-28-47/checkpoints/model-epoch=00-validation_loss=0.03.ckpt (torch, 61409 bytes, 18 tensors)

model.bias f4 [8]
00000000: 04a3 a6bd 355d 82bf 4ff5 013f 5d70 933e
00000010: 9d34 a53e 456e 863f b85e 103f 0d59 8fbd
-0.081365615 -1.0184695 0.50764936 0.28796664 0.32266703 1.0502402 0.5639453 -0.06999407

model.input_layers.0.weight f4 [8, 1, 7, 7]
00000000: a24a 76bd c6f8 fb3c 8575 26be 4929 7ebd
00000010: 8975 72bd 8abb 0e3d 2551 36be 2082 a4bd
00000020: 86db fabd 4974 40be a93a c6bd 525d 3abe
00000030: 8852 dbbd 671f a3bd 40bc 96bd eb02 1fbe
00000040: 4297 3b3d 3842 45be fd9c 753d 3c56 b1bc
00000050: 1e16 04be 9a4d d63c 8a97 bebc 9120 d3bd
00000060: dd61 bdbd 1015 56bd 5eae a8bd 3c3f e4bc
00000070: 9403 bcbb e75c 37be 88df 253c 4106 b93d
00000080: 0efe 13bd 0f9a aa3d f794 c13d a2bd c6bd
00000090: b9be 80bd 7b6c 25be e7fa 7f3d 57c9 12be
000000a0: 2402 31bd 179b 4f3c b43a c8bd 6996 9f3d
000000b0: 7f8a e7bd b11f 323b ce7b aa3d 920c c7bd
000000c0: 2daa 873d b2a1 2f3c 3610 0f3d 0bad 833d
000000d0: 35e0 14be 41c5 49bd 933b 82bb c112 fcbc
000000e0: f0ba cebc 0b10 b03d 8c0c 033e 06cf 2c3e
000000f0: 47c1 e33d b094 a4bd 8a99 92bd d275 263b
00000100: 8f1d 90bc 0e27 ec3d b482 ac3a fcee 1e3e
00000110: aeeb a5bc f457 923d e888 413e 2592 ce3d
00000120: fbe2 203e ed97 d63d ec08 e23d ae50 6b3d
00000130: 82c3 f6bc 9a4d b03a 51c4 da3d 5917 1d3e
00000140: d798 613e e8b1 39bd 5612 913d 5cec 60bd
00000150: 0aaf 05be 4168 cc3d 3d1e 0d3e 277a 573e
00000160: e35a 8ebd d072 8f3b c910 d0bd 91c4 19be
00000170: 0a97 67bc 0df3 c63d 6952 95bc 5e30 89bc
00000180: ae8d 07be d15c b73d cb1e 443d b406 c83c
00000190: 850e a2bd ea1c 0cbd 4344 d7bd ceb6 233e
000001a0: d428 1a3d 6067 1a3d 24a7 653c 3784 04be
000001b0: 743f c33d c891 93bc 1e27 4e3d 6bd6 a9bd
000001c0: 995f 91bd c758 033d fdcb 0bbd ecd9 953c
000001d0: bd75 91bb 6c30 d73d c4e6 34bd 2bb4 4dbe
000001e0: 3181 63be 4e3f edbd 8696 00bd 1c61 5bbe
000001f0: 4a01 393b 3b9d 89bc 353b 743c 21ad 22bd
00000200: aa9d 8cbd f77c 58bd d75f 25be 717b 893c
00000210: de83 e53c b477 7e3d 60fb 11be e2f2 e13a
00000220: 16e8 fdbd 333d 96bd ec02 6c3d c4c5 8e3d
00000230: 2309 7fbd fd17 5c3c badd 57bc 2aa1 173d
00000240: dc7b 6c3d 596e 82bd 206e 3bbd ea63 9bbd
00000250: 31e9 6abd 3f40 973d 5cdd 15be a927 1b3e
00000260: 0fe2 13bd 5be2 a43c cd04 a8bd a96f 26be
00000270: 2a5b 0bbe 6852 593d 1c13 243e f38d 89bc
00000280: da33 ecbb 3ad7 0bbe 5b79 51be 818d 303d
00000290: 1019 79bd f18e ef3d d614 1f3e dd02 6c3c
000002a0: 958a 0abe b39a 76be 6846 7bbe 84ad 07be
000002b0: b7dd 163d 08e3 583c ff1f 833d e09c 113d
000002c0: dc44 ed3c 51e7 f3bd 4b66 2ebe 4b59 8d3d
000002d0: 0137 c7bd f198 303c 30a5 eabd 352d 0ebe
000002e0: f971 0bbe e6af 92bd ac4f d63d 6506 d73c
000002f0: 7b2d 79bb 4197 07be 29d8 0fbe cd33 813d
00000300: ff39 eabc 3b7d ba3d 4ec1 c33c a7b7 ce3d
00000310: 317f b4bd a49e 33be d01e ff3b 5c61 8fbd
00000320: 23ad de3c daab 193e 0f20 adbd ce79 20be
00000330: 1c1b 43be 8a6f 5abe e16c 31bd f406 96bd
00000340: 55b9 493e 5ad6 923d b9af 4dbe 63d8 07bc
00000350: 3ba0 09be 49a1 a9bd 89b5 edbd 9245 c9bd
00000360: 7421 083e cfa9 6ebd 6d6a 9bbd 8db0 19be
00000370: d687 1ebe 57a7 16be a4a2 fdbd a70c e83b
00000380: 8ea8 2dbe 8a7c 0abd 68f2 08be ebad 54be
00000390: 5279 f1bd 9f3d 44bd 564e c8bd 3738 edbb
000003a0: 82b1 3dbc 81cd f63d 9ec0 d0bd 1269 bfbd
000003b0: 771a 9a3d 1e14 833d e082 fe3d d1f7 453e
000003c0: e4cc e13d 9544 8fbd ba25 0c3e ddb4 1cbd
000003d0: 0f04 f23d 72fc eb3d 7df6 b23e b273 acbb
000003e0: 5d46 d2bd 491e a7bd 2780 793d 3320 0d3e
000003f0: 8e69 193e 47c7 163e c5e9 703e 3d38 39be
-0.06012977 0.030758273 -0.16255768 -0.06205109 -0.05919412 0.03484682 -0.17804392 -0.08032632
-0.12248902 -0.1879436 -0.09679157 -0.18199661 -0.10709101 -0.07964974 -0.073601246 -0.15528457
0.045798548 -0.19263542 0.05996417 -0.021647565 -0.12899062 0.02616005 -0.023265619 -0.10308946
-0.092471816 -0.05226618 -0.08236383 -0.027862184 -0.0057377312 -0.17906533 0.010124095 0.09034396
-0.036130957 0.083301656 0.09452241 -0.09704138 -0.062863775 -0.16154663 0.06249514 -0.14334618
-0.043214932 0.012671254 -0.09776822 0.0779236 -0.11305713 0.0027179534 0.08324395 -0.097191945
0.06624255 0.0107197035 0.03492757 0.0642949 -0.14538653 -0.04926038 -0.003974387 -0.030770661
-0.025235623 0.0859681 0.12797755 0.16875848 0.11120849 -0.080361724 -0.071581915 0.0025399816
-0.01759222 0.115308866 0.0013161511 0.15520853 -0.020253982 0.07145682 0.18899882 0.100864686
0.15711586 0.10478196 0.11036858 0.05744999 -0.030122522 0.0013450861 0.10681976 0.15340938
0.2203096 -0.04533568 0.070835754 -0.05491291 -0.13055053 0.09980822 0.13781066 0.21042691
-0.06950929 0.0043777004 -0.101594515 -0.1501639 -0.014135132 0.09714327 -0.018227773 -0.016746696
-0.1323764 0.0895325 0.04788093 0.024417259 -0.07912926 -0.034207262 -0.10511067 0.15987703
0.037636593 0.037696242 0.0140169 -0.12941061 0.09533587 -0.01801385 0.050330274 -0.0829285
-0.07098312 0.032067087 -0.034130085 0.01829239 -0.0044390843 0.105072826 -0.044165388 -0.2008826
-0.22217251 -0.1158434 -0.03139355 -0.21423763 0.0028229528 -0.016798606 0.014906694 -0.03971589
-0.068660095 -0.05285355 -0.16149841 0.016782494 0.02801698 0.062125877 -0.14256048 0.0017238522
-0.123977825 -0.073358916 0.057619974 0.069713145 -0.062264573 0.013433454 -0.013175422 0.037018932
0.05773531 -0.063687034 -0.04575932 -0.075874165 -0.057351295 0.07385301 -0.14635223 0.15151848
-0.03610426 0.020127466 -0.08204041 -0.16253532 -0.13608995 0.053057104 0.16022915 -0.01679132
-0.0072083296 -0.13656321 -0.2045645 0.0431037 -0.060814917 0.11697186 0.15535292 0.01440498
-0.13529427 -0.2408245 -0.24538577 -0.13249785 0.036832538 0.013237722 0.06402587 0.03555
0.028963499 -0.119093545 -0.17031209 0.06901797 -0.09727288 0.010778652 -0.11457288 -0.13884433
-0.13617696 -0.07162456 0.10464415 0.026248166 -0.0038021493 -0.13241293 -0.14047302 0.06308708
-0.028592108 0.09105917 0.023895886 0.10093623 -0.08813322 -0.17540985 0.0077856556 -0.07000992
0.027182167 0.15006962 -0.0845338 -0.15671465 -0.1905331 -0.21331611 -0.043316726 -0.07325545
0.19699605 0.071697906 -0.20086564 -0.008291337 -0.1344003 -0.08282716 -0.11606891 -0.098277226
0.13294011 -0.05826741 -0.075886585 -0.15008755 -0.15481505 -0.14712273 -0.12384537 0.0070815864
-0.1695883 -0.033810176 -0.1337372 -0.2076947 -0.11790718 -0.04791033 -0.097805664 -0.0072393673
-0.011577966 0.120509155 -0.10192989 -0.093462124 0.07524579 0.064003214 0.12427306 0.19332816
0.11025408 -0.06995503 0.13686267 -0.038258422 0.1181718 0.115227595 0.3495368 -0.0052628154
-0.10267327 -0.08160073 0.06091323 0.13781814 0.14981672 0.14724456 0.23526676 -0.1808786

model.input_layers.0.bias f4 [8]
00000000: 149f db3a ad0c 053d d1b3 38bf 6242 f4be
00000010: ccd1 12be 9cc3 48be bf77 21be 0553 40bf
0.0016755783 0.03248279 -0.7214938 -0.47706896 -0.14337844 -0.19605869 -0.15768336 -0.7512668

model.hidden_layers.0.weight f4 [8, 8, 7, 7]
00000000: d015 d33b 076d a63d 316e 3f3c 3dab 7a3d
00000010: c908 a33b 0ac7 343d d8f0 643d 70ed beba
00000020: 58de 213b 66ae b73d 09a1 5d3d 4deb 02bb
00000030: 0c4d b53d e9d1 c13d 1b92 9d3d 7fae 773d
00000040: 96d0 a83d 29ec 013d efda 023d 386e 713d
00000050: 2ceb 203d 11c1 84b9 8a2c 273d 38d7 903d
00000060: 3bd4 3a3c 8f8f d13b 6591 a73d f4e2 5d3c
00000070: 9f00 573c d258 893b 70bc c53c bc69 183d
00000080: d5af 003d 1963 063d ad8d 6e3d 96cc b63d
00000090: 86a5 533d 64b2 0e3d 5744 0f3d 906e 853c
000000a0: f1de 853d 1c1f b63d 4de1 b33d 5803 963d
000000b0: 61f5 2c3d c59a a73d 8f89 363d 2283 4d3d
000000c0: 8f47 bc3d f615 c4bd 6bb4 b7bc 986f 88bd
000000d0: dce1 bdbd ea9e 97bd cae1 0fbd 9f5e b3bd
000000e0: 99a4 e1bc 82a5 ddbd e6aa 55bd b4bf 7cbd
000000f0: 9db8 ecbc 2c04 afbd 7db1 9dbd dcd2 08bd
00000100: 5128 b0bd c766 ecbd 89bb 9bbd 736a 01bd
00000110: f246 6fbd 050c 17bd 096b 76bd 5cdd f4bc
00000120: 7451 dcbd e195 cfbd 6c16 f3bd dab8 9dbd
00000130: 8a9a fbbd 3de2 ccbd 5bc2 a0bd 813e 4bbd
00000140: 46bb e9bd e099 e8bd 0066 28bd dc5b 59bd
00000150: 03e8 aabd 6681 e4bd dd5e 7cbd 95bb a6bd
00000160: 5d76 45bd 095e 97bd 96ce 93bd 50fd 42bd
00000170: 9527 8ebd 48e6 dfbd 7fb8 cebc 49aa b9bd
00000180: 9042 8ebd 17f9 e3bc 0ab1 013e b8f6 d33d
00000190: b44c de3d 59df 083d 8da9 8e3d 5c8d b83d
000001a0: 1061 013e 2be5 fc3d 620a 053d 2468 f93d
000001b0: b8de f23d 81bd 283d 16d3 1d3d a18c 933d
000001c0: 76c1 f43d baed 943d a4e5 143d 8b58 823d
000001d0: c107 263d 23cd 103d 0370 9e3d 123d ad3d
000001e0: 5540 803d 1fbe d33d f647 583d 605a f73d
000001f0: 5b48 fe3d c535 753d e318 833d 86e3 843d
00000200: 2ab2 923d a251 f23d 9384 8d3d c9a6 043d
00000210: 2580 043e 7ba5 7f3d d126 a03d 442b 303d
00000220: e19a e33d 4c77 ee3d 558e 743d f134 3b3d
00000230: 1ca8 ac3d 88b6 673d c7ae d23d d70b ab3d
00000240: c673 743d 6239 9f3d 2698 3e3d 46df 193d
00000250: c303 2b3d b948 823d 53b9 bc3d d66a a33d
00000260: 1514 073e 05d2 d63d 7245 803d 41a5 5c3d
00000270: 8361 023e 9ad8 b83d e816 293d ca3b 883d
00000280: ca70 183d d5c5 813d a8f5 7b3d 02cb f63d
00000290: b6e4 1d3d 7356 453d 97be 9f3d 6ebb 8e3d
000002a0: 5588 bc3d 0cc7 df3d 95cd bf3d 908a 483d
000002b0: 21e3 ec3d af4f 813d 1041 b43d e3d1 223d
000002c0: e06c a33d b05d 2d3d 85c5 ac3d 6469 d63d
000002d0: abba 693d 7aa1 c43d 1cd9 bf3d 6c83 f73d
000002e0: ede2 5a3d b667 823d a341 ce3d 2410 a63d
000002f0: 362c e03d affa 143d 4de6 063e f728 943d
00000300: c60d dc3d 34d1 063e 4506 f73d c6cb fd3d
00000310: 64a4 fc3d bc79 723d f7bf c33d ae7d 5c3d
00000320: 89ed 203d 4f26 d43d 921c 033e b084 243d
00000330: 0cd8 f23d 26d0 a73d 01ef f63d a6ca 953d
00000340: d13c cb3d 8dbc d43d 0a5b 7b3d 6dae 3d3d
00000350: 30bd ef3d 8b0d 063e 9396 053e 442a fd3d
00000360: a6b0 053e ec1b 0b3d 8513 413d 3a05 843d
00000370: 65bb 043e c387 1e3d e702 9c3d d505 793d
00000380: 2107 613d 38a8 e53d b447 093e f426 083e
00000390: 7787 ea3d 5514 4a3d 97cc 133d 8b43 fd3d
000003a0: b46e b53d 662b be3d e33a 1b3d f12e e73d
000003b0: a5c8 903d dbc7 d73d a2a9 fe3d 0d7e 3d3d
000003c0: ebe4 2d3d 80b9 a43d 42b9 d13d 12db ca3d
000003d0: 06d5 dc3d 4947 003e ccbd eb3d 7e9e c13d
000003e0: eb06 073e 6c10 cb3d 0e23 643d 4151 333d
000003f0: 7fb5 a93d ab9d b23d 3437 f13d 262c c43d
0.0064418092 0.08126264 0.0116839865 0.06119846 0.0049754125 0.04413513 0.05589375 -0.0014566611
0.0024699178 0.08968811 0.054108653 -0.0019976676 0.08852586 0.09463865 0.07693883 0.060469147
0.082429096 0.03171936 0.031947073 0.058943003 0.039286777 -0.00025320848 0.04081396 0.070723
0.011403139 0.0063952873 0.08182029 0.013542879 0.013122707 0.0041914964 0.024137706 0.03721021
0.031417686 0.03280935 0.05824058 0.089257404 0.051671527 0.034838095 0.034977283 0.016288072
0.06536663 0.088926524 0.08783207 0.073248565 0.0422262 0.08183817 0.04456478 0.050173886
0.09193336 -0.09574501 -0.022424897 -0.0666191 -0.09271595 -0.07403357 -0.03512744 -0.08758282
-0.027544307 -0.10822584 -0.052164935 -0.06170626 -0.028896624 -0.085457176 -0.07699869 -0.033404216
-0.0860144 -0.11543041 -0.07604129 -0.03159566 -0.058417268 -0.036876697 -0.06016067 -0.029890709
-0.107577235 -0.10136009 -0.11869511 -0.07701273 -0.12285335 -0.10004089 -0.0784957 -0.049620155
-0.11412673 -0.11357474 -0.0411129 -0.05306612 -0.08345034 -0.11157493 -0.061613906 -0.08141247
-0.048208583 -0.07390983 -0.072171375 -0.04760486 -0.069411434 -0.109325945 -0.025234459 -0.090656824
-0.069462895 -0.027828736 0.12665191 0.10349792 0.10854474 0.033416126 0.06965933 0.09011337
0.12634683 0.12348398 0.032480605 0.121780664 0.118588865 0.04119635 0.038531385 0.07204557
0.11950962 0.07271905 0.036351815 0.063645445 0.04053474 0.035351884 0.07736208 0.08458914
0.0626227 0.10338997 0.052803002 0.120777845 0.124161445 0.05986573 0.06401231 0.06488709
0.07162888 0.118319765 0.06910052 0.03238562 0.12939508 0.062413674 0.07819904 0.04301001
0.11113525 0.11643848 0.05970605 0.045704786 0.08430502 0.05657056 0.102872424 0.08351868
0.059680723 0.07774617 0.04653182 0.037566446 0.041751634 0.06361527 0.09215035 0.07979362
0.13191254 0.10489277 0.06263246 0.053868536 0.1273251 0.090256885 0.04128161 0.06652029
0.03721694 0.063365616 0.061513573 0.120504394 0.038548194 0.048178148 0.07800024 0.06969343
0.09205691 0.10926637 0.093653835 0.04896027 0.11566759 0.063140266 0.08801472 0.039750945
0.07979751 0.042325675 0.08436111 0.104693204 0.057062786 0.09601112 0.09367582 0.120856136
0.05343907 0.063674375 0.10071113 0.08108547 0.109459326 0.036371883 0.1317379 0.07234376
0.107448146 0.13165742 0.12061743 0.12392382 0.123360425 0.059198126 0.09558099 0.053830795
0.03928903 0.10358869 0.12803867 0.040165603 0.11857614 0.08193998 0.12057305 0.07314043
0.09923709 0.10387526 0.06136612 0.046308924 0.117060065 0.13091104 0.13045721 0.12361577
0.13055667 0.033962175 0.047137756 0.064463094 0.1296211 0.03870369 0.07617741 0.060796577
0.05493844 0.11213726 0.13406259 0.1329611 0.11451619 0.049335796 0.036083784 0.123663984
0.088590056 0.09285621 0.037897956 0.1128825 0.0706952 0.10536166 0.12434699 0.04626279
0.04245464 0.08043194 0.10240413 0.099050656 0.107828185 0.12527193 0.1151081 0.09454058
0.13186233 0.099152416 0.055697493 0.04377866 0.08286571 0.08721479 0.11778107 0.09578733

model.hidden_layers.0.bias f4 [8]
00000000: 0755 f13d 9d60 92bd 28e8 e5bc c498 50bc
00000010: bac3 21bd e2c4 c5bd 8edf e0bd 2d46 abbd
0.11783796 -0.07147334 -0.028064802 -0.012731735 -0.0394933 -0.09656693 -0.1098014 -0.08362994

model.output_layers.0.weight f4 [1, 8, 7, 7]
00000000: 2c17 b5bd 8c91 7ebd 6054 45bd 866f f9bc
00000010: bff4 64bd aa71 45bd 4ab1 98bd d46a e2bd
00000020: 841d 40bd 084a 92bc 0779 5cbd bd5e b3bd
00000030: 358d 5bbd 7784 83bd acfd 0dbd 5acb b8bd
00000040: 64e1 cdbd 3541 c93c 1385 a7bd fa7f bbbd
00000050: 0d4f 2ebd a4b3 913c 8c47 583c 64f7 1ebd
00000060: 39df 433d 47d8 b3bc 8586 3ebc dc19 bbbc
00000070: d4f6 a3bd 2664 b8bd d2c1 cdbc 434e ffbc
00000080: 5a24 0cbd bc78 53bd f776 bcbd c8b4 66bd
00000090: 44a6 2bbd 8145 33bd e105 57bd f1cc cdbd
000000a0: a5c6 c6bc 0bec 97bd 4f45 8bbd cccb 13bd
000000b0: fa8f 91bd c348 5a3c c48b 2bbd 0cc8 8ebd
000000c0: 2095 cfbd 1cc4 f9bb 1dae 813c 9b74 32bd
000000d0: 7126 57bd a95e 89bd 9ea4 d2bc 4d24 8d3b
000000e0: 2d28 72bd c81f 04bd 6e9e 97bd c167 e4bd
000000f0: 9330 1bbc a16f 91bc 3132 16bd f4eb adbd
00000100: ccab 95bc 37d7 b2bd 3240 2ebe 9a84 50bd
00000110: b5a3 a3bd 0475 84bd 488c 17be fe71 debd
00000120: 475f e9bd 0099 78be 7db8 47be e81e ffbd
00000130: 5d30 3bbe 1b66 eabc c9e9 c5bd 5569 62bd
00000140: b43b 10be 9b4f b4bd 4ace 87bd 3824 67bd
00000150: 54a2 c8bd 8269 043c 05e1 85bd c661 38be
00000160: a6b6 57bd 30a5 4cbd cba5 c8bd 2b16 51bc
00000170: 663e 30bd 82a6 fbbc becd 05be 8c0b 67bd
00000180: 1a8b e7bd fc8d c2bd d58a 653d 6284 6f3d
00000190: 2c63 ac3d 8dd2 7a3d 493f 903c c5f1 66bc
000001a0: 16f5 cb3b c0ee 70bc efb6 8a3d 2efc 4c3c
000001b0: 7c97 d83c 9d94 83bb bd7f 9d3c bfd0 7c3d
000001c0: 2a07 873c 6dfd e73c 3c7f a23c baea be3c
000001d0: 582b 7e3d e9eb b4bb 6dc9 1c3c be3f 5c3d
000001e0: e097 3b3d 2da6 443d f1ab d93d b1fe 343d
000001f0: b584 443d a1d7 d23d e4de 923c f724 2a3d
00000200: 44b1 7f3c fe8f 673d 9811 653d bd67 06bd
00000210: 5f6c 333d 4e3d a83c 2b0f 51bc 4dc1 aebb
00000220: fe07 3b3d 0b31 58bc d761 353d 31ab 033d
00000230: ac06 413d 83c1 483c 31bb ab3c 7333 773d
00000240: b4b1 bbbc 7bfe 183d 8d13 adbc 9729 e43d
00000250: b432 c13c 9537 813c 5f4a 093e 92fe 043d
00000260: 3f99 8a3d 3b47 843b 028f 103d 0b33 fd3c
00000270: 6f66 cc3d 7414 273d a0b8 6d3c 08ec 0c3d
00000280: 63bc 253d 3d7d 643d 3bf2 af3d b221 093d
00000290: 372b e93d 73dd aa3c 8eea 5d3d 5bd5 723d
000002a0: 5c8d 2a3d 5c5c b93d 2beb a93d 842c e63d
000002b0: a2c3 963d abca 9e3d c792 633d d740 b33d
000002c0: 48f6 c83c 1d02 363d 2496 2d3d 5114 5d3c
000002d0: 7138 0cbc 9b2c 933d a9b2 5a3d 6f87 eb3c
000002e0: 78fb 1c3d 3884 ae3d 92bc 8f3c e846 963d
000002f0: 3084 ff3c efcf 833d eefb 213d 4162 573c
00000300: e553 853d a856 633d ce81 833d 4922 973d
00000310: 793a a23c 05e7 363d c0a9 c9bc 29a7 193d
00000320: fe15 8a3d 497d 843d b556 a73c 44bc 853d
00000330: f547 613d b1de ee3c 3095 633d 8b82 963b
00000340: d099 1ebd 0e04 d5bc ebfd 6c3d 4f05 7e3c
00000350: 9fab df3c 7c75 643d c6bb 0b3b cd55 323d
00000360: 66dd 2e3d 6236 dc3d 8f48 fc3c 4955 603c
00000370: 0b46 df3d 9db3 953d 0b2a 993d 2f05 793c
00000380: e71c 803d 6b0f 1bbd 9106 9e3c 06f6 ba3d
00000390: 810a f23c 354d 0cbd c0b5 a13c 6aa8 86bb
000003a0: d22c a43c ae64 2cbd f808 a53c ba43 393d
000003b0: a597 403d d54c e7bc cadb a6bb 5778 323d
000003c0: 11a0 0c3d c1fc 383d 4da3 d4bc 978c 1ebd
000003d0: c096 253d 5621 923b c469 70bd 17f4 8a3c
000003e0: 5b2c ca3c a2e2 95bc 5982 8b3c 674f 89bd
000003f0: 0ec4 2ebd 9aa3 b73c 604b babc f341 4a3d
-0.0884231 -0.062150523 -0.04817617 -0.030448686 -0.05589747 -0.0482041 -0.0745569 -0.11055532
-0.04690315 -0.017857566 -0.05382636 -0.08758304 -0.053601462 -0.0642175 -0.03466575 -0.09023161
-0.100527555 0.024567226 -0.08179679 -0.09155269 -0.042555857 0.017785855 0.013200652 -0.03881015
0.047820304 -0.021953715 -0.011628752 -0.02283948 -0.08006063 -0.09003477 -0.025116835 -0.031165248
-0.034214355 -0.051628813 -0.09202378 -0.05632475 -0.04190661 -0.043767456 -0.05249584 -0.10048855
-0.024264643 -0.074180685 -0.06800329 -0.036083028 -0.071075395 0.013323012 -0.041881338 -0.0697175
-0.10135865 -0.007622255 0.015830094 -0.043568235 -0.052526895 -0.06707508 -0.025713261 0.004307306
-0.059120346 -0.03225687 -0.07403265 -0.11152602 -0.00947203 -0.017753424 -0.03666896 -0.0849227
-0.018270396 -0.08732455 -0.17016676 -0.05090771 -0.07990209 -0.064676315 -0.14799607 -0.10861586
-0.11395126 -0.24277115 -0.1950397 -0.12457067 -0.18280168 -0.02861314 -0.096637316 -0.055276234
-0.14085275 -0.08804246 -0.066311434 -0.056431025 -0.09796587 0.008081796 -0.0653706 -0.18006048
-0.05266442 -0.049962223 -0.097972475 -0.012761633 -0.043028258 -0.030719046 -0.13066766 -0.056407496
-0.113058284 -0.094997376 0.056040604 0.05847586 0.08417353 0.061235953 0.017608302 -0.014095728
0.006224285 -0.01470536 0.06773173 0.012511296 0.02643942 -0.004015519 0.01922595 0.061722513
0.016482908 0.028319085 0.01983606 0.023305286 0.062053055 -0.0055212867 0.009569508 0.053771727
0.045799136 0.04801004 0.10628498 0.044188205 0.04797812 0.10295034 0.017928548 0.04153916
0.015606228 0.056533806 0.05592498 -0.032813776 0.043804523 0.020537045 -0.012759964 -0.005333102
0.04566192 -0.0131952865 0.04428276 0.032145683 0.047125503 0.012253168 0.020963283 0.0603518
-0.022911884 0.037352066 -0.021127487 0.11140745 0.023583747 0.015773574 0.13407277 0.03246934
0.067675106 0.0040368116 0.035292633 0.030908128 0.09980475 0.04079099 0.01450935 0.034404784
0.040462863 0.0557835 0.08591124 0.0334794 0.11385196 0.020857548 0.054178767 0.059285503
0.041638717 0.09050819 0.08296808 0.112389594 0.07361533 0.077534996 0.0555599 0.087526016
0.024531499 0.04443561 0.042379513 0.013493613 -0.008558379 0.07186242 0.05339304 0.028751103
0.038325757 0.085213125 0.017545972 0.07337743 0.031190962 0.064361446 0.0395469 0.013145984
0.06510142 0.055502564 0.06421243 0.07379586 0.019803273 0.04465391 -0.024617076 0.037512932
0.06742476 0.06469209 0.020427087 0.065300494 0.055000264 0.029158922 0.0555622 0.0045931987
-0.038720906 -0.02600291 0.057859343 0.015504195 0.027303515 0.055776104 0.0021321638 0.043538857
0.04269161 0.1075256 0.030796317 0.013692209 0.109020315 0.07309649 0.07478722 0.01519899
0.06255513 -0.0378565 0.01929024 0.091289565 0.029546024 -0.034253318 0.019739985 -0.004109432
0.020040903 -0.042088203 0.020145878 0.045230605 0.04701962 -0.028234879 -0.005092119 0.043571796
0.03433234 0.04516292 -0.025956774 -0.038708296 0.04042697 0.0044595404 -0.058694616 0.016962094
0.024679353 -0.018296544 0.017029928 -0.06704598 -0.04266744 0.022416878 -0.02274102 0.0493793

exp_avg f4 [8]
00000000: 45ce 12b2 6545 b63a 9023 1d3a 2da8 933a
00000010: e6f3 473a d269 da37 3053 da39 4b27 8a3b
-8.545219e-09 0.0013906179 0.0005994374 0.001126533 0.0007627591 2.6036902e-05 0.0004164218 0.00421611

exp_avg_sq f4 [8]
00000000: f415 5133 5411 803a d523 8c39 bfbb 513a
00000010: 05f1 f038 fa58 a036 6b77 a138 fc4c af3b
4.868157e-08 0.0009770789 0.00026729578 0.00080006936 0.00011488985 4.77873e-06 7.6993216e-05 0.0053497534

exp_avg f4 [8, 1, 7, 7]
00000000: 5797 8fad 93af 5fad 7b8d 8ead be5e a9ae
00000010: 9f02 82ae 9268 59ae 7ccd 3dae 1cc1 a3ad
00000020: 0fb6 8ead 61d1 b7ad bb41 acae bc3f 76ae
00000030: 72bb 59ae 7be8 45ae 91b1 eead 2095 01ae
00000040: b3c9 1eae 25d5 d2ae ce32 86ae 7082 70ae
00000050: 8a39 5dae c3c5 ffae 8518 f3ae 61e3 f3ae
00000060: 5492 6daf 7c8d 1baf 5c24 01af 61b7 dcae
00000070: 5f8e 8fae 92f2 84ae b3fa 80ae 84ae 12af
00000080: aaf0 c4ae edb8 a2ae 636f 8bae 289f 33ae
00000090: 2a1a 1eae 8b40 31ae 0c41 e8ae 582c adae
000000a0: 21e9 93ae 9498 82ae 0eb6 ecad 78bb c2ad
000000b0: 89a8 d1ad 4d0c c6ae 4b64 acae e27b 98ae
000000c0: 3646 84ae 8185 103a 447a df39 cdc0 8739
000000d0: 18ba f638 5097 7939 0e7e 9639 96dc 8d39
000000e0: 823c 193a 112f f939 8b5e a639 3c35 3b39
000000f0: ec6e 9b39 26fe af39 6da8 9e39 116d 143a
00000100: 6b57 f839 e3b5 aa39 7ff1 4139 8d90 9a39
00000110: b0f9 a839 57ec 8f39 49a2 fe39 5e0e d439
00000120: 188f 8a39 828c f938 7ce6 6339 ebd6 7339
00000130: 7497 3539 8a98 373a b6cb 223a 7cbe fa39
00000140: ea3c ad39 c7a2 da39 ff12 dc39 3603 b839
00000150: 41dd 583a dd40 423a 230c 1a3a 9419 e539
00000160: 2275 083a b604 093a d6db ee39 6a63 5d3a
00000170: db94 453a 6df6 1b3a 2b8b e939 12cb 0a3a
00000180: d44e 0c3a c64c f939 8d14 1838 0669 1538
00000190: 7f4b 1538 c3f5 2438 9cb1 3a38 974c 4738
000001a0: dfa3 5338 4a7c f437 d29d f037 a03b fb37
000001b0: ff26 1238 a785 2c38 9ada 3e38 424a 5138
000001c0: 65bd d937 5f6a d837 f57e e937 920b 0b38
000001d0: f4d3 2738 6c80 3e38 8b19 5638 2e5d e937
000001e0: 65cf e637 a8c1 fb37 da5b 1438 7639 3038
000001f0: ef09 4b38 8192 6638 3658 cf37 cb91 ca37
00000200: 0521 e037 7bae 0638 cf38 2338 9f3b 4038
00000210: 78f0 5c38 67fe c937 b3e7 ca37 5f87 e137
00000220: 644a 0638 79b9 1f38 a7fd 3738 2012 5038
00000230: fd33 dc37 2602 e637 0519 fc37 acea 0f38
00000240: 21d2 2338 01dc 3338 f03e 4538 052a 1839
00000250: e0da 3c39 3273 5439 d01d 8139 c58c 8e39
00000260: 32b9 9b39 ece3 a739 86d9 f538 cd58 2339
00000270: 2382 3b39 e901 6939 6a81 8339 167b 9439
00000280: 5338 a439 29a9 cd38 f815 1339 b1ad 2e39
00000290: 500e 5b39 e447 7739 310d 8e39 5077 a039
000002a0: d7eb c738 fe70 1239 c2e5 3139 7305 5d39
000002b0: 7547 7539 a4ca 8c39 d700 a039 766b 8038
000002c0: d832 da38 d849 0b39 bafe 3639 0672 5139
000002d0: 9c9c 7939 dfd7 9139 bfd1 0938 bfbf 9138
000002e0: 41c8 c338 1a6f 0d39 ca90 2b39 98fe 5639
000002f0: af78 8239 9643 5b37 194d 3238 5fec 8138
00000300: bdf7 d638 0175 0c39 58ee 3839 dfbd 6739
00000310: b1eb 5a35 5e65 7f37 9e5f 3c38 dd34 bf38
00000320: f107 af38 8f5a cb38 1ffe f238 602d a1b7
00000330: fa66 7ab6 080d cf37 ac03 9238 b0d5 7238
00000340: b394 9538 f473 c338 faab 02b8 5d48 4ab7
00000350: 447a a537 982e 8638 5067 4538 c191 7438
00000360: 928f ab38 8f3c fbb7 35d8 3fb7 d36b c737
00000370: ffe0 9938 37c4 6c38 3f95 8938 455a b838
00000380: e56d 9fb8 c9b9 80b8 3cb8 e4b7 9c56 dc37
00000390: 16e8 8c37 22d6 f537 e71b 5e38 0bd7 d1b8
000003a0: 5a79 b3b8 98ea 62b8 419a fbb5 34a0 a7b6
000003b0: 38c3 3137 a497 1038 836d e4b8 3f3c c2b8
000003c0: 9856 82b8 95e4 55b7 8d56 64b7 abf8 3a36
000003d0: 9f28 d637 6e8c c9b6 261e a5b6 3c9e 6eb6
000003e0: 481e a8b5 c998 cdb6 6b99 8cb6 637b 70b5
000003f0: faa0 b5b6 3e33 90b6 dc47 4cb6 ddf3 6ab5
-1.6324426e-11 -1.2715068e-11 -1.6206361e-11 -7.70206e-11 -5.912181e-11 -4.9432965e-11 -4.315613e-11 -1.8616712e-11
-1.6224381e-11 -2.0897674e-11 -7.8333305e-11 -5.599053e-11 -4.9506572e-11 -4.4999098e-11 -2.7136323e-11 -2.9463654e-11
-3.6104186e-11 -9.5875564e-11 -6.102639e-11 -5.4685534e-11 -5.0300687e-11 -1.1631187e-10 -1.1054716e-10 -1.1090751e-10
-2.160701e-10 -1.4147433e-10 -1.1745399e-10 -1.00370164e-10 -6.528177e-11 -6.045754e-11 -5.865299e-11 -1.3340623e-10
-8.9557986e-11 -7.3997565e-11 -6.3407744e-11 -4.0841247e-11 -3.594828e-11 -4.0302466e-11 -1.0561693e-10 -7.875006e-11
-6.726198e-11 -5.938819e-11 -2.6910942e-11 -2.21385e-11 -2.3835394e-11 -9.0061826e-11 -7.83947e-11 -6.934166e-11
-6.015137e-11 0.00055130577 0.0004262497 0.00025892854 0.00011764857 0.00023802859 0.00028704148 0.00027057965
0.0005845503 0.00047528048 0.00031732427 0.00017853541 0.00029646547 0.00033567956 0.00030261595 0.0005662004
0.00047367378 0.00032560443 0.00018495879 0.00029480868 0.0003222949 0.00027451172 0.00048567567 0.00040446495
0.00026428024 0.00011899417 0.00021734269 0.00023254349 0.00017317926 0.0007003626 0.0006210165 0.00047825638
0.00033042516 0.0004170148 0.00041975823 0.00035097607 0.00082727155 0.0007410178 0.00058764423 0.0004369734
0.00052054424 0.0005226837 0.00045558688 0.0008445295 0.0007537135 0.0005949501 0.0004454491 0.0005294542
0.00053523225 0.00047550182 3.6258763e-05 3.562218e-05 3.559468e-05 3.932953e-05 4.4511267e-05 4.7516627e-05
5.0458937e-05 2.9144943e-05 2.868372e-05 2.9949297e-05 3.484543e-05 4.113247e-05 4.550312e-05 4.989864e-05
2.595661e-05 2.579874e-05 2.7834883e-05 3.315096e-05 4.00133e-05 4.5419132e-05 5.1045365e-05 2.7819155e-05
2.7514712e-05 3.001171e-05 3.5371493e-05 4.2015185e-05 4.8408223e-05 5.4972716e-05 2.47174e-05 2.4148167e-05
2.6718257e-05 3.2110587e-05 3.8915136e-05 4.5831894e-05 5.267604e-05 2.4079533e-05 2.418817e-05 2.6885127e-05
3.201737e-05 3.808129e-05 4.3866832e-05 4.9607945e-05 2.6250253e-05 2.7419137e-05 3.0052392e-05 3.4312412e-05
3.9057926e-05 4.288182e-05 4.7027075e-05 0.00014511503 0.00018010614 0.00020260809 0.0002462701 0.00027189232
0.00029701885 0.00032022537 0.00011723027 0.00015577972 0.0001788219 0.00022221323 0.00025082688 0.00028320466
0.00031322482 9.80667e-05 0.00014027196 0.00016658638 0.000208908 0.00023582537 0.0002709418 0.00030606473
9.532988e-05 0.00013965738 0.00016965627 0.00021078232 0.0002339164 0.0002685386 0.00030518204 6.123532e-05
0.000104045204 0.00013283582 0.00017451766 0.0001997427 0.00023804832 0.00027817392 3.2858687e-05 6.949854e-05
9.335625e-05 0.00013488196 0.00016361769 0.00020503474 0.00024885449 1.3069153e-05 4.251031e-05 6.195227e-05
0.0001025046 0.00013395028 0.00017636397 0.00022100609 8.1554305e-07 1.5222786e-05 4.4911743e-05 9.117436e-05
8.3461295e-05 9.696662e-05 0.00011586793 -1.9213825e-05 -3.7312843e-06 2.4682391e-05 6.9625064e-05 5.7896308e-05
7.132571e-05 9.3199225e-05 -3.115458e-05 -1.2056987e-05 1.9726467e-05 6.398297e-05 4.7064677e-05 5.8309877e-05
8.1806575e-05 -2.9949731e-05 -1.1434827e-05 2.3772858e-05 7.337517e-05 5.6449524e-05 6.560468e-05 8.790618e-05
-7.60218e-05 -6.138121e-05 -2.7265509e-05 2.6266374e-05 1.6797374e-05 2.930599e-05 5.295491e-05 -0.000100059515
-8.5579886e-05 -5.410108e-05 -1.8745851e-06 -4.995638e-06 1.0595475e-05 3.44735e-05 -0.00010892285 -9.2618626e-05
-6.2150124e-05 -1.274901e-05 -1.3610011e-05 2.7860904e-06 2.5529704e-05 -6.006615e-06 -4.920893e-06 -3.5556868e-06
-1.2525788e-06 -6.1272626e-06 -4.1901853e-06 -8.958652e-07 -5.4129605e-06 -4.2975e-06 -3.0440196e-06 -8.752666e-07

exp_avg_sq f4 [8, 1, 7, 7]
00000000: f98e b330 c776 c630 df45 cd30 6682 ca30
00000010: 7d87 bc30 e84c ac30 fbfb 9630 7369 ab30
00000020: b21b c030 66e4 c630 640b c430 7c9c b630
00000030: 679e a730 4f0c 9330 1073 9b30 2005 ae30
00000040: d69d b230 f1a2 af30 52c3 a330 1f8a 9730
00000050: 194f 8630 33e7 8830 698e 9730 8556 9a30
00000060: 63dd 9730 a408 8e30 4437 8430 b467 6d30
00000070: 0d1b 5330 77bd 6630 eaa9 6730 3e30 6330
00000080: 6743 5630 a0a5 4930 ef23 3730 c1d7 1f30
00000090: 2fb5 2c30 23a6 2c30 dccb 2930 95c8 2130
000000a0: afd1 1a30 958c 0e30 f384 f52f d4bf 0330
000000b0: 2043 0430 f82f 0330 99ab fb2f 949a f52f
000000c0: 0519 e62f 8406 1738 7481 1e38 625b 2338
000000d0: b46b 2438 de56 1c38 eb94 1238 ad0e 0838
000000e0: 2b51 1f38 fff2 2738 5bb4 2d38 a0ff 2e38
000000f0: 960a 2638 881e 1b38 2a90 0f38 37dc 2438
00000100: 023e 2e38 0ac8 3438 4075 3638 ab00 2d38
00000110: 695c 2138 002d 1538 ef1b 2738 23f6 3038
00000120: c316 3838 ba21 3a38 067f 3038 e7a9 2438
00000130: 5452 1838 896c 1e38 8615 2838 f451 2f38
00000140: 4693 3138 258f 2838 1e83 1d38 07ed 1138
00000150: df66 1338 244b 1c38 cb48 2338 e0e2 2538
00000160: d50e 1e38 9a46 1438 52d8 0938 9eae 0738
00000170: e466 0f38 76c5 1538 2ca7 1838 ae33 1238
00000180: dfe0 0938 26d0 0038 b865 5c34 240c 6434
00000190: d55c 6634 e3bc 6034 9e47 5334 4a97 4434
000001a0: ff71 3534 b8d4 6d34 9dd8 7634 920e 7834
000001b0: 778c 6f34 9e89 5f34 e972 4f34 9e51 3f34
000001c0: bc9e 7f34 3919 8534 03f4 8434 5e2c 7f34
000001d0: 1622 6d34 b74e 5b34 db89 4934 c820 8634
000001e0: 0f4b 8c34 6102 8c34 9768 8634 84af 7934
000001f0: 83fc 6534 dc41 5234 5d3b 8134 948d 8734
00000200: 23ff 8734 8f58 8334 4294 7434 4342 6134
00000210: 93cb 4d34 df73 7134 f69c 7c34 f3e5 7e34
00000220: 4c8f 7834 7443 6934 26a0 5834 d8f9 4634
00000230: 05f4 5d34 c4d5 6634 9fcb 6934 7434 6634
00000240: fac6 5a34 f0d8 4d34 6ecd 3e34 d24f b035
00000250: 4ba0 b335 e55e af35 a10e a935 2f47 9e35
00000260: b647 9535 f229 8d35 b549 bd35 e658 c135
00000270: 826e bb35 0fbf b235 f42f a635 7052 9c35
00000280: 9670 9335 94c9 c735 1b09 cd35 80f1 c535
00000290: ffa3 bb35 5595 ad35 7547 a235 ef4a 9835
000002a0: a246 cd35 3f1c d435 acab cd35 4e19 c335
000002b0: 5fe8 b335 b149 a735 9b3b 9c35 4f01 c635
000002c0: 32f1 cc35 2f57 c835 fb04 bf35 ff98 b035
000002d0: 1d29 a435 ba03 9935 1ced ba35 7caf c035
000002e0: b6b9 bc35 ae1e b535 30ce a835 abb1 9d35
000002f0: 974c 9335 49ce ac35 f617 b135 5672 ad35
00000300: cb05 a835 883f 9e35 d1da 9435 d894 8b35
00000310: cb83 0935 2ab1 0935 20db 0635 9e2b 0335
00000320: 95fa f734 0792 ec34 797d e234 c8af 0d35
00000330: 3060 0e35 a5db 0b35 e550 0835 c310 0135
00000340: f78e f534 31d3 e934 1f14 0d35 e1e0 0d35
00000350: b1a1 0c35 95ac 0a35 793e 0435 2c0e fc34
00000360: 57f3 ee34 0f9a 0935 cc60 0a35 f127 0a35
00000370: 66e0 0935 6d6b 0435 67c6 fd34 e60e f134
00000380: 8352 0135 36dc 0135 1da6 0135 1c07 0235
00000390: 31b9 fb34 b0ce f234 2306 e834 a0ae f134
000003a0: 3546 f234 adce f134 711e f334 bd5c ec34
000003b0: cd2c e534 e751 dc34 6146 e134 75e9 e134
000003c0: d816 e234 338b e334 177d dd34 6aa7 d734
000003d0: 305a d034 10b3 0c31 13f2 0f31 e088 1031
000003e0: 87e5 1031 dfcc 0931 485a 0231 abb3 f530
000003f0: 0600 1931 fbd7 1d31 7c5f 1f31 7133 2031
1.3064599e-09 1.4440155e-09 1.4935572e-09 1.4734496e-09 1.3717308e-09 1.2536505e-09 1.0985554e-09 1.2471858e-09
1.397771e-09 1.4471311e-09 1.4264114e-09 1.3286718e-09 1.219587e-09 1.0699156e-09 1.1310437e-09 1.2661623e-09
1.2996064e-09 1.2779237e-09 1.1915324e-09 1.1025952e-09 9.772264e-10 9.961013e-10 1.1027171e-09 1.1229565e-09
1.1049618e-09 1.0334316e-09 9.619971e-10 8.636747e-10 7.6799794e-10 8.394276e-10 8.4278773e-10 8.2650675e-10
7.794853e-10 7.335874e-10 6.6626077e-10 5.815047e-10 6.2830713e-10 6.280933e-10 6.1771543e-10 5.8856503e-10
5.632285e-10 5.185908e-10 4.4659706e-10 4.7930127e-10 4.811671e-10 4.772569e-10 4.5778561e-10 4.4675075e-10
4.1854534e-10 3.6007274e-05 3.7790698e-05 3.8947335e-05 3.9200953e-05 3.72742e-05 3.4947803e-05 3.2438595e-05
3.7984148e-05 4.004221e-05 4.1414383e-05 4.1722902e-05 3.9587343e-05 3.6983314e-05 3.422812e-05 3.9305738e-05
4.1542582e-05 4.3101645e-05 4.350138e-05 4.1247036e-05 3.8471455e-05 3.5566278e-05 3.9841918e-05 4.2190903e-05
4.3890217e-05 4.4377266e-05 4.207997e-05 3.925888e-05 3.6316298e-05 3.7771217e-05 4.0074367e-05 4.1799576e-05
4.2337248e-05 4.0187635e-05 3.755383e-05 3.4791443e-05 3.5143337e-05 3.726328e-05 3.8930022e-05 3.955036e-05
3.768395e-05 3.5351703e-05 3.286481e-05 3.2349133e-05 3.418968e-05 3.5708268e-05 3.6395315e-05 3.4857243e-05
3.2872773e-05 3.071143e-05 2.0526102e-07 2.1238571e-07 2.1454191e-07 2.0930342e-07 1.967696e-07 1.8308961e-07
1.689841e-07 2.2149732e-07 2.2989339e-07 2.31021e-07 2.230971e-07 2.0818558e-07 1.9320181e-07 1.7817953e-07
2.3806473e-07 2.4791532e-07 2.4764458e-07 2.3764866e-07 2.2084745e-07 2.04246e-07 1.8769735e-07 2.4983296e-07
2.6131644e-07 2.6078763e-07 2.5035544e-07 2.3253784e-07 2.141915e-07 1.9581734e-07 2.4071315e-07 2.524872e-07
2.5331346e-07 2.4465086e-07 2.2778207e-07 2.0978864e-07 1.9166173e-07 2.2487028e-07 2.3526431e-07 2.3739248e-07
2.3148931e-07 2.1724355e-07 2.0174829e-07 1.853108e-07 2.0671003e-07 2.1498187e-07 2.1773893e-07 2.1439502e-07
2.037522e-07 1.9171034e-07 1.7769864e-07 1.3136253e-06 1.3383191e-06 1.3066134e-06 1.2595739e-06 1.1792634e-06
1.1122236e-06 1.0517526e-06 1.4103049e-06 1.4405493e-06 1.3964748e-06 1.3317639e-06 1.238192e-06 1.1646898e-06
1.098512e-06 1.4885322e-06 1.527634e-06 1.474793e-06 1.3980315e-06 1.2932966e-06 1.2090737e-06 1.1346691e-06
1.5294247e-06 1.5803452e-06 1.5323653e-06 1.4535997e-06 1.3404168e-06 1.2463917e-06 1.1640253e-06 1.475253e-06
1.5269381e-06 1.4926535e-06 1.4232058e-06 1.315755e-06 1.2230918e-06 1.1400473e-06 1.3927088e-06 1.4356187e-06
1.406114e-06 1.349448e-06 1.2576984e-06 1.174912e-06 1.0974644e-06 1.2875036e-06 1.3194501e-06 1.2922781e-06
1.2518661e-06 1.1790407e-06 1.1090543e-06 1.0399626e-06 5.122826e-07 5.1294285e-07 5.023776e-07 4.8864774e-07
4.6189658e-07 4.4064674e-07 4.2187074e-07 5.278239e-07 5.3039093e-07 5.210116e-07 5.0781665e-07 4.8080636e-07
4.5738827e-07 4.3553294e-07 5.2555873e-07 5.2853835e-07 5.2389356e-07 5.1660146e-07 4.926474e-07 4.694897e-07
4.4508008e-07 5.126066e-07 5.1549864e-07 5.146713e-07 5.136302e-07 4.9330157e-07 4.726928e-07 4.4900588e-07
4.8176315e-07 4.8376694e-07 4.829797e-07 4.843912e-07 4.6887138e-07 4.5226398e-07 4.3217833e-07 4.5016805e-07
4.5127095e-07 4.5040125e-07 4.5284426e-07 4.4025902e-07 4.268717e-07 4.1037785e-07 4.1960723e-07 4.2079378e-07
4.21124e-07 4.2383326e-07 4.1255473e-07 4.016868e-07 3.880864e-07 2.0474467e-09 2.0946842e-09 2.1032562e-09
2.108523e-09 2.005258e-09 1.8968809e-09 1.7877161e-09 2.2264444e-09 2.2969278e-09 2.3191822e-09 2.3312305e-09

exp_avg f4 [8]
00000000: fcab 9530 05e1 153b f86b 0d38 7c71 32b9
00000010: b6c5 3f39 4b72 18b8 a342 1a38 1202 e139
1.0890058e-09 0.0022869718 3.3717573e-05 -0.00017017679 0.00018288833 -3.6346068e-05 3.677852e-05 0.00042916887

exp_avg_sq f4 [8]
00000000: 07b1 0132 92be 403a f8eb fd35 3969 3c37
00000010: dd1f 9a36 4326 2833 5f9b 0c36 4d7a 9e38
7.54904e-09 0.0007352616 1.8918645e-06 1.1230172e-05 4.593267e-06 3.9150347e-08 2.0952064e-06 7.5568074e-05

exp_avg f4 [8, 8, 7, 7]
00000000: 3627 efb0 6bcb f8b0 8ad8 14b1 75f3 a9b1
00000010: d406 88b1 18dd 7fb1 cc2b 7db1 79ef fab0
00000020: 414d 02b1 2cf1 1ab1 bd55 aeb1 24db 89b1
00000030: 4276 81b1 be16 80b1 cded 18b1 b700 1eb1
00000040: ab44 38b1 e505 c3b1 58b0 93b1 18a4 89b1
00000050: 2a0b 88b1 88bb 94b1 f9ce 98b1 b5fb acb1
00000060: 90b2 12b2 39e0 c8b1 6c1d b3b1 a72b afb1
00000070: 57bc 6fb1 9aaf 73b1 f037 84b1 26c5 b8b1
00000080: 9b2b 4ab1 a84d 27b1 4151 21b1 1ecb 5eb1
00000090: b836 62b1 f2ce 73b1 6448 a1b1 a447 25b1
000000a0: 133d 05b1 6d6d ffb0 b478 5ab1 1dd9 5db1
000000b0: e400 6fb1 a872 9cb1 d13d 1fb1 3f52 ffb0
000000c0: b35c f4b0 af86 84b0 7efe 90b0 d037 88b0
000000d0: ae17 1430 ff76 f3ae 474e 28b0 d64f 05b0
000000e0: 2ae5 8cb0 c906 9db0 ed49 92b0 c6d2 ee2f
000000f0: 0ee7 04af 4ab6 37b0 b85c 3db0 8d5f 81b0
00000100: 066d 92b0 2b96 82b0 5fdc 4930 d18d 922f
00000110: b7fb 90af ce54 fdaf df15 48b0 db6e 7fb0
00000120: 462c 4ab0 12ae bd30 3446 8d30 a608 1230
00000130: 50e6 b32f 4efc 9db0 0da9 afb0 72f3 adb0
00000140: 395e abaf 3ecd 19af 5470 acaf 51d5 a3af
00000150: 40ad d8b0 00ee f2b0 2aca 00b1 7adc a2b0
00000160: cfbd 28b0 f6c8 37b0 d8f4 1fb0 2445 c0b0
00000170: 3cc3 deb0 f06d edb0 d855 92b0 ce52 10b0
00000180: 0ad4 24b0 6269 0cb0 5664 60b0 4c6f 69b0
00000190: 59a7 8bb0 0175 1fb1 623f ffb0 e00d f0b0
000001a0: c984 edb0 5c72 6bb0 4384 74b0 4560 91b0
000001b0: f793 23b1 6357 01b1 0eed f2b0 8e57 f0b0
000001c0: b87d 8fb0 ad40 94b0 10e8 acb0 2e06 37b1
000001d0: d692 0ab1 8823 01b1 b946 ffb0 1291 0bb1
000001e0: 0565 0fb1 515a 22b1 c1bf 89b1 cc85 3cb1
000001f0: e010 28b1 445b 24b1 3cf4 e0b0 0ca8 e4b0
00000200: f522 f8b0 8569 2db1 38b6 bdb0 63fb 9cb0
00000210: 7b5c 97b0 840d d1b0 2142 d4b0 6ac5 e4b0
00000220: 1c58 17b1 ad16 9bb0 520d 7ab0 2db2 6fb0
00000230: 5bfd ccb0 ef27 d0b0 aa3f e0b0 cecc 12b1
00000240: d66b 95b0 d496 6fb0 8f53 65b0 58e9 06b0
00000250: d32f 0cb0 ccf5 27b0 25a3 c0b0 480a 99b0
00000260: 1773 90b0 a921 8eb0 3d3d 0db0 989a 12b0
00000270: 4c63 2eb0 67af c4b0 f80c 9bb0 15a4 91b0
00000280: 7def 8fb0 661f 2cb0 16bb 31b0 a951 4fb0
00000290: e5c4 dbb0 7c20 a6b0 32d1 9ab0 f7ed 98b0
000002a0: 69a6 a7b0 c2ef abb0 93a5 c2b0 6f5d 25b1
000002b0: 6802 e2b0 9d78 c9b0 6bea c4b0 4077 87b0
000002c0: 5957 89b0 0905 95b0 5ed4 d0b0 1a6a 63b0
000002d0: d3e6 3bb0 acdf 34b0 d3c1 7cb0 0277 7fb0
000002e0: d7ad 89b0 cacc b6b0 7bdd 39b0 6d7b 15b0
000002f0: d0df 0eb0 7a8b 78b0 10c9 7ab0 6c06 87b0
00000300: 61ff b0b0 4f08 33b0 d85f 0fb0 974d 08b0
00000310: 6dc9 14b0 653e 1bb0 d170 38b0 5a4d d3b0
00000320: 85fa a9b0 db1f 9eb0 4373 9ab0 9c6c 1bb0
00000330: 8ab0 21b0 25d0 3fb0 906c d8b0 527e aab0
00000340: 24bd 9eb0 8b5a 9bb0 1106 3db0 efc3 43b0
00000350: e53c 64b0 df30 f2b0 f582 b6b0 b9ca a8b0
00000360: a81f a5b0 bf54 b7b0 3654 bdb0 d1af d6b0
00000370: 5b9e 36b1 cb5a f9b0 7051 ddb0 9186 d6b0
00000380: a149 95b0 3e36 97b0 0a69 a4b0 8906 e5b0
00000390: c85b 78b0 ba08 4db0 ef38 42b0 86b8 8bb0
000003a0: fb93 8cb0 3740 97b0 9162 c7b0 94d5 48b0
000003b0: 508b 1fb0 d8da 13b0 b623 89b0 c128 8ab0
000003c0: 8a90 94b0 276f c1b0 7a82 40b0 bb56 16b0
000003d0: cc16 0ab0 12e5 b9b0 5ef0 c1b0 aade e7b0
000003e0: cd96 88b1 0bef 55b1 2943 48b1 ff42 46b1
000003f0: 39ff c3b0 aca0 cbb0 56d8 f1b0 0e9e 8ab1
-1.7400683e-09 -1.810219e-09 -2.1659923e-09 -4.946225e-09 -3.958897e-09 -3.723306e-09 -3.6841241e-09 -1.8257956e-09
-1.8961404e-09 -2.254704e-09 -5.073814e-09 -4.012138e-09 -3.7678385e-09 -3.727876e-09 -2.2254085e-09 -2.2992432e-09
-2.6814557e-09 -5.675917e-09 -4.298311e-09 -4.00588e-09 -3.95939e-09 -4.3286867e-09 -4.4473123e-09 -5.0344746e-09
-8.538919e-09 -5.8462573e-09 -5.2129305e-09 -5.098133e-09 -3.4886136e-09 -3.5460972e-09 -3.848065e-09 -5.377518e-09
-2.9419656e-09 -2.434584e-09 -2.347477e-09 -3.242071e-09 -3.2918432e-09 -3.5478789e-09 -4.6939466e-09 -2.4051383e-09
-1.9388764e-09 -1.8584793e-09 -3.1791787e-09 -3.2283147e-09 -3.4779584e-09 -4.5532325e-09 -2.3172684e-09 -1.8577068e-09
-1.7779683e-09 -9.642543e-10 -1.054971e-09 -9.911165e-10 5.3875737e-10 -1.10714986e-10 -6.122928e-10 -4.849857e-10
-1.0251473e-09 -1.1425182e-09 -1.0643909e-09 4.344171e-10 -1.2087417e-10 -6.683406e-10 -6.888956e-10 -9.413142e-10
-1.0653884e-09 -9.501425e-10 7.343654e-10 2.6658012e-10 -2.6372302e-10 -4.608069e-10 -7.2790657e-10 -9.2925995e-10
-7.355009e-10 1.3801034e-09 1.0279053e-09 5.312678e-10 3.2723557e-10 -1.1494963e-09 -1.2780973e-09 -1.2656598e-09
-3.1171668e-10 -1.3988186e-10 -3.1366432e-10 -2.9801098e-10 -1.5765309e-09 -1.7675461e-09 -1.8741368e-09 -1.1849715e-09
-6.138778e-10 -6.6860595e-10 -5.8191807e-10 -1.398949e-09 -1.6208115e-09 -1.7275266e-09 -1.0647296e-09 -5.250457e-10
-5.996418e-10 -5.108146e-10 -8.163331e-10 -8.492307e-10 -1.0161144e-09 -2.3204054e-09 -1.8571706e-09 -1.7466242e-09
-1.7281759e-09 -8.5655016e-10 -8.895464e-10 -1.05775e-09 -2.380373e-09 -1.8821644e-09 -1.7675192e-09 -1.7487183e-09
-1.0440351e-09 -1.0786799e-09 -1.2580603e-09 -2.6633518e-09 -2.016511e-09 -1.8792168e-09 -1.8573793e-09 -2.0309625e-09
-2.0866662e-09 -2.3625442e-09 -4.0090247e-09 -2.7433655e-09 -2.445681e-09 -2.391702e-09 -1.6367561e-09 -1.6636945e-09
-1.805431e-09 -2.5234794e-09 -1.380335e-09 -1.1421942e-09 -1.101298e-09 -1.5210593e-09 -1.5443825e-09 -1.6645292e-09
-2.2023476e-09 -1.1284179e-09 -9.09684e-10 -8.7200897e-10 -1.4914961e-09 -1.5145342e-09 -1.631624e-09 -2.1362214e-09
-1.0871826e-09 -8.7162033e-10 -8.342846e-10 -4.908052e-10 -5.0999666e-10 -6.1103544e-10 -1.4016207e-09 -1.1135137e-09
-1.051009e-09 -1.0341427e-09 -5.1382526e-10 -5.333418e-10 -6.344194e-10 -1.4310729e-09 -1.128142e-09 -1.0596773e-09
-1.0472686e-09 -6.2617855e-10 -6.465809e-10 -7.542221e-10 -1.5990308e-09 -1.2087322e-09 -1.1264432e-09 -1.1127089e-09
-1.2198146e-09 -1.2510031e-09 -1.4162417e-09 -2.406377e-09 -1.6444348e-09 -1.4658955e-09 -1.4327503e-09 -9.856436e-10
-9.992888e-10 -1.0842608e-09 -1.519435e-09 -8.27329e-10 -6.8358225e-10 -6.5801475e-10 -9.1952507e-10 -9.293758e-10
-1.001747e-09 -1.3300447e-09 -6.761735e-10 -5.4381283e-10 -5.1977356e-10 -9.042008e-10 -9.1235197e-10 -9.824368e-10
-1.2878268e-09 -6.513163e-10 -5.21593e-10 -4.9586774e-10 -5.412833e-10 -5.647734e-10 -6.709913e-10 -1.5374255e-09
-1.236757e-09 -1.1505067e-09 -1.1237734e-09 -5.6543015e-10 -5.8822336e-10 -6.9781186e-10 -1.5746924e-09 -1.240503e-09
-1.154977e-09 -1.1303468e-09 -6.876642e-10 -7.1219025e-10 -8.3032453e-10 -1.7621707e-09 -1.3279463e-09 -1.2281226e-09
-1.2014327e-09 -1.3339089e-09 -1.3775494e-09 -1.5620519e-09 -2.65745e-09 -1.8142939e-09 -1.6103012e-09 -1.5608795e-09
-1.0862103e-09 -1.1002113e-09 -1.1962424e-09 -1.66638e-09 -9.0352303e-10 -7.4590967e-10 -7.0657696e-10 -1.0166026e-09
-1.0228399e-09 -1.1004947e-09 -1.450717e-09 -7.306309e-10 -5.804184e-10 -5.3789284e-10 -9.978212e-10 -1.0052404e-09
-1.0809498e-09 -1.407419e-09 -7.003461e-10 -5.4692934e-10 -5.0236504e-10 -1.3525627e-09 -1.4110915e-09 -1.6870747e-09
-3.975265e-09 -3.113146e-09 -2.9142007e-09 -2.8850875e-09 -1.4260656e-09 -1.481586e-09 -1.7596544e-09 -4.0342973e-09

exp_avg_sq f4 [8, 8, 7, 7]
00000000: d5a7 5532 a5c0 5d32 f186 6632 a049 7932
00000010: b693 7532 1b5e 6832 5ad1 5f32 eb77 5f32
00000020: 6be5 6732 fefb 7032 773f 8232 0b52 8032
00000030: 5fe7 7232 a5f6 6932 6cd0 6932 bfa8 7232
00000040: a01d 7c32 3b36 8832 b739 8632 4434 7e32
00000050: 6ae5 7432 bebd 7d32 bcaf 8332 bcc9 8832
00000060: db96 9332 f29a 9132 8f21 8a32 5f26 8532
00000070: c327 6d32 4260 7632 0d1c 8032 b39a 8a32
00000080: c6d3 8832 2eac 8132 52d5 7932 1e14 6132
00000090: 6b0b 6a32 f0ab 7332 991d 8432 f791 8232
000000a0: 0a69 7732 214d 6e32 c2f5 5432 638d 5d32
000000b0: 9cd3 6632 28c9 7a32 fef6 7732 eeea 6a32
000000c0: 444c 6232 44a7 6732 895d 6f32 4949 7032
000000d0: 8953 7632 b177 7532 1f3a 7432 4c6e 6832
000000e0: 48b7 6732 9e8d 6f32 d183 7032 d1b8 7632
000000f0: 8404 7632 57df 7432 c614 6932 79f1 6732
00000100: c2ef 6f32 d801 7132 e765 7732 c9b8 7632
00000110: fda0 7532 75f1 6932 20c9 6732 48eb 6f32
00000120: 8a25 7132 5ce9 7732 364f 7732 c848 7632
00000130: 14cc 6a32 f03f 5332 7f08 5b32 fa1c 5c32
00000140: 5390 6232 a924 6232 7344 6132 a3a7 5632
00000150: 4bae 4432 9822 4c32 341c 4d32 9f62 5332
00000160: 173d 5332 8496 5232 9a72 4832 0355 3432
00000170: 3a9d 3b32 3aa3 3c32 24cc 4232 e1da 4232
00000180: 1f85 4232 5b39 3932 7d3b 1533 ccea 1933
00000190: f453 1b33 f1fb 1f33 4785 1e33 c6cc 1b33
000001a0: c3ff 1433 2c47 1633 f0fc 1a33 1367 1c33
000001b0: b12d 2133 98b0 1f33 8cdf 1c33 c800 1633
000001c0: 3754 1733 1517 1c33 288b 1d33 4274 2233
000001d0: 12ee 2033 0702 1e33 9214 1733 d128 1933
000001e0: 0bfe 1d33 1585 1f33 b0a2 2433 7614 2333
000001f0: 9a0d 2033 600f 1933 e10e 0d33 37ad 1133
00000200: dc1b 1333 950d 1833 c5a4 1633 b0ce 1333
00000210: 1f45 0d33 64d4 0433 4740 0933 209b 0a33
00000220: b572 0f33 a52f 0e33 3588 0b33 9a42 0533
00000230: 7bf3 f732 0b3a 0033 7983 0133 ef35 0633
00000240: 1d0c 0533 5599 0233 ca6f f932 ffe0 9132
00000250: b67a 9632 bf80 9832 cad1 9d32 dfd7 9a32
00000260: f350 9732 a558 9032 bf0a 9332 ceaf 9732
00000270: aec2 9932 0c3b 9f32 3736 9c32 f597 9832
00000280: a48a 9132 60f8 9332 58a9 9832 46d3 9a32
00000290: 4f74 a032 8260 9d32 9597 9932 0780 9232
000002a0: 65d4 9632 4f9f 9b32 8af2 9d32 34d2 a332
000002b0: 84a8 a032 f3b2 9c32 b67b 9532 a74c 8b32
000002c0: 1add 8f32 bf15 9232 7ac8 9732 29c9 9432
000002d0: 3805 9132 1038 8a32 d470 8332 3fd0 8732
000002e0: 82ef 8932 2393 8f32 86c8 8c32 f336 8932
000002f0: 40a9 8232 56ff 7532 0668 7e32 bf39 8132
00000300: 4eb7 8632 a616 8432 92bd 8032 251f 7532
00000310: f644 bc32 79f8 c232 c3ca c732 d467 d332
00000320: 578b cf32 b889 c832 8b3b c032 8b34 c132
00000330: 7a0f c832 b80b cd32 fe12 d932 351a d532
00000340: 4dd4 cd32 e250 c532 b78f c632 b1a3 cd32
00000350: 9bde d232 f055 df32 123f db32 34b2 d332
00000360: 92fc ca32 f0fe cf32 f970 d732 9e0b dd32
00000370: d42e ea32 6ef9 e532 7113 de32 fc0a d532
00000380: 5749 c032 1e69 c732 7cbf cc32 586f d932
00000390: e97f d532 e4ff cd32 eb81 c532 ea19 b532
000003a0: 79f8 bb32 6014 c132 2280 cd32 bbd5 c932
000003b0: 22b9 c232 d698 ba32 3aeb a932 1e83 b032
000003c0: f762 b532 d06d c132 c9f7 bd32 c444 b732
000003d0: 989b af32 f809 2a33 09b3 2f33 994d 3233
000003e0: 358c 3933 33b8 3733 bd99 3333 00c8 2b33
000003f0: a2f3 2b33 73a9 3133 3d52 3433 86c8 3b33
1.2436392e-08 1.2907695e-08 1.3418444e-08 1.4510448e-08 1.42944625e-08 1.3525574e-08 1.3027909e-08 1.3007575e-08
1.3498133e-08 1.4027135e-08 1.5162852e-08 1.493847e-08 1.4138862e-08 1.36184655e-08 1.3609775e-08 1.4124622e-08
1.46750665e-08 1.5857145e-08 1.5625899e-08 1.479663e-08 1.4254832e-08 1.4769681e-08 1.5330322e-08 1.5924222e-08
1.7181653e-08 1.6950683e-08 1.6080575e-08 1.5500687e-08 1.3804256e-08 1.4340971e-08 1.4913917e-08 1.6135663e-08
1.5928787e-08 1.5095875e-08 1.4542211e-08 1.3101298e-08 1.3623189e-08 1.4183556e-08 1.5380282e-08 1.5200369e-08
1.4401175e-08 1.387096e-08 1.2395903e-08 1.2896041e-08 1.3435876e-08 1.4597653e-08 1.4433452e-08 1.36740095e-08
1.3172272e-08 1.34840015e-08 1.3932898e-08 1.3986502e-08 1.4338078e-08 1.4288092e-08 1.42158845e-08 1.3529256e-08
1.3487643e-08 1.3943831e-08 1.399981e-08 1.4361107e-08 1.4320111e-08 1.4253451e-08 1.3567108e-08 1.3500874e-08
1.3966146e-08 1.40284655e-08 1.4400462e-08 1.43611e-08 1.4297481e-08 1.3617286e-08 1.34917e-08 1.3965128e-08
1.4036582e-08 1.4430352e-08 1.4395303e-08 1.4335633e-08 1.3666995e-08 1.2296354e-08 1.27494095e-08 1.2812274e-08
1.3187747e-08 1.3163267e-08 1.3112287e-08 1.2494556e-08 1.1448331e-08 1.18822285e-08 1.1938983e-08 1.230424e-08
1.2295707e-08 1.2257832e-08 1.166759e-08 1.0496708e-08 1.0920582e-08 1.0980154e-08 1.1338702e-08 1.13420535e-08
1.13225544e-08 1.0781458e-08 3.474587e-08 3.5836635e-08 3.6165105e-08 3.724921e-08 3.6908457e-08 3.627499e-08
3.469155e-08 3.4989327e-08 3.6085964e-08 3.6415326e-08 3.752729e-08 3.7180683e-08 3.6524895e-08 3.4925307e-08
3.523402e-08 3.6342573e-08 3.6680973e-08 3.78243e-08 3.7469427e-08 3.6789086e-08 3.5176136e-08 3.566021e-08
3.6785462e-08 3.714111e-08 3.833219e-08 3.7970004e-08 3.7265274e-08 3.5637072e-08 3.2842653e-08 3.391798e-08
3.4251443e-08 3.540261e-08 3.5074454e-08 3.4414086e-08 3.2891986e-08 3.0926813e-08 3.1956258e-08 3.2271714e-08
3.3399107e-08 3.3105284e-08 3.248734e-08 3.102705e-08 2.8865307e-08 2.9855112e-08 3.0154727e-08 3.124836e-08
3.0977493e-08 3.040744e-08 2.9038251e-08 1.6982538e-08 1.75181e-08 1.7753676e-08 1.8372607e-08 1.8026126e-08
1.7615525e-08 1.6804117e-08 1.7117939e-08 1.765866e-08 1.7900074e-08 1.8536888e-08 1.8185444e-08 1.7764231e-08
1.6943268e-08 1.7226e-08 1.7772138e-08 1.8024036e-08 1.8679343e-08 1.8321092e-08 1.7880476e-08 1.7054857e-08
1.7558884e-08 1.811682e-08 1.83875e-08 1.9071287e-08 1.8703084e-08 1.8242167e-08 1.740214e-08 1.6216587e-08
1.6747936e-08 1.7006526e-08 1.766988e-08 1.7320945e-08 1.6882595e-08 1.6090809e-08 1.5301715e-08 1.5810768e-08
1.6057815e-08 1.6714301e-08 1.6389333e-08 1.5973887e-08 1.5210958e-08 1.4318934e-08 1.4808398e-08 1.5043836e-08
1.568301e-08 1.5377122e-08 1.4987368e-08 1.4267958e-08 2.191744e-08 2.2697565e-08 2.3258854e-08 2.4610848e-08
2.4161336e-08 2.3345692e-08 2.2378819e-08 2.2492051e-08 2.3290102e-08 2.387047e-08 2.5270761e-08 2.4808381e-08
2.3961684e-08 2.29706e-08 2.3115588e-08 2.393958e-08 2.4548447e-08 2.5999697e-08 2.5523637e-08 2.464467e-08
2.363075e-08 2.4213904e-08 2.5080668e-08 2.5733069e-08 2.726248e-08 2.6772536e-08 2.5853042e-08 2.4801459e-08
2.2385093e-08 2.321445e-08 2.3835803e-08 2.5312758e-08 2.485463e-08 2.3981507e-08 2.2992898e-08 2.1082958e-08
2.1882657e-08 2.2477423e-08 2.3923409e-08 2.3496673e-08 2.2668761e-08 2.1722752e-08 1.9781158e-08 2.0548722e-08
2.1116177e-08 2.2518094e-08 2.2115175e-08 2.1335275e-08 2.0443437e-08 3.9590276e-08 4.0908194e-08 4.151443e-08
4.3201187e-08 4.2775536e-08 4.181651e-08 3.999594e-08 4.0035623e-08 4.1365137e-08 4.198431e-08 4.3721705e-08

exp_avg f4 [8]
00000000: 45ce 12b2 82ba 1403 df59 f708 8b12 2a0a
00000010: 5ca6 9e0a 50d4 340a 4fd3 7c09 3a02 350c
-8.545219e-09 4.370739e-37 1.48869e-33 8.18869e-33 1.5277424e-32 8.706616e-33 3.0432753e-33 1.3944403e-31

exp_avg_sq f4 [8]
00000000: 25f8 4c33 b6fd a024 dba4 5e30 f782 d232
00000010: 7e00 9f33 da73 4a31 ad9b 6831 9669 c136
4.7723137e-08 6.981874e-17 8.0997403e-10 2.4506773e-08 7.404104e-08 2.9460723e-09 3.3848935e-09 5.76414e-06
