outputs/ConvRNN_D1_K5_H4_SS3_1_04_17-54-47/checkpoints/model-epoch=01-validation_loss=0.09.ckpt (torch, 21982 bytes, 18 tensors)

model.bias f4 [4]
0	0x3eb18d33	0.3467804
1	0xbe3ff745	-0.1874667
2	0xbf77f9bc	-0.9686544
3	0x3ed452c6	0.414694

model.input_layers.0.weight f4 [4, 1, 5, 5]
0	0xbde6b2ed	-0.11264596
1	0xbed7d97f	-0.42158124
2	0xbea203b5	-0.31643453
3	0xbe8b3f30	-0.27196646
4	0xbd345e08	-0.044034988
5	0xbdf8272c	-0.121168464
6	0xbe82ba0a	-0.25532562
7	0xbec612e6	-0.38686293
8	0xbea2f0cb	-0.31824335
9	0xbde5562e	-0.11198078
10	0xbd4d77fa	-0.050163247
11	0xbe833286	-0.25624484
12	0xbe787313	-0.24262647
13	0xbe6bd299	-0.23029555
14	0xbe8f4469	-0.2798188
15	0xbe0a09b1	-0.1348026
16	0xbea169f1	-0.3152614
17	0xbea51960	-0.32245922
18	0xbe09e37d	-0.13465686
19	0xbe4d574e	-0.20052835
20	0xbeaa0a4a	-0.33210975
21	0xbea727fd	-0.32647696
22	0xbe56bffa	-0.20971671
23	0xbd9e7d58	-0.07738751
24	0xbb4cff8f	-0.0031280254
25	0xbc54b000	-0.012981415
26	0x3e014b49	0.12626375
27	0x3dad0637	0.08448451
28	0xbd14f3b7	-0.036365237
29	0x3dbf810a	0.09350784
30	0xbd41f008	-0.047348052
31	0x3e486233	0.1956871
32	0xbc33a7b0	-0.010965273
33	0xbd604e7f	-0.05476236
34	0x3e3fc025	0.18725641
35	0xbcacad28	-0.021078661
36	0x3cfb30f0	0.030662984
37	0x3e80adae	0.25132507
38	0x3d07ff8d	0.033202697
39	0x3d0e3ba6	0.034724854
40	0x3c82f4a8	0.015985802
41	0x3e2da4d1	0.16957404
42	0x3dbb6548	0.09150177
43	0x3e7f9dc3	0.24962525
44	0xbdaf891d	-0.08571074
45	0xbdb0f70a	-0.08640869
46	0x3dbc0436	0.09180491
47	0xbce5591c	-0.027996592
48	0x3e22b8a4	0.15890747
49	0x3a5470e4	0.000810398
50	0x3d17e1c4	0.03708054
51	0x3d66aca0	0.05631697
52	0x3d32b9ae	0.04363411
53	0xbb098318	-0.002098268
54	0x3d2ed183	0.042680275
55	0xbde17d9f	-0.110102884
56	0xbce3bb3c	-0.027799241
57	0xbe67096f	-0.22562192
58	0x3b52a25a	0.0032140226
59	0xbc41bd0f	-0.01182486
60	0xbd344db3	-0.044019412
61	0xbd81314c	-0.06308231
62	0xbde0271f	-0.10944962
63	0x3d48c3c3	0.049014818
64	0xbc883b20	-0.016629755
65	0x3d5a913a	0.053361155
66	0x3de291ab	0.1106294
67	0xbe0fe21d	-0.14051099
68	0xbdf4351c	-0.11924192
69	0x3cf5d40a	0.030008335
70	0x3da4cae5	0.080465116
71	0xbca35ff8	-0.019943222
72	0xbd2fd427	-0.042926934
73	0xbd9c405c	-0.07629463
74	0x3e1b15f2	0.1514509
75	0xbdf03b4e	-0.117300615
76	0x3dbb4d7f	0.091456406
77	0xbc9e3394	-0.019311704
78	0xbe0364e0	-0.1283145
79	0x3da44909	0.08021743
80	0x3e32b22a	0.17450777
81	0x3c610933	0.013735103
82	0xbdbdb26d	-0.09262548
83	0x3d9b5f60	0.07586551
84	0xbe597b03	-0.21238331
85	0xbe01b362	-0.12666085
86	0xbded6219	-0.11590976
87	0xbd6801dd	-0.056642402
88	0x3c83d4bd	0.016092652
89	0xbd87b50e	-0.0662633
90	0xbdd11a5e	-0.10210107
91	0xbd6338fe	-0.055474274
92	0x3d0e6a29	0.03476921
93	0x3de3f710	0.11131108
94	0xbe22fa8c	-0.15915889
95	0xbd94812a	-0.072511986
96	0xbd5cb7df	-0.05388629
97	0x3dac662c	0.08417925
98	0x3dc4e070	0.096131206
99	0xbe18c867	-0.14920197

model.input_layers.0.bias f4 [4]
0	0xbdd2e651	-0.102978356
1	0x3c13875b	0.009004439
2	0xbf1e62e5	-0.6186965
3	0xbee41ee0	-0.44554806

model.hidden_layers.0.weight f4 [4, 4, 5, 5]
0	0x3e4c2451	0.19935729
1	0x3e612448	0.21986496
2	0x3e2efe2d	0.17089148
3	0x3e8a31e7	0.26991197
4	0x3e8adb6d	0.27120534
5	0x3e3e4efb	0.18584816
6	0x3de4ab83	0.11165526
7	0x3df50215	0.11963288
8	0x3df2c647	0.11854225
9	0x3e0443ec	0.12916535
10	0x3e676793	0.22598104
11	0x3e58aeb7	0.21160398
12	0x3e4dc859	0.20095958
13	0x3dc1ddef	0.094661586
14	0x3dffa6ae	0.124829635
15	0x3e05dde6	0.13072929
16	0x3e5dab44	0.21647364
17	0x3d8ccac6	0.068746135
18	0x3e08d5dd	0.13362832
19	0x3def62bf	0.11688756
20	0x3e218e63	0.15776972
21	0x3e4f6457	0.2025312
22	0x3e6c7daf	0.2309482
23	0x3de7e5b4	0.11323109
24	0x3e3847a7	0.17996083
25	0xbe299cd1	-0.16563727
26	0xbe5fcc3e	-0.21855256
27	0xbddfdc7b	-0.10930725
28	0xbe9a4857	-0.30133316
29	0xbe03d5d4	-0.12874538
30	0xbe82af48	-0.25524354
31	0xbe971493	-0.29507884
32	0xbe87762f	-0.26457354
33	0xbe90df60	-0.28295422
34	0xbe1f78bd	-0.15573402
35	0xbe451fea	-0.19250455
36	0xbe941435	-0.28921667
37	0xbe801258	-0.25013995
38	0xbde7e548	-0.11323029
39	0xbdde4a85	-0.10854057
40	0xbe337185	-0.17523773
41	0xbe3a34e5	-0.1818424
42	0xbe61e218	-0.22058904
43	0xbe3637c5	-0.17794712
44	0xbe39ff28	-0.1816374
45	0xbe034c98	-0.12822187
46	0xbe0522fd	-0.13001628
47	0xbe524af7	-0.2053641
48	0xbe3131f6	-0.17304215
49	0xbe113406	-0.14180002
50	0xbcd24b1a	-0.025670577
51	0x3d3e0f97	0.046401586
52	0x3e3a82e0	0.18213987
53	0x3dfcba8c	0.123402685
54	0x3e281088	0.16412556
55	0xbd041aea	-0.03225223
56	0x3e15d5f0	0.14632392
57	0x3e637639	0.22213067
58	0x3e807883	0.25091943
59	0x3e08a80e	0.13345358
60	0x3e5edd14	0.21764022
61	0x3e1b915f	0.15192173
62	0x3e5b1f3a	0.2139863
63	0x3e9769c1	0.2957287
64	0x3ec629eb	0.38703856
65	0x3df7e139	0.12103505
66	0x3e893e38	0.26805282
67	0x3e504d62	0.20342019
68	0x3ec19976	0.37812394
69	0x3e82bf6c	0.25536668
70	0x3dd5153f	0.10404443
71	0x3dd28f50	0.10281241
72	0x3eb64ac0	0.35603905
73	0x3eb55bd7	0.3542163
74	0x3e8459c5	0.2584974
75	0x3e19b0a0	0.15008783
76	0x3e2ad10e	0.1668131
77	0x3e5d5185	0.21613128
78	0x3e4ba212	0.19886044
79	0x3e8c2605	0.27372757
80	0x3e5973cd	0.2123558
81	0x3dc89ea7	0.097958855
82	0x3e1f4f47	0.15557586
83	0x3e8044cd	0.2505249
84	0x3e5db7ed	0.21652193
85	0x3d8ff183	0.070284866
86	0x3e746996	0.23868403
87	0x3d1b1a00	0.037866592
88	0x3dc29b09	0.09502227
89	0x3e2251f7	0.1585158
90	0x3d94018d	0.07226858
91	0x3e169f92	0.14709309
92	0x3e444e58	0.19170511
93	0x3e6e2b6c	0.23258752
94	0x3df18852	0.11793579
95	0x3e7b52ac	0.24543256
96	0x3e76a1ff	0.24085234
97	0x3e24bb28	0.1608702
98	0x3d89e884	0.06733802
99	0x3e04a237	0.12952505
100	0xbde9479f	-0.11390614
101	0x3ba01a6d	0.0048859627
102	0xbd84df80	-0.06487942
103	0xbcab8b08	-0.020940319
104	0x3bc4f6d8	0.0060108714
105	0xbcf9fefd	-0.030517096
106	0x3c9dadef	0.019247977
107	0x3be7b48e	0.0070710843
108	0xbd8b5e1f	-0.068050615
109	0xbcf3a471	-0.029741498
110	0xbdab4eb7	-0.08364623
111	0x3d08441b	0.033268075
112	0xbd44c066	-0.048035048
113	0xbdff184c	-0.12455806
114	0xbdfaa1cf	-0.12237894
115	0xbda98ea9	-0.082791634
116	0xbd3da48c	-0.046299502
117	0xbe0d04af	-0.13771318
118	0x3b06447c	0.0020487597
119	0xbd8de505	-0.06928448
120	0xbda8203c	-0.08209273
121	0xbd839bbf	-0.064261906
122	0x3cb06302	0.021531586
123	0xbdd5e443	-0.10443928
124	0x3d103845	0.035209913
125	0x3d4c977f	0.049949165
126	0x3db95fde	0.09051488
127	0x3d18eba9	0.037334118
128	0xbcd05e99	-0.025435733
129	0xbd082f24	-0.03324808
130	0x3d55354b	0.052052777
131	0x3d4a7afd	0.049433697
132	0xbcd3135f	-0.025766073
133	0x3e0c99e7	0.13730584
134	0x3dfe3c55	0.12413851
135	0x3d5ef5b9	0.054433558
136	0x3d9814c1	0.074258335
137	0xbcc25cb9	-0.023725854
138	0x3c851c71	0.016248913
139	0x3c973c6d	0.01846143
140	0xbcecb260	-0.02889365
141	0x3d63ca3f	0.0556128
142	0x3cb2c9c5	0.021824727
143	0x3a995704	0.0011698906
144	0x3a9994cd	0.001171732
145	0x3daa5ef2	0.08318891
146	0x3cc22ad4	0.023702063
147	0xbc50fa0b	-0.012754927
148	0x3e142257	0.14466225
149	0x3dc129e4	0.09431818
150	0xbd04bc3d	-0.03240608
151	0xbdd3c406	-0.10340123
152	0xbe19575a	-0.14974728
153	0xbdfd3eef	-0.12365519
154	0xbe050e93	-0.12993841
155	0xbc94dd0f	-0.018171815
156	0xbd9aa1fe	-0.07550429
157	0x3c9000b9	0.01757847
158	0xbc90e852	-0.017688904
159	0xbc011770	-0.007879123
160	0xbdfec10a	-0.12439163
161	0xbe001412	-0.12507656
162	0xbd8f56ac	-0.06998953
163	0xbe15f3d9	-0.14643802
164	0xbdcef4d2	-0.101052895
165	0x3d1d61d5	0.038423378
166	0xbe11331f	-0.14179657
167	0xbca21669	-0.019786077
168	0xbbad47e1	-0.0052881096
169	0xbd90bf89	-0.070677824
170	0xbdb11729	-0.086469956
171	0xbdf8daae	-0.12151085
172	0xbdf8f40b	-0.121559225
173	0xbdeb003e	-0.114746556
174	0x3cb1f5a2	0.021723572
175	0x3cff274c	0.031146668
176	0x3bee5596	0.007273386
177	0xbdb58f60	-0.08865237
178	0xbd53dedb	-0.051726203
179	0x3cb22953	0.02174822
180	0xbd829998	-0.06376952
181	0xbd3c5a53	-0.045984577
182	0x3cd2d821	0.025737824
183	0xbdf4ae36	-0.119472906
184	0xbddb70f5	-0.10714904
185	0xbdd14591	-0.10218347
186	0x3d0b7968	0.03405133
187	0xbd909ed0	-0.07061541
188	0xbcf477e5	-0.029842326
189	0xbda9dda1	-0.082942255
190	0x3cb9f9b0	0.022702068
191	0x3c9c0a21	0.019047799
192	0xbb3992a2	-0.002831616
193	0xbacd6943	-0.0015671629
194	0x3c6a974e	0.0143183
195	0x3c20716f	0.00979267
196	0xbdd8e060	-0.10589671
197	0xbda48eda	-0.08035059
198	0xbdcfde2a	-0.10149796
199	0x3cd9aca0	0.026571572
200	0xbd08fcaa	-0.033444084
201	0xbdaf8872	-0.08570947
202	0xbcf3d060	-0.029762447
203	0xbd2dd710	-0.042441428
204	0xbd3f1b80	-0.046657085
205	0xbdbc2bf8	-0.09188074
206	0xbd88881d	-0.066665865
207	0xbe0602c1	-0.13086988
208	0xbdde23eb	-0.108466946
209	0xbe03b52d	-0.12862082
210	0xbc80a82b	-0.015705189
211	0xba4f3f9d	-0.00079059025
212	0xbd4e707c	-0.050400242
213	0xbde69b7a	-0.112601236
214	0xbd8bd063	-0.06826856
215	0xbd866d69	-0.06563837
216	0xbe1a7915	-0.15085252
217	0xbd8d46a7	-0.068982415
218	0xbe1411cd	-0.14459915
219	0x3cf7b051	0.030235441
220	0x3d012a25	0.031534333
221	0x3cd4388c	0.02590587
222	0xbd9746bb	-0.07386538
223	0xbd91152e	-0.07084118
224	0xbdb32d1a	-0.08748837
225	0x3c98c548	0.018648759
226	0x3da43581	0.080180176
227	0x3d5c9e92	0.053862162
228	0x3da9f2eb	0.08298286
229	0x3d407bea	0.046993174
230	0x3e0bb131	0.13641812
231	0xbc03c839	-0.008043342
232	0x3e197f82	0.14990047
233	0x3d50cdd3	0.05097754
234	0xbbac645f	-0.0052609886
235	0x3d926834	0.071487814
236	0x3cb41cd6	0.021986406
237	0x3d74ef98	0.059798807
238	0x3c80b119	0.015709447
239	0x3e0a3ef2	0.13500574
240	0x3de06223	0.10956218
241	0x3b9bd63d	0.004755764
242	0x3d8c7472	0.06858148
243	0x3d3490cf	0.044083413
244	0x3de34591	0.11097253
245	0x3e0c4a68	0.13700259
246	0xbd06a363	-0.03287066
247	0xbc45314a	-0.012035677
248	0x3bd842d9	0.0065997657
249	0x3cb5275e	0.022113498
250	0x3d3a073a	0.045417048
251	0xbc776c68	-0.01510153
252	0xbd3b1567	-0.045674708
253	0xbdb1a2ea	-0.086736515
254	0xbc927fe0	-0.017883241
255	0xbdae6ded	-0.085170604

model.hidden_layers.0.bias f4 [4]
0	0x3cce6e50	0.025199085
1	0xbdfbf07c	-0.12301728
2	0xbe4fed27	-0.2030531
3	0x3c68fd54	0.014220554

model.output_layers.0.weight f4 [1, 4, 5, 5]
0	0x3b8f16d3	0.0043667345
1	0xbdbd0963	-0.09230306
2	0x3e2388df	0.15970181
3	0x3c8d1dd3	0.017226135
4	0x3c348cc1	0.0110198865
5	0x3dd4af01	0.10384942
6	0x3dd7e9b3	0.105426215
7	0x3e9ce5a0	0.3064394
8	0x3dba2f11	0.090910085
9	0x3d7086ca	0.058722295
10	0x3e84fbe8	0.2597344
11	0x3e48928c	0.19587153
12	0x3eeeec1f	0.4666452
13	0x3e4fe8e6	0.20303687
14	0x3e97fb20	0.2968378
15	0x3d8d539b	0.06900712
16	0x3e0980bf	0.13428019
17	0x3e28cc9d	0.16484304
18	0x3dedc0b9	0.116090246
19	0x3dc1da13	0.094654225
20	0xbd4d1afe	-0.05007457
21	0xbd654da0	-0.055982232
22	0x3e6f23c3	0.23353486
23	0x3d8b96bd	0.068158604
24	0x3d9703fd	0.073738076
25	0x3cdfd105	0.027321348
26	0x3d0bc565	0.034123797
27	0xbd957b85	-0.0729895
28	0x3e009ade	0.12559077
29	0x3e19b1fb	0.150093
30	0x3e15d71b	0.14632837
31	0x3d02460e	0.03180509
32	0xbb245281	-0.002507359
33	0x3db3fb66	0.08788185
34	0xbbcb8f88	-0.0062121786
35	0xbdcc84b8	-0.099862516
36	0xbe05e917	-0.13077198
37	0xbea004a4	-0.3125354
38	0xbdcc113b	-0.09964224
39	0xbdd6770b	-0.104719244
40	0x3c9b0727	0.018924309
41	0x3d05f73f	0.032706495
42	0xbe1e6ed6	-0.15471968
43	0x3c8f47dc	0.01749032
44	0xbd723ff4	-0.05914302
45	0x3e21714f	0.1576588
46	0x3d869721	0.06571794
47	0xbe169da8	-0.14708579
48	0x3cca4ca5	0.02469475
49	0x3da88c61	0.082299
50	0x3d67bde1	0.056577567
51	0x3e8bcd90	0.2730527
52	0x3ebb1d3a	0.36545736
53	0x3c4eacc6	0.012614435
54	0x3d54268e	0.05179458
55	0x3e2fadd0	0.17156148
56	0x3ef9b32d	0.48769513
57	0x3f020551	0.5078936
58	0x3e27fa59	0.16404094
59	0x3e431779	0.19051923
60	0x3e007f6d	0.12548609
61	0x3ed675bb	0.41886696
62	0x3eeb0da0	0.45908833
63	0x3e8d0701	0.27544406
64	0x3dcae675	0.099072374
65	0x3e7dccca	0.24785152
66	0x3f10ad16	0.5651411
67	0x3edf8493	0.43655834
68	0x3ece6006	0.40307635
69	0x3e9f548d	0.31119195
70	0x3e6b0aa1	0.22953273
71	0x3e632bb2	0.22184637
72	0x3e99bb27	0.30025598
73	0x3e0e1fa0	0.13879251
74	0x3df37260	0.1188705
75	0x3d3f4479	0.04669616
76	0xbde21b47	-0.11040359
77	0x3e6ddd4b	0.23228948
78	0x3d8f5cf0	0.07000148
79	0xbd3635ae	-0.044484787
80	0xbc8cc9fc	-0.017186157
81	0xbd0a04e8	-0.033696085
82	0x3e8a7fdc	0.27050674
83	0x3e1c11f7	0.15241228
84	0x3e196440	0.14979649
85	0x3e92be38	0.2866075
86	0x3ebe3c03	0.3715516
87	0x3f120438	0.5703769
88	0x3e8d2990	0.27570772
89	0x3e7e0b26	0.2480894
90	0xbc5e9335	-0.013584902
91	0x3e0b3448	0.13594162
92	0x3e3c75e1	0.18404342
93	0xbd225acc	-0.039637372
94	0x3d2b7d96	0.041867815
95	0xbdafe52b	-0.08588632
96	0x3d9c910d	0.07644854
97	0x3e5b748a	0.21431175
98	0xbd6c6be8	-0.057720095
99	0x3e270b57	0.1631292

exp_avg f4 [4]
0	0x339bd38c	7.25623e-08
1	0x3b4ca494	0.0031226026
2	0xbcf20825	-0.0295449
3	0x3ab03741	0.0013444201

exp_avg_sq f4 [4]
0	0x3a518f4a	0.0007994069
1	0x3b0ef92a	0.0021815994
2	0x3e84acf2	0.25913197
3	0x391e6181	0.00015104377

exp_avg f4 [4, 1, 5, 5]
0	0xaec44a13	-8.926206e-11
1	0xaf317374	-1.6139073e-10
2	0xb2864e6d	-1.5635317e-08
3	0xb2852392	-1.5499413e-08
4	0xb2844fb4	-1.5403067e-08
5	0xaf2a8375	-1.5508113e-10
6	0xaf8ae142	-2.526211e-10
7	0xb2a34f17	-1.9011663e-08
8	0xb2a233eb	-1.8882892e-08
9	0xb2a1c2c6	-1.883144e-08
10	0xb216014d	-8.731445e-09
11	0xb22e45cb	-1.0144002e-08
12	0xb3d013b8	-9.6893416e-08
13	0xb3cdd722	-9.585189e-08
14	0xb3cc97ec	-9.527125e-08
15	0xb215e544	-8.72507e-09
16	0xb22e035a	-1.0128895e-08
17	0xb3ce66ac	-9.6112984e-08
18	0xb3cbf1a5	-9.496879e-08
19	0xb3cabaeb	-9.440358e-08
20	0xb2174dc6	-8.80704e-09
21	0xb22fa303	-1.0223405e-08
22	0xb3cff558	-9.6838164e-08
23	0xb3cd7620	-9.567543e-08
24	0xb3cc75c9	-9.520915e-08
25	0x00000000	0.0
26	0x00000000	0.0
27	0x80000004	-6e-45
28	0x80000004	-6e-45
29	0x80000004	-6e-45
30	0x00000000	0.0
31	0x00000000	0.0
32	0x80000004	-6e-45
33	0x80000004	-6e-45
34	0x80000004	-6e-45
35	0x00000000	0.0
36	0x00000000	0.0
37	0x80000004	-6e-45
38	0x80000004	-6e-45
39	0x80000004	-6e-45
40	0x00000000	0.0
41	0x00000000	0.0
42	0x80000004	-6e-45
43	0x80000004	-6e-45
44	0x80000004	-6e-45
45	0x00000000	0.0
46	0x00000000	0.0
47	0x80000004	-6e-45
48	0x80000004	-6e-45
49	0x80000004	-6e-45
50	0x3dbe292f	0.09285199
51	0x3dd91e68	0.10601503
52	0x3e01fdf5	0.12694533
53	0x3df21e2f	0.11822163
54	0x3de96e79	0.11398024
55	0x3da27182	0.07931806
56	0x3dba4e7e	0.090970024
57	0x3de3a17c	0.11114785
58	0x3dd32862	0.10310437
59	0x3dc9aae9	0.09847052
60	0x3dc03dc2	0.09386779
61	0x3dd02c92	0.10164751
62	0x3df97495	0.121804394
63	0x3de9df3f	0.11419534
64	0x3de1879e	0.11012195
65	0x3dc758db	0.09733745
66	0x3dc8b713	0.09800544
67	0x3dedba38	0.11607784
68	0x3de12cd8	0.109948814
69	0x3ddfe6e1	0.109327085
70	0x3df5be4e	0.11999188
71	0x3deb7fbb	0.11498972
72	0x3e056e8d	0.13030453
73	0x3e00344d	0.12519951
74	0x3e02d959	0.12778224
75	0x3b9e76fd	0.004835962
76	0x3bce9279	0.006304082
77	0x3c0c153e	0.008549986
78	0x3ba8ba50	0.0051491633
79	0x3b95f289	0.0045760316
80	0x3b718b89	0.003685685
81	0x3baa41f8	0.0051958524
82	0x3bf7fcaa	0.0075679617
83	0x3b8396d8	0.0040157847
84	0x3b55c586	0.0032618954
85	0x3b382d71	0.0028103257
86	0x3b91cd9d	0.00444956
87	0x3be530e4	0.0069943536
88	0x3b599cf9	0.0033205135
89	0x3b16fb40	0.002303794
90	0x3b232949	0.0024896434
91	0x3b7f5ab9	0.0038963987
92	0x3bcbd5ba	0.0062205466
93	0x3b368f46	0.0027856394
94	0x3b1169e5	0.0022188362
95	0x3b507994	0.0031810747
96	0x3b9036ac	0.0044010486
97	0x3bd5a5b1	0.006519996
98	0x3b508b12	0.0031821174
99	0x3b422382	0.0029623215

exp_avg_sq f4 [4, 1, 5, 5]
0	0x3bcdcaf2	0.0062802965
1	0x3bcdf337	0.006285097
2	0x3bce97e0	0.006304726
3	0x3bd0189c	0.00635059
4	0x3bd24e70	0.006418042
5	0x3bd84824	0.0066003967
6	0x3bd81e9d	0.0065954463
7	0x3bd842eb	0.006599774
8	0x3bd97bd0	0.006637074
9	0x3bdb8977	0.0066997367
10	0x3bd9291b	0.0066272146
11	0x3bd8d90f	0.0066176723
12	0x3bd8996a	0.0066100853
13	0x3bd948ae	0.0066309785
14	0x3bdb08e7	0.006684411
15	0x3bd863c9	0.006603692
16	0x3bd7fc91	0.0065913876
17	0x3bd77c83	0.0065761223
18	0x3bd7c1f2	0.0065843994
19	0x3bd918af	0.006625257
20	0x3bd880e4	0.006607162
21	0x3bd81a22	0.006594912
22	0x3bd76fc5	0.0065746033
23	0x3bd7653e	0.0065733483
24	0x3bd8496d	0.00660055
25	0x00000000	0.0
26	0x00000000	0.0
27	0x2acd33a2	3.6451143e-13
28	0x2ac51c30	3.501379e-13
29	0x2ac6d706	3.5321068e-13
30	0x00000000	0.0
31	0x00000000	0.0
32	0x2ad47588	3.774032e-13
33	0x2ad17a10	3.7210556e-13
34	0x2acd2e0f	3.6447275e-13
35	0x00000000	0.0
36	0x00000000	0.0
37	0x2ac6beeb	3.5304341e-13
38	0x2acad42b	3.602963e-13
39	0x2ae8ca28	4.1351753e-13
40	0x00000000	0.0
41	0x00000000	0.0
42	0x2aa58c84	2.940739e-13
43	0x2aa9b2cb	3.0144493e-13
44	0x2b0468bd	4.7041174e-13
45	0x00000000	0.0
46	0x00000000	0.0
47	0x2aa8adc9	2.9963383e-13
48	0x2aaaf59c	3.0368492e-13
49	0x2b153d39	5.30204e-13
50	0x406390c7	3.5557115
51	0x406856fe	3.6303096
52	0x406bab5e	3.6823344
53	0x40691892	3.6421247
54	0x40663e74	3.5975618
55	0x406753f0	3.6144981
56	0x406c3748	3.690874
57	0x406fb952	3.745686
58	0x406d098b	3.7037075
59	0x406a2815	3.6586964
60	0x40682f3f	3.6278837
61	0x406d28bb	3.705611
62	0x4070ac37	3.7605112
63	0x406ded43	3.7176063
64	0x406affc3	3.6718605
65	0x4065718c	3.5850554
66	0x406a7774	3.6635408
67	0x406dd938	3.716383
68	0x406b2107	3.6738908
69	0x40683444	3.62819
70	0x40619e48	3.5252857
71	0x40669d78	3.6033611
72	0x4069e1ae	3.6543994
73	0x40673270	3.6124535
74	0x40644c88	3.567171
75	0x3a212ea2	0.00061486114
76	0x3a2404f3	0.0006256841
77	0x3a28afde	0.00064348977
78	0x3a20f2fc	0.0006139723
79	0x3a1b576f	0.00059258094
80	0x3a228bb4	0.0006200627
81	0x3a2571a6	0.00063111854
82	0x3a2a16b4	0.00064883684
83	0x3a222e89	0.0006186744
84	0x3a1c700b	0.00059676234
85	0x3a23673c	0.00062333397
86	0x3a265cd3	0.00063462293
87	0x3a2afbde	0.00065225165
88	0x3a22f500	0.00062163174
89	0x3a1d198e	0.00059928827
90	0x3a217de9	0.00061604247
91	0x3a243113	0.0006263416
92	0x3a27e118	0.0006404086
93	0x3a2026f3	0.00061093195
94	0x3a1ae048	0.00059080543
95	0x3a1f83c3	0.00060850027
96	0x3a2211aa	0.0006182442
97	0x3a258265	0.0006313681
98	0x3a1defa7	0.00060247857
99	0x3a192215	0.00058415654

exp_avg f4 [4]
0	0x339bd38c	7.25623e-08
1	0x00000004	6e-45
2	0xbd348ed5	-0.044081528
3	0x3b38edd1	0.0028217921

exp_avg_sq f4 [4]
0	0x3a38a05a	0.0007042937
1	0x293878c3	4.096095e-14
2	0x3e841afb	0.25801834
3	0x3882d6b2	6.238873e-05

exp_avg f4 [4, 4, 5, 5]
0	0x2e9bdafc	7.0874834e-11
1	0x2f15e541	1.3632918e-10
2	0x327ad8d2	1.46012145e-08
3	0x327afe16	1.4609688e-08
4	0x327afdc0	1.4609611e-08
5	0x2f05a5e7	1.215522e-10
6	0x2f621158	2.0560742e-10
7	0x3293340f	1.7136726e-08
8	0x32937268	1.7165078e-08
9	0x32937483	1.7166036e-08
10	0x31e7c13e	6.744954e-09
11	0x32058f16	7.774153e-09
12	0x3399e249	7.165779e-08
13	0x339a2368	7.177624e-08
14	0x3399e8dc	7.1669746e-08
15	0x31e5a569	6.683582e-09
16	0x32046597	7.70651e-09
17	0x3398b132	7.110283e-08
18	0x33980c83	7.0803274e-08
19	0x3397bee3	7.0662075e-08
20	0x31e599db	6.6822685e-09
21	0x320460a3	7.705384e-09
22	0x33987bd7	7.100578e-08
23	0x3397bd52	7.0659226e-08
24	0x33976e6b	7.05157e-08
25	0xad5db01b	-1.2601499e-11
26	0xadd7e37f	-2.4543699e-11
27	0xb137a10f	-2.6721556e-09
28	0xb1375b41	-2.6681877e-09
29	0xb1375727	-2.6679545e-09
30	0xadc07cfc	-2.1883377e-11
31	0xae23dac9	-3.725623e-11
32	0xb157c46d	-3.1398273e-09
33	0xb15761cd	-3.134221e-09
34	0xb15759b8	-3.1337617e-09
35	0xb0a9ddc8	-1.2359402e-09
36	0xb0c3ec12	-1.4255213e-09
37	0xb26265dc	-1.31780915e-08
38	0xb2612017	-1.310402e-08
39	0xb260aa8c	-1.3077294e-08
40	0xb0a84532	-1.2243275e-09
41	0xb0c1ed02	-1.410996e-09
42	0xb25f2b34	-1.2990132e-08
43	0xb25df2b4	-1.2919077e-08
44	0xb25d7e17	-1.2892563e-08
45	0xb0a83bab	-1.2240567e-09
46	0xb0c1de05	-1.41057e-09
47	0xb25eb5f2	-1.296347e-08
48	0xb25d7e8b	-1.2892666e-08
49	0xb25d09f6	-1.2866158e-08
50	0xae6b87e3	-5.3553505e-11
51	0xaee1b798	-1.0264428e-10
52	0xb23b6fb9	-1.0910235e-08
53	0xb23b8a03	-1.0916213e-08
54	0xb23b8ab2	-1.0916368e-08
55	0xaec9bc3d	-9.1738596e-11
56	0xaf29ec86	-1.545449e-10
57	0xb25c3eaf	-1.2819938e-08
58	0xb25c64ed	-1.2828633e-08
59	0xb25c1ab7	-1.281176e-08
60	0xb1ad6f5b	-5.0476223e-09
61	0xb1c81c11	-5.823957e-09
62	0xb3679758	-5.3921525e-08
63	0xb3665b6e	-5.3634203e-08
64	0xb365c07e	-5.3493288e-08
65	0xb1a55d6e	-4.8127538e-09
66	0xb1bc8924	-5.487111e-09
67	0xb3587bda	-5.040406e-08
68	0xb357b9ce	-5.0227577e-08
69	0xb354cfcc	-4.9549087e-08
70	0xb1ababf0	-4.996302e-09
71	0xb1c48543	-5.719501e-09
72	0xb360e426	-5.2361564e-08
73	0xb361b456	-5.255091e-08
74	0xb3619159	-5.2519088e-08
75	0x2e7d5aa2	5.7606038e-11
76	0x2eb26dc7	8.114003e-11
77	0x31ebef81	6.8666286e-09
78	0x320d35d1	8.219517e-09
79	0x3237afc9	1.0691971e-08
80	0x2ebebfe8	8.674289e-11
81	0x2f0188ff	1.1781152e-10
82	0x3208ad4c	7.955645e-09
83	0x3221e677	9.423835e-09
84	0x325588ce	1.2429338e-08
85	0x31974104	4.40207e-09
86	0x31a428cc	4.7776663e-09
87	0x330cbe07	3.276912e-08
88	0x331ddbe3	3.6754397e-08
89	0x3359f2fe	5.074525e-08
90	0x319a0d81	4.483525e-09
91	0x31a76f68	4.873005e-09
92	0x3313402c	3.428447e-08
93	0x333a35d2	4.335545e-08
94	0x335a8c49	5.088467e-08
95	0x31a33281	4.749666e-09
96	0x31b130bf	5.15692e-09
97	0x3319e41f	3.5830563e-08
98	0x333122cf	4.1242682e-08
99	0x3363694c	5.2948323e-08
100	0x00000004	6e-45
101	0x00000004	6e-45
102	0x00000004	6e-45
103	0x00000004	6e-45
104	0x00000004	6e-45
105	0x00000004	6e-45
106	0x00000004	6e-45
107	0x00000004	6e-45
108	0x00000004	6e-45
109	0x00000004	6e-45
110	0x00000004	6e-45
111	0x00000004	6e-45
112	0x00000004	6e-45
113	0x00000004	6e-45
114	0x00000004	6e-45
115	0x00000004	6e-45
116	0x00000004	6e-45
117	0x00000004	6e-45
118	0x00000004	6e-45
119	0x00000004	6e-45
120	0x00000004	6e-45
121	0x00000004	6e-45
122	0x00000004	6e-45
123	0x00000004	6e-45
124	0x00000004	6e-45
125	0x80000004	-6e-45
126	0x80000004	-6e-45
127	0x80000004	-6e-45
128	0x80000004	-6e-45
129	0x80000004	-6e-45
130	0x80000004	-6e-45
131	0x80000004	-6e-45
132	0x80000004	-6e-45
133	0x80000004	-6e-45
134	0x80000004	-6e-45
135	0x80000004	-6e-45
136	0x80000004	-6e-45
137	0x80000004	-6e-45
138	0x80000004	-6e-45
139	0x80000004	-6e-45
140	0x80000004	-6e-45
141	0x80000004	-6e-45
142	0x80000004	-6e-45
143	0x80000004	-6e-45
144	0x80000004	-6e-45
145	0x80000004	-6e-45
146	0x80000004	-6e-45
147	0x80000004	-6e-45
148	0x80000004	-6e-45
149	0x80000004	-6e-45
150	0x00000004	6e-45
151	0x00000004	6e-45
152	0x00000004	6e-45
153	0x00000004	6e-45
154	0x00000004	6e-45
155	0x00000004	6e-45
156	0x00000004	6e-45
157	0x00000004	6e-45
158	0x00000004	6e-45
159	0x00000004	6e-45
160	0x00000004	6e-45
161	0x00000004	6e-45
162	0x00000004	6e-45
163	0x00000004	6e-45
164	0x00000004	6e-45
165	0x00000004	6e-45
166	0x00000004	6e-45
167	0x00000004	6e-45
168	0x00000004	6e-45
169	0x00000004	6e-45
170	0x00000004	6e-45
171	0x00000004	6e-45
172	0x00000004	6e-45
173	0x00000004	6e-45
174	0x00000004	6e-45
175	0x00000004	6e-45
176	0x00000004	6e-45
177	0x00000004	6e-45
178	0x00000004	6e-45
179	0x00000004	6e-45
180	0x00000004	6e-45
181	0x00000004	6e-45
182	0x00000004	6e-45
183	0x00000004	6e-45
184	0x00000004	6e-45
185	0x00000004	6e-45
186	0x00000004	6e-45
187	0x00000004	6e-45
188	0x00000004	6e-45
189	0x00000004	6e-45
190	0x00000004	6e-45
191	0x00000004	6e-45
192	0x00000004	6e-45
193	0x00000004	6e-45
194	0x00000004	6e-45
195	0x00000004	6e-45
196	0x00000004	6e-45
197	0x00000004	6e-45
198	0x00000004	6e-45
199	0x00000004	6e-45
200	0x00000000	0.0
201	0x00000000	0.0
202	0x00000000	0.0
203	0x00000000	0.0
204	0x00000000	0.0
205	0x00000004	6e-45
206	0x00000004	6e-45
207	0x00000004	6e-45
208	0x00000004	6e-45
209	0x00000004	6e-45
210	0x00000004	6e-45
211	0x00000004	6e-45
212	0x00000004	6e-45
213	0x00000004	6e-45
214	0x00000004	6e-45
215	0x00000004	6e-45
216	0x00000004	6e-45
217	0x00000004	6e-45
218	0x00000004	6e-45
219	0x00000004	6e-45
220	0x00000004	6e-45
221	0x00000004	6e-45
222	0x00000004	6e-45
223	0x00000004	6e-45
224	0x00000004	6e-45
225	0x00000000	0.0
226	0x00000000	0.0
227	0x00000000	0.0
228	0x00000000	0.0
229	0x00000000	0.0
230	0x80000004	-6e-45
231	0x80000004	-6e-45
232	0x80000004	-6e-45
233	0x80000004	-6e-45
234	0x80000004	-6e-45
235	0x80000004	-6e-45
236	0x80000004	-6e-45
237	0x80000004	-6e-45
238	0x80000004	-6e-45
239	0x80000004	-6e-45
240	0x80000004	-6e-45
241	0x80000004	-6e-45
242	0x80000004	-6e-45
243	0x80000004	-6e-45
244	0x80000004	-6e-45
245	0x80000004	-6e-45
246	0x80000004	-6e-45
247	0x80000004	-6e-45
248	0x80000004	-6e-45
249	0x80000004	-6e-45
250	0x00000000	0.0
251	0x00000000	0.0
252	0x00000000	0.0
253	0x00000000	0.0
254	0x00000000	0.0
255	0x00000004	6e-45

exp_avg_sq f4 [4, 4, 5, 5]
0	0x3601c304	1.9336012e-06
1	0x360735a1	2.0147784e-06
2	0x360b0df3	2.0720734e-06
3	0x36208b76	2.3923035e-06
4	0x3622d390	2.4263027e-06
5	0x36099889	2.0503378e-06
6	0x360ee04a	2.1290202e-06
7	0x3613651b	2.1963558e-06
8	0x362bf7c3	2.5625202e-06
9	0x362f5ddc	2.6131665e-06
10	0x3614ace9	2.2154366e-06
11	0x361a904c	2.303178e-06
12	0x361ffbcd	2.3839414e-06
13	0x3639a744	2.766451e-06
14	0x363c1cb4	2.803089e-06
15	0x3618ccf4	2.2769063e-06
16	0x3620119c	2.3852108e-06
17	0x36268fba	2.4819587e-06
18	0x363f6df3	2.8525217e-06
19	0x36402fba	2.863801e-06
20	0x3618d12c	2.277152e-06
21	0x3620a9fc	2.3940802e-06
22	0x362887a7	2.511291e-06
23	0x3640e2f9	2.8742345e-06
24	0x3641127a	2.8769996e-06
25	0x340d9218	1.3184797e-07
26	0x340e7f31	1.3271053e-07
27	0x3419dc17	1.4329304e-07
28	0x3419703c	1.4290066e-07
29	0x341943ff	1.4273972e-07
30	0x341851a8	1.418581e-07
31	0x34194ddf	1.4277565e-07
32	0x34253df5	1.5389362e-07
33	0x3424c002	1.5343542e-07
34	0x342485a9	1.5322316e-07
35	0x341dd0ad	1.469768e-07
36	0x341ef9a7	1.480572e-07
37	0x342b20d5	1.593756e-07
38	0x342a71ca	1.587388e-07
39	0x342a16c8	1.5840772e-07
40	0x3417520a	1.4092817e-07
41	0x341871b2	1.4197465e-07
42	0x3424386f	1.529422e-07
43	0x3423a94d	1.5242149e-07
44	0x3423576d	1.5212363e-07
45	0x34135d53	1.3724393e-07
46	0x341477eb	1.38272e-07
47	0x341ffb03	1.4899346e-07
48	0x341f75fa	1.4850949e-07
49	0x341f28b2	1.4822834e-07
50	0x33fb9bf3	1.1716465e-07
51	0x33fa1ef2	1.1647161e-07
52	0x33ca06b1	9.407575e-08
53	0x33a2427b	7.5558056e-08
54	0x3392c4fd	6.834487e-08
55	0x33f95ed1	1.1612213e-07
56	0x33f80276	1.15488476e-07
57	0x33c9e568	9.4015206e-08
58	0x33a3a1be	7.6197e-08
59	0x33958b8f	6.963739e-08
60	0x33b9282d	8.622042e-08
61	0x33b50d29	8.430863e-08
62	0x33a0ff95	7.497071e-08
63	0x338f4ce7	6.672945e-08
64	0x3388fb20	6.378673e-08
65	0x3389aaad	6.4106054e-08
66	0x33826aba	6.07301e-08
67	0x336c149a	5.496677e-08
68	0x33580ce8	5.0303157e-08
69	0x33563177	4.9870746e-08
70	0x3394be1d	6.9263685e-08
71	0x338d489c	6.579032e-08
72	0x33839c29	6.128568e-08
73	0x33725b87	5.642826e-08
74	0x336e6957	5.55095e-08
75	0x36caed64	6.047705e-06
76	0x36cc44de	6.087691e-06
77	0x36dc84f6	6.5719896e-06
78	0x36dbf1d9	6.5548634e-06
79	0x36dbb2b6	6.5475133e-06
80	0x36da60e0	6.508184e-06
81	0x36dbcdf4	6.5506847e-06
82	0x36ece0d8	7.0595233e-06
83	0x36ec348a	7.0394644e-06
84	0x36ebe0f5	7.029734e-06
85	0x36e231a3	6.7411033e-06
86	0x36e3e109	6.7913247e-06
87	0x36f53f8c	7.308967e-06
88	0x36f44e83	7.2809066e-06
89	0x36f3cd1d	7.2658427e-06
90	0x36d8dc88	6.462975e-06
91	0x36da7e6b	6.5116233e-06
92	0x36eb5215	7.0131014e-06
93	0x36ea8e4b	6.9903085e-06
94	0x36ea19b0	6.976734e-06
95	0x36d32f71	6.293813e-06
96	0x36d4ca35	6.3416323e-06
97	0x36e53c0d	6.8317227e-06
98	0x36e487a9	6.8107224e-06
99	0x36e41991	6.797906e-06
100	0x379675d9	1.793627e-05
101	0x379d3a7b	1.874309e-05
102	0x37a3e1e4	1.9536303e-05
103	0x379fdd02	1.9057192e-05
104	0x3797d843	1.8101307e-05
105	0x379b5274	1.8515835e-05
106	0x37a249d5	1.9346286e-05
107	0x37a91faf	2.0161124e-05
108	0x37a503fb	1.9671386e-05
109	0x379ccaeb	1.869114e-05
110	0x3797fcc1	1.81183e-05
111	0x379edf63	1.893909e-05
112	0x37a5a6c7	1.9747195e-05
113	0x37a18e41	1.9258938e-05
114	0x379969cf	1.8288292e-05
115	0x378d4f36	1.6845395e-05
116	0x3793d34b	1.7622157e-05
117	0x379a4d10	1.8394116e-05
118	0x3796857d	1.7943554e-05
119	0x378ee200	1.7032959e-05
120	0x37886a5d	1.6261993e-05
121	0x378ec396	1.7018796e-05
122	0x37951a2a	1.7774368e-05
123	0x37918107	1.734543e-05
124	0x378a25ed	1.6468543e-05
125	0x35015a0b	4.8187275e-07
126	0x35073b7e	5.037799e-07
127	0x350c9d42	5.2382904e-07
128	0x3508893d	5.0863656e-07
129	0x3501ecd4	4.8400875e-07
130	0x35058362	4.973755e-07
131	0x350b8db9	5.198777e-07
132	0x351118e1	5.4052913e-07
133	0x350cedbb	5.250001e-07
134	0x3506250f	4.997282e-07
135	0x350201bd	4.8431303e-07
136	0x3507f759	5.065136e-07
137	0x350d7430	5.269567e-07
138	0x3509569b	5.1162505e-07
139	0x3502a46e	4.866805e-07
140	0x34f1ca68	4.5037018e-07
141	0x34fd012e	4.712578e-07
142	0x3503b85e	4.906959e-07
143	0x34ffce29	4.7647453e-07
144	0x34f33b67	4.5305498e-07
145	0x34e9a918	4.3522664e-07
146	0x34f494bd	4.5556763e-07
147	0x34fec8de	4.7457337e-07
148	0x34f77c92	4.6097972e-07
149	0x34eb5eb4	4.3841067e-07
150	0x379e9410	1.8904015e-05
151	0x37a5bd57	1.9757701e-05
152	0x37ac5a21	2.0545967e-05
153	0x37a7bc13	1.999553e-05
154	0x379fcff2	1.905111e-05
155	0x37a2e9ee	1.9420837e-05
156	0x37aa42bf	2.029666e-05
157	0x37b112e2	2.1108837e-05
158	0x37ac683e	2.055254e-05
159	0x37a4527e	1.9588737e-05
160	0x37997c60	1.8296938e-05
161	0x37a096db	1.9143734e-05
162	0x37a74c56	1.9943498e-05
163	0x37a2efa3	1.9423494e-05
164	0x379b397c	1.8504208e-05
165	0x379189f0	1.734958e-05
166	0x37984f9b	1.8156881e-05
167	0x379eb86a	1.8920942e-05
168	0x379a8e0f	1.8424382e-05
169	0x37932f74	1.7545863e-05
170	0x378c61d9	1.6734864e-05
171	0x3792e6ed	1.751209e-05
172	0x379913ea	1.8248295e-05
173	0x37952436	1.7779046e-05
174	0x378e19d8	1.6939754e-05
175	0x36e84f51	6.9233724e-06
176	0x36f2cb69	7.235842e-06
177	0x36fc6686	7.5221205e-06
178	0x36f52e12	7.3069323e-06
179	0x36e95e73	6.9549365e-06
180	0x36f02354	7.15667e-06
181	0x36faf4db	7.4790855e-06
182	0x37026f2a	7.774486e-06
183	0x36fd777d	7.553898e-06
184	0x36f15f6e	7.193469e-06
185	0x36e2fda2	6.7648516e-06
186	0x36ed6a5e	7.075533e-06
187	0x36f70242	7.3614365e-06
188	0x36efd230	7.147224e-06
189	0x36e40fa0	6.7967485e-06
190	0x36d600c7	6.3777875e-06
191	0x36dfee35	6.673649e-06
192	0x36e92a79	6.9488856e-06
193	0x36e266bc	6.7472847e-06
194	0x36d74614	6.4156575e-06
195	0x36cecec9	6.1633514e-06
196	0x36d879a9	6.4514647e-06
197	0x36e1815e	6.720583e-06
198	0x36db0a33	6.527896e-06
199	0x36d050b5	6.2082786e-06
200	0x00000000	0.0
201	0x00000000	0.0
202	0x00000000	0.0
203	0x00000000	0.0
204	0x00000000	0.0
205	0x2a82740c	2.3173163e-13
206	0x2a86d7bd	2.395288e-13
207	0x2a8636d4	2.3841226e-13
208	0x2a9525c1	2.6493914e-13
209	0x2a9d5a02	2.7951258e-13
210	0x2ca71485	4.7487036e-12
211	0x2cab2139	4.8638008e-12
212	0x2caa33cf	4.8374425e-12
213	0x2cc17b0f	5.499052e-12
214	0x2cca0440	5.741657e-12
215	0x2cd6bc56	6.1031553e-12
216	0x2cd828e5	6.1436294e-12
217	0x2cd828ee	6.1436333e-12
218	0x2cf3320d	6.912032e-12
219	0x2cfc1c69	7.165425e-12
220	0x2cea2421	6.654691e-12
221	0x2cebb1a0	6.698822e-12
222	0x2ceb6a46	6.6909004e-12
223	0x2d03ce64	7.492316e-12
224	0x2d085b4f	7.7509795e-12
225	0x00000000	0.0
226	0x00000000	0.0
227	0x00000000	0.0
228	0x00000000	0.0
229	0x00000000	0.0
230	0x284b4145	1.1282917e-14
231	0x284b4145	1.1282917e-14
232	0x284b4145	1.1282917e-14
233	0x285b7cd0	1.21840065e-14
234	0x2862ab85	1.25827125e-14
235	0x2a61bbb3	2.0049136e-13
236	0x2a61bbb3	2.0049136e-13
237	0x2a61bbb3	2.0049136e-13
238	0x2a7933a4	2.2133559e-13
239	0x2a7fdfd2	2.2726203e-13
240	0x2a61bbb3	2.0049136e-13
241	0x2a61bbb3	2.0049136e-13
242	0x2a61bbb3	2.0049136e-13
243	0x2a7933a4	2.2133559e-13
244	0x2a7fdfd2	2.2726203e-13
245	0x2a61bbb3	2.0049136e-13
246	0x2a61bbb3	2.0049136e-13
247	0x2a61bbb3	2.0049136e-13
248	0x2a7933a4	2.2133559e-13
249	0x2a7fdfd2	2.2726203e-13
250	0x00000000	0.0
251	0x00000000	0.0
252	0x00000000	0.0
253	0x00000000	0.0
254	0x00000000	0.0
255	0x2a9d39c5	2.7928888e-13

exp_avg f4 [4]
0	0x339bd38c	7.25623e-08
1	0x00000004	6e-45
2	0x1ca4b054	1.0898189e-21
3	0x33962a0a	6.992566e-08

exp_avg_sq f4 [4]
0	0x36f508a2	7.302574e-06
1	0x37b1e254	2.1205436e-05
2	0x31cdba0c	5.9874363e-09
3	0x370c4a77	8.361988e-06

exp_avg f4 [1, 4, 5, 5]
0	0xbb9fa018	-0.0048713796
1	0xbbad2907	-0.005284432
2	0xbbf85ca7	-0.0075794044
3	0xbba1f2cd	-0.004942274
4	0xbb78a440	-0.0037939698
5	0xbba0fc08	-0.004912857
6	0xbbaf5a57	-0.0053513455
7	0xbbfd6fcb	-0.007734274
8	0xbba3c51f	-0.004997864
9	0xbb78535b	-0.003789148
10	0xbbe16e3f	-0.0068795974
11	0xbbf30846	-0.0074167578
12	0xbc233b61	-0.0099628875
13	0xbbe85eeb	-0.007091393
14	0xbbbd7ee9	-0.005782951
15	0xbb983558	-0.004645031
16	0xbba546aa	-0.005043824
17	0xbbf37049	-0.007429157
18	0xbb9ad398	-0.004724931
19	0xbb66c40c	-0.0035212068
20	0xbbc51428	-0.0060143657
21	0xbbcf5de6	-0.0063283322
22	0xbc0cbbf1	-0.008589731
23	0xbbc3bdee	-0.005973569
24	0xbb9d3498	-0.0047975294
25	0x3a685b29	0.00088636816
26	0x3a7b9eab	0.00095985335
27	0x3ab45b30	0.0013760086
28	0x3a6adb44	0.0008959065
29	0x3a33cd33	0.0006858885
30	0x3a6a6320	0.00089411624
31	0x3a7edb74	0.0009722032
32	0x3ab81260	0.0014043562
33	0x3a6d8b6a	0.0009061607
34	0x3a3399c7	0.0006851223
35	0x3aa42f3c	0.0012526284
36	0x3ab0c5a8	0.001348664
37	0x3aed4edb	0.0018105166
38	0x3aa8c816	0.0012877013
39	0x3a896d24	0.0010484797
40	0x3a5e0c14	0.0008470428
41	0x3a709fe7	0.0009179101
42	0x3ab10395	0.0013505096
43	0x3a60f462	0.0008581338
44	0x3a273dca	0.0006379752
45	0x3a8fc741	0.0010969416
46	0x3a970b4f	0.0011523756
47	0x3accca09	0.0015624176
48	0x3a8e5a6c	0.0010860688
49	0x3a6450d1	0.00087095523
50	0x3bade473	0.0053067743
51	0x3ae8b3c1	0.0017753766
52	0x3846181f	4.7229343e-05
53	0x3b58ba85	0.0033070159
54	0x3b39d76a	0.0028357157
55	0x3bab7743	0.005232723
56	0x3ae123b6	0.001717678
57	0xb9b3e0d7	-0.0003430906
58	0x3b439bda	0.0029847533
59	0x3b29f099	0.002593076
60	0x3ba6f6a2	0.005095319
61	0x3b0893ce	0.0020840052
62	0xb9d5d8cc	-0.00040788052
63	0x3b1ab14b	0.002360421
64	0x3ae0a125	0.0017137869
65	0x3b8f2a7c	0.004369078
66	0x3b1638e3	0.002292209
67	0x369d02c4	4.6792866e-06
68	0x3b1a3591	0.0023530463
69	0x3a8ee968	0.0010903301
70	0x3bc3e961	0.0059787487
71	0x3b9fa74f	0.0048722397
72	0x3b65cb43	0.003506378
73	0x3bb9b545	0.005667361
74	0x3b7bda96	0.0038429848
75	0xbbb2eb13	-0.005460152
76	0xbb965414	-0.0045876596
77	0xbbe0c18a	-0.006859009
78	0xbbcc3e52	-0.006233015
79	0xbba996c8	-0.005175445
80	0xbbb86969	-0.0056278002
81	0xbb9c494a	-0.004769479
82	0xbbe96383	-0.0071224584
83	0xbbd2eebc	-0.0064371508
84	0xbbae2b63	-0.0053152307
85	0xbbfc58db	-0.007701022
86	0xbbe25852	-0.0069075013
87	0xbc195fcf	-0.009361221
88	0xbc0c8295	-0.008576055
89	0xbbf17960	-0.0073692054
90	0xbbb4e9f2	-0.0055210525
91	0xbb98f660	-0.004668042
92	0xbbe4e5d7	-0.006985407
93	0xbbcc32c3	-0.006231637
94	0xbba7687b	-0.0051088906
95	0xbbe085bb	-0.0068518794
96	0xbbc4aebc	-0.0060022753
97	0xbc0668e0	-0.008203715
98	0xbbf513cb	-0.007479166
99	0xbbd20b7d	-0.006410061

exp_avg_sq f4 [1, 4, 5, 5]
0	0x3c714d95	0.01472797
1	0x3c778a2a	0.0151086245
2	0x3c7ca325	0.015419756
3	0x3c77e92c	0.015131276
4	0x3c71d370	0.014759883
5	0x3c76c033	0.015060472
6	0x3c7d3ab9	0.015455895
7	0x3c815ab4	0.015790321
8	0x3c7dadc5	0.015483324
9	0x3c777743	0.015104118
10	0x3c7b590f	0.015341057
11	0x3c811251	0.015755804
12	0x3c842d5f	0.016134916
13	0x3c815a2e	0.015790071
14	0x3c7c6827	0.015405691
15	0x3c768e94	0.015048642
16	0x3c7d16b7	0.01544731
17	0x3c815006	0.015785228
18	0x3c7d9991	0.015478508
19	0x3c7764b5	0.015099694
20	0x3c707c81	0.014678122
21	0x3c76ce2d	0.015063805
22	0x3c7c1751	0.015386418
23	0x3c774c03	0.015093806
24	0x3c714619	0.014726185
25	0x399ce343	0.00029923962
26	0x39a044a2	0.00030568714
27	0x39a3347d	0.0003112889
28	0x39a083a9	0.00030615673
29	0x399cb56a	0.00029889803
30	0x39a07dc5	0.00030611284
31	0x39a3fd24	0.00031278387
32	0x39a7130a	0.00031866907
33	0x39a44798	0.0003133386
34	0x39a0628a	0.00030590995
35	0x39a2eb21	0.00031074233
36	0x39a68617	0.00031761892
37	0x39a9dcc5	0.00032398678
38	0x39a6d9fa	0.00031824392
39	0x39a2e96b	0.00031072958
40	0x39a0b8a5	0.0003065515
41	0x39a43faa	0.0003132795
42	0x39a75b3c	0.00031920697
43	0x39a495ba	0.00031392073
44	0x39a0ac87	0.0003064612
45	0x399cc8f1	0.00029904352
46	0x39a038da	0.00030559936
47	0x39a33e4c	0.00031136198
48	0x39a08cf6	0.00030622602
49	0x399cbee7	0.00029896872
50	0x3bda7559	0.006666821
51	0x3be233c9	0.006903146
52	0x3be9151f	0.0071131135
53	0x3be3ca39	0.006951597
54	0x3bdd925e	0.006761833
55	0x3bdfeb4c	0.0068334695
56	0x3be85998	0.0070907585
57	0x3befa463	0.0073132976
58	0x3be999d5	0.007128934
59	0x3be314aa	0.0069299536
60	0x3be3213b	0.0069314516
61	0x3bebbae5	0.0071939104
62	0x3bf3a522	0.007435457
63	0x3bed3148	0.007238541
64	0x3be6cfff	0.007043838
65	0x3bdf9b10	0.006823905
66	0x3be87c9a	0.007094932
67	0x3beff725	0.007323163
68	0x3be94667	0.0071189883
69	0x3be32b61	0.0069326614
70	0x3bd9fa18	0.006652128
71	0x3be235a3	0.0069033667
72	0x3be8e466	0.0071073053
73	0x3be31980	0.00693053
74	0x3bdd4b5a	0.0067533674
75	0x3c5cd343	0.013478103
76	0x3c622238	0.013802104
77	0x3c66815d	0.014068929
78	0x3c62ccee	0.013842804
79	0x3c5d9ac0	0.013525665
80	0x3c617188	0.013759978
81	0x3c66f61c	0.014096763
82	0x3c6bb208	0.014385708
83	0x3c67bc28	0.014143981
84	0x3c62730a	0.013821373
85	0x3c64fc19	0.01397612
86	0x3c6ac5e9	0.014329412
87	0x3c703401	0.014660836
88	0x3c6bae8a	0.014384875
89	0x3c665bd7	0.014059982
90	0x3c608e32	0.013705777
91	0x3c661b1a	0.014044547
92	0x3c6ae0e9	0.014335849
93	0x3c66f092	0.014095442
94	0x3c61b1ce	0.013775302
95	0x3c5b0ecc	0.013370227
96	0x3c606d25	0.013697897
97	0x3c64f756	0.013974985
98	0x3c6138d1	0.013746456
99	0x3c5c239b	0.013436223
