outputs/ConvRNN_D1_K5_H4_SS3_1_04_17-54-47/checkpoints/model-epoch=02-validation_loss=0.10.ckpt (torch, 22046 bytes, 18 tensors)

model.bias f4 [4]
0	0x3eb18a3e	0.34675783
1	0xbe1ff338	-0.15620124
2	0xbf85b67e	-1.0446317
3	0x3eb0263a	0.34404165

model.input_layers.0.weight f4 [4, 1, 5, 5]
0	0xbde6b2e7	-0.11264592
1	0xbed7d97f	-0.42158124
2	0xbea203ac	-0.31643426
3	0xbe8b3f28	-0.27196622
4	0xbd345ce8	-0.044033915
5	0xbdf82726	-0.12116842
6	0xbe82ba0a	-0.25532562
7	0xbec612d6	-0.38686246
8	0xbea2f0bc	-0.3182429
9	0xbde5558a	-0.11197956
10	0xbd4d762c	-0.050161526
11	0xbe833269	-0.25624397
12	0xbe78708e	-0.24261686
13	0xbe6bd01e	-0.23028609
14	0xbe8f435c	-0.2798108
15	0xbe0a0964	-0.13480145
16	0xbea169d5	-0.31526056
17	0xbea51853	-0.3224512
18	0xbe09e112	-0.13464764
19	0xbe4d54e9	-0.20051922
20	0xbeaa0a35	-0.33210912
21	0xbea727e1	-0.32647613
22	0xbe56bd8a	-0.20970741
23	0xbd9e7874	-0.07737818
24	0xbb4c6543	-0.0031188286
25	0xbc54b000	-0.012981415
26	0x3e014b49	0.12626375
27	0x3dad0637	0.08448451
28	0xbd14f3b7	-0.036365237
29	0x3dbf810a	0.09350784
30	0xbd41f008	-0.047348052
31	0x3e486233	0.1956871
32	0xbc33a7b0	-0.010965273
33	0xbd604e7f	-0.05476236
34	0x3e3fc025	0.18725641
35	0xbcacad28	-0.021078661
36	0x3cfb30f0	0.030662984
37	0x3e80adae	0.25132507
38	0x3d07ff8d	0.033202697
39	0x3d0e3ba6	0.034724854
40	0x3c82f4a8	0.015985802
41	0x3e2da4d1	0.16957404
42	0x3dbb6548	0.09150177
43	0x3e7f9dc3	0.24962525
44	0xbdaf891d	-0.08571074
45	0xbdb0f70a	-0.08640869
46	0x3dbc0436	0.09180491
47	0xbce5591c	-0.027996592
48	0x3e22b8a4	0.15890747
49	0x3a5470e4	0.000810398
50	0x3d120cb2	0.03565664
51	0x3d4ceca1	0.050030354
52	0x3cfc971e	0.030833777
53	0xbc1b575f	-0.00948128
54	0x3ce7e705	0.0283084
55	0xbdc4ce48	-0.096096575
56	0xbc857fd0	-0.016296297
57	0xbe5f2f26	-0.2179533
58	0x3c8508ef	0.016239611
59	0xbb5cd3c6	-0.0033695563
60	0xbd64d8fd	-0.055871
61	0xbd9055f9	-0.07047648
62	0xbdf6c742	-0.12049724
63	0x3d2d8175	0.042359788
64	0xbce6c2c9	-0.028169053
65	0x3d535619	0.05159578
66	0x3e00c66e	0.12575695
67	0xbe029f97	-0.12756191
68	0xbdd8b0e2	-0.10580613
69	0x3d035f4e	0.03207331
70	0x3d5f1a97	0.054468717
71	0xbc973115	-0.018456021
72	0xbd2911cb	-0.041276734
73	0xbda0aa9e	-0.07845043
74	0x3e05c5cd	0.13063736
75	0xbea05b2c	-0.3131956
76	0xbe0c4688	-0.1369878
77	0xbe8a1236	-0.2696702
78	0xbe83cea8	-0.25743604
79	0xbe093015	-0.13397248
80	0x3d38d9c8	0.045129567
81	0xbe1e6673	-0.15468769
82	0xbe9ed12f	-0.3101897
83	0xbc0aeb82	-0.008479001
84	0xbebaf430	-0.36514425
85	0xbe6d6466	-0.2318283
86	0xbe924151	-0.28565457
87	0xbe938fd6	-0.28820676
88	0xbd942b84	-0.072348624
89	0xbe58d796	-0.2117599
90	0xbe5a8d21	-0.21342899
91	0xbe5f72cb	-0.21821134
92	0xbe31307e	-0.17303655
93	0x3d04ceaf	0.03242367
94	0xbeaab7e0	-0.3334341
95	0xbe54555a	-0.20735684
96	0xbe66cbbd	-0.22538657
97	0xbdef48a5	-0.11683778
98	0x3c3d265f	0.011544793
99	0xbeb820f6	-0.35962647

model.input_layers.0.bias f4 [4]
0	0xbdd2f2dd	-0.10300229
1	0x3c13875b	0.009004439
2	0xbf23b305	-0.6394504
3	0xbf500309	-0.8125463

model.hidden_layers.0.weight f4 [4, 4, 5, 5]
0	0x3e4c22d9	0.19935168
1	0x3e6122c8	0.21985924
2	0x3e2eedbc	0.17082876
3	0x3e8a2a61	0.26985458
4	0x3e8ad3f7	0.2711484
5	0x3e3e4d12	0.18584087
6	0x3de4a739	0.11164708
7	0x3df4d604	0.11954883
8	0x3df29ddb	0.11846515
9	0x3e042ffb	0.12908928
10	0x3e674f3d	0.22588821
11	0x3e589485	0.21150406
12	0x3e4d859a	0.20070496
13	0x3dc1641b	0.09442922
14	0x3dff2ee3	0.12460115
15	0x3e05c6f1	0.13064171
16	0x3e5d9288	0.21637928
17	0x3d8c4d36	0.06850664
18	0x3e089c44	0.1334086
19	0x3deef0e1	0.11667038
20	0x3e21778d	0.15768261
21	0x3e4f4bc2	0.20243743
22	0x3e6c3fa2	0.23071149
23	0x3de7739b	0.11301347
24	0x3e380f32	0.17974547
25	0xbe299b66	-0.16563186
26	0xbe5fcac3	-0.21854691
27	0xbddfbe00	-0.109249115
28	0xbe9a40de	-0.30127615
29	0xbe03c6f1	-0.12868859
30	0xbe82ae74	-0.25523722
31	0xbe9713ae	-0.29507202
32	0xbe876bf3	-0.26449546
33	0xbe90d54b	-0.2828773
34	0xbe1f6498	-0.15565717
35	0xbe450907	-0.19241725
36	0xbe9407a5	-0.28912082
37	0xbe7fe658	-0.24990213
38	0xbde76ad0	-0.1129967
39	0xbdddd130	-0.10830915
40	0xbe335b46	-0.17515287
41	0xbe3a1c52	-0.18174866
42	0xbe61a53e	-0.22035691
43	0xbe35fbd9	-0.17771854
44	0xbe39c3ca	-0.18141094
45	0xbe03362c	-0.12813634
46	0xbe050a42	-0.12992194
47	0xbe520dbc	-0.20513052
48	0xbe30f5a7	-0.17281209
49	0xbe10f841	-0.14157201
50	0xbcd22343	-0.02565158
51	0x3d3e249c	0.046421632
52	0x3e3abd6d	0.18236323
53	0x3dfd3ab6	0.12364714
54	0x3e2853a9	0.16438164
55	0xbd04009b	-0.03222714
56	0x3e15dcfd	0.14635082
57	0x3e63c735	0.2224396
58	0x3e80a4d2	0.25125748
59	0x3e090466	0.13380584
60	0x3e5f3a8c	0.21799678
61	0x3e1bf937	0.15231787
62	0x3e5c3ccf	0.21507572
63	0x3e97fe20	0.2968607
64	0x3ec6c008	0.38818383
65	0x3df8ae62	0.12142636
66	0x3e897804	0.26849377
67	0x3e51808c	0.20459193
68	0x3ec23836	0.3793351
69	0x3e835b4c	0.2565559
70	0x3dd5db1b	0.10442182
71	0x3dd36ec4	0.10323861
72	0x3eb6deb3	0.3571678
73	0x3eb5f54a	0.35538703
74	0x3e84f2f6	0.25966614
75	0x3e19b075	0.1500872
76	0x3e2ad0e1	0.16681243
77	0x3e5d4ed6	0.21612105
78	0x3e4b9f3a	0.19884959
79	0x3e8c247f	0.27371594
80	0x3e597399	0.21235503
81	0x3dc89e22	0.097957864
82	0x3e1f4bcf	0.15556262
83	0x3e804318	0.25051188
84	0x3e5db3ec	0.21650666
85	0x3d8fea1f	0.07027077
86	0x3e7465a6	0.23866901
87	0x3d1aebda	0.03782258
88	0x3dc282b9	0.094975896
89	0x3e2244af	0.15846513
90	0x3d93fa55	0.072254814
91	0x3e169bb5	0.14707835
92	0x3e444282	0.19165996
93	0x3e6e1eab	0.23253886
94	0x3df16d35	0.11788408
95	0x3e7b4e8e	0.24541685
96	0x3e769d91	0.24083544
97	0x3e24ae55	0.16082127
98	0x3d89cbe5	0.06728343
99	0x3e0491aa	0.12946191
100	0xbde9479f	-0.11390614
101	0x3baa8194	0.005203435
102	0xbd843c68	-0.06456834
103	0xbca8f67f	-0.020625351
104	0x3bcf8de6	0.0063340543
105	0xbcf9fefd	-0.030517096
106	0x3ca03cfc	0.01956033
107	0x3bf1bd45	0.007377299
108	0xbd8abb98	-0.06774062
109	0xbcf10976	-0.029423457
110	0xbdab4eb7	-0.08364623
111	0x3d098dee	0.03358262
112	0xbd437c20	-0.047725797
113	0xbdfe7415	-0.12424485
114	0xbdf9f94a	-0.12205751
115	0xbda98ea9	-0.082791634
116	0xbd3da48c	-0.046299502
117	0xbe0d04af	-0.13771318
118	0x3b06447c	0.0020487597
119	0xbd8de505	-0.06928448
120	0xbda8203c	-0.08209273
121	0xbd839bbf	-0.064261906
122	0x3cb06302	0.021531586
123	0xbdd5e443	-0.10443928
124	0x3d103845	0.035209913
125	0x3d4c977f	0.049949165
126	0x3db85970	0.09001434
127	0x3d16e8f8	0.03684327
128	0xbcd4734a	-0.02593388
129	0xbd0a46a2	-0.033758767
130	0x3d55354b	0.052052777
131	0x3d487652	0.048940964
132	0xbcd708c9	-0.026249306
133	0x3e0c1969	0.13681568
134	0x3dfd34d9	0.123635955
135	0x3d5ef5b9	0.054433558
136	0x3d970f10	0.0737592
137	0xbcc65f18	-0.024215266
138	0x3c810acf	0.015752224
139	0x3c93106b	0.017952165
140	0xbcecb260	-0.02889365
141	0x3d63ca3f	0.0556128
142	0x3cb2c9c5	0.021824727
143	0x3a995704	0.0011698906
144	0x3a9994cd	0.001171732
145	0x3daa5ef2	0.08318891
146	0x3cc22ad4	0.023702063
147	0xbc50fa0b	-0.012754927
148	0x3e142257	0.14466225
149	0x3dc129e4	0.09431818
150	0xbd04bc3d	-0.03240608
151	0xbdd43ea5	-0.10363511
152	0xbe19938c	-0.14997691
153	0xbdfdb901	-0.12388802
154	0xbe054d18	-0.1301769
155	0xbc94dd0f	-0.018171815
156	0xbd9b1aad	-0.075734474
157	0x3c8e2569	0.017351823
158	0xbc92c9ff	-0.017918585
159	0xbc04f22e	-0.008114381
160	0xbdfec10a	-0.12439163
161	0xbe005276	-0.12531456
162	0xbd8fd0eb	-0.0702227
163	0xbe1631c0	-0.14667416
164	0xbdcf73bc	-0.101294965
165	0x3d1d61d5	0.038423378
166	0xbe11331f	-0.14179657
167	0xbca21669	-0.019786077
168	0xbbad47e1	-0.0052881096
169	0xbd90bf89	-0.070677824
170	0xbdb11729	-0.086469956
171	0xbdf8daae	-0.12151085
172	0xbdf8f40b	-0.121559225
173	0xbdeb003e	-0.114746556
174	0x3cb1f5a2	0.021723572
175	0x3cff274c	0.031146668
176	0x3bf21bc4	0.007388564
177	0xbdb553ff	-0.088539116
178	0xbd5343a5	-0.051578183
179	0x3cb368db	0.021900585
180	0xbd829998	-0.06376952
181	0xbd3be383	-0.04587127
182	0x3cd3c11c	0.025848918
183	0xbdf4712f	-0.119356506
184	0xbddb3246	-0.10702948
185	0xbdd14591	-0.10218347
186	0x3d0bf381	0.03416777
187	0xbd9062f7	-0.07050126
188	0xbcf384e2	-0.02972645
189	0xbda99f60	-0.082823515
190	0x3cb9f9b0	0.022702068
191	0x3c9c0a21	0.019047799
192	0xbb3992a2	-0.002831616
193	0xbacd6943	-0.0015671629
194	0x3c6a974e	0.0143183
195	0x3c20716f	0.00979267
196	0xbdd8e060	-0.10589671
197	0xbda48eda	-0.08035059
198	0xbdcfde2a	-0.10149796
199	0x3cd9aca0	0.026571572
200	0xbd08fcaa	-0.033444084
201	0xbdaf8872	-0.08570947
202	0xbcf3d060	-0.029762447
203	0xbd2dd710	-0.042441428
204	0xbd3f1b80	-0.046657085
205	0xbdbc2bf8	-0.09188074
206	0xbd88881d	-0.066665865
207	0xbe0602c1	-0.13086988
208	0xbdde23eb	-0.108466946
209	0xbe03b52d	-0.12862082
210	0xbc80a82b	-0.015705189
211	0xba4f3f9d	-0.00079059025
212	0xbd4e707c	-0.050400242
213	0xbde69b7a	-0.112601236
214	0xbd8bd063	-0.06826856
215	0xbd866d69	-0.06563837
216	0xbe1a7915	-0.15085252
217	0xbd8d46a7	-0.068982415
218	0xbe1411cd	-0.14459915
219	0x3cf7b051	0.030235441
220	0x3d012a25	0.031534333
221	0x3cd4388c	0.02590587
222	0xbd9746bb	-0.07386538
223	0xbd91152e	-0.07084118
224	0xbdb32d1a	-0.08748837
225	0x3c98c548	0.018648759
226	0x3da43581	0.080180176
227	0x3d5c9e92	0.053862162
228	0x3da9f2eb	0.08298286
229	0x3d407bea	0.046993174
230	0x3e0bb131	0.13641812
231	0xbc03c839	-0.008043342
232	0x3e197f82	0.14990047
233	0x3d50cdd3	0.05097754
234	0xbbac645f	-0.0052609886
235	0x3d926834	0.071487814
236	0x3cb41cd6	0.021986406
237	0x3d74ef98	0.059798807
238	0x3c80b119	0.015709447
239	0x3e0a3ef2	0.13500574
240	0x3de06223	0.10956218
241	0x3b9bd63d	0.004755764
242	0x3d8c7472	0.06858148
243	0x3d3490cf	0.044083413
244	0x3de34591	0.11097253
245	0x3e0c4a68	0.13700259
246	0xbd06a363	-0.03287066
247	0xbc45314a	-0.012035677
248	0x3bd842d9	0.0065997657
249	0x3cb5275e	0.022113498
250	0x3d3a073a	0.045417048
251	0xbc776c68	-0.01510153
252	0xbd3b1567	-0.045674708
253	0xbdb1a2ea	-0.086736515
254	0xbc927fe0	-0.017883241
255	0xbdae6ded	-0.085170604

model.hidden_layers.0.bias f4 [4]
0	0x3ccd3add	0.025052482
1	0xbdfb53f6	-0.12271874
2	0xbe4fed27	-0.2030531
3	0x3c626fbe	0.013820587

model.output_layers.0.weight f4 [1, 4, 5, 5]
0	0xbd0b6dd3	-0.034040283
1	0xbdfbfc6c	-0.12304005
2	0x3e1fb306	0.15595636
3	0xbca317e2	-0.01990885
4	0xbd17f894	-0.037102297
5	0x3d99c269	0.07507784
6	0x3daeecc1	0.08541251
7	0x3ea1be17	0.3159034
8	0x3d84e5a2	0.064891115
9	0x3ca70caf	0.02039179
10	0x3e8f9ab6	0.28047723
11	0x3e698a43	0.22806649
12	0x3f085503	0.5325472
13	0x3e6c0594	0.23049003
14	0x3e9ea778	0.30987144
15	0x3d0284f5	0.03186508
16	0x3dd7ce67	0.10537415
17	0x3e2a720b	0.16645066
18	0x3da95d20	0.08269715
19	0x3d48713e	0.04893612
20	0xbd905524	-0.07047489
21	0xbd9201a5	-0.0712922
22	0x3e7b6961	0.24551918
23	0x3d40dbfc	0.047084793
24	0x3d2986da	0.04138837
25	0x3dc76305	0.09735683
26	0x3dbe52d8	0.09293145
27	0xbd6af45e	-0.057361953
28	0x3e39de4c	0.18151206
29	0x3e6c633e	0.23084733
30	0x3e4a59a4	0.19760758
31	0x3d8f9acf	0.07011949
32	0xbc3710cb	-0.011173437
33	0x3dfb295b	0.12263747
34	0x3d629455	0.05531724
35	0xbdf418db	-0.11918803
36	0xbe2b59d5	-0.16733487
37	0xbece2752	-0.40264374
38	0xbe111947	-0.14169799
39	0xbdef42f2	-0.11682691
40	0x3daac14c	0.0833765
41	0x3dada756	0.084791824
42	0xbe1aded0	-0.15124059
43	0x3d82874d	0.06373463
44	0x3c6330a5	0.013866578
45	0x3e48f806	0.19625863
46	0x3dc5aa43	0.096516155
47	0xbe240777	-0.16018473
48	0x3d5320f5	0.051545102
49	0x3e099ceb	0.13438766
50	0xbd2e40bd	-0.042542208
51	0x3e844792	0.25835854
52	0x3ed73054	0.4202906
53	0xbd550412	-0.052005835
54	0x3ba35bca	0.0049853073
55	0x3daebef2	0.08532514
56	0x3ef900d1	0.48633435
57	0x3f15b7d8	0.5848365
58	0x3de4e6a1	0.111768015
59	0x3e15ede4	0.1464153
60	0x3da2fe1f	0.07958626
61	0x3ee35573	0.4440113
62	0x3f151c97	0.5824675
63	0x3e91f446	0.28506678
64	0x3df8d53d	0.12150047
65	0x3e597118	0.21234548
66	0x3f11a8ca	0.56898177
67	0x3f090070	0.5351629
68	0x3ecd56fe	0.40105432
69	0x3eb1e0d9	0.34741858
70	0x3e0203e9	0.12696804
71	0x3dfb5180	0.12271404
72	0x3e857dfe	0.26072687
73	0x3b9c6426	0.004772681
74	0x3d41a68b	0.04727797
75	0x3c53bab4	0.012922931
76	0xbe2194c8	-0.15779412
77	0x3e534edd	0.20635553
78	0x3d8bdf5a	0.0682971
79	0xbd8a3407	-0.06748205
80	0xbd4b0ef6	-0.049574815
81	0xbda1af8c	-0.07894811
82	0x3e7f11c6	0.24909124
83	0x3e1db64c	0.15401572
84	0x3e02f016	0.12786898
85	0x3e9b57fb	0.3034056
86	0x3ec13a8b	0.37739977
87	0x3f1a3e3d	0.6025122
88	0x3ea7ee42	0.32798964
89	0x3e8c382f	0.27386615
90	0xbd654889	-0.055977378
91	0x3da80446	0.0820394
92	0x3e1cbfb3	0.15307502
93	0xbd530b78	-0.05152461
94	0x3b610e87	0.0034340934
95	0xbddf6131	-0.1090721
96	0x3d26cc8b	0.04072241
97	0x3e4c0fa7	0.19927846
98	0xbd5955f0	-0.053060472
99	0x3e12e813	0.14346342

exp_avg f4 [4]
0	0x331152d1	3.3835764e-08
1	0x3b4cf364	0.0031273002
2	0x3cc71b8e	0.024305131
3	0xb5cbaf8e	-1.5175772e-06

exp_avg_sq f4 [4]
0	0x3a007ac8	0.00049011083
1	0x3b0f389a	0.0021853806
2	0x3ea8a11f	0.32935426
3	0x3b2f3069	0.0026731736

exp_avg f4 [4, 1, 5, 5]
0	0xaf0ef31f	-1.3001199e-10
1	0xaf8e84d9	-2.5924043e-10
2	0xb2426a9f	-1.1316529e-08
3	0xb2438690	-1.138109e-08
4	0xb249a736	-1.1737759e-08
5	0xaf150026	-1.3551524e-10
6	0xaf926f9f	-2.6636557e-10
7	0xb24b03cd	-1.1817019e-08
8	0xb24bc0d1	-1.18599965e-08
9	0xb24fdc86	-1.2099127e-08
10	0xb060fa8c	-8.1846774e-10
11	0xb09c74d9	-1.1383704e-09
12	0xb35673a2	-4.9930925e-08
13	0xb3557069	-4.9695164e-08
14	0xb35635a8	-4.9874558e-08
15	0xb03e3993	-6.9203415e-10
16	0xb07db1d2	-9.229356e-10
17	0xb3496f59	-4.690023e-08
18	0xb348e718	-4.6776307e-08
19	0xb3499923	-4.6938236e-08
20	0xb03ded7f	-6.90953e-10
21	0xb07c1484	-9.170622e-10
22	0xb349c60f	-4.6979093e-08
23	0xb3499de8	-4.6942574e-08
24	0xb349c99f	-4.6982333e-08
25	0x00000000	0.0
26	0x00000000	0.0
27	0x80000004	-6e-45
28	0x80000004	-6e-45
29	0x80000004	-6e-45
30	0x00000000	0.0
31	0x00000000	0.0
32	0x80000004	-6e-45
33	0x80000004	-6e-45
34	0x80000004	-6e-45
35	0x00000000	0.0
36	0x00000000	0.0
37	0x80000004	-6e-45
38	0x80000004	-6e-45
39	0x80000004	-6e-45
40	0x00000000	0.0
41	0x00000000	0.0
42	0x80000004	-6e-45
43	0x80000004	-6e-45
44	0x80000004	-6e-45
45	0x00000000	0.0
46	0x00000000	0.0
47	0x80000004	-6e-45
48	0x80000004	-6e-45
49	0x80000004	-6e-45
50	0xbe089ff5	-0.13342269
51	0xbe029f9b	-0.12756197
52	0xbdfe01f1	-0.12402714
53	0xbe07a8e5	-0.13248022
54	0xbdefaa27	-0.11702376
55	0xbe0bef3d	-0.13665481
56	0xbe0581c0	-0.13037777
57	0xbe027586	-0.12740144
58	0xbe0d4ab3	-0.13798027
59	0xbdfe0e60	-0.124050856
60	0xbde69e6d	-0.11260686
61	0xbddaea80	-0.106892586
62	0xbdd59017	-0.104278736
63	0xbdedeff9	-0.11618037
64	0xbdd2a101	-0.10284615
65	0xbdf24fff	-0.11831664
66	0xbdee0626	-0.116222665
67	0xbded2851	-0.11579955
68	0xbe01a432	-0.12660292
69	0xbde32002	-0.110900894
70	0xbde19665	-0.110150136
71	0xbde51c45	-0.111870326
72	0xbde8ccfd	-0.113672234
73	0xbdfb0abb	-0.12257906
74	0xbdd4fda9	-0.10399944
75	0x381a7c20	3.683206e-05
76	0x38166532	3.5857032e-05
77	0x37f43467	2.9111468e-05
78	0x37f13c36	2.8757477e-05
79	0x3800a2e9	3.06693e-05
80	0x38173ebc	3.605963e-05
81	0x38131efe	3.5076395e-05
82	0x37ed13a4	2.8261748e-05
83	0x37eaa168	2.7970134e-05
84	0x37fb8a4d	2.9985933e-05
85	0x380f84e8	3.4217635e-05
86	0x380b2ee0	3.318384e-05
87	0x37d0aac3	2.487505e-05
88	0x37cfd4c6	2.4775403e-05
89	0x37e343bb	2.7092048e-05
90	0x38179750	3.6142126e-05
91	0x38149681	3.5426117e-05
92	0x37eae860	2.8003182e-05
93	0x37e9e97b	2.7884487e-05
94	0x37fdfd86	3.0278006e-05
95	0x3817ad26	3.6162462e-05
96	0x3814fb5d	3.552005e-05
97	0x37eda4ba	2.8329308e-05
98	0x37ed0cc8	2.8258553e-05
99	0x3800d555	3.071626e-05

exp_avg_sq f4 [4, 1, 5, 5]
0	0x3b7c5708	0.0038504023
1	0x3b7c8884	0.0038533518
2	0x3b7d525c	0.0038653826
3	0x3b7f2a29	0.0038935042
4	0x3b80eff9	0.003934857
5	0x3b8499cf	0.0040466557
6	0x3b848067	0.004043627
7	0x3b84969d	0.004046275
8	0x3b85566f	0.0040691416
9	0x3b8698bd	0.0041075633
10	0x3b8523c5	0.004063102
11	0x3b84f2ae	0.00405725
12	0x3b84cba5	0.0040525966
13	0x3b853718	0.0040654056
14	0x3b8649ed	0.004098168
15	0x3b84aac7	0.0040486786
16	0x3b846b7e	0.0040411344
17	0x3b841cf7	0.004031773
18	0x3b844793	0.0040368526
19	0x3b8519aa	0.0040618973
20	0x3b84bc9a	0.0040508034
21	0x3b847da7	0.0040432992
22	0x3b84152e	0.004030845
23	0x3b840eb7	0.0040300745
24	0x3b849a98	0.0040467493
25	0x00000000	0.0
26	0x00000000	0.0
27	0x2a7b9d95	2.234795e-13
28	0x2a71b192	2.1466707e-13
29	0x2a73d099	2.1655107e-13
30	0x00000000	0.0
31	0x00000000	0.0
32	0x2a8241dd	2.313834e-13
33	0x2a806dc6	2.2813538e-13
34	0x2a7b96c2	2.2345583e-13
35	0x00000000	0.0
36	0x00000000	0.0
37	0x2a73b30d	2.1644856e-13
38	0x2a78b4ba	2.2089527e-13
39	0x2a8eb8c6	2.535248e-13
40	0x00000000	0.0
41	0x00000000	0.0
42	0x2a4afe6b	1.8029473e-13
43	0x2a5014f3	1.848138e-13
44	0x2aa25bc3	2.8840653e-13
45	0x00000000	0.0
46	0x00000000	0.0
47	0x2a4ed4e6	1.837034e-13
48	0x2a51a0ce	1.8618719e-13
49	0x2ab6fec2	3.2506468e-13
50	0x4099d4c9	4.8072248
51	0x409d2eba	4.911954
52	0x409f97e0	4.9872894
53	0x409da521	4.9264073
54	0x409aeb30	4.8412094
55	0x409ccaac	4.89974
56	0x40a057db	5.0107245
57	0x40a2f333	5.0921874
58	0x40a0d5fd	5.0261216
59	0x409e0500	4.9381104
60	0x409d8572	4.9225397
61	0x40a13f82	5.0390024
62	0x40a3ea60	5.12236
63	0x40a1bc1e	5.0542135
64	0x409ee11e	4.96498
65	0x409b554d	4.8541627
66	0x409f26a3	4.9734664
67	0x40a1bc84	5.054262
68	0x409f9d99	4.987988
69	0x409ccfc2	4.900361
70	0x4098234e	4.7543097
71	0x409bebc2	4.872529
72	0x409e5d71	4.9489064
73	0x409c5406	4.885257
74	0x4099a203	4.801027
75	0x3c69e50a	0.014275799
76	0x3c6fc7d7	0.014635048
77	0x3c7563b0	0.014977381
78	0x3c6f8a3c	0.01462036
79	0x3c6b5f10	0.014365926
80	0x3c729b64	0.014807556
81	0x3c78a614	0.015176315
82	0x3c7e68a3	0.015527877
83	0x3c7835d7	0.015149555
84	0x3c736aa3	0.014856967
85	0x3c7afe6a	0.015319446
86	0x3c80b05c	0.015709095
87	0x3c83b1db	0.016076019
88	0x3c80705a	0.015678573
89	0x3c7b8059	0.015350425
90	0x3c75cb47	0.015002078
91	0x3c7c2bcb	0.0153913
92	0x3c811163	0.015755361
93	0x3c7baf5f	0.015361636
94	0x3c764501	0.0150311
95	0x3c70ea3d	0.014704284
96	0x3c772539	0.015084558
97	0x3c7ce8d4	0.01543637
98	0x3c768a6a	0.015047649
99	0x3c713c5b	0.0147238625

exp_avg f4 [4]
0	0x331152d1	3.3835764e-08
1	0x00000004	6e-45
2	0x3cabb908	0.020962253
3	0x35560c54	7.973915e-07

exp_avg_sq f4 [4]
0	0x39e262eb	0.0004317978
1	0x28e23253	2.5112865e-14
2	0x3ea5710d	0.32312813
3	0x3b0a9cfd	0.0021150701

exp_avg f4 [4, 4, 5, 5]
0	0x2ef290c0	1.1030599e-10
1	0x2f871032	2.4567864e-10
2	0x325f314e	1.2991519e-08
3	0x326013ee	1.30430475e-08
4	0x32602797	1.3047518e-08
5	0x2ef7e87b	1.12735564e-10
6	0x2f885921	2.4801586e-10
7	0x3263bc6c	1.3255981e-08
8	0x3264b2a5	1.3311966e-08
9	0x3264c7ed	1.33168045e-08
10	0x3012691a	5.326385e-10
11	0x305353b6	7.6880313e-10
12	0x330fb703	3.346123e-08
13	0x330fbbdd	3.3465643e-08
14	0x330f9df0	3.3438425e-08
15	0x2fea1a65	4.2583106e-10
16	0x301da953	5.735689e-10
17	0x33032f7d	3.0544005e-08
18	0x3302fdc5	3.0498786e-08
19	0x3302db1b	3.046726e-08
20	0x2fe866be	4.2273557e-10
21	0x301ae698	5.6352567e-10
22	0x3300c621	2.998252e-08
23	0x33008b29	2.9928888e-08
24	0x330067dd	2.9896785e-08
25	0xad96a1f9	-1.7124956e-11
26	0xae277809	-3.8078016e-11
27	0xb10a6ac1	-2.0142326e-09
28	0xb10a22d8	-2.010145e-09
29	0xb10a2228	-2.0101059e-09
30	0xad9a0ea0	-1.7514268e-11
31	0xae294769	-3.8489576e-11
32	0xb10d5795	-2.0567985e-09
33	0xb10d0991	-2.0523638e-09
34	0xb10d0866	-2.0522974e-09
35	0xaeb6c826	-8.311955e-11
36	0xaf04108f	-1.2011213e-10
37	0xb1b2884f	-5.1959783e-09
38	0xb1b1ba4b	-5.172557e-09
39	0xb1b187e7	-5.1668283e-09
40	0xae923140	-6.64806e-11
41	0xaec4f51e	-8.9565896e-11
42	0xb1a2a30e	-4.7333577e-09
43	0xb1a1f88f	-4.7139745e-09
44	0xb1a1c682	-4.7082844e-09
45	0xae9120a4	-6.599635e-11
46	0xaec17cc1	-8.7987846e-11
47	0xb19f9cb6	-4.645325e-09
48	0xb19ef2a4	-4.6259903e-09
49	0xb19ec099	-4.620301e-09
50	0xaeb96b71	-8.4319114e-11
51	0xaf4bf4aa	-1.8549665e-10
52	0xb22e9c16	-1.0163623e-08
53	0xb22ea470	-1.0165522e-08
54	0xb22e8c06	-1.0159971e-08
55	0xaebb1540	-8.50755e-11
56	0xaf513eef	-1.9030798e-10
57	0xb2323a49	-1.0374216e-08
58	0xb232467e	-1.0376992e-08
59	0xb23204a3	-1.0362018e-08
60	0xafe32dc6	-4.1323583e-10
61	0xb0245eec	-5.9797745e-10
62	0xb2e07f42	-2.6134902e-08
63	0xb2dfe794	-2.6065926e-08
64	0xb2df74c0	-2.6013709e-08
65	0xaf9ca1c1	-2.8491168e-10
66	0xafca7691	-3.6827832e-10
67	0xb2b096cb	-2.055767e-08
68	0xb2b3a416	-2.091296e-08
69	0xb2a9d5c0	-1.9771392e-08
70	0xafb03046	-3.2048514e-10
71	0xafdef0ae	-4.0552578e-10
72	0xb2b55383	-2.110915e-08
73	0xb2bfcfa4	-2.232975e-08
74	0xb2bd7d06	-2.205935e-08
75	0x2ef19349	1.0985574e-10
76	0x2f849c7d	2.4121852e-10
77	0x32571a9e	1.2520699e-08
78	0x325e61d2	1.29443425e-08
79	0x325fc715	1.3025574e-08
80	0x2ef565d3	1.1159398e-10
81	0x2f840b50	2.4018698e-10
82	0x3259fd1d	1.2688614e-08
83	0x326275a7	1.3181682e-08
84	0x32643693	1.3283755e-08
85	0x3010ae47	5.263456e-10
86	0x304d1d3d	7.4620116e-10
87	0x330afc22	3.2359942e-08
88	0x330e95d3	3.3198216e-08
89	0x330f3979	3.3347053e-08
90	0x2fe88842	4.229737e-10
91	0x301bb96d	5.665218e-10
92	0x3300de6f	3.0004625e-08
93	0x33026a73	3.03648e-08
94	0x3302aaaa	3.04232e-08
95	0x2fe7119b	4.2031165e-10
96	0x301981c6	5.5845495e-10
97	0x32fd9887	2.9522438e-08
98	0x33000f60	2.9816306e-08
99	0x330043bc	2.9863926e-08
100	0x00000004	6e-45
101	0xaf43693c	-1.7772533e-10
102	0xaf437458	-1.777648e-10
103	0xaf437479	-1.7776526e-10
104	0xaf437479	-1.7776526e-10
105	0x00000004	6e-45
106	0xaf435a3d	-1.7767206e-10
107	0xaf4373a5	-1.7776232e-10
108	0xaf43743e	-1.7776444e-10
109	0xaf43743f	-1.7776446e-10
110	0x00000004	6e-45
111	0xaf42d520	-1.7719914e-10
112	0xaf4367e7	-1.777206e-10
113	0xaf436f02	-1.7774585e-10
114	0xaf436f5e	-1.7774712e-10
115	0x00000004	6e-45
116	0x00000004	6e-45
117	0x00000004	6e-45
118	0x00000004	6e-45
119	0x00000004	6e-45
120	0x00000004	6e-45
121	0x00000004	6e-45
122	0x00000004	6e-45
123	0x00000004	6e-45
124	0x00000004	6e-45
125	0x80000004	-6e-45
126	0x2e675fa8	5.260828e-11
127	0x2e675fa8	5.260828e-11
128	0x2e675fa8	5.260828e-11
129	0x2e675fa8	5.260828e-11
130	0x80000004	-6e-45
131	0x2e675fa8	5.260828e-11
132	0x2e675fa8	5.260828e-11
133	0x2e675fa8	5.260828e-11
134	0x2e675fa8	5.260828e-11
135	0x80000004	-6e-45
136	0x2e675fa8	5.260828e-11
137	0x2e675fa8	5.260828e-11
138	0x2e675fa8	5.260828e-11
139	0x2e675fa8	5.260828e-11
140	0x80000004	-6e-45
141	0x80000004	-6e-45
142	0x80000004	-6e-45
143	0x80000004	-6e-45
144	0x80000004	-6e-45
145	0x80000004	-6e-45
146	0x80000004	-6e-45
147	0x80000004	-6e-45
148	0x80000004	-6e-45
149	0x80000004	-6e-45
150	0x00000004	6e-45
151	0x2f154120	1.3574608e-10
152	0x2f1545f7	1.3576328e-10
153	0x2f1545f7	1.3576328e-10
154	0x2f1545f7	1.3576328e-10
155	0x00000004	6e-45
156	0x2f153ea3	1.3573724e-10
157	0x2f1545f7	1.3576328e-10
158	0x2f1545f7	1.3576328e-10
159	0x2f1545f7	1.3576328e-10
160	0x00000004	6e-45
161	0x2f1545f7	1.3576328e-10
162	0x2f1545f7	1.3576328e-10
163	0x2f1545f7	1.3576328e-10
164	0x2f1545f7	1.3576328e-10
165	0x00000004	6e-45
166	0x00000004	6e-45
167	0x00000004	6e-45
168	0x00000004	6e-45
169	0x00000004	6e-45
170	0x00000004	6e-45
171	0x00000004	6e-45
172	0x00000004	6e-45
173	0x00000004	6e-45
174	0x00000004	6e-45
175	0x00000004	6e-45
176	0xae22005e	-3.683486e-11
177	0xae220137	-3.6835614e-11
178	0xae26983f	-3.7879252e-11
179	0xae269dc3	-3.788415e-11
180	0x00000004	6e-45
181	0xae22005e	-3.683486e-11
182	0xae22005e	-3.683486e-11
183	0xae22178f	-3.685546e-11
184	0xae220a8f	-3.6843913e-11
185	0x00000004	6e-45
186	0xae22005e	-3.683486e-11
187	0xae22005e	-3.683486e-11
188	0xae22005e	-3.683486e-11
189	0xae22005e	-3.683486e-11
190	0x00000004	6e-45
191	0x00000004	6e-45
192	0x00000004	6e-45
193	0x00000004	6e-45
194	0x00000004	6e-45
195	0x00000004	6e-45
196	0x00000004	6e-45
197	0x00000004	6e-45
198	0x00000004	6e-45
199	0x00000004	6e-45
200	0x00000000	0.0
201	0x00000000	0.0
202	0x00000000	0.0
203	0x00000000	0.0
204	0x00000000	0.0
205	0x00000004	6e-45
206	0x00000004	6e-45
207	0x00000004	6e-45
208	0x00000004	6e-45
209	0x00000004	6e-45
210	0x00000004	6e-45
211	0x00000004	6e-45
212	0x00000004	6e-45
213	0x00000004	6e-45
214	0x00000004	6e-45
215	0x00000004	6e-45
216	0x00000004	6e-45
217	0x00000004	6e-45
218	0x00000004	6e-45
219	0x00000004	6e-45
220	0x00000004	6e-45
221	0x00000004	6e-45
222	0x00000004	6e-45
223	0x00000004	6e-45
224	0x00000004	6e-45
225	0x00000000	0.0
226	0x00000000	0.0
227	0x00000000	0.0
228	0x00000000	0.0
229	0x00000000	0.0
230	0x80000004	-6e-45
231	0x80000004	-6e-45
232	0x80000004	-6e-45
233	0x80000004	-6e-45
234	0x80000004	-6e-45
235	0x80000004	-6e-45
236	0x80000004	-6e-45
237	0x80000004	-6e-45
238	0x80000004	-6e-45
239	0x80000004	-6e-45
240	0x80000004	-6e-45
241	0x80000004	-6e-45
242	0x80000004	-6e-45
243	0x80000004	-6e-45
244	0x80000004	-6e-45
245	0x80000004	-6e-45
246	0x80000004	-6e-45
247	0x80000004	-6e-45
248	0x80000004	-6e-45
249	0x80000004	-6e-45
250	0x00000000	0.0
251	0x00000000	0.0
252	0x00000000	0.0
253	0x00000000	0.0
254	0x00000000	0.0
255	0x00000004	6e-45

exp_avg_sq f4 [4, 4, 5, 5]
0	0x359f1cb5	1.1854778e-06
1	0x35a5cac6	1.2352473e-06
2	0x35aa81b8	1.270374e-06
3	0x35c4db9e	1.4667055e-06
4	0x35c7a7cb	1.487549e-06
5	0x35a8b7db	1.2570484e-06
6	0x35af315c	1.3052882e-06
7	0x35b4bbd0	1.3465706e-06
8	0x35d2dd4f	1.5710629e-06
9	0x35d70837	1.6021139e-06
10	0x35b64dc6	1.3582692e-06
11	0x35bd8616	1.4120621e-06
12	0x35c42b77	1.4615788e-06
13	0x35e3a541	1.6960913e-06
14	0x35e6a91f	1.7185556e-06
15	0x35bb5cad	1.3959558e-06
16	0x35c44636	1.4623572e-06
17	0x35cc3c37	1.5216709e-06
18	0x35eaba70	1.7488619e-06
19	0x35eba813	1.755778e-06
20	0x35bb61dd	1.3961068e-06
21	0x35c50107	1.4677943e-06
22	0x35cea614	1.5396531e-06
23	0x35ec83d5	1.7621738e-06
24	0x35ecbe09	1.7638678e-06
25	0x33ad9784	8.083501e-08
26	0x33aeba54	8.136399e-08
27	0x33bca930	8.785207e-08
28	0x33bc24dd	8.7611376e-08
29	0x33bbeea0	8.751272e-08
30	0x33bac582	8.6972264e-08
31	0x33bbfac4	8.75348e-08
32	0x33ca9e16	9.435114e-08
33	0x33ca039d	9.407015e-08
34	0x33c9bc18	9.394006e-08
35	0x33c182c1	9.011047e-08
36	0x33c2eee1	9.077281e-08
37	0x33d1d5d5	9.771217e-08
38	0x33d0ff35	9.732177e-08
39	0x33d08f98	9.711874e-08
40	0x33b98c0d	8.640209e-08
41	0x33baecce	8.7043745e-08
42	0x33c95d67	9.376782e-08
43	0x33c8adf4	9.3448676e-08
44	0x33c8497b	9.326592e-08
45	0x33b4b249	8.414333e-08
46	0x33b60cbe	8.477353e-08
47	0x33c42a7d	9.13469e-08
48	0x33c38758	9.105014e-08
49	0x33c328a1	9.0877855e-08
50	0x339a4288	7.183286e-08
51	0x339958ed	7.140793e-08
52	0x3377b8c9	5.767723e-08
53	0x3346f5ed	4.6324136e-08
54	0x3333f784	4.19018e-08
55	0x3398e31f	7.119365e-08
56	0x33980d93	7.080521e-08
57	0x33778fd6	5.7639987e-08
58	0x3348a4a5	4.6715872e-08
59	0x33375ec2	4.269419e-08
60	0x33630973	5.286115e-08
61	0x335e00bb	5.1689067e-08
62	0x33456a09	4.5964075e-08
63	0x332fb686	4.0911367e-08
64	0x3327f6d5	3.910721e-08
65	0x3328ce1b	3.9303e-08
66	0x331fea50	3.723318e-08
67	0x3310bd46	3.3699756e-08
68	0x33047588	3.084054e-08
69	0x33035201	3.0575396e-08
70	0x333662de	4.2465096e-08
71	0x332d3d76	4.03356e-08
72	0x332160de	3.7573834e-08
73	0x33149673	3.4595768e-08
74	0x33122b27	3.403252e-08
75	0x3678d391	3.7078028e-06
76	0x367a78d3	3.7323232e-06
77	0x368732e5	4.0292384e-06
78	0x3686d8b0	4.018737e-06
79	0x3686b208	4.0142368e-06
80	0x3685e2e8	3.9901242e-06
81	0x3686c2bf	4.0161826e-06
82	0x36913a77	4.328143e-06
83	0x3690d0dd	4.3158493e-06
84	0x36909d96	4.30988e-06
85	0x368aad8b	4.1329236e-06
86	0x368bb601	4.163711e-06
87	0x36965c2b	4.481078e-06
88	0x3695c85c	4.463871e-06
89	0x36957909	4.4546364e-06
90	0x3684f4d6	3.962409e-06
91	0x3685f50c	3.992236e-06
92	0x36904604	4.2996853e-06
93	0x368fcdfd	4.2857123e-06
94	0x368f8677	4.277386e-06
95	0x368179f2	3.858696e-06
96	0x368275c8	3.8880135e-06
97	0x368c8acb	4.1884828e-06
98	0x368c1c36	4.1756093e-06
99	0x368bd8b4	4.1677504e-06
100	0x37387e12	1.0996608e-05
101	0x3740ca9a	1.1491264e-05
102	0x3748f34d	1.1977577e-05
103	0x374405a7	1.1683826e-05
104	0x373a3097	1.1097777e-05
105	0x373e7435	1.1351939e-05
106	0x3746fef1	1.1861078e-05
107	0x374f609e	1.2360657e-05
108	0x374a5700	1.20603945e-05
109	0x374041c8	1.1459408e-05
110	0x373a5d68	1.1108212e-05
111	0x3742ceb2	1.1611426e-05
112	0x374b1ea0	1.2106873e-05
113	0x374618eb	1.1807521e-05
114	0x373c1d01	1.1212426e-05
115	0x372d4585	1.032779e-05
116	0x373542f3	1.08040285e-05
117	0x373d33ad	1.127731e-05
118	0x37389140	1.1001073e-05
119	0x372f3367	1.0442781e-05
120	0x37274559	9.970122e-06
121	0x372f0e20	1.0434102e-05
122	0x3736d3b6	1.0897338e-05
123	0x37326a3b	1.06343605e-05
124	0x37296533	1.0096747e-05
125	0x349e9bff	2.9543295e-07
126	0x34a5d1f2	3.08864e-07
127	0x34ac6b4f	3.2115574e-07
128	0x34a76b2c	3.1184152e-07
129	0x349f5006	2.9674283e-07
130	0x34a3b64c	3.0493754e-07
131	0x34ab1e6b	3.1873364e-07
132	0x34b1ea92	3.3139492e-07
133	0x34acce02	3.2187387e-07
134	0x34a47c82	3.0637972e-07
135	0x349f69a2	2.9692916e-07
136	0x34a6b847	3.105399e-07
137	0x34ad72e6	3.230736e-07
138	0x34a86700	3.136738e-07
139	0x34a03116	2.9838037e-07
140	0x34943d87	2.7611915e-07
141	0x349b1d8a	2.8892492e-07
142	0x34a18373	3.008423e-07
143	0x349cd524	2.9212345e-07
144	0x34951fb6	2.7776485e-07
145	0x348f4178	2.668346e-07
146	0x3495f36e	2.793053e-07
147	0x349c34ef	2.909578e-07
148	0x3497bb75	2.8262335e-07
149	0x34904dc1	2.6878664e-07
150	0x3742725a	1.1589926e-05
151	0x374b3a46	1.2113311e-05
152	0x375355fd	1.2596601e-05
153	0x374dac8a	1.2259125e-05
154	0x3743f5b4	1.1680113e-05
155	0x3747c33c	1.1906781e-05
156	0x3750c578	1.2443743e-05
157	0x3759201e	1.2941686e-05
158	0x37536746	1.2600625e-05
159	0x37497d62	1.2009727e-05
160	0x373c33b9	1.1217716e-05
161	0x3744e99a	1.17369e-05
162	0x374d2381	1.2227219e-05
163	0x3747ca34	1.1908403e-05
164	0x373e558c	1.13448e-05
165	0x37327531	1.06369125e-05
166	0x373ac2fb	1.1131861e-05
167	0x37429eea	1.1600301e-05
168	0x373d8362	1.1295868e-05
169	0x37347a0a	1.07572505e-05
170	0x372c2285	1.0260036e-05
171	0x37342119	1.0736542e-05
172	0x373bb3a6	1.1187896e-05
173	0x3736e010	1.0900214e-05
174	0x372e3e05	1.0385648e-05
175	0x368e6d77	4.244673e-06
176	0x3694db08	4.4362423e-06
177	0x369abec0	4.611764e-06
178	0x36965176	4.4798317e-06
179	0x368f13aa	4.2640213e-06
180	0x36933a1a	4.3877053e-06
181	0x3699dc14	4.585376e-06
182	0x369fefce	4.766486e-06
183	0x369b6612	4.6312425e-06
184	0x3693fbe0	4.4102635e-06
185	0x368b2a93	4.147479e-06
186	0x36918ece	4.3379614e-06
187	0x36977074	4.513242e-06
188	0x3693085c	4.3819146e-06
189	0x368bd29a	4.16704e-06
190	0x36833432	3.9101806e-06
191	0x36894a52	4.09157e-06
192	0x368ef3cf	4.260313e-06
193	0x368ace14	4.136711e-06
194	0x3683fb9d	3.933396e-06
195	0x367d95b3	3.7787074e-06
196	0x3684b82e	3.955348e-06
197	0x368a417e	4.120345e-06
198	0x36864abb	4.002211e-06
199	0x367f6ee8	3.8062517e-06
200	0x00000000	0.0
201	0x00000000	0.0
202	0x00000000	0.0
203	0x00000000	0.0
204	0x00000000	0.0
205	0x2a1ff5c2	1.4207301e-13
206	0x2a2557a4	1.468535e-13
207	0x2a249254	1.4616894e-13
208	0x2a36e1ec	1.624323e-13
209	0x2a40f14d	1.7136744e-13
210	0x2c4cdf15	2.911398e-12
211	0x2c51d64e	2.981965e-12
212	0x2c50b32b	2.9658036e-12
213	0x2c6d3e3f	3.371428e-12
214	0x2c77b5c4	3.5201711e-12
215	0x2c83a72a	3.741803e-12
216	0x2c8486b0	3.766619e-12
217	0x2c8486b6	3.7666216e-12
218	0x2c9519fd	4.23772e-12
219	0x2c9a9146	4.393072e-12
220	0x2c8f8cd9	4.0799417e-12
221	0x2c908095	4.1070016e-12
222	0x2c9054d7	4.1021453e-12
223	0x2ca19e7c	4.5934905e-12
224	0x2ca732de	4.752073e-12
225	0x00000000	0.0
226	0x00000000	0.0
227	0x00000000	0.0
228	0x00000000	0.0
229	0x00000000	0.0
230	0x27f93a7b	6.917479e-15
231	0x27f93a7b	6.917479e-15
232	0x27f93a7b	6.917479e-15
233	0x280690f8	7.469929e-15
234	0x280af84b	7.714379e-15
235	0x2a0a6540	1.229199e-13
236	0x2a0a6540	1.229199e-13
237	0x2a0a6540	1.229199e-13
238	0x2a18c8ae	1.3569937e-13
239	0x2a1cdfec	1.3933272e-13
240	0x2a0a6540	1.229199e-13
241	0x2a0a6540	1.229199e-13
242	0x2a0a6540	1.229199e-13
243	0x2a18c8ae	1.3569937e-13
244	0x2a1cdfec	1.3933272e-13
245	0x2a0a6540	1.229199e-13
246	0x2a0a6540	1.229199e-13
247	0x2a0a6540	1.229199e-13
248	0x2a18c8ae	1.3569937e-13
249	0x2a1cdfec	1.3933272e-13
250	0x00000000	0.0
251	0x00000000	0.0
252	0x00000000	0.0
253	0x00000000	0.0
254	0x00000000	0.0
255	0x2a40c9bd	1.7123018e-13

exp_avg f4 [4]
0	0x331144b5	3.3822932e-08
1	0xaf437479	-1.7776526e-10
2	0x00000020	4.5e-44
3	0x30b8b03b	1.343785e-09

exp_avg_sq f4 [4]
0	0x36963a85	4.477161e-06
1	0x375a1e6c	1.3000896e-05
2	0x317c425d	3.670855e-09
3	0x36ac05d9	5.12668e-06

exp_avg f4 [1, 4, 5, 5]
0	0x3baaa1c4	0.0052072722
1	0x3ba8d9e8	0.0051529296
2	0x3bbc0f72	0.005739146
3	0x3c054a0e	0.008135332
4	0x3babdd5f	0.0052448954
5	0x3bcae2d8	0.0061915927
6	0x3bc95f73	0.0061454116
7	0x3bdc1947	0.0067168805
8	0x3c163778	0.009168498
9	0x3bcd0e66	0.00625782
10	0x3b9b1a2a	0.0047333436
11	0x3b97f07d	0.0046368227
12	0x3ba79a20	0.0051148087
13	0x3bfad999	0.007655334
14	0x3b9cb00d	0.004781729
15	0x3bbe90d5	0.005815605
16	0x3bbf1071	0.0058308174
17	0x3bd2393b	0.006415514
18	0x3c109e47	0.008826799
19	0x3bc1c49f	0.0059133316
20	0x3bb06b0d	0.005383855
21	0x3bb3b13b	0.005483774
22	0x3bc998c1	0.006152243
23	0x3c0af9a3	0.00848237
24	0x3bb6b8de	0.005576237
25	0xba4d7b1a	-0.0007838473
26	0xba4b372c	-0.00077520567
27	0xba62f676	-0.00086579414
28	0xbaa1f6c1	-0.0012356864
29	0xba4ed66e	-0.0007890229
30	0xba7563f4	-0.00093609025
31	0xba737480	-0.0009287074
32	0xba854d73	-0.0010170176
33	0xbab6e837	-0.0013954703
34	0xba77e735	-0.0009456755
35	0xba3a7fa2	-0.00071143557
36	0xba368655	-0.0006962766
37	0xba49e392	-0.0007701452
38	0xba98595d	-0.0011623312
39	0xba3c4972	-0.0007182575
40	0xba66486c	-0.00087845954
41	0xba66d609	-0.00088056974
42	0xba7e860e	-0.0009709307
43	0xbab00cff	-0.0013431608
44	0xba6a1415	-0.0008929384
45	0xba54da30	-0.00081196707
46	0xba58d690	-0.00082717184
47	0xba73eb73	-0.0009304799
48	0xbaa91b38	-0.0012901789
49	0xba5c7ce3	-0.00084109436
50	0x3a611371	0.0008585966
51	0xba82a874	-0.0009968416
52	0xba1b84e9	-0.0005932586
53	0x39c85e4d	0.00038217232
54	0x3a7cafb7	0.00096392207
55	0xb9ad8b92	-0.0003310112
56	0xbb1253ab	-0.0022327702
57	0xbafb63de	-0.0019179543
58	0xba4cc33b	-0.0007811074
59	0xb8381219	-4.3885873e-05
60	0xba3efdf2	-0.00072857656
61	0xbb1f5237	-0.0024310478
62	0xbb1fdd82	-0.0024393504
63	0xbacc191d	-0.0015571449
64	0xba448c7d	-0.0007497741
65	0xbad95bec	-0.0016583181
66	0xbb3d568a	-0.0028890693
67	0xbb3d5b2e	-0.0028893459
68	0xbb1409c4	-0.0022588829
69	0xbae34fe6	-0.0017342537
70	0xba180679	-0.00057993043
71	0xbaa44f00	-0.0012535751
72	0xba5c150b	-0.00083954696
73	0xb9cbf1e0	-0.00038899388
74	0xb98e8270	-0.00027181534
75	0x3baaab9e	0.0052084466
76	0x3ba8e348	0.005154047
77	0x3bbc11c2	0.0057394216
78	0x3c0552d9	0.008137428
79	0x3babf262	0.0052474
80	0x3bcaea63	0.006192492
81	0x3bc96690	0.0061462596
82	0x3bdc1a10	0.006716974
83	0x3c163fe9	0.009170511
84	0x3bcd22fe	0.006260275
85	0x3b9b1b82	0.004733504
86	0x3b97f1ca	0.004636978
87	0x3ba7955b	0.00511424
88	0x3bfae64d	0.0076568485
89	0x3b9cc13e	0.0047837785
90	0x3bbe97d1	0.005816438
91	0x3bbf16b8	0.0058315657
92	0x3bd23962	0.006415532
93	0x3c10a623	0.008828673
94	0x3bc1d8ce	0.0059157377
95	0x3bb07266	0.005384731
96	0x3bb3b759	0.005484503
97	0x3bc99876	0.006152208
98	0x3c0b016a	0.008484224
99	0x3bb6ccc0	0.0055786073

exp_avg_sq f4 [1, 4, 5, 5]
0	0x3c726192	0.01479377
1	0x3c78c566	0.015183782
2	0x3c7ded91	0.015498535
3	0x3c793a77	0.015211693
4	0x3c731072	0.014835464
5	0x3c783536	0.015149405
6	0x3c7ed962	0.015554758
7	0x3c822dba	0.015890945
8	0x3c7f6afb	0.015589471
9	0x3c791462	0.015202614
10	0x3c7ceaca	0.015436837
11	0x3c81ec3b	0.015859714
12	0x3c84f6c9	0.016230958
13	0x3c824471	0.015901776
14	0x3c7e1257	0.015507302
15	0x3c7827db	0.015146221
16	0x3c7edfa3	0.015556249
17	0x3c823c63	0.015897935
18	0x3c7f888b	0.015596519
19	0x3c793175	0.015209545
20	0x3c71fbd8	0.014769517
21	0x3c788361	0.015168042
22	0x3c7deb14	0.0154979415
23	0x3c792bb6	0.015208175
24	0x3c730276	0.01483213
25	0x3a0cabb1	0.000536616
26	0x3a1047b0	0.00055038463
27	0x3a134694	0.0005618122
28	0x3a109ea0	0.0005516801
29	0x3a0cfad3	0.0005377952
30	0x3a105386	0.000550561
31	0x3a141522	0.0005648901
32	0x3a173fe3	0.0005769713
33	0x3a148091	0.000566491
34	0x3a10bce0	0.00055213086
35	0x3a13069e	0.0005608591
36	0x3a16ea1d	0.00057569315
37	0x3a1a4a4d	0.00058857055
38	0x3a1769af	0.0005775941
39	0x3a138df3	0.0005628757
40	0x3a1084cd	0.0005512953
41	0x3a1455de	0.0005658547
42	0x3a1792e3	0.00057820807
43	0x3a14d473	0.00056774094
44	0x3a110d54	0.0005533297
45	0x3a0cded3	0.00053737796
46	0x3a109a54	0.0005516161
47	0x3a13c6bb	0.0005637218
48	0x3a111b83	0.00055354106
49	0x3a0d6ed3	0.0005395237
50	0x3ba47a62	0.005019472
51	0x3baa9b4e	0.005206502
52	0x3bb0dd09	0.005397443
53	0x3bad334c	0.005285656
54	0x3ba798d9	0.0051146564
55	0x3ba8b7cd	0.005148864
56	0x3baf67b1	0.005352937
57	0x3bb61681	0.005556882
58	0x3bb1808e	0.0054169362
59	0x3bab79ce	0.005233026
60	0x3bab7a33	0.005233073
61	0x3bb2713f	0.005445629
62	0x3bb9ad16	0.0056663854
63	0x3bb4110a	0.0054951953
64	0x3bae494a	0.0053187953
65	0x3ba86e0d	0.005140072
66	0x3baf9801	0.0053586964
67	0x3bb648d2	0.00556288
68	0x3bb02b22	0.0053762356
69	0x3baae653	0.005215445
70	0x3ba4b47f	0.0050263996
71	0x3bab8018	0.005233776
72	0x3bb102f9	0.0054019657
73	0x3bab9712	0.005236515
74	0x3ba65d28	0.005077023
75	0x3c5cd8ac	0.013479393
76	0x3c61f85c	0.013792124
77	0x3c665ca0	0.014060169
78	0x3c62a6d0	0.0138337165
79	0x3c5d3d57	0.013503394
80	0x3c61e9e0	0.01378867
81	0x3c673ff3	0.014114368
82	0x3c6bf871	0.014402495
83	0x3c681161	0.0141643
84	0x3c627f7b	0.013824339
85	0x3c65c5b7	0.01402419
86	0x3c6b5adc	0.014364924
87	0x3c709bec	0.014685612
88	0x3c6c509e	0.0144235175
89	0x3c66a00d	0.014076245
90	0x3c61a5b8	0.013772421
91	0x3c67142a	0.014103929
92	0x3c6be016	0.014396688
93	0x3c67ee8d	0.014155996
94	0x3c62567b	0.013814564
95	0x3c5c38be	0.013441263
96	0x3c618299	0.013764047
97	0x3c662455	0.014046748
98	0x3c62595d	0.013815251
99	0x3c5cebf0	0.013483986
