checkpoints/model-epoch=08-validation_loss=0.02.ckpt (torch, 61854 bytes, 18 tensors)

model.bias f4 [8]
0.87285936 0.3468896 0.1271495 0.8055086 0.23217045 0.80782044 0.87783927 -1.5760813
00000000: b673 5f3f 839b b13e 7b33 023e d035 4e3f
00000010: 17be 6d3e 52cd 4e3f 13ba 603f 08bd c9bf

model.input_layers.0.weight f4 [8, 1, 7, 7]
-0.18136589 -0.1216544 -0.13614586 -0.3056913 -0.10687755 0.19348669 0.2721622 -0.14273295
0.061177548 -0.14439137 -0.294883 -0.08731314 0.20249222 0.21148899 -0.23525324 -0.17778446
-0.087957636 -0.12837079 0.07042514 0.18525973 0.020925608 -0.41213796 -0.1261524 -0.323882
-0.26413572 -0.06622765 -0.04624122 -0.012176207 -0.061902598 0.13701825 -0.04773759 -0.16023512
-0.057114977 0.12440131 0.11162955 0.12593813 0.10787526 0.07135199 -0.16846114 -0.0070118047
0.119065605 0.1358797 0.120136224 0.16236533 0.18259689 -0.13924454 -0.038204513 0.17374629
0.10934757 -0.22484754 -0.1429176 0.074577756 0.05526473 0.023674235 -0.14877251 0.07900458
0.0035055068 -0.14233512 0.015739912 0.18865381 0.027063739 -0.23532048 -0.1141604 -0.12072346
0.0027706176 -0.12599005 0.05931298 0.011946056 0.05535167 -0.10661515 0.2698899 0.07590008
0.14945629 0.35311335 0.16525352 -0.025394473 0.25939062 0.09411775 -0.07245705 -0.12789857
0.18439113 -0.088664114 -0.15891607 0.09908089 -0.014879422 0.061560668 0.05100922 0.10006925
0.022160083 0.026095456 -0.10881215 0.019664256 0.100136064 -0.028149378 0.34176737 -0.03434641
0.058126487 0.072713986 -0.11724925 -0.10881628 0.12362392 0.15593566 0.15901859 -0.018413065
0.22887912 -0.14688954 -0.19348252 0.096484065 0.008347539 0.020077622 0.03373262 0.09716896
-0.35132217 -0.19009355 0.11982538 0.19674794 0.13786471 0.05343652 0.26815376 -0.062541716
-0.12561238 0.2360173 0.06447141 0.08179081 0.15988922 0.30599943 -0.2333658 -0.04166731
0.043685783 0.2512397 -0.04131642 -0.035092454 0.05361542 -0.1273751 -0.028687669 0.07050506
0.0747576 0.13771741 -0.055007953 0.026507685 -0.25517988 -0.024415107 -0.10567739 0.16940992
-0.008786314 0.026463509 0.08301594 -0.31475857 -0.21473558 -0.21002579 -0.25885853 -0.004441103
0.10165753 0.26936486 -0.24176884 -0.07983869 -0.18071449 -0.1534599 0.053766653 0.13928019
0.18872747 -0.20976187 -0.06451452 -0.027591085 -0.15407047 -0.048490968 0.11350736 0.21723053
-0.36035717 -0.18435968 -0.12904711 -0.07078057 0.08626318 0.04317127 0.17498694 -0.08597202
-0.09875925 -0.027408753 -0.115828976 0.1633791 0.24527073 0.41618934 -0.20899945 0.095509455
0.12646581 -0.0855303 0.30590996 0.38820857 0.58795345 -0.07898298 0.07446809 0.19972226
0.13023639 0.40487576 0.5681262 0.53503966 -0.48482463 -0.13215278 0.14309925 0.0022978275
-0.08372734 -0.04212972 -0.33791637 -0.26164326 -0.17531697 0.055485345 0.05688319 -0.070622355
-0.16198592 -0.2618869 -0.13325329 0.15435582 0.25489083 0.1276754 0.105800875 0.05367098
-0.029070769 0.13890451 0.32895678 0.31588927 0.2962893 0.3157456 0.1697168 -0.014069621
-0.2621501 0.13370763 0.19308001 0.20691484 -0.08784504 -0.0427256 0.04454419 -0.12520157
-0.1774348 -0.024798179 0.08651396 -0.1774126 -0.15596339 -0.263082 -0.21037388 -0.077105366
-0.007880531 0.25120512 -0.07379662 -0.22084902 -0.25226998 -0.07995888 0.07446816 -0.054225415
0.35231078 -0.0378472 -0.11410361 0.026809478 0.07861533 -0.041305017 -0.16185555 0.29264978
00000000: fbb7 39be f125 f9bd d269 0bbe 9283 9cbe
00000010: 9ee2 dabd 6021 463e d858 8b3e 9628 12be
00000020: 4f95 7a3d 55db 13be e8fa 96be 3bd1 b2bd
00000030: 1f5a 4f3e 9290 583e 3ae6 70be 210d 36be
00000040: 2223 b4bd a273 03be 0e3b 903d bab4 3d3e
00000050: 2e6c ab3c bf03 d3be 182e 01be ddd3 a5be
00000060: cc3c 87be 5da2 87bd 6f67 3dbd b77e 47bc
00000070: 948d 7dbd 834e 0c3e 7e88 43bd ad14 24be
00000080: 65f1 69bd 1dc6 fe3d 099e e43d edf5 003e
00000090: b4ed dc3d fe20 923d 1481 2cbe 48c3 e5bb
000000a0: abd8 f33d 0c24 0b3e fb09 f63d 1943 263e
000000b0: aefa 3a3e 1f96 0ebe 567c 1cbd 8cea 313e
000000c0: 9ef1 df3d 6f3e 66be fe58 12be 39bc 983d
000000d0: 455d 623d 78f0 c13c d257 18be 27cd a13d
000000e0: a5bc 653b 4cc0 11be fdf0 803c 772e 413e
000000f0: c6b4 dd3c daf7 70be eecc e9bd dd3d f7bd
00000100: 4093 353b 8903 01be 2bf2 723d 64b9 433c
00000110: 6fb8 623d 0b59 dabd 022f 8a3e 8071 9b3d
00000120: 120b 193e 46cb b43e 3838 293e 1208 d0bc
00000130: d9ce 843e cfc0 c03d 5d64 94bd d8f7 02be
00000140: 07d1 3c3e 8895 b5bd e5ba 22be ecea ca3d
00000150: d2c8 73bc 0a27 7c3d 0bef 503d 1bf1 cc3d
00000160: 1089 b53c 23c6 d53c e8d8 debd ef16 a13c
00000170: 2314 cd3d 8699 e6bc 22fc ae3e d2ae 0cbd
00000180: 0a16 6e3d 12eb 943d 6020 f0bd 12db debd
00000190: 8a2e fd3d 99ad 1f3e c5d5 223e ffd6 96bc
000001a0: 4a5f 6a3e 366a 16be 4820 46be 7099 c53d
000001b0: 1ec4 083c d379 a43c 372b 0a3d 8500 c73d
000001c0: 80e0 b3be e2a7 42be 0267 f53d 4b78 493e
000001d0: 682c 0d3e 41e0 5a3d 734b 893e df15 80bd
000001e0: 88a0 00be 85ae 713e 9609 843d f181 a73d
000001f0: 00ba 233e f5ab 9c3e 72f7 6ebe 57ab 2abd
00000200: ddef 323d 7da2 803e 683b 29bd 1bbd 0fbd
00000210: d89b 5b3d 9e6e 02be 6702 ebbc f564 903d
00000220: 831a 993d cb05 0d3e 0550 61bd a526 d93c
00000230: f0a6 82be 3102 c8bc 636d d8bd cb79 2d3e
00000240: 79f4 0fbc 00ca d83c 4304 aa3d 0928 a1be
00000250: a5e3 5bbe 0011 57be 1b89 84be ac86 91bb
00000260: d331 d03d 31ea 893e 4092 77be 7882 a3bd
00000270: 380d 39be 9824 1dbe 6c3a 5c3d 779f 0e3e
00000280: c641 413e d1cb 56be 3020 84bd b306 e2bc
00000290: a6c4 1dbe 779e 46bd 8c76 e83d ae71 5e3e
000002a0: bc80 b8be c9c8 3cbe ed24 04be 67f5 90bd
000002b0: c0aa b03d 5cd4 303d c72f 333e 1912 b0bd
000002c0: 4a42 cabd 5288 e0bc be37 edbd da4c 273e
000002d0: 4028 7b3e c516 d53e f403 56be 769a c33d
000002e0: 4180 013e 832a afbd 3ba0 9c3e 46c3 c63e
000002f0: 1e84 163f d4c1 a1bd ba82 983d fe83 4c3e
00000300: b05c 053e e04b cf3e b870 113f 5cf8 083f
00000310: ef3a f8be 0f53 07be 9c88 123e 2697 163b
00000320: 3d79 abbd 3790 2cbd 6003 adbe 1bf6 85be
00000330: 4b86 33be 9a44 633d 59fe 683d 74a2 90bd
00000340: a3df 25be 0a16 86be 8d73 08be 740f 1e3e
00000350: 0d81 823e 57bd 023e 21ae d83d 1ad6 5b3d
00000360: d225 eebc fc3c 0e3e 066d a83e 3dbc a13e
00000370: 3bb3 973e 68a9 a13e 3eca 2d3e 4584 66bc
00000380: 8a38 86be a7ea 083e c4b6 453e 7ce1 533e
00000390: 1ae8 b3bd 0a01 2fbd f873 363d d734 00be
000003a0: 78b1 35be 8d25 cbbc 3b2e b13d a6ab 35be
000003b0: deb4 1fbe afb2 86be 406c 57be 6be9 9dbd
000003c0: 581d 01bc f59d 803e af22 97bd 3f26 62be
000003d0: 8829 81be 7bc1 a3bd c382 983d 781b 5ebd
000003e0: 1462 b43e aa05 1bbd 27af e9bd 8d9f db3c
000003f0: 1301 a13d 732f 29bd 76bd 25be 31d6 953e

model.input_layers.0.bias f4 [8]
-0.114126496 -0.17542319 0.66505593 -0.5612423 -2.430234 0.14309119 -3.2173762 -0.9321174
00000000: 27bb e9bd 23a2 33be 1b41 2a3f 93ad 0fbf
00000010: f488 1bc0 7f86 123e 7ee9 4dc0 3f9f 6ebf

model.hidden_layers.0.weight f4 [8, 8, 7, 7]
-0.70712763 -0.91528565 -0.8664985 -0.88661337 -0.6905437 -0.47030324 -0.2093559 -0.93908465
-1.1417025 -1.1712617 -1.1540186 -0.9449377 -0.6781027 -0.43001783 -1.0407197 -1.1843852
-1.2214439 -1.2472636 -1.1112016 -0.8434845 -0.5678336 -1.033629 -1.2122301 -1.2303046
-1.2764893 -1.1733159 -0.9137687 -0.5741554 -0.9007966 -1.1704115 -1.210734 -1.2432855
-1.1030428 -0.88876134 -0.5345404 -0.678624 -0.9193426 -0.9680926 -1.0167267 -0.8771503
-0.7335832 -0.44271055 -0.41642722 -0.6082311 -0.6591392 -0.7184745 -0.58193487 -0.47996333
-0.3025487 0.4622681 0.5775319 0.5447204 0.252234 0.11988809 -0.025169924 -0.13390301
0.5322105 0.6719547 0.67833096 0.3932149 0.2408232 0.0030771426 -0.06196027 0.51590973
0.66232663 0.70683324 0.40214685 0.31417435 0.14180323 -0.05817944 0.390733 0.5188926
0.5372635 0.27604544 0.17325404 0.013444558 -0.086161144 0.24592543 0.38877612 0.4800174
0.24634156 0.18440917 0.060069587 -0.09155526 -0.0039731665 0.15815231 0.25486067 0.025848765
-0.0054951846 -0.04704515 -0.100076996 -0.18302476 -0.057365593 -0.027763283 -0.1464364 -0.18678798
-0.16423997 -0.24925989 0.6841182 0.6204943 0.54967153 0.47665447 0.32397202 0.08561071
-0.00051018246 0.72590214 0.828835 0.7483865 0.5786409 0.3974801 0.16752797 -0.007115729
0.731698 0.7479437 0.64363146 0.6085942 0.36500096 0.13477498 -0.04881757 0.67994875
0.73849094 0.6905719 0.5311948 0.29701912 0.1343213 -0.037458133 0.6413235 0.5881011
0.48930046 0.42047355 0.23969467 -0.003741006 -0.078624554 0.42823988 0.3958911 0.28755975
0.27825645 0.08209264 -0.029409138 -0.13703334 0.19317237 0.19740462 0.15108734 0.10438427
-0.055545725 -0.1104263 -0.2662116 -0.17008385 -0.25322235 -0.26376867 -0.16203184 -0.20515186
-0.188433 -0.120733924 -0.20527443 -0.23870079 -0.33287135 -0.22547318 -0.19983579 -0.20301205
-0.12361152 -0.3039375 -0.30764958 -0.3369353 -0.2820143 -0.25528276 -0.20664546 -0.22796977
-0.28599152 -0.33597577 -0.38174072 -0.2667756 -0.2916569 -0.1892884 -0.20049684 -0.25477007
-0.34000292 -0.38773793 -0.25742796 -0.35034803 -0.33389476 -0.2663514 -0.30094668 -0.38533822
-0.44677484 -0.32955706 -0.3686211 -0.35530594 -0.25432906 -0.33874857 -0.28636986 -0.3628074
-0.31545177 -0.30869272 -0.25232014 -0.29480073 0.11631387 0.14111884 0.22312565 0.33275855
0.18112949 0.20795056 0.109142505 0.2238985 0.26225913 0.24225414 0.3336597 0.2529326
0.22284484 0.22272776 0.13976327 0.25224742 0.243096 0.39151347 0.27626976 0.2812837
0.22291662 0.14472729 0.24452834 0.28907132 0.34659106 0.25781363 0.29498795 0.22756425
0.1450783 0.15027668 0.13828954 0.2920123 0.20665605 0.20238088 0.1538758 0.07717612
0.090240836 0.14408395 0.24689622 0.16878752 0.12010431 0.10065711 0.012355523 -0.0055986643
0.078525886 0.19639847 0.12623256 0.11142932 0.08313296 -0.3090151 -0.16985427 -0.19766104
-0.27253374 -0.07925108 -0.14520994 -0.2357123 -0.25271562 -0.17073901 -0.08260603 -0.110860646
00000000: 5106 35bf 2950 6abf d8d2 5dbf 18f9 62bf
00000010: 79c7 30bf 96cb f0be 6561 56be da67 70bf
00000020: 4f23 92bf e7eb 95bf e2b6 93bf 70e7 71bf
00000030: 2398 2dbf 4c2b dcbe 4e36 85bf ef99 97bf
00000040: 4658 9cbf 55a6 9fbf db3b 8ebf 9aee 57bf
00000050: 8b5d 11bf f44d 84bf 5b2a 9bbf 9f7a 9dbf
00000060: 0064 a3bf 372f 96bf bfec 69bf d9fb 12bf
00000070: 9b9a 66bf 0bd0 95bf 55f9 9abf fb23 9fbf
00000080: 8230 8dbf dd85 63bf a4d7 08bf 4dba 2dbf
00000090: 095a 6bbf ebd4 77bf 1a24 82bf ec8c 60bf
000000a0: 1ccc 3bbf f5aa e2be f335 d5be 09b5 1bbf
000000b0: 59bd 28bf f2ed 37bf aff9 14bf c1bd f5be
000000c0: aae7 9abe 68ae ec3e 21d9 133f cc72 0b3f
000000d0: d124 813e e387 f53d 2831 cebc df1d 09be
000000e0: f33e 083f 3905 2c3f 19a7 2d3f 7753 c93e
000000f0: 5b9a 763e e3a9 493b 0dca 7dbd a912 043f
00000100: 3d8e 293f 06f3 343f 31e6 cd3e 76db a03e
00000110: de34 113e 914d 6ebd 280e c83e 25d6 043f
00000120: 1a8a 093f d455 8d3e 8269 313e 9046 5c3c
00000130: 4175 b0bd e0d3 7b3e aa0d c73e d7c4 f53e
00000140: f640 7c3e c2d5 3c3e 870b 763d 5381 bbbd
00000150: 5631 82bb aef2 213e 197d 823e cac0 d33c
00000160: f310 b4bb 6ab2 40bd 2bf5 ccbd d86a 3bbe
00000170: 2ff8 6abd d36f e3bc 6cf3 15be 5945 3fbe
00000180: 862e 28be fc3d 7fbe 5f22 2f3f b7d8 1e3f
00000190: 46b7 0c3f 0e0c f43e a9df a53e ab54 af3d
000001a0: c4bd 05ba b9d4 393f 882e 543f 4296 3f3f
000001b0: cf21 143f 8382 cb3e 748c 2b3e 102b e9bb
000001c0: 8f50 3b3f 3d79 3f3f 08c5 243f d4cc 1b3f
000001d0: 68e1 ba3e 7402 0a3e eff4 47bd 1f11 2e3f
000001e0: be0d 3d3f 52c9 303f 62fc 073f e412 983e
000001f0: 868b 093e b36d 19bd c72d 243f cb8d 163f
00000200: 9785 fa3e 4f48 d73e 8572 753e aa2b 75bb
00000210: e905 a1bd 4242 db3e 3db2 ca3e 083b 933e
00000220: a177 8e3e 3020 a83d 6feb f0bc 7852 0cbe
00000230: face 453e 7024 4a3e a4b6 1a3e 6cc7 d53d
00000240: ea83 63bd 2f27 e2bd e34c 88be 762a 2ebe
00000250: 5ca6 81be b00c 87be adeb 25be 5413 52be
00000260: 95f4 40be 5943 f7bd 7633 52be fb6d 74be
00000270: 1d6e aabe 71e2 66be c1a1 4cbe 64e2 4fbe
00000280: 0928 fdbd b29d 9bbe 3f84 9dbe c982 acbe
00000290: 2e64 90be 6cb4 82be de9a 53be e870 69be
000002a0: 7b6d 92be 0405 acbe 8573 c3be d096 88be
000002b0: 0e54 95be d1d4 41be 0b4f 4dbe 3971 82be
000002c0: dd14 aebe 9685 c6be 99cd 83be d160 b3be
000002d0: 41f4 aabe 365f 88be af15 9abe 0d4b c5be
000002e0: acbf e4be b4bb a8be e8bb bcbe a9ea b5be
000002f0: 6b37 82be 7470 adbe 129f 92be e4c1 b9be
00000300: e582 a1be f90c 9ebe 1b30 81be 1ff0 96be
00000310: f735 ee3d 7581 103e 0d7b 643e 545f aa3e
00000320: 027a 393e fef0 543e 1b86 df3d a645 653e
00000330: d446 863e 7811 783e 72d5 aa3e 6280 813e
00000340: 7031 643e bf12 643e 1a1e 0f3e 9326 813e
00000350: 28ee 783e 7474 c83e 3b73 8d3e 6b04 903e
00000360: 4144 643e 6433 143e a365 7a3e 2801 943e
00000370: 6274 b13e 2600 843e a908 973e 9a06 693e
00000380: 688f 143e 21e2 193e c69b 0d3e a382 953e
00000390: a59d 533e ef3c 4f3e 9e91 1d3e 830e 9e3d
000003a0: 30d0 b83d be8a 133e 5dd2 7c3e a3d6 2c3e
000003b0: 40f9 f53d 5125 ce3d d26e 4a3c 0075 b7bb
000003c0: 2ed2 a03d ae1c 493e 1c43 013e 0e35 e43d
000003d0: 9d41 aa3d 3a37 9ebe 47ee 2dbe a867 4abe
000003e0: 8b89 8bbe 644e a2bd eab1 14be 915e 71be
000003f0: f163 81be 35d6 2ebe 5a2d a9bd e80a e3bd

model.hidden_layers.0.bias f4 [8]
0.68892616 -0.83997464 -0.9044705 -0.44706726 -1.140354 0.044247013 -1.3135474 -0.3025118
00000000: 775d 303f 9408 57bf 618b 67bf 00e6 e4be
00000010: 1ff7 91bf 5b3c 353d 5222 a8bf d4e2 9abe

model.output_layers.0.weight f4 [1, 8, 7, 7]
0.18013757 0.067365564 0.07820487 -0.015943388 0.047948502 0.0357217 0.030690094 0.09522864
-0.00035799987 0.0272718 -0.043935735 0.010820119 0.010825177 0.043266002 0.12510005 0.033147357
0.09907683 -0.018587431 0.076192744 0.027102245 -0.009306383 0.027230732 -0.024582945 0.0025537629
-0.09431905 0.004010439 -0.026915535 -0.052602325 0.108945675 -0.0061376304 0.07769366 -0.009331313
0.12138801 0.05068904 0.06490589 0.06970303 0.028228266 0.02523631 0.009369782 0.071386985
-0.0051009925 -0.01903666 0.09320349 -0.01121979 0.0643788 -0.05418707 0.071892925 0.029142315
0.07201162 0.04588762 -0.013852684 -0.015689174 -0.35272396 0.0023268808 0.010669936 0.062074006
0.042607628 0.016931491 0.0135305235 -0.2682484 -0.048282415 -0.0073870444 -0.035168644 -0.07634945
0.023919525 0.039116625 -0.23627561 -0.0024015084 -0.06998375 -0.09285957 -0.44617683 -0.38314828
-0.32228768 -0.6015587 -0.33521777 -0.32597616 -0.35906407 -0.17323072 -0.098469 -0.14060467
-0.32896477 -0.09198657 -0.081164025 -0.1107687 -0.10748742 -0.10161538 -0.15512168 -0.36808336
-0.116262525 -0.096689254 -0.07973907 -0.17401664 -0.20088188 -0.26086757 -0.49022442 -0.18988653
-0.10879571 -0.11877561 0.025981005 -0.034902904 -0.102196224 -0.19385277 -0.21076024 -0.16203028
-0.17089128 -0.013057601 -0.00020579169 -0.045024216 -0.20827933 -0.1935349 -0.23557304 -0.22140826
0.15271941 0.08595157 -0.05384373 -0.16295922 -0.21240942 -0.14659622 -0.22566313 0.16602494
0.084721036 0.093501285 -0.07919195 -0.07955621 -0.12503575 -0.14717233 0.09340528 0.11847228
0.10690071 -0.075209096 -0.112634666 -0.07369081 -0.12442769 0.0733242 0.048256304 -0.022960095
-0.08463605 -0.12754358 -0.11639209 -0.14797673 0.06566766 0.0322829 -0.051420208 -0.11249851
-0.09359266 -0.17590335 -0.1467132 0.2966941 0.30379587 0.2478016 0.06830008 0.16490787
0.10460032 0.11258052 0.34335467 0.24965481 0.20286652 0.03014513 0.15198383 0.09681641
0.07769102 0.2925919 0.21159667 0.15237293 0.06245738 0.06607978 0.06629033 0.119098306
0.16878301 0.08866448 0.06301889 -0.12060655 -0.06332876 -0.06317076 -0.074256815 0.2311747
0.13474075 0.09044033 -0.044843704 0.02461663 0.06852939 0.025812788 0.16143604 0.14817397
0.077828564 -0.038500197 0.032858685 0.042050447 -0.009427004 0.10524192 0.08889459 0.056955725
-0.035053708 0.0655163 0.018845499 0.047754895 -0.17394643 -0.22745264 -0.19922104 -0.17987363
-0.1664204 -0.16375959 -0.101781964 -0.20098744 -0.2666416 -0.24202214 -0.20499557 -0.22166722
-0.20145102 -0.1702624 -0.26691982 -0.31331524 -0.32810286 -0.2511501 -0.3078631 -0.2984275
-0.28294432 -0.36494 -0.35252786 -0.30569953 -0.3139456 -0.27825737 -0.305263 -0.22970836
-0.26185435 -0.31016892 -0.30719146 -0.25323522 -0.3101637 -0.3058123 -0.2891105 -0.20676859
-0.25118858 -0.22654216 -0.24924022 -0.2034447 -0.21438125 -0.21772869 -0.16594854 -0.20208094
-0.2286007 -0.2555243 -0.19099303 -0.21991272 -0.18615168 -0.4305516 -0.29714563 -0.25135317
-0.52810574 -0.19183284 -0.18477006 -0.18487446 -0.27874336 -0.11690889 -0.13914274 -0.38206348
00000000: fc75 383e f5f6 893d e029 a03d b59b 82bc
00000010: a665 443d eb50 123d cb69 fb3c 3c07 c33d
00000020: eeb1 bbb9 1c69 df3c f5f5 33bd de46 313c
00000030: 155c 313c b137 313d 3a1a 003e 86c5 073d
00000040: cbe8 ca3d ab44 98bc f10a 9c3d 8705 de3c
00000050: cd79 18bc fc12 df3c 2c62 c9bc 085d 273b
00000060: 592a c1bd 006a 833b f87d dcbc 8975 57bd
00000070: e91e df3d 2d1e c9bb db1d 9f3d 5de2 18bc
00000080: 479a f83d 509f 4f3d 61ed 843d 76c0 8e3d
00000090: f73e e73c 61bc ce3c b783 193c 5733 923d
000000a0: 3a26 a7bb c5f2 9bbc 79e1 be3d 36d3 37bc
000000b0: 08d9 833d 43f3 5dbd 993c 933d ddbb ee3c
000000c0: d47a 933d a8f4 3b3d 5ef6 62bc 9586 80bc
000000d0: 3c98 b4be 957e 183b f5d0 2e3c 5041 7e3d
000000e0: 5685 2e3d e9b3 8a3c 21af 5d3c db57 89be
000000f0: c8c3 45bd 050f f2bb ff0c 10bd 1a5d 9cbd
00000100: e1f2 c33c c138 203d 3cf2 71be a062 1dbb
00000110: a453 8fbd 292d bebd 4a71 e4be 032c c4be
00000120: e402 a5be c0ff 19bf aaa1 abbe 59e6 a6be
00000130: 3fd7 b7be 6563 31be 1daa c9bd acfa 0fbe
00000140: 126e a8be 7463 bcbd 5339 a6bd b3da e2bd
00000150: 5d22 dcbd b91b d0bd 38d8 1ebe 6c75 bcbe
00000160: 0c1b eebd 0405 c6bd 3d4e a3bd 6b31 32be
00000170: fbb3 4dbe 6f90 85be b2fe fabe 9d71 42be
00000180: 49d0 debd a140 f3bd 1ed6 d43c 59f6 0ebd
00000190: 414c d1bd 5781 46be 88d1 57be 44eb 25be
000001a0: 20fe 2ebe 8cef 55bc c9c9 57b9 506b 38bd
000001b0: 2d47 55be 032e 46be 0f3a 71be d9b8 62be
000001c0: 7a62 1c3e 6007 b03d 3e8b 5cbd c8de 26be
000001d0: db81 59be 521d 16be 3c14 67be 7102 2a3e
000001e0: 3982 ad3d 9a7d bf3d 642f a2bd 5eee a2bd
000001f0: 5f09 00be 58b4 16be 444b bf3d 98a1 f23d
00000200: c2ee da3d 3a07 9abd 01ad e6bd 35eb 96bd
00000210: f2d3 febd 002b 963d 67a8 453d cf16 bcbc
00000220: aa55 adbd c99a 02be fa5e eebd 3687 17be
00000230: c47c 863d 133b 043d ff9d 52bd 9e65 e6bd
00000240: 82ad bfbd 0220 34be fc3b 16be 4ae8 973e
00000250: 228b 9b3e b4bf 7d3e eae0 8b3d 9cdd 283e
00000260: b138 d63d 9e90 e63d 2fcc af3e 83a5 7f3e
00000270: 3ebc 4f3e ebf2 f63c a6a1 1b3e af47 c63d
00000280: 781c 9f3d 9bce 953e ccac 583e a607 1c3e
00000290: 4fd3 7f3d d654 873d 39c3 873d d0e9 f33d
000002a0: 74d5 2c3e b995 b53d 0c10 813d 9100 f7bd
000002b0: 82b2 81bd ac5f 81bd f513 98bd 10b9 6c3e
000002c0: 7bf9 093e c838 b93d 08ae 37bd d1a8 c93c
000002d0: 2359 8c3d 5775 d33c 7d4f 253e ebba 173e
000002e0: 9564 9f3d 62b2 1dbd d496 063d 173d 2c3d
000002f0: b873 1abc 1389 d73d 5e0e b63d 684a 693d
00000300: 7a94 0fbd 692d 863d e061 9a3c a39a 433d
00000310: 031f 32be 58e9 68be 9a00 4cbe cb30 38be
00000320: 1c6a 2abe 98b0 27be 1073 d0bd a7cf 4dbe
00000330: 3f85 88be a7d4 77be 5cea 51be bbfc 62be
00000340: 2d49 4ebe 4459 2ebe b7a9 88be db6a a0be
00000350: 19fd a7be bf96 80be 3ba0 9dbe 7dcb 98be
00000360: 14de 90be 6ad9 babe 887e b4be a684 9cbe
00000370: 7abd a0be c077 8ebe 6f4b 9cbe ab38 6bbe
00000380: c611 86be 76ce 9ebe 3348 9dbe 0ca8 81be
00000390: c7cd 9ebe 6e93 9cbe 4b06 94be 25bb 53be
000003a0: ca9b 80be abfa 67be d438 7fbe cf53 50be
000003b0: c286 5bbe 45f4 5ebe 6aee 29be 4eee 4ebe
000003c0: 4d16 6abe 15d4 82be ad93 43be cd30 61be
000003d0: 8c9e 3ebe 4271 dcbe 7923 98be 5db1 80be
000003e0: f031 07bf d46f 44be 5d34 3dbe bb4f 3dbe
000003f0: 73b7 8ebe ee6d efbd 6f7b 0ebe d39d c3be

exp_avg f4 [8]
-0.0012150817 -0.0011175792 -0.00086779555 0.00027433867 0.0005628663 -0.0031930078 0.004224069 -0.0005156362
00000000: 6043 9fba bc7b 92ba c67c 63ba 1dd5 8f39
00000010: 518d 133a c841 51bb 0f6a 8a3b c22b 07ba

exp_avg_sq f4 [8]
0.00017307707 0.00057860196 0.000118250646 0.00016602514 0.00035619113 0.00074159657 0.004601767 0.00029109267
00000000: 067c 3539 52ad 173a 55fd f738 0917 2e39
00000010: 2abf ba39 b467 423a 6bca 963b cc9d 9839

exp_avg f4 [8, 1, 7, 7]
-2.4895913e-05 -1.34072625e-05 -1.012975e-06 9.645882e-06 1.3558386e-05 1.945807e-05 2.7461147e-05 -1.57715e-05
-5.956528e-06 7.615143e-06 2.1348265e-05 2.7398684e-05 3.3821496e-05 4.1420742e-05 -4.6703253e-06 2.8600648e-06
1.5944144e-05 3.236622e-05 4.18428e-05 4.981063e-05 5.760131e-05 1.0808191e-05 1.731995e-05 2.8956823e-05
4.5215646e-05 5.5856694e-05 6.469836e-05 7.299645e-05 2.3647752e-05 3.0819967e-05 4.1887273e-05 5.687198e-05
6.8304435e-05 7.862468e-05 8.769733e-05 3.460074e-05 4.153406e-05 5.231151e-05 6.6823006e-05 7.8949975e-05
8.983243e-05 9.883424e-05 5.149122e-05 5.6918565e-05 6.6254725e-05 8.008702e-05 9.267226e-05 0.00010301415
0.00011053226 -0.00018729542 -0.00016199572 -0.00014021138 -0.00014023221 -0.00013619711 -0.00014340554 -0.00012935259
-0.00016860705 -0.00015598438 -0.00014571843 -0.00015358765 -0.00015634982 -0.00016929823 -0.00015535504 -0.00013630226
-0.00012976707 -0.00012795116 -0.00014095918 -0.00014633978 -0.00016327816 -0.00015257474 -0.00010139552 -9.552473e-05
-9.6670534e-05 -0.000112418646 -0.00011881987 -0.00013767421 -0.00013009801 -2.5864132e-05 -2.0538166e-05 -2.1771686e-05
-3.73131e-05 -4.25047e-05 -5.899348e-05 -5.1002167e-05 -2.2575637e-06 6.1413098e-06 1.0259906e-05 4.9955537e-07
4.075703e-06 -4.972777e-06 5.155333e-06 -1.2461541e-05 -6.764221e-07 9.615784e-06 8.400498e-06 2.4348996e-05
2.6489008e-05 4.235944e-05 -4.099576e-05 -3.717336e-05 -2.3951838e-05 5.731448e-07 2.7969116e-05 5.4315242e-05
8.208937e-05 -2.4341192e-05 -2.5470268e-05 -1.7542417e-05 4.508102e-06 3.2758475e-05 5.963791e-05 8.583541e-05
-1.062595e-05 -1.4897784e-05 -9.809686e-06 1.1166328e-05 4.0280032e-05 6.711629e-05 9.066428e-05 -2.7301825e-05
-3.1205407e-05 -2.4871868e-05 -1.8360907e-06 2.9886509e-05 5.7905847e-05 8.064831e-05 -5.214611e-05 -5.8012385e-05
-5.3172873e-05 -3.0357123e-05 1.8295578e-06 2.9884854e-05 5.296828e-05 -6.695543e-05 -7.2277304e-05 -6.672981e-05
-4.4556447e-05 -1.5334557e-05 1.0085078e-05 3.1836735e-05 -6.684298e-05 -6.7488865e-05 -5.867218e-05 -3.668642e-05
-1.1478039e-05 1.0206415e-05 2.9763643e-05 -0.00036562706 -0.0003691558 -0.000371709 -0.00037132978 -0.00037156837
-0.00037272184 -0.0003737985 -0.0003712232 -0.00037655645 -0.00037989736 -0.0003789557 -0.00037757534 -0.00037711154
-0.0003770307 -0.0003758164 -0.00038259325 -0.0003863989 -0.00038478384 -0.00038175404 -0.00037951034 -0.00037813466
-0.00037650784 -0.00038396276 -0.0003881252 -0.00038648676 -0.00038284983 -0.00037998185 -0.00037803254 -0.0003767251
-0.00038386436 -0.00038833625 -0.0003875139 -0.00038456835 -0.00038206374 -0.00037974323 -0.0003757989 -0.00038197916
-0.00038613233 -0.00038631362 -0.0003848777 -0.00038349844 -0.0003812273 -0.00037713288 -0.00038208815 -0.00038551298
-0.00038616717 -0.00038582896 -0.00038544546 -0.00038384186 -3.550424e-05 -3.3249395e-05 -3.2653872e-05 -3.343669e-05
-3.294815e-05 -3.372505e-05 -3.34927e-05 -4.6053414e-05 -4.6463847e-05 -4.6619112e-05 -4.8626327e-05 -4.9399845e-05
-5.0713035e-05 -5.0575312e-05 -4.7477548e-05 -4.783958e-05 -4.7668647e-05 -5.0065e-05 -5.1789833e-05 -5.362098e-05
-5.4321314e-05 -5.1945022e-05 -5.193924e-05 -5.156547e-05 -5.394594e-05 -5.4874767e-05 -5.52337e-05 -5.5531098e-05
-5.1751802e-05 -5.2895997e-05 -5.3357107e-05 -5.6021632e-05 -5.7639238e-05 -5.936823e-05 -6.0114817e-05 -5.268812e-05
-5.3340787e-05 -5.3156782e-05 -5.5146742e-05 -5.6069464e-05 -5.6532375e-05 -5.6086927e-05 -5.1032282e-05 -5.0346054e-05
-4.8717884e-05 -4.8584414e-05 -4.7960806e-05 -4.7477908e-05 -4.6073932e-05 -0.0005295329 -0.00046481448 -0.0003995673
-0.0003707224 -0.00032567218 -0.00028992072 -0.00023911957 -0.0005241627 -0.0004622565 -0.00040121377 -0.0003804364
00000000: 91d7 d0b7 c1ef 60b7 8ef5 87b5 bfd4 2137
00000010: d378 6337 e339 a337 5d5c e637 0a4d 84b7
00000020: 30de c7b6 9585 ff36 0d15 b337 3ad6 e537
00000030: 8edb 0d38 2fbb 2d38 cab5 9cb6 8aef 3f36
00000040: cabf 8537 f7c0 0738 5d80 2f38 c2eb 5038
00000050: f098 7138 d454 3537 4f4a 9137 4ee8 f237
00000060: eea5 3d38 ab47 6a38 abae 8738 ac15 9938
00000070: 295f c637 b044 0138 1eb0 2f38 d389 6e38
00000080: aa3e 8f38 4ee3 a438 25ea b738 4320 1138
00000090: db34 2e38 0e69 5b38 5423 8c38 f291 a538
000000a0: 6b64 bc38 3b45 cf38 47f8 5738 d8bb 6e38
000000b0: 3cf2 8a38 64f4 a738 0a59 c238 4d09 d838
000000c0: 8ecd e738 bb64 44b9 65dd 29b9 b505 13b9
000000d0: 4c0b 13b9 22d0 0eb9 225f 16b9 d2a2 07b9
000000e0: 1ccc 30b9 bd8f 23b9 fecb 18b9 5f0c 21b9
000000f0: d6f1 23b9 a685 31b9 cde6 22b9 5cec 0eb9
00000100: 1512 08b9 a12a 06b9 71ce 13b9 c972 19b9
00000110: a635 2bb9 78fc 1fb9 4ea4 d4b8 7354 c8b8
00000120: 99bb cab8 4dc2 ebb8 ef2e f9b8 a45c 10b9
00000130: eb6a 08b9 cdf6 d8b7 6049 acb7 57a2 b6b7
00000140: a380 1cb8 1347 32b8 c46f 77b8 29eb 55b8
00000150: a680 17b6 7311 ce36 f621 2c37 2f19 0635
00000160: 06c2 8836 d4db a6b6 f9fb ac36 e911 51b7
00000170: 5f93 35b5 7a53 2137 ddef 0c37 1241 cc37
00000180: b634 de37 1aab 3138 ddf2 2bb8 97ea 1bb8
00000190: 2eec c8b7 36da 1935 389f ea37 8cd0 6338
000001a0: 6527 ac38 5030 ccb7 fca8 d5b7 0e28 93b7
000001b0: 4d44 9736 2566 0938 b823 7a38 8902 b438
000001c0: 1c46 32b7 7ff1 79b7 4894 24b7 0357 3b37
000001d0: 5bf2 2838 c9c0 8c38 0423 be38 3906 e5b7
000001e0: 8de2 02b8 eea3 d0b7 996f f6b5 cab4 fa37
000001f0: eedf 7238 bb21 a938 76b7 5ab8 5352 73b8
00000200: f005 5fb8 6da7 feb7 218f f535 3cb1 fa37
00000210: 422a 5e38 6c6a 8cb8 9593 97b8 4bf1 8bb8
00000220: 1fe2 3ab8 b6a2 80b7 1533 2937 6f88 0538
00000230: 0d2e 8cb8 cf88 8db8 c616 76b8 bedf 19b8
00000240: cd91 40b7 383c 2b37 f0ac f937 a2b1 bfb9
00000250: 418b c1b9 f0e1 c2b9 0aaf c2b9 10cf c2b9
00000260: e169 c3b9 63fa c3b9 bca0 c2b9 8d6c c5b9
00000270: f62c c7b9 93ae c6b9 4ef5 c5b9 0eb7 c5b9
00000280: 34ac c5b9 3909 c5b9 cc96 c8b9 9595 cab9
00000290: d0bc c9b9 2926 c8b9 04f9 c6b9 6040 c6b9
000002a0: 0766 c5b9 9c4e c9b9 487d cbb9 60a1 cab9
000002b0: 3cb9 c8b9 4d38 c7b9 ab32 c6b9 3083 c5b9
000002c0: 6741 c9b9 9c99 cbb9 3c2b cbb9 e49f c9b9
000002d0: ba4f c8b9 4618 c7b9 e006 c5b9 6044 c8b9
000002e0: ce71 cab9 238a cab9 69c9 c9b9 4a10 c9b9
000002f0: 76df c7b9 ebb9 c5b9 0153 c8b9 ad1e cab9
00000300: 7b76 cab9 1649 cab9 9d15 cab9 623e c9b9
00000310: 63ea 14b8 4475 0bb8 d4f5 08b8 5f3e 0cb8
00000320: cf31 0ab8 ff73 0db8 837a 0cb8 7a29 41b8
00000330: 2de2 42b8 e488 43b8 1ff4 4bb8 ae32 4fb8
00000340: b5b4 54b8 d420 54b8 a122 47b8 5ca7 48b8
00000350: d2ef 47b8 e2fc 51b8 e938 59b8 17e7 60b8
00000360: 11d7 63b8 8bdf 59b8 56d9 59b8 0048 58b8
00000370: 0344 62b8 5529 66b8 bcaa 67b8 10ea 68b8
00000380: 1310 59b8 a5dc 5db8 c2cb 5fb8 c5f8 6ab8
00000390: a9c1 71b8 2702 79b8 cb23 7cb8 70fd 5cb8
000003a0: 3cba 5fb8 a9f4 5eb8 5d4d 67b8 212c 6bb8
000003b0: 2d1d 6db8 e13e 6bb8 7f0b 56b8 aa2a 53b8
000003c0: 6e56 4cb8 1ec7 4bb8 8629 49b8 0423 47b8
000003d0: 823f 41b8 5ad0 0aba 58b2 f3b9 047d d1b9
000003e0: 855d c2b9 fbbe aab9 8000 98b9 2cbc 7ab9
000003f0: f767 09ba 045b f2b9 005a d2b9 4f75 c7b9

exp_avg_sq f4 [8, 1, 7, 7]
1.9562726e-06 2.0413759e-06 2.1246988e-06 2.2086933e-06 2.142636e-06 2.0650868e-06 1.9678735e-06 2.0407401e-06
2.1326618e-06 2.2206057e-06 2.3034193e-06 2.2326483e-06 2.1507346e-06 2.049198e-06 2.1030605e-06 2.2026495e-06
2.2946163e-06 2.3767652e-06 2.3034493e-06 2.2189868e-06 2.1145154e-06 2.1336657e-06 2.2395407e-06 2.3375665e-06
2.4232563e-06 2.3512855e-06 2.266508e-06 2.1612386e-06 2.0591308e-06 2.1631079e-06 2.2622046e-06 2.350152e-06
2.2866097e-06 2.2085899e-06 2.1093547e-06 1.970176e-06 2.0685159e-06 2.1642074e-06 2.2515276e-06 2.1980916e-06
2.129983e-06 2.0401205e-06 1.8760858e-06 1.9670633e-06 2.0558246e-06 2.1382302e-06 2.092531e-06 2.0339826e-06
1.9541565e-06 1.30754015e-05 1.3604912e-05 1.3972835e-05 1.407288e-05 1.3338137e-05 1.2470095e-05 1.1571273e-05
1.3545064e-05 1.41289365e-05 1.4543422e-05 1.4677878e-05 1.3914421e-05 1.2994209e-05 1.2041166e-05 1.3861323e-05
1.4497756e-05 1.4944292e-05 1.5113955e-05 1.4348093e-05 1.34049715e-05 1.2414045e-05 1.3933843e-05 1.46035145e-05
1.5077714e-05 1.5280966e-05 1.4527559e-05 1.3594813e-05 1.2605324e-05 1.3137058e-05 1.37869365e-05 1.4259238e-05
1.4478788e-05 1.3791796e-05 1.2939077e-05 1.2023826e-05 1.2188674e-05 1.28052825e-05 1.3267549e-05 1.3500472e-05
1.2897291e-05 1.2140329e-05 1.1311278e-05 1.11949885e-05 1.1764594e-05 1.2204775e-05 1.2447905e-05 1.1928814e-05
1.1272596e-05 1.0539797e-05 2.5746036e-07 2.6330537e-07 2.6642198e-07 2.6925775e-07 2.651466e-07 2.6186714e-07
2.5752618e-07 2.6209827e-07 2.672525e-07 2.6964943e-07 2.719242e-07 2.6722066e-07 2.636017e-07 2.5892132e-07
2.7083664e-07 2.7656114e-07 2.7916937e-07 2.8112106e-07 2.7568473e-07 2.7145575e-07 2.6506228e-07 2.6878197e-07
2.745161e-07 2.7716973e-07 2.799566e-07 2.758218e-07 2.7279188e-07 2.6715284e-07 2.5663846e-07 2.6204006e-07
2.6447026e-07 2.6715202e-07 2.6323184e-07 2.6038364e-07 2.5458803e-07 2.4362683e-07 2.4878497e-07 2.5100888e-07
2.5345756e-07 2.494257e-07 2.4622364e-07 2.4045647e-07 2.3007848e-07 2.3450927e-07 2.3624543e-07 2.3817549e-07
2.3380126e-07 2.300191e-07 2.2421811e-07 3.446179e-07 3.5333306e-07 3.5703587e-07 3.576511e-07 3.4942366e-07
3.392317e-07 3.258615e-07 3.558116e-07 3.6583094e-07 3.7040283e-07 3.7130292e-07 3.6277385e-07 3.5201106e-07
3.3790587e-07 3.6199248e-07 3.7288387e-07 3.7830787e-07 3.800452e-07 3.7182463e-07 3.6110063e-07 3.4675358e-07
3.6337423e-07 3.7442035e-07 3.8034403e-07 3.830256e-07 3.7550166e-07 3.6549255e-07 3.5166065e-07 3.536763e-07
3.6388175e-07 3.6961575e-07 3.7270812e-07 3.6618445e-07 3.5736443e-07 3.446779e-07 3.4369052e-07 3.5278555e-07
3.5799508e-07 3.6127267e-07 3.5551528e-07 3.4758406e-07 3.357826e-07 3.3226996e-07 3.4034213e-07 3.4502125e-07
3.48323e-07 3.4294044e-07 3.354399e-07 3.2424407e-07 3.5060566e-05 3.688289e-05 3.8068963e-05 3.8031187e-05
3.7012327e-05 3.5482757e-05 3.3662425e-05 3.672789e-05 3.871344e-05 4.001056e-05 4.0021907e-05 3.897302e-05
3.734841e-05 3.5393237e-05 3.821105e-05 4.036385e-05 4.1770876e-05 4.185694e-05 4.0834315e-05 3.918311e-05
3.7146332e-05 3.8895254e-05 4.1157e-05 4.2655745e-05 4.2825603e-05 4.18623e-05 4.0248884e-05 3.822271e-05
3.8392966e-05 4.0670075e-05 4.2221563e-05 4.2450483e-05 4.156533e-05 4.0046623e-05 3.812901e-05 3.6795594e-05
3.8999013e-05 4.0549596e-05 4.0823787e-05 4.002505e-05 3.862667e-05 3.6861595e-05 3.5188106e-05 3.7306032e-05
3.8831953e-05 3.913766e-05 3.8423623e-05 3.714028e-05 3.5508787e-05 1.106374e-05 1.1534662e-05 1.19349925e-05
1.2285336e-05 1.2157982e-05 1.1947331e-05 1.1548262e-05 1.1198555e-05 1.1681699e-05 1.2100391e-05 1.2480026e-05
00000000: 8248 0336 92fe 0836 0c96 0e36 1039 1436
00000010: 35ca 0f36 ec95 0a36 cf0f 0436 a6f3 0836
00000020: da1e 0f36 b705 1536 7194 1a36 9bd4 1536
00000030: 5755 1036 f484 0936 4e22 0d36 3bd1 1336
00000040: 35fd 1936 8480 1f36 f594 1a36 e7e9 1436
00000050: 19e7 0d36 1930 0f36 044b 1636 16df 1c36
00000060: 3a9f 2236 c7ca 1d36 501a 1836 cc09 1136
00000070: 992f 0a36 e929 1136 61d0 1736 4eb7 1d36
00000080: a873 1936 4937 1436 708e 0d36 5e37 0436
00000090: d5d0 0a36 cd3c 1136 f318 1736 ed82 1336
000000a0: d4f0 0e36 01e9 0836 d1cd fb35 e401 0436
000000b0: ccf6 0936 847e 0f36 696d 0c36 8e7f 0836
000000c0: 2724 0336 6c5e 5b37 a740 6437 df6c 6a37
000000d0: 8f1a 6c37 ddc6 5f37 a636 5137 3d22 4237
000000e0: 9b3f 6337 520b 6d37 86ff 7337 0241 7637
000000f0: fc71 6937 b401 5a37 6a04 4a37 ee8d 6837
00000100: 633b 7337 3fb9 7a37 f191 7d37 97b8 7037
00000110: eae5 6037 eb45 5037 66c5 6937 9e01 7537
00000120: 4af6 7c37 a02f 8037 64bb 7337 4715 6437
00000130: 747b 5337 3c67 5c37 714e 6737 f63a 6f37
00000140: ece9 7237 5063 6737 ea14 5937 f0b9 4937
00000150: f57d 4c37 45d6 5637 b097 5e37 1680 6237
00000160: 7161 5837 51ae 4b37 92c5 3d37 1cd2 3b37
00000170: 8c60 4537 1cc3 4c37 58d7 5037 de21 4837
00000180: 6e1f 3d37 15d4 3037 1539 8a34 6a5c 8d34
00000190: c208 8f34 818e 9034 7959 8e34 bf96 8c34
000001a0: 2142 8a34 83b6 8c34 e77a 8f34 56c4 9034
000001b0: fafc 9134 8776 8f34 2485 8d34 e001 8b34
000001c0: 8167 9134 467a 9434 bfe0 9534 fcec 9634
000001d0: d201 9434 98bc 9134 e24d 8e34 1d4d 9034
000001e0: 3561 9334 ebcd 9434 f14c 9634 a914 9434
000001f0: 3b74 9234 356d 8f34 1fc8 8934 83ae 8c34
00000200: 84fc 8d34 186d 8f34 4f52 8d34 dbca 8b34
00000210: 50ae 8834 d1cb 8234 bf90 8534 66c2 8634
00000220: f112 8834 cfe8 8534 b830 8434 1618 8134
00000230: 7e0b 7734 6bcd 7b34 a6aa 7d34 2ebd 7f34
00000240: cd0a 7b34 2bfb 7634 9bc0 7034 ec03 b934
00000250: bab1 bd34 a3ae bf34 3103 c034 6c98 bb34
00000260: a61f b634 10f2 ae34 6006 bf34 6c67 c434
00000270: c7db c634 7c57 c734 42c3 c234 08fc bc34
00000280: 6e69 b534 de57 c234 c530 c834 3d1a cb34
00000290: 0409 cc34 309f c734 4bdd c134 7329 ba34
000002a0: c615 c334 f103 c934 1632 cc34 a3a2 cd34
000002b0: 8e98 c934 ea38 c434 dfcb bc34 e7e0 bd34
000002c0: 875b c334 9a6f c634 9d18 c834 0298 c434
000002d0: cbdb bf34 2b0c b934 7784 b834 7a66 bd34
000002e0: 7832 c034 f0f4 c134 a6dd be34 979b ba34
000002f0: 9c45 b434 d662 b234 44b8 b634 5c3b b934
00000300: 2601 bb34 601d b834 8216 b434 c413 ae34
00000310: ff0d 1338 b4b2 1a38 3dac 1f38 ad83 1f38
00000320: af3d 1b38 52d3 1438 c130 0d38 460c 1a38
00000330: 3d60 2238 03d1 2738 32dd 2738 f676 2338
00000340: 8da6 1c38 3373 1438 cd44 2038 5b4c 2938
00000350: 2333 2f38 8c8f 2f38 8345 2b38 8b58 2438
00000360: 92cd 1b38 7623 2338 fe9f 2c38 42e9 3238
00000370: a49f 3338 4d95 2f38 e9d0 2838 5351 2038
00000380: 2208 2138 2995 2a38 0f17 3138 dc0c 3238
00000390: 6f56 2e38 bcf7 2738 b6ec 1f38 f854 1a38
000003a0: df92 2338 cc13 2a38 353a 2b38 92e0 2738
000003b0: 1203 2238 d69b 1a38 f196 1338 0c79 1c38
000003c0: 7edf 2238 be27 2438 0d29 2138 12c7 1b38
000003d0: 45ef 1438 679e 3937 ff84 4137 673c 4837
000003e0: 1e1d 4e37 23fa 4b37 6571 4837 68bf 4137
000003f0: 6de1 3b37 84fc 4337 c902 4b37 4e61 5137

exp_avg f4 [8]
-0.0011447318 -0.00068636343 -0.00070024555 0.00024924244 1.28571255e-05 -0.0031331873 1.11628e-05 0.0002807098
00000000: d30a 96ba 12ed 33ba af90 37ba c1ac 8239
00000010: efb4 5737 2956 4dbb dc47 3b37 3b2c 9339

exp_avg_sq f4 [8]
3.0674626e-05 0.00044006552 1.275777e-05 8.167558e-06 0.0001508514 0.0005008031 2.9787358e-05 0.00015512397
00000000: a1a8 0038 98b8 e639 340a 5637 6507 0937
00000010: dd2d 1e39 5448 033a dddf f937 c6a8 2239

exp_avg f4 [8, 8, 7, 7]
-1.281847e-05 -1.2662994e-05 -1.29216405e-05 -1.20922e-05 -1.166699e-05 -1.1544018e-05 -1.1447663e-05 -1.2221924e-05
-1.2130409e-05 -1.195801e-05 -1.0840333e-05 -1.0304841e-05 -1.02332115e-05 -1.0385971e-05 -1.1958102e-05 -1.1960533e-05
-1.1615809e-05 -1.0298972e-05 -9.491792e-06 -9.27168e-06 -9.481872e-06 -1.1133346e-05 -1.0885362e-05 -1.0615103e-05
-9.242257e-06 -8.1803855e-06 -7.6029146e-06 -7.829495e-06 -1.0798033e-05 -1.02299155e-05 -1.0018942e-05 -8.44392e-06
-7.1197346e-06 -6.404408e-06 -6.5788527e-06 -1.0617893e-05 -9.924455e-06 -9.617772e-06 -7.870005e-06 -6.415842e-06
-5.643302e-06 -5.71941e-06 -1.040704e-05 -9.647167e-06 -9.259907e-06 -7.650041e-06 -6.205797e-06 -5.4896987e-06
-5.3172766e-06 -2.5170093e-05 -2.6802301e-05 -2.8980143e-05 -2.889534e-05 -2.893507e-05 -2.8863937e-05 -2.8602719e-05
-2.5390624e-05 -2.7187665e-05 -2.951112e-05 -2.9405302e-05 -2.946321e-05 -2.9459925e-05 -2.9194705e-05 -2.6753874e-05
-2.8741124e-05 -3.1300297e-05 -3.1338415e-05 -3.143403e-05 -3.149239e-05 -3.1276755e-05 -2.677724e-05 -2.87639e-05
-3.1362953e-05 -3.1571693e-05 -3.1686293e-05 -3.180218e-05 -3.1681302e-05 -2.6681088e-05 -2.8541479e-05 -3.097472e-05
-3.1245185e-05 -3.1488584e-05 -3.1677577e-05 -3.1607884e-05 -2.6526002e-05 -2.8291086e-05 -3.0561725e-05 -3.085995e-05
-3.1258907e-05 -3.1512885e-05 -3.145294e-05 -2.634358e-05 -2.7939832e-05 -3.0140682e-05 -3.0439416e-05 -3.0868552e-05
-3.104065e-05 -3.1061678e-05 3.2381693e-05 3.360183e-05 3.552197e-05 3.4720964e-05 3.4331053e-05 3.438801e-05
3.438016e-05 3.238521e-05 3.3456185e-05 3.533072e-05 3.4525674e-05 3.4217766e-05 3.4343862e-05 3.434814e-05
3.416938e-05 3.5251192e-05 3.717889e-05 3.6568646e-05 3.636804e-05 3.648617e-05 3.644712e-05 3.3135297e-05
3.424899e-05 3.6178048e-05 3.570899e-05 3.5552148e-05 3.5607816e-05 3.5519915e-05 3.2725507e-05 3.386893e-05
3.585639e-05 3.5505043e-05 3.5303416e-05 3.5265668e-05 3.5111112e-05 3.2150718e-05 3.3360873e-05 3.54289e-05
3.515927e-05 3.4931094e-05 3.4781773e-05 3.45725e-05 3.150741e-05 3.2790154e-05 3.4950488e-05 3.4731656e-05
3.4470228e-05 3.425054e-05 3.399702e-05 2.8824064e-05 3.015024e-05 3.2189964e-05 3.1884883e-05 3.193337e-05
3.1906184e-05 3.147507e-05 2.8871802e-05 3.0252533e-05 3.24092e-05 3.209958e-05 3.2124142e-05 3.2068634e-05
3.168122e-05 3.0643474e-05 3.218989e-05 3.4548775e-05 3.436201e-05 3.4313798e-05 3.421332e-05 3.3845572e-05
2.9831883e-05 3.1421234e-05 3.381953e-05 3.369392e-05 3.3589058e-05 3.3537795e-05 3.3223296e-05 2.9779414e-05
3.1341588e-05 3.371621e-05 3.3635813e-05 3.3577642e-05 3.3578228e-05 3.3305325e-05 2.9512157e-05 3.1065294e-05
3.3450415e-05 3.3443102e-05 3.341522e-05 3.3418524e-05 3.3152617e-05 2.9081088e-05 3.0631578e-05 3.3040924e-05
3.305299e-05 3.305792e-05 3.308554e-05 3.2822532e-05 8.276956e-06 8.629027e-06 9.150939e-06 8.9488985e-06
8.74485e-06 8.499914e-06 8.229723e-06 8.259414e-06 8.620973e-06 9.11131e-06 8.911816e-06 8.714352e-06
8.455199e-06 8.5288375e-06 8.686594e-06 9.095109e-06 9.607757e-06 9.419801e-06 9.255806e-06 9.062992e-06
9.108027e-06 8.30876e-06 8.685082e-06 9.247412e-06 9.224689e-06 9.074206e-06 9.0669255e-06 8.952216e-06
8.1564e-06 8.588098e-06 9.300328e-06 9.173008e-06 8.971426e-06 9.043393e-06 8.888644e-06 8.04456e-06
8.6611735e-06 9.300865e-06 9.08968e-06 8.968776e-06 9.068249e-06 8.91887e-06 8.029921e-06 8.460995e-06
9.079895e-06 8.902881e-06 8.779808e-06 8.876648e-06 8.780128e-06 3.451459e-05 3.374008e-05 3.361289e-05
3.5049332e-05 3.5317342e-05 3.5118366e-05 3.4487148e-05 3.4209002e-05 3.362497e-05 3.346854e-05 3.505874e-05
00000000: e90e 57b7 2573 54b7 06ca 58b7 9bdf 4ab7
00000010: 57bd 43b7 2ead 41b7 570f 40b7 c40c 4db7
00000020: b683 4bb7 439f 48b7 e0de 35b7 f5e2 2cb7
00000030: 4faf 2bb7 683f 2eb7 a89f 48b7 19aa 48b7
00000040: 85e1 42b7 bfc9 2cb7 f03e 1fb7 908d 1bb7
00000050: 5514 1fb7 5bc9 3ab7 46a0 36b7 8517 32b7
00000060: 310f 1bb7 7d3e 09b7 8a1c ffb6 6d5b 03b7
00000070: 3329 35b7 27a1 2bb7 0717 28b7 5caa 0db7
00000080: 0ee6 eeb6 72e5 d6b6 eabf dcb6 8123 32b7
00000090: 3681 26b7 045c 21b7 6a09 04b7 aa47 d7b6
000000a0: 985b bdb6 5ce9 bfb6 e599 2eb7 44da 21b7
000000b0: ff5a 1bb7 ad58 00b7 643b d0b6 2734 b8b6
000000c0: 0f6b b2b6 5d24 d3b7 81d5 e0b7 621a f3b7
000000d0: 4564 f2b7 97b9 f2b7 d520 f2b7 dfef efb7
000000e0: f3fd d4b7 1111 e4b7 a68e f7b7 68ab f6b7
000000f0: c327 f7b7 b520 f7b7 27e7 f4b7 826d e0b7
00000100: 1819 f1b7 7048 03b8 5e71 03b8 08d8 03b8
00000110: b216 04b8 292f 03b8 af9f e0b7 014a f1b7
00000120: b78b 03b8 d96b 04b8 e6e6 04b8 5563 05b8
00000130: 8ae1 04b8 33d1 dfb7 5c6c efb7 daea 01b8
00000140: 430d 03b8 9c12 04b8 8add 04b8 b592 04b8
00000150: 2884 deb7 a552 edb7 672f 00b8 9e6f 01b8
00000160: ff1b 03b8 b42c 04b8 56ec 03b8 68fc dcb7
00000170: 5560 eab7 9fd6 fcb7 2658 ffb7 db78 01b8
00000180: a531 02b8 3948 02b8 94d1 0738 b1ef 0c38
00000190: 6dfd 1438 5aa1 1138 b0fe 0f38 d83b 1038
000001a0: 6a33 1038 5bd5 0738 4e53 0c38 1230 1438
000001b0: a9cf 1038 0c85 0f38 710c 1038 0911 1038
000001c0: 1851 0f38 aeda 1338 87f0 1b38 4961 1938
000001d0: e389 1838 ba08 1938 ccde 1838 c1fa 0a38
000001e0: 93a6 0f38 e2bd 1738 3cc6 1538 d41d 1538
000001f0: 9a59 1538 38fb 1438 bf42 0938 7d0e 0e38
00000200: 8164 1638 40eb 1438 c112 1438 39ea 1338
00000210: 4544 1338 92d9 0638 f7ec 0b38 7e99 1438
00000220: fb77 1338 fa82 1238 a5e2 1138 f001 1138
00000230: d326 0438 2988 0938 cd97 1238 d5ac 1138
00000240: 2094 1038 3da8 0f38 0698 0e38 35cb f137
00000250: 26eb fc37 b603 0738 22bc 0538 32f0 0538
00000260: 01d3 0538 1904 0438 b931 f237 d2c6 fd37
00000270: 1def 0738 a9a2 0638 09bd 0638 6f81 0638
00000280: 73e1 0438 2e87 0038 a203 0738 77e8 1038
00000290: ed1f 1038 29ec 0f38 4680 0f38 68f5 0d38
000002a0: 7b3f fa37 4bca 0338 72d9 0d38 9252 0d38
000002b0: fae1 0c38 efaa 0c38 3e59 0b38 cece f937
000002c0: c674 0338 816a 0d38 2e14 0d38 b8d5 0c38
000002d0: 59d6 0c38 52b1 0b38 e090 f737 1b4c 0238
000002e0: 1c4d 0c38 4245 0c38 5227 0c38 de2a 0c38
000002f0: 5a0d 0b38 29f3 f337 687a 0038 6c95 0a38
00000300: 61a2 0a38 aca7 0a38 54c5 0a38 edaa 0938
00000310: 41dd 0a37 64c5 1037 fc86 1937 3a23 1637
00000320: d8b6 1237 da9a 0e37 6412 0a37 ea91 0a37
00000330: cca2 1037 c7dc 1837 f583 1537 db33 1237
00000340: ceda 0d37 1417 0f37 a3bc 1137 3297 1837
00000350: 0131 2137 bd09 1e37 6249 1b37 410d 1837
00000360: aece 1837 da65 0b37 25b6 1137 5525 1b37
00000370: bdc3 1a37 6b3d 1837 261e 1837 7a31 1637
00000380: 79d7 0837 9a15 1037 9b08 1c37 c5e5 1937
00000390: fb83 1637 14b9 1737 6f20 1537 1ff7 0637
000003a0: 754f 1137 e90a 1c37 e17f 1837 9978 1637
000003b0: d523 1837 41a2 1537 40b8 0637 b2f3 0d37
000003c0: da55 1837 955d 1537 fd4c 1337 eaec 1437
000003d0: 5d4e 1337 c2c3 1038 2384 0d38 91fb 0c38
000003e0: ef01 1338 b521 1438 0f4c 1338 4ba6 1038
000003f0: a37b 0f38 8908 0d38 9260 0c38 090c 1338

exp_avg_sq f4 [8, 8, 7, 7]
1.9389088e-09 2.0911266e-09 2.2082938e-09 2.2912006e-09 2.2087991e-09 2.1454714e-09 2.0956534e-09 2.0375923e-09
2.221578e-09 2.3601032e-09 2.4396758e-09 2.3461895e-09 2.2757467e-09 2.1943485e-09 2.1210549e-09 2.3128932e-09
2.4875935e-09 2.5752152e-09 2.46651e-09 2.3804292e-09 2.28881e-09 2.1888094e-09 2.3635656e-09 2.5423805e-09
2.6570808e-09 2.5561389e-09 2.4699551e-09 2.3838755e-09 2.1096038e-09 2.2489859e-09 2.4013724e-09 2.514603e-09
2.4519815e-09 2.388845e-09 2.3200455e-09 2.0650601e-09 2.1777289e-09 2.3091076e-09 2.4165705e-09 2.3582158e-09
2.3071673e-09 2.2511681e-09 2.044453e-09 2.1369924e-09 2.2502378e-09 2.344527e-09 2.2757205e-09 2.2244189e-09
2.1793327e-09 5.0763105e-09 5.4329075e-09 5.6731797e-09 5.797366e-09 5.3834763e-09 4.925708e-09 4.456696e-09
5.048439e-09 5.5072307e-09 5.823099e-09 5.9870655e-09 5.570424e-09 5.1123945e-09 4.6371356e-09 4.8611457e-09
5.3925717e-09 5.815694e-09 6.081195e-09 5.7071543e-09 5.267297e-09 4.79511e-09 4.6154045e-09 5.155395e-09
5.6585088e-09 6.0420864e-09 5.729717e-09 5.3266973e-09 4.8881734e-09 4.1838866e-09 4.6472293e-09 5.1599103e-09
5.6040976e-09 5.3898828e-09 5.0732396e-09 4.7111146e-09 3.766846e-09 4.1508827e-09 4.631643e-09 5.1251208e-09
5.0218976e-09 4.792132e-09 4.501254e-09 3.4277958e-09 3.760929e-09 4.1950745e-09 4.699917e-09 4.6774775e-09
4.5207993e-09 4.2974713e-09 6.230496e-09 6.322037e-09 6.522155e-09 7.03615e-09 6.8167316e-09 6.5691106e-09
6.343077e-09 6.869571e-09 6.9393553e-09 7.048207e-09 7.504398e-09 7.2121953e-09 6.9149753e-09 6.6437336e-09
7.335189e-09 7.404226e-09 7.457548e-09 7.87209e-09 7.533253e-09 7.2221953e-09 6.935743e-09 7.594063e-09
7.709312e-09 7.81238e-09 8.262247e-09 7.903287e-09 7.606845e-09 7.325026e-09 7.289299e-09 7.4489694e-09
7.6760776e-09 8.153188e-09 7.801273e-09 7.521566e-09 7.259807e-09 6.89509e-09 7.066161e-09 7.3605397e-09
7.901438e-09 7.594453e-09 7.3439703e-09 7.1074284e-09 6.5651857e-09 6.71217e-09 7.0332105e-09 7.6107805e-09
7.3572037e-09 7.123958e-09 6.9121717e-09 1.1720843e-08 1.2099213e-08 1.272735e-08 1.3709284e-08 1.3508027e-08
1.3204885e-08 1.2802225e-08 1.1894014e-08 1.2287783e-08 1.29568205e-08 1.3976889e-08 1.3753721e-08 1.3417231e-08
1.298932e-08 1.2069336e-08 1.2476939e-08 1.3174679e-08 1.42350975e-08 1.4002553e-08 1.364389e-08 1.3190737e-08
1.2341431e-08 1.2764987e-08 1.3495563e-08 1.4635341e-08 1.4411279e-08 1.4045307e-08 1.3560395e-08 1.1996378e-08
1.24069e-08 1.3116193e-08 1.4231646e-08 1.4031938e-08 1.3676648e-08 1.3175944e-08 1.1588685e-08 1.1986266e-08
1.2665153e-08 1.3710381e-08 1.3497301e-08 1.3180333e-08 1.2723595e-08 1.1122064e-08 1.1494939e-08 1.2128782e-08
1.3126803e-08 1.2928155e-08 1.2643538e-08 1.2236268e-08 2.8472698e-09 2.9489273e-09 3.076603e-09 3.2317153e-09
3.2279923e-09 3.1731524e-09 3.114476e-09 2.899803e-09 3.0020963e-09 3.1328096e-09 3.2888299e-09 3.2999952e-09
3.2434921e-09 3.1759022e-09 2.9516263e-09 3.0561227e-09 3.189076e-09 3.3448513e-09 3.3594878e-09 3.305392e-09
3.2367944e-09 3.0357585e-09 3.1369947e-09 3.2707692e-09 3.4301222e-09 3.4534564e-09 3.4128627e-09 3.3445164e-09
2.9584117e-09 3.056047e-09 3.177414e-09 3.3260565e-09 3.3691405e-09 3.3311789e-09 3.2597074e-09 2.8555218e-09
2.9487257e-09 3.0699787e-09 3.2202787e-09 3.2599254e-09 3.224975e-09 3.151708e-09 2.7569957e-09 2.8454956e-09
2.9611815e-09 3.1048695e-09 3.144863e-09 3.1071827e-09 3.030503e-09 9.2159205e-09 9.431177e-09 9.726154e-09
1.0387004e-08 1.0892753e-08 1.0723551e-08 1.0465675e-08 9.455148e-09 9.711514e-09 1.00410125e-08 1.0718897e-08
00000000: a53d 0531 7db3 0f31 b7c0 1731 3a73 1d31
00000010: 9bc9 1731 886f 1331 2003 1031 b405 0c31
00000020: 6aaa 1831 602f 2231 3ba7 2731 9a3a 2131
00000030: 5c63 1c31 63cb 1631 fec1 1131 d9f0 1e31
00000040: 35f2 2a31 aaf7 3031 4e7f 2931 f494 2331
00000050: 2c49 1d31 f169 1631 496c 2231 08b6 2e31
00000060: dc97 3631 12a8 2f31 e9bb 2931 95d1 2331
00000070: 8bf8 1031 948c 1a31 6405 2531 5dcd 2c31
00000080: b77f 2831 0129 2431 ac6e 1f31 ece8 0d31
00000090: 03a7 1531 40ae 1e31 c210 2631 2c0e 2231
000000a0: 1e8c 1e31 f8b2 1a31 667e 0c31 5eda 1231
000000b0: 9aa2 1a31 5b1d 2131 e662 1c31 64dc 1831
000000c0: 3ac3 1531 b36b ae31 5cac ba31 d1ed c231
000000d0: 2c32 c731 8ff9 b831 fc3e a931 8321 9931
000000e0: 8a76 ad31 1d3a bd31 8514 c831 c9b6 cd31
000000f0: f865 bf31 19a9 af31 ad54 9f31 1707 a731
00000100: 9049 b931 63d3 c731 c2f2 d031 a918 c431
00000110: a2fb b431 3cc2 a431 8795 9e31 5623 b131
00000120: c56c c231 c19a cf31 20df c431 2006 b731
00000130: d4f4 a731 dbc1 8f31 76ad 9f31 0d4b b131
00000140: 2a8e c031 e931 b931 b050 ae31 67df a131
00000150: 876d 8131 8d9f 8e31 5d24 9f31 0a19 b031
00000160: 148d ac31 0aa8 a431 73a9 9a31 6c8e 6b31
00000170: 7b39 8131 4424 9031 e87c a131 87b7 a031
00000180: 5f55 9b31 f5a8 9331 0614 d631 3a39 d931
00000190: 7b19 e031 a1c2 f131 9b38 ea31 82b6 e131
000001a0: 4cf2 d931 6309 ec31 376f ee31 af2c f231
000001b0: b1ec 0032 24cf f731 c498 ed31 e646 e431
000001c0: 0109 fc31 4368 fe31 a51e 0032 d13d 0732
000001d0: 996b 0132 1a27 f831 714f ee31 0b77 0232
000001e0: ea71 0432 3637 0632 bff1 0d32 06c7 0732
000001f0: 42af 0232 9caf fb31 5a75 fa31 d4f1 ff31
00000200: bfdf 0332 1a12 0c32 5d06 0632 3238 0132
00000210: f071 f931 dae9 ec31 9cca f231 fee7 fc31
00000220: e4be 0732 c278 0232 3f56 fc31 9a35 f431
00000230: fc93 e131 dfa0 e631 c6a8 f131 91c0 0232
00000240: a6ca fc31 ffc6 f431 1b80 ed31 d05c 4932
00000250: e7dc 4f32 7aa7 5a32 1286 6b32 ee10 6832
00000260: b3db 6232 c8f0 5b32 6d56 4c32 3e1a 5332
00000270: b398 5e32 021f 7032 8149 6c32 9b81 6632
00000280: a227 5f32 8059 4f32 285a 5632 da56 6232
00000290: 9f8e 7432 e18f 7032 7666 6a32 7a9d 6232
000002a0: 3006 5432 024d 5b32 1dda 6732 e96e 7b32
000002b0: 7a95 7732 ea4b 7132 3ff7 6832 a118 4e32
000002c0: 2026 5532 a055 6132 717f 7432 1e11 7132
000002d0: 89f6 6a32 6a5c 6232 9317 4732 28ec 4d32
000002e0: ef95 5932 e58a 6b32 c2e1 6732 b86f 6232
000002f0: f696 5a32 5b13 3f32 477b 4532 f35e 5032
00000300: 4a84 6132 a11a 5e32 de36 5932 ad37 5232
00000310: b3a9 4331 14a6 4a31 2c6c 5331 f014 5e31
00000320: 71d3 5d31 b00e 5a31 7106 5631 e045 4731
00000330: 704d 4e31 f848 5731 b501 6231 21c6 6231
00000340: 1ee4 5e31 103f 5a31 8fd5 4a31 e103 5231
00000350: d126 5b31 3fdb 6531 bcdc 6631 1225 6331
00000360: 4a6e 5e31 a19d 5031 9892 5731 fbc3 6031
00000370: 59b7 6b31 d951 6d31 b787 6a31 5bd5 6531
00000380: ee4c 4b31 8c02 5231 a959 5a31 9b90 6431
00000390: 8c86 6731 b8ea 6431 6101 6031 df3a 4431
000003a0: 88a2 4a31 a3f7 5231 be4b 5d31 3705 6031
000003b0: 5c9e 5d31 6f95 5831 9575 3d31 7d8a 4331
000003c0: a87d 4b31 715d 5531 041d 5831 2386 5531
000003d0: 2c41 5031 0c54 1e32 c106 2232 1418 2732
000003e0: 8772 3232 d622 3b32 ad3a 3832 87cc 3332
000003f0: 2e70 2232 b1d7 2632 d780 2c32 3526 3832

exp_avg f4 [8]
4.126879e-05 -2.676045e-07 -4.3500455e-05 4.282447e-06 -3.1674235e-06 -2.278011e-06 4.243971e-06 -8.881937e-07
00000000: 0718 2d38 48ab 8fb4 4274 36b8 f1b1 8f36
00000010: ec8f 54b6 eedf 18b6 6f67 8e36 356c 6eb5

exp_avg_sq f4 [8]
2.3527026e-07 1.750722e-08 2.937172e-07 3.8321314e-08 1.6707227e-07 7.4924955e-08 3.1318044e-07 4.2318376e-08
00000000: 999e 7c34 c962 9632 2fb0 9d34 bb96 2433
00000010: 7a64 3334 6ee6 a033 3123 a834 8cc1 3533
