checkpoints/model-epoch=34-validation_loss=0.03.ckpt (torch, 38814 bytes, 18 tensors)

model.bias f4 [8]
-0.71813375 -0.71862936 -1.7907748 -0.035115886 0.65210617 0.4618979 0.7149805 -0.8947505
00000000: 9dd7 37bf 18f8 37bf 1c38 e5bf add5 0fbd
00000010: 6ef0 263f e27d ec3e f608 373f 5e0e 65bf

model.input_layers.0.weight f4 [8, 1, 5, 5]
-0.43991366 -0.09442881 0.13349858 -0.38234875 -0.50163233 0.015309054 0.22270621 0.51808816
-0.13956757 -0.13300624 0.7692635 0.92662954 1.1587406 0.30297244 0.38198036 -0.06985695
0.19473088 0.4302791 -0.08524278 -0.16082479 -0.63915914 -0.18978508 0.23498759 -0.2573199
-0.4734334 0.012976636 0.06761165 0.28368172 -0.27305132 0.09668982 -0.019695193 -0.24665278
0.132809 -0.62998456 -0.103406265 0.28325605 0.1309835 0.60382 0.218901 0.47485226
-0.25087777 -0.3178805 0.025036681 -0.19829561 0.027803434 0.4785432 -0.043056667 0.49951488
-0.08431534 0.37677538 0.50014174 0.05404734 -0.112845756 -0.27623293 -0.24740599 0.411206
0.12885053 -0.07646421 -0.39564744 -0.14459635 0.049022324 -0.28790385 -0.45807314 -0.21559657
-0.22149253 -0.0451109 -0.033066478 -0.30575937 -0.20741913 -0.47305673 -0.04996951 -0.30450642
-0.29348463 -0.585694 -0.26874897 -0.1499738 -0.009129525 0.15770334 0.1278231 -0.1666757
0.02767891 0.109472744 0.20336258 0.095969945 0.07491615 0.34386566 0.21391602 0.6198911
0.16545777 -0.057289325 -0.0466238 0.26092213 0.19636817 0.12161506 -0.27927718 0.04669646
0.11944039 0.2897289 -0.02100579 -0.05432038 0.23402399 0.045084003 0.48946473 -0.08837539
-0.36443323 0.13368116 -0.20662609 0.51326615 -0.35218278 -0.26780164 0.6854398 0.021428788
0.99178296 0.0064095086 -0.06378342 0.03402003 -0.065495 0.4602664 -0.15871784 -0.21825476
0.16499005 0.02596112 0.6929766 -0.20267202 -0.3677808 0.81565696 0.778033 0.5188826
-0.07941079 -0.17860019 0.59632915 0.32245672 0.29570445 -0.013976134 -0.29075852 0.22008023
0.41716298 0.19838372 0.22583239 -0.25642192 0.2964457 0.265673 0.18703865 -0.25714225
-0.2276232 -0.46745333 -0.23122138 -0.30027542 -0.54214716 -0.5909529 -0.003731384 -0.08551197
0.3131182 0.037139606 -0.18998978 -0.16510113 0.032215834 0.08921027 0.0012093681 0.11840743
0.37383696 0.11202477 0.64298284 0.1957342 0.1421652 0.11318075 0.10697514 0.06803151
-0.021720614 0.06731265 0.036995176 0.008054453 0.40182316 0.023867687 -0.28570452 -0.0800129
0.10508423 0.47435045 0.15831801 0.09643506 -0.94691247 -0.27296004 -0.13664724 -0.44499546
0.23865092 -0.1661459 0.49449793 0.54126716 0.5725646 0.7060218 -0.9892856 -0.4846314
0.061607994 -0.3369055 0.31483912 -1.0548788 -0.44245633 -0.19747062 -0.5186828 -0.02860532
00000000: 5d3c e1be e463 c1bd dab3 083e 37c3 c3be
00000010: fa6a 00bf d4d2 7a3c 190d 643e 6da1 043f
00000020: cdea 0ebe ca32 08be 74ee 443f 9837 6d3f
00000030: 9d51 943f 341f 9b3e ee92 c33e 2911 8fbd
00000040: 8867 473e 8b4d dc3e c493 aebd 41af 24be
00000050: ef9f 23bf 0557 42be 96a0 703e 6fbf 83be
00000060: dd65 f2be f59b 543c fa77 8a3d bb3e 913e
00000070: 62cd 8bbe 5005 c63d d057 a1bc 8c92 7cbe
00000080: 15ff 073e ab46 21bf aac6 d3bd f006 913e
00000090: 8a20 063e f393 1a3f 9527 603e d61f f33e
000000a0: 0d73 80be 3cc1 a2be ba19 cd3c 010e 4bbe
000000b0: 07c4 e33c 9d03 f53e 305c 30bd 6ac0 ff3e
000000c0: 85ad acbd b4e8 c03e 4a09 003f be60 5d3d
000000d0: ad1b e7bd 676e 8dbe ff57 7dbe 9889 d23e
000000e0: 65f1 033e 4599 9cbd 4d92 cabe 1111 14be
000000f0: a2cb 483d 2268 93be 9088 eabe 59c5 5cbe
00000100: f0ce 62be 35c6 38bd b770 07bd 7e8c 9cbe
00000110: ae65 54be 7e34 f2be d4ac 4cbd 44e8 9bbe
00000120: 9e43 96be 0bf0 15bf 7799 89be bb92 19be
00000130: 0194 15bc fc7c 213e 0fe4 023e 09ad 2abe
00000140: e2be e23c 3f33 e03d 483e 503e e48b c43d
00000150: a36d 993d 290f b03e cd0c 5b3e 2fb1 1e3f
00000160: c36d 293e 36a8 6abd 99f8 3ebd 9697 853e
00000170: bd14 493e 5111 f93d 6bfd 8ebe ca44 3f3d
00000180: 2a9d f43d 5957 943e 5614 acbc 0c7f 5ebd
00000190: fca3 6f3e 01aa 383d 1f9b fa3e 28fe b4bd
000001a0: fe96 babe b7e3 083e ca95 53be 6965 033f
000001b0: 4d51 b4be 4c1d 89be fc78 2f3f 6d8b af3c
000001c0: 7de5 7d3f db06 d23b e2a0 82bd 9658 0b3d
000001d0: 3e22 86bd 0aa8 eb3e ee86 22be 2d7e 5fbe
000001e0: 27f3 283e 6aac d43c ea66 313f 4189 4fbe
000001f0: c44d bcbe e5ce 503f 2c2d 473f 7dd5 043f
00000200: 20a2 a2bd f8e2 36be 07a9 183f 0c19 a53e
00000210: 9366 973e 28fc 64bc 4dde 94be b65c 613e
00000220: 6396 d53e 1a25 4b3e 9b40 673e bc49 83be
00000230: bbc7 973e 4b06 883e 0f87 3f3e 26a8 83be
00000240: 0e16 69be 0b56 efbe 4cc5 6cbe b3bd 99be
00000250: 28ca 0abf b048 17bf 3c8a 74bb e620 afbd
00000260: 0751 a03e b31f 183d ae8c 42be 4510 29be
00000270: c0f4 033d e0b3 b63d a983 9e3a 987f f23d
00000280: 8f67 bf3e 3e6d e53d 869a 243f 8c6e 483e
00000290: c193 113e 4fcb e73d c815 db3d 1b54 8b3d
000002a0: 6eef b1bc 37db 893d 4188 173d d3f6 033c
000002b0: c4bb cd3e 2b86 c33c dd47 92be cedd a3bd
000002c0: 6736 d73d 10de f23e 1e1e 223e bf7f c53d
000002d0: db68 72bf 6bc1 8bbe 41ed 0bbe 72d6 e3be
000002e0: e860 743e 2722 2abe d52e fd3e 7c90 0a3f
000002f0: 9893 123f d8bd 343f d241 7dbf 9b21 f8be
00000300: aa58 7c3d e17e acbe 9832 a13e 4506 87bf
00000310: a389 e2be bd35 4abe 65c8 04bf b455 eabc

model.input_layers.0.bias f4 [8]
1.6321076 0.37792066 0.22440939 -1.394531 0.31337228 1.1762491 -0.68029696 -0.14660329
00000000: e7e8 d03f d17e c13e 93cb 653e fe7f b2bf
00000010: 5572 a03e 558f 963f f127 2ebf 2c1f 16be

model.hidden_layers.0.weight f4 [8, 8, 5, 5]
-0.05519353 -0.049867995 -0.006047588 -0.021700578 -0.011898871 -0.016478304 -0.060466573 -0.051999
0.04461256 -0.054356594 -0.037748247 -0.08899119 -0.009756222 0.03982104 0.045367137 -0.07668651
0.0063083875 -0.040591687 0.01797382 -0.03971046 -0.06369439 -0.013119157 -0.09092632 -0.03673989
0.03301522 -0.05719354 -0.013419742 -0.03464372 0.0031556017 0.044613793 0.075058855 0.06386568
0.04103399 0.0553703 -0.0036317057 0.046746593 0.063393004 0.02732344 0.065620035 0.0665037
-0.047343884 0.018941237 0.022138638 0.0016095203 -0.038248517 -0.026684342 0.05080783 0.041897606
0.026086405 -0.050817993 -0.3692781 -0.42286265 -0.3957733 -0.38261783 -0.4700125 -0.41906226
-0.3542502 -0.45349875 -0.44853973 -0.4337718 -0.42452168 -0.39079013 -0.38405693 -0.39918214
-0.3343184 -0.40492138 -0.4222494 -0.43561336 -0.3950692 -0.34794098 -0.4668917 -0.41055283
-0.38129562 -0.452717 -0.32739303 -0.63609004 -0.5328235 -0.49132133 -0.527711 -0.5352857
-0.5681458 -0.5149792 -0.45865503 -0.5116076 -0.52854097 -0.5262513 -0.4372172 -0.44296902
-0.5483779 -0.48399255 -0.56289774 -0.5328069 -0.46827224 -0.47839913 -0.59125 -0.53144073
-0.54403585 -0.4841084 -0.586212 -0.5253408 0.13884893 0.10267938 0.06931534 0.06851332
0.08864508 0.12649925 0.15306224 0.09175415 0.0636139 0.057832584 0.20232369 0.19941181
0.16264091 0.13011794 0.15638779 0.18141551 0.11632543 0.17221007 0.15498115 0.107501276
0.18703544 0.12039449 0.14331003 0.18214318 0.15031573 -0.0477234 -0.03563011 0.041192446
-0.10887913 0.008689338 -0.036393832 -0.050792083 -0.062411495 -0.031571165 -0.021092646 0.011411548
-0.09367637 -0.0458295 -0.015520068 -0.07251445 -0.006499088 -0.09512348 -0.06609986 -0.06320229
-0.052191075 -0.061547898 -0.041648827 0.04964967 -0.08867465 0.06075791 -0.08393595 -0.07272808
-0.056492105 0.008857427 -0.07493548 -0.074356735 0.025257928 0.038949944 0.064892866 -0.0029923546
0.09032864 0.08344196 0.06351175 0.1080336 0.11425467 -0.032622855 -0.025380818 0.047340084
0.08749243 0.107112385 -0.06488384 0.021176228 0.07471749 0.043924954 0.018256465 -0.13183051
-0.08693131 -0.13832375 -0.07755109 -0.10820572 -0.14836349 -0.060650405 -0.14689425 -0.08162668
-0.034055524 -0.15426823 -0.12865208 -0.0853156 -0.14816143 -0.11963387 -0.101342894 -0.10038025
-0.06441868 -0.018632943 -0.08959937 -0.055773154 -0.07966303 0.0049544508 -0.02219179 -0.13109502
0.12705615 0.07377566 0.08509419 0.21894339 0.27256328 0.119457826 0.15378387 -0.01500906
0.16819197 0.32159096 0.18079312 0.06791643 0.01891369 0.22106288 0.29003564 0.21042202
0.115568794 0.038140405 0.28174564 0.35208985 0.23877306 0.14953342 0.1449903 0.30285326
0.3879235 -0.099804245 -0.1589176 -0.33023664 -0.18836646 -0.033632778 -0.12302161 -0.08696213
-0.3128657 -0.16131829 -0.11813144 -0.04592875 -0.050543297 -0.31817886 -0.18971404 -0.08918447
-0.009722683 -0.085122235 -0.1772564 -0.17622837 -0.06980342 -0.08748782 -0.04581294 -0.19833416
-0.12583418 -0.061973523 -0.55645376 -0.41959137 -0.28191322 -0.21192192 -0.29367757 -0.41919494
00000000: 9c12 62bd 6242 4cbd d82a c6bb 69c5 b1bc
00000010: 7bf3 42bc 82fd 86bc ccab 77bd e7fc 54bd
00000020: a9bb 363d 05a5 5ebd e89d 1abd 0341 b6bd
00000030: 90d8 1fbc 631b 233d e4d2 393d d10d 9dbd
00000040: 97b6 ce3b 7843 26bd d53d 933c 6fa7 22bd
00000050: 3472 82bd bcf1 56bc 9437 babd 917c 16bd
00000060: f83a 073d c643 6abd 7ade 5bbc 93e6 0dbd
00000070: 36ce 4e3b f4bc 363d 75b8 993d 02cc 823d
00000080: 4213 283d f8cb 623d e901 6ebb 5b79 3f3d
00000090: 31d4 813d 68d5 df3c cc63 863d 1833 883d
000000a0: a9eb 41bd a72a 9b3c 175c b53c 8af6 d23a
000000b0: 7aaa 1cbd 1f99 dabc df1b 503d d39c 2b3d
000000c0: 28b3 d53c 8726 50bd 0512 bdbe 7481 d8be
000000d0: cca2 cabe 7ce6 c3be 7aa5 f0be 548f d6be
000000e0: 4860 b5be fd30 e8be 00a7 e5be 5617 debe
000000f0: e85a d9be a515 c8be 1ca3 c4be 9a61 ccbe
00000100: c82b abbe db51 cfbe 1331 d8be b708 dfbe
00000110: 8346 cabe 5225 b2be 6e0c efbe fb33 d2be
00000120: 2e39 c3be 86ca e7be 0fa0 a7be ccd6 22bf
00000130: 1f67 08bf 788e fbbe 1118 07bf 7c08 09bf
00000140: 0172 11bf add5 03bf d5d4 eabe b7f8 02bf
00000150: 764e 07bf 68b8 06bf efda dfbe d6cc e2be
00000160: 7e62 0cbf dfcd f7be 111a 10bf 0866 08bf
00000170: 61c1 efbe bbf0 f4be 295c 17bf 800c 08bf
00000180: ef45 0bbf 0edd f7be fd11 16bf bc7c 06bf
00000190: 6a2e 0e3e 9149 d23d 33f5 8d3d b650 8c3d
000001a0: 8d8b b53d 0589 013e 59bc 1c3e 9ae9 bb3d
000001b0: 0148 823d dce1 6c3d f12d 4f3e 9c32 4c3e
000001c0: 578b 263e a33d 053e 1f24 203e fdc4 393e
000001d0: 073c ee3d d657 303e 61b3 1e3e a129 dc3d
000001e0: 3886 3f3e 6391 f63d ddbf 123e be83 3a3e
000001f0: 5eec 193e 9d79 43bd e1f0 11bd 69b9 283d
00000200: 05fc debd ba5d 0e3c b311 15bd 5c0b 50bd
00000210: 32a3 7fbd c450 01bd 7cca acbc 80f7 3a3c
00000220: 66d9 bfbd b7b7 3bbd e247 7ebc 7582 94bd
00000230: 4df6 d4bb 19d0 c2bd 5d5f 87bd 3470 81bd
00000240: 4fc6 55bd a619 7cbd f697 2abd 745d 4b3d
00000250: 0e9b b5bd 49dd 783d 9de6 abbd 76f2 94bd
00000260: 4464 67bd be1e 113c c677 99bd 5848 98bd
00000270: b7e9 ce3c fa89 1f3d 8de6 843d 611b 44bb
00000280: 39fe b83d 9ee3 aa3d 7312 823d b840 dd3d
00000290: 5afe e93d 8b9f 05bd 6feb cfbc ade7 413d
000002a0: 3b2f b33d bd5d db3d d2e1 84bd c579 ad3c
000002b0: 7c05 993d a7ea 333d 958e 953c 94fe 06be
000002c0: 0b09 b2bd bea4 0dbe 1bd3 9ebd f69a ddbd
000002d0: 99ec 17be 8f6c 78bd 726b 16be e42b a7bd
000002e0: ce7d 0bbd 7ef8 1dbe 5fbd 03be f2b9 aebd
000002f0: a1b7 17be 9a02 f5bd dd8c cfbd 2994 cdbd
00000300: f1ed 83bd 1da4 98bc e07f b7bd 6472 64bd
00000310: 5f26 a3bd f258 a23b 8fcb b5bc c63d 06be
00000320: 021b 023e b117 973d dd45 ae3d b232 603e
00000330: 6a8d 8b3e 4ea6 f43d 8579 1d3e 8fe8 75bc
00000340: 843a 2c3e 92a7 a43e d521 393e c517 8b3d
00000350: e2f0 9a3c 4f5e 623e 8d7f 943e df78 573e
00000360: 55af ec3d 1d39 1c3d f740 903e 1f45 b43e
00000370: ed80 743e 4a1f 193e 5678 143e 950f 9b3e
00000380: e99d c63e 2b66 ccbd 4cbb 22be c714 a9be
00000390: 23e3 40be 86c2 09bd c1f2 fbbd 3419 b2bd
000003a0: ef2f a0be 9f30 25be e5ee f1bd c91f 3cbd
000003b0: 7d06 4fbd 57e8 a2be 6644 42be 59a6 b6bd
000003c0: e34b 1fbc 9154 aebd b482 35be 3675 34be
000003d0: 18f5 8ebd d02c b3bd 59a6 3bbd 1c18 4bbe
000003e0: adda 00be f3d7 7dbd c173 0ebf aed4 d6be
000003f0: ee56 90be 0f02 59be e85c 96be b8a0 d6be

model.hidden_layers.0.bias f4 [8]
0.20725046 0.65827376 -0.5419608 -0.2626629 0.35553163 -0.6089652 -0.2714048 0.3665885
00000000: 7739 543e a184 283f f1bd 0abf c07b 86be
00000010: 3e08 b63e 25e5 1bbf 92f5 8abe 7db1 bb3e

model.output_layers.0.weight f4 [1, 8, 5, 5]
-0.20120162 -0.214694 -0.38711572 -0.1595155 -0.2898322 -0.26250613 -0.14406765 -0.38922495
-0.13659737 -0.28604865 -0.44693106 -0.42988044 -0.44938114 -0.2677151 -0.45561865 -0.30755082
-0.20655 -0.24198362 -0.17725872 -0.18158942 -0.31500745 -0.22575137 -0.33569396 -0.1224497
-0.16007571 0.39877915 0.16859506 -0.12668926 -0.07684748 -0.08831558 0.23506588 0.16658132
-0.23566647 -0.14389308 -0.01862791 -0.11343577 -0.26179764 -0.6035429 -0.31954443 -0.28234604
-0.0018259089 -0.14316718 -0.4899183 -0.1825375 -0.034644254 -0.086215064 -0.21979953 -0.4785525
-0.21903744 -0.065911405 -0.14731184 -0.046183962 -0.06019393 -0.13945718 -0.16093685 0.018008487
-0.03892433 0.041452747 -0.034744304 -0.06328709 -0.012354603 0.08666875 0.15495141 0.09063496
0.037776683 -0.05525722 -0.04449402 0.08124543 -0.08155352 -0.117 -0.1287338 -0.05035104
0.019525433 -0.10045073 -0.14853664 -0.26991233 -0.18079114 -0.26220137 -0.18013248 -0.2043329
-0.12921987 -0.1357747 -0.120421946 -0.20820798 -0.15889059 -0.16802195 -0.10965 -0.22056587
-0.14227468 -0.14774914 -0.18563649 -0.16010347 -0.21390663 -0.18171926 -0.24125043 -0.16657066
-0.19939691 -0.3195173 -0.24074651 -0.28538805 -0.4624721 -0.19429791 -0.5193648 0.08771884
0.17546035 -0.4903526 -0.08997157 -0.46260622 0.09505717 0.09239411 -1.0723193 -0.7057303
-1.0522206 -0.41122183 -0.34014222 -0.4418667 -0.12739326 -0.50593483 0.1598389 0.1789513
-0.19581014 0.052682813 -0.45668933 0.23524114 0.41960114 -0.49149388 -0.28210944 0.010620821
-0.1398323 -0.2511143 -0.39599785 -0.10480493 0.11791297 -0.14892054 -0.23102047 -0.046082836
0.056082886 0.36754367 0.036579896 0.027447544 -0.17418739 0.018893387 0.22786228 0.016761286
-0.048823163 -0.16904114 -0.0092052445 0.29730314 -0.033981763 -0.020519765 0.22817443 0.16863726
-0.3343464 0.23272997 0.31326267 -0.074490525 -0.150871 -0.48834118 -0.08735796 0.061099768
-0.50090325 -0.5744442 -0.9925828 -0.5222042 -0.4567228 -0.029809682 -0.079699114 -0.5606647
-0.072383106 -0.01741717 0.23563388 0.04521726 -0.4337598 -0.08950707 0.15612149 -0.03260847
-0.28182888 -0.5126596 -0.2767793 -0.1232607 0.05328347 -0.19237353 -0.4047868 -0.13015917
0.017833736 -0.16733164 -0.28087318 -0.4975489 -0.20995788 -0.10940125 0.0997992 -0.06144427
-0.31262287 -0.0037875904 0.08625104 0.08884729 -0.001999276 -0.23681365 0.0006458232 0.16128863
00000000: cc07 4ebe bed8 5bbe 0834 c6be 0858 23be
00000010: e364 94be 3467 86be 7886 13be 7e48 c7be
00000020: 2ee0 0bbe f874 92be 26d4 e4be 4a19 dcbe
00000030: 4915 e6be f411 89be d946 e9be 4d77 9dbe
00000040: d881 53be 8eca 77be 4f83 35be 94f2 39be
00000050: a848 a1be 5e2b 67be 14e0 abbe e9c6 fabd
00000060: e3ea 23be c82c cc3e 2fa4 2c3e d4ba 01be
00000070: 3662 9dbd ccde b4bd 1cb5 703e 4b94 2a3e
00000080: 8d52 71be b558 13be 8f99 98bc 0351 e8bd
00000090: 570a 86be ca81 1abf 549b a3be a98f 90be
000000a0: 5653 efba 6b9a 12be 92d6 fabe 1ceb 3abe
000000b0: 22e7 0dbd 8691 b0bd 2113 61be d504 f5be
000000c0: 5a4b 60be 8ffc 86bd ead8 16be 652b 3dbd
000000d0: e98d 76bd ddcd 0ebe a1cc 24be 8986 933c
000000e0: 1e6f 1fbd 5bca 293d 0b50 0ebd a99c 81bd
000000f0: f66a 4abc 637f b13d 95ab 1e3e d29e b93d
00000100: b9bb 1a3d 6555 62bd 5d3f 36bd 0164 a63d
00000110: 8805 a7bd b29d efbd cbd2 03be e43c 4ebd
00000120: cdf3 9f3c 1db9 cdbd fd19 18be f331 8abe
00000130: 5021 39be 423f 86be a674 38be a53c 51be
00000140: 3752 04be 8608 0bbe c89f f6bd 7934 55be
00000150: 37b4 22be f20d 2cbe 2e90 e0bd 05dc 61be
00000160: 74b0 11be 8d4b 17be 7e17 3ebe 2af2 23be
00000170: 570a 5bbe 9d14 3abe 5a0a 77be 8091 2abe
00000180: b42e 4cbe c697 a3be 4186 76be 621e 92be
00000190: 25c9 ecbe 08f6 46be 17f5 04bf efa5 b33d
000001a0: e1ab 333e 7f0f fbbe 0443 b8bd b9da ecbe
000001b0: 55ad c23d 2039 bd3d c241 89bf beaa 34bf
000001c0: 2aaf 86bf ab8b d2be 1f27 aebe 5a3c e2be
000001d0: 6173 02be f284 01bf cfac 233e 023f 373e
000001e0: 7482 48be efc9 573d 2fd3 e9be 0ee3 703e
000001f0: f6d5 d63e 16a5 fbbe a670 90be f402 2e3c
00000200: 3330 0fbe 0e92 80be 3bc0 cabe f8a3 d6bd
00000210: 5b7c f13d a07e 18be a190 6cbe 5bc1 3cbd
00000220: 2bb7 653d af2e bc3e cdd4 153d acd9 e03c
00000230: 2e5e 32be 4ec6 9a3c bb54 693e f74e 893c
00000240: ccfa 47bd 1f19 2dbe 98d1 16bc 1e38 983e
00000250: 7630 0bbd 1119 a8bc 8fa6 693e 3faf 2c3e
00000260: 742f abbe c450 6e3e f763 a03e 7d8e 98bd
00000270: ed7d 1abe db07 fabe bbe8 b2bd c043 7a3d
00000280: 323b 00bf c60e 13bf e819 7ebf 2daf 05bf
00000290: 92d7 e9be 6f33 f4bc 4a39 a3bd b987 0fbf
000002a0: 983d 94bd 74ae 8ebc 024a 713e bc35 393d
000002b0: c415 debe 7c4f b7bd 50de 1f3e 7690 05bd
000002c0: e04b 90be a93d 03bf 04b6 8dbe 1b70 fcbd
000002d0: c53f 5a3d 91fd 44be 3740 cfbe 7248 05be
000002e0: 0e18 923c fc58 2bbe 9cce 8fbe bbbe febe
000002f0: 33ff 56be c30d e0bd 8663 cc3d fdac 7bbd
00000300: 1b10 a0be 3939 78bb 63a4 b03d 91f5 b53d
00000310: 4906 03bb 477f 72be 764c 293a d928 253e

exp_avg f4 [8]
-0.000844852 -0.00025306104 2.9918978e-05 -0.00024945827 -0.0013030975 -0.0003848561 -0.0011214312 -0.00061027857
00000000: 0f79 5dba 47ad 84b9 84fa fa37 b9c9 82b9
00000010: b2cc aaba 83c6 c9b9 fdfc 92ba 1afb 1fba

exp_avg_sq f4 [8]
0.00027353072 0.00016691617 8.713207e-08 5.842855e-05 0.0012986585 6.53738e-05 0.00052132236 0.00031754462
00000000: ac68 8f39 3806 2f39 5d1d bb33 2e11 7538
00000010: c037 aa3a 4b19 8938 5aa9 083a 1e7c a639

exp_avg f4 [8, 1, 5, 5]
-0.00032236776 -0.00040281616 -0.00046848654 -0.00050564576 -0.00054174516 -0.00029680843 -0.00038430738 -0.0004479572
-0.0004716851 -0.00050012715 -0.0002750758 -0.00036507915 -0.00042640898 -0.00043738677 -0.00045726178 -0.0002799067
-0.000352857 -0.0004111277 -0.000424719 -0.0004451177 -0.00028684732 -0.00033960224 -0.00038830534 -0.00040476053
-0.00042818027 -0.00027773867 -0.00033643015 -0.00039902976 -0.00044590712 -0.0004762736 -0.00023794657 -0.0002968629
-0.00035671474 -0.00040702333 -0.00043764993 -0.00022196154 -0.000267236 -0.00031941195 -0.0003728266 -0.00040517378
-0.00023985028 -0.0002657509 -0.0003068044 -0.0003605682 -0.0003949336 -0.00025170547 -0.00026133916 -0.000292914
-0.00033853197 -0.00036883337 -3.201271e-06 -3.039612e-06 -3.0675017e-06 -2.7546969e-06 -2.53219e-06 -2.6896212e-06
-2.4570707e-06 -2.471272e-06 -2.2029153e-06 -2.0958753e-06 -2.4099877e-06 -2.1141627e-06 -2.0683367e-06 -1.8123203e-06
-1.7861462e-06 -2.232252e-06 -1.8843947e-06 -1.7511891e-06 -1.4351883e-06 -1.3900072e-06 -2.2608863e-06 -1.8619331e-06
-1.6349768e-06 -1.2249361e-06 -1.1048357e-06 -5.3276573e-05 -6.4521824e-05 -6.9669106e-05 -7.527502e-05 -8.950802e-05
-6.0269744e-05 -6.603869e-05 -6.8259265e-05 -7.129067e-05 -8.540151e-05 -6.492057e-05 -6.8721274e-05 -6.9140086e-05
-7.067525e-05 -8.41768e-05 -5.6898003e-05 -6.078635e-05 -6.1549006e-05 -6.349867e-05 -7.5751384e-05 -4.9022165e-05
-5.3909454e-05 -5.643747e-05 -5.8910307e-05 -6.8589296e-05 -0.00025244895 -0.00032461074 -0.00040105882 -0.00044225407
-0.0005108914 -0.00025319733 -0.00033127668 -0.0004164892 -0.00046026064 -0.0005201075 -0.00026437838 -0.0003367759
-0.00041890042 -0.0004613468 -0.0005128559 -0.0002947144 -0.0003522459 -0.00041859987 -0.0004601249 -0.0005103305
-0.00031705934 -0.00035491362 -0.00040209616 -0.0004366152 -0.00048522477 -2.6395688e-05 -3.0611605e-05 -3.7925838e-05
-3.0169143e-05 -3.8709386e-05 -1.9683324e-05 -2.4136372e-05 -3.3933014e-05 -3.0596417e-05 -4.420303e-05 -2.2204898e-05
-2.759856e-05 -3.9538383e-05 -3.848571e-05 -5.2610685e-05 -9.449727e-06 -1.5530533e-05 -2.9931347e-05 -2.9283503e-05
-4.1490326e-05 -3.881815e-06 -9.6582335e-06 -2.3825603e-05 -2.2736944e-05 -3.4009216e-05 -0.0002975696 -0.00034594088
-0.00037648494 -0.0004187443 -0.00046824737 -0.00030929878 -0.00033851876 -0.00035142712 -0.0003853519 -0.00043420822
-0.00029994154 -0.0003134459 -0.0003185118 -0.00034662496 -0.00039347357 -0.0002749698 -0.00028276475 -0.0002903584
-0.00032138554 -0.00036320763 -0.0002734355 -0.00027880396 -0.0002883986 -0.00031936087 -0.00035311907 -0.00014727903
-0.00017464874 -0.00019060825 -0.00021343939 -0.00023694504 -0.00014070439 -0.0001802521 -0.00020084548 -0.00022642057
-0.00024906054 -0.00015728737 -0.0002020474 -0.0002240792 -0.00024556517 -0.00026160866 -0.00016493449 -0.00021756925
-0.00024368083 -0.00026467704 -0.00027609756 -0.0001941221 -0.00024728852 -0.00027757345 -0.00030047738 -0.0003105071
00000000: 7803 a9b9 1231 d3b9 339f f5b9 508d 04ba
00000010: e703 0eba f49c 9bb9 dd7c c9b9 ccdb eab9
00000020: 814c f7b9 f71a 03ba 0d38 90b9 1868 bfb9
00000030: a58f dfb9 0f51 e5b9 a3bc efb9 71c0 92b9
00000040: aaff b8b9 a08c d7b9 d2ac deb9 b05e e9b9
00000050: ff63 96b9 a40c b2b9 7695 cbb9 0a36 d4b9
00000060: 627d e0b9 749d 91b9 e462 b0b9 de34 d1b9
00000070: a4c8 e9b9 5cb4 f9b9 4c81 79b9 44a4 9bb9
00000080: 7105 bbb9 bf65 d5b9 6174 e5b9 59be 68b9
00000090: cf1b 8cb9 bf76 a7b9 f077 c3b9 816d d4b9
000000a0: 5280 7bb9 7b54 8bb9 97da a0b9 a50a bdb9
000000b0: 170f cfb9 56f7 83b9 5904 89b9 4092 99b9
000000c0: fe7c b1b9 fa5f c1b9 6bd5 56b6 23fc 4bb6
000000d0: 47db 4db6 55dd 38b6 b1ee 29b6 577f 34b6
000000e0: 27e4 24b6 21d8 25b6 ccd5 13b6 dda6 0cb6
000000f0: 46bb 21b6 0ae1 0db6 c1cd 0ab6 da3e f3b5
00000100: 84bb efb5 cccd 15b6 4feb fcb5 660a ebb5
00000110: b2a0 c0b5 4990 bab5 bbb9 17b6 89e7 f9b5
00000120: 6071 dbb5 7c68 a4b5 de49 94b5 4975 5fb8
00000130: e44f 87b8 511b 92b8 f8dc 9db8 41b6 bbb8
00000140: 25ca 7cb8 407e 8ab8 6a26 8fb8 e381 95b8
00000150: 9619 b3b8 f725 88b8 741e 90b8 4dff 90b8
00000160: 7c37 94b8 1388 b0b8 c4a5 6eb8 d9f4 7eb8
00000170: df13 81b8 972a 85b8 b7dc 9eb8 269d 4db8
00000180: d61c 62b8 46b7 6cb8 7616 77b8 99d7 8fb8
00000190: 205b 84b9 8430 aab9 3445 d2b9 56de e7b9
000001a0: 57ed 05ba 92bf 84b9 34af adb9 3c5c dab9
000001b0: 234f f1b9 d357 08ba 449c 8ab9 4c91 b0b9
000001c0: dd9f dbb9 ebe0 f1b9 2d71 06ba e683 9ab9
000001d0: a5ad b8b9 8677 dbb9 eb3c f1b9 b3c7 05ba
000001e0: fc3a a6b9 b313 bab9 6fd0 d2b9 80e9 e4b9
000001f0: c465 feb9 4f6c ddb7 f664 00b8 8f12 1fb8
00000200: be13 fdb7 e35b 22b8 9e1d a5b7 7778 cab7
00000210: 4c53 0eb8 a754 00b8 a466 39b8 a844 bab7
00000220: 7583 e7b7 04d6 25b8 b76b 21b8 4baa 5cb8
00000230: 458a 1eb7 9147 82b7 1415 fbb7 d8a5 f5b7
00000240: e605 2eb8 8940 82b6 cc09 22b7 18dd c7b7
00000250: 37bb beb7 1ea5 0eb8 1e03 9cb9 665f b5b9
00000260: f462 c5b9 e98a dbb9 197f f5b9 6129 a2b9
00000270: 387b b1b9 c03f b8b9 0e09 cab9 71a6 e3b9
00000280: 7941 9db9 ff55 a4b9 eefd a6b9 37bb b5b9
00000290: 214b ceb9 d229 90b9 0b40 94b9 3f3b 98b9
000002a0: a37f a8b9 e76c beb9 e45b 8fb9 6f2c 92b9
000002b0: 3434 97b9 e46f a7b9 d722 b9b9 ea6e 1ab9
000002c0: ea21 37b9 03de 47b9 b3ce 5fb9 7374 78b9
000002d0: 0c8a 13b9 0e02 3db9 0c9a 52b9 4f6b 6db9
000002e0: 5794 82b9 82ed 24b9 b0dc 53b9 cdf6 6ab9
000002f0: 33bf 80b9 8528 89b9 44f2 2cb9 4d23 64b9
00000300: 9384 7fb9 5ac4 8ab9 30c1 90b9 418d 4bb9
00000310: 81a6 81b9 4787 91b9 6489 9db9 8fcb a2b9

exp_avg_sq f4 [8, 1, 5, 5]
5.1345555e-06 5.440136e-06 5.4428483e-06 5.222802e-06 4.9464265e-06 5.2749483e-06 5.619993e-06 5.6310932e-06
5.346481e-06 4.995727e-06 5.2279693e-06 5.598541e-06 5.6231734e-06 5.3159647e-06 4.9340574e-06 4.8106886e-06
5.145184e-06 5.191933e-06 4.940514e-06 4.60584e-06 4.229819e-06 4.5008424e-06 4.555293e-06 4.382285e-06
4.1306344e-06 1.2167361e-06 1.2606257e-06 1.3226455e-06 1.3470453e-06 1.3157716e-06 1.1115872e-06 1.1782024e-06
1.2662751e-06 1.3214951e-06 1.3080166e-06 1.1087506e-06 1.1776008e-06 1.267579e-06 1.3232952e-06 1.3066109e-06
1.1122502e-06 1.1675628e-06 1.2395917e-06 1.276232e-06 1.245622e-06 1.1004381e-06 1.1400581e-06 1.1877104e-06
1.1982258e-06 1.1545723e-06 2.325406e-10 1.9208711e-10 1.451901e-10 9.4906874e-11 5.9348595e-11 2.0396897e-10
1.6443832e-10 1.2012837e-10 7.561375e-11 4.6210702e-11 1.704779e-10 1.3400928e-10 9.399497e-11 5.7420964e-11
3.4529126e-11 1.349326e-10 1.0343881e-10 7.021139e-11 4.2067853e-11 2.5331471e-11 1.0217532e-10 7.61376e-11
5.135243e-11 3.0686256e-11 1.9165869e-11 1.2918792e-05 1.3263459e-05 1.332586e-05 1.29720165e-05 1.23994105e-05
1.3297873e-05 1.3675331e-05 1.375704e-05 1.3402181e-05 1.2817436e-05 1.3521063e-05 1.3925448e-05 1.4028126e-05
1.368177e-05 1.3099026e-05 1.3416876e-05 1.3834767e-05 1.3955368e-05 1.363181e-05 1.3073031e-05 1.3123205e-05
1.35411965e-05 1.3673831e-05 1.337769e-05 1.2854768e-05 5.4058046e-06 6.044255e-06 6.733059e-06 7.0090136e-06
7.240835e-06 5.319769e-06 5.907111e-06 6.6184434e-06 6.979621e-06 7.3002593e-06 5.434204e-06 5.9754725e-06
6.6677976e-06 7.024689e-06 7.354053e-06 5.4946017e-06 6.011692e-06 6.630087e-06 6.900851e-06 7.1471695e-06
5.740701e-06 6.2600984e-06 6.806526e-06 6.968989e-06 7.1114205e-06 5.9355482e-08 6.4169626e-08 7.0099766e-08
7.001337e-08 7.076946e-08 5.957939e-08 6.4692934e-08 7.0813556e-08 7.0482855e-08 7.139694e-08 6.6585166e-08
7.1781585e-08 7.979181e-08 7.8944986e-08 7.96499e-08 7.3507834e-08 7.915318e-08 8.8260485e-08 8.6794095e-08
8.6212026e-08 8.090352e-08 8.7940556e-08 9.881833e-08 9.752534e-08 9.6288794e-08 4.447557e-05 4.6889814e-05
4.8974463e-05 4.7208967e-05 4.5286637e-05 4.6794506e-05 4.9503284e-05 5.1766558e-05 4.9932096e-05 4.7874055e-05
4.8700633e-05 5.1625735e-05 5.404694e-05 5.2200747e-05 5.0099876e-05 4.7013098e-05 4.9886046e-05 5.2287156e-05
5.057635e-05 4.865423e-05 4.4944198e-05 4.7684327e-05 5.002595e-05 4.8471007e-05 4.6757512e-05 1.8591129e-06
2.1946787e-06 2.430113e-06 2.4561136e-06 2.462051e-06 1.7371399e-06 2.1001188e-06 2.3709385e-06 2.4401309e-06
2.4870312e-06 1.6976128e-06 2.0724997e-06 2.366152e-06 2.4601804e-06 2.5333477e-06 1.5350151e-06 1.8774301e-06
2.1503104e-06 2.2423505e-06 2.3224657e-06 1.3513688e-06 1.6575385e-06 1.8915127e-06 1.9528582e-06 2.0076882e-06
00000000: 7f49 ac36 6a8a b636 b6a1 b636 873f af36
00000010: 7bf9 a536 76ff b036 5f93 bc36 b9f2 bc36
00000020: ec65 b336 f8a0 a736 ea6b af36 1adb bb36
00000030: b1ae bc36 ca5f b236 3b8f a536 806b a136
00000040: cba4 ac36 5d36 ae36 b1c6 a536 dd8b 9a36
00000050: deed 8d36 f105 9736 abd9 9836 8b0b 9336
00000060: e199 8a36 bc4e a335 c532 a935 c185 b135
00000070: 20cc b435 9199 b035 d831 9535 ba22 9e35
00000080: e2f4 a935 3a5e b135 1c8f af35 61d0 9435
00000090: 0e0e 9e35 af21 aa35 149c b135 cf5e af35
000000a0: a048 9535 27b5 9c35 0c60 a635 ff4a ab35
000000b0: 3f2f a735 c4b2 9335 1904 9935 6b69 9f35
000000c0: bad2 a035 cdf6 9a35 5cae 7f2f b733 532f
000000d0: 61a3 1f2f d2b3 d02e 4a82 822e 2944 602f
000000e0: 46cd 342f 2115 042f c246 a62e a03c 4b2e
000000f0: 4371 3b2f 4258 132f 77b2 ce2e 428a 7c2e
00000100: 57dc 172e 275c 142f e076 e32e 8065 9a2e
00000110: 3104 392e 67d1 de2d 97af e02e a96d a72e
00000120: b2d9 612e a7f5 062e b395 a82d cabd 5837
00000130: 1f86 5e37 2292 5f37 63a2 5937 1007 5037
00000140: ee19 5f37 196f 6537 09ce 6637 eed9 6037
00000150: 780a 5737 86d8 6237 58a1 6937 585a 6b37
00000160: c18a 6537 e3c3 5b37 0b19 6137 df1b 6837
00000170: d921 6a37 2eb4 6437 3e54 5b37 bc2b 5c37
00000180: ff2e 6337 a868 6537 be70 6037 cfaa 5737
00000190: 8263 b536 c1cf ca36 89ec e136 f82e eb36
000001a0: 4df6 f236 7880 b236 b235 c636 ff13 de36
000001b0: 7d32 ea36 c0f4 f436 7557 b636 eb80 c836
000001c0: f2bb df36 9eb5 eb36 d6c2 f636 455e b836
000001d0: 0bb8 c936 0378 de36 dc8d e736 b8d1 ef36
000001e0: 3fa0 c036 d60d d236 9d63 e436 29d7 e936
000001f0: a39e ee36 0bee 7e33 a0cd 8933 c189 9633
00000200: 425a 9633 ecf9 9733 3be4 7f33 51ed 8a33
00000210: 2a12 9833 5c5c 9733 e252 9933 95fd 8e33
00000220: 5826 9a33 035a ab33 7788 a933 ff0b ab33
00000230: 5cdb 9d33 ecfa a933 b789 bd33 8f63 ba33
00000240: 9023 b933 2ebd ad33 d5d9 bc33 f435 d433
00000250: 1f6f d133 53c7 ce33 488b 3a38 8eab 4438
00000260: ee69 4d38 3e02 4638 28f2 3d38 3845 4438
00000270: bfa1 4f38 eb1f 5938 2e6e 5138 60cc 4838
00000280: e843 4c38 b688 5838 76b0 6238 20f2 5a38
00000290: 5522 5238 ee2f 4538 bc3c 5138 e84e 5b38
000002a0: f121 5438 1512 4c38 7782 3c38 a800 4838
000002b0: f4d2 5138 594d 4b38 7f1d 4438 a286 f935
000002c0: 4b48 1336 0615 2336 b6d3 2436 b739 2536
000002d0: ac27 e935 c4ef 0c36 6a1c 1f36 21c1 2336
000002e0: dfe6 2636 88d9 e335 4615 0b36 2fca 1e36
000002f0: 9419 2536 9502 2a36 b806 ce35 02fc fb35
00000300: 0d4e 1036 4a7b 1636 a8db 1b36 ae60 b535
00000310: 9778 de35 e2df fd35 d90d 0336 d2bb 0636

exp_avg f4 [8]
0.00056341075 0.0002811713 3.9494576e-06 -0.00014359309 -0.0003933841 -2.3851875e-05 -0.0010235816 -0.00022653308
00000000: dbb1 133a 2c6a 9339 9585 8436 7a91 16b9
00000010: 1f3f ceb9 8315 c8b7 b329 86ba 8389 6db9

exp_avg_sq f4 [8]
1.5606462e-05 7.760245e-05 4.571678e-09 4.5663175e-05 0.00042600534 3.9094766e-06 0.00034093612 0.00013121827
00000000: 9fea 8237 80be a238 e814 9d31 7686 3f38
00000010: 7859 df39 262e 8336 acbf b239 a397 0939

exp_avg f4 [8, 8, 5, 5]
-3.8727848e-13 -4.4238997e-13 -4.524427e-14 -5.3079253e-13 -2.711684e-13 -3.55969e-14 -5.7281904e-14 -1.08926235e-13
-9.94892e-13 -1.1005674e-12 6.823352e-12 5.837586e-12 3.4847318e-12 -2.320115e-11 -2.4037182e-11 5.5747442e-12
4.4000966e-12 -3.996273e-12 -2.8205382e-11 -2.8601017e-11 1.0592506e-11 6.8248554e-12 1.3903596e-11 -1.3807852e-11
-4.508771e-12 -5.227459e-13 -4.2667798e-13 -1.3837684e-12 -8.7103724e-13 -1.1833151e-12 -5.9236616e-13 -2.439733e-13
-1.1604411e-12 -2.8353958e-13 -3.1543518e-13 -4.3396333e-12 -5.708339e-13 -3.6007804e-11 -3.2213218e-11 -3.4107765e-11
-2.3164166e-14 5.267249e-12 -2.7950186e-11 -1.938908e-11 -2.7347463e-11 -9.74681e-13 4.7322753e-12 -3.0701386e-11
-2.3103706e-11 -2.9624355e-11 -1.3885738e-13 -1.4808865e-13 -5.106412e-13 -3.4979395e-13 -3.5605695e-13 -3.6835888e-13
-3.7693131e-13 -1.1585084e-12 -7.5947614e-13 -7.7056823e-13 -1.5297924e-11 -1.6376223e-11 -7.698595e-11 -6.1709256e-11
-6.1528935e-11 -1.5819804e-11 -1.6895154e-11 -7.72002e-11 -6.1346976e-11 -6.118948e-11 -1.5846373e-11 -1.6939736e-11
-7.730816e-11 -6.134735e-11 -6.1224095e-11 -1.3433501e-13 6.966876e-14 -5.4958533e-13 -6.735174e-13 -7.415186e-13
-2.6005814e-13 -1.1631027e-13 -1.0367695e-12 -9.940072e-13 -1.0419896e-12 -1.5394897e-11 -1.6272221e-11 -7.795431e-11
-6.310084e-11 -6.2912335e-11 -1.5932804e-11 -1.6754657e-11 -7.795408e-11 -6.259988e-11 -6.236008e-11 -1.6044709e-11
-1.6883692e-11 -7.80339e-11 -6.260229e-11 -6.235812e-11 -6.9491494e-13 -7.2640234e-13 -2.1850091e-12 -1.1677246e-12
-1.6292561e-12 -8.216993e-13 -8.938511e-13 -2.5895128e-12 -1.3870011e-12 -1.945346e-12 -1.06015e-11 -1.3260962e-11
-6.431247e-11 -5.1801115e-11 -5.6057683e-11 -1.019236e-11 -1.3172271e-11 -6.277932e-11 -4.754361e-11 -5.4171386e-11
-1.1083159e-11 -1.4138326e-11 -6.3357056e-11 -4.895945e-11 -5.482389e-11 -8.5705076e-13 -5.776953e-13 2.6934173e-13
-1.9249595e-14 -1.0557947e-12 -7.421671e-13 -6.3912764e-13 -3.919998e-13 -1.0054887e-12 -1.3969235e-12 5.337229e-12
4.324912e-12 2.8737025e-11 2.5083196e-11 2.3563667e-11 3.959948e-12 -7.594163e-13 2.2620815e-11 2.4820309e-11
1.6849406e-11 -3.6667505e-12 -7.661141e-12 1.49252e-11 -1.9409703e-11 -5.0333064e-11 -6.3762147e-13 -6.529296e-13
-1.888753e-12 -1.3453456e-12 -1.4754301e-12 -8.184226e-13 -7.9593575e-13 -2.3112575e-12 -1.6448837e-12 -1.7835321e-12
-1.3929649e-11 -1.4859801e-11 -6.965949e-11 -5.6193005e-11 -5.6313402e-11 -1.40193265e-11 -1.4890946e-11 -6.87751e-11
-5.515359e-11 -5.5015957e-11 -1.402981e-11 -1.5021913e-11 -6.899932e-11 -5.5207495e-11 -5.5004615e-11 6.650462e-13
7.304206e-13 -7.415546e-13 -1.053153e-12 1.7507448e-12 5.766991e-13 7.986527e-13 -1.1514975e-12 -1.8531177e-12
6.7312237e-13 8.437493e-12 1.0266873e-11 -3.3552706e-11 -3.624691e-11 4.7167395e-11 1.1969222e-11 1.2301486e-11
-2.5780253e-11 -1.6144931e-11 5.0801918e-11 1.1093516e-11 1.1954558e-11 -3.0716183e-11 -3.624767e-11 5.042754e-11
-1.0273809e-12 -1.4380845e-12 -4.994191e-11 -5.1874716e-11 -5.0832616e-11 -1.0302263e-12 -1.4415864e-12 -5.1277895e-11
-5.3089765e-11 -5.3370794e-11 -1.0776313e-12 -1.4906093e-12 -5.0904555e-11 -5.4058466e-11 -5.4628163e-11 -7.109018e-14
-1.0488329e-13 -1.4819157e-12 -2.8669107e-12 -2.9238166e-12 1.9160686e-15 8.08311e-15 7.7120764e-13 -3.9688375e-13
2.1015099e-13 -1.0380616e-12 -1.4218416e-12 -5.274432e-11 -4.942155e-11 -5.2163125e-11 -8.6785917e-13 -1.0485051e-12
-4.6371223e-11 -3.951917e-11 -3.9897165e-11 -1.0344298e-12 -1.371852e-12 -5.0372824e-11 -4.8543673e-11 -5.0890327e-11
-6.109571e-14 -9.365021e-14 -2.6446235e-12 -2.1750208e-12 -2.5359322e-12 2.2057676e-14 4.1685043e-14 -1.2241699e-12
-9.267369e-13 -1.2765862e-12 1.2577592e-12 1.8306572e-12 5.8325816e-11 5.743052e-11 5.736012e-11 1.2581615e-12
00000000: b604 daaa 1d0b f9aa 18c3 4ba9 a267 15ab
00000010: 7ca7 98aa 6e50 20a9 c5fc 80a9 b347 f5a9
00000020: c304 8cab 1fe4 9aab 4b13 f02c 4d64 cd2c
00000030: 5937 752c 5814 ccad ec6e d3ad d524 c42c
00000040: 8cd0 9a2c 3a9b 8cac e018 f8ad c493 fbad
00000050: 6858 3a2d d520 f02c 3b98 742d 0ae9 72ad
00000060: 66a3 9eac d023 13ab c732 f0aa 83bf c2ab
00000070: d92c 75ab 6b89 a6ab 7bbc 26ab 4258 89aa
00000080: 4c51 a3ab 5c9e 9faa 0093 b1aa f1af 98ac
00000090: ebac 20ab 2f5d 1eae dcac 0dae ee01 16ae
000000a0: eea4 d0a8 2953 b92c 39da f5ad 548c aaad
000000b0: 038d f0ad 952c 89ab 8c80 a62c b006 07ae
000000c0: ec38 cbad 0f4a 02ae ea56 1caa a6bb 26aa
000000d0: 94bb 0fab 9fea c4aa 3771 c8aa 1c5e cfaa
000000e0: 8731 d4aa aa0b a3ab 06c6 55ab 4be5 58ab
000000f0: dd8f 86ad fa0b 90ad 3d4b a9ae 39b3 87ae
00000100: b64d 87ae 0827 8bad 819c 94ad d9c3 a9ae
00000110: 47e7 86ae 9d8e 86ae dc62 8bad e500 95ad
00000120: a000 aaae 7de7 86ae 1aa2 86ae 6e3f 17aa
00000130: 4ee1 9c29 ccb1 1aab 0b94 3dab 0cb8 50ab
00000140: 5466 92aa 27f4 02aa 8fe9 91ab e2e4 8bab
00000150: a2a5 92ab 3a6a 87ad c921 8fad 606c abae
00000160: 9dc2 8aae 7f58 8aae 7c25 8cad 2260 93ad
00000170: 3f6c abae 99a8 89ae 9b21 89ae 7921 8dad
00000180: b282 94ad 2e99 abae f5a9 89ae 8020 89ae
00000190: e699 43ab ce76 4cab a0c1 19ac b657 a4ab
000001a0: 234c e5ab ad49 67ab c298 7bab 8438 36ac
000001b0: fb33 c3ab 3de4 08ac e980 3aad 104a 69ad
000001c0: b46c 8dae dfd2 63ae 578b 76ae 4f4e 33ad
000001d0: a3ba 67ad 9e0d 8aae 5919 51ae 8f3f 6eae
000001e0: 1cfa 42ad 5cb9 78ad da52 8bae 7153 57ae
000001f0: 361e 71ae 043d 71ab 559b 22ab 3ca0 972a
00000200: 8b62 ada8 0397 94ab c7e6 50ab 00e6 33ab
00000210: 20ad dcaa 8c82 8dab 7999 c4ab 7cc9 bb2c
00000220: 582b 982c 07c6 fc2d 56a2 dc2d a944 cf2d
00000230: 0a54 8b2c b6c1 55ab 8cf9 c62d 5e52 da2d
00000240: 7d35 942d 2703 81ac b6c6 06ad 9048 832d
00000250: c4ba aaad fe5d 5dae 7879 33ab 89c8 37ab
00000260: c0e8 04ac 2f57 bdab f9a5 cfab 905d 66ab
00000270: 3709 60ab eaa3 22ac 2e7f e7ab 8402 fbab
00000280: 900d 75ad 4cb5 82ad cf2e 99ae b323 77ae
00000290: 41ab 77ae 6fa1 76ad 6efb 82ad f03c 97ae
000002a0: 6c91 72ae 76f6 71ae a6d0 76ad 5722 84ad
000002b0: 2abb 97ae 1dce 72ae b1e9 71ae a131 3b2b
000002c0: 5a98 4d2b a4ba 50ab d637 94ab 3b65 f62b
000002d0: 8d53 222b fecc 602b 120f a2ab cd66 02ac
000002e0: 9477 3d2b 176f 142d e39d 342d fd90 13ae
000002f0: 656a 1fae c471 4f2e 9590 522d f868 582d
00000300: f8c3 e2ad 2703 8ead e06d 5f2e c128 432d
00000310: 8b4e 522d 5917 07ae 406b 1fae 5dc8 5d2e
00000320: 4c97 90ab 7464 caab 98a5 5bae bd25 64ae
00000330: 7090 5fae d0fd 90ab a0e2 caab c785 61ae
00000340: c37d 69ae 2cba 6aae c2a9 97ab dcc8 d1ab
00000350: 6fe1 5fae 6cc0 6dae d841 70ae b314 a0a9
00000360: 1a2d eca9 a48f d0ab acbd 49ac ccbe 4dac
00000370: 3a11 0a27 c49c 1128 5e13 592b fa6c dfaa
00000380: e69b 6c2a 1c18 92ab 3e1b c8ab d3f8 67ae
00000390: b85b 59ae 756a 65ae d847 74ab 6190 93ab
000003a0: 5bf1 4bae a1ce 2dae 3778 2fae 4395 91ab
000003b0: 2d12 c1ab c28a 5dae 517f 55ae 6ad1 5fae
000003c0: 4793 89a9 ace1 d2a9 4d19 3aac b10d 19ac
000003d0: 4b73 32ac 8aad c628 95bb 3b29 5e49 acab
000003e0: 376d 82ab dda9 b3ab 8d03 b12b 30d2 002c
000003f0: 8442 802e 0495 7c2e c145 7c2e 0c12 b12b

exp_avg_sq f4 [8, 8, 5, 5]
1.6485766e-15 1.6552664e-15 1.6666061e-15 1.6434933e-15 1.6206143e-15 1.7079241e-15 1.7161295e-15 1.7277295e-15
1.703047e-15 1.6796793e-15 1.7247461e-15 1.7336332e-15 1.7452884e-15 1.7210453e-15 1.7001975e-15 1.6345808e-15
1.6380085e-15 1.6456261e-15 1.621578e-15 1.603522e-15 1.546194e-15 1.5497744e-15 1.5577488e-15 1.5313462e-15
1.5131905e-15 1.9872107e-15 1.9971449e-15 2.0164454e-15 1.9748976e-15 1.9343526e-15 1.9945595e-15 2.0031645e-15
2.0218378e-15 1.9806013e-15 1.9426243e-15 2.019087e-15 2.0265795e-15 2.0439663e-15 2.0008494e-15 1.9632786e-15
1.9860333e-15 1.9916692e-15 2.0074859e-15 1.9654305e-15 1.9295023e-15 1.9653633e-15 1.970754e-15 1.985753e-15
1.9438544e-15 1.9084607e-15 1.6597071e-15 1.6651094e-15 1.6979572e-15 1.6493237e-15 1.6035732e-15 1.6902799e-15
1.6957405e-15 1.7291288e-15 1.6792797e-15 1.632829e-15 1.7310755e-15 1.7368135e-15 1.7712665e-15 1.7202038e-15
1.6730009e-15 1.6657344e-15 1.6711462e-15 1.7044738e-15 1.6555109e-15 1.6105753e-15 1.6237516e-15 1.6290199e-15
1.66162e-15 1.6145512e-15 1.571287e-15 4.0958024e-16 4.1352445e-16 4.1857893e-16 4.150445e-16 4.151466e-16
4.4361934e-16 4.4891433e-16 4.5484044e-16 4.505478e-16 4.502153e-16 4.7407206e-16 4.801079e-16 4.8641343e-16
4.8177535e-16 4.816663e-16 4.8068516e-16 4.869688e-16 4.9295586e-16 4.8849047e-16 4.886611e-16 4.807124e-16
4.8795255e-16 4.947477e-16 4.905149e-16 4.9074214e-16 5.5322607e-16 5.527301e-16 5.6297854e-16 5.5012773e-16
5.3469707e-16 5.661731e-16 5.6586407e-16 5.767415e-16 5.6291073e-16 5.46645e-16 5.881748e-16 5.88656e-16
6.004541e-16 5.851086e-16 5.6762875e-16 5.77879e-16 5.7856866e-16 5.8975717e-16 5.7438167e-16 5.5734726e-16
5.7056203e-16 5.718785e-16 5.8273564e-16 5.6726506e-16 5.502284e-16 3.737214e-16 3.7429454e-16 3.7431786e-16
3.6466372e-16 3.5381408e-16 3.8855765e-16 3.897303e-16 3.89676e-16 3.8079883e-16 3.7028599e-16 3.9765018e-16
3.9934398e-16 3.9948506e-16 3.9203297e-16 3.8124312e-16 3.8656622e-16 3.8883704e-16 3.8988127e-16 3.8387658e-16
3.7311878e-16 3.775735e-16 3.810587e-16 3.8361963e-16 3.7835757e-16 3.6746214e-16 3.2240038e-16 3.2285436e-16
3.2735002e-16 3.2158027e-16 3.1538615e-16 3.3171406e-16 3.3242824e-16 3.3754755e-16 3.3126172e-16 3.24496e-16
3.3664377e-16 3.3769417e-16 3.433189e-16 3.3650157e-16 3.2940397e-16 3.362158e-16 3.378604e-16 3.4358947e-16
3.3672437e-16 3.295094e-16 3.3483924e-16 3.3731652e-16 3.4335312e-16 3.3663945e-16 3.2942964e-16 1.0068593e-15
1.0098812e-15 1.031529e-15 1.009598e-15 9.857867e-16 9.938053e-16 9.98548e-16 1.0195555e-15 9.977434e-16
9.739088e-16 9.822455e-16 9.881621e-16 1.0103317e-15 9.886122e-16 9.641159e-16 9.02059e-16 9.076073e-16
9.276081e-16 9.094722e-16 8.905013e-16 8.6326183e-16 8.674445e-16 8.8651945e-16 8.69119e-16 8.5168866e-16
4.9147086e-16 5.062389e-16 5.229164e-16 5.1295606e-16 4.99508e-16 5.076103e-16 5.2247316e-16 5.3985645e-16
5.304252e-16 5.172156e-16 5.1888037e-16 5.3449754e-16 5.539742e-16 5.4482493e-16 5.318379e-16 4.9966855e-16
5.1339805e-16 5.3099193e-16 5.225098e-16 5.10103e-16 4.899224e-16 5.0229774e-16 5.187845e-16 5.1041586e-16
4.9786834e-16 7.987563e-16 8.15719e-16 8.177054e-16 8.136831e-16 7.9875085e-16 8.072722e-16 8.229534e-16
8.256883e-16 8.2269044e-16 8.086074e-16 7.9980287e-16 8.1485634e-16 8.1655e-16 8.131316e-16 7.989577e-16
7.827108e-16 7.9650145e-16 7.9784585e-16 7.9419974e-16 7.802665e-16 7.758207e-16 7.8895693e-16 7.9008163e-16
7.8665776e-16 7.7267616e-16 9.504408e-16 9.686485e-16 9.978779e-16 9.827846e-16 9.579041e-16 9.703987e-16
00000000: be95 ed26 8d8c ee26 ea2e f026 33da ec26
00000010: 1d8e e926 4723 f626 0152 f726 f8fd f826
00000020: 586f f526 3a11 f226 e68f f826 c7d7 f926
00000030: c785 fb26 5d07 f826 3706 f526 6391 eb26
00000040: d90f ec26 e328 ed26 abb1 e926 8517 e726
00000050: 7dd4 de26 9558 df26 c97e e026 b4b0 dc26
00000060: e012 da26 9131 0f27 d2e8 0f27 da4c 1127
00000070: 6e4e 0e27 8262 0b27 21b9 0f27 dd57 1027
00000080: 53b0 1127 a5b7 0e27 18fb 0b27 957d 1127
00000090: cb07 1227 8648 1327 282d 1027 1978 0d27
000000a0: d91b 0f27 d083 0f27 94a7 1027 cb9f 0d27
000000b0: 0909 0b27 8e9e 0d27 ff01 0e27 ad16 0f27
000000c0: c911 0c27 e384 0927 6230 ef26 b2f7 ef26
000000d0: 90b3 f426 4eb1 ed26 6919 e726 5298 f326
000000e0: c861 f426 9831 f926 7c02 f226 c250 eb26
000000f0: 6a79 f926 1c4d fa26 3344 ff26 52e8 f726
00000100: d71a f126 c10e f026 6ad6 f026 fca3 f526
00000110: 9295 ee26 be1b e826 dc01 ea26 3ac4 ea26
00000120: f576 ef26 6dae e826 4272 e226 601b ec25
00000130: 7061 ee25 594b f125 c241 ef25 d350 ef25
00000140: a9ba ff25 0864 0126 4d19 0326 8fdc 0126
00000150: 07c4 0126 58a4 0826 b661 0a26 fa32 0c26
00000160: bfdc 0a26 b3d4 0a26 4e8c 0a26 f55b 0c26
00000170: b915 0e26 3ccc 0c26 d3d8 0c26 518e 0a26
00000180: 8ba4 0c26 f099 0e26 9c61 0d26 6172 0d26
00000190: e174 1f26 4850 1f26 7c44 2226 4390 1e26
000001a0: ae1d 1a26 3330 2326 6619 2326 033c 2626
000001b0: 7b3f 2226 488f 1d26 a487 2926 25ab 2926
000001c0: b111 2d26 65a5 2826 9c9b 2326 f28f 2626
000001d0: d5c2 2626 66fc 2926 e38d 2526 f8a4 2026
000001e0: 0c74 2426 2fd5 2426 4df6 2726 c680 2326
000001f0: b197 1e26 8b6f d725 20c4 d725 91c7 d725
00000200: de36 d225 bef5 cb25 fdfc df25 0aaa e025
00000210: 07a2 e025 fd83 db25 9174 d525 cf3a e525
00000220: c534 e625 9749 e625 dbfd e125 8ec5 db25
00000230: 1bd7 de25 3826 e025 52c0 e025 2f4a dd25
00000240: 9d16 d725 04a8 d925 57aa db25 4424 dd25
00000250: b91b da25 d7d3 d325 e6d9 b925 e51c ba25
00000260: 56b4 bc25 df60 b925 c8ce b525 5b38 bf25
00000270: c0a1 bf25 3a95 c225 9af5 be25 280f bb25
00000280: da0f c225 ddaa c225 ede8 c525 defa c125
00000290: 72e3 bd25 b2d0 c125 65c3 c225 db10 c625
000002a0: bf1b c225 01f3 bd25 8d05 c125 2273 c225
000002b0: faed c525 370f c225 3ce7 bd25 8d1a 9126
000002c0: 0a8a 9126 b4a8 9426 987f 9126 1c11 8e26
000002d0: f238 8f26 ebe7 8f26 f5ee 9226 3cca 8f26
000002e0: e55a 8c26 768e 8d26 bf68 8e26 a99a 9126
000002f0: 5a79 8e26 99f1 8a26 1a00 8226 cdcc 8226
00000300: b3ae 8526 9a11 8326 b355 8026 7bd1 7826
00000310: 1b06 7a26 9785 7f26 aa81 7a26 887b 7526
00000320: 26a8 0d26 d6e9 1126 6cb8 1626 7ad9 1326
00000330: 2ff9 0f26 074f 1226 b797 1626 609a 1b26
00000340: 79e2 1826 c613 1526 9d8e 1526 f50e 1a26
00000350: 15ac 1f26 fc08 1d26 b64a 1926 0805 1026
00000360: 17fa 1326 4a0c 1926 6b9a 1626 f506 1326
00000370: e435 0d26 08c7 1026 8a87 1526 0b1e 1326
00000380: 3380 0f26 d039 6626 701d 6b26 02b0 6b26
00000390: 3787 6a26 6939 6626 2dae 6826 3e33 6d26
000003a0: 0bfd 6d26 d71f 6d26 b210 6926 0987 6626
000003b0: c9dd 6a26 c15a 6b26 865e 6a26 ac48 6626
000003c0: dd99 6126 6f93 6526 a2f6 6526 99e9 6426
000003d0: 81e5 6026 779d 5f26 bf66 6326 bcb9 6326
000003e0: 19bd 6226 70b5 5e26 14f9 8826 d298 8b26
000003f0: 32cf 8f26 5aa2 8d26 6c0c 8a26 65d9 8b26

exp_avg f4 [8]
-4.1594298e-08 -3.9164064e-08 6.17169e-08 2.6023037e-05 -4.7588806e-06 6.701782e-08 1.7418218e-07 -9.836972e-08
00000000: 6aa5 32b3 5835 28b3 3989 8433 0c4c da37
00000010: 79ae 9fb6 70eb 8f33 d506 3b34 533f d3b3

exp_avg_sq f4 [8]
1.8971664e-13 3.3952625e-14 7.789145e-14 1.5470235e-08 3.8518606e-09 4.346039e-13 1.2047526e-12 7.664377e-13
00000000: 199a 552a b6e8 1829 5d65 af29 68e3 8432
00000010: 5359 8431 06a9 f42a c98d a92b a8bb 572b

exp_avg f4 [1, 8, 5, 5]
-4.974415e-05 -2.713319e-05 -2.2200464e-05 2.0711113e-05 3.127865e-05 -7.167236e-05 -5.5541135e-05 -5.350619e-05
-1.1684633e-05 -3.6898239e-06 -9.5511175e-05 -8.5626e-05 -8.459096e-05 -4.454355e-05 -4.2839576e-05 -9.603446e-05
-8.9367124e-05 -9.193079e-05 -5.519053e-05 -5.715732e-05 -8.25146e-05 -7.959373e-05 -8.852111e-05 -5.8876536e-05
-6.412352e-05 8.696826e-05 0.000117985925 0.00014068875 0.00018962316 0.00019584032 7.741529e-05 0.0001047815
0.00012010896 0.00016612309 0.00016901315 5.5595705e-05 7.532496e-05 8.543375e-05 0.00012811825 0.00012823418
8.006586e-05 9.4383155e-05 9.960863e-05 0.00013803552 0.00013313508 7.707253e-05 8.440352e-05 8.4736654e-05
0.00011650298 0.00010719935 -0.00036162755 -0.00037250321 -0.00034544297 -0.00036069177 -0.00035654643 -0.00036756814
-0.00037789083 -0.00034942248 -0.0003649913 -0.00036094087 -0.00035234826 -0.0003606651 -0.0003304793 -0.00034631687
-0.00034273384 -0.00034198488 -0.00035066245 -0.00032106985 -0.0003377735 -0.00033522697 -0.00032609949 -0.00033481958
-0.00030564508 -0.00032330398 -0.00032166037 -0.00033042967 -0.00033833427 -0.00031257595 -0.00032971913 -0.00031794704
-0.00033688638 -0.00034426764 -0.0003172289 -0.00033470162 -0.00032248645 -0.000326359 -0.0003320667 -0.00030330807
-0.00032094755 -0.00030875808 -0.00032103556 -0.0003271773 -0.00029879363 -0.00031688917 -0.00030603263 -0.0003083573
-0.0003141096 -0.0002855291 -0.0003043299 -0.00029589754 2.678475e-06 -4.604872e-06 1.7724124e-05 6.339123e-05
9.378305e-05 -1.8368488e-05 -2.2824996e-05 -1.09189e-06 4.797634e-05 7.4389354e-05 -1.734475e-05 -2.4902638e-05
-8.270312e-06 3.677398e-05 5.764402e-05 4.693216e-06 -8.013229e-06 -7.812951e-07 3.9294155e-05 5.611772e-05
2.1385571e-05 2.043274e-06 5.9985786e-07 2.8677861e-05 3.904534e-05 -1.2730869e-05 -2.7440718e-05 -1.3401049e-05
-8.928309e-06 3.2595358e-06 -4.6229703e-05 -5.6828318e-05 -3.521202e-05 -2.607807e-05 -9.968456e-06 -4.74243e-05
-5.5078926e-05 -3.1887215e-05 -2.3024859e-05 -1.24464905e-05 -6.3566775e-05 -7.183427e-05 -5.209442e-05 -4.5144356e-05
-3.8064558e-05 -7.797252e-05 -9.5091775e-05 -8.575839e-05 -8.158081e-05 -7.3679694e-05 -0.00014098105 -0.00013975154
-0.00010890324 -0.00010939776 -0.00010071878 -0.00015177212 -0.00015078485 -0.00011980508 -0.00011981274 -0.00010974688
-0.00014709603 -0.00014691136 -0.000116210664 -0.00011707178 -0.00010669738 -0.00015577643 -0.00015503544 -0.00012470999
-0.00012524934 -0.00011714984 -0.00015680057 -0.00015391938 -0.00012212603 -0.00012537125 -0.00012255162 7.356304e-05
5.8692633e-05 1.4293849e-05 -2.0493026e-05 -5.3398515e-05 5.0356663e-05 4.1796506e-05 4.08379e-06 -2.313879e-05
-4.8870555e-05 3.3233533e-05 2.5355439e-05 -2.1309493e-06 -1.8044753e-05 -3.6477482e-05 2.2275659e-05 1.364126e-05
-6.5404124e-06 -5.9990607e-06 -1.3522086e-05 -1.6388969e-05 -2.8536875e-05 -4.4633573e-05 -3.278229e-05 -2.5964513e-05
00000000: 60a4 50b8 159c e3b7 223b bab7 c7bc ad37
00000010: 3231 0338 ce4e 96b8 d7f4 68b8 d66b 60b8
00000020: 1e09 44b7 b19e 77b6 2c4d c8b8 1c92 b3b8
00000030: 6d66 b1b8 46d4 3ab8 a5ae 33b8 1c66 c9b8
00000040: 9c6a bbb8 f8ca c0b8 617c 67b8 34bc 6fb8
00000050: b00b adb8 8feb a6b8 69a4 b9b8 33f2 76b8
00000060: 0d7a 86b8 bb62 b638 366f f738 d985 1339
00000070: 94d5 4639 7c5a 4d39 045a a238 24be db38
00000080: 02e3 fb38 5431 2e39 1f39 3139 6f2f 6938
00000090: c8f7 9d38 e52a b338 7b57 0639 9a76 0639
000000a0: 08e9 a738 92ef c538 fae4 d038 a1bd 1039
000000b0: 2d9a 0b39 00a2 a138 cb01 b138 a5b4 b138
000000c0: 1053 f438 36d0 e038 d498 bdb9 894c c3b9
000000d0: 921c b5b9 3b1b bdb9 daee bab9 29b6 c0b9
000000e0: a61f c6b9 b132 b7b9 4e5c bfb9 aa3c bdb9
000000f0: 62bb b8b9 a617 bdb9 2e44 adb9 dd91 b5b9
00000100: f5b0 b3b9 6f4c b3b9 1ed9 b7b9 4455 a8b9
00000110: 3117 b1b9 67c1 afb9 55f8 aab9 b98a afb9
00000120: fd3e a0b9 2081 a9b9 86a4 a8b9 853d adb9
00000130: 7562 b1b9 3ce1 a3b9 27de acb9 21b2 a6b9
00000140: 20a0 b0b9 d27e b4b9 be51 a6b9 e47a afb9
00000150: 6613 a9b9 2a1b abb9 3d19 aeb9 5205 9fb9
00000160: da44 a8b9 cfe0 a1b9 aa50 a8b9 fe88 abb9
00000170: 67a7 9cb9 2524 a6b9 0173 a0b9 04ab a1b9
00000180: 14af a4b9 11b3 95b9 788e 9fb9 b222 9bb9
00000190: dabf 3336 8d83 9ab6 44ae 9437 e8f0 8438
000001a0: 64ad c438 0716 9ab7 4e78 bfb7 0e8d 92b5
000001b0: 343a 4938 7b01 9c38 917f 91b7 02e6 d0b7
000001c0: b8c0 0ab7 c33d 1a38 ccc6 7138 6b7a 9d36
000001d0: 8e70 06b7 31ba 51b5 c7cf 2438 f15f 6b38
000001e0: 2a65 b337 2e1f 0936 eb05 2135 3d91 f037
000001f0: 9dc4 2338 aa96 55b7 7e30 e6b7 11d5 60b7
00000200: ccca 15b7 66be 5a36 c4e6 41b8 f15a 6eb8
00000210: 9eb0 13b8 3bc2 dab7 313e 27b7 74e9 46b8
00000220: 8c04 67b8 a3be 05b8 8225 c1b7 45d1 50b7
00000230: 274f 85b8 bba5 96b8 f57f 5ab8 6259 3db8
00000240: 82a7 1fb8 2e85 a3b8 026c c7b8 2fd9 b3b8
00000250: 5d16 abb8 7c84 9ab8 50d4 13b9 458a 12b9
00000260: fb62 e4b8 7a6c e5b8 fc38 d3b8 0525 1fb9
00000270: 001c 1eb9 dd3f fbb8 fa43 fbb8 e827 e6b8
00000280: ca3d 1ab9 380c 1ab9 20b6 f3b8 6f84 f5b8
00000290: b8c2 dfb8 eb57 23b9 0291 22b9 95c4 02b9
000002a0: 5d55 03b9 57ae f5b8 d56a 24b9 6b65 21b9
000002b0: f50e 00b9 1776 03b9 3381 00b9 db45 9a38
000002c0: bc2c 7638 9dcf 6f37 70e8 abb7 38f8 5fb8
000002d0: 0e36 5338 a84e 2f38 7d07 8936 2c1a c2b7
000002e0: 5cfa 4cb8 3c64 0b38 64b2 d437 6e01 0fb6
000002f0: d05e 97b7 66ff 18b8 9ddc ba37 c4dc 6437
00000300: b775 dbb6 8a4b c9b6 ebdc 62b7 0b7b 89b7
00000310: 7962 efb7 ef34 3bb8 b77f 09b8 5ece d9b7
