checkpoints/model-epoch=00-validation_loss=0.21.ckpt (torch, 103001 bytes, 36 tensors)

model.bias f4 [8]
000000 9d 43 0f be aa 5e 07 3f 21 04 88 bf 22 11 b6 3f
       -0.13990636 0.5287882 -1.062626 1.4223979
000010 61 65 19 3e 20 08 55 3e 04 9c 56 3f 46 cd a8 3e
       0.14980079 0.2080388 0.8383181 0.3296911

model.input_layers.0.weight f4 [8, 1, 5, 5]
000000 a9 98 e1 3d 2d 60 9e 3d f6 07 a8 bd 24 ec 4b 3d
       0.11015446 0.07733188 -0.082046434 0.049785748
000010 5f 45 82 3d 96 b6 83 be eb 9c c3 3c eb ef 44 3e
       0.06360888 -0.2572524 0.023878535 0.19232146
000020 4c 1e 48 3e 86 d6 41 3e 55 02 4f be b8 99 b8 bd
       0.19542807 0.1892949 -0.20215733 -0.090136945
000030 e7 93 3f be e2 53 43 bd 4b 1b fe bb 86 b1 9c be
       -0.18708764 -0.04768742 -0.0077547184 -0.3060419
000040 b5 7a 84 be 09 ca 90 be 99 e4 6b be cc 30 fe 3d
       -0.25874868 -0.2827914 -0.23036422 0.12411651
000050 04 66 8c be d3 1c b0 be 3f 41 b4 be 7d 18 ca 3d
       -0.27421582 -0.3439699 -0.3520603 0.09867952
000060 e9 a1 38 be 08 c6 18 bd 90 f9 30 3d 08 a4 c8 3c
       -0.18030514 -0.037298232 0.04320675 0.024492279
000070 c3 23 73 bd 3f 69 02 be c4 b5 6f bd 44 12 1d bd
       -0.059360277 -0.1273546 -0.058522955 -0.038347498
000080 4b a6 0e 3e ca f5 8c bc 69 57 7f bd 87 fb 1c be
       0.13930623 -0.017207045 -0.06233922 -0.15330325
000090 08 5a ea 3d d6 52 a7 3d 4d b3 fd bd 01 1a 00 be
       0.11442953 0.081700966 -0.123877145 -0.1250992
0000a0 71 e0 31 bd 92 bf 48 be 97 ce 13 3e 65 62 1e be
       -0.043426935 -0.19604328 0.14434277 -0.15467222
0000b0 45 8a fc bd f7 70 88 bd 98 31 54 be 8e bc 78 be
       -0.1233106 -0.06662171 -0.20722044 -0.24290678
0000c0 55 2d f7 bc 8e 05 d7 be 94 e8 c7 be 14 62 9d be
       -0.030172983 -0.41996425 -0.3904463 -0.3073889
0000d0 4c 98 04 be 3f 68 c9 bd 33 21 dc 3d 4f aa 65 be
       -0.12948722 -0.098343365 0.1074852 -0.22428249
0000e0 f7 38 3f be e2 96 a7 be cb 62 5b bd db 8d b3 3e
       -0.18674074 -0.32732302 -0.053561013 0.35069165
0000f0 6d e8 83 be 02 4e 18 be 94 d4 bc be 2e a1 82 be
       -0.25763264 -0.14873508 -0.36880934 -0.25513595
000100 85 49 af bd 90 45 e6 3d a9 c6 88 3d 77 49 2e bb
       -0.085589446 0.11243737 0.066785164 -0.0026594081
000110 aa d0 75 3e 52 d8 f0 bc fa 25 10 3e 0a d0 08 3d
       0.2400538 -0.029400025 0.14076987 0.033401527
000120 51 18 50 3e 46 f8 ee ba e0 23 b4 3e 22 80 94 be
       0.20321776 -0.001823195 0.3518362 -0.29004008
000130 84 cb 86 be a3 58 d5 3d d9 13 83 be 6f d4 f2 bd
       -0.26327145 0.10417297 -0.2560108 -0.11856925
000140 7d 3f e2 bc 11 78 3c 3d f0 f4 d9 bd 24 8f a1 3c
       -0.027618164 0.04601294 -0.10642421 0.019721575
000150 e6 82 96 bd 55 de 96 be 91 46 77 3d 7b 8e 29 3e
       -0.07349186 -0.294665 0.06037003 0.16558258
000160 54 89 f2 bd 18 67 91 be de f7 59 be 8e 3b 8a bc
       -0.118425995 -0.28398967 -0.2128596 -0.016874101
000170 66 c4 44 3d 0c ef 89 bd ca ee 08 be 24 7f 86 be
       0.048038863 -0.06735048 -0.13372341 -0.26268876
000180 8f cf 9e be c4 8c 94 3c bf ed 07 be 89 19 d6 bd
       -0.3101773 0.018133529 -0.13274287 -0.10454089
000190 f4 0e dc bd 3a f5 94 3a 19 40 a0 be 43 b4 52 bd
       -0.107450396 0.0011364587 -0.31298903 -0.051441442
0001a0 41 28 9c be 66 35 80 bd a8 9c 38 bc e9 19 7a 3c
       -0.3049946 -0.06260185 -0.0112678185 0.0152649665
0001b0 09 dd 00 bc c2 c4 99 be ff 84 78 bc ec f3 a5 3d
       -0.007865199 -0.30032927 -0.0151684275 0.08103165
0001c0 9b 36 ce 3d b4 48 54 be 3c 7a 53 be 6f 43 bb be
       0.10069009 -0.20730859 -0.20652097 -0.36574885
0001d0 2e 08 6e be 85 5a eb bd bf ef 81 be 1e 12 0e be
       -0.23245308 -0.114918746 -0.25378224 -0.13874099
0001e0 97 1b 77 be db 77 ba bd f5 64 0a be bf ee 08 bd
       -0.24131618 -0.09104892 -0.13515075 -0.03343081
0001f0 f9 3a c0 be ef 05 66 3e d7 c6 bc bd c3 62 31 be
       -0.37544993 0.22463201 -0.09217613 -0.17322831
000200 4a 9d 9a bd 78 98 34 3d c5 2f 15 be 2d c5 38 3e
       -0.07549532 0.044090718 -0.14569004 0.18043967
000210 fb ff 23 bd 03 55 9b 3d c9 1a f8 bc 44 82 e0 bd
       -0.040039044 0.07584574 -0.03028621 -0.10962346
000220 b7 88 4a 3e a4 d3 2f bc 64 a7 1e be 2a 69 04 3e
       0.19778715 -0.010731611 -0.15493542 0.12930742
000230 21 9a 09 be 56 4c 23 be 92 34 43 bc f8 c0 cf 3d
       -0.13437702 -0.15947089 -0.011914389 0.10144228
000240 83 1c 65 be fc 4d 8c 3d 11 7c dd 3d 63 80 96 bd
       -0.22374158 0.06850812 0.108146794 -0.073487066
000250 1f 24 18 be d2 e5 0d be 95 bf 84 3d c0 31 b0 3e
       -0.14857529 -0.138572 0.06481854 0.34412956
000260 b7 3a 88 3e a1 17 e5 3d 14 eb b5 3d 81 b2 60 3e
       0.26607296 0.111861475 0.08882728 0.21943094
000270 48 1d 8c 3e b1 25 80 3e 82 f0 5e 3e b6 1b 0e 3d
       0.2736609 0.25028756 0.21771434 0.034694396
000280 98 0a 90 3e 6a bc b7 3e 97 9f b0 3d d8 67 7d 3e
       0.28133082 0.35885936 0.08624189 0.24746644
000290 b8 73 dc bb f4 f4 c7 3d f2 ac 60 3e 45 df 92 3e
       -0.006727662 0.09763518 0.21940973 0.28685966
0002a0 04 f2 55 3e 59 50 66 3e ee 34 03 3d ad 6d 03 3e
       0.20893103 0.22491588 0.0320329 0.12834807
0002b0 f2 ec 13 3e 71 84 f9 3d b9 88 4e 3c 91 23 4a 3c
       0.14445856 0.12183464 0.012605839 0.012337581
0002c0 4a 95 4f 3e 7a 5a 18 3e 99 8f a4 bd 9e 3d aa 3d
       0.20271793 0.14878264 -0.080352016 0.08312534
0002d0 fb ac 0f 3e f8 a0 22 be 31 88 60 3e 83 9b 1d bd
       0.1403083 -0.15881717 0.21926953 -0.038478386
0002e0 cd 8c 6a 3d 0d a7 9d 3c fd 7a 47 be 42 20 c0 3c
       0.057263184 0.019244695 -0.1948051 0.023452882
0002f0 6a e7 87 bd 78 47 48 3e 48 fe 09 3e 10 5d 38 be
       -0.066359356 0.19558513 0.13475907 -0.1800425
000300 b7 75 d3 bd f8 92 bb 3d 04 f5 10 be 12 23 24 3e
       -0.10325187 0.091588914 -0.14155966 0.16029003
000310 46 6b 31 be be 4c 0d be 5a 9e fe bd 2f cd 89 3d
       -0.17326078 -0.13798806 -0.12432547 0.06728589

model.input_layers.0.bias f4 [8]
000000 0a 8f 46 be 94 f9 66 be a8 a9 04 3c ea aa c7 be
       -0.19390503 -0.22556144 0.00809709 -0.38997585
000010 d3 2f 41 be fa 7a a5 ba 91 2d 24 3f 0f 68 a3 be
       -0.188659 -0.0012625151 0.6413203 -0.31915328

model.input_layers.1.weight f4 [8, 8, 5, 5]
000000 f6 da d8 bd bb 79 ad bd da c9 29 bd a8 d4 84 bd
       -0.105886385 -0.08470484 -0.041452266 -0.064858735
000010 86 b6 da bc a2 81 68 bd 8c e7 f5 bc 3b 64 2b bd
       -0.026698362 -0.056764252 -0.030017637 -0.041843634
000020 ad a3 e6 bb bf 0e fd bc 67 35 0c bd 36 5a e2 bd
       -0.0070385546 -0.03089082 -0.034230616 -0.110523626
000030 3e b3 40 bb 16 24 7c bd db f4 b1 bd 2e ad 92 bd
       -0.0029403712 -0.06155785 -0.086892806 -0.07161938
000040 e2 a3 01 be c7 db 2d 3c 48 fb a8 3a 67 49 34 bd
       -0.12660173 0.010611481 0.001289227 -0.044015314
000050 74 06 a2 bd ea 00 65 bd f7 d0 aa 3b 06 79 9e bd
       -0.07911387 -0.055909075 0.005212899 -0.07737927
000060 bd a2 00 be 38 74 88 bd 86 b9 02 bd b6 5e 89 bd
       -0.1256208 -0.06662792 -0.03191521 -0.06707518
000070 52 98 cc bd 71 58 33 bc a2 c5 d6 bd cb 49 05 bd
       -0.0998999 -0.010946379 -0.10486914 -0.032541078
000080 6c 32 86 bd 1a ec 32 bd ee 00 68 bd 54 3c 4e bd
       -0.06552586 -0.043682195 -0.05664151 -0.050350502
000090 16 09 35 bd ad b0 44 bd 14 12 01 be 57 90 df 3b
       -0.04419812 -0.048020054 -0.12604553 0.0068226266
0000a0 6b 8a a7 bd ed f2 a7 bc 3a 85 86 bd 65 aa 83 bd
       -0.08180698 -0.020501578 -0.0656838 -0.064289846
0000b0 0d e0 24 bd 4f e1 f0 bd 59 2c 94 bc 34 39 be bd
       -0.040252734 -0.11761724 -0.018087553 -0.092882544
0000c0 d8 e1 d0 bd fd 65 05 be db 82 f0 bd a0 d4 80 bd
       -0.10199326 -0.13027187 -0.11743709 -0.06290555
0000d0 9f 85 d9 bd 1c 8a 99 bd 41 1c 38 bc 68 14 01 bd
       -0.10621189 -0.074970454 -0.011237205 -0.0315136
0000e0 34 6a 60 bc 18 6c 89 bd be e4 c4 bb 00 f0 9a bd
       -0.013697196 -0.0671007 -0.0060087135 -0.075653076
0000f0 03 9d a5 bd fd 30 e3 bd 1c 07 84 3b 0c ff e0 bd
       -0.08086588 -0.11093328 0.004029168 -0.10986146
000100 a7 bb 04 be 56 13 b6 bd 67 aa bc bd 55 72 f5 bd
       -0.12962209 -0.08890407 -0.09212189 -0.11984698
000110 93 2e 65 bc aa 8e cf bd 88 a5 b3 bd d8 61 db bd
       -0.013988155 -0.10134633 -0.08771807 -0.107120216
000120 d2 4b ae 3b dd 5f f0 bd cd 73 84 3b f1 f1 5b bc
       0.005319097 -0.117370345 0.004042125 -0.013424383
000130 ba 00 90 bd 01 dc f5 bd 1b 83 98 bd 9c d1 4f bd
       -0.070313886 -0.12004853 -0.074468814 -0.05073701
000140 22 63 f6 bd d4 67 61 bc 82 71 38 bd 29 cd f4 bd
       -0.12030627 -0.013757665 -0.045030124 -0.11953194
000150 95 f0 bf bb ce f5 15 3c 01 3e b1 bc 9d 64 1b bc
       -0.005857537 0.009152843 -0.021636011 -0.009484437
000160 41 dd 1d bd bc 8f 86 bd 76 5a f4 bd a3 2c 95 bd
       -0.038541082 -0.06570384 -0.119313166 -0.072839044
000170 f7 91 c2 bc 1c 3d b3 bd e6 51 51 bc 9d be 5d bd
       -0.023751242 -0.0875189 -0.012775874 -0.05413686
000180 cc d1 85 bd 0d 0c a3 bd e7 04 fa bb 42 e6 c6 bd
       -0.06534156 -0.07961283 -0.007629979 -0.09711887
000190 17 f2 ad bb b0 e2 d6 bc eb 9c 6f bd d9 52 94 bd
       -0.0053084004 -0.02623114 -0.058499258 -0.072423644
0001a0 7c 23 0d bd b4 0c 7a bd fa 8a a0 bd b3 c0 e3 bd
       -0.03445767 -0.06104727 -0.07839008 -0.11120739
0001b0 8e 9e c2 bc cb b7 1f bd b9 98 c8 bd c8 a8 c6 bd
       -0.023757245 -0.038993638 -0.097947545 -0.09700161
0001c0 48 dd 38 bd 97 5c 58 bc dd d3 a0 3b 4e c3 e7 bd
       -0.045132905 -0.013205669 0.0049080686 -0.11316548
0001d0 1f 7a 81 bd d6 d9 ed bd 86 d5 a6 bd b6 67 99 bc
       -0.06322121 -0.116138145 -0.08146195 -0.018726211
0001e0 97 18 af bb c8 a5 12 bc c1 42 44 bb 13 6d b2 bd
       -0.0053435075 -0.008950658 -0.0029947015 -0.087122105
0001f0 09 da 95 bc 21 df 12 bd eb 2a fc bd d0 2f 80 bd
       -0.018292444 -0.035857324 -0.123128735 -0.062591195
000200 eb a0 8d bd cb 39 c7 bd b6 a8 c8 bd 77 f5 d5 bd
       -0.06915458 -0.0972782 -0.09797804 -0.10447209
000210 b3 c8 bf 3b 02 7d 9c bb 12 31 65 bd 65 8b c1 bd
       0.0058527826 -0.0047756443 -0.055955 -0.094504155
000220 3b 0d e8 bd f6 49 5d bd f3 bb 48 bd 1f b2 f3 bd
       -0.113306485 -0.054025613 -0.049007367 -0.11899208
000230 af ee 28 bc eb 12 f4 bd 1c 44 8d bd 20 31 ef bd
       -0.010310813 -0.11917671 -0.068977565 -0.11679292
000240 9e ff b8 bc 11 8a 74 bd ff 72 13 bc 0f 2b 05 be
       -0.022582825 -0.059701983 -0.008999585 -0.13004707
000250 ff c2 e3 bd 79 c2 82 bd 7b 8f d8 bd 4d 34 cc bd
       -0.11121177 -0.06384749 -0.10574242 -0.09970913
000260 04 9e e7 bc 27 31 5e 3b cc 97 e3 bd 90 dc c5 bd
       -0.02827359 0.0033903809 -0.11112937 -0.096612096
000270 a9 92 d1 bd a4 cb 9f bc d6 56 55 bd 43 31 59 bd
       -0.10233051 -0.019506283 -0.052084766 -0.053025495
000280 cd 73 b8 bd 41 de 24 bd 52 bb a0 bd 01 7a 03 bd
       -0.09006462 -0.04025102 -0.078482285 -0.032098774
000290 7b 4b c3 bc 91 66 60 bd 39 79 fe bd 51 e2 93 ba
       -0.023839703 -0.054785315 -0.12425465 -0.0011282658
0002a0 e4 c7 fb bd d0 98 d3 bd d0 53 83 bd 59 cc 47 bb
       -0.122939855 -0.10331881 -0.0641247 -0.003048679
0002b0 46 e1 5f bc 3d f8 94 bb 94 30 c0 bd 03 8e 28 bc
       -0.013664549 -0.004546194 -0.093842655 -0.0102877645
0002c0 f7 8d 3a bd 3f 82 ba bc d4 be b7 bc 68 e7 fc bd
       -0.045545544 -0.022767184 -0.022429861 -0.12348825
0002d0 4f 97 f0 bd 1e 59 ee bc e2 79 e7 bd dd 44 8b bd
       -0.1174761 -0.029095229 -0.11302544 -0.06800244
0002e0 8a b3 ec bc 51 92 d0 bd 50 52 84 bd 49 23 da bd
       -0.028894205 -0.10184158 -0.06461012 -0.10651261
0002f0 00 bd b4 bd 35 80 89 bd 1e b5 05 be 58 ef 92 bd
       -0.088251114 -0.06713907 -0.13057372 -0.071745574
000300 2c cc fe bd d5 9a 28 bd 38 1f 05 bc 61 a4 9e bd
       -0.124412864 -0.041163284 -0.008125119 -0.077461965
000310 40 9d 3c 3b d4 8e cf bc 43 ef 80 bd bb b5 b3 bd
       0.0028780252 -0.02533666 -0.062956356 -0.08774897
000320 24 2f 2b be 98 be 78 bd c1 a2 eb bd aa 01 7e be
       -0.16717201 -0.06072864 -0.11505652 -0.24805322
000330 84 f4 bc be 50 be 90 be 2e e5 14 be 52 cd 44 be
       -0.369053 -0.28270197 -0.1454055 -0.19218948
000340 ba 22 58 be bc 31 d2 be 8f 41 89 be 3d 4a 8c be
       -0.21106997 -0.4105357 -0.2680783 -0.2740039
000350 90 4d 3d be 7f d5 6d be 93 3a 6c be 17 a4 98 be
       -0.18486619 -0.23225974 -0.2306922 -0.2981269
000360 2a 84 7d be 18 39 7d be 52 90 3b be 7e 54 8e be
       -0.24757448 -0.24728811 -0.18316773 -0.27798837
000370 f6 26 1d ba de 04 94 bd e2 14 0e be 82 20 90 bd
       -0.00059948803 -0.07227491 -0.13875154 -0.070374504
000380 44 36 03 be ac bb 07 3e 8e c4 f2 3a 80 fa 25 3d
       -0.1281367 0.13255185 0.0018521713 0.0405221
000390 88 5e 06 3d 00 93 e4 3b f4 d5 06 3e 58 65 1c 3e
       0.032804996 0.0069755316 0.13167554 0.15273035
0003a0 f4 f9 c8 3d 44 b8 53 bb 6b 1b 9e 3d 12 26 10 3e
       0.098133 -0.0032305876 0.07720073 0.14077023
0003b0 63 a5 17 3e ea fb c3 3d 7b 03 88 3d c4 b0 a4 3c
       0.14809184 0.09569533 0.06641289 0.02010382
0003c0 b6 78 9b 3c 0d 35 1a 3e c7 42 36 3e 0a 65 a8 3d
       0.018978458 0.150593 0.17798911 0.08222397
0003d0 5d 9a de 3d c8 6c 26 3d 39 8c ce 3d a5 92 0b 3e
       0.10869286 0.040631086 0.10085339 0.13630159
0003e0 a4 e8 0b 3d 8f 1e c6 3d 4d 2c d2 bd b8 b9 0d be
       0.03415741 0.09673797 -0.10262356 -0.13840377
0003f0 23 53 17 be 1c fe e9 bd 01 b0 1c be 4a 8c 47 be
       -0.14777808 -0.11425421 -0.15301515 -0.1948711

model.input_layers.1.bias f4 [8]
000000 ef aa 69 bd 14 2f fb 3c f4 b4 34 3d 98 ee ba bd
       -0.05704778 0.030662097 0.044117883 -0.091275394
000010 5d 38 a5 3e 1f e8 db bc 8a e7 88 be 51 9f ac 3b
       0.32269564 -0.026844082 -0.2673915 0.0052680154

model.hidden_layers.0.weight f4 [8, 8, 5, 5]
000000 a9 5e 07 be d2 24 07 be d7 be 81 bd d7 84 0d be
       -0.13219704 -0.1319764 -0.06335228 -0.13820206
000010 80 17 87 bc d4 bb a2 bd 3b 80 5a bd 4d 40 8c bd
       -0.016490698 -0.079459816 -0.053344946 -0.06848202
000020 80 4f 15 be 86 70 fb bd 6d 48 4d bd ad 4d bb bd
       -0.14581108 -0.122773215 -0.0501179 -0.09145675
000030 d9 74 90 bd a4 b9 bc bd 64 c6 3d bd a2 88 db bd
       -0.07053537 -0.09215096 -0.04633178 -0.1071942
000040 c6 31 5d bd fe 9e 06 be eb 59 f8 bc 61 3b 59 bd
       -0.054002546 -0.13146588 -0.030316314 -0.053035144
000050 f5 d5 17 bd ca 6f c7 bd 0f 05 a0 bc 24 dd d6 bd
       -0.03706928 -0.09738119 -0.019533662 -0.10491398
000060 63 0f 97 bd 7f 62 91 3c 6d 14 b1 3d df 3d a4 3d
       -0.07375982 0.017747162 0.08646474 0.080196135
000070 08 24 10 3e 2a ef 52 3d 6a 0e d4 3d 50 5a fb 3c
       0.14076245 0.051497616 0.10354312 0.030682713
000080 cd 5f 07 3e 6e 9c 96 3d 30 c8 db 3c ef d2 eb 3c
       0.13220139 0.07354055 0.026828855 0.028787104
000090 0f e0 05 3d 80 91 03 3e 06 03 ab 3c f1 59 c7 3d
       0.032684382 0.12848473 0.020875465 0.09733952
0000a0 7d cc e1 3d 76 20 be 3d af 51 cc 3d 96 ac 29 3d
       0.11025331 0.09283535 0.099765174 0.041424356
0000b0 31 84 15 3d 09 60 c3 3c 65 8b ca 3d d9 ba 4d 3d
       0.03650302 0.023849504 0.09889869 0.05022702
0000c0 1e 6e ae 3d db 39 59 3d a6 d3 2c 3c 2d 1a e7 bc
       0.08517097 0.05303369 0.010548508 -0.028210724
0000d0 57 0d 80 3d b8 7f 03 3d 2d 58 01 3c 7b 19 32 3d
       0.062525444 0.032104224 0.007894558 0.04348133
0000e0 e3 c0 82 3b b1 13 ba bc 77 84 3a bd 90 3b 64 bd
       0.003990279 -0.022714468 -0.045536485 -0.055720866
0000f0 28 1c 06 3d 5d 44 59 bd 6b d5 0a bc 53 0f 0b bd
       0.032741696 -0.053043712 -0.008473734 -0.03395016
000100 be b0 86 3b da e0 46 bd cc 24 f7 bc 7c af 21 3d
       0.004110425 -0.04855428 -0.030168913 0.039473996
000110 67 db aa 3d c3 d0 b8 bc c7 65 59 3d de ca 39 bc
       0.08342629 -0.022560483 0.053075578 -0.011339871
000120 c0 71 cf bc 48 cc 87 3d 67 e6 c4 3c bc c7 e6 3d
       -0.025322795 0.066307604 0.024035646 0.11268565
000130 7d c6 8c 3d 5c 8b 9d 3d b3 28 73 3d ec db d8 3d
       0.06873796 0.07692596 0.059364986 0.10588822
000140 36 9b ed 3d 56 85 05 3e 56 63 e3 3d 9c dc ef 3d
       0.1160187 0.13039145 0.11102931 0.11712
000150 0a dd 80 3d e8 9a e9 3d 23 35 c6 3d f3 73 40 3d
       0.0629216 0.11406499 0.09678104 0.046985578
000160 26 7f 13 3e 71 a7 f9 3d c7 b2 af 3d af 59 d5 3d
       0.14403972 0.1219014 0.08579021 0.104174964
000170 ba 64 01 3e 3d 3a 8e 3d b4 25 91 3c 68 54 ca 3d
       0.1263608 0.06944702 0.017718174 0.098793805
000180 e3 93 04 3e 3b 0a 0e 3e 6e ba 39 3d e6 d3 e9 3d
       0.1294704 0.1387109 0.04534381 0.114173695
000190 49 f8 b3 3d cd 93 87 3d 93 35 08 3e 61 42 f0 3d
       0.08787591 0.06619988 0.13301687 0.11731411
0001a0 da af f3 3d e3 b4 02 3e dd 67 03 3e 5a d7 28 3c
       0.118987754 0.12764315 0.1283259 0.01030525
0001b0 8d c4 c3 3d 16 51 16 3e 6d 1f 66 3c 21 47 a1 3d
       0.095589735 0.1467937 0.014045578 0.07874895
0001c0 27 12 be 3d 76 09 7f 3c 60 47 96 3c 81 d9 67 3d
       0.09280806 0.0155662205 0.018344581 0.056603912
0001d0 6b 38 b4 3d 87 ae f5 3d 9e 9f af 3c 2b 76 ad 3c
       0.087998234 0.11996179 0.021438416 0.021174511
0001e0 b6 63 6e 3d 39 98 db 3d 7f 0f 1e 3d 93 3d 18 3e
       0.05820056 0.107223935 0.038588997 0.14867239
0001f0 81 ae 5c 3c fc 56 d4 3d 16 bf 1e 3d 9c 1b 07 3d
       0.013469339 0.103681535 0.038756453 0.032985315
000200 91 8f f8 3d 4a fb d3 3c 9b e6 0b 3d 12 44 13 3e
       0.12136758 0.02587666 0.03415547 0.14381436
000210 36 de a1 3d a7 f2 b2 3c ff 89 ec 3d f3 5a 93 3d
       0.079037115 0.021844221 0.11549758 0.071950816
000220 0e 41 13 3e de b3 47 3d 56 a6 39 3d 7a fb 99 3d
       0.14380285 0.04875552 0.045324646 0.075186685
000230 55 61 2d 3d cb 0e 5a 3c 36 ca a1 3d c3 e2 34 3d
       0.04232915 0.013309191 0.07899897 0.04416157
000240 1c 9a 53 3d 80 3b 6e 3d e2 b3 a1 3d 25 74 36 3d
       0.051660642 0.058162212 0.07895638 0.044544358
000250 66 40 18 3e 99 bb dd 3d 85 b0 5b 3d 58 41 1b 3e
       0.14868316 0.10826797 0.05363514 0.15161645
000260 77 18 01 3e 39 b2 bb 3d c4 1f 2b 3d 22 7a 4d 3c
       0.12606989 0.09164853 0.04177834 0.012541326
000270 cc 39 ca 3d 30 a3 22 3d db 3e 14 3e 06 68 54 3d
       0.09874305 0.03970641 0.14477102 0.051857017
000280 1c ef 94 3d f0 65 b9 3d 1b 2b e1 3d 31 10 72 3d
       0.07272169 0.09052646 0.1099455 0.059097473
000290 d3 26 19 3e 8c fe 69 3d 44 34 92 3d 61 f4 88 3c
       0.14956217 0.05712752 0.07138875 0.016718091
0002a0 5a ed e9 3d 61 ad e9 3d 62 07 a0 3d 85 17 c4 3d
       0.11422224 0.114100225 0.07813908 0.095747985
0002b0 17 7a 16 3e b3 b5 f3 3d 30 c8 a8 3c 1b 8c a6 3c
       0.14695011 0.11899891 0.02060327 0.02033048
0002c0 01 c9 05 3d 48 83 00 3e dc ca 1c 3d 1a df c2 3d
       0.032662395 0.1255008 0.0382794 0.095152095
0002d0 e4 ed 67 3d 7e ed a2 3d b0 74 ec 3d 23 38 bb 3d
       0.056623355 0.07955454 0.11545694 0.091415666
0002e0 d0 08 1b 3e 89 4f de 3c 09 29 4a 3d d3 24 d4 3c
       0.1514008 0.027137535 0.04935554 0.025896465
0002f0 db d0 ff 3d 17 07 5f 3d cc 1d d2 3d 0e 94 e9 3d
       0.12491008 0.05445012 0.102595896 0.11405192
000300 40 79 3e 3d b5 74 e7 3c 81 c0 ba 3d 82 91 bc 3d
       0.04650235 0.028253892 0.091187485 0.09207441
000310 71 bc 27 3d 3c 48 a0 3d 19 ae 62 3d 0f ea ea 3d
       0.040951196 0.078262776 0.055341814 0.114704244
000320 e5 b2 a1 3d 86 66 20 3d 84 6c 95 3d 9a 2c 9d bb
       0.078954495 0.039160274 0.07296088 -0.0047965767
000330 00 79 9a 3d 8b 6c c8 3d 24 5d bb 3a 70 8e 82 3d
       0.0754261 0.09786328 0.0014294726 0.06374824
000340 07 7f 1a 3d 76 a5 72 bb 7c f9 53 3c dc 41 ad 3d
       0.0377188 -0.0037024892 0.0129379 0.08459827
000350 f1 67 97 3d 45 5b 5d 3d 83 c6 28 3c e0 0b 9e 3d
       0.07392872 0.05404212 0.010301235 0.07717109
000360 c4 00 c0 3d 03 e2 c2 3d 54 da 2a 3d 2f 88 de 3d
       0.09375146 0.095157646 0.04171212 0.10865819
000370 af 8a fb 3d 1c 82 c3 3d 88 91 05 3d 3e 6b 14 3d
       0.12282311 0.09546301 0.032609493 0.036235087
000380 bf 23 d2 3d 37 00 26 3c 07 0b ff bd 41 c0 b0 bc
       0.10260724 0.010131887 -0.12453275 -0.021576049
000390 16 86 da bd 72 c3 db bb 67 64 93 bd 64 7f 39 bb
       -0.10670106 -0.0067066485 -0.071968846 -0.002830469
0003a0 f8 54 a9 bd c2 3d 0f bd ff 73 fd bc 0f 67 e0 bd
       -0.0826816 -0.034971006 -0.0309391 -0.10957157
0003b0 40 1a 5e bd 42 e2 b7 bc 51 e8 a5 bd d3 fe 80 bd
       -0.054224253 -0.022446755 -0.081009515 -0.06298604
0003c0 3b f3 a5 bd ef f1 fb bd c0 a2 e8 bb 8a 44 09 bd
       -0.08103033 -0.123020045 -0.0070994794 -0.03351263
0003d0 c0 55 9e bd 83 f9 ab bd ca 0a 00 be f8 4b f7 bd
       -0.07731199 -0.083972 -0.12504116 -0.12075037
0003e0 99 9b 5b bc 43 10 d6 bd 87 f3 80 3d 70 a2 90 3d
       -0.013403797 -0.104523204 0.06296449 0.070622325
0003f0 1f 5b 94 3d cb e3 88 3d ca 83 b2 3c 12 86 e5 3c
       0.072439425 0.06684073 0.021791358 0.028018031

model.hidden_layers.0.bias f4 [8]
000000 25 aa 08 3e 5e be 8b bd bf a4 ec 3d dd e9 34 bc
       0.13346155 -0.06823419 0.1155486 -0.0110420855
000010 51 a5 f7 3b 8d 98 90 bd 14 8d c7 bd 5c 0c 3e 3b
       0.007557549 -0.07060347 -0.097437054 0.0028999066

model.hidden_layers.1.weight f4 [8, 8, 5, 5]
000000 06 4a 03 bd 2c 7f ce bc a1 be 2c bd 57 5e 5a bd
       -0.032053016 -0.025207125 -0.042173985 -0.053312626
000010 ac 27 2a bd 9d 97 42 bd 75 c0 14 be e4 69 aa bd
       -0.04154174 -0.04750787 -0.14526542 -0.08320978
000020 68 e6 00 be 49 11 ce bc 72 bf 0e bd e2 37 01 be
       -0.12587893 -0.025154727 -0.034850545 -0.12618974
000030 64 4d 8a bd 04 25 7a bd df ce 85 bd aa b5 0b be
       -0.06753042 -0.061070457 -0.06533598 -0.13643518
000040 34 74 84 bd d5 c1 a0 bb b8 70 b8 bd f1 b4 bb bd
       -0.064674765 -0.004905919 -0.090058744 -0.09165371
000050 7f 45 2e bd cb 98 29 bd 4f 2c b8 bd c5 f8 d9 bd
       -0.042546745 -0.04140548 -0.08992826 -0.10643152
000060 5f 42 a8 bd 14 65 30 bd db f1 e8 bd 9d 96 db bd
       -0.08215784 -0.043065146 -0.11374255 -0.107220866
000070 b3 a3 7e bc 46 f7 89 3b a7 5f f1 bc 83 86 0d bd
       -0.015541959 0.0042103855 -0.029464556 -0.03455211
000080 c3 5d ed bd aa 97 92 bd c1 c0 98 bd 70 cb 04 be
       -0.11590149 -0.07157834 -0.0745864 -0.1296823
000090 ec 5b 92 bd a1 63 e6 bd c7 c1 27 bd b5 e0 26 3c
       -0.07146439 -0.112494715 -0.040956285 0.01018541
0000a0 dc fb 89 bc c8 8c eb bd 72 1e 5b bc e1 6e 1d bd
       -0.016843729 -0.11501461 -0.013373958 -0.03843582
0000b0 45 c6 c9 bc d5 fd b3 bd 19 e5 e3 bd 14 16 9f 3b
       -0.024630675 -0.08788649 -0.11127681 0.004854927
0000c0 f9 d8 03 be b2 ec 9d bd d0 ea c1 3c 22 3a d2 bc
       -0.12875737 -0.07711162 0.023671538 -0.025662486
0000d0 95 c3 8c bc 91 e5 83 3d a6 db a2 bb e8 a2 2f 3d
       -0.017183105 0.06440271 -0.004970032 0.04287997
0000e0 36 ad 28 3d e0 36 83 3d 5e cb 12 bd d0 e7 ae bc
       0.04118081 0.06406951 -0.035838477 -0.021350771
0000f0 94 4a 78 3d b9 5e 4d bd 76 4e 7f 3d 51 c0 ba 3c
       0.060618 -0.050139163 0.062330686 0.022796782
000100 46 04 88 3d 98 0b 1d bd c2 47 67 3d 05 53 ea 3c
       0.0664144 -0.038341135 0.056464918 0.02860404
000110 28 6c 64 bd 8a 4e a3 bb 09 7f 48 3d 0d 65 69 bd
       -0.05576721 -0.004983728 0.048949275 -0.056981135
000120 59 5b a8 3c 2f dc 71 bd 3a ad 19 bd c9 47 29 bd
       0.02055137 -0.059047874 -0.037518717 -0.041328225
000130 72 58 27 ba 21 fd c0 bd 69 b2 a1 bd 40 61 f6 bd
       -0.0006383724 -0.094232805 -0.07895357 -0.12030268
000140 d2 86 87 bd ab 3f 04 be f8 2e 36 bd 2b 8c 6a bd
       -0.06617512 -0.12914912 -0.044478387 -0.05726258
000150 3e ea 58 bd 16 d1 11 bd a3 7e 95 bd c0 79 f1 bc
       -0.052957766 -0.03559979 -0.07299545 -0.029477
000160 f7 1a d3 bd 7d d8 29 bc 04 2f 38 bc 0b e8 75 bc
       -0.103078775 -0.010366556 -0.011241678 -0.015008937
000170 0a f9 04 be 93 d0 7b bd 9f 28 b8 bc 46 1f 70 bd
       -0.12985626 -0.06147821 -0.022480307 -0.058623575
000180 66 08 ab bb fc 5d e9 bd 06 95 7c 3b 7e df a1 bd
       -0.005219507 -0.11394879 0.0038540973 -0.07903956
000190 83 23 45 bd 5a 03 23 bc 20 27 2c 3c f8 16 8b bd
       -0.04812957 -0.00994953 0.010507375 -0.0679149
0001a0 eb 67 86 bc 6c 25 96 bd 4a f0 98 bd ae 81 bb bd
       -0.016406974 -0.073313564 -0.074677065 -0.09155594
0001b0 cb 86 01 be be 46 ca bd bb 72 9c bc 4d e1 2e bd
       -0.12649076 -0.09876774 -0.019097677 -0.042695332
0001c0 26 c5 b0 bd c5 ef 4f bc d6 4f b3 bd 5b f1 84 bd
       -0.08631353 -0.012691443 -0.08755462 -0.064913474
0001d0 d8 b2 a4 bb 30 40 ea bd 0b 37 a6 3b 93 e0 70 3b
       -0.0050262026 -0.11438024 0.0050724796 0.003675495
0001e0 8f 45 de bd 72 b1 9f bd 1f 51 04 be f5 d0 27 bd
       -0.10853111 -0.07797517 -0.1292157 -0.04097076
0001f0 55 a5 47 bd b5 f7 94 bd 4e 6f 25 bd 00 6b bb bd
       -0.048741657 -0.07273809 -0.04038935 -0.09151268
000200 e5 d1 c6 bd e8 5b b8 bd fa 53 b3 bd 5b 17 21 bd
       -0.09708003 -0.09001905 -0.08756252 -0.039328914
000210 d4 0f a4 bc 45 eb 16 3c a8 7d 80 3c e2 fb 5a bd
       -0.020027079 0.009211366 0.015684918 -0.05346287
000220 37 5b ee bd 37 0d e2 bd 67 70 a5 bd 8f 3a dc bd
       -0.116384916 -0.11037677 -0.0807808 -0.10753357
000230 65 0f 60 3c 48 60 21 bd 19 7b d0 bd 20 60 a9 bc
       0.013675545 -0.03939846 -0.10179729 -0.020675719
000240 ff e2 b0 bd 25 0a a5 bb 45 24 b9 bc 09 f4 c0 bd
       -0.08637046 -0.0050366097 -0.022600302 -0.09421546
000250 fd 1e 9b bd ba b3 76 bd 62 20 98 bd 8c 6e a1 bd
       -0.0757427 -0.060229994 -0.074280515 -0.07882413
000260 e1 66 5e bc d8 6e 14 bc 0b 91 00 be b4 81 0d bd
       -0.013574333 -0.00905963 -0.1255533 -0.034547523
000270 e1 26 33 bb bb 39 0f bd cf 7b fb bd 1e 56 51 bd
       -0.0027336406 -0.034967165 -0.12279474 -0.05110752
000280 a9 e6 86 bc 55 86 9a bd 44 90 e7 bc d5 fa 6c bd
       -0.01646741 -0.07545153 -0.028267033 -0.0578564
000290 0a aa ed bd ac cf 31 bd 59 22 65 bc 6f 85 a4 bd
       -0.11604698 -0.043410942 -0.01398524 -0.08033263
0002a0 2d f9 fa ba 83 a8 80 bd 9e 78 f8 bd 68 50 61 bc
       -0.0019147746 -0.06282141 -0.12132381 -0.0137520805
0002b0 e0 48 c3 3b cd fd 9e bd 47 43 93 bc f4 5e ba bc
       0.005959615 -0.077632524 -0.017976416 -0.022750355
0002c0 90 69 4a bd b0 a1 85 3c 26 0f b9 bc 90 13 94 3b
       -0.04941708 0.01631245 -0.022590231 0.0045189336
0002d0 28 01 b5 3c c0 7f 8e 3a e0 f2 23 3b 54 83 ae 3c
       0.022095278 0.0010871813 0.002501659 0.021302857
0002e0 ce b7 67 3d 95 95 0b bd 28 10 f8 3c b1 7e 7e bd
       0.056571774 -0.0340782 0.030281141 -0.06213254
0002f0 03 e6 70 bd 4e b8 55 3d a8 ee ba 3c ed 1e 3a bd
       -0.058813106 0.05217772 0.022818878 -0.04543965
000300 cc 51 6d bd 0c 35 3a bd ab 1f 8a 3d 9c df 41 bc
       -0.057939336 -0.045460746 0.067443214 -0.011833098
000310 d7 4d 80 3d 58 7b 1d bc ec 32 35 bd 8c 58 db 3c
       0.06264847 -0.009611927 -0.044238016 0.02677562
000320 94 9d 8d bd 8d 59 ef bd e3 52 0c bd ee 40 81 bd
       -0.06914821 -0.11687002 -0.034258734 -0.063112125
000330 2c 16 2b bd 1e d8 13 bc 86 8e c7 bd 7c 6c ef bd
       -0.04176919 -0.009023694 -0.09743981 -0.116906136
000340 b5 2e d3 ba db 74 8d bd 5c 27 c9 bc 23 62 21 bd
       -0.0016111942 -0.06907054 -0.0245549 -0.03940023
000350 d7 9f fd bd ba 84 08 be c8 06 9d bd 8a 53 fd 3a
       -0.12384003 -0.13331881 -0.07667309 0.0019327265
000360 86 90 41 3b 68 4e 62 bd ad 1e 64 bd 6d cc 90 bd
       0.0029535606 -0.055250555 -0.055693317 -0.07070241
000370 f8 df 88 bd 4e ab 4f bd 6f 40 ee bd 8b 5e 9e bd
       -0.06683344 -0.05070048 -0.116333835 -0.077328764
000380 14 37 9b bd 93 8d 91 3d fd 57 e0 3d 61 10 95 3d
       -0.07578865 0.07107081 0.109542824 0.07278515
000390 09 02 02 3e 19 79 a8 3d 33 31 af 3d b7 e2 e9 bb
       0.12696089 0.082262225 0.08554306 -0.007137622
0003a0 af a3 cc bb 67 fb 00 3e 61 46 8a 3b ab 25 a3 3d
       -0.0062450985 0.12595902 0.0042198156 0.07966169
0003b0 e7 bb eb 3c 37 52 b9 3d 37 aa 8d 3d 6a 29 9a 3d
       0.028776122 0.09048884 0.069172315 0.0752743
0003c0 4c ae 95 3d a5 4a fe 3c 6f 81 c8 3d 4c 13 e0 bb
       0.07308635 0.031041453 0.097903125 -0.006838238
0003d0 c7 13 db 3d 40 47 df bb 8d 24 96 3d 08 35 77 3d
       0.106971316 -0.0068139136 0.0733119 0.06035331
0003e0 b0 28 6b 3d 78 67 de 3c 56 79 13 bd cc 61 85 bc
       0.05741185 0.027148947 -0.036004387 -0.016281985
0003f0 e8 99 7e 3d a3 6e 59 3d 76 94 a7 3c b7 49 6e 3b
       0.062158495 0.053084027 0.020456534 0.0036359855

model.hidden_layers.1.bias f4 [8]
000000 b3 80 d8 bc 02 cd 9d 3a cb 87 16 3e 0e fc 93 bd
       -0.026428556 0.0012039247 0.14700238 -0.0722581
000010 94 07 a7 bc 62 08 a1 3c 74 48 b5 3b c2 31 3c bc
       -0.020389356 0.019657318 0.0055323187 -0.011486473

model.output_layers.0.weight f4 [8, 8, 5, 5]
000000 f2 2e 6d 3d cf 7c 04 3e c4 fb b0 3d d3 20 da 3c
       0.0579061 0.12938236 0.086417705 0.02662698
000010 d0 75 c6 3d 6a 4a 1a 3d ad 0c c7 3d 88 f3 9e ba
       0.0969044 0.037668623 0.097192146 -0.0012127021
000020 95 aa 4e 3d 15 58 f1 3d 4e a7 88 3d da 37 16 bc
       0.05045565 0.117843784 0.06672536 -0.0091685895
000030 84 b0 09 3c 9a ca b7 3d 35 2c c2 3c 62 39 e9 3d
       0.008403901 0.0897419 0.02370272 0.11387898
000040 14 de d9 3d e6 b5 f4 3a ee 99 ba 3d 76 0c 01 3e
       0.10638061 0.0018669933 0.09111391 0.1260241
000050 13 c6 0f 3d 31 91 f0 3d 9f ed 04 3e 3d 9b ff 3d
       0.035101008 0.11746443 0.1298127 0.12480781
000060 1f e9 e3 3d 4d aa f2 bd ef 19 be bd 09 27 cd bc
       0.11128449 -0.118488885 -0.0928229 -0.025043027
000070 2f d2 ea bd 0f da 98 bd 1f 91 9f bd 6e 33 d9 bd
       -0.114658706 -0.074634664 -0.077913515 -0.106055126
000080 e3 d9 0f 3c ea f7 60 bd df 39 2a bb a4 88 d5 3b
       0.008779976 -0.05492393 -0.0025974435 0.006516533
000090 04 9e 27 bb b2 5e 70 bd 45 27 86 bd 05 ee c7 bd
       -0.0025576362 -0.05868406 -0.06550459 -0.097621955
0000a0 00 3e 9d bd 79 e8 cb bb 68 df 9a bd 5f ca f4 bd
       -0.07677841 -0.0062227813 -0.075621426 -0.11952662
0000b0 28 e8 92 bb e5 01 51 3a 18 89 8e bc dc 1a 8f bd
       -0.0044832416 0.00079729996 -0.017399356 -0.06987545
0000c0 a1 bb f5 bd e7 89 c9 bd b0 70 b0 3c b7 c2 d2 3d
       -0.11998678 -0.09840756 0.021538109 0.10291045
0000d0 8a be b8 3c 64 c6 d4 3d 03 d6 b0 3c cd d9 c8 3d
       0.022551794 0.103894025 0.021586424 0.09807167
0000e0 3c 30 c2 bb 09 c9 63 3d af 2d b9 3d 44 d9 98 3c
       -0.00592616 0.055611644 0.090419166 0.018658288
0000f0 c8 b3 ea ba 27 27 8c 3c 70 15 19 3c d4 93 f2 bb
       -0.0017906362 0.017108513 0.00934349 -0.0074028764
000100 fa 3a ba 3d bb ce a7 3d e9 81 d0 3c b1 7f 05 3e
       0.0909328 0.081937276 0.025452571 0.13036992
000110 28 6e c6 3d 07 27 65 3c 13 65 11 3d d4 27 8e 3d
       0.096889794 0.013986356 0.035496783 0.0694119
000120 44 fd bf 3d f6 64 e2 3c 17 d7 c4 3d 6d 61 76 bd
       0.093744785 0.027636033 0.09611338 -0.060151506
000130 c4 8b 18 bd 00 3c 61 bd d1 db 28 3c 65 f9 89 bd
       -0.037242666 -0.05498886 0.010306315 -0.06737021
000140 a9 ab 03 be 51 10 78 bd 4e 6f d8 bb 85 92 d6 bb
       -0.12858452 -0.060562436 -0.0066050654 -0.006548228
000150 88 e3 d0 bb 25 b9 78 bd ae 35 af bd 6a 7f 59 bd
       -0.00637478 -0.060723443 -0.085551605 -0.053100027
000160 c5 5f 3d bd 61 7d c5 bc 3b 31 94 bd d2 06 c1 bd
       -0.04623391 -0.024107637 -0.072359525 -0.09425129
000170 cc 03 ad 3b 4c 9b 6e bc 64 77 8b bd 74 75 0b bd
       0.0052799936 -0.014563393 -0.06809881 -0.03404756
000180 85 01 41 bd 33 81 8f bc 48 77 d2 bd d5 bd 3f 3b
       -0.04712059 -0.017517662 -0.10276657 0.0029257436
000190 55 9c d9 bd 00 b2 50 bc 23 c7 24 3c 40 e5 d4 bc
       -0.10625521 -0.012737751 0.0100572435 -0.025988221
0001a0 11 fd 62 bd 2a a3 1e bd b6 bb de bb 78 d4 ef bd
       -0.055417124 -0.038729824 -0.006797279 -0.11710447
0001b0 0c 35 d8 bd 66 e4 14 bd 05 24 85 bd ab 4c 8f bd
       -0.10556993 -0.03635063 -0.06501011 -0.06997045
0001c0 3e f0 c5 bd 07 c2 f0 bd 3b e8 9d bd db 75 fa bd
       -0.09664963 -0.11755758 -0.0771031 -0.122295104
0001d0 3e ec ac bc 38 93 ca bc c8 b5 ec bd 5c da a7 bd
       -0.021108743 -0.024728402 -0.115581095 -0.081959456
0001e0 24 88 e8 bd 88 d9 f4 3b dd 36 dc bd e3 46 27 bd
       -0.11354092 0.007472221 -0.10752652 -0.040839087
0001f0 4f da a4 bc b1 78 67 bd 01 01 ad bd 0c d6 9c bd
       -0.020123629 -0.056511585 -0.08447457 -0.07658014
000200 f1 eb 65 bd 27 63 a3 bd 29 25 e1 bd d9 6e 4c bd
       -0.056133214 -0.07977896 -0.10993416 -0.0499104
000210 f8 a2 7c bc 77 e6 ad bd c2 89 b5 bd 88 7e be bd
       -0.015419714 -0.08491223 -0.08864166 -0.09301478
000220 16 a0 a3 bd a6 63 93 bd a9 83 a1 bd 80 54 e3 bb
       -0.07989518 -0.07196741 -0.0788644 -0.0069375634
000230 d6 1b e0 bd 40 b7 d1 bd 86 0a e0 bd bf a2 9d bd
       -0.10942809 -0.1024003 -0.10939507 -0.07697057
000240 0d ab 80 bd ba 3c e9 bd ec cc 84 bc 63 5c a1 bc
       -0.06282625 -0.11388536 -0.016210996 -0.019697374
000250 9d a7 23 bd b7 35 23 bd 2a cb bf 3a 70 a2 a4 bb
       -0.03995477 -0.03984615 0.0014632691 -0.005024247
000260 42 3e bf bd d9 cc 3c bd 3b 9b 18 bd fe de e6 bc
       -0.093380466 -0.046093795 -0.037257414 -0.028182503
000270 1a f7 d2 bd 85 bd eb bd fa c0 19 bd d5 74 18 bd
       -0.10301037 -0.11510757 -0.037537552 -0.037220795
000280 b4 b5 dc bd cb 8d e6 bd 3d d3 21 3c 77 a3 41 bc
       -0.107768446 -0.112575136 0.009877023 -0.011818758
000290 dd c1 f2 bd ee e4 aa bd 3c 93 f8 bd 23 19 bd bd
       -0.11853383 -0.08344446 -0.12137458 -0.0923331
0002a0 51 9c da bd c6 62 f4 bb db 9d 00 be c8 c0 08 bc
       -0.10674346 -0.007458064 -0.12560217 -0.008346744
0002b0 86 8c ea bd 68 d8 ad bc 89 24 01 bd 4b 53 32 bd
       -0.11452584 -0.021221355 -0.031528983 -0.043536466
0002c0 bc 74 e4 bd bd 0b ce bd f7 6d 9a bb 45 36 8b bc
       -0.11155078 -0.10060833 -0.004712816 -0.016993651
0002d0 8f 20 03 be 26 eb 50 bc 35 49 11 bd d2 fb 10 bd
       -0.12805389 -0.012751376 -0.035470206 -0.035396405
0002e0 ee 9c b5 3b 20 2c c2 bd 15 1a 56 bc c4 7f fe bd
       0.005542389 -0.094810724 -0.013067742 -0.12426713
0002f0 6c 88 4a bd 54 6e 8c bd d8 2e 92 bd f4 d6 8a bd
       -0.04944651 -0.06856981 -0.07137841 -0.0677928
000300 2a 05 44 bd 79 7b 9c bd 23 44 8f bc 7b 0a eb bd
       -0.047856487 -0.07640738 -0.017488545 -0.11476608
000310 a1 b3 2f bc a7 ab 29 3c d2 00 39 bd c9 70 56 bd
       -0.010723979 0.0103558665 -0.045166798 -0.052353654
000320 0a 67 94 3d 1b 30 a1 3c 0a f6 96 3d 0d 91 10 bc
       0.07246216 0.019676259 0.07371147 -0.008823645
000330 a0 f7 69 3d 8f c2 61 bd bd ca 81 bc 77 d3 bb 3d
       0.05712092 -0.055117186 -0.015843743 0.09171193
000340 ec 55 e9 3d 0c da 47 3d c5 a3 7a 3d f5 a1 f3 3d
       0.113933414 0.04879193 0.06119134 0.11896125
000350 e1 46 2b bc af 49 cd 3c 68 49 fa 3b 2b e4 65 3d
       -0.010453911 0.02505955 0.0076381452 0.0561258
000360 56 f7 70 3d 46 7d 13 3d 44 27 4a bd 0c a6 5b bc
       0.058829628 0.036008142 -0.049353853 -0.013406288
000370 7d e4 fd 3d d1 27 56 3d 37 13 51 3c 20 f4 3d 3c
       0.12397096 0.052284066 0.012760929 0.0115938485
000380 cc d0 28 3d b5 95 c9 bc 7a e5 89 bd de 0a 4e bd
       0.04121475 -0.024607519 -0.06733222 -0.050303333
000390 47 42 b7 bd 6b 53 2c bd e4 09 cb bd 3a cd fa bd
       -0.08948188 -0.04207174 -0.09913996 -0.12246175
0003a0 c6 64 3d bd 35 16 cb bd 30 f2 69 bd b3 a0 bc bd
       -0.046238683 -0.09916345 -0.057115734 -0.092103384
0003b0 45 4d cb bd 35 c5 a2 bd 7b 4c b5 bd 34 b8 36 bc
       -0.09926847 -0.079477705 -0.08852478 -0.011152316
0003c0 70 da ff bd 80 7e e6 bc e3 54 e0 bd 44 53 66 bc
       -0.124928355 -0.028136492 -0.10953691 -0.014057938
0003d0 8c 94 ac 3c a6 64 f3 bd 8b 8a 61 bc 0d fc 16 bd
       0.021066926 -0.118844315 -0.013765941 -0.036861468
0003e0 97 71 6d bd 86 ab 65 bd 20 7a 99 3d d1 f5 a3 3d
       -0.057969656 -0.05607178 0.074939966 0.0800587
0003f0 86 da 77 3c a6 55 f9 3d 85 fe f3 3c 9a ad b6 3d
       0.015127784 0.12174539 0.02978445 0.089198306

model.output_layers.0.bias f4 [8]
000000 13 f5 c7 bd fa ab d2 bc bc 58 1f bc 11 9d f2 bc
       -0.09763541 -0.02571677 -0.009725746 -0.02961591
000010 e5 67 01 bd 86 bc a0 bd 9b d9 45 bd ed f3 96 3c
       -0.031593222 -0.07848458 -0.048303228 0.01842686

model.output_layers.1.weight f4 [1, 8, 5, 5]
000000 8f 53 d7 3d da da ec 3d 4b a6 e9 3d 8f e2 4a 3c
       0.105139844 0.1156518 0.11408671 0.012383117
000010 d9 54 aa 3d ef 01 b1 3c 77 76 53 3c b7 da cc 3d
       0.08316965 0.021607367 0.012906662 0.10002654
000020 5e 41 d9 3d 38 42 a7 3d a6 9d ad 3d 8d 5e c0 3d
       0.10608171 0.08166927 0.08477335 0.09393034
000030 93 f0 79 3d 45 e5 c7 3d a8 96 fb 3d 1a 9e 89 3c
       0.061020445 0.097605266 0.12284595 0.016799022
000040 ac 7a 80 bb c0 69 a2 3c 80 42 dd 3b 5e fc be bb
       -0.0039208736 0.019825816 0.006752312 -0.0058284244
000050 4b 23 d8 3d 8c cd f6 3c bf 8c 1c bc aa c4 0d bc
       0.105536066 0.03012731 -0.009555041 -0.008652845
000060 30 3f 1d bc 00 9c 7b ba 6a 12 26 3d 8a 42 ac 3a
       -0.009597585 -0.0009598136 0.040544905 0.0013142389
000070 80 e0 8f 3d ad 5e 88 bb 94 13 1d bc 4c 9d 1e 3d
       0.07025242 -0.004161677 -0.009587187 0.03872423
000080 24 fb c0 3d 35 96 c8 3c b6 f9 ba 3d 33 8d 2a 3d
       0.09422901 0.024485687 0.0912966 0.041638564
000090 04 ab c6 3d 4b 71 7f 3c 5c 05 6c 3d f0 3b 5c 3b
       0.097005874 0.015590976 0.0576223 0.0033605061
0000a0 25 51 fd 3d eb f7 7a 3d 99 28 50 3c eb 33 7f 3c
       0.12368993 0.06127159 0.012704992 0.015576343
0000b0 b2 76 83 3d 58 57 94 3d 9c 6b b8 3b 0e d1 d8 3c
       0.06419124 0.07243222 0.0056280624 0.026466873
0000c0 f7 04 cb 3d 9b 7b 07 3c 4a 84 81 3d 7b ef 02 3e
       0.09913056 0.008269216 0.0632406 0.12786667
0000d0 52 2b 50 3b 7d 53 18 3d 16 e8 68 3d a4 e8 63 3d
       0.0031764102 0.037188996 0.05686196 0.055641785
0000e0 19 22 4b 3d c0 cf e1 3d c3 77 0b 3d 92 96 c1 3d
       0.049593065 0.11025953 0.03404976 0.09452547
0000f0 df 3e 24 3d da 6b 10 3d 5f 1f 97 3c 4c 33 74 3d
       0.04009902 0.035259105 0.018447576 0.059619233
000100 3d 0a 43 3c bd c0 ff 3d 9f 8f 00 3c 45 ac c1 3c
       0.011904296 0.12487934 0.007846742 0.023641715
000110 03 2b 5e 3d d0 c7 8c 3d 13 63 9b 3b 33 84 f6 3c
       0.054240238 0.06874049 0.004742035 0.030092334
000120 41 75 ac 3a 9c e4 ca 3d 79 53 96 3d 72 00 a6 3d
       0.0013157503 0.09906885 0.0734014 0.08105554
000130 23 fb f7 3d 04 47 85 3d ba 6e 83 bb 51 77 40 3d
       0.121084474 0.06507686 -0.0040110024 0.04698879
000140 08 44 93 3c 08 e8 9e 3d 17 d6 b2 3d 65 74 fa 3c
       0.017976776 0.077591 0.08732241 0.03057308
000150 2c 7a ed 3c 43 67 79 3d 90 a0 87 3c 82 9c b9 3d
       0.02898892 0.060889494 0.016556054 0.090630546
000160 05 0f 25 3c 80 63 ee 3d 19 c2 a9 3d 31 36 0f bc
       0.010074382 0.11640072 0.08288974 -0.008740948
000170 89 fa d0 3d a1 0c a6 3d dc 1d 09 3d 42 50 44 3d
       0.10204036 0.081078775 0.03347574 0.047928102
000180 86 71 8f 3d b2 69 8d bb ef 21 50 3d 8b b0 04 3c
       0.07004075 -0.0043155784 0.05081361 0.008098732
000190 2b a1 53 3c ca d8 c1 bd 80 95 b4 bd f9 8e d3 bd
       0.012916843 -0.09465177 -0.08817577 -0.10330004
0001a0 08 ae 87 bd dd 1f b0 bd 28 a6 af bd c1 5a 13 3c
       -0.06624991 -0.085998274 -0.08576614 0.008993805
0001b0 e6 bf cb bd a2 1b 4a bd f4 a4 54 3b 79 9f 82 bd
       -0.09948711 -0.04934276 0.0032446953 -0.06378073
0001c0 bc 3d cc 3c df fd 74 bc 4b ad 01 3d 23 c8 db bd
       0.024931781 -0.014953106 0.031659406 -0.107315324
0001d0 f6 e0 ce bd f1 23 c0 3b aa 03 9e bc f0 c7 cf bd
       -0.10101502 0.0058636595 -0.019288857 -0.10145557
0001e0 5f 9c af bd 1b 4d 0e bd 24 9d 04 bc db c4 9d bd
       -0.08574747 -0.034741502 -0.008094106 -0.07703563
0001f0 eb 75 fb bb 74 3b c1 bd 12 6a 4d bd 69 a1 46 3c
       -0.007673969 -0.09435168 -0.050149985 0.012123444
000200 98 99 18 bd e3 56 a9 bc c5 cb cd bd 46 ba ba 3c
       -0.037255853 -0.020671314 -0.100486316 0.0227939
000210 59 b4 8e bd 89 36 b7 bd 40 10 be bd f3 17 88 bd
       -0.06967992 -0.08945949 -0.09280443 -0.06645193
000220 ce 01 2c bd 96 b9 78 bd f0 67 e0 3c 38 60 3f 3c
       -0.04199391 -0.060723864 0.027393311 0.011680655
000230 94 a1 58 3a b8 a7 55 3c a3 d4 1f 3c 86 b5 9b bd
       0.0008263823 0.013040476 0.009755286 -0.07602982
000240 0a 6e 8c bc 8d b8 09 bd 80 3d a6 bd 1d 94 03 3d
       -0.017142314 -0.033623267 -0.08117199 0.032123674
000250 d1 59 82 3b 92 0f 90 bc a2 bc 81 bd aa a4 a6 3c
       0.003977992 -0.01758555 -0.06334807 0.02034219
000260 25 09 58 bd 5c d0 55 bd b8 88 76 bd b7 b1 5a 3c
       -0.052743096 -0.05220066 -0.06018898 0.013348035
000270 56 5c c1 3b 72 6e e5 bc 0c d7 5d 3c c3 6c 01 bd
       0.0059009 -0.028006766 0.013540041 -0.031597864
000280 8c da 8a bd 93 3b dc bd d2 52 a2 bc 35 fd d8 bb
       -0.06779966 -0.107535504 -0.019814882 -0.0066219815
000290 b4 8c 29 bd eb af a9 bc b3 9c 70 bd 71 70 94 bd
       -0.04139395 -0.020713767 -0.05874319 -0.07248009
0002a0 d2 17 06 bc fe bf 3a bd 8f 1c f2 bd ef 01 02 be
       -0.00818439 -0.045593254 -0.11821853 -0.1269605
0002b0 9b 9d 6c bc a7 57 06 be f4 c0 00 bd 5c 91 98 bd
       -0.014441873 -0.13119374 -0.031434014 -0.074496
0002c0 7f 48 8e 3c 0f 75 15 bb 1c 27 25 bd 57 2b 91 bd
       0.017368553 -0.0022805368 -0.0403205 -0.070883445
0002d0 92 78 4e 3d 4f 54 6a 3d 00 8c a0 3d 3c cc ba 3d
       0.050407954 0.05720931 0.07839203 0.09120986
0002e0 09 70 c3 bb 7a f8 99 bc 2c 29 8e 3d 23 2a f2 3d
       -0.0059642834 -0.01879524 0.06941447 0.11824443
0002f0 f0 ac 96 3d 54 d4 7c 3d 7a 59 2b 3d e5 9c 80 bd
       0.07357204 0.06172593 0.04183338 -0.06279925
000300 1d 91 a6 3d 1c 05 6c 3c cd a9 09 bd e4 27 94 3c
       0.08133147 0.014405515 -0.0336092 0.018085428
000310 36 11 2b 3d d1 e5 a9 3d ba 25 da bc df 53 01 3d
       0.04176446 0.08295787 -0.026629318 0.031574126

exp_avg f4 [8]
000000 26 3b 18 1f 5c ce 17 1f 69 78 83 15 19 f0 46 9e
       3.223618e-20 3.214619e-20 5.310045e-26 -1.0531684e-20
000010 ad 10 3d 1e d6 e9 87 20 0b bf 21 1f 07 bd 84 9f
       1.0009025e-20 2.302463e-19 3.4251103e-20 -5.6216894e-20

exp_avg_sq f4 [8]
000000 0e 94 ed 38 35 42 68 38 a6 c4 23 35 08 45 db 36
       0.00011328618 5.537477e-05 6.1008393e-07 6.534745e-06
000010 dc cd e5 37 16 ff 99 3a 91 62 82 37 d7 25 17 39
       2.7394788e-05 0.0011748995 1.5543106e-05 0.00014414579

exp_avg f4 [8, 1, 5, 5]
000000 60 95 00 1c 80 88 8a 9b 45 7f 71 9c e7 91 b1 9c
       4.254471e-22 -2.2918396e-22 -7.9904703e-22 -1.1750592e-21
000010 68 01 e0 9c b8 0b 93 1c 0a 69 a6 1b 8d 34 f2 9b
       -1.482344e-21 9.730673e-22 2.7530276e-22 -4.0069502e-22
000020 85 86 8c 9c 64 28 c9 9c 9c 71 f8 1c 81 00 a1 1c
       -9.299195e-22 -1.3311505e-21 1.6440631e-21 1.0654217e-21
000030 3e ab 09 1c 39 0b 73 9b ed 54 5f 9c 9d 4b 0d 1d
       4.5550823e-22 -2.0104115e-22 -7.3894275e-22 1.8700286e-21
000040 87 8e e3 1c f4 a8 96 1c ba 92 ea 1b b5 b0 48 9b
       1.5058442e-21 9.969841e-22 3.8806872e-22 -1.660071e-22
000050 d5 28 cf 1c 1e 13 cc 1c 14 d4 ab 1c dd 70 59 1c
       1.3708666e-21 1.3504529e-21 1.1370652e-21 7.194515e-22
000060 61 a4 a0 1b 4d 99 0e 20 51 cc 0f 20 a8 e9 0f 20
       2.6576007e-22 1.2078591e-19 1.2180174e-19 1.2189882e-19
000070 b7 de 0e 20 8a 0a 0d 20 4e 83 0f 20 b1 49 11 20
       1.2101558e-19 1.1946652e-19 1.2156016e-19 1.230636e-19
000080 69 ec 11 20 9f 4a 11 20 57 9b 0f 20 71 0d 10 20
       1.2360199e-19 1.2306668e-19 1.2163969e-19 1.2201722e-19
000090 31 12 12 20 b4 ff 12 20 1e c5 12 20 41 9a 11 20
       1.23727e-19 1.2451286e-19 1.2431902e-19 1.2333016e-19
0000a0 4e 7c 0e 20 bf 9c 10 20 d0 bb 11 20 4a c2 11 20
       1.2068997e-19 1.2249137e-19 1.234412e-19 1.2346263e-19
0000b0 2f f9 10 20 f8 7a 0c 20 35 91 0e 20 97 ce 0f 20
       1.2279722e-19 1.1899148e-19 1.2075913e-19 1.2180926e-19
0000c0 74 f9 0f 20 39 67 0f 20 51 56 10 1d 87 85 07 1d
       1.2195108e-19 1.2146725e-19 1.9102866e-21 1.7936133e-21
0000d0 b0 32 ca 1c bf c7 4a 1c f4 bf 03 1a 4a e0 e5 1c
       1.3380341e-21 6.709436e-22 2.7245224e-23 1.5211926e-21
0000e0 de b8 07 1d 4a 6e 00 1d 9a 34 bb 1c 14 c2 39 1c
       1.7962675e-21 1.6997677e-21 1.2388219e-21 6.1462205e-22
0000f0 76 c8 da 1b 6f 4e 3b 1c 73 8b 87 1c e2 f2 8a 1c
       3.619462e-22 6.1974483e-22 8.969597e-22 9.194858e-22
000100 09 da 63 1c c1 d6 9f 9c 99 49 89 9c f1 b1 3e 9c
       7.5389803e-22 -1.057725e-21 -9.084924e-22 -6.309571e-22
000110 9f 80 e5 9b 41 43 06 9b 6e b0 15 9d 56 d4 19 9d
       -3.7967991e-22 -1.1105951e-22 -1.9811198e-21 -2.0359157e-21
000120 41 63 0d 9d 65 07 ef 9c a6 7a b9 9c 64 84 29 20
       -1.8712508e-21 -1.5817605e-21 -1.2273977e-21 1.4358661e-19
000130 5f 02 2b 20 b2 eb 2b 20 d8 32 2b 20 3f 26 29 20
       1.4485048e-19 1.4562248e-19 1.4501086e-19 1.4327511e-19
000140 9c c7 2c 20 4e 8b 2e 20 c8 97 2f 20 6e 01 2f 20
       1.4635012e-19 1.4784465e-19 1.4873297e-19 1.482355e-19
000150 69 f9 2c 20 da f7 2e 20 58 df 30 20 48 07 32 20
       1.465149e-19 1.482038e-19 1.4981678e-19 1.5079596e-19
000160 9d 81 31 20 2a 95 2f 20 a7 02 2f 20 da 08 31 20
       1.5035369e-19 1.4872431e-19 1.4823954e-19 1.4995412e-19
000170 7f 56 32 20 1c f8 31 20 d8 37 30 20 e1 c8 2d 20
       1.5105806e-19 1.5074576e-19 1.4926257e-19 1.4720135e-19
000180 05 e7 2f 20 88 53 31 20 47 1f 31 20 91 95 2f 20
       1.4899515e-19 1.5020121e-19 1.5002832e-19 1.4872564e-19
000190 26 af d1 1f 5e 6f d4 1f 49 f3 d2 1f 6d 47 d1 1f
       8.88047e-20 8.9969734e-20 8.934094e-20 8.863311e-20
0001a0 25 29 ce 1f 6c 71 d5 1f bf 8d d9 1f bc 34 d9 1f
       8.731246e-20 9.039665e-20 9.2137574e-20 9.1990316e-20
0001b0 28 b1 d7 1f e3 2d d4 1f 4c d5 d4 1f 59 f8 d9 1f
       9.134912e-20 8.9861406e-20 9.013836e-20 9.231393e-20
0001c0 ca 00 db 1f bd d5 da 1f 89 7e d8 1f 42 b3 d0 1f
       9.275141e-20 9.268019e-20 9.168889e-20 8.8387984e-20
0001d0 05 21 d6 1f c4 f4 d7 1f 77 32 d9 1f 29 67 d8 1f
       9.068715e-20 9.146097e-20 9.198656e-20 9.165022e-20
0001e0 63 5f cb 1f 69 bf d0 1f ac e1 d2 1f 4d c6 d4 1f
       8.613165e-20 8.840809e-20 8.93118e-20 9.0113554e-20
0001f0 8e a7 d4 1f 49 66 0f 9c d6 9b ae 9b fe 83 83 9b
       9.006269e-20 -4.744693e-22 -2.8886592e-22 -2.175743e-22
000200 99 e2 2c 9a 00 15 d0 1a ea 57 39 9c a1 b9 d6 9b
       -3.575181e-23 8.606071e-23 -6.132499e-22 -3.552329e-22
000210 9e 3b 89 9b 37 2e 2c 9a 93 9b d5 1a 10 77 6b 9c
       -2.2703275e-22 -3.5606098e-23 8.834608e-23 -7.790886e-22
000220 4b af 14 9c c0 f7 cc 9b 74 a0 34 9b 4d 0d 1a 9a
       -4.9195653e-22 -3.3909074e-22 -1.4941096e-22 -3.1857198e-23
000230 c2 93 7e 9c be d7 2a 9c ec c0 f0 9b 51 0c 6e 9b
       -8.4232523e-22 -5.652712e-22 -3.9829342e-22 -1.9690878e-22
000240 02 26 e3 9a 62 37 79 9c fd 43 36 9c c6 76 06 9c
       -9.3946404e-23 -8.245877e-22 -6.030662e-22 -4.449039e-22
000250 f2 b4 8b 9b bf 67 25 9b 81 45 2c a0 7b 20 2e a0
       -2.3112554e-22 -1.3682002e-22 -1.4591964e-19 -1.474912e-19
000260 c6 be 2f a0 47 d5 2d a0 1b 13 2c a0 59 7f 2e a0
       -1.4886198e-19 -1.4724238e-19 -1.4575288e-19 -1.4780509e-19
000270 a5 a2 30 a0 ce af 32 a0 eb 26 31 a0 00 b0 2f a0
       -1.4961594e-19 -1.5135355e-19 -1.500536e-19 -1.488131e-19
000280 14 6e 30 a0 e5 91 32 a0 ac bb 34 a0 54 61 33 a0
       -1.4944202e-19 -1.5125459e-19 -1.5308688e-19 -1.5194093e-19
000290 27 21 32 a0 85 ca 2f a0 75 c9 31 a0 ef cc 33 a0
       -1.5088156e-19 -1.4890085e-19 -1.505914e-19 -1.5229697e-19
0002a0 ff 7c 32 a0 69 62 31 a0 53 37 2e a0 d9 39 30 a0
       -1.5118544e-19 -1.5025044e-19 -1.4756679e-19 -1.492692e-19
0002b0 07 2a 32 a0 80 db 30 a0 a4 d2 2f a0 4e fe 8d 9c
       -1.5091092e-19 -1.4980406e-19 -1.4892772e-19 -9.396334e-22
0002c0 40 83 83 9c ea ae b1 9c ed b4 d5 9c 6c 8f e9 9c
       -8.70278e-22 -1.1758092e-21 -1.4141926e-21 -1.545572e-21
0002d0 5c 29 b6 9c 4f 48 ac 9c b4 14 d5 9c 04 7d f5 9c
       -1.2054441e-21 -1.1400697e-21 -1.4100509e-21 -1.6245056e-21
0002e0 e2 bb 02 9d 16 4f cc 9c 40 f1 be 9c 0f 04 e2 9c
       -1.730249e-21 -1.3520031e-21 -1.2635507e-21 -1.4956475e-21
0002f0 46 6a 00 9d 8b ee 07 9d 27 c7 fa 9c b4 d2 e6 9c
       -1.6995601e-21 -1.7990425e-21 -1.6595092e-21 -1.5274589e-21
000300 49 09 01 9d 60 ce 0e 9d 67 a2 15 9d 9c 71 11 9d
       -1.7077808e-21 -1.8900237e-21 -1.9803946e-21 -1.9249325e-21
000310 d9 fa 08 9d 92 2f 13 9d 6e 2b 1e 9d db 7b 22 9d
       -1.8129135e-21 -1.9479881e-21 -2.0933579e-21 -2.1504553e-21
