checkpoints/model-epoch=01-validation_loss=0.09.ckpt (torch, 103318 bytes, 36 tensors)

model.bias f4 [8]
00000000: a8ad 74bf ba3f 99be bdef 0c3e 0ad0 813f
00000010: 7171 403e c656 843e 5e64 23bf 6bec bd3e
-0.9557748 -0.29931432 0.13763328 1.0141613 0.18793274 0.25847453 -0.63825023 0.37094435

model.input_layers.0.weight f4 [8, 1, 5, 5]
00000000: f566 513f b111 113f 58e7 c53e 2b71 7a3e
00000010: d25a 67be c3eb 243f daa5 583f f45d d53e
00000020: 02d2 d43d ff81 81bd db4c 0c3f d91a 223f
00000030: 1ff7 133f 453d ce3e b5cf 833d 7ec5 f13e
00000040: 2abe 453f aaba 203f 9932 e63d bdc3 4b3d
00000050: 2f52 fd3e 5bdc 123f 6cd0 dc3e 9297 5f3e
00000060: 7371 2bbe 5779 10bf 3a4b 3bbf 76c0 afbe
00000070: 29f5 89be 9ad5 273e 140e 54bf c18a 57bf
00000080: 42aa 09bf 9f65 e6bd ff3f 993d 20d8 66bf
00000090: a106 66bf 9d69 18bf cc3f 95be 202d 24be
000000a0: ce30 37bf a62f 06bf e342 51bf a956 a2be
000000b0: 6b98 2ebd 2af5 16bf d137 eebe befa 33bf
000000c0: 56f3 00bf 6325 69be 242e 66bf fbfc 30bf
000000d0: d7f0 d7be 5d4f 41be ef7a 643d e8ae 3ebf
000000e0: efaa 06bf d6c9 0ebf 25b1 a7be 0557 523d
000000f0: e85c 1abf 28c4 07bf e68b 35bf 3634 89be
00000100: e0d3 2c3d 6fd7 21bf 86c6 0ebf 6bc1 d0be
00000110: fe5b ddbe d68b 013e dc01 21bf 84b8 13bf
00000120: acb8 bcbe 8b00 61be 20a1 04be dee9 50bf
00000130: f7b4 d6be 6cde 94be c1fa 8fbe 9112 a83d
00000140: 4a1e 25bf 3d74 02bf 6d01 98be b8b2 3bbe
00000150: 02d5 a3bd f57e 2dbf f61a e9be b122 e3be
00000160: 87f9 15be 980f 7abe 9e56 f8be a484 38bf
00000170: affb 2abf be43 33be 1af3 7abd ff55 2fbf
00000180: 65d5 1bbf d645 27bf 4763 f1be edd0 69be
00000190: 0253 f4be a416 00bf 86f4 f8be 74d0 bcbe
000001a0: 2dc8 923d 46db 43bf 7165 ffbe 3328 2abf
000001b0: c932 2abe 6562 0b3d 8cc0 48bf 8d26 d8be
000001c0: dd39 1abf 112f a2be b90a 623d db6c dfbe
000001d0: 6492 3dbf 1f14 e1be ecd3 84be 8ae3 74be
000001e0: 58be 97be 4d0d 13bf 0f5b 0dbf 0c7c 81be
000001f0: 2d8c 1dbe 2f14 f03e 33bf 043f 75a1 f63e
00000200: c771 ac3e bb19 3fbe c561 1f3f aaaf 043f
00000210: 6611 e83e feca 993d ae2e 143e 3373 eb3e
00000220: 3e64 a03e 1fd4 eb3e ea68 3a3e 2ee4 8b3e
00000230: 8b02 263f ed0c 1e3f 0b40 aa3e de6e 473e
00000240: cb30 903e dbfd 223f 6a4e 933e bdad a03e
00000250: dc66 013f 9461 5e3e 502c 483f 6dac eb3e
00000260: 6a1a 153f 23bd 223b a1b6 b2be aa59 413f
00000270: e0a7 e33e 7b93 ea3e 03cd 273e 64cd 12bb
00000280: a4cc f83e 2ee8 253f ca68 233f 8475 ae3e
00000290: 3f47 09be 1b78 c13e 9999 d63e 911d 283f
000002a0: 0641 fa3d a73d b33d 24ec 8a3e aac7 e53e
000002b0: f98b 023f 547f 5c3e a15f 72bb 7329 17bf
000002c0: 3a6a 18bf 5e70 c4be 8c52 49be 545d b4bc
000002d0: d9d5 c5be 9781 fcbe b3b9 fcbe bf94 debe
000002e0: 82f0 0e3e e33c 37bf 5aa6 ddbe 1b63 cbbe
000002f0: 4f88 a9be aa18 3dbe 8800 2bbf bdfb acbe
00000300: f5aa bbbe fed7 0abe d60e a73d eed9 19bf
00000310: 95bf 27bf 5a53 07bf d612 a2be 29db 8fbe
0.81797725 0.5666762 0.38653064 0.24457233 -0.22593239 0.64422244 0.8462807 0.41673243
0.10391618 -0.06323623 0.5480477 0.63322216 0.5779895 0.4028112 0.06436101 0.47220987
0.7724329 0.62784827 0.112401195 0.049747217 0.49476764 0.57367486 0.43127763 0.21835163
-0.16742496 -0.5643515 -0.7316166 -0.34326524 -0.26944855 0.16390076 -0.8283398 -0.84196097
-0.5377542 -0.112498514 0.074829094 -0.9017353 -0.89853865 -0.59536153 -0.29150236 -0.16032839
-0.71558845 -0.52416456 -0.81742686 -0.3170674 -0.042625826 -0.5896784 -0.4652696 -0.7030448
-0.503713 -0.22768168 -0.89914155 -0.6913602 -0.42175934 -0.18877931 0.0557813 -0.74485636
-0.52604574 -0.5577673 -0.32752338 0.05135252 -0.60298014 -0.53033686 -0.70916593 -0.26797646
0.042194247 -0.6321935 -0.5577167 -0.40772566 -0.43234247 0.12651 -0.6289346 -0.57703424
-0.36859643 -0.21972863 -0.1295209 -0.81606853 -0.4193494 -0.29075944 -0.28120998 0.08206666
-0.6449934 -0.50958616 -0.29688588 -0.18329895 -0.079996124 -0.67771846 -0.45528382 -0.44362405
-0.14645968 -0.24420011 -0.48503584 -0.72077394 -0.6679029 -0.1750631 -0.061266996 -0.68490595
-0.6087249 -0.65340936 -0.47146055 -0.22833605 -0.4771958 -0.50034547 -0.48624057 -0.36877787
0.07167087 -0.7650646 -0.4988208 -0.6646759 -0.16620935 0.034029383 -0.78418803 -0.42216912
-0.6024454 -0.31676534 0.055186007 -0.43637738 -0.740515 -0.43960664 -0.25942934 -0.23914924
-0.29637408 -0.5744217 -0.5521707 -0.25289953 -0.15385504 0.468904 0.51854247 0.48170057
0.33680555 -0.18662159 0.6225856 0.5183054 0.45325774 0.07509421 0.14470932 0.45986328
0.3132648 0.46060273 0.18204084 0.27322525 0.6484763 0.61738473 0.33251986 0.19475886
0.28162226 0.636686 0.28770763 0.31382552 0.50547576 0.2171691 0.78192616 0.46029988
0.5824343 0.0024831973 -0.3490496 0.7552744 0.44464016 0.45815644 0.163868 -0.0022400254
0.48593628 0.64807403 0.6383177 0.34074032 -0.13406084 0.37786946 0.4191406 0.65670115
0.122194335 0.087519936 0.27133286 0.44878894 0.5099483 0.21532947 -0.0036983269 -0.5904762
-0.5953709 -0.3836698 -0.19660395 -0.022017159 -0.38639715 -0.4931762 -0.49360427 -0.4347286
0.13958934 -0.7157728 -0.4329098 -0.3972405 -0.33111808 -0.1846644 -0.66797686 -0.3378581
-0.36653867 -0.13558957 0.081571266 -0.6009816 -0.65526706 -0.5286156 -0.31654996 -0.28096893

model.input_layers.0.bias f4 [8]
00000000: e38b 2a3e cdb1 0dbe 58f7 cbbd 23b5 05be
00000010: 2923 c0bc b015 edbc dad8 05bc f6bf 02bd
0.16654925 -0.13837357 -0.099592865 -0.1305738 -0.023454266 -0.028941005 -0.008169377 -0.03192135

model.input_layers.1.weight f4 [8, 8, 5, 5]
00000000: 43db 80be 4aa8 90be 6f16 3fbe 60b5 f7bc
00000010: 1975 453c 5410 98be f273 20be 96ed 62be
00000020: eff9 15bd 5510 79bd 81ee 9dbe 2ae4 8bbe
00000030: 3b01 9dbe fd7c 77be 57ff 3ebe 81f7 87be
00000040: b229 a5be aeb0 eabe a2f5 bdbe b2df e7be
00000050: 8cf6 e9be d59c d7be d168 08bf 3111 05bf
00000060: db18 05bf 832c ef3e e667 983e b283 463e
00000070: 3de2 7e3d 1654 cfbd 603c f13e 3ee1 983e
00000080: b406 7a3e 3885 e33d 42be 073d ab80 033f
00000090: e991 c63e fa1a ab3e 2e24 c03e 822b 983e
000000a0: c3fc e23e 6b4f fd3e a6b0 f33e c519 103f
000000b0: e7ae f53e c286 183f b387 1e3f f782 383f
000000c0: 35a0 323f 092f 263f c0dd 953e 820b 023e
000000d0: ca6b da3d 391f 00bd ff21 2cbe 848f 423e
000000e0: 9241 453e 1d54 113e 726c 0b3d 55e0 2cbd
000000f0: dc85 643e fbbd 5b3e d404 8a3e fbf8 1c3e
00000100: cd08 913d adf9 833e deeb 9e3e c1ac 963e
00000110: e8cd b13e a52e 903e a97b b53e a3a5 d93e
00000120: c841 ed3e f756 003f 1a85 f03e d162 a23e
00000130: bb5d 333e 67a5 e53d a36f 9e3d c59c c3bc
00000140: 5f8a ab3e 957f 833e 8c0b 1e3e 0b3d c53d
00000150: fedd 29bd 2d3a 9b3e 09ad 633e c7e4 ad3e
00000160: bea2 6b3e 7129 153e 03d3 c63e 085e 9f3e
00000170: 42b8 e03e 3595 b53e 72fe a33e 158d f33e
00000180: 5a50 ff3e fe37 0c3f 2f9f dd3e b6db ea3e
00000190: b413 a53e c565 443e 4fa0 6bbb f37f 8dbd
000001a0: 27f9 17be 8f4e 883e 446d 2a3e a65f 053d
000001b0: aec6 ea3c 1b99 11be b1ad 9d3e 0da5 523e
000001c0: f6f8 653e 0590 073e 3666 8b3d eb2d 8b3e
000001d0: 4a24 7e3e 0691 953e e4de bf3e 7e3f 9d3e
000001e0: 8c50 ba3e 93bc e03e 0224 ea3e e783 cf3e
000001f0: fde1 ac3e 1001 3ebe 496b 33be f479 adbd
00000200: e5cf ee3a 452c 0a3e ec64 7abe ee9e 3fbe
00000210: df30 93bc a285 49b9 fd9d 843d 5c61 6fbe
00000220: 870c 1abe 0aa9 1dbe b248 01be 26d6 0ebd
00000230: 199d 6dbe ce30 74be 98a5 80be e3fa 5dbe
00000240: 634e 40be 9189 81be a087 91be 8790 a0be
00000250: 669c 8abe 940f 69be 17c2 57be f35c f5bd
00000260: 6b29 ddbd 8e5c dd3d 325a 333e df2e 50be
00000270: b4e3 15be 0138 dfbd 6b10 043d 4b09 003d
00000280: 7a2d 31be 7730 e0bd 2c62 d7bd 415b e9bd
00000290: 167e a7bd 65e0 53be d9e5 87be 0265 94be
000002a0: 436e 87be ae81 2bbe fa34 99be 1296 aebe
000002b0: 916b c9be e579 c8be 3b91 96be ee5f 093e
000002c0: d384 f73d 63eb 0f3d 8338 b9bd fe43 58be
000002d0: 7235 e33d c529 0b3b d753 abbd b0ab 55bd
000002e0: 2cbd fbbd 53b5 7b3e cbbe 2a3e 6e9f d83d
000002f0: f289 f23a 9171 7ebc 79b3 7e3e ada5 8f3e
00000300: 6ffa 953e 6a2a 793e d221 c93d cbcd b63e
00000310: fb00 b13e 1b9e bf3e 2d8f bf3e a560 a93e
00000320: d297 823e 51ff 9c3e 160f 923e e89b 7c3e
00000330: 6d7b a53d 55bf b43e 0b6a 6a3e dde3 b53e
00000340: 0b0e 903e e8cf 2f3e 587f c13e 97c0 993e
00000350: 7794 af3e 15f5 b43e e2bb 803e 2b7b 953e
00000360: 8317 bf3e 9ae6 cc3e 3e58 923e 335e a03e
00000370: 63ca ca3e 412b cf3e 2959 b03e 3077 a83e
00000380: d162 a93e 8924 a9be a154 b5be 8905 62be
00000390: 9514 6fbe 8c68 68be 8195 bfbe 7728 a8be
000003a0: 9eac a3be 1a6e 8dbe cf42 2bbe 52ff bfbe
000003b0: 6427 c3be fac4 bcbe 9193 c8be 2fd7 aebe
000003c0: 857e a9be c3d9 cbbe de9e e1be ff48 b0be
000003d0: ee1c acbe 41ad d5be 551f dcbe 2d6d d5be
000003e0: dd79 aabe 3f0c 84be 056f 61be 57bd 94be
000003f0: b2e9 66be 06b6 7ebe 05a7 08be de57 81be
-0.25167283 -0.28253394 -0.18660901 -0.030237854 0.012051844 -0.29699957 -0.1566923 -0.22160944
-0.03661531 -0.06080659 -0.30846027 -0.27322513 -0.30665 -0.24168773 -0.18652092 -0.26556018
-0.32258373 -0.4583792 -0.37101465 -0.45287853 -0.45695913 -0.4211184 -0.5328494 -0.51979357
-0.5199105 0.46713647 0.29766768 0.19386175 0.062227476 -0.1012346 0.47116375 0.29859346
0.2441662 0.11109394 0.03314043 0.51368207 0.38783196 0.3341902 0.37527603 0.29720694
0.44333467 0.49474654 0.4759571 0.5628932 0.47985002 0.59580624 0.6192581 0.72074836
0.69775707 0.6491552 0.29270744 0.12699702 0.106650904 -0.031279776 -0.16809843 0.1900006
0.19263294 0.14192243 0.03403897 -0.042206127 0.22316688 0.2145919 0.2695681 0.15329354
0.07081757 0.25776425 0.31039327 0.29428676 0.34727407 0.28160587 0.35445908 0.42509183
0.4633925 0.501327 0.46976548 0.31716016 0.17516224 0.112131886 0.07736137 -0.023878464
0.33504006 0.25683275 0.15434092 0.09630784 -0.041471474 0.30317822 0.22233976 0.33963606
0.230113 0.1456659 0.38832864 0.31126428 0.43890578 0.35465398 0.32030064 0.47568575
0.4986599 0.5477294 0.4328551 0.4587075 0.32241595 0.19179447 -0.0035953706 -0.0690917
-0.14841138 0.26622435 0.16643244 0.03256192 0.028659191 -0.14218561 0.3079658 0.20570774
0.22458252 0.13238533 0.068066046 0.2718347 0.2481853 0.29212207 0.3747474 0.30712503
0.36389577 0.4389387 0.45730597 0.4053032 0.33766165 -0.18555093 -0.17521395 -0.08470526
0.0018219916 0.1349345 -0.24452561 -0.1871297 -0.01796764 -0.00019218636 0.064754464 -0.23376983
-0.15043841 -0.15396515 -0.12625387 -0.034872197 -0.23204459 -0.23846743 -0.25126338 -0.21677737
-0.18779902 -0.25300267 -0.28423786 -0.31360266 -0.27072448 -0.22759849 -0.21070133 -0.11980619
-0.107989155 0.10808669 0.17514876 -0.2033038 -0.14637643 -0.10899354 0.03224222 0.031258862
-0.17302504 -0.10946744 -0.10516772 -0.113943584 -0.08178346 -0.20691068 -0.26542547 -0.28983313
-0.2645131 -0.16748688 -0.2992323 -0.3409887 -0.3933988 -0.39155498 -0.29407677 0.134155
0.12085881 0.03513659 -0.09043982 -0.21119687 0.11094178 0.0021234613 -0.083656006 -0.052165687
-0.12291941 0.24580888 0.16674344 0.10577284 0.0018504246 -0.015530006 0.24873151 0.28056088
0.29292628 0.24332586 0.09820904 0.35703883 0.3457106 0.37425312 0.37413922 0.33081546
0.25506455 0.3066354 0.28527135 0.24668849 0.08080182 0.35302225 0.22892015 0.35525408
0.28135714 0.17169154 0.37792468 0.30029747 0.34292957 0.35343233 0.25143343 0.29195532
0.37322626 0.40019685 0.28582948 0.31321868 0.39607534 0.40462688 0.34443024 0.32903433
0.33083203 -0.33035687 -0.3541613 -0.22072424 -0.23347695 -0.22696131 -0.3741875 -0.32843372
-0.31967634 -0.27623063 -0.16724704 -0.3749948 -0.3811599 -0.3686903 -0.39175084 -0.34148547
-0.3310434 -0.39814577 -0.4406652 -0.34430692 -0.33615822 -0.41733745 -0.42992654 -0.41684857
-0.332961 -0.25790593 -0.22015007 -0.29050705 -0.22550085 -0.24874124 -0.13344963 -0.2526235

model.input_layers.1.bias f4 [8]
00000000: da3f 89be c16e 2d3d 52cb d6bc e256 74bd
00000010: f2c6 503e 80b4 f6bd b1ee d3bd d09d bf3c
-0.26806527 0.04234195 -0.026219998 -0.05965317 0.20388392 -0.120461464 -0.10348261 0.02339068

model.hidden_layers.0.weight f4 [8, 8, 5, 5]
00000000: f805 3a3e 1726 383e 24d5 133e fdc1 203e
00000010: 7a10 9e3d 0e4d 753e d379 783e 2fd4 223e
00000020: a2be 103e ffc9 653d 9708 883e 3b42 823e
00000030: 849c 523e 8be0 223e 7996 153e 4c69 c73e
00000040: 5216 9e3e b2b5 8d3e d5e7 573e 49b2 883e
00000050: d43a 9f3e 90b2 c23e 3486 893e b0d9 673e
00000060: 173a a23e 8679 14be 156c 57be 88c5 71bd
00000070: d838 adbd 0e5e d1bd 1038 4fbe 2ef6 27be
00000080: fc1e 9dbd b2e3 92bd 50a7 76bd f4e5 51be
00000090: 2b0c 3ebe e0a6 08be 858a b3bd 9084 9fbd
000000a0: 6bd7 4fbe f8a0 66be ba7f 24be 9eb9 53be
000000b0: 8507 c9bd 1567 85be cf4b 74be 777d 69be
000000c0: e3f0 00be 078e 4bbe c814 a1bc 2a8b 213d
000000d0: 1b86 103e b963 d63a 5270 3a3d 1e82 b83d
000000e0: f705 fd3d d044 353e 51cc 023e f0ea df3c
000000f0: 640e 343e 8d65 223e 60da 7f3e b0ce 6b3e
00000100: 663e 3b3e 991e 593e e725 9c3e ea81 933e
00000110: ca35 8d3e 561a e33d 5c83 c13d 7fda 713e
00000120: 87c9 3c3e a18a 493e 8ca8 453e dc68 fc3c
00000130: e6df 22bd 6cc9 debc 183a 54bd 334b 33be
00000140: b8c0 c53b 8134 4dbc ab9b 80bc 0a8c 76bd
00000150: 9a03 1dbe bbef cc3c 136b 863d 2f95 e7bd
00000160: 60ed 0ebe 0e05 35be 3850 e03d a285 963d
00000170: 3d30 bbbd d018 d8bd ce69 20be f68e 253d
00000180: 6608 d23c 1a85 a9bc b5ad 08be 0ced 40be
00000190: 392e 9dbe a4b2 99be 5411 61be bc23 37be
000001a0: 33c0 15be 1e1f 4ebe 2ef4 83be 374c bcbd
000001b0: 4106 2bbe 410b b8bd 0b31 1abe 69ce 30be
000001c0: b740 c7bd b279 5abd ebd2 aa3a bb44 32be
000001d0: 0d82 a1bd 8175 d4bd 2cf9 66bd 83a8 88bd
000001e0: e92b e1bd 1c8a ffbc ae2d b73c 6312 99bc
000001f0: a184 743c 17fb 273e 893f 45bd 0279 46bd
00000200: 07db 83bd 6c88 92bc 4359 f03d 9361 303d
00000210: 38f2 98bd 2d85 ebbd f924 2fbe a5c5 ce3d
00000220: 9768 30bd df04 acbd 4d4b c6bd 786d 5ebe
00000230: 1b88 9d3c 63a7 dd3c 46bf efbd fdaa b4bd
00000240: 4ce7 a4bd 91b4 823d a1a9 823c 7d2e 9dbd
00000250: 4fb4 d7bd 8938 06bd 75b1 8c3e cab4 4f3e
00000260: 39b1 923d ea98 663c 2f75 5d3c e3a3 0a3e
00000270: e166 d53d 2454 0d3e 0386 8b3d 806a 703d
00000280: f555 3f3e da47 833d 5e80 9c3c 07b4 543d
00000290: 8e68 403d dada 0c3e b703 883d d0ad ce3d
000002a0: a109 bb3d 51fe 733d ce93 0e3e f321 fb3d
000002b0: ec5c c43d 3c49 7e3c 1dc9 ae3d 69c5 24be
000002c0: 797b 8dbd cbf1 2abe 50a3 a1bd 2271 40bd
000002d0: ff17 33be c807 9fbe ad2b 4abe f38e 51be
000002e0: 7850 48be 1c85 b8be 40af cebe c800 bfbe
000002f0: e1a8 5dbe 2b89 96be 98c3 b8be a33f abbe
00000300: 07d4 cebe 7259 81be 4d42 5abe def9 8ebe
00000310: f240 9ebe c183 a3be 0d16 a6be 70f3 a5be
00000320: 222a 96be 3e98 5dbe f9d4 84be 9cd9 63be
00000330: 6558 60be 02ab 92be e7f7 69be 8597 9cbe
00000340: 4bb2 30be ac4a 83be a7ce 80be a0a1 a2be
00000350: f26e a2be cbaf 91be 9c26 51be 38f6 bebe
00000360: 2a92 91be df4a acbe 8862 79be 404e 71be
00000370: ea3e a3be 13e3 c4be e7a0 abbe f8e2 71be
00000380: a7d4 83be 58ef e3bc 48c1 02bd 2111 38bd
00000390: fc79 7cbc 1852 9cbc ced5 99bb dff9 903d
000003a0: 5c3b 3b3d 9fa1 15bd 2c66 bb3c 2b4c c03c
000003b0: 5041 9e3d 320e bb3d 91d8 103e 230b 5e3d
000003c0: 14f7 6b3d 5ca4 273e 936c 9c3d 2586 543d
000003d0: 14dc e53d ccf4 673d 9597 8d3d ae93 993d
000003e0: 3de9 7d3d fe71 f4b9 dd68 a03c 9780 6f3d
000003f0: 2054 b2bd 5748 02bd 1678 743d a2a8 693c
0.1816634 0.1798328 0.14436775 0.15699 0.077179864 0.23955175 0.24265222 0.15901254
0.1413522 0.05610084 0.26569054 0.25441155 0.20567518 0.15905969 0.14608182 0.38947523
0.30876404 0.27677685 0.2108453 0.2669852 0.3109957 0.38026857 0.268602 0.22641635
0.31684944 -0.14499483 -0.21037324 -0.05902627 -0.08458108 -0.10223018 -0.2023623 -0.16402504
-0.076719254 -0.07172336 -0.060218155 -0.20497876 -0.18559329 -0.13344908 -0.08766655 -0.07788956
-0.20297019 -0.22522342 -0.16064349 -0.20676276 -0.09815887 -0.26055208 -0.23857044 -0.22801767
-0.12591891 -0.19878398 -0.01966323 0.039439358 0.14113657 0.0016356624 0.045517273 0.09009193
0.12354653 0.17702031 0.12773253 0.027333707 0.17583615 0.15859051 0.24985647 0.23028064
0.18285522 0.21203078 0.30497667 0.28810054 0.275801 0.110890076 0.09448883 0.23618506
0.18436252 0.19681789 0.19302577 0.03081172 -0.039764307 -0.027195655 -0.051813215 -0.17509155
0.0060349368 -0.012524725 -0.015699228 -0.060192145 -0.15333405 0.025016656 0.065633915 -0.113077514
-0.13957739 -0.1767771 0.109528005 0.07349707 -0.0914006 -0.105516076 -0.15665361 0.04041954
0.02563877 -0.02069335 -0.13347514 -0.18840426 -0.30699328 -0.30019104 -0.21979266 -0.17884725
-0.146241 -0.20129058 -0.25772232 -0.09194224 -0.16701604 -0.089865215 -0.15057771 -0.17266239
-0.0972914 -0.053338714 0.0013032829 -0.17409031 -0.07886133 -0.103739746 -0.056389973 -0.06672766
-0.10994703 -0.031193785 0.022360649 -0.018685525 0.014924199 0.16404377 -0.048156295 -0.048455246
-0.064382605 -0.017887317 0.11735775 0.043061804 -0.074680746 -0.11500011 -0.17103948 0.100962915
-0.043068495 -0.083993666 -0.09682331 -0.21721447 0.01922994 0.027057355 -0.117064044 -0.08821676
-0.08051929 0.063820966 0.015950026 -0.076748826 -0.10532438 -0.03276876 0.2747914 0.2028381
0.07162709 0.0140745435 0.013516708 0.1353908 0.10420013 0.13801628 0.0681267 0.058695316
0.18685134 0.06410189 0.019104179 0.0519295 0.04697471 0.1375536 0.066413336 0.10091746
0.09132696 0.059568707 0.1392357 0.12262335 0.09588036 0.01552039 0.08534453 -0.16090931
-0.06908316 -0.16693799 -0.078924775 -0.04698289 -0.17489623 -0.31060624 -0.19743223 -0.20464687
-0.19561946 -0.36039054 -0.4036808 -0.37305284 -0.21646453 -0.29401526 -0.36086726 -0.33446988
-0.4039614 -0.25263554 -0.21314354 -0.2792501 -0.30908924 -0.31936458 -0.32438698 -0.3241229
-0.2932902 -0.21640107 -0.25943735 -0.2225098 -0.2190872 -0.28646094 -0.22848473 -0.3058435
-0.17255513 -0.25642908 -0.25157663 -0.31763935 -0.3172527 -0.28454432 -0.20424885 -0.37297225
-0.28431827 -0.33650872 -0.24353993 -0.23565006 -0.31883937 -0.38454494 -0.33521196 -0.23621738
-0.25748178 -0.027824089 -0.03192261 -0.04493821 -0.015409943 -0.019082114 -0.004694677 0.07078909
0.045710906 -0.036531087 0.022875868 0.02347382 0.07727301 0.09133567 0.14145114 0.05420984
0.05760868 0.16371292 0.076378964 0.051885743 0.11223617 0.05662994 0.069136776 0.07498871
0.06199001 -0.00046624237 0.019581253 0.058472242 -0.08707452 -0.03180727 0.059684835 0.014261397

model.hidden_layers.0.bias f4 [8]
00000000: 97ae 833e 1bea 35bd ab16 84bd 4eaa 873e
00000010: 59f1 183e 2e18 26be cd89 05be f3d7 8d3d
0.2571914 -0.044412713 -0.06449636 0.2649712 0.14935817 -0.16220161 -0.13040848 0.06925955

model.hidden_layers.1.weight f4 [8, 8, 5, 5]
00000000: a5a6 51bd 7c7b a93d 869a 913c 585c 43bc
00000010: e17e 35be c955 c73d 6bd8 0f3e cde6 af3d
00000020: 5dc0 913d 678b cabc 1994 8d3d 4d26 8c3e
00000030: 4298 993e af80 8e3e 29ba 253e 51a1 853e
00000040: 927a dc3e fd45 db3e 3f15 ed3e 8b06 8e3e
00000050: e4d7 8d3e 727c e23e 9d19 e33e e330 0e3f
00000060: f6c2 c23e 2166 afbd 25a5 acbd 48b1 e5bd
00000070: 739b 603c 1a70 ee3c 570f 0ebe a199 2cbe
00000080: 26ef 08be 714f 22be f51d 683c 7ce6 44be
00000090: 7c22 f1bd c02f 4cbe 5827 20be e989 ddbd
000000a0: cd98 50be 5181 6dbe 757a 71be 39f3 9abe
000000b0: a7df 55be 48ff babd ab56 71be e9e7 70be
000000c0: 4cb1 8dbe 6ffb 61be 2803 4c3d 64e0 24bd
000000d0: 8242 223b 55fb 45bc 100d 863d c272 343c
000000e0: 4fb1 6abd 19cd 08bd ebba b7bd 31a3 013e
000000f0: adf4 86bd 60cd 1abe 7900 2ebe b247 16be
00000100: 49ee 57bd 35cd 32be b9b7 77be ff39 44be
00000110: 9735 8bbe 4ce0 71be 33df 0dbe 0fae 9ebe
00000120: 92df babe 4fc5 aebe 022e 9dbe c874 123e
00000130: b6ff 333e 3326 d33d 096f d33c bdfc 37be
00000140: ebff 163e c78e 6c3e cc1b fd3d b096 b03d
00000150: c4b8 c03c dc3d 753e d261 a23e d76f 8e3e
00000160: 6fea 9e3e 1cea 163e 1eb5 ba3e 2692 e23e
00000170: 82f0 043f cb9a fa3e 201a c93e f31b db3e
00000180: 15be d83e ed21 0b3f 25cd ec3e 41f1 033f
00000190: 789c 89bc 9167 a6bc 35a6 bcbd b0d8 16bd
000001a0: c70a b4bd 71e6 8e3d 5a9a 4d3c d508 ab3d
000001b0: bc46 493c ec98 22bd 356e 1e3e 8a3a 183d
000001c0: 2af2 553b 39f1 b7bc 7929 673c 6a7f 4f3e
000001d0: b4ce ef3d 3f0e eb3d ab64 cb3d 26fb 7f3b
000001e0: 11d0 9d3e e107 653e ba8c 703d c8dd eb3d
000001f0: fb8f d53c d4e6 bd3d 0d66 8bbc 0506 eb3c
00000200: 7f1e fa3d 97bf bf3d 10b4 5ebd 5f8e 0abe
00000210: 5fdf f0bc 10fd a9bc 9310 ea3d 27d6 86be
00000220: dd6a 69be 62dd 66be b567 22be d2a2 bbbd
00000230: 3d69 5fbe c92b 7fbe 33b9 24be 0d92 dbbd
00000240: 5488 49be e179 9abe 531e 8cbe 4c0f 3dbe
00000250: 5203 eabd ca43 13be cde2 c13d 61fd 853d
00000260: df4d 2f3d cadc 993c dab2 2c3c 90a1 263d
00000270: fce9 9d3d 4a38 9dbd 5878 96bc 3f95 05bc
00000280: 86cf 673d f095 a43c f035 96bd af86 49bd
00000290: 8c24 88bb 73b2 103b 34eb 14bd 2957 abbd
000002a0: b527 a5bd c2d7 46be a6fa 49bc cae1 1bbd
000002b0: 045f f9bd 1995 12be 15d4 8ebd 7a2a 813c
000002c0: 31f1 2fbb 2096 b03d d804 5d3e 52c2 863e
000002d0: fc35 0cbe 4850 fabd 8da3 463d fc6c b13d
000002e0: 2143 0d3e 6dc9 89be 2b9c 3fbe 58c9 fabd
000002f0: e77b 58bc 5b3e 5a3d cb7e a8be a8e7 31be
00000300: 4d6c 3abe 012f ebbd e58c c9bb c2c9 8ebe
00000310: d804 5abe f689 e2bd bd59 38be 25d8 04be
00000320: 72a1 a23e 2d48 2a3e 04a7 0d3e 140a 0ebe
00000330: 2652 c0bd d038 a73e f3c6 093e af4e 423d
00000340: 9304 08be 668b a0bd aa01 2e3e ffa6 8a3d
00000350: c412 b5bd 4c59 5dbe 2388 46be ff0f a73c
00000360: 669e 1dbd 5701 f8bd c67c 62be 5c47 51be
00000370: 1969 9a3d 6589 8dbd ee8c 89bd ad30 2bbe
00000380: f6c9 07be 74a7 2d3d fbfe 893d 3d53 b23d
00000390: a2fc bf3d 8d35 413d 6f5e 67bc d5f1 913c
000003a0: f8bc e33c adaf 063e 7dd6 5b3d b6a3 d0bd
000003b0: f09c 213d beca 0f3d efb0 cc3d 5ade 493d
000003c0: b7b6 ecbd f859 1abd 7f2e 943d 8305 0b3e
000003d0: 8eaa 9a3d 7db8 86bd 764c c2bd e12c 2cbd
000003e0: eecb d43c 23f7 253c db05 60bd 501e 95bd
000003f0: 160b 4b3d 7b69 3e3e 2b9d b43d 93f1 82bd
-0.051184315 0.08275506 0.017773878 -0.011923872 -0.17724182 0.09733159 0.140474 0.08588944
0.071167685 -0.024724675 0.06913013 0.2737297 0.29998976 0.27832553 0.16184296 0.26099637
0.43062264 0.42826834 0.46305272 0.27739367 0.27703774 0.4423557 0.4435548 0.55543345
0.38039368 -0.085644014 -0.08429936 -0.11215454 0.013708937 0.029106189 -0.13873039 -0.1685548
-0.13372478 -0.15850617 0.014167299 -0.19228548 -0.117741555 -0.1994009 -0.15640008 -0.1081732
-0.20370789 -0.23193862 -0.2358187 -0.3026369 -0.20886098 -0.09130722 -0.23568217 -0.23525967
-0.2767433 -0.2206857 0.049807698 -0.040253058 0.002475888 -0.012083848 0.0654546 0.0110136885
-0.057298 -0.03339872 -0.08971199 0.12659909 -0.06589637 -0.15117407 -0.16992368 -0.14675787
-0.05271748 -0.17461093 -0.24191178 -0.19162749 -0.27189323 -0.23620719 -0.13854675 -0.3099217
-0.36498696 -0.3413491 -0.30699164 0.14302361 0.17578015 0.1031002 0.025809782 -0.17967506
0.14746062 0.2310134 0.123588175 0.08622491 0.023525603 0.23949379 0.31715256 0.27819702
0.31038234 0.14737743 0.36466306 0.44252127 0.51929486 0.48946223 0.39277744 0.4279476
0.4233252 0.5434864 0.46250263 0.5154 -0.016798243 -0.020313056 -0.09211389 -0.036827743
-0.08791118 0.06977547 0.012549007 0.08351294 0.012284931 -0.03969662 0.15471728 0.037165202
0.0032645562 -0.022453891 0.014109009 0.20263448 0.11709347 0.114773266 0.0993131 0.0039059608
0.30822805 0.22366287 0.058727957 0.11516911 0.026069632 0.092725426 -0.017016435 0.028689394
0.12212848 0.09362715 -0.05437094 -0.13530873 -0.029403387 -0.020750552 0.114289425 -0.2633526
-0.22794671 -0.22545388 -0.15859874 -0.09161915 -0.21817489 -0.24919046 -0.16086273 -0.10721216
-0.19680911 -0.3017111 -0.27366886 -0.18462867 -0.114264145 -0.14381328 0.09467087 0.06542469
0.042798873 0.018782038 0.010540688 0.04068142 0.077106446 -0.07676752 -0.018367931 -0.008153259
0.056594394 0.020091027 -0.073345065 -0.04920071 -0.0041547474 0.002207902 -0.03635712 -0.08366234
-0.08064214 -0.19418243 -0.012327826 -0.038057126 -0.12176326 -0.14314689 -0.06974045 0.015767325
-0.0026846642 0.08622384 0.21583879 0.2632013 -0.13692468 -0.12222344 0.048495818 0.08663365
0.13795139 -0.26911488 -0.18711917 -0.122454345 -0.013213134 0.053282123 -0.32909235 -0.17373526
-0.18205376 -0.11483575 -0.006150829 -0.27888304 -0.2129091 -0.1106147 -0.18002982 -0.12973078
0.31763798 0.16629095 0.13833243 -0.13871032 -0.093906686 0.32660532 0.134548 0.04743832
-0.13282995 -0.07839088 0.16992822 0.06770133 -0.0884147 -0.21616095 -0.1938787 0.02039337
-0.03848114 -0.121096306 -0.2211791 -0.20437378 0.07539577 -0.069109716 -0.06716333 -0.16717787
-0.13260636 0.042396024 0.06738087 0.08707283 0.09374358 0.04717021 -0.014121636 0.01781551
0.027800068 0.13152952 0.05367135 -0.101874754 0.039456308 0.03510546 0.09994685 0.049284317
-0.115582876 -0.037683457 0.07235431 0.13576321 0.07552062 -0.06578157 -0.0948724 -0.042034987
0.025976148 0.010129723 -0.054693084 -0.07281172 0.04957112 0.18594925 0.0881904 -0.06393733

model.hidden_layers.1.bias f4 [8]
00000000: 574d 86be 111d 88bc 82fa b1bb 5ba7 f5bc
00000010: a1f1 3e3e 8bea 19be dd9a 0ebe 300a 043e
-0.2623088 -0.016615422 -0.005431474 -0.029987028 0.18646862 -0.15030877 -0.13926263 0.12894511

model.output_layers.0.weight f4 [8, 8, 5, 5]
00000000: 4024 bf3d 55e6 8d3d 38fc 713c f2bd 1f3d
00000010: 1eec d5bc 41cd 093e 3285 123d 47ef 263d
00000020: 5bdf a23d 2308 0a3d 6118 083e 73bc 023e
00000030: 7a43 003e c01c 693d 0efc 433d 960a 083e
00000040: cc64 9a3d 2c22 683d 8c01 cf3d 881f 1f3d
00000050: cd01 003d b160 2a3c d907 793d 4714 3d3d
00000060: b45d 803d 23d7 91bd e5f1 b6bd 4c37 86bd
00000070: 835c 88bd 5421 f2bd 123a 26be a9c7 2abd
00000080: 1311 32bd f016 aebd 5531 04bd c592 1abe
00000090: 294e e93c 00b5 bebb e625 91bd 6d14 52bd
000000a0: 175a e1bd b9e2 94bc 9c73 9d3c dfba 203d
000000b0: b438 a8bc b7c6 8cbd 9889 30bd 0fde 693c
000000c0: 29b7 1abd f9ad 2cbd 8c01 033e 91d1 043d
000000d0: 39c1 a63d 6575 5e3b e08b ae3d 3f4d 1d3e
000000e0: 4811 1d3d 601a 9e3d a61b f8bb 2862 b93d
000000f0: 4558 233d 0503 733d 5a6a 983c a9cd e43d
00000100: 0be7 593d 769c b13d 2a97 7b3d 4010 8eb9
00000110: 29f3 d83b 385a bd3d 1f76 3a3d 2d88 b53d
00000120: 08e6 2f3d 123d e03d e547 e73d 6b3b 463e
00000130: 1338 d53d d73c 1a3e 3aa3 083e 1a7c 093e
00000140: 301c 423e 9710 9e3d c6c8 243e 32a9 1c3e
00000150: fd0a b33d 023b a53d 6754 ef3d bf50 793d
00000160: 9399 893d 4235 873d 338f 0d3e 8b91 bd3d
00000170: f075 5f3d 9997 0d3e 5cd8 b73d 40df 173e
00000180: f8fa 003e 3c84 fc3d 46e5 763d e799 7f3d
00000190: 9fe3 c3bc 1d0b e6bc 131c ab3c d5ef 783c
000001a0: f7ee 56bd 8a13 e63c 0b09 b9bb ac0a 09bd
000001b0: 43a9 453d aa82 d63c 7d96 833d aff2 af3b
000001c0: 71b6 a03c 9c18 01bd ecfb bbbb 9274 10bd
000001d0: e144 07bd 35d0 bf3c d44c d63c 2b8d 213c
000001e0: 3317 af3d 6334 17bd e93a cf3c 0717 11bc
000001f0: d582 68bd 25e7 d13d 12df 103e aaf1 ec3d
00000200: f6b8 963d 2cf9 fd3d 8712 283e 4162 073e
00000210: 7c89 d93d b724 b93d 567d e03d 31cc 483e
00000220: bf25 c03d dd41 c03d 3fdb a23d 5c02 6e3d
00000230: 157f 553e 65e2 ec3d 3bda 113e b7c3 323e
00000240: dcd0 8b3d 7a8f e83d 6331 303e cbef 503e
00000250: 8619 123e 9f3e fa3d 3e0e 67bd 49ee 01ba
00000260: ff66 54bd 0ea9 ee3b 7828 dcbc aed7 0ebc
00000270: 3f3e 74bd e39b c3bd 1726 fcbc 44ad d4bb
00000280: 4ee4 81bd fd84 52bd bb0f 80bd e6ec f1bc
00000290: db4c b03c d2f6 43bd 1293 52bd a166 acbc
000002a0: 6376 c1bd 7062 313d 5170 38bd 3a77 a8bd
000002b0: a1b7 69bd 7664 a33c 565d bdbc a874 dbbd
000002c0: bbc8 8abd 0f8d 3dbd 1424 a8bd 51d3 24bb
000002d0: 1dc9 cebd 1edc d2bd 573b a8bd 6f6e 08be
000002e0: 1b1b a13c d19a 2fbe 054c 01bd 15c1 74bd
000002f0: b766 0fbc 8829 abbd 1bbf fcbd 174f 56bc
00000300: c038 efbd 372c 79bd 684e 2c3b ddb7 fdbc
00000310: 57d0 9ebc c5fd f5bc 8032 82bd 066d f5bc
00000320: 4d65 9dbd b172 803d 4a73 b5bd 6ea2 b3bd
00000330: 8f91 393b bdb2 e5bd 233b ffbd 1bbe 62bd
00000340: dc6b 2ebe 6461 963c 86c1 adbd 1cd1 78bd
00000350: 61a9 40be 10a9 b2bd 6f85 6c3c 6a42 cabd
00000360: 9e3e 9cbd 0472 0cbe 43f2 38be 2562 22bc
00000370: 66c2 4cbe 32e6 96bd 483e 56be 37c6 83be
00000380: e4b9 70bd dd9d 623e 0898 b43d b462 cf3c
00000390: 5705 ec3d a8de 043e 31d7 e03d c18c 8cba
000003a0: e8df bcb9 d8c7 bc3c 7bf0 ae3d 5592 343e
000003b0: 5add 503d 8ddf 313d a404 e23b 7d02 76bd
000003c0: 87bd 163e 682f cc3d 2971 443c d970 0bbc
000003d0: a782 9f3d cccb 853e 615b c73d 22ef 163e
000003e0: 05da 0a3e 525e c83d 5285 14bd c769 8ebb
000003f0: 5f61 3dbd 02d4 563d c479 db3d 86cb 81bd
0.09333086 0.06928698 0.014769606 0.038999505 -0.026113566 0.13457204 0.035771556 0.040755536
0.07952758 0.033699166 0.1329055 0.127672 0.1252574 0.056912184 0.0478478 0.13285288
0.07538757 0.056673214 0.10107717 0.03884843 0.031251717 0.01039903 0.0607985 0.046161916
0.062678725 -0.07121112 -0.089328565 -0.06553516 -0.0665827 -0.11822763 -0.1623309 -0.041694317
-0.043473314 -0.08500469 -0.03227361 -0.1509505 0.028479652 -0.0058199167 -0.07087307 -0.05128901
-0.110035114 -0.018174516 0.019220166 0.039240714 -0.02053485 -0.06873839 -0.04309997 0.014274134
-0.03777233 -0.0421581 0.12793559 0.03242642 0.08142323 0.0033944484 0.08522773 0.15361498
0.03834656 0.077198744 -0.0075716553 0.09051925 0.039879102 0.05932905 0.0186054 0.11172039
0.053198855 0.08672421 0.06142346 -0.00027096458 0.006620784 0.092457235 0.045522805 0.08863864
0.042943984 0.10949148 0.1129301 0.19358604 0.10411086 0.15062271 0.13343516 0.13426247
0.18956065 0.07718008 0.16092214 0.15298918 0.0874233 0.080678955 0.1168602 0.06086802
0.06718745 0.06601955 0.13824157 0.09256276 0.054555833 0.13827361 0.08976814 0.14831257
0.12595737 0.12329909 0.060277246 0.062402632 -0.02391225 -0.028081471 0.02088741 0.015193899
-0.05247399 0.028085489 -0.00564683 -0.033457443 0.048257124 0.026185352 0.06425188 0.0053695063
0.019618245 -0.03151761 -0.0057368185 -0.03526742 -0.033024672 0.02341471 0.026159681 0.009860317
0.08549347 -0.036915194 0.025296645 -0.008855588 -0.056765396 0.102491654 0.14147595 0.11569531
0.07359497 0.124010414 0.16413318 0.13221075 0.10621926 0.09040206 0.10961406 0.19609143
0.093821995 0.093875624 0.07951974 0.05810772 0.20849259 0.11566619 0.14243405 0.17457472
0.06826946 0.11355491 0.1720634 0.20403974 0.14267549 0.12218975 -0.056410067 -0.0004956467
-0.051856037 0.0072833365 -0.026874766 -0.008718414 -0.059629675 -0.095512174 -0.030779881 -0.0064903814
-0.06342374 -0.05139636 -0.06253 -0.029531907 0.021521023 -0.047842808 -0.05140979 -0.021045031
-0.094464086 0.043306768 -0.04502899 -0.08225866 -0.057059888 0.019945364 -0.023115795 -0.1071561
-0.067765675 -0.046277102 -0.08210006 -0.0025150368 -0.10096953 -0.1029589 -0.08214443 -0.13323377
0.019666245 -0.17148902 -0.03156664 -0.05975445 -0.0087525165 -0.08357531 -0.12341138 -0.01308038
-0.11680746 -0.060833182 0.002629185 -0.030971462 -0.019386454 -0.030028233 -0.06357288 -0.029959213
-0.07685337 0.06271876 -0.0885988 -0.087712154 0.002831552 -0.11215732 -0.12462451 -0.05535708
-0.17033333 0.018356986 -0.08484177 -0.060746297 -0.18814613 -0.08723652 0.01443611 -0.09875949
-0.07629131 -0.13715369 -0.18061166 -0.009911095 -0.19996032 -0.07368125 -0.20922196 -0.25737163
-0.05877103 0.22130533 0.0881806 0.02531562 0.11524456 0.12975562 0.109785445 -0.00107231
-0.00036024977 0.023044512 0.08541962 0.17633946 0.050992347 0.043426085 0.006897526 -0.060060967
0.14720736 0.099699795 0.01198987 -0.008510792 0.07788592 0.26132047 0.09734226 0.1473966
0.1355973 0.09783615 -0.036259957 -0.0043461057 -0.04623544 0.05244828 0.10716584 -0.06337647

model.output_layers.0.bias f4 [8]
00000000: 90fb 793d 9df0 2ebe ee03 df3c 2e29 433d
00000010: 88d9 6f3e 3eea e6bd 81a1 4c3e 12fc 103d
0.061030924 -0.17083974 0.027223554 0.047646694 0.23422825 -0.11275147 0.19983484 0.035396643

model.output_layers.1.weight f4 [1, 8, 5, 5]
00000000: 2a0f d73d 50ee af3c 693c 723c 0f6b 8bbd
00000010: 1289 92bc b4a7 f73d bd87 89bc 6489 28bd
00000020: ccfd 8fbd 361d 15bd 4f08 583d 65b9 d93d
00000030: 6f0e 3e3d 4ba4 2abd 791d a339 25e6 913d
00000040: 7100 a739 4f32 e13c c85d b8bb 85e3 b03d
00000050: bc71 903d 4e13 423d 2e0c b83c 8e08 c53c
00000060: f57a e73b d10a 6dbd 19e1 34bd d913 84bd
00000070: 0be9 8d3d 5a93 543d 5c16 3f3d 99ef c73b
00000080: b509 f13c 125c a53d b115 0d3e e64d b9bc
00000090: e6cd 91bd e771 c7bc 6183 b63c e27c 0f3d
000000a0: e0cc a5bd 3d32 b8bd a136 27bc 8def 7e3d
000000b0: 509c 2dbd 95ee 50be 62fc f6bd 3df2 efbd
000000c0: c812 a7bb 9f1f 9cbd ce7e 1b3e d618 623d
000000d0: a24e 083e 4a78 2b3d 8582 963d 6118 8c3c
000000e0: f365 013c 06d3 ff3d 1a39 983d a702 0e3d
000000f0: b7b0 143e 6e46 eb3c ec62 cb3d bb4a 0e3e
00000100: 2d4e 483d ac55 893d 377e 98bd 7385 523d
00000110: 18ea ff3c 40a6 9f3d 3a31 4bbd d442 60bc
00000120: b8ca 993d 11ea 793a 3fb4 443d c240 ecbc
00000130: f43e 2dbd 62c8 06bd c995 01bd f57b 37bc
00000140: 00c7 f23b d47e d63d 7e49 713d ba9e bf3c
00000150: 4a24 323d be2f 083d b31b 863d d538 903c
00000160: 1ea2 633d a6b2 9a3d 0c07 b83d 9a5f 133c
00000170: 1f94 31bc 91ed 263d 4008 2a3d 6098 bf3c
00000180: d0a8 123d 6088 5fbc 9f25 e53d dc8e bd3c
00000190: 0dc2 643e aee7 993d ee54 933c 79f6 66bb
000001a0: f056 a53d 9c8e 613e 657e b43d c9b7 cf3c
000001b0: 31e2 b33c ee86 cc3b b99f 783e 9f8b abbb
000001c0: 63f7 393c 7326 b33d 1e25 403d 9d67 f83c
000001d0: 9eee 06bd 50b2 8abd 64d3 78bd 1c31 b4bd
000001e0: 4422 273e a139 89bd 29de 8c3b ae0a 92bd
000001f0: 1919 d93a 28b0 19bd bf92 f5bd f994 90bd
00000200: ad62 a4bd a056 d8bd 32c5 35bd 167e b23c
00000210: 3e3b b53c 1c77 abbd 1f9c e2bd 598a d3bd
00000220: 18ee 8ebd 9493 49bd dd53 8ebc aef9 38bd
00000230: 7bf7 81bb ebae 6f3c d754 e7bd b764 15be
00000240: ff99 02be 9c1b 1abd 9ab6 13bc 9a54 4cbd
00000250: 2a8e 68bd 7a11 a1bd ed4c fbbd 2b68 73bd
00000260: 5df8 0dbd d420 6abd 8935 2bbe 094c 0fbd
00000270: 56d0 263d e65a 613d 2072 28bd fb28 69bb
00000280: f769 723c 3596 493d 0e7d 583d 8999 19ba
00000290: 0287 293a 490f a13d 0f63 e43d 0355 583d
000002a0: 06d6 683d 3b46 74bd f110 8fbd 918c 94bc
000002b0: c52e 07be 69ac e3bd f22e 4dbe 7666 9d3d
000002c0: 049e 33bd c69b f23d 8aa9 913d 7587 8e3d
000002d0: 09d3 c4bd 8b5c 67bd 8224 993d 03b7 3b3d
000002e0: 4b88 fb3a f07a fdbd 3c13 79bd 71f0 0e3c
000002f0: 09d1 703d 279d b6bc 22e0 e4bd 145f ddbd
00000300: 7ea1 3c3c 873d eabc f96c 673d 7111 ae3c
00000310: 8c6b c83b 11a5 d83d 1f07 ca3d d2d7 d03d
0.10500939 0.021475941 0.014784911 -0.06807529 -0.017887626 0.12092534 -0.016788358 -0.04114665
-0.0703083 -0.03640481 0.0527423 0.10631064 0.046400484 -0.04166059 0.00031111742 0.07123975
0.0003185305 0.02748981 -0.005626414 0.08637146 0.07052943 0.04738169 0.022466745 0.02405193
0.007064218 -0.057871643 -0.044159982 -0.06449098 0.06929215 0.051898338 0.046652183 0.0061015603
0.029423574 0.08074202 0.13777806 -0.022620153 -0.0711935 -0.024346305 0.022279443 0.035031207
-0.080957174 -0.08993957 -0.010205896 0.062240172 -0.0423854 -0.20403512 -0.12059857 -0.11716125
-0.0050986744 -0.07623219 0.15185091 0.055199467 0.13311246 0.041862763 0.073491134 0.017101469
0.007897842 0.124914214 0.07432766 0.0346705 0.14520536 0.028720107 0.09930977 0.13895695
0.04890268 0.06705794 -0.074459486 0.0513968 0.031239554 0.077953815 -0.049607493 -0.013687808
0.07509369 0.0009533475 0.04802346 -0.028839473 -0.042296365 -0.032905944 -0.031636987 -0.011198987
0.0074089766 0.10473409 0.05890798 0.023391116 0.04349164 0.033248655 0.06548252 0.017605225
0.05557453 0.07553606 0.08985719 0.008994961 -0.0108385375 0.040753905 0.041511774 0.023388088
0.035805523 -0.013643354 0.11188816 0.02313941 0.2233965 0.075148925 0.017984834 -0.0035242124
0.08073223 0.22027057 0.0881317 0.02535619 0.021958442 0.006241671 0.2427968 -0.00523515
0.0113504855 0.08747568 0.046910398 0.030322844 -0.032942407 -0.06772292 -0.060748473 -0.08798429
0.16321665 -0.06700445 0.0042989445 -0.07130943 0.0016563266 -0.03752151 -0.1199088 -0.07059664
-0.080266334 -0.105633974 -0.044377513 0.021788638 0.022122975 -0.08372328 -0.11064934 -0.10329122
-0.069790065 -0.049213007 -0.017373974 -0.045159988 -0.0039662695 0.014629106 -0.11295479 -0.14589201
-0.12754057 -0.037623987 -0.009015704 -0.04988537 -0.056776203 -0.078646615 -0.12270532 -0.059425514
-0.034660686 -0.057160214 -0.16719641 -0.034984622 0.04072603 0.055018328 -0.041124463 -0.0035577405
0.014795772 0.049215514 0.052853636 -0.00058593653 0.0006466956 0.078642435 0.111517064 0.05281545
0.056844734 -0.05963729 -0.06985653 -0.018133434 -0.13201435 -0.11116869 -0.2003744 0.076855585
-0.043851867 0.11846118 0.07112415 0.0695943 -0.09610564 -0.05648474 0.074776664 0.04582883
0.0019190399 -0.12376964 -0.06080936 0.008724318 0.0587931 -0.022291733 -0.111755624 -0.1080915
0.011513112 -0.028593792 0.05650041 0.021248551 0.006116336 0.10578359 0.098646395 0.101974145

exp_avg f4 [8]
00000000: 70ab e3b8 b4df 9b37 9e9c f0b7 45a1 a1b7
00000010: 0bed 5836 9c28 51b8 1ae1 1a37 a0c3 e937
-0.00010856136 1.858161e-05 -2.868316e-05 -1.9267793e-05 3.2324485e-06 -4.9867303e-05 9.231526e-06 2.786686e-05

exp_avg_sq f4 [8]
00000000: 429b a435 a48b 4536 fcbe 8835 d4aa a136
00000010: dc1d 3935 0b34 c636 a217 7235 2783 ae35
1.2264138e-06 2.943657e-06 1.0188373e-06 4.818061e-06 6.896132e-07 5.9069184e-06 9.0186415e-07 1.3002181e-06

exp_avg f4 [8, 1, 5, 5]
00000000: 13ce 82b7 0ad5 e5b6 539d 2ab7 5326 ccb6
00000010: 153a 1537 ba27 27b8 0e67 f6b7 acfd 15b8
00000020: 3f14 18b8 ee57 cab7 843d 55b8 be84 1ab8
00000030: 162c 34b8 192b 3eb8 3c0d 25b8 e123 2fb8
00000040: ec37 b4b7 630a b9b7 5781 c9b7 efef d8b7
00000050: 77a4 1db8 de08 53b7 3985 9ab6 afd2 09b6
00000060: e71c c0b6 ca4e cd36 5ce3 2e36 7099 4037
00000070: b65f 7937 9d69 3137 21cd 1238 b686 ed37
00000080: 681c 3138 8a79 5938 439a 5438 de7d 4d38
00000090: 6293 1d38 8c82 5638 b1d0 8338 000f 8e38
000000a0: f9ab 3138 27af b337 778d db37 7f6f 1438
000000b0: 389b 4938 b202 2638 4f26 4c37 44d0 a136
000000c0: 43b3 dd36 63dc a437 b059 6f37 1ff0 1637
000000d0: e668 8537 b3e7 8c37 8582 0f37 4f53 0d38
000000e0: 8626 d537 a3db 0f38 6122 2738 b23b 1338
000000f0: 95fe 2b38 a0aa f437 7594 1a38 c76d 3738
00000100: e831 3c38 1316 0238 f0cb 5e37 1d0f 8237
00000110: 1231 b237 97b2 f237 aff8 d937 899b 9136
00000120: 399d c1b5 a744 e2b4 fc02 f936 870d b935
00000130: c5af b2b5 5776 d336 57dc 2e37 c2f6 1937
00000140: 4ba9 c937 2d4f 9f37 13b1 f737 d968 1e38
00000150: 8794 2238 3a66 1638 b881 e537 6da5 1b38
00000160: 2bba 4138 8a3a 5738 f46f 0438 4bb5 8d37
00000170: 626a ab37 37fd e137 2f5e 1a38 46df f737
00000180: 46d8 2537 353f aa36 cc47 e336 9891 8937
00000190: 32dd 5137 9102 1837 fb78 9237 c394 b637
000001a0: eeaf 9837 e2f3 0238 b2a1 cb37 a555 1238
000001b0: 0ce3 3138 a89b 2c38 a13e 2638 3cbf f237
000001c0: 2f6f 1d38 2be9 4138 37af 4c38 0587 0d38
000001d0: 54a9 8d37 9287 a337 16d2 da37 e1d5 0c38
000001e0: 4ac4 0738 9b9e 4437 8d4e cc36 72eb dd36
000001f0: 9cc4 6737 ae4c 0cb6 3278 adb4 4166 c2b6
00000200: 5787 16b7 1089 d9b6 d780 92b7 284d 4ab7
00000210: 462b a1b7 56a5 d7b7 f499 d5b7 d044 c9b7
00000220: a180 84b7 3c05 b9b7 6722 f0b7 ecf9 02b8
00000230: 0ace b0b7 5eb1 0ab7 16c2 20b7 4557 62b7
00000240: e557 a3b7 c527 bdb7 33cd b2b6 7f9b 8533
00000250: a150 ba34 2d67 9fb6 6836 eab6 ffea 84b6
00000260: 0da2 11b7 f806 0bb7 59c4 68b5 1118 bfb7
00000270: a276 96b7 09fc d1b7 bede eeb7 d953 c3b7
00000280: ae3d f8b7 d212 b5b7 9ec5 f2b7 2212 0eb8
00000290: daf8 08b8 0549 cab7 5781 31b7 68b8 5fb7
000002a0: b061 93b7 6aec b6b7 8f92 b9b7 7582 a5b6
000002b0: 0ebf 30b5 f0eb a4b5 9838 c9b6 993f 7737
000002c0: 0279 3337 7152 7e37 ad59 5537 445a 4d36
000002d0: 2e13 e937 b28e b037 f884 e837 294e f537
000002e0: 94fd b837 aafe 0638 c826 b737 7fe8 e237
000002f0: 55b2 0038 67ea ee37 c952 e637 3dbe 3a37
00000300: 8f41 2437 c1d0 4937 34ef 6e37 a8c8 e337
00000310: dd7d f336 666a 9cb5 18ec 3fb6 596e 57b5
-1.5593168e-05 -6.849533e-06 -1.01694195e-05 -6.0841353e-06 8.894615e-06 -3.98529e-05 -2.9373474e-05 -3.576062e-05
-3.625848e-05 -2.4121222e-05 -5.084045e-05 -3.6840087e-05 -4.2956402e-05 -4.5339668e-05 -3.935139e-05 -4.1756666e-05
-2.1483713e-05 -2.2058555e-05 -2.4021296e-05 -2.5860934e-05 -3.7584887e-05 -1.2578645e-05 -4.605067e-06 -2.0537225e-06
-5.7254106e-06 6.1186483e-06 2.606036e-06 1.1479817e-05 1.4863841e-05 1.0574612e-05 3.5000154e-05 2.8315331e-05
4.2226544e-05 5.1850024e-05 5.0688406e-05 4.899303e-05 3.7568978e-05 5.1143157e-05 6.2854386e-05 6.7738816e-05
4.236025e-05 2.1420024e-05 2.617271e-05 3.538979e-05 4.8066693e-05 3.9579994e-05 1.2168267e-05 4.822419e-06
6.607182e-06 1.9652949e-05 1.4266392e-05 8.996604e-06 1.5903683e-05 1.6797194e-05 8.553853e-06 3.3694607e-05
2.5409518e-05 3.429841e-05 3.984792e-05 3.5103127e-05 4.1006675e-05 2.916652e-05 3.6854723e-05 4.3732838e-05
4.486917e-05 3.1014974e-05 1.3279714e-05 1.5504245e-05 2.1242104e-05 2.893181e-05 2.5984218e-05 4.3394434e-06
-1.4425378e-06 -4.2145732e-07 7.4211257e-06 1.3787511e-06 -1.3313189e-06 6.3020666e-06 1.042251e-05 9.176963e-06
2.40399e-05 1.8991146e-05 2.9527151e-05 3.7767782e-05 3.8762137e-05 3.5857993e-05 2.7359332e-05 3.7108945e-05
4.618817e-05 5.1314513e-05 3.1575517e-05 1.6892931e-05 2.0434327e-05 2.6940002e-05 3.6804176e-05 2.9548664e-05
9.8851215e-06 5.073753e-06 6.7734854e-06 1.639947e-05 1.2508872e-05 9.0605035e-06 1.7460892e-05 2.1765363e-05
1.8201736e-05 3.122155e-05 2.4274781e-05 3.4888875e-05 4.2411542e-05 4.115296e-05 3.9635812e-05 2.8937699e-05
3.7535265e-05 4.623194e-05 4.880057e-05 3.3742766e-05 1.688736e-05 1.9494244e-05 2.6085454e-05 3.357779e-05
3.2369317e-05 1.1719439e-05 6.0888183e-06 6.6137227e-06 1.381445e-05 -2.090626e-06 -3.2311215e-07 -5.7935545e-06
-8.972208e-06 -6.48306e-06 -1.7464552e-05 -1.2058103e-05 -1.9212846e-05 -2.5706988e-05 -2.5463269e-05 -2.399311e-05
-1.5795524e-05 -2.2056156e-05 -2.862625e-05 -3.1227173e-05 -2.107678e-05 -8.2667375e-06 -9.581932e-06 -1.3490969e-05
-1.9472043e-05 -2.2549075e-05 -5.3287017e-06 6.22158e-08 3.4703865e-07 -4.7505805e-06 -6.980077e-06 -3.9612637e-06
-8.680404e-06 -8.286668e-06 -8.671246e-07 -2.2780181e-05 -1.7936636e-05 -2.5032105e-05 -2.8475533e-05 -2.3284856e-05
-2.9592626e-05 -2.1585645e-05 -2.894067e-05 -3.3872326e-05 -3.2656688e-05 -2.4114279e-05 -1.0580136e-05 -1.3334771e-05
-1.7569255e-05 -2.180618e-05 -2.2121965e-05 -4.9325704e-06 -6.584313e-07 -1.2287619e-06 -5.996855e-06 1.4737155e-05
1.0697406e-05 1.5158775e-05 1.2716669e-05 3.0599922e-06 2.7784696e-05 2.1047283e-05 2.7718474e-05 2.9242672e-05
2.205259e-05 3.2185264e-05 2.1833359e-05 2.7049564e-05 3.0683663e-05 2.8480963e-05 2.7456686e-05 1.1130757e-05
9.790426e-06 1.2029138e-05 1.4241599e-05 2.7153947e-05 7.2566168e-06 -1.1653872e-06 -2.8598643e-06 -8.025432e-07

exp_avg_sq f4 [8, 1, 5, 5]
00000000: 3eb5 a835 7689 a635 1643 b235 4dfb c935
00000010: 2506 fa35 9f8b a935 10de a535 fa43 b035
00000020: 6f7d c635 3a02 f335 d529 a735 c222 a035
00000030: f162 a635 7caa b835 9faf de35 80ca a235
00000040: 87a2 9d35 5680 a335 5e92 b135 fec6 cd35
00000050: 1fda b435 dfa0 b935 5036 c335 35a7 cb35
00000060: 46bc d735 b0b1 f335 fd4f ed35 47af f935
00000070: 7055 0b36 3fbf 2836 10cf f335 8a02 e835
00000080: 0354 ef35 3ec8 0236 0f1e 1c36 7ef9 f135
00000090: 366c df35 b126 df35 ddf4 ed35 de31 0b36
000000a0: ecf1 f235 64d5 e435 4699 e535 4bfd ee35
000000b0: 2537 0436 ed82 0e36 b0a2 1036 e27a 1536
000000c0: c76c 1636 9ca1 1636 430d 8335 09b6 7f35
000000d0: 3ecb 8735 160c 9a35 e6a6 be35 309e 8435
000000e0: af9d 7f35 215b 8635 063a 9635 c6a0 b635
000000f0: 92a3 8235 6a67 7635 a9ff 7b35 0634 8935
00000100: 5ed2 a335 e087 7b35 c939 7035 88aa 7535
00000110: 64d0 8235 a523 9535 d496 8a35 90c5 8d35
00000120: bd47 9435 34bd 9735 52d4 9c35 fdfe b135
00000130: 5b54 ae35 7769 b535 5c59 c235 1876 df35
00000140: 0190 b135 d45f aa35 1623 ae35 60db b735
00000150: ad8d d135 b543 af35 a58a a535 0f4b a635
00000160: c6b6 ac35 8286 c135 053f af35 9fc6 a835
00000170: b148 aa35 96c8 ad35 3f20 ba35 f536 c435
00000180: c562 c735 a7a2 cc35 ed9b cb35 342c ca35
00000190: d017 6d35 4608 6a35 6948 7535 8b70 8435
000001a0: a6ff 9a35 bba1 7235 dd1b 6b35 12c6 7135
000001b0: fc3a 8035 e76b 9335 6533 7335 8f36 6535
000001c0: d5c9 6335 f3ea 6935 b677 8335 094c 6f35
000001d0: 2149 6235 f1a4 5f35 e015 6035 e76a 7035
000001e0: c88f 8235 4bef 8135 e7c7 8335 ad17 8135
000001f0: 72d8 7e35 b3b4 a235 5d68 a535 fe61 ac35
00000200: b477 b135 9062 bd35 5615 a435 8b6d a435
00000210: 12f2 a835 7549 ab35 cd86 b435 f4a0 a335
00000220: 937b a135 4cfd a235 3460 a235 cc54 a835
00000230: 857e a035 26fb 9e35 f824 a035 6dd2 9d35
00000240: 7331 9f35 68b0 a735 0ba9 aa35 f304 ae35
00000250: d99b a935 3321 a435 0a37 4b35 31c7 4a35
00000260: 9b77 5c35 fbdb 7935 c335 9735 26bd 5035
00000270: d757 4c35 9d77 5935 07a6 7035 e464 8e35
00000280: 6b8b 4f35 9be6 4435 e53f 4935 7683 5735
00000290: 8dbf 7a35 55f9 4835 9f98 3e35 3234 4035
000002a0: 42c6 4735 2eab 5f35 a661 5a35 a26b 5a35
000002b0: 3a25 6035 c369 6035 f4eb 6535 9077 3035
000002c0: 915b 2f35 8f9c 3235 20c6 3c35 bc73 5835
000002d0: 5fea 3435 b0ec 3035 3dbd 3235 5811 3c35
000002e0: ddd2 5435 090c 3b35 c745 3235 0172 2f35
000002f0: 7242 3335 d30c 4535 e8ab 3b35 cd41 3035
00000300: 5732 2a35 f529 2935 0751 3435 04a9 4135
00000310: 80ee 3835 ea43 3335 69ca 2d35 228c 3035
1.2569724e-06 1.240797e-06 1.3281558e-06 1.5048805e-06 1.862824e-06 1.2632116e-06 1.2358087e-06 1.3132806e-06
1.4788656e-06 1.8105559e-06 1.2454644e-06 1.1931045e-06 1.239676e-06 1.3758686e-06 1.6591401e-06 1.2128876e-06
1.1744713e-06 1.2181797e-06 1.3230126e-06 1.5331605e-06 1.3474527e-06 1.3830394e-06 1.4544439e-06 1.5173342e-06
1.6073543e-06 1.8156625e-06 1.7681156e-06 1.8602958e-06 2.0762345e-06 2.514527e-06 1.8165174e-06 1.7286086e-06
1.7831338e-06 1.9488066e-06 2.3263308e-06 1.8028511e-06 1.6646288e-06 1.6626055e-06 1.7729141e-06 2.074164e-06
1.8100814e-06 1.7049429e-06 1.7106438e-06 1.78061e-06 1.970163e-06 2.1235858e-06 2.1552369e-06 2.2274257e-06
2.2415059e-06 2.244581e-06 9.76412e-07 9.52598e-07 1.0117435e-06 1.1477412e-06 1.4204677e-06 9.880805e-07
9.522436e-07 1.00103e-06 1.1192758e-06 1.3606848e-06 9.73336e-07 9.179263e-07 9.387682e-07 1.0222436e-06
1.2205671e-06 9.370251e-07 8.9491056e-07 9.151777e-07 9.746404e-07 1.1111739e-06 1.0325698e-06 1.0562817e-06
1.1047738e-06 1.1305442e-06 1.1684699e-06 1.3261739e-06 1.2988561e-06 1.3516245e-06 1.4480133e-06 1.6649165e-06
1.3229438e-06 1.2693877e-06 1.2974222e-06 1.3698409e-06 1.5612947e-06 1.3058221e-06 1.2333809e-06 1.2389809e-06
1.2868193e-06 1.4418767e-06 1.3056857e-06 1.2574782e-06 1.2687143e-06 1.2947883e-06 1.3867465e-06 1.4619133e-06
1.4855401e-06 1.5246522e-06 1.5170059e-06 1.5063038e-06 8.832403e-07 8.718383e-07 9.1374983e-07 9.867521e-07
1.1548298e-06 9.0387374e-07 8.758487e-07 9.0067726e-07 9.55391e-07 1.0983757e-06 9.0599343e-07 8.538854e-07
8.4857794e-07 8.714116e-07 9.795101e-07 8.9145084e-07 8.429798e-07 8.3313995e-07 8.3478335e-07 8.956253e-07
9.727601e-07 9.680892e-07 9.81844e-07 9.61814e-07 9.4937343e-07 1.2122531e-06 1.2323832e-06 1.2843518e-06
1.3222366e-06 1.4110283e-06 1.2225162e-06 1.2250833e-06 1.2587427e-06 1.2761872e-06 1.3450277e-06 1.219129e-06
1.20314e-06 1.214366e-06 1.2097939e-06 1.2541655e-06 1.1957751e-06 1.1845011e-06 1.1931688e-06 1.1758653e-06
1.1860815e-06 1.2493811e-06 1.2715185e-06 1.2965451e-06 1.2636839e-06 1.2228614e-06 7.5703485e-07 7.5540726e-07
8.2130435e-07 9.307984e-07 1.1266023e-06 7.7761285e-07 7.6123746e-07 8.101286e-07 8.964857e-07 1.0609187e-06
7.731639e-07 7.3351265e-07 7.4971314e-07 8.028504e-07 9.3411e-07 7.486863e-07 7.100261e-07 7.160153e-07
7.442178e-07 8.3323073e-07 8.1353426e-07 8.1367955e-07 8.3500674e-07 8.3600406e-07 8.5652505e-07 6.5739096e-07
6.5325827e-07 6.653799e-07 7.032377e-07 8.0634686e-07 6.739628e-07 6.5909535e-07 6.6585545e-07 7.0060696e-07
7.9283e-07 6.968044e-07 6.6411707e-07 6.535848e-07 6.6779387e-07 7.340688e-07 6.9913085e-07 6.566086e-07
6.340319e-07 6.301846e-07 6.7173136e-07 7.2144053e-07 6.8892405e-07 6.6781524e-07 6.474207e-07 6.576903e-07

exp_avg f4 [8]
00000000: 0478 cd3a b027 fbba ee77 afba a20d baba
00000010: d27a a1ba c102 7d3a 243d 8e3a 6bf3 7fba
0.0015676026 -0.0019161608 -0.0013387182 -0.0014194737 -0.0012319929 0.00096515944 0.0010851962 -0.000976375

exp_avg_sq f4 [8]
00000000: 44cd 4339 8df8 8d39 a236 1439 3915 1a39
00000010: 07ca e638 34fd b038 2c76 d538 18a7 7638
0.00018673117 0.000270788 0.00014134732 0.0001469449 0.00011004885 8.439497e-05 0.00010178643 5.880659e-05
