checkpoints/model-epoch=00-validation_loss=0.10.ckpt (torch, 103001 bytes, 36 tensors)

model.bias f4 [8]
000000 28 d8 83 bf 1a df 87 be fa d4 c6 3d 59 4e 82 3f
       -1.0300341 -0.265374 0.09708591 1.018016
000010 1d 8d 19 3e ba 16 99 3e bf ca 0d bf 0d 02 ce 3e
       0.14995237 0.29900151 -0.5538749 0.4023594

model.input_layers.0.weight f4 [8, 1, 5, 5]
000000 49 b9 f8 3e ce 84 8b 3e cb 68 3c 3e 9f 6a 55 3e
       0.4857886 0.2724976 0.1839935 0.20841454
000010 66 9c 8a bd 42 b6 af 3e 49 7e 0f 3f f8 6f 4a 3e
       -0.06768112 0.3431874 0.5605207 0.19769275
000020 20 25 18 3d d8 82 7c 3d 70 fd 86 3e 27 0f ab 3e
       0.03714478 0.06164822 0.26365232 0.33409998
000030 89 6f a3 3e 3e 38 90 3e af 3b 0a 3e 25 d4 57 3e
       0.31921032 0.2816791 0.1349933 0.2107702
000040 5d 20 ef 3e 4e d6 ae 3e 9b 41 45 bd 5f cc 9b 3d
       0.4670438 0.34147877 -0.04815827 0.0760734
000050 ff 4b 76 3e 50 63 80 3e f9 ec da 3d 4f 75 6a 3b
       0.24052428 0.2507577 0.1068973 0.0035775488
000060 ec 52 56 be a7 ce 77 be 6c 62 df be 5b cd fd bd
       -0.2093007 -0.24199925 -0.43629777 -0.12392684
000070 86 89 48 be 9e a5 79 3d 00 2e 06 bf 12 fc 09 bf
       -0.19583711 0.06094896 -0.5241394 -0.53900254
000080 85 96 92 be a3 4e 10 3c aa 0b a6 3c 12 aa 18 bf
       -0.28630462 0.008807811 0.020269234 -0.59634507
000090 8e ee 0f bf d5 47 90 be 7c c1 bf bd 29 78 10 be
       -0.5622338 -0.28179803 -0.09363076 -0.14108337
0000a0 c4 18 cf be 0a 76 1e be 2c 44 e6 be c3 5f 65 bd
       -0.40448582 -0.15474716 -0.44973886 -0.05599953
0000b0 40 83 2d 3d ba 64 88 be 16 6e 87 bd 8f 61 94 be
       0.042361498 -0.26639348 -0.06612794 -0.2898068
0000c0 90 85 3b be 6a 74 88 bd c1 3e 10 bf 38 ec c5 be
       -0.18312669 -0.06662829 -0.56345755 -0.38656783
0000d0 fc 47 51 be 87 c8 07 be 21 0d 93 bd ec da de be
       -0.20437616 -0.13260089 -0.071802385 -0.435264
0000e0 a4 71 65 be 40 c4 a3 be a4 d9 72 be 90 63 23 bd
       -0.22406632 -0.31985664 -0.23715836 -0.039889872
0000f0 9e 13 9c be f8 cf 57 be 62 e4 d9 be 30 13 ee bd
       -0.30483717 -0.21075428 -0.42557055 -0.116247535
000100 23 5d 1f 3c ed a5 b2 be a6 a5 64 be bf ed ad bd
       0.009726795 -0.34892216 -0.22328815 -0.08492612
000110 f4 81 6b be db 4a 15 3e ba f5 b0 be f3 94 60 be
       -0.22998792 0.14579336 -0.34562474 -0.2193182
000120 f9 1e 38 bb 67 6a 2a 3d 11 07 14 bd 55 9d 0e bf
       -0.0028094633 0.04160538 -0.03613955 -0.5570882
000130 a7 ee 3e be 22 4d fa bd c7 28 69 be 55 37 0a bc
       -0.18645726 -0.12221743 -0.22769462 -0.008436044
000140 ad 21 cb be 05 7e 87 be 25 b4 bc bd 82 c1 a7 bd
       -0.3967413 -0.26463333 -0.09214047 -0.081912056
000150 e4 f2 fe bd 85 b5 d7 be 2b 57 35 be 4f 8e 3a be
       -0.124486715 -0.42130676 -0.17709033 -0.18218349
000160 7a a6 b8 3c 60 53 66 be f7 66 5d be fb 2e d1 be
       0.02254032 -0.22492743 -0.21621309 -0.40856156
000170 c2 a7 b6 be 51 77 4e 3d 82 23 79 3c 19 c9 c9 be
       -0.35674864 0.050406758 0.01520622 -0.39411238
000180 26 0d 85 be a7 17 96 be a0 9c 3e be 88 6d a5 bd
       -0.25986594 -0.2931492 -0.18614435 -0.08077532
000190 d4 c5 35 be 1a 45 63 be ad 73 8a be 3f 98 8c be
       -0.17751247 -0.22194329 -0.2704138 -0.27459905
0001a0 33 0e 06 3b 84 b5 f8 be 07 c4 5f be 6f a0 d9 be
       0.002045524 -0.48575985 -0.21852122 -0.42505214
0001b0 f8 17 1b bd 07 63 fc 36 8b cb 01 bf d4 af ec bd
       -0.037864655 7.5217135e-06 -0.50701207 -0.11556974
0001c0 ac 01 9e be 09 86 f5 bd 2f 4d b3 3d c5 2c 1f be
       -0.3086065 -0.11988456 0.08754956 -0.15544422
0001d0 f5 57 cf be 81 b0 c2 bd dd 43 ca b9 cf e7 12 be
       -0.40496793 -0.09506322 -0.00038579004 -0.1434624
0001e0 13 a6 38 3b 1b c3 4e be f4 b6 1e be 74 26 8c 3d
       0.002817516 -0.20191614 -0.15499479 0.06843272
0001f0 e7 e6 8b 3c fb 73 83 3e 13 fb a5 3e b8 75 a9 3e
       0.017077876 0.25674424 0.32418117 0.33097625
000200 cf a9 84 3e b7 0d 29 be 01 9c d3 3e 65 6d 9f 3e
       0.25910804 -0.16509138 0.4132996 0.3113815
000210 23 60 8c 3e d3 c5 17 bd 43 0a 08 3e 4e e3 72 3e
       0.27417096 -0.037053894 0.13285165 0.23719522
000220 6c 5a 99 3d 37 f7 6d 3e 53 4e 4e 3c 4e 6d 53 3e
       0.0748795 0.23238836 0.012591916 0.20647165
000230 2f 2a d1 3e f6 c2 b0 3e fc d1 5d 3d 9a 36 ee bc
       0.40852496 0.34523743 0.054155335 -0.02907877
000240 42 42 24 3e f3 09 ba 3e 41 fd 03 bd 06 f0 ba bc
       0.160409 0.36335716 -0.032223944 -0.02281953
000250 75 e4 62 3e 69 cd 03 3d e7 19 f5 3e 0c 85 40 3e
       0.22157462 0.032178316 0.47871324 0.18800753
000260 73 ec c7 3e a8 02 4b bd d4 c4 74 be 4a d6 f5 3e
       0.39047584 -0.04956308 -0.23903209 0.48015052
000270 4c 8f 37 3e 2d 6d 81 3e 3b 3c b3 3d 45 1a a8 3d
       0.17925757 0.25278607 0.087517224 0.082081355
000280 2e 1f 5d 3e f1 48 b7 3e a5 dd c2 3e 97 dc 4d 3e
       0.21593925 0.35797837 0.38059726 0.2010368
000290 64 cf d7 bd 1c 87 d5 3d 7e 03 ca 3d 77 2b b0 3e
       -0.105376035 0.10426161 0.09863947 0.3440816
0002a0 b6 3c a4 bd b5 77 74 3d 02 3d b3 bc 40 96 b1 3d
       -0.08019392 0.059684474 -0.021879677 0.08671236
0002b0 0a 3c 0c 3e df f5 70 bd 95 30 e7 bd 62 13 8a be
       0.13694778 -0.05882823 -0.11288563 -0.26967913
0002c0 4a 16 90 be 84 d8 01 be cd ef 72 bd 83 6d 2a bd
       -0.28142005 -0.1268025 -0.059310723 -0.041608345
0002d0 a7 9a 50 bd 88 ff 1d be 5c d6 4f be 1f 72 85 be
       -0.050928738 -0.15429509 -0.20296615 -0.2606363
0002e0 89 5b 1d 3e a9 74 bc be 20 00 85 bd 55 68 71 bd
       0.15366949 -0.36807755 -0.064941645 -0.05893739
0002f0 c3 7a d0 bd e8 25 ee bd 30 06 ab be a7 e5 fb 3c
       -0.10179665 -0.11628324 -0.33403158 0.030749155
000300 84 6e 0c bc d6 86 fb 3d 79 13 38 3e 50 f3 88 be
       -0.008571271 0.12281577 0.17976178 -0.26748133
000310 48 68 8b be 52 16 10 be c1 74 a1 bc e2 71 0e be
       -0.27227998 -0.14071015 -0.019708993 -0.1391063

model.input_layers.0.bias f4 [8]
000000 d9 2f b2 3e 9a 65 91 be bd 05 6f be ca bd 86 be
       0.3480213 -0.28397828 -0.23342033 -0.26316673
000010 af ec ca bd 0e 95 0d bd 81 53 e3 3c e4 df b1 3d
       -0.09908425 -0.034565978 0.027749779 0.08685282

model.input_layers.1.weight f4 [8, 8, 5, 5]
000000 92 b3 70 be 92 f8 ad be f5 f2 9d be 66 de 5d be
       -0.23506 -0.33978707 -0.30849424 -0.2166687
000010 70 85 7e be e1 14 a2 be 4a ca 67 be 1b ca a3 be
       -0.2485559 -0.31656554 -0.22635761 -0.31990132
000020 af 5f 23 be 2a 32 76 be 3d eb ad be 29 63 a5 be
       -0.15954469 -0.24042574 -0.33968535 -0.32302216
000030 e2 ec ac be ab e3 75 be 90 72 65 be c5 69 92 be
       -0.33774477 -0.2401263 -0.22406983 -0.2859632
000040 9b 91 9d be 9e 9d bc be 69 33 4e be cb 46 97 be
       -0.3077515 -0.36839002 -0.20136799 -0.29546198
000050 83 c4 cb be 77 0c 88 be 0f 85 93 be c5 3e 55 be
       -0.39798364 -0.2657201 -0.28812453 -0.20824726
000060 40 e3 55 be 45 05 d4 3e 26 2a a0 3e e8 1c 90 3e
       -0.2088747 0.4141027 0.31282157 0.28147054
000070 3d bb 6c 3e ac dc 20 3e 46 7e e3 3e 82 7c a6 3e
       0.231183 0.1570918 0.44432276 0.32516867
000080 d7 5a 9b 3e d7 a9 53 3e 80 2f 4d 3e b5 0a f8 3e
       0.30342743 0.20670258 0.20037651 0.4844567
000090 ea ad c0 3e e5 31 9a 3e 15 57 a5 3e 1c 70 98 3e
       0.37632686 0.30116192 0.32293 0.29773033
0000a0 91 ef bf 3e 53 25 c5 3e 74 7c 98 3e 00 d1 a7 3e
       0.37487462 0.3850504 0.2978245 0.32776642
0000b0 48 84 8b 3e 4b 61 db 3e 4a 1b c3 3e 8e 3b d7 3e
       0.2724936 0.42847666 0.38106757 0.42037624
0000c0 3f 35 b7 3e cb 92 a3 3e 6d 88 79 3e 29 cd 19 3e
       0.3578281 0.31947932 0.24368449 0.15019669
0000d0 4f f2 4f 3e 33 66 0f 3e 16 08 91 3d 3a 6a 33 3e
       0.20307277 0.1400383 0.070816204 0.17520991
0000e0 90 cc 6b 3e e3 a3 5f 3e f4 04 16 3e 4c 6b f9 3d
       0.23027253 0.21839862 0.14650327 0.121786684
0000f0 fe ac 59 3e 54 17 67 3e 37 3d 89 3e ec 08 14 3e
       0.21257398 0.22567493 0.26804516 0.14456528
000100 f4 a3 c6 3d d2 d6 55 3e 3c 17 77 3e ad 8c 2f 3e
       0.0969924 0.20882729 0.24129957 0.17143507
000110 3b 49 34 3e 5e 08 00 3e bb 5a 69 3e 52 f9 6f 3e
       0.1760606 0.12503192 0.22788517 0.23434952
000120 87 48 54 3e da 82 4d 3e 44 8b 31 3e 25 be 95 3e
       0.20730792 0.20069447 0.17338282 0.2924663
000130 2d d8 51 3e 18 f8 44 3e 33 ee 61 3e 5d 80 43 3e
       0.20492621 0.19235265 0.22063522 0.19091935
000140 84 f8 a2 3e 25 69 8e 3e bd 92 4f 3e 70 1b 31 3e
       0.31830227 0.27814594 0.2027082 0.17295623
000150 b3 5f bb 3d 83 fc 86 3e e4 b2 47 3e 37 b0 9e 3e
       0.091491126 0.26364526 0.19501835 0.30993816
000160 49 25 43 3e 70 71 17 3e 86 47 93 3e 5d 2f 3d 3e
       0.19057192 0.14789367 0.28765506 0.18475099
000170 d9 f1 91 3e c0 cc 31 3e cf 25 25 3e 0d c4 94 3e
       0.28504828 0.17363262 0.16127704 0.29055825
000180 02 1a 87 3e a7 d2 8e 3e aa 4d 10 3e 49 01 39 3e
       0.2638703 0.2789509 0.14092126 0.18066896
000190 c8 44 84 3e 1f d7 54 3e 89 c0 a5 3d 37 6b ba 3d
       0.25833726 0.20785187 0.08093364 0.09102481
0001a0 cb eb c4 3d 60 54 6c 3e 7c b1 44 3e b8 89 c2 3d
       0.096152864 0.23079062 0.1920833 0.09498924
0001b0 d8 b5 ff 3d 57 20 8e 3c fb aa 86 3e b3 62 3e 3e
       0.12485856 0.017349405 0.26302323 0.18592338
0001c0 34 fc 49 3e d8 07 cc 3d 79 b3 a4 3d 5b 39 31 3e
       0.19725114 0.099624336 0.08042044 0.17307036
0001d0 34 29 05 3e b0 df fa 3d 72 16 31 3e a8 67 0f 3e
       0.13003999 0.12249696 0.17293718 0.14004385
0001e0 82 e9 32 3e c7 f6 4b 3e 71 df 2b 3e b8 a7 ab 3d
       0.17471889 0.19918357 0.16784455 0.08381599
0001f0 2a 7e 2f 3d ca 5a f1 bd db c0 25 be bf 5e 01 be
       0.04284493 -0.11784895 -0.1618685 -0.12633799
000200 91 d8 c7 bd c5 36 a1 bc 37 d3 3d be 3c db 2c be
       -0.09758104 -0.019679436 -0.18537603 -0.16880506
000210 6d 11 0d bd b6 3a 55 bd 93 45 e3 bc b1 25 23 be
       -0.034440447 -0.052057944 -0.027743137 -0.15932347
000220 12 1c ce bd 72 8a ef bd 47 22 cd bd 8b d6 1a bd
       -0.10063948 -0.11696328 -0.100163035 -0.03780226
000230 ce 41 e1 bd ab 31 00 be dd 75 03 be 5d c2 b0 bd
       -0.109988794 -0.12518947 -0.1283793 -0.08630822
000240 03 fd 9b bd 4d 66 99 bd e3 10 bf bd 32 6d cf bd
       -0.076166175 -0.074902155 -0.09329393 -0.10128249
000250 24 60 42 bd 39 84 93 bc a7 02 fb bd 31 3d d3 bd
       -0.047454968 -0.018007385 -0.12256365 -0.10314406
000260 f2 8c 15 be 28 4b 81 bc 1a 78 2d bd f7 0f 1e be
       -0.14604548 -0.015782908 -0.042350866 -0.15435778
000270 e8 73 1e be 3e e4 0f be 76 a9 0f bd 07 17 dd bd
       -0.15473902 -0.14051911 -0.03507372 -0.10795408
000280 e4 d4 05 be 6f c0 c4 bd 71 79 96 bd 43 c9 87 bd
       -0.13069493 -0.09607016 -0.07347382 -0.066301845
000290 e4 f2 b0 bd c6 92 06 be 23 86 41 be 27 7b 23 be
       -0.08640078 -0.13141927 -0.18898825 -0.15964948
0002a0 b0 33 a1 bd 20 64 16 3b 63 f6 23 be 37 78 26 be
       -0.07871187 0.0022947863 -0.16011958 -0.16256796
0002b0 23 30 16 be 4c 3e b9 bd 6b e3 46 3b e3 cf c8 3c
       -0.146668 -0.09045085 0.0030347954 0.02451319
0002c0 e6 5c c6 3d b3 d4 9e 3d 59 38 90 3c 52 5a 0d bd
       0.09685688 0.07755413 0.017604994 -0.034509964
0002d0 e7 8c 9d 3c d2 9f c4 bc e9 08 8e bd c5 49 69 bb
       0.019232227 -0.02400199 -0.06935293 -0.0035596949
0002e0 86 f5 ee bc c5 3c 0b 3e 6d 13 ae 3d 1b 4a 84 3c
       -0.02916981 0.135974 0.08499799 0.016148617
0002f0 30 f4 a9 bd f5 7d 76 bd 7e 39 9b 3d 35 b4 bb 3d
       -0.08298528 -0.060178716 0.07579325 0.09165231
000300 f5 0c 7c 3d 1a 0a 0e bc f1 8b fb bd 45 21 ed 3d
       0.061535794 -0.008669401 -0.12282551 0.11578611
000310 69 c3 87 3d 21 b2 1c 3d 04 c3 5f 3c 02 dc 20 bc
       0.066290684 0.038255814 0.013657335 -0.009818079
000320 1d ab e1 3d ca ec 1a 3e 8d 24 fc 3d 85 24 d8 3d
       0.110189654 0.1512939 0.12311659 0.105538405
000330 af 55 8f bc a6 dd 3f 3e 71 30 48 3d 1a b7 27 3e
       -0.017496912 0.18736896 0.048874322 0.16378441
000340 12 ac dc 3d bd 1f 10 3d a6 2c 24 3e 6d 8a 86 3d
       0.10775007 0.035186518 0.16032657 0.06569371
000350 b0 f0 c0 3d 8d 9b fa 3d a6 ce 57 3d 08 fc 81 3d
       0.094209075 0.122367 0.05268731 0.06346899
000360 ea 15 00 3e 95 4f 0a 3e 88 bf 1d 3d 12 a8 c3 3d
       0.1250836 0.1350692 0.038512737 0.09553541
000370 f4 c0 20 3e 8c da 0e 3e 0f d5 6d 3d 7f bb 71 3d
       0.15698606 0.13950557 0.058064517 0.0590167
000380 fa 75 b5 3d 77 bc 3f be 0a 72 4d be 7c c1 80 bd
       0.08860393 -0.18724237 -0.20063034 -0.06286904
000390 2f b0 c6 bd 52 6b 06 be 6f 3f 56 be 7f 2d 1a be
       -0.09701573 -0.13126877 -0.20922635 -0.15056418
0003a0 9a 86 0b be 8a 77 e5 bd 95 05 1d bd d4 3a 25 be
       -0.13625565 -0.11204441 -0.0383354 -0.16135722
0003b0 a9 64 1c be b5 74 08 be 1a bd 33 be 10 66 20 be
       -0.15272774 -0.1332577 -0.17552605 -0.15663934
0003c0 0b 16 de bd c0 a5 21 be da 8d 43 be 59 69 e8 bd
       -0.10844048 -0.15785885 -0.19097081 -0.113482185
0003d0 f9 bf 09 be 56 9e 41 be 9a 06 36 be 4e 84 19 be
       -0.13452138 -0.18908057 -0.17775956 -0.14991876
0003e0 d6 78 aa bd 97 b7 15 bd 1e 02 bd bd 6e 80 1b be
       -0.08323829 -0.036552038 -0.092289194 -0.15185711
0003f0 8f 3d b1 bd 72 26 04 be 6e 1a 4b bd 53 97 e5 bd
       -0.086543195 -0.1290529 -0.049585752 -0.112105034

model.input_layers.1.bias f4 [8]
000000 2a 45 af be cc 39 9c 3d 5b bd 88 bd 86 8c 64 bd
       -0.34232455 0.076282114 -0.06676742 -0.055798076
000010 a4 e2 29 3e a6 b4 a3 bd 9b 84 9c bc 36 7c 60 3d
       0.16590363 -0.0799344 -0.0191062 0.054805957

model.hidden_layers.0.weight f4 [8, 8, 5, 5]
000000 f7 61 6e 3e c6 4a 68 3e 7e b4 3e 3e c6 81 49 3e
       0.23279558 0.22684774 0.1862354 0.19678411
000010 0a 81 e8 3d 9d a7 60 3e 91 b9 62 3e 9e 33 0d 3e
       0.11352737 0.2193894 0.221411 0.13789222
000020 eb 64 0b 3e 73 e2 5e 3d 0c cc 26 3e b0 42 1d 3e
       0.13612716 0.054415178 0.16288775 0.1535747
000030 ea 5d ef 3d 08 d8 c9 3d 42 72 c2 3d 20 51 63 3e
       0.116878346 0.09855658 0.09494449 0.22198915
000040 f7 05 17 3e 39 c1 07 3e 42 c9 c5 3d 19 32 2e 3e
       0.14748369 0.13257302 0.096575275 0.17011298
000050 5c bc ea 3d e1 73 40 3e f5 35 c4 3d c9 b0 a2 3d
       0.11461708 0.18794204 0.09580604 0.07943875
000060 80 22 41 3e 24 04 20 be c2 79 63 be dd b0 7f bd
       0.18860817 -0.1562658 -0.22214416 -0.06242453
000070 95 ee c8 bd 87 91 e5 bd 6a 53 6c be c5 ea 32 be
       -0.09811131 -0.11209398 -0.23078695 -0.1747237
000080 8a 1c 90 bd 8d 06 8e bd 28 76 6e bd d9 8a 4f be
       -0.070366934 -0.06934843 -0.05821815 -0.2026781
000090 89 37 1c be 2d 7d ac bd 20 ff 4c bd 58 08 3b bd
       -0.1525556 -0.08422313 -0.050047994 -0.045662254
0000a0 70 dc 21 be eb 95 1b be dd f8 89 bd c9 94 01 be
       -0.15806746 -0.15193908 -0.0673692 -0.12654413
0000b0 a9 ff 05 bd 18 52 4a be d1 f2 1e be 55 1f f3 bd
       -0.03271452 -0.19757879 -0.15522315 -0.118712105
0000c0 e7 49 a5 bc a5 24 d6 bd 0f 03 69 bc 08 09 45 3d
       -0.020176841 -0.10456208 -0.014221921 0.048104316
0000d0 07 b4 1c 3e 19 cc 58 3c 41 75 7c 3d ed 0c c8 3c
       0.1530305 0.013232254 0.06163526 0.024420226
0000e0 37 48 74 3d 2c 2d f7 3d 7d a9 b1 3d 0a 43 da 3b
       0.059639182 0.12069163 0.086749054 0.0066608237
0000f0 3b ea 31 3d 12 52 f9 3c 20 40 0c 3e a0 65 0c 3e
       0.04343627 0.030434642 0.13696337 0.13710642
000100 ea 24 ea 3d e8 41 19 3d f9 3d 08 3e e9 cf 05 3e
       0.11432822 0.03741637 0.1330489 0.13067593
000110 46 13 11 3e 2e 14 2f 39 45 f9 a8 bd f1 12 4e 3d
       0.14167508 0.00016696818 -0.082506694 0.050311033
000120 07 aa 0e 3c 2c 00 0f 3d fb 21 54 3d 99 49 a4 bc
       0.00870753 0.034912273 0.05179022 -0.020054625
000130 95 ff 7c bd d7 42 2a bc 55 55 3c 3c f6 b8 c4 bd
       -0.06176718 -0.010391912 0.011494954 -0.09605591
000140 a2 9a 7b bd 6a d3 45 bd 8c 38 9c bb 54 f5 ea 3b
       -0.061426766 -0.048297323 -0.004767483 0.0071703587
000150 a5 0f 5b bd 95 a9 64 bd ab eb 91 3c 29 6a cd bd
       -0.053481717 -0.05582579 0.01781257 -0.10030014
000160 39 2d 55 bd 3f bd 2b bd df a1 8b 3c 94 1e 56 3c
       -0.05204508 -0.041928526 0.01704496 0.013068814
000170 e9 60 b7 bd 1a 79 cf bc 11 73 bd bc a5 9f 0c bd
       -0.08954031 -0.0253263 -0.023126157 -0.034331936
000180 f2 56 03 bd 4e 88 c8 bc 87 1b 90 bd 7e e9 89 bd
       -0.03206534 -0.024479058 -0.070365004 -0.06733988
000190 37 47 7f be f2 11 81 be 31 28 39 be 2b 47 27 be
       -0.2492951 -0.25209004 -0.18081738 -0.16335742
0001a0 28 69 26 be 64 57 62 be 0d 4f 84 be 08 8f af bd
       -0.16251051 -0.2210365 -0.2584156 -0.08572203
0001b0 ad f7 32 be a0 7e ec bd 9a 34 70 be d4 91 67 be
       -0.17477293 -0.11547589 -0.23457566 -0.22614223
0001c0 2f d1 04 be 30 06 be bd 84 61 64 bd 4d 2a a0 be
       -0.12970422 -0.09278524 -0.05575706 -0.31282273
0001d0 8d e9 3b be e7 a7 3a be bd 39 0a be 87 63 23 be
       -0.18350811 -0.18228112 -0.13498588 -0.15955935
0001e0 4c 73 95 be 6a fa 3d be c1 5a e2 bd fe 5a 15 be
       -0.29189527 -0.18552557 -0.11052466 -0.14585492
0001f0 bc e9 e4 bd e8 fa 59 3e 26 88 40 3d e8 ec 88 3d
       -0.11177394 0.2128712 0.04700484 0.06685811
000200 4b 1f 4f 3d b6 db 8b 3d 59 d7 4d 3e ac 26 23 3e
       0.050566953 0.06829016 0.2010168 0.15932721
000210 7b fb 4d 3d a6 24 03 3b 0c d8 a1 bd ae 30 5a 3e
       0.05028866 0.0020010858 -0.07902536 0.21307632
000220 f8 f6 bd 3d b6 59 78 3d 64 e9 25 3d 65 40 da bd
       0.09275621 0.06063243 0.04050578 -0.106568135
000230 c4 c8 f6 3d a9 f4 1f 3e d4 7a a1 3c f3 ec 1e 3d
       0.12050012 0.15620674 0.01971189 0.03880019
000240 5f 94 67 3c 59 3d 21 3e 82 a1 0e 3e e4 4b 57 3d
       0.0141344955 0.15746059 0.13928798 0.05256261
000250 71 a1 3b 3c 74 73 62 3d ea 19 7f 3e 09 8c 31 3e
       0.011452065 0.055285886 0.24912229 0.17338575
000260 ce cd 7a 3d c7 ca 1a 3d 7f 73 9f 3d 33 e6 f7 3d
       0.061231427 0.03779104 0.07785701 0.12104454
000270 73 21 99 3d d8 ca f7 3d 7e 90 9a 3d 4c 99 c5 3d
       0.07477083 0.12099236 0.07547091 0.0964838
000280 0d 43 58 3e 7b 10 86 3d 53 ea 9d 3c 33 32 80 3d
       0.21119328 0.06546112 0.019276774 0.06259575
000290 eb e1 9c 3d 8b 77 45 3e e2 2d b6 3d 89 43 d6 3d
       0.07660278 0.19283883 0.0889547 0.104621
0002a0 4d 12 be 3d 2f 4b 8d 3d 74 83 55 3e 7c d7 22 3e
       0.09280834 0.06899106 0.20850927 0.15902513
0002b0 44 b2 e1 3d b3 03 2f 3c 54 ad 95 3d 9b 6f 5a be
       0.110203296 0.010682034 0.0730845 -0.21331637
0002c0 0c ca f6 bd bf 37 5a be 69 69 e4 bd 6b 5e 4d bd
       -0.12050256 -0.21310328 -0.11152918 -0.050138872
0002d0 f5 8b 11 be 41 92 8a be cb 0d 1d be dc 1e 21 be
       -0.14213546 -0.27064708 -0.15337293 -0.15734428
0002e0 2e 41 0a be 71 7c 72 be b7 9b 89 be 76 02 75 be
       -0.13501427 -0.23680283 -0.26876613 -0.2392672
0002f0 75 55 c4 bd 5d c0 32 be 25 00 2c be d5 96 02 be
       -0.09586612 -0.17456193 -0.1679693 -0.1275285
000300 be ff 54 be 6a b5 a5 bd e4 36 50 bd a0 8f 72 bd
       -0.20800683 -0.080912426 -0.050833598 -0.059219003
000310 33 db 92 bd 55 38 b6 bd 91 39 ed bd 38 ee 02 be
       -0.07170715 -0.08897463 -0.115832455 -0.12786186
000320 be f4 2f be 38 70 c4 bd ad 64 1f be 6d 30 1a be
       -0.17183205 -0.095917165 -0.15565749 -0.15057535
000330 03 ee 41 be ce df 06 be 5d eb a6 bd f6 4e 37 be
       -0.1893845 -0.13171312 -0.08150361 -0.17901215
000340 cf cd 93 bd a4 8b 42 be 08 03 79 bd 4c dd 09 be
       -0.07216989 -0.18998581 -0.060793906 -0.13463324
000350 a3 03 1f be cf c2 14 be 31 44 c4 bd d2 2d 20 be
       -0.15528731 -0.14527439 -0.09583319 -0.15642479
000360 50 11 99 bd e9 34 10 be 4b 80 95 bd de a9 bc bd
       -0.07474005 -0.14082684 -0.072998606 -0.09212087
000370 19 eb b1 bd b9 9c 20 be 23 a6 f7 bd ce 98 23 bd
       -0.086874194 -0.15684785 -0.12092235 -0.039940648
000380 51 7a b9 bd e4 ab 99 3d 5a 55 5d 3d bc 27 56 3d
       -0.09056533 0.07503489 0.054036476 0.052283987
000390 3f 77 c4 3d 90 bd f6 3d 79 4b af 3d 38 e3 13 3e
       0.09593057 0.12047875 0.08559317 0.14442146
0003a0 7b b5 f9 3d ca a7 40 3d 0c c6 0b 3e 2a d6 97 3d
       0.12192818 0.047035016 0.13649768 0.074138954
0003b0 77 b1 e4 3d b0 e5 02 3e da aa 3b 3e 62 3a 00 3e
       0.11166661 0.12782931 0.18326893 0.12522271
0003c0 77 1a 97 3d 0c f3 2a 3e 15 42 a3 3d cd 22 8a 3d
       0.07378095 0.16694278 0.079715885 0.06744919
0003d0 5f 7e 1a 3e ea 3e 71 3d 02 d4 8b 3d 21 5d 9a 3d
       0.15087269 0.05889789 0.06827547 0.07537294
0003e0 d9 0d 8b 3d f9 49 ea 3c 74 e6 12 3e 59 c8 2e 3e
       0.067897506 0.028599726 0.14345723 0.17068614
0003f0 64 78 61 bb 4e 2c 8e 3c 4f 05 84 3d 7f b9 30 3e
       -0.0034404034 0.01735511 0.06446325 0.17258261

model.hidden_layers.0.bias f4 [8]
000000 38 a6 6a 3d 41 61 df bc 81 73 c0 3d f4 c9 85 3d
       0.057287425 -0.027268054 0.093970306 0.0653266
000010 49 50 80 3c b6 77 f5 bd 91 ff 07 3e 0e 29 95 3c
       0.015663283 -0.11985724 0.13281085 0.018208053

model.hidden_layers.1.weight f4 [8, 8, 5, 5]
000000 52 ba 94 3c 00 27 13 3e ae ce e1 3d 72 90 28 3e
       0.01815525 0.14370346 0.11025749 0.16461352
000010 c4 29 00 3e d7 b7 e7 3d 59 79 08 3e 54 f0 b7 3d
       0.12515932 0.113143615 0.1332754 0.08981386
000020 57 dc 11 3e e0 32 2b 3e 70 8c a5 bc b9 c9 0a 3e
       0.14244209 0.16718626 -0.020208567 0.13553514
000030 54 c9 14 3e f4 04 27 3e 19 0c 1d 3e b6 24 37 3d
       0.14529926 0.16310483 0.15336646 0.044712745
000040 90 da 17 3e 74 bb d9 3d 80 54 2c 3e d5 d2 a6 3d
       0.14829469 0.10631457 0.16829109 0.08145682
000050 dc a5 4b bc b6 17 ae 3d d9 45 70 3d fd 43 37 3e
       -0.012429681 0.08500616 0.058660362 0.17897029
000060 cf 5d 84 3d 6e 18 56 be 59 c5 52 be a5 8b 80 be
       0.06463205 -0.20907757 -0.20583095 -0.2510654
000070 24 15 25 be 41 d2 5b be 2b 16 6a be 9b 23 72 be
       -0.16121346 -0.21466924 -0.22860019 -0.23646395
000080 19 83 50 be 8c a3 85 be 64 75 26 be f7 5f 5c be
       -0.2036251 -0.2610134 -0.16255718 -0.21520983
000090 49 bb da bd 21 44 3a be 8f bb 22 be 97 41 2d be
       -0.10680253 -0.18190052 -0.1589186 -0.16919552
0000a0 41 76 27 be 0e be 13 be fb 00 09 be e0 2b 4e be
       -0.16353704 -0.14427969 -0.1337928 -0.20133924
0000b0 7e 4c 26 be 09 14 4a bc 5e cb d4 bd 31 30 9f bd
       -0.16240117 -0.012333878 -0.10390352 -0.07772864
0000c0 91 c4 f6 bd 51 55 c4 bd 01 b2 95 bd f0 79 1f be
       -0.12049211 -0.09586585 -0.07309342 -0.15573859
0000d0 94 1a 03 be 06 42 3c be fc 96 42 be 61 22 b2 bd
       -0.12803108 -0.18384561 -0.19002908 -0.086979635
0000e0 73 90 0a be 99 8c c0 bd da 65 43 be 26 5f 8e bd
       -0.13531666 -0.09401817 -0.19081822 -0.06951742
0000f0 d8 0d d0 bd 80 bc 17 be e0 ee 0b be 36 5a f2 bd
       -0.101588905 -0.14818001 -0.13665342 -0.118336126
000100 8e 1a d4 bd b0 a4 09 be db 1d 0e be d1 b9 36 bd
       -0.103566274 -0.1344173 -0.13878576 -0.044610802
000110 ff eb f9 bd 34 e4 18 be 10 5a 29 bd bd e9 14 be
       -0.12203216 -0.14930803 -0.041345656 -0.14542289
000120 70 76 15 be e2 83 e0 bd a5 4e 04 be 02 16 49 3e
       -0.14595962 -0.10962655 -0.12920626 0.19637302
000130 7b 09 67 3e 2c 5f 44 3e 99 97 4c 3e f6 b6 02 3e
       0.2256221 0.1917693 0.19979705 0.12765107
000140 25 0c 06 3e 66 f4 47 3e 86 05 d6 3d fe 25 0b 3e
       0.1309057 0.19526824 0.10450272 0.13588712
000150 2b 74 54 3e fd d1 ca 3d f2 f7 05 3e f0 be a6 3d
       0.2074744 0.09903333 0.13082865 0.08141887
000160 84 b3 25 3e 99 d2 f1 3d 2d 3c bf 3d be a9 db 3d
       0.16181761 0.118077464 0.093376495 0.10725735
000170 22 06 21 3e d9 69 2a 3e 3f 10 33 3e 35 70 d4 3d
       0.15724996 0.1664194 0.17486666 0.10372964
000180 5c 92 23 3d d1 c8 02 3e df ad 89 3d 46 6c 36 3e
       0.0399345 0.12771918 0.067226164 0.1781474
000190 da 72 80 3d 57 4a 4d 3d 51 e4 03 3b 5f 2e b4 3d
       0.06271906 0.050119724 0.00201251 0.08797907
0001a0 6f 29 3d 3d fb 67 8d 3d 52 0c 39 3c 9b 5e de 3d
       0.046182092 0.06904598 0.011294441 0.10857888
0001b0 d6 b7 8c 3d 4d 1b 15 3d c5 e1 b1 3d c7 57 0b bc
       0.068710014 0.03640299 0.0868564 -0.0085048145
0001c0 08 53 e6 bb b4 08 d9 bb f2 ea 19 3d 8c 03 9f 3d
       -0.007028941 -0.006623352 0.037577577 0.077643484
0001d0 5b c0 db 3c 69 0c a0 3d 9d 60 96 3d 6f 5c f6 bc
       0.02682512 0.07814867 0.07342646 -0.030073373
0001e0 cd 5c 26 3e d4 21 fa 3d 8b 73 e9 3b 08 8b af 3d
       0.16246338 0.122134835 0.0071243695 0.0857144
0001f0 aa ff be bc de b1 bb 3d 31 a0 fc bc 2f 29 2b bd
       -0.02331527 0.09164785 -0.030838104 -0.041787323
000200 2a 1a fa bc 2f f9 cf bd c1 87 80 3d e0 0d 5d bd
       -0.030530054 -0.1015495 0.06275893 -0.05396831
000210 cb ed b8 bc a9 7f ce bd 2a 11 d8 b9 4d 40 a1 bd
       -0.022574326 -0.10082943 -0.0004121152 -0.078735925
000220 25 8a c4 bd 84 21 1d be 39 0a 1f be 19 1d e8 bd
       -0.095966615 -0.15344816 -0.15531243 -0.11333675
000230 69 24 31 3c 02 37 a7 bd 07 07 6e bd e3 49 81 bd
       0.0108119035 -0.08164789 -0.05811217 -0.06312921
000240 a5 74 20 be b0 28 01 bd 06 f2 a7 bd 19 c1 85 bd
       -0.15669496 -0.031532943 -0.08200459 -0.06530971
000250 97 7f 49 bd c5 98 74 bd da af 7d bd 7c 6f 85 bd
       -0.049193945 -0.059716005 -0.061935283 -0.065154046
000260 a4 bf b2 bc 00 55 00 bd 07 b3 9d bd b9 54 95 bd
       -0.021819897 -0.031331062 -0.077001624 -0.0729155
000270 99 56 dd 37 cb f8 9e bd 51 00 8d bc 9b 66 3a bd
       2.6385578e-05 -0.07762297 -0.017212065 -0.04550801
000280 5f e0 9d bc 3d 34 9c bc 65 dc e7 bc 3a cf 81 bb
       -0.019272028 -0.019067878 -0.028303334 -0.003961471
000290 5e a4 8a 3c ea da 0d bc 92 6f 0b bc 4c 80 01 3c
       0.01692408 -0.00865815 -0.008510487 0.0079041235
0002a0 2a 2e 0d 3d 77 2c 81 bd 2e f1 2f bc 3c d3 d9 3c
       0.034467854 -0.06307309 -0.010738654 0.026589982
0002b0 75 c0 00 3c 9e 12 7e bb dc bc 8d 3d 6d f3 8a 3c
       0.007858385 -0.003876842 0.06920788 0.016961778
0002c0 62 aa 5c bc d4 47 0c bc 8e 4b 01 3d de 96 08 3d
       -0.013468357 -0.008562047 0.031566195 0.033347003
0002d0 d3 d8 1a bc ea 38 b2 bb e4 7b 6e 3d 17 98 a1 3b
       -0.009451109 -0.0054389136 0.05822362 0.0049314606
0002e0 b8 f5 c6 3b 13 cd 92 bd 26 cc 08 bc 77 da dc bc
       0.0060717724 -0.07168021 -0.008349454 -0.02695964
0002f0 a4 ee f4 bb 62 7f 78 3c ba 4a bb bd 9d 45 f8 3c
       -0.0074747372 0.015167089 -0.09145112 0.030306632
000300 c1 5f 30 bd 22 4f 19 bd 9a 15 2b 3d 30 cc 7c 3b
       -0.043060068 -0.037428983 0.041768648 0.0038573854
000310 72 92 fe 3c dc 17 82 3d ee 39 86 bd 0c 9f 2a bd
       0.03107569 0.06352207 -0.06554018 -0.041655585
000320 ab 90 b1 3d 84 b9 97 3c 31 32 a1 3c 00 87 ff bd
       0.08670171 0.018521078 0.019677253 -0.12476921
000330 3b f1 b0 bd 88 3b 10 3e 78 7c 0e 3d 29 fd 8a bc
       -0.08639761 0.1408521 0.03478667 -0.01696642
000340 98 76 8f bd 52 b7 b0 bc 28 2d b7 3d ee 2a 70 3d
       -0.07005042 -0.021571789 0.0894416 0.05863469
000350 f7 c9 80 bd 36 f4 b7 bd 1e e5 9d bd 4c e9 c3 bb
       -0.06288522 -0.089821264 -0.07709716 -0.005978739
000360 7a e7 9d 3a ce 85 51 bd 81 47 a9 bd b6 2f a9 bd
       0.0012047135 -0.051152997 -0.082655914 -0.08261053
000370 39 ed ca 3d 63 bd 7a 3b 01 88 84 3c ef 67 23 bd
       0.09908528 0.0038259856 0.016178133 -0.03989404
000380 73 82 07 bd c2 49 81 3e 60 81 82 3e b0 1e 8a 3e
       -0.03308339 0.25251585 0.2548933 0.26976538
000390 da 61 7a 3e 2b 41 58 3e e7 13 3d 3e 30 4f 43 3e
       0.2445139 0.2111861 0.18464623 0.19073176
0003a0 c2 ba 42 3e 5a e0 84 3e ea d3 48 3e bd 48 cd 3d
       0.19016555 0.25952417 0.19612089 0.10023639
0003b0 a3 5a 5e 3e ef eb 4b 3e af 79 6d 3e 13 2f 4e 3e
       0.21714263 0.1991422 0.2319095 0.20135145
0003c0 8b af 8b 3d da ac 02 3e 2c 46 6e 3e 88 7f 88 3e
       0.068205915 0.1276125 0.23268956 0.266598
0003d0 28 ee 6e 3e 9e 12 e6 3d f9 80 98 3d 7b dc 06 3e
       0.23333037 0.1123402 0.074464746 0.13170044
0003e0 92 7a 3f 3e d5 75 51 3e 53 06 f7 3d b9 3a 64 3d
       0.186991 0.20455106 0.12061753 0.055720065
0003f0 9c bd 1b 3e 3f 2c 3b 3e ca 80 cc 3d 49 da 86 3d
       0.15209049 0.18278597 0.09985502 0.06584603

model.hidden_layers.1.bias f4 [8]
000000 a8 52 ac be 81 ec 8d 3c 56 54 3c bd ab 12 d6 bc
       -0.33656812 0.017324688 -0.045978867 -0.026131948
000010 4e 0d 18 3e 3c d5 e0 bd 41 d0 60 bd 86 35 24 3e
       0.14848825 -0.10978171 -0.054886106 0.16036043

model.output_layers.0.weight f4 [8, 8, 5, 5]
000000 f3 c6 99 3d 46 f7 3d 3d 40 14 e7 bc 08 e4 4a bb
       0.0750865 0.046378396 -0.028207898 -0.003095867
000010 00 bf 66 bd 0b ef c4 3d 67 06 1a bc 10 8f db bc
       -0.056334496 0.09615906 -0.0094009405 -0.026801616
000020 ef 4d 46 3c de af bb bc 28 98 9b 3d ff 62 82 3d
       0.012103542 -0.022911008 0.07597381 0.06366538
000030 8b ed 19 3d e2 fe 00 bd 81 4d ee bc e4 c5 be 3d
       0.037580054 -0.031493075 -0.029089691 0.093150884
000040 f7 01 f0 3c 5c 97 55 bc 7e 71 f5 3c c7 38 a7 bc
       0.029297812 -0.013036575 0.029961344 -0.020412816
000050 b7 a4 5b bb fa f3 e8 bc 90 17 54 ba a3 05 8e bc
       -0.0033514926 -0.02843665 -0.0008090669 -0.017336672
000060 16 72 27 3c e8 1e bd bd 34 0e 06 be 4a c0 d9 bd
       0.010220071 -0.092344105 -0.13091356 -0.10632379
000070 7f 79 e8 bd 34 82 27 be 3a 66 44 be 4e 4c bd bd
       -0.113512985 -0.16358262 -0.19179621 -0.092430696
000080 a9 24 ba bd 18 8c 0a be e5 4e 9e bd d4 c9 42 be
       -0.090890236 -0.13530004 -0.07729892 -0.19022304
000090 f0 6a 08 bd ef df 7f bd 17 dc 02 be fd e6 cc bd
       -0.03330511 -0.06246942 -0.1277927 -0.10004995
0000a0 40 0f 23 be 78 b8 bd bd 2f 38 4e bd 0a b5 f1 bc
       -0.15923786 -0.092637 -0.05034655 -0.029505271
0000b0 7c da a5 bd d5 5b de bd 44 71 e3 bd 05 97 4e bd
       -0.08098313 -0.10857359 -0.11105588 -0.050436992
0000c0 dc 66 d1 bd 33 6a c9 bd 75 e0 fe 3d 5e 49 0b 3d
       -0.10224697 -0.09834709 0.124451555 0.034005515
0000d0 3f b7 8d 3d ea db 11 3b b3 b8 d6 3d a0 fb 03 3e
       0.06919717 0.0022256323 0.10484447 0.12888956
0000e0 68 67 89 3c 9a 0c 21 3d 38 9d 0d bd b3 ad ae 3d
       0.01677294 0.03931866 -0.034573764 0.08529224
0000f0 0d d4 64 bb 35 39 93 3c 68 a1 28 bd 7c c4 7f 3d
       -0.0034916431 0.017971614 -0.041169554 0.06244324
000100 c9 22 dc 3c 69 2c 84 3d 75 98 2a 3d 38 77 21 bd
       0.026872056 0.06453783 0.0416493 -0.039420336
000110 97 6d c3 bc 8d 8b ae 3d f8 ec 02 3d d1 54 a2 3d
       -0.023855967 0.08522711 0.031964272 0.07926334
000120 8d c9 6d 3c f3 58 b5 3d 03 df e7 3d 37 ae 33 3e
       0.0145133855 0.08854856 0.11321833 0.17546926
000130 21 e4 ee 3d 95 32 3c 3e 42 3d 39 3e bd 6e 4e 3e
       0.11664606 0.1837867 0.18089774 0.20159431
000140 0b 14 38 3e 15 86 c6 3d 2b 06 4b 3e 90 be 4e 3e
       0.17976396 0.09693543 0.19826572 0.20189881
000150 bf 99 1d 3e 71 71 a0 3d a3 94 13 3e 82 27 d2 3d
       0.1539068 0.07834137 0.14412169 0.10261442
000160 5b 31 ef 3d ab 36 06 3e 65 88 14 3e 09 a8 04 3e
       0.11679336 0.13106792 0.14505155 0.12954725
000170 cf 94 d8 3d 91 3f 48 3e 7e ad 25 3e ff 51 1e 3e
       0.10575258 0.19555499 0.16179463 0.15460967
000180 f5 05 28 3e c3 df 34 3e c5 99 f1 3d 99 95 08 3e
       0.16408522 0.17663483 0.11796907 0.13338317
000190 dd ec 75 bd 5b b4 74 bd 2d f0 8e bc 32 3d 90 bc
       -0.060040344 -0.059742313 -0.01744851 -0.017607305
0001a0 73 c4 8e bd 7a 65 d3 bc 17 9e 61 bd 6d 81 b7 bd
       -0.069710635 -0.025805224 -0.055082407 -0.08960233
0001b0 52 0f a6 ba 7b b5 ca bb 97 7d c3 39 f6 17 60 bd
       -0.0012669361 -0.006186185 0.0003728687 -0.05471035
0001c0 2f bd 43 bd ff c0 bb bd cc 75 43 bd f4 0a ac bd
       -0.04778784 -0.091676705 -0.04771976 -0.08400527
0001d0 24 fd a2 bd fd 63 fb bc 38 cf a8 bc b6 be 9a bc
       -0.07958439 -0.030687327 -0.020606622 -0.018889766
0001e0 60 d6 35 3d 1b 07 9f bd c2 e9 c7 bc af 6f 51 bd
       0.044393897 -0.07765027 -0.024403457 -0.0511319
0001f0 b1 c7 a5 bd 7c c6 91 bc e4 4b e7 3c 0a 09 91 3b
       -0.08094729 -0.01779484 0.02823443 0.0044261264
000200 9c 4d e0 bb 60 14 88 3d 61 d5 66 3d c0 e6 00 3d
       -0.0068451893 0.06644511 0.056355838 0.03147006
000210 af 6b d2 3b 27 45 ad 3c 31 8a 7e 3d 66 82 b3 3d
       0.0064215283 0.021151138 0.06214351 0.08765106
000220 74 2f f5 bb 51 36 f1 bb 97 c9 06 3c 15 d0 01 3c
       -0.0074824635 -0.0073612113 0.008226774 0.007923146
000230 b3 27 b8 3d c2 3b 7c 3b f6 43 f4 3c 6a 5b b9 3d
       0.08991947 0.0038487767 0.029817563 0.09050639
000240 3a 72 9d 3b 40 38 28 bc b4 d8 60 3d 54 15 ae 3d
       0.0048048766 -0.010267317 0.054894164 0.08500162
000250 43 c0 50 3d 20 6e 4c 3d f1 18 60 bd 4e 43 51 bb
       0.050964605 0.04990971 -0.054711286 -0.0031930986
000260 47 ee 5a bd ff 3c 47 ba 3b eb 11 bd 6c bb da ba
       -0.053449895 -0.00076003367 -0.035624724 -0.0016687936
000270 43 16 66 bd e4 9b b7 bd 44 0a 00 bd 7a 47 11 bc
       -0.056173574 -0.08965281 -0.03125979 -0.008867139
000280 55 3d 58 bd ee ce 2d bd 57 08 4a bd 80 11 b9 bc
       -0.052792866 -0.04243367 -0.04932436 -0.022591352
000290 a2 c5 d5 3c 19 78 13 bd 7a c9 22 bd c6 a1 75 bb
       0.026095215 -0.036003206 -0.039742924 -0.0037480458
0002a0 4d 88 a8 bd 31 55 5a 3d 1b b2 d9 bc a3 79 81 bd
       -0.08229122 0.0533039 -0.026574185 -0.063220285
0002b0 81 c0 03 bd 0f 67 23 3d 4a 16 b9 bb d0 11 77 bd
       -0.032166008 0.039893206 -0.005648409 -0.06031972
0002c0 61 51 03 bd ec 7a 62 3b 36 58 0e bd 10 41 01 3d
       -0.03206003 0.003455813 -0.034752093 0.03155619
0002d0 09 ec 22 bd 09 7a 58 bd ec d0 88 bc 60 34 8e bd
       -0.039775882 -0.052850757 -0.016701184 -0.069435835
0002e0 46 18 92 3d 46 13 c3 bd 83 dd 08 3d 9a e2 af 3c
       0.07133536 -0.095251605 0.033414375 0.021470357
0002f0 c4 aa 92 3d 81 34 82 bc 46 b9 86 bd 2a 45 05 3d
       0.07161477 -0.015894176 -0.06578307 0.032536663
000300 3e 91 63 bd 0e 47 05 ba 13 89 4e 3d 21 a8 a2 3c
       -0.055558436 -0.00050841353 0.050423693 0.01985556
000310 d7 66 95 3c ef 55 b2 3c 03 80 4c bc f1 7b 18 3c
       0.018237514 0.021769492 -0.012481692 0.009306894
000320 fc a1 9d bd 3b eb a0 3d db b2 a8 bc 4c 09 ae bc
       -0.07696912 0.07857367 -0.020593097 -0.021244667
000330 79 d9 ee 3c 8c 95 79 bd cc 36 6f bd 74 d5 83 3d
       0.029156433 -0.060933635 -0.058401868 0.06437197
000340 72 78 53 bd 30 c9 c8 3d d0 17 b1 ba c7 a0 16 3d
       -0.051628537 0.098039985 -0.0013511125 0.036774423
000350 52 c5 1a bd e3 b8 82 3d 91 1e ff 3d de 61 0d bd
       -0.037785836 0.063829206 0.12457002 -0.03451716
000360 bf 09 4c b9 ef b0 2d bc bd 73 5a bd 8e dc 9a 3d
       -0.00019458587 -0.010601266 -0.053333033 0.07561599
000370 3d 49 bc bd 40 1c 27 3d c3 a3 41 bd f4 1d c7 bd
       -0.091936566 0.040798426 -0.047275316 -0.0972251
000380 8b 9e 6d 3d b9 d2 a6 3e c5 ac 65 3e 03 bf 11 3e
       0.058012526 0.32582644 0.22429188 0.14233021
000390 f5 2c 7a 3e c4 06 81 3e 5a 94 65 3e 11 1a 17 3e
       0.24431212 0.25200474 0.22419873 0.14756037
0003a0 f6 42 00 3e df 34 20 3e 40 74 54 3e 84 f4 a0 3e
       0.12525544 0.15645169 0.20747471 0.3143655
0003b0 dd 06 68 3e bb 26 47 3e af 3b 25 3e a3 d6 a3 3d
       0.22658868 0.19448368 0.16136049 0.07999923
0003c0 76 48 85 3e 2b 39 83 3e 7b 30 19 3e 4b 31 0a 3e
       0.26031846 0.25629553 0.149599 0.13495366
0003d0 22 74 55 3e 09 85 9b 3e 52 9e 3f 3e 8a 95 65 3e
       0.20845082 0.30374935 0.18712738 0.22420326
0003e0 20 d5 65 3e 54 ac 36 3e 41 b3 62 bd 04 ef ce bc
       0.22444582 0.17839175 -0.05534673 -0.025260456
0003f0 75 cb 10 bd b7 77 07 3d 03 37 e4 3c 55 8f 1a bd
       -0.03535028 0.033073153 0.027858263 -0.03773435

model.output_layers.0.bias f4 [8]
000000 50 03 1a 3d 3b 15 f5 bd cb a8 4e be c7 4e 66 3d
       0.037600815 -0.1196694 -0.20181577 0.05622747
000010 74 5f 5a 3d 19 d1 b5 bc cd 91 a9 bd 1a 14 8b bd
       0.053313687 -0.022194432 -0.082797624 -0.067909434

model.output_layers.1.weight f4 [1, 8, 5, 5]
000000 cb 54 a6 3d 7a b5 70 3d d5 6a 10 3d 7f 54 2a 3c
       0.08121642 0.05876682 0.035258133 0.010396122
000010 21 8b 82 3d 11 c6 01 3e 55 e3 33 3d 1e cf d4 bb
       0.06374193 0.12673213 0.043917973 -0.006494417
000020 9b cf 87 3c 87 22 4b 3d 01 78 f2 3b 10 26 e4 3d
       0.016578486 0.049593475 0.0073995595 0.11140072
000030 37 98 95 3c 28 0f c6 bc cb 5f 4d 3c 2d b7 84 3d
       0.018261058 -0.024177149 0.012535046 0.064802505
000040 4e 81 2d 3d de 0f 0c 3d bf 82 33 3d e8 97 03 3e
       0.042359643 0.03419482 0.04382586 0.12850916
000050 28 ab 57 3d 93 6f a0 3d 32 13 8f 3c 13 a9 6e 3d
       0.05265346 0.07833781 0.017465208 0.05826671
000060 6a 7b eb 3c 08 bb 90 bc 9b 51 7c bd 89 d7 35 bd
       0.028745372 -0.017667308 -0.061601263 -0.044395003
000070 f0 fa 25 3c ea 66 d8 bc 3d c6 c2 3c 77 25 87 bd
       0.010130629 -0.02641626 0.023776168 -0.06598943
000080 86 5f e0 3b fa 64 43 bc e5 73 0c 3d d6 80 87 3c
       0.006847325 -0.01192593 0.034290213 0.016540926
000090 58 01 98 bd 7e 7e 01 3d b8 2c 88 3c e8 a1 ca 3c
       -0.07422131 0.031614773 0.016622886 0.024735406
0000a0 42 b9 9f bd fa d2 03 be 9d 9c 31 3c 87 54 d1 3c
       -0.07799007 -0.1287345 0.010840562 0.025553001
0000b0 bf 35 a6 bd b5 bb 1a be 58 b1 e5 bd 3b 73 5a bd
       -0.0811572 -0.15110667 -0.11215466 -0.05333255
0000c0 96 06 51 3b 4f 76 87 bd 0b 0a a9 3d 48 98 24 3c
       0.0031894795 -0.066143624 0.08253869 0.010046072
0000d0 90 ab cd 3c dc fd a5 bc 61 ce 8c 3c 4e cb 23 3b
       0.025106221 -0.020262651 0.017188253 0.0024993005
0000e0 ff c8 5f 3c d1 50 78 3d 6a 35 4c 3d d0 c4 1d 3c
       0.013658761 0.060623948 0.049855627 0.009629443
0000f0 67 7c cc 3d 03 10 1e ba ad 89 e8 bb 14 57 8b 3d
       0.09984665 -0.00060296076 -0.0070964904 0.06803718
000100 fc b2 cf bc cf 68 ae 3d ed b3 31 bd d0 90 06 3b
       -0.025353901 0.085160844 -0.04338448 0.0020533092
000110 b7 f5 64 3c 6f a6 72 3d ee 5e 3e bd dd 5a 54 3b
       0.013974599 0.059240755 -0.04647725 0.0032402792
000120 95 6e 35 3c 3b 75 09 bd 9f 4a 57 3c 8d 21 18 bd
       0.011073728 -0.033559065 0.01314035 -0.03714137
000130 9d 55 03 bc 80 c0 76 3b b3 ac 07 3d cc 71 67 3d
       -0.008016017 0.003765136 0.033123683 0.05650501
000140 ff 04 71 ba e3 a5 0a 3e 34 b3 b2 3d bb db 9e 3d
       -0.0009194165 0.13539843 0.087255865 0.07756754
000150 d3 d0 cc 3d a2 72 f3 bb 69 93 71 3d f5 f9 7b 3b
       0.100007676 -0.007429437 0.058978472 0.0038448547
000160 b3 8e 84 3d c8 00 b2 3d 17 05 91 3d 20 fc a9 3c
       0.0647253 0.08691555 0.07081049 0.020750105
000170 8a 95 1e bc 76 e4 80 3d f5 eb 86 3d d5 bd 5b 3b
       -0.009679208 0.062935755 0.06587974 0.0033529897
000180 01 c4 3c 3d e9 1e 85 bc a8 44 02 3e fc c1 18 3d
       0.04608536 -0.01625009 0.12721503 0.037294373
000190 46 87 e5 3d b1 4f 3b 3d 91 f8 4e bd 90 2d 12 bc
       0.11207442 0.045730297 -0.05053002 -0.008921996
0001a0 5f e5 bf 3d 8c 29 26 3e 38 c0 de 3d 61 4e a2 bb
       0.09369921 0.16226786 0.108765066 -0.004953191
0001b0 db 87 3d 3d 8c ef 25 3d a9 58 1f 3e 50 4c ac bc
       0.04627214 0.040511653 0.15561165 -0.021032482
0001c0 3d 80 84 bd cf e9 6d 3d 5d 17 b3 3c f7 5f d6 3c
       -0.06469772 0.058084305 0.021861726 0.026168806
0001d0 49 fe f6 3c 61 fe 8c bd af 45 a4 bc 7f 0c 34 bd
       0.03015055 -0.068844564 -0.020052759 -0.04395723
0001e0 74 77 0d 3e 78 2b ce bc 3b 69 81 bc e7 e1 5d bd
       0.13815099 -0.025167212 -0.015797248 -0.054170515
0001f0 07 51 93 3c 89 d3 99 3b e0 80 02 be 5b 9d 10 bd
       0.017982973 0.0046944064 -0.12744474 -0.035306316
000200 84 35 bc bd 50 a3 f3 bd 4c 7b 4a bd 92 d9 c2 bc
       -0.09189895 -0.11896384 -0.04943399 -0.023785386
000210 43 6a e7 3c ea 99 f5 bd f8 1f 14 be ac 2b 6f bd
       0.028248912 -0.119922474 -0.1446532 -0.058391258
000220 11 cd 70 bd 23 ed b2 3c e8 15 93 3c 67 d3 95 bb
       -0.058789317 0.021841591 0.017954782 -0.0045723203
000230 3c 1a 4d bc 14 94 bc bc 87 f2 ae bd a4 2e 19 be
       -0.012518462 -0.023019828 -0.08542352 -0.14959198
000240 10 f6 fd bd 9c 42 01 bd fa 85 fa bc 6b 4e 0e bb
       -0.12400448 -0.031557664 -0.030581463 -0.0021714221
000250 ab 47 0c bd 24 bf 40 bd 93 8b 7a bd 67 96 38 bd
       -0.034248035 -0.047057286 -0.061168265 -0.04506531
000260 85 34 63 bc 26 a0 25 bd de 9f fd bd df df 5a bc
       -0.013867502 -0.040435933 -0.12384008 -0.013359039
000270 98 aa b7 3c 6b 61 3b 3d 9c 37 6c bd 98 c8 5d 3b
       0.022420213 0.045747202 -0.05767022 0.0033841487
000280 d5 19 01 3d c9 e1 13 3d 5a 3f 64 3d 47 03 d3 ba
       0.031518776 0.036103997 0.05572448 -0.0016098999
000290 3f ca a0 3c 0d 8b ac 3d 94 a9 bd 3d 97 d4 61 3d
       0.019627688 0.08424959 0.0926086 0.055134382
0002a0 64 1c 7e 3d 8c ff 00 bd 32 55 b8 bc 66 43 bf 3b
       0.062038794 -0.03149371 -0.022501562 0.005836892
0002b0 b5 f4 a5 bd 80 eb 46 bd aa a3 d9 bd 12 d5 92 3d
       -0.08103315 -0.048564434 -0.106269196 0.07169546
0002c0 46 ba d8 bc 62 e4 92 3d 81 aa 95 3d a1 d2 98 3d
       -0.02645601 0.07172467 0.07307912 0.07462049
0002d0 ab f7 bd bc 0a 19 e9 3c ec 75 ae 3d 05 0a ca 3d
       -0.023189386 0.028454322 0.085185856 0.09865192
0002e0 60 7d 55 3d b4 89 8e bd c7 68 ae bb 33 9d a3 bc
       0.05212152 -0.069598585 -0.005322549 -0.01997242
0002f0 8d 73 8a 3d 60 f6 92 bc a1 52 96 bc 81 3a 95 bc
       0.06760321 -0.017939746 -0.018349947 -0.018216373
000300 a5 ab 35 3c d6 79 96 3b 27 17 af 3d bf 45 9a 3d
       0.0110882865 0.0045921607 0.08549338 0.07532834
000310 9c 64 66 3d 9d 3c 7c 3d ed 3f ab 3d 67 e8 a8 3d
       0.056248292 0.061581243 0.08361802 0.08247452

exp_avg f4 [8]
000000 f4 c6 e2 39 26 63 bd b9 fa 22 13 38 d7 d3 81 b8
       0.0004325431 -0.0003612276 3.5080106e-05 -6.1906576e-05
000010 df 90 d5 b9 4f 1c 64 39 8c b1 d3 39 7a ad 21 b8
       -0.00040734463 0.0002175432 0.0004037734 -3.8546954e-05

exp_avg_sq f4 [8]
000000 2c b6 4d 35 01 d0 aa 36 6c 5b 90 35 a4 39 0d 37
       7.6633546e-07 5.0906096e-06 1.0755443e-06 8.417675e-06
000010 f0 f3 3a 35 fe 7c 27 37 35 65 40 35 43 a7 0f 36
       6.9645375e-07 9.983078e-06 7.167285e-07 2.140602e-06

exp_avg f4 [8, 1, 5, 5]
000000 f9 c2 4f b8 e3 31 e7 b8 ba 40 35 b9 fa ef 58 b9
       -4.953423e-05 -0.000110242305 -0.00017285618 -0.00020688763
000010 0c 41 7f b9 2c fa 7b 37 4c 8e 01 b7 fb 3a 35 b8
       -0.00024342927 1.50190135e-05 -7.72213e-06 -4.3208693e-05
000020 67 ba 8b b8 c4 b5 d8 b8 65 79 9c 38 c0 65 b4 38
       -6.662757e-05 -0.00010333539 7.461271e-05 8.602021e-05
000030 bf 1c 9f 38 87 29 85 38 cf 7e 05 38 ff 75 0f 39
       7.587065e-05 6.349669e-05 3.182777e-05 0.000136815
000040 65 15 34 39 1f 0b 38 39 cb c5 2d 39 75 d4 0b 39
       0.00017174108 0.0001755175 0.0001657225 0.0001333522
000050 06 8e 54 39 8c 9b 80 39 47 e4 83 39 8b 26 7c 39
       0.00020270803 0.00024529954 0.00025156347 0.00024046951
000060 51 d6 5b 39 a1 8f fe b5 bf f5 94 38 7c ab 15 39
       0.00020965307 -1.8966276e-06 7.102964e-05 0.0001427363
000070 51 37 42 39 41 47 73 39 c9 02 99 b8 39 f8 4b b8
       0.00018521889 0.0002320083 -7.296127e-05 -4.8630147e-05
000080 ea 0c 43 b7 6f ea a4 37 a3 7f 8b 38 20 be 10 b9
       -1.16259125e-05 1.965949e-05 6.651811e-05 -0.00013803737
000090 8f 93 23 b9 40 39 1b b9 fd ab 08 b9 2a 7a c0 b8
       -0.00015599861 -0.00014803279 -0.00013034041 -9.178028e-05
0000a0 72 bf 51 b9 18 1f 82 b9 65 b5 87 b9 10 4f 81 b9
       -0.00020003112 -0.000248187 -0.00025884356 -0.00024663704
0000b0 2f e9 5c b9 14 0f 8b b9 92 25 a9 b9 66 b5 b1 b9
       -0.00021067703 -0.0002652338 -0.00032262184 -0.00033895223
0000c0 7a 9a ac b9 88 a8 9b b9 07 e2 3b 38 81 a9 c4 38
       -0.0003292149 -0.0002968947 4.479478e-05 9.377581e-05
0000d0 2a 08 16 39 ff 10 34 39 65 78 54 39 ae 32 f5 b6
       0.00014308156 0.00017172469 0.00020262746 -7.307469e-06
0000e0 c7 d5 f1 36 2a fa 02 38 10 b5 54 38 f3 28 ad 38
       7.2072467e-06 3.12274e-05 5.0713366e-05 8.25691e-05
0000f0 d3 da 6d b8 9d 7e 97 b8 81 40 94 b8 60 4a 81 b8
       -5.6709e-05 -7.223825e-05 -7.069205e-05 -6.165053e-05
000100 81 eb 0b b8 a5 c6 e3 b8 bd 87 19 b9 1e d7 27 b9
       -3.3359513e-05 -0.00010861204 -0.00014641783 -0.00016006498
000110 8b 54 22 b9 6f 25 04 b9 4a f1 2b b9 70 c5 59 b9
       -0.00015481019 -0.00012602446 -0.00016397718 -0.00020768284
000120 e6 5f 6b b9 9e 07 67 b9 84 10 4c b9 e7 db 88 37
       -0.00022447071 -0.00022032714 -0.00019461109 1.6314863e-05
000130 98 06 89 38 bf 56 f8 38 ca 0a 19 39 43 ec 3a 39
       6.533897e-05 0.00011841719 0.00014595236 0.00017826357
000140 2a 1f 3f b8 9e e5 e3 b7 b4 c8 16 36 52 9f c3 37
       -4.5566972e-05 -2.7167433e-05 2.2468566e-06 2.332e-05
000150 45 cc 74 38 0c 25 d0 b8 fc 3d e9 b8 f2 c7 d8 b8
       5.8364374e-05 -9.9251134e-05 -0.00011121851 -0.00010336925
000160 11 d0 bd b8 70 1a 79 b8 45 df 1f b9 a0 af 42 b9
       -9.050978e-05 -5.9390848e-05 -0.00015246596 -0.00018566707
000170 06 59 48 b9 7e 5e 3d b9 4e f0 1c b9 55 ba 58 b9
       -0.0001910665 -0.00018059646 -0.0001496684 -0.0002066878
000180 59 35 81 b9 fb d6 85 b9 93 c0 80 b9 75 8f 62 b9
       -0.00024644544 -0.0002552791 -0.00024557541 -0.00021606481
000190 0b 5e 75 37 22 1d 68 38 12 7b cd 38 5c 75 f9 38
       1.4625034e-05 5.5340242e-05 9.7980854e-05 0.00011895105
0001a0 a5 9a 16 39 72 f2 e3 b7 ae 41 81 b7 c3 61 ab 36
       0.00014362724 -2.7173406e-05 -1.5408583e-05 5.107578e-06
0001b0 23 6b ac 37 cf 64 47 38 06 1b 84 b8 7b 2a a1 b8
       2.0553887e-05 4.7539183e-05 -6.299284e-05 -7.684991e-05
0001c0 44 b2 a0 b8 5e 7f 8f b8 e3 4d 3a b8 ae bf ce b8
       -7.662599e-05 -6.842495e-05 -4.4418393e-05 -9.8585486e-05
0001d0 22 c6 09 b9 d3 ae 17 b9 58 2e 14 b9 59 2a f6 b8
       -0.00013139148 -0.0001446561 -0.00014131644 -0.00011738082
0001e0 63 90 0f b9 56 18 39 b9 1a 94 4a b9 c0 34 4a b9
       -0.00013691331 -0.0001765204 -0.00019319393 -0.00019283872
0001f0 41 1e 34 b9 3b 35 ba b7 67 9a 7e b8 c0 29 cf b8
       -0.00017177408 -2.2197715e-05 -6.0702117e-05 -9.878306e-05
000200 bf cb f2 b8 93 b6 0d b9 f6 a3 90 37 46 e9 da 36
       -0.0001157741 -0.00013514822 1.7242488e-05 6.524063e-06
000210 4a cd 59 b7 eb 9e d1 b7 65 ac 37 b8 b6 a4 64 38
       -1.29820055e-05 -2.4988743e-05 -4.3791155e-05 5.4512835e-05
000220 e1 1d 8d 38 ec 74 8b 38 3b 81 83 38 52 c3 3b 38
       6.728969e-05 6.649815e-05 6.270638e-05 4.476618e-05
000230 b3 98 c6 38 da dc 02 39 d3 b8 0e 39 23 0f 0e 39
       9.469818e-05 0.0001248004 0.00013611028 0.00013547814
000240 35 83 f3 38 bd a1 08 39 20 01 30 39 82 22 40 39
       0.00011611582 0.00013030223 0.00016785087 0.00018323402
000250 5a 9b 40 39 fc f9 2f 39 6a c4 6e b8 13 b0 ca b8
       0.0001836842 0.00016782427 -5.6926547e-05 -9.664907e-05
000260 1d 82 0e b9 84 c5 22 b9 51 cd 3a b9 a7 86 50 b7
       -0.00013590646 -0.00015523104 -0.00017814829 -1.2429117e-05
000270 16 db bd b7 34 7d 2e b8 bc 8c 62 b8 66 94 a2 b8
       -2.2632576e-05 -4.1601437e-05 -5.4013668e-05 -7.752403e-05
000280 14 77 03 38 25 33 3d 38 f6 9e 36 38 47 c9 21 38
       3.1343734e-05 4.5108744e-05 4.3540225e-05 3.8572845e-05
000290 af 4e 8f 37 e0 e7 a5 38 6c b7 e8 38 52 39 ff 38
       1.7083568e-05 7.911003e-05 0.00011096787 0.00012170024
0002a0 1f 23 f6 38 da 9b c3 38 20 57 04 39 fc 86 2b 39
       0.00011736736 9.327354e-05 0.00012620958 0.00016358116
0002b0 83 9e 38 39 16 75 32 39 5e 60 1b 39 35 23 b7 37
       0.00017606658 0.00017019021 0.00014817851 2.1831695e-05
0002c0 df 2e 58 38 90 58 aa 38 23 7c b7 38 b7 89 ce 38
       5.1542065e-05 8.122728e-05 8.749242e-05 9.848497e-05
0002d0 93 16 02 b6 20 e7 d5 36 f3 b2 9a 37 12 79 8a 37
       -1.938465e-06 6.374801e-06 1.844156e-05 1.650726e-05
0002e0 22 ba e1 37 41 24 ef b7 75 bb 1e b8 ac 5f 2d b8
       2.6908765e-05 -2.8507902e-05 -3.784472e-05 -4.1335516e-05
0002f0 a2 bf 58 b8 86 42 38 b8 65 33 91 b8 83 dc c4 b8
       -5.1676885e-05 -4.3930973e-05 -6.923712e-05 -9.387082e-05
000300 b8 1a e3 b8 20 cd fb b8 ce 32 e9 b8 4c 17 e8 b8
       -0.0001082918 -0.0001200682 -0.00011119769 -0.000110669615
000310 67 0a 18 b9 b3 0e 2a b9 ae ec 33 b9 a2 2d 2c b9
       -0.00014499725 -0.00016217939 -0.0001715894 -0.00016420198
