checkpoints/model-epoch=02-validation_loss=0.09.ckpt (torch, 103382 bytes, 36 tensors)

model.bias f4 [8]
-1.188588 -0.14351295 -0.38120145 1.0040013 0.2960056 0.28374606 -0.8313629 0.6586258
00000000: a723 98bf 0ff5 12be d62c c3be 1d83 803f
00000010: 0c8e 973e 2a47 913e 33d4 54bf b39b 283f

model.input_layers.0.weight f4 [8, 1, 5, 5]
0.94846684 0.62864834 0.3053581 -0.0022330126 -0.60169643 0.80933124 0.98308617 0.43339172
-0.038622424 -0.3293004 0.755674 0.82936907 0.6711876 0.3360291 -0.1215562 0.68205327
0.9692864 0.73782307 0.082370944 -0.07311003 0.6996716 0.7548579 0.55881333 0.24184652
-0.23265886 -0.6763248 -0.79617 -0.2772571 -0.034643665 0.53287 -0.96367955 -0.9706651
-0.56554186 0.020800536 0.33779883 -1.0722103 -1.0762048 -0.6961265 -0.23629834 0.02216336
-0.8884631 -0.69810677 -0.9316678 -0.30478358 0.06962669 -0.75506765 -0.6135163 -0.8104362
-0.5259379 -0.1663753 -0.98728734 -0.7294212 -0.33606088 0.04421765 0.41059753 -0.85022223
-0.6231029 -0.55741894 -0.18738993 0.307135 -0.7346051 -0.6728388 -0.77047306 -0.18513656
0.23816249 -0.7557174 -0.6871622 -0.4662638 -0.3553768 0.2924762 -0.75263894 -0.687675
-0.43354687 -0.18305905 0.00021274718 -0.92617 -0.4852653 -0.23021528 -0.058662634 0.44011226
-0.7716967 -0.6304217 -0.3179616 -0.05207557 0.1812371 -0.82989854 -0.6123307 -0.5185603
-0.069281265 -0.043713845 -0.6317055 -0.8658612 -0.7415753 -0.11404016 0.095459744 -0.823106
-0.7302575 -0.7221661 -0.44168144 -0.10907548 -0.5300951 -0.51857847 -0.39267838 -0.13900991
0.4146686 -0.8136086 -0.5506542 -0.6327751 -0.00811449 0.29926655 -0.83906114 -0.4946832
-0.6054851 -0.18782839 0.29236674 -0.4736385 -0.78490484 -0.4138848 -0.10401117 0.0023859274
-0.32895038 -0.5998304 -0.5225363 -0.112360284 0.081875674 0.515488 0.5116007 0.36467892
0.10590088 -0.5135366 0.6536374 0.5417272 0.37913787 -0.11633745 -0.14084123 0.47733375
0.340808 0.39966816 -0.009980794 -0.013894598 0.63189137 0.61071295 0.24696888 -0.032280806
-0.034984563 0.61310023 0.26523632 0.24038596 0.30496132 -0.10145856 0.84038705 0.46866798
0.4792258 -0.22280417 -0.6782099 0.81221473 0.497599 0.41935146 0.0034381673 -0.26581675
0.5495894 0.7279115 0.6355483 0.20912094 -0.37092167 0.4219841 0.47430974 0.6249787
-0.040672734 -0.15938741 0.31227565 0.48792586 0.48647982 0.07093994 -0.24468547 -0.6574944
-0.60023206 -0.26620927 0.049135245 0.32535988 -0.4489459 -0.538425 -0.42137158 -0.23117054
0.44402263 -0.76237655 -0.48158744 -0.3303901 -0.12079502 0.12670562 -0.6736689 -0.34352884
-0.24736983 0.14895517 0.44535968 -0.6087202 -0.65200067 -0.43152136 -0.04063915 0.1155685
00000000: b9ce 723f 19ef 203f e657 9c3e bc57 12bb
00000010: c708 1abf 5530 4f3f 89ab 7b3f 85e5 dd3e
00000020: 8c32 1ebd 109a a8be da73 413f 8851 543f
00000030: f3d2 2b3f 020c ac3e 75f2 f8bd 0b9b 2e3f
00000040: 2723 783f f9e1 3c3f 19b2 a83d b6ba 95bd
00000050: ae1d 333f 5e3e 413f 640e 0f3f 9da6 773e
00000060: 203e 6ebe 9f23 2dbf ccd1 4bbf a5f4 8dbe
00000070: 84e6 0dbd 2b6a 083f b4b3 76bf 827d 78bf
00000080: 5ac7 10bf e365 aa3c f8f3 ac3e 303e 89bf
00000090: 14c1 89bf 5935 32bf 31f8 71be ef8f b53c
000000a0: 5172 63bf 20b7 32bf c881 6ebf 980c 9cbe
000000b0: 7098 8e3d 1d4c 41bf 670f 1dbf bf78 4fbf
000000c0: dea3 06bf 495e 2abe ddbe 7cbf 59bb 3abf
000000d0: 2c10 acbe 911d 353d d739 d23e 2aa8 59bf
000000e0: ac83 1fbf 02b3 0ebf 25e3 3fbe cc40 9d3e
000000f0: 140f 3cbf 2a3f 2cbf b93d 45bf 7094 3dbe
00000100: dee0 733e b276 41bf dde9 2fbf 21ba eebe
00000110: f3f3 b5be 71bf 953e f2ac 40bf 780b 30bf
00000120: dbf9 ddbe d573 3bbe e314 5f39 7a19 6dbf
00000130: b274 f8be 8ebd 6bbe 3b48 70bd 6556 e13e
00000140: ea8d 45bf 5163 21bf ddcb a2be 314d 55bd
00000150: 3896 393e 3b74 54bf b4c1 1cbf 5ec0 04bf
00000160: 56e3 8dbd 4a0d 33bd 74b7 21bf 14a9 5dbf
00000170: e1d7 3dbf e38d e9bd 6680 c33d 13b7 52bf
00000180: 28f2 3abf e1df 38bf 1224 e2be f762 dfbd
00000190: 50b4 07bf 8fc1 04bf 240d c9be 9d58 0ebe
000001a0: 714f d43e a748 50bf acf7 0cbf 8dfd 21bf
000001b0: a3f2 04bc 7739 993e b6cc 56bf 1e47 fdbe
000001c0: 1201 1bbf 1656 40be 18b1 953e bf80 f2be
000001d0: 86ef 48bf b5e8 d3be cf03 d5bd 385d 1c3b
000001e0: 2f6c a8be 7c8e 19bf f0c4 05bf 261d e6bd
000001f0: 6fae a73d 06f7 033f 43f8 023f 32b7 ba3e
00000200: 90e2 d83d 2277 03bf c854 273f a2ae 0a3f
00000210: 5c1e c23e 5442 eebd af38 10be 1765 f43e
00000220: 637e ae3e 4ea1 cc3e 7c86 23bc 2ba6 63bc
00000230: a2c3 213f af57 1c3f 69e5 7c3e e138 04bd
00000240: f94b 0fbd 23f4 1c3f 0ecd 873e bd27 763e
00000250: e423 9c3e 81c9 cfbd 9b23 573f 40f5 ef3e
00000260: 165d f53e c726 64be 2a9f 2dbf 4eed 4f3f
00000270: 4cc5 fe3e 3cb5 d63e e052 613b 2219 88be
00000280: e4b1 0c3f 6858 3a3f 4bb3 223f cd23 563e
00000290: 72e9 bdbe 4d0e d83e bad8 f23e 9bfe 1f3f
000002a0: 7498 26bd 7436 23be 98e2 9f3e 6bd1 f93e
000002b0: e213 f93e f648 913d d48e 7abe 8e51 28bf
000002c0: cfa8 19bf 954c 88be 0a42 493d 9295 a63e
000002d0: 3ddc e5be 39d6 09bf 04be d7be f8b7 6cbe
000002e0: ef56 e33e 1c2b 43bf a192 f6be e428 a9be
000002f0: 6163 f7bd 1ebf 013e 9175 2cbf 03e3 afbe
00000300: 844e 7dbe b487 183e 2f06 e43e 16d5 1bbf
00000310: 84e9 26bf 5ef0 dcbe 3d75 26bd 2daf ec3d

model.input_layers.0.bias f4 [8]
0.65006155 -0.66905093 -0.6497239 -0.6870532 -0.62999123 0.5943084 0.5930062 -0.67573255
00000000: 6f6a 263f ec46 2bbf 4e54 26bf b8e2 2fbf
00000010: 1b47 21bf 9824 183f 41cf 173f cffc 2cbf

model.input_layers.1.weight f4 [8, 8, 5, 5]
-0.4755502 -0.4088069 -0.18226212 0.097443976 0.27257195 -0.6527002 -0.38314104 -0.2751048
0.05362658 0.16170426 -0.8087049 -0.6206397 -0.4194844 -0.19097368 -0.02348558 -0.86442655
-0.7742414 -0.6245812 -0.38830993 -0.4130369 -1.0098373 -0.7937876 -0.66004354 -0.5572066
-0.5539525 0.67273563 0.39750466 0.15361543 -0.09748059 -0.3904522 0.82287633 0.53067243
0.28786185 0.002207464 -0.20914224 1.0060365 0.7511294 0.46891156 0.32603103 0.12833315
0.9966842 0.91882175 0.66892457 0.6001746 0.4548274 1.0910709 0.9538718 0.8514901
0.739443 0.68676716 0.47152615 0.205855 0.042175904 -0.21053141 -0.48541957 0.48509574
0.36667806 0.13611424 -0.11132893 -0.3227367 0.6399898 0.4956232 0.3208202 0.03642432
-0.1529203 0.782492 0.7041827 0.4278285 0.32891455 0.211797 0.86169577 0.77708966
0.5803822 0.5277379 0.48401988 0.5157056 0.25025472 0.040603653 -0.09928211 -0.3192699
0.6703196 0.4405379 0.15337539 -0.024836963 -0.27914974 0.7673756 0.5195819 0.4125468
0.17624728 -0.005374677 0.8992469 0.6585268 0.54392225 0.36250398 0.28797323 0.9278444
0.77117985 0.6191 0.4398885 0.4687365 0.42326906 0.19076265 -0.14467563 -0.32599348
-0.5278479 0.4891005 0.27112335 -0.053624198 -0.2012894 -0.499869 0.6595439 0.41724434
0.18901029 -0.066215366 -0.229298 0.7143902 0.5452885 0.33626726 0.28670722 0.18505695
0.795266 0.69581664 0.50747025 0.38131973 0.3167195 -0.25284615 -0.13678293 0.08144159
0.2698341 0.5116852 -0.39462164 -0.22344084 0.085895546 0.21127814 0.38687974 -0.47581673
-0.26377213 -0.11127958 0.021563742 0.20331357 -0.54995006 -0.43048564 -0.28371173 -0.1654759
-0.09976388 -0.5821875 -0.47397307 -0.34956372 -0.2421524 -0.20582049 -0.30890363 -0.14386377
0.016619349 0.3523628 0.55734324 -0.40108243 -0.24390486 -0.02821815 0.24894741 0.37753975
-0.49693993 -0.30726826 -0.07607079 0.07359632 0.20388745 -0.6224176 -0.5347917 -0.31355444
-0.1619835 -0.030377584 -0.7189223 -0.586542 -0.4117138 -0.32973704 -0.23331282 0.27865857
0.14981411 -0.09537351 -0.34820202 -0.60489583 0.35866147 0.12736736 -0.16872947 -0.29073352
-0.5028825 0.6067594 0.36849305 0.037204016 -0.2403639 -0.35175136 0.7049459 0.5719295
0.29543772 0.094480805 -0.075142756 0.8143913 0.62630904 0.40628657 0.30083367 0.25371206
0.45115912 0.49627936 0.30614713 0.12154274 -0.07324522 0.5358181 0.43758845 0.44056633
0.19423658 0.0321306 0.5636929 0.5214315 0.47025838 0.30959776 0.116755255 0.49495175
0.59247345 0.54341125 0.30847958 0.20687754 0.6064751 0.598862 0.4666593 0.38423237
0.28641057 -0.49428305 -0.5080156 -0.2250022 -0.10730157 -0.068578556 -0.5250866 -0.50038254
-0.38035068 -0.1830153 -0.026077712 -0.5289614 -0.5621269 -0.4682434 -0.34104803 -0.20861748
-0.49906012 -0.578402 -0.55859274 -0.35722032 -0.23295929 -0.5876531 -0.58628094 -0.5136533
-0.3704446 -0.21123485 -0.3756006 -0.4300868 -0.21846184 -0.1192517 0.031661578 -0.39163512
00000000: 517b f3be 234f d1be eca2 3abe b590 c73d
00000010: 8d8e 8b3e 5c17 27bf 102b c4be 89da 8cbe
00000020: 8ba7 5b3d cd95 253e 4907 4fbf 3ee2 1ebf
00000030: a9c6 d6be 9b8e 43be d564 c0bc 0f4b 5dbf
00000040: af34 46bf 8ee4 1fbf 8fd0 c6be 9379 d3be
00000050: 5942 81bf aa35 4bbf 9df8 28bf 17a5 0ebf
00000060: d5cf 0dbf 6738 2c3f bb85 cb3e 5d4d 1d3e
00000070: e7a3 c7bd 5ae9 c7be 06a8 523f 26da 073f
00000080: a162 933e 1aab 103b 6229 56be cec5 803f
00000090: 044a 403f 2d15 f03e 8aed a63e c469 033e
000000a0: b226 7f3f e737 6b3f a43e 2b3f 0ba5 193f
000000b0: 23df e83e 36a8 8b3f f130 743f 41fb 593f
000000c0: 234c 3d3f f9cf 2f3f e06b f13e a7cb 523e
000000d0: a4c0 2c3d 8c95 57be ea88 f8be 785e f83e
000000e0: 3abd bb3e 8861 0b3e 6c00 e4bd bf3d a5be
000000f0: 5fd6 233f 53c2 fd3e 8c42 a43e ab31 153d
00000100: 2497 1cbe 6551 483f 5145 343f 560c db3e
00000110: 7d67 a83e 50e1 583e 1898 5c3f 59ef 463f
00000120: ee93 143f d519 073f 74d1 f73e 4805 043f
00000130: 6321 803e 0450 263d 6b54 cbbd 5877 a3be
00000140: 119a 2b3f 2f8e e13e 700e 1d3e e376 cbbc
00000150: b7ec 8ebe ba72 443f 5203 053f 5639 d33e
00000160: 2b7a 343e 0f1e b0bb 0b35 663f 3695 283f
00000170: 7d3e 0b3f 1f9a b93e 3a71 933e 3687 6d3f
00000180: 0b6c 453f 567d 1e3f 1139 e13e 3bfe ef3e
00000190: b9b6 d83e 4957 433e d925 14be 9ee8 a6be
000001a0: 0a21 07bf 616b fa3e aed0 8a3e 0ca5 5bbd
000001b0: cf1e 4ebe d4ee ffbe ded7 283f 0da1 d53e
000001c0: ea8b 413e ec9b 87bd 18cd 6abe 47e2 363f
000001d0: 0798 0b3f 392b ac3e 4acb 923e 927f 3d3e
000001e0: 8d96 4b3f 0a21 323f 92e9 013f 573c c33e
000001f0: 0f29 a23e 0d75 81be d310 0cbe d9ca a63d
00000200: b227 8a3e cdfd 023f d90b cabe adcd 64be
00000210: 01ea af3d 4c59 583e 1a15 c63e 409e f3be
00000220: 240d 87be 8ce6 e3bd 72a6 b03c 6f31 503e
00000230: 87c9 0cbf 9d68 dcbe aa42 91be 8472 29be
00000240: 0151 ccbd 3d0a 15bf 99ac f2be 04fa b2be
00000250: ccf6 77be 9bc2 52be 9e28 9ebe 0651 13be
00000260: 4d25 883c e668 b43e 0cae 0e3f ad5a cdbe
00000270: 32c2 79be c029 e7bc 12ec 7e3e e44c c13e
00000280: e96e febe 4452 9dbe 01cb 9bbd abb9 963d
00000290: dfc7 503e c356 1fbf 1ce8 08bf 358a a0be
000002a0: 01df 25be 69da f8bc 4b0b 38bf 9e27 16bf
000002b0: 27cc d2be 4bd3 a8be 8ee9 6ebe 56ac 8e3e
000002c0: df68 193e 3053 c3bd 8947 b2be 74da 1abf
000002d0: 7aa2 b73e 976c 023e 6bc7 2cbe 06db 94be
000002e0: e8bc 00bf 9654 1b3f 1fab bc3e 3d63 183d
000002f0: f421 76be c118 b4be 5677 343f f969 123f
00000300: 9d43 973e 277f c13d 72e4 99bd f37b 503f
00000310: ca55 203f cb04 d03e df06 9a3e 8ce6 813e
00000320: 54fe e63e 5418 fe3e 51bf 9c3e 66eb f83d
00000330: 9701 96bd 602b 093f 980b e03e e991 e13e
00000340: f4e5 463e 609b 033d 2e4e 103f 897c 053f
00000350: b5c5 f03e 9983 9e3e 611d ef3d 516a fd3e
00000360: 57ac 173f 001d 0b3f 09f1 9d3e b5d7 533e
00000370: f441 1b3f 054f 193f f8ed ee3e 1bba c43e
00000380: 68a4 923e ab12 fdbe 4f0d 02bf fa66 66be
00000390: edc0 dbbd ea72 8cbd 136c 06bf 1219 00bf
000003a0: 53bd c2be 5d68 3bbe eda0 d5bc 046a 07bf
000003b0: 8ce7 0fbf 99bd efbe d99d aebe d29f 55be
000003c0: cf84 ffbe 2712 14bf efff 0ebf 95e5 b6be
000003d0: e18c 6ebe 6f70 16bf 8216 16bf c87e 03bf
000003e0: eaaa bdbe f34d 58be b94e c0be 5634 dcbe
000003f0: 76b4 5fbe 3c3a f4bd 92af 013d 6684 c8be

model.input_layers.1.bias f4 [8]
-0.500878 0.19814332 -0.54505473 -0.06981245 0.31195673 -0.09518961 -0.29659545 0.31107217
00000000: 8a39 00bf 15e6 4a3e b588 0bbf d4f9 8ebd
00000010: cbb8 9f3e c5f2 c2bd 5cdb 97be da44 9f3e

model.hidden_layers.0.weight f4 [8, 8, 5, 5]
0.2091296 0.23177737 0.14646804 0.04193089 -0.16517678 0.2436438 0.31584677 0.22559047
0.10822596 -0.13326126 0.13343093 0.21890157 0.2431253 0.1480686 0.007626082 0.12160456
0.109813325 0.18508144 0.14560422 0.13082771 -0.006904078 0.11972459 0.109679446 0.12923795
0.21047777 -0.16282056 -0.13698535 0.13462983 0.16474274 0.18758135 -0.25451744 -0.13008718
0.0823408 0.16489793 0.2336791 -0.30700916 -0.20425633 -0.009454713 0.13379277 0.20846415
-0.33472362 -0.28401083 -0.08033169 -0.020630106 0.14670469 -0.39649758 -0.3352158 -0.21006054
0.015818447 0.015675873 0.05658208 0.058804736 0.09550152 -0.105683416 -0.12931822 0.22835626
0.2261693 0.22585224 0.096134365 -0.0914115 0.27931228 0.2668372 0.32537785 0.25733
0.13063425 0.1859734 0.3022484 0.28516024 0.26785958 0.05357464 -0.039756414 0.13637497
0.107350245 0.14246404 0.118912876 -0.04775641 -0.15129276 -0.20684615 -0.26930478 -0.3901749
-0.059267096 -0.09585037 -0.16796543 -0.2773567 -0.38880458 -0.060127202 -0.029786607 -0.29615983
-0.40102226 -0.44100076 0.05311895 0.00527502 -0.25286102 -0.34321082 -0.39935678 0.019171014
-0.0046973485 -0.14749879 -0.33872128 -0.41286668 -0.45877877 -0.46388358 -0.35886377 -0.2915024
-0.22265203 -0.3878321 -0.47302115 -0.27113318 -0.3099562 -0.18208179 -0.32113168 -0.38438395
-0.26934847 -0.17866372 -0.057992585 -0.26432186 -0.21974035 -0.23182872 -0.14192364 -0.0959757
-0.13043909 -0.11746506 -0.07679623 -0.10089051 -0.008158683 0.14610775 -0.10013283 -0.14833806
-0.19299582 -0.1574999 0.12362365 0.03905675 -0.11301879 -0.20565474 -0.29210305 0.14364585
-0.026498899 -0.11925141 -0.20045882 -0.35744482 0.07979024 0.05037895 -0.15870549 -0.21151571
-0.2523168 0.1241745 0.06632341 -0.106297694 -0.2324936 -0.21153942 0.28630558 0.22518791
0.055945054 -0.033283617 -0.077191874 0.107116506 0.12055473 0.13846113 0.030874811 -0.011850199
0.1431665 0.0760245 0.027102757 0.013792504 -0.02585289 0.09571482 0.07077348 0.119689174
0.082428515 0.008628941 0.14258392 0.14655152 0.1492067 0.048893835 0.06710244 -0.24615444
-0.121966526 -0.16315101 0.023938712 0.14250751 -0.33759812 -0.44355515 -0.28372967 -0.1896819
-0.07403126 -0.5196363 -0.552207 -0.477356 -0.23810114 -0.20768438 -0.41974393 -0.41876826
-0.47094822 -0.27974975 -0.17049257 -0.22383721 -0.30208138 -0.3311569 -0.32955667 -0.28996965
-0.53947467 -0.48549548 -0.48356637 -0.34782144 -0.24004641 -0.47005296 -0.47445667 -0.55775887
-0.35399938 -0.32584694 -0.33639106 -0.4760335 -0.5320105 -0.47232935 -0.30684745 -0.3468194
-0.3338108 -0.469335 -0.40959027 -0.34783486 -0.21585757 -0.3568493 -0.3932746 -0.35999832
-0.36436334 0.17348437 0.07663227 -0.043974437 -0.07548325 -0.11292645 0.18447979 0.18387249
0.04668592 -0.10697739 -0.08695857 0.21603557 0.20761248 0.108140044 0.06654646 -0.069313414
0.27265295 0.3196862 0.1348265 0.016354602 0.025942115 0.236635 0.23039699 0.1622189
0.050473865 -0.085826285 -0.2250829 -0.1547965 -0.255103 -0.14016698 0.0016710082 -0.22908843
00000000: 1226 563e 0c57 6d3e b8fb 153e babf 2b3d
00000010: 1a24 29be c37d 793e abb6 a13e 3001 673e
00000020: 92a5 dd3d a475 08be 1ea2 083e bc27 603e
00000030: d7f5 783e 4c9f 173e 36e4 f93b d00b f93d
00000040: cfe5 e03d fd85 3d3e 4619 153e b3f7 053e
00000050: 9b3b e2bb 2a32 f53d 9e9f e03d f456 043e
00000060: 7c87 573e 6fba 26be e345 0cbe 67dc 093e
00000070: 52b2 283e 5315 403e 1c50 82be 9335 05be
00000080: 4ba2 a83d 01db 283e 9349 6f3e 4e30 9dbe
00000090: 9228 51be f1e7 1abc f900 093e a077 553e
000000a0: e560 abbe de69 91be f184 a4bd 7800 a9bc
000000b0: c139 163e bb01 cbbe 68a1 abbe 1c1a 57be
000000c0: b095 813c b06a 803c 9cc2 673d 3cdd 703d
000000d0: 4d96 c33d 8c70 d8bd ff6b 04be 39d6 693e
000000e0: ed98 673e cf45 673e 18e2 c43d f435 bbbd
000000f0: 0502 8f3e e39e 883e ed97 a63e c2c0 833e
00000100: fcc4 053e d06f 3e3e 4dc0 9a3e 8600 923e
00000110: e424 893e 1571 5b3d 9fd7 22bd e1a5 0b3e
00000120: 72da db3d 18e2 113e 9888 f33d 3a9c 43bd
00000130: 7dec 1abe 7acf 53be 51e2 89be 01c5 c7be
00000140: 0ec2 72bd 334d c4bd 21ff 2bbe b301 8ebe
00000150: 6511 c7be f147 76bd 0b03 f4bc 43a2 97be
00000160: ca52 cdbe daca e1be 4293 593d 13da ac3b
00000170: 0077 81be 54b9 afbe 7e78 ccbe 880c 9d3c
00000180: 37ec 99bb ec09 17be e06c adbe 4363 d3be
00000190: 0de5 eabe 2682 edbe febc b7be cd3f 95be
000001a0: e5fe 63be ee91 c6be d42f f2be f8d1 8abe
000001b0: 94b2 9ebe a673 3abe 5f6b a4be f9cd c4be
000001c0: 0be8 89be 9ff3 36be a289 6dbd 3255 87be
000001d0: 9d03 61be 8264 6dbe 6e54 11be e88e c4bd
000001e0: d391 05be 8591 f0bd 5847 9dbd af9f cebd
000001f0: ffab 05bc 459d 153e 7112 cdbd efe5 17be
00000200: b2a0 45be a747 21be 652e fd3d f8f9 1f3d
00000210: 6576 e7bd 2897 52be 888e 95be e617 133e
00000220: 3814 d9bc 153a f4bd 1445 4dbe 0203 b7be
00000230: 1169 a33d 285a 4e3d b183 22be 9397 58be
00000240: ab2f 81be 334f fe3d 91d4 873d 9bb2 d9bd
00000250: cd12 6ebe ca9d 58be a596 923e a997 663e
00000260: a426 653d 6754 08bd c616 9ebd e65f db3d
00000270: 66e5 f63d c1c8 0d3e 2ced fc3c 5627 42bc
00000280: 3d9a 123e bcb2 9b3d 9a06 de3c f4f9 613c
00000290: 71c9 d3bc 2206 c43d b0f1 903d 991f f53d
000002a0: 48d0 a83d 6760 0d3c 8501 123e 9a11 163e
000002b0: a4c9 183e e744 483d 016d 893d e90f 7cbe
000002c0: 96c9 f9bd 0f11 27be 1e1b c43c 7ded 113e
000002d0: a9d9 acbe a919 e3be 0445 91be f93b 42be
000002e0: b49d 97bd e206 05bf 705d 0dbf 0168 f4be
000002f0: c9d0 73be 37ab 54be ade8 d6be cb68 d6be
00000300: 2020 f1be 5c3b 8fbe 9b95 2ebe 9535 65be
00000310: 69aa 9abe 668d a9be a7bb a8be e776 94be
00000320: 031b 0abf dd92 f8be 0396 f7be a715 b2be
00000330: bace 75be c8aa f0be fceb f2be 49c9 0ebf
00000340: 683f b5be 69d5 a6be 733b acbe aaba f3be
00000350: d731 08bf 27d5 f1be 1c1b 9dbe 5092 b1be
00000360: 40e9 aabe ad4c f0be d1b5 d1be 6917 b2be
00000370: c409 5dbe f4b4 b6be 4a5b c9be b351 b8be
00000380: d58d babe e3a5 313e 61f1 9c3d 8a1e 34bd
00000390: f696 9abd fc45 e7bd 45e8 3c3e 1249 3c3e
000003a0: bc39 3f3d f616 dbbd 5617 b2bd 6e38 5d3e
000003b0: 5e98 543e 8778 dd3d 8349 883d 31f4 8dbd
000003c0: 2b99 8b3e e9ad a33e f50f 0a3e 16fa 853c
000003d0: 8f84 d43c 7250 723e 30ed 6b3e b61c 263e
000003e0: afbd 4e3d b1c5 afbd 227c 66be f982 1ebe
000003f0: dc9c 82be ef87 0fbe bb05 db3a 2896 6abe

model.hidden_layers.0.bias f4 [8]
0.016099669 0.10724127 0.020132503 -0.020290606 -0.0002722505 0.081087865 0.04359766 0.24459586
00000000: 74e3 833c 50a1 db3d ebec a43c 7c38 a6bc
00000010: d8bc 8eb9 6511 a63d 7693 323d 5677 7a3e

model.hidden_layers.1.weight f4 [8, 8, 5, 5]
0.0910022 0.14493145 -0.08571869 -0.24117221 -0.49328917 0.30075064 0.3232272 0.14082709
-0.045686133 -0.2674386 0.20479053 0.5029672 0.49279043 0.28313157 0.015437018 0.22291496
0.6368784 0.7362376 0.68180317 0.3123035 0.13202648 0.5480638 0.70234185 0.8579637
0.582424 -0.35787538 -0.22547677 -0.0653014 0.17929034 0.27482143 -0.44297084 -0.4368408
-0.22103514 -0.100221 0.17764352 -0.4765322 -0.46828017 -0.42080873 -0.18878761 -0.026306752
-0.4386206 -0.67456496 -0.6624876 -0.5705886 -0.32578674 -0.26118198 -0.6753308 -0.7501443
-0.7035388 -0.4875622 -0.14811273 -0.13054636 0.10549908 0.21604647 0.38042584 -0.24955112
-0.28353965 -0.09840296 0.020682689 0.35326058 -0.34278256 -0.49378923 -0.39791477 -0.16452092
0.075247794 -0.41326627 -0.72033864 -0.682583 -0.5792952 -0.34034768 -0.30048224 -0.75970316
-0.926714 -0.83151954 -0.61206347 0.28939998 0.23231249 -0.0073457886 -0.22788912 -0.516969
0.3556402 0.42196953 0.17808594 -0.040473867 -0.22912076 0.39280394 0.5884788 0.48976907
0.32386807 0.0004200363 0.3992559 0.7367898 0.90450007 0.755853 0.47902215 0.36204377
0.62391156 0.8892844 0.8252502 0.7751085 0.152624 0.15639195 0.07633329 0.08645238
-0.011440222 0.039084 0.06286676 0.18233263 0.09229175 0.0075182067 -0.10307633 -0.12718804
-0.05310992 -0.040614806 -0.010013399 -0.27955982 -0.28779623 -0.19788733 -0.081607334 -0.13133132
-0.36587232 -0.3801015 -0.40162504 -0.2179695 -0.1625609 0.12877691 -0.09125298 -0.098455414
-0.005729304 -0.025281072 0.05803501 -0.16740923 -0.18469957 -0.19095911 -0.040955853 0.0018176404
-0.093042225 -0.29089686 -0.31806752 -0.24306391 0.2638915 0.19492519 0.09179104 -0.021615153
-0.18406193 0.25261325 0.2910734 0.22787097 0.095100105 -0.03982799 -0.44189492 -0.425261
-0.19868107 -0.00060213526 0.17847855 -0.37769789 -0.4626111 -0.45488676 -0.15361804 0.07708739
-0.10886327 -0.44722512 -0.54927015 -0.28875837 0.007112111 0.08742205 -0.3992983 -0.68272865
-0.5794265 -0.46200737 0.27568913 -0.16258094 -0.53413486 -0.66368085 -0.46551248 0.28153998
0.17174166 0.26039892 0.40919596 0.44632012 0.22763716 0.049740795 0.17360291 0.21021754
0.2622611 0.22416213 0.08359861 0.02505868 0.11716793 0.15327385 0.23270741 0.27507627
0.10196982 0.114108615 0.15331142 0.24032164 0.27441514 0.20815958 0.03676227 0.024245366
0.3789283 0.20650814 0.14570355 -0.14361213 -0.09366421 0.4209159 0.18510777 0.053668275
-0.13085926 -0.065973654 0.33170938 0.15792373 -0.052249108 -0.20093477 -0.16519034 0.28305605
0.13350634 -0.012771741 -0.14892678 -0.13314715 0.4062786 0.17218833 0.10511491 -0.047580846
-0.02382759 0.05827122 0.08631165 0.13087578 0.16774002 0.13693957 -0.04538429 -0.0076608295
0.030594416 0.13699453 0.057719838 -0.22149287 -0.05458131 -0.035345726 0.012206073 -0.05845024
-0.38241383 -0.25306606 -0.117485136 -0.086250715 -0.17710812 -0.46306336 -0.4253461 -0.35378304
-0.31635046 -0.34517053 -0.05211001 -0.08749381 0.02949247 0.15868191 0.06677349 -0.12255709
00000000: 5d5f ba3d e968 143e 488d afbd d9f5 76be
00000010: 6690 fcbe fdfb 993e 097e a53e fa34 103e
00000020: 6221 3bbd b6ed 88be 9cb4 513e 75c2 003f
00000030: 074f fc3e 9ff6 903e 8ceb 7c3c d243 643e
00000040: 760a 233f 117a 3c3f a78a 2e3f 3fe6 9f3e
00000050: f331 073e e94d 0c3f adcc 333f 82a3 5b3f
00000060: bd19 153f 713b b7be 62e3 66be bebc 85bd
00000070: e397 373e 65b5 8c3e 13cd e2be 99a9 dfbe
00000080: 0957 62be ab40 cdbd 2fe8 353e 07fc f3be
00000090: 6bc2 efbe 3e74 d7be 8a51 41be 4281 d7bc
000000a0: e192 e0be 4ab0 2cbf ca98 29bf 1812 12bf
000000b0: 85cd a6be a5b9 85be 7be2 2cbf 7509 40bf
000000c0: 1e1b 34bf c1a1 f9be ddaa 17be f2ad 05be
000000d0: e70f d83d 493b 5d3e 2dc7 c23e 548a 7fbe
000000e0: 1c2c 91be 7e87 c9bd be6e a93c 92de b43e
000000f0: 3281 afbe f1d1 fcbe 7cbb cbbe 2c78 28be
00000100: 841b 9a3d a397 d3be 1d68 38bf c2bd 2ebf
00000110: b14c 14bf 0d42 aebe cfd8 99be e87b 42bf
00000120: 213d 6dbf 77de 54bf 31b0 1cbf 3c2c 943e
00000130: 53e3 6d3e f1b4 f0bb c45b 69be 1558 04bf
00000140: 7916 b63e 640c d83e 295c 363e edc7 25bd
00000150: a29e 6abe 991d c93e 8ca6 163f 03c3 fa3e
00000160: 09d2 a53e 5138 dc39 456b cc3e 429e 3c3f
00000170: 518d 673f 957f 413f 6442 f53e cd5d b93e
00000180: abb8 1f3f 24a8 633f 9943 533f 836d 463f
00000190: 7749 1c3e 3625 203e a154 9c3d f20d b13d
000001a0: c56f 3bbc 8b16 203d 4ac0 803d 68b5 3a3e
000001b0: 7503 bd3d 4a5b f63b af19 d3bd 953d 02be
000001c0: ca89 59bd b65b 26bd 3d0f 24bc 7722 8fbe
000001d0: 075a 93be faa2 4abe bf21 a7bd b87b 06be
000001e0: 9e53 bbbe aa9c c2be cca1 cdbe 6633 5fbe
000001f0: 5d76 26be 18de 033e d8e2 babd fea2 c9bd
00000200: e3bc bbbb 401a cfbc 1eb6 6d3d 536d 2bbe
00000210: e221 3dbe c98a 43be 53c1 27bd e43d ee3a
00000220: ec8c bebd 6ff0 94be bfd9 a2be bfe5 78be
00000230: c91c 873e 789a 473e f1fc bb3d 4312 b1bc
00000240: bb7a 3cbe 8656 813e 9307 953e 0257 693e
00000250: d8c3 c23d ad22 23bd 0d40 e2be cfbb d9be
00000260: 0d73 4bbe 9dd8 1dba 15c3 363e 9e61 c1be
00000270: 5ddb ecbe ebe6 e8be 0c4e 1dbe fedf 9d3d
00000280: b5f3 debd b1fa e4be f89c 0cbf 23d8 93be
00000290: b60c e93b 550a b33d d470 ccbe 4ec7 2ebf
000002a0: 4c55 14bf 3b8c ecbe 2027 8d3e 9e7b 26be
000002b0: 10bd 08bf fde6 29bf a757 eebe 0226 903e
000002c0: 0cdd 2f3e 0253 853e 2282 d13e 1284 e43e
000002d0: b719 693e 01bd 4b3d f6c4 313e 4443 573e
000002e0: 1647 863e c28a 653e bf35 ab3d dc47 cd3c
000002f0: bdf5 ef3d d2f3 1c3e da4a 6e3e ccd6 8c3e
00000300: 8ed5 d03d c7b1 e93d abfd 1c3e e016 763e
00000310: 2480 8c3e c927 553e 0994 163d 389e c63c
00000320: e402 c23e df76 533e 5033 153e 0f0f 13be
00000330: 05d3 bfbd 4a82 d73e e48c 3d3e 44d3 5b3d
00000340: f8ff 05be 321d 87bd d0d5 a93e c2b6 213e
00000350: 2903 56bd d8c1 4dbe a827 29be b9ec 903e
00000360: e3b5 083e 9040 51bc 4380 18be ba57 08be
00000370: c003 d03e 2352 303e 7c46 d73d 22e4 42bd
00000380: 1432 c3bc cead 6e3d 2ac4 b03d 4d04 063e
00000390: 0ac4 2b3e e339 0c3e e1e4 39bd b207 fbbb
000003a0: 24a1 fa3c 4b48 0c3e a36b 6c3d 07cf 62be
000003b0: a790 5fbd aec6 10bd fbfb 473c 8569 6fbd
000003c0: bfcb c3be e091 81be 0c9c f0bd 37a4 b0bd
000003d0: d55b 35be a416 edbe f7c6 d9be 0d23 b5be
000003e0: b0f8 a1be 31ba b0be 4e71 55bd f42f b3bd
000003f0: 319a f13c 837d 223e 8ac0 883d 36ff fabd

model.hidden_layers.1.bias f4 [8]
-0.49512145 0.139186 -0.5242662 -0.04014632 0.29454148 -0.12503691 -0.33237565 0.41662657
00000000: 8f80 fdbe c686 0e3e 4f36 06bf 7870 24bd
00000010: 24ce 963e ad09 00be 242d aabe 1450 d53e

model.output_layers.0.weight f4 [8, 8, 5, 5]
0.093069375 0.087443076 0.039075475 0.07120703 0.008737751 0.1399963 0.059264462 0.07046656
0.116294794 0.072280824 0.15095666 0.16019416 0.16217926 0.09903979 0.089227095 0.1373912
0.09300227 0.07810571 0.12647924 0.05998725 0.02653019 0.014015599 0.06797567 0.057622023
0.0709953 -0.13287152 -0.14119288 -0.11209292 -0.110362545 -0.1459594 -0.22099794 -0.096259765
-0.10141993 -0.148463 -0.08390499 -0.20729503 -0.027102282 -0.072676085 -0.15182559 -0.12724769
-0.14404264 -0.049832106 -0.027224649 -0.025422368 -0.08309242 -0.09779642 -0.06253197 -0.018687429
-0.08940971 -0.097271614 0.14658666 0.04598074 0.09583995 0.014064759 0.09326202 0.1728132
0.050213564 0.090542555 0.0006714099 0.09399711 0.07451283 0.08413094 0.045170534 0.13137206
0.06530891 0.09151384 0.05445737 -0.004755865 -0.0040518385 0.07224842 0.036482085 0.0639666
0.019806778 0.080505766 0.07642599 0.23776196 0.11622629 0.16492876 0.13659987 0.1132649
0.21611929 0.07703736 0.17169817 0.15765192 0.07246901 0.0829848 0.09511935 0.058955096
0.06566012 0.049035564 0.11121156 0.04138937 0.027065216 0.11598215 0.05391361 0.103732154
0.048954405 0.067120194 0.013535664 0.006410536 -0.006886774 0.0033997847 0.050140683 0.056064684
0.008872249 0.04130669 0.022118434 -0.009261635 0.08196292 0.08009285 0.0604444 0.01626465
0.025802838 -0.017868761 0.026834344 -0.044819884 -0.026798012 0.022939801 0.030471249 0.030874042
0.058160983 -0.04617037 0.010385148 -0.019870965 -0.05258568 0.14255905 0.16330789 0.11605146
0.06558771 0.10457494 0.19299698 0.14700119 0.10139555 0.07927077 0.08742272 0.22466782
0.11018197 0.09154277 0.07278 0.04239173 0.2610602 0.1565833 0.16290405 0.1907952
0.075212665 0.18572003 0.23198014 0.24162418 0.17441218 0.14463809 -0.13649388 -0.09280782
-0.1429307 -0.07947967 -0.09852585 -0.106515795 -0.16645138 -0.19741055 -0.12497895 -0.08393701
-0.17474397 -0.16922268 -0.17235489 -0.12682287 -0.05588654 -0.13905731 -0.15047522 -0.11229309
-0.17172329 -0.011408289 -0.11809904 -0.16483116 -0.13417567 -0.043956548 -0.0641124 -0.14587109
-0.102886334 -0.08050831 -0.115101784 -0.036430053 -0.13122326 -0.12890735 -0.10787633 -0.15648843
-0.0033096669 -0.2000542 -0.052763183 -0.08050792 -0.026132295 -0.098377414 -0.12917037 -0.009955953
-0.112845756 -0.05248978 0.01641967 -0.02336118 0.0009107474 -0.008092252 -0.038066026 0.00010197175
-0.07728455 0.047113203 -0.103254646 -0.10585214 0.008768314 -0.13664132 -0.15576832 -0.08599874
-0.20340416 0.010194532 -0.12832254 -0.10295068 -0.22871548 -0.1316723 -0.005182647 -0.15062948
-0.12386735 -0.18326136 -0.23149289 -0.03686339 -0.26616752 -0.12758757 -0.25887161 -0.31030777
-0.0919998 0.1831662 0.058236834 0.008763103 0.09220792 0.047753397 0.09074079 -0.016742274
0.0069632046 0.03403862 0.047532316 0.13120857 0.0023499436 0.028813675 0.014397644 -0.08474394
0.09365944 0.030703425 -0.024531806 -0.018426308 0.04538109 0.26659966 0.073557965 0.14457354
0.1520053 0.0957043 -0.0113479365 0.031172786 -0.010779873 0.09929822 0.18233843 -0.07091975
00000000: 289b be3d 5b15 b33d 9b0d 203d fed4 913d
00000010: c928 0f3c 315b 0f3e 4bbf 723d c650 903d
00000020: f72b ee3d f807 943d 6294 1a3e f009 243e
00000030: 5212 263e 60d5 ca3d b2bc b63d 47b0 0c3e
00000040: f977 be3d e3f5 9f3d c683 013e 31b5 753d
00000050: d755 d93c afa1 653c d436 8b3d 1205 6c3d
00000060: fc65 913d 790f 08be de94 10be f990 e5bd
00000070: c205 e2bd 6276 15be 494d 62be d723 c5bd
00000080: 41b5 cfbd af06 18be 61d6 abbd 2645 54be
00000090: 9b05 debc 33d7 94bd 2b78 1bbe 384d 02be
000000a0: ea7f 13be c01c 4cbd 3a06 dfbc 9242 d0bc
000000b0: 5c2c aabd 7d49 c8bd c310 80bd 6116 99bc
000000c0: 701c b7bd 5736 c7bd d01a 163e 4d56 3c3d
000000d0: bc47 c43d e06f 663c 2800 bf3d f2f5 303e
000000e0: bdac 4d3d 606e b93d 8e01 303a 8f81 c03d
000000f0: 2f9a 983d d84c ac3d bd04 393d 6686 063e
00000100: aec0 853d 9c6b bb3d b10e 5f3d 16d7 9bbb
00000110: 49c5 84bb fbf6 933d 3d6e 153d ec00 833d
00000120: d341 a23c 35e0 a43d 3b85 9c3d df77 733e
00000130: 0d08 ee3d 16e3 283e d6e0 0b3e 6ef7 e73d
00000140: 604e 5d3e c3c5 9d3d a5d1 2f3e 816f 213e
00000150: a26a 943d eff3 a93d efcd c23d e67a 713d
00000160: d078 863d 84d9 483d e3c2 e33d e687 293d
00000170: dfb7 dd3c 0d88 ed3d 84d4 5c3d 8671 d43d
00000180: 6a84 483d 5076 893d b1c4 5d3c 790f d23b
00000190: 73aa e1bb ecce 5e3b 5160 4d3d 15a4 653d
000001a0: e95c 113c 3431 293d b831 b53c 1dbe 17bc
000001b0: 2ddc a73d b807 a43d 8c94 773d 713d 853c
000001c0: 7960 d33c 8261 92bc b3d3 db3c 0e95 37bd
000001d0: 8187 dbbc 40ec bb3c d79e f93c 8feb fc3c
000001e0: 363a 6e3d 241d 3dbd 7826 2a3c 6fc8 a2bc
000001f0: 1564 57bd 00fb 113e 2f3a 273e 63ac ed3d
00000200: d952 863d 632b d63d 00a1 453e 7b87 163e
00000210: 78a8 cf3d b758 a23d af0a b33d 520f 663e
00000220: 16a7 e13d c77a bb3d ae0d 953d f3a2 2d3d
00000230: afa9 853e 5f57 203e 52d0 263e d15f 433e
00000240: 1909 9a3d 642d 3e3e 348c 6d3e 546c 773e
00000250: 1b99 323e 021c 143e 0dc5 0bbe 0712 bebd
00000260: 6d5c 12be 3dc6 a2bd ecc7 c9bd f424 dabd
00000270: 3b72 2abe fe25 4abe f7f4 ffbd 2be7 abbd
00000280: 15f0 32be b648 2dbe cd7d 30be dbdd 01be
00000290: 49e9 64bd 0a65 0ebe 2d16 1abe ebf9 e5bd
000002a0: 3bd8 2fbe d5e9 3abc e9dd f1bd 80c9 28be
000002b0: 5965 09be c80b 34bd 5d4d 83bd 3b5f 15be
000002c0: 12b6 d2bd 8ae1 a4bd 7cba ebbd ae37 15bd
000002d0: 645f 06be 4a00 04be 44ee dcbd 813e 20be
000002e0: ffe6 58bb 02db 4cbe 351e 58bd 56e1 a4bd
000002f0: 6513 d6bc 197a c9bd 3d45 04be 4b1e 23bc
00000300: ad1b e7bd 86ff 56bd 8b82 863c f25f bfbc
00000310: 39bf 6e3a 5d95 04bc 1feb 1bbd abd9 d538
00000320: 5d47 9ebd c6f9 403d 2c77 d3bd 02c9 d8bd
00000330: f9a8 0f3c b4eb 0bbe bb81 1fbe 1b20 b0bd
00000340: 2e49 50be f706 273c fc66 03be ced7 d2bd
00000350: 6434 6abe 1ad5 06be 32d3 a9bb 9d3e 1abe
00000360: 2aae fdbd dea8 3bbe 790c 6dbe 11fe 16bd
00000370: 1c47 88be 51a6 02be d28a 84be a9e0 9ebe
00000380: 646a bcbd ec8f 3b3e bf89 6e3d 1e93 0f3c
00000390: 82d7 bc3d 1199 433d 4fd6 b93d 1827 89bc
000003a0: 982b e43b 146c 0b3d 3fb1 423d 8a5b 063e
000003b0: 8301 1a3b a80a ec3c 19e4 6b3c 3b8e adbd
000003c0: 85d0 bf3d c085 fb3c edf6 c8bc c5f2 96bc
000003d0: 86e1 393d c07f 883e 8fa5 963d 160b 143e
000003e0: 47a7 1b3e 9e00 c43d b2ec 39bc 125e ff3c
000003f0: 109e 30bc dd5c cb3d edb6 3a3e 603e 91bd

model.output_layers.0.bias f4 [8]
0.2795379 -0.28840837 0.28727928 0.23666643 0.5438075 -0.4153265 -0.48790848 0.04758703
00000000: 971f 8f3e 43aa 93be 4516 933e af58 723e
00000010: f836 0b3f ada5 d4be 24cf f9be 9eea 423d

model.output_layers.1.weight f4 [1, 8, 5, 5]
0.14462367 0.027380085 0.03530525 -0.076410346 -0.023180874 0.11965329 -0.039259635 -0.038872525
-0.09117589 -0.052614354 0.09406032 0.12875676 0.09636277 -0.013761828 0.033222865 0.09544476
0.0040467824 0.054982252 -0.004221218 0.0891774 0.09828122 0.048791658 0.04568124 0.020755537
0.008389493 -0.040761743 -0.004229853 -0.049012214 0.097668044 0.08095271 0.085898384 0.054870754
0.04251391 0.100951746 0.1554437 -0.045624994 -0.08755711 -0.07995771 -0.028866189 -0.021857718
-0.09175437 -0.08770593 -0.040511504 0.039717708 -0.06982477 -0.2438577 -0.13617972 -0.15575895
-0.033922687 -0.113641575 0.17257954 0.056550115 0.16370933 0.08389549 0.162117 -0.027578393
-0.04641976 0.09948656 0.055477552 0.055080224 0.11625004 -0.0057510613 0.092577145 0.12966932
0.06846803 0.027718667 -0.115274005 0.036875594 0.007984815 0.06681641 -0.09252798 -0.060875997
0.058589976 -0.020264296 0.037275705 -0.026519753 -0.057009786 -0.032404535 -0.058670305 -0.038683165
0.0041491934 0.090299845 0.06498307 0.005905532 0.0279325 0.07752226 0.10144512 0.07637961
0.092311814 0.1143689 0.11426966 0.026755607 0.030513477 0.059692718 0.060320526 0.041992344
0.045636963 0.02085906 0.12588939 0.040418223 0.33937666 0.12776494 0.078864835 0.057622164
0.15061653 0.22887956 0.046329856 0.0034499113 0.006997552 0.0027444293 0.22022884 -0.071365304
-0.032538682 0.04880472 0.017708275 -0.007071241 -0.109835945 -0.12582295 -0.1215002 -0.1526336
0.13409021 -0.14144671 -0.057378083 -0.13641302 -0.065716185 -0.047296647 -0.10081564 -0.07932741
-0.08459195 -0.15260364 -0.0039184093 0.077516325 0.047571197 -0.052291542 -0.11875199 -0.11133448
-0.06572903 -0.073773555 -0.030793061 -0.09061964 0.00044974472 0.029042779 -0.12292113 -0.13797747
-0.1406113 -0.03217456 0.007119933 -0.06295136 -0.05647533 -0.0971239 -0.10123521 -0.03570539
-0.010442023 -0.08244593 -0.24103884 0.009673541 0.08734988 0.10953387 -0.028035067 -0.03657592
0.109274924 0.13730012 0.14996274 0.05728939 0.019507287 0.15625094 0.17417045 0.12817445
0.09947734 -0.04514619 -0.014647553 0.016468951 -0.08888317 -0.098211184 -0.211454 0.13545853
0.005721765 0.2067191 0.1379217 0.17016447 -0.07994197 -0.03755357 0.13209116 0.07399462
0.05397938 -0.09164633 -0.01520514 0.09421544 0.10808068 0.039917167 -0.08830465 -0.06834474
0.0901601 0.0060561984 0.091004424 0.06522811 0.06519189 0.20943457 0.16131252 0.16300622
00000000: 3a18 143e 334c e03c 3d9c 103d 077d 9cbd
00000010: d1e5 bdbc c90c f53d b6ce 20bd cc38 1fbd
00000020: 6dba babd 2682 57bd b2a2 c03d d0d8 033e
00000030: d859 c53d 4a79 61bc b314 083d 8b78 c33d
00000040: df9a 843b 1235 613d 2552 8abb a4a2 b63d
00000050: aa47 c93d c3d9 473d 401c 3b3d 8407 aa3c
00000060: 1674 093c c9f5 26bd 949a 8abb 08c1 48bd
00000070: 2f06 c83d 89ca a53d 7eeb af3d 28c0 603d
00000080: 1123 2e3d cabf ce3d a22c 1f3e 46e1 3abd
00000090: 2451 b3bd dec0 a3bd c978 ecbc f50e b3bc
000000a0: b7e9 bbbd 2b9f b3bd 64ef 25bd 09af 223d
000000b0: 4a00 8fbd d5b5 79be b272 0bbe 467f 1fbe
000000c0: 84f2 0abd eabc e8bd b1b8 303e 18a1 673d
000000d0: 6ba3 273e 66d1 ab3d 0002 263e 15ec e1bc
000000e0: a522 3ebd 9cbf cb3d 6e3c 633d cd9b 613d
000000f0: 8014 ee3d 6673 bcbb 1699 bd3d 09c8 043e
00000100: f738 8c3d 4212 e33c c714 ecbd dd0a 173d
00000110: bed2 023c 0bd7 883d 4f7f bdbd 1c59 79bd
00000120: 0bfc 6f3d 4f01 a6bc 69ae 183d f43f d9bc
00000130: 1883 69bd 9eba 04bd 4650 70bd 3d72 1ebd
00000140: f5f5 873b 20ef b83d d815 853d 3183 c13b
00000150: b3d2 e43c fec3 9e3d 76c2 cf3d ea6c 9c3d
00000160: fa0d bd3d 3e3a ea3d 3606 ea3d 932e db3c
00000170: 66f7 f93c 5a80 743d a812 773d 2a00 2c3d
00000180: d3ed 3a3d 9fe0 aa3c 26e9 003e 948d 253d
00000190: c7c2 ad3e d0d4 023e e383 a13d 3805 6c3d
000001a0: 383b 1a3e 675f 6a3e 60c4 3d3d e817 623b
000001b0: b84b e53b e2db 333b ab83 613e f927 92bd
000001c0: 4847 05bd 75e7 473d f210 913c deb5 e7bb
000001d0: abf1 e0bd bbd7 00be 19d5 f8bd fc4b 1cbe
000001e0: f24e 093e 68d7 10be 4805 6bbd dbaf 0bbe
000001f0: 3596 86bd 21ba 41bd 6e78 cebd 6976 a2bd
00000200: 8b3e adbd 2144 1cbe 0066 80bb e1c0 9e3d
00000210: 04da 423d a82f 56bd 3e34 f3bd 5503 e4bd
00000220: f19c 86bd 9716 97bd bb41 fcbc ca96 b9bd
00000230: b7cb eb39 1feb ed3c 13be fbbd f749 0dbe
00000240: 69fc 0fbe 79c9 03bd 544e e93b a5ec 80bd
00000250: ad52 67bd e5e8 c6bd 6854 cfbd d13f 12bd
00000260: 0515 2bbc 69d9 a8bd e3d2 76be c67d 1e3c
00000270: 7ee4 b23d 4b53 e03d cca9 e5bc a2d0 15bd
00000280: 88cb df3d 6798 0c3e d58f 193e 48a8 6a3d
00000290: bfcd 9f3c 3f00 203e bd59 323e 2a40 033e
000002a0: c7ba cb3d 36eb 38bd 4afc 6fbc e5e9 863c
000002b0: 6108 b6bd f222 c9bd 6687 58be a4b5 0a3e
000002c0: a57d bb3b 2cae 533e 593b 0d3e 983f 2e3e
000002d0: 9eb8 a3bd c6d1 19bd e842 073e 7e8a 973d
000002e0: 7b19 5d3d 12b1 bbbd fb1e 79bc 06f4 c03d
000002f0: 6759 dd3d 2f80 233d 11d9 b4bd 54f8 8bbd
00000300: dca5 b83d 1373 c63b 8760 ba3d 5196 853d
00000310: 5383 853d 0476 563e 1c2f 253e 1aeb 263e

exp_avg f4 [8]
0.00024396484 -0.00015896952 0.00019888888 5.009491e-05 -6.884457e-05 0.00012400602 0.0003091785 -2.4586216e-05
00000000: d0d0 7f39 0eb1 26b9 d48c 5039 001d 5238
00000010: a660 90b8 9d07 0239 3c19 a239 7f3e ceb7

exp_avg_sq f4 [8]
2.524685e-06 1.8127319e-06 2.1226522e-06 2.6118569e-06 4.842562e-07 3.4343232e-06 1.1508821e-06 1.0787184e-06
00000000: c26d 2936 fe4c f335 e372 0e36 5c47 2f36
00000010: d5fd 0135 3979 6636 0278 9a35 7bc8 9035

exp_avg f4 [8, 1, 5, 5]
0.00057625043 0.00045401996 0.00037704315 0.00026448796 8.4640946e-05 0.0005966409 0.00049203454 0.00041168465
0.00028498183 0.000105178224 0.0006117062 0.0004916716 0.00039998858 0.0002849508 0.0001514389 0.00064781005
0.00051448034 0.00040877968 0.00028628635 0.00016961325 0.0007011098 0.0005719912 0.00044205567 0.00027357496
0.00013144907 -0.0006154443 -0.00046290294 -0.0003752806 -0.0002672807 -8.269062e-05 -0.0006406291 -0.0005099882
-0.00041781832 -0.00029139948 -9.916411e-05 -0.0006664927 -0.00051856536 -0.00040717048 -0.00028752172 -0.00014221412
-0.0007190473 -0.00056119775 -0.00042951267 -0.00029134462 -0.00015991073 -0.0007909044 -0.000638832 -0.0004823766
-0.0002820463 -0.000112728914 -0.0004802189 -0.00038614232 -0.00032923068 -0.0002318618 -6.342229e-05 -0.00050441653
-0.00042176302 -0.00036209752 -0.00025645096 -0.0001002926 -0.00052767963 -0.00042016446 -0.0003439748 -0.0002542063
-0.00014734923 -0.0005702505 -0.0004461933 -0.00035505867 -0.00025795665 -0.00016451081 -0.0006253942 -0.0005075524
-0.00039612397 -0.0002489899 -0.0001264315 -0.00050793064 -0.00039780664 -0.0003200107 -0.00021839075 -5.3294054e-05
-0.00053826027 -0.0004395267 -0.000354697 -0.00023518932 -6.2374274e-05 -0.0005641728 -0.00044552464 -0.00034529986
-0.00022910956 -9.474444e-05 -0.000606105 -0.00047369828 -0.00035917558 -0.00023306759 -0.00011617438 -0.0006573698
-0.0005303543 -0.00039953736 -0.00023053572 -9.039166e-05 -0.0004207864 -0.0003361949 -0.00029165635 -0.00021948457
-6.8368085e-05 -0.00045062817 -0.00037664615 -0.00032632888 -0.0002480821 -0.00010776759 -0.0004742774 -0.00037983403
-0.0003093832 -0.00023904645 -0.00015105365 -0.00051465083 -0.00040638255 -0.00031903156 -0.00023869514 -0.0001707
-0.00056595064 -0.000459321 -0.00035800372 -0.0002370886 -0.00014222722 0.0003680054 0.00028768048 0.00024124814
0.00017769921 6.137982e-05 0.0003835161 0.00031651533 0.0002704807 0.00020620435 9.854129e-05 0.0003900539
0.00031424378 0.00025971615 0.0002053087 0.00013708134 0.0004093141 0.00032324987 0.00026090068 0.00019997933
0.00014813001 0.00043489382 0.00035258612 0.0002780821 0.0001887099 0.00012453263 0.00041735914 0.0003458082
0.00030458448 0.00022047499 5.7388646e-05 0.00044528046 0.0003834637 0.00033962264 0.00024820206 9.595601e-05
0.00046327908 0.00037878842 0.00032221325 0.00024826263 0.00014979254 0.00049459736 0.00039280456 0.00032286608
0.00025082479 0.00017387678 0.000532728 0.0004327845 0.0003477326 0.00024097534 0.00014566543 -0.00046222197
-0.00038016896 -0.00032539532 -0.00023902132 -7.575065e-05 -0.00047482707 -0.00040280898 -0.00034897032 -0.0002655761
-0.00012780458 -0.00047985316 -0.00039114853 -0.00032316515 -0.00026043566 -0.00018504943 -0.00050152215 -0.0004002211
-0.00032244337 -0.00025976732 -0.00020433306 -0.0005292333 -0.00043435884 -0.00034994946 -0.00024881418 -0.00017297102
00000000: 830f 173a 8709 ee39 e0ad c539 f9aa 8a39
00000010: 4381 b138 e567 1c3a e1fb 003a 61d7 d739
00000020: 9d69 9539 2193 dc38 e85a 203a 86e3 003a
00000030: 8fb5 d139 7365 9539 92cb 1e39 ccd1 293a
00000040: 31de 063a 7b51 d639 b418 9639 36da 3139
00000050: afca 373a aef1 153a b5c3 e739 9c6e 8f39
00000060: 97d5 0939 c555 21ba c8b1 f2b9 4fc1 c4b9
00000070: cf21 8cb9 306a adb8 e4ef 27ba bbb0 05ba
00000080: a00e dbb9 fac6 98b9 54f6 cfb8 91b7 2eba
00000090: 55f0 07ba 7f79 d5b9 83be 96b9 501f 15b9
000000a0: 737e 3cba 581d 13ba 3730 e1b9 9dbf 98b9
000000b0: b6ad 27b9 b254 4fba 4a77 27ba 7ee7 fcb9
000000c0: 9ddf 93b9 e068 ecb8 e4c5 fbb9 2573 cab9
000000d0: 989c acb9 ee1f 73b9 9501 85b8 d23a 04ba
000000e0: 1320 ddb9 e8d7 bdb9 4474 86b9 2e54 d2b8
000000f0: fb53 0aba 8549 dcb9 8457 b4b9 fe46 85b9
00000100: c281 1ab9 dd7c 15ba 0def e9b9 2b27 bab9
00000110: 5b3e 87b9 8980 2cb9 7ff1 23ba 440d 05ba
00000120: dcae cfb9 dc8a 82b9 b392 04b9 a626 05ba
00000130: b490 d0b9 1cc7 a7b9 d2ff 64b9 0e88 5fb8
00000140: 091a 0dba 4670 e6b9 a0f6 b9b9 279d 76b9
00000150: efce 82b8 ffe4 13ba 4e95 e9b9 5d09 b5b9
00000160: 213d 70b9 89b1 c6b8 05e3 1eba b55a f8b9
00000170: bb4f bcb9 9b63 74b9 a5a2 f3b8 5753 2cba
00000180: 7907 0bba ff78 d1b9 f6bb 71b9 a790 bdb8
00000190: ff9c dcb9 5143 b0b9 74e9 98b9 7125 66b9
000001a0: d660 8fb8 4a42 ecb9 9778 c5b9 1f17 abb9
000001b0: 0411 82b9 4901 e2b8 6fa8 f8b9 7624 c7b9
000001c0: b634 a2b9 8ba8 7ab9 2864 1eb9 a2e9 06ba
000001d0: be0f d5b9 b143 a7b9 3d4a 7ab9 effd 32b9
000001e0: 4e5c 14ba 05d1 f0b9 72b2 bbb9 fd9a 78b9
000001f0: d422 15b9 d9f0 c039 d2d3 9639 8ef7 7c39
00000200: c554 3a39 0ab9 8038 a912 c939 f8f1 a539
00000210: 4ecf 8d39 8f38 5839 f4a7 ce38 2680 cc39
00000220: 16c1 a439 832a 8839 2248 5739 7ebd 0f39
00000230: 3599 d639 dd79 a939 7fc9 8839 8bb1 5139
00000240: 5953 1b39 7602 e439 4fdb b839 8ccb 9139
00000250: 6ee0 4539 f994 0239 ffd0 da39 974d b539
00000260: a3b0 9f39 4e2f 6739 97b4 7038 8874 e939
00000270: a00b c939 610f b239 1e21 8239 fe3b c938
00000280: 44e4 f239 1f98 c639 bbee a839 3f29 8239
00000290: a111 1d39 dea7 013a 56f1 cd39 5a46 a939
000002a0: 2281 8339 b152 3639 c5a6 0b3a 5ae7 e239
000002b0: e14f b639 53ae 7c39 c4bd 1839 6256 f2b9
000002c0: 6a51 c7b9 d299 aab9 cca1 7ab9 52dc 9eb8
000002d0: 36f2 f8b9 1b30 d3b9 01f6 b6b9 053d 8bb9
000002e0: 4803 06b9 cd94 fbb9 1113 cdb9 7e6e a9b9
000002f0: 158b 88b9 d409 42b9 9578 03ba c4d4 d1b9
00000300: 9e0d a9b9 6131 88b9 3d42 56b9 3fbc 0aba
00000310: a8ba e3b9 6c79 b7b9 4673 82b9 8e5f 35b9

exp_avg_sq f4 [8, 1, 5, 5]
4.3075006e-06 4.1963804e-06 6.529229e-06 1.2786463e-05 2.1973507e-05 3.8237795e-06 3.327827e-06 4.4836343e-06
8.740781e-06 1.5760703e-05 3.598387e-06 2.8653092e-06 3.2543553e-06 5.850975e-06 1.0808742e-05 3.400928e-06
2.7200924e-06 2.6633945e-06 3.826885e-06 6.8694735e-06 3.3749393e-06 2.9976284e-06 2.8175596e-06 2.9897938e-06
4.3267396e-06 6.600856e-06 6.24316e-06 8.833507e-06 1.6064492e-05 2.6910484e-05 5.825974e-06 4.959513e-06
6.1005267e-06 1.0974096e-05 1.932867e-05 5.4720135e-06 4.3000723e-06 4.528424e-06 7.379826e-06 1.3268719e-05
5.188989e-06 4.116129e-06 3.873976e-06 5.0804806e-06 8.537587e-06 5.1706897e-06 4.5496154e-06 4.1939184e-06
4.2912675e-06 5.7118855e-06 3.1075128e-06 3.0322176e-06 4.9056175e-06 1.0030854e-05 1.7556702e-05 2.7715369e-06
2.3916718e-06 3.3047002e-06 6.727283e-06 1.2470599e-05 2.6856685e-06 2.1181709e-06 2.4025396e-06 4.43034e-06
8.456602e-06 2.5852548e-06 2.0712005e-06 2.0038392e-06 2.8810198e-06 5.27092e-06 2.5473462e-06 2.2979516e-06
2.131854e-06 2.1931307e-06 3.1598213e-06 4.4619064e-06 4.264085e-06 6.2243867e-06 1.1560407e-05 1.9305531e-05
4.0122723e-06 3.4124278e-06 4.3176938e-06 7.8613975e-06 1.377921e-05 3.808202e-06 2.9896087e-06 3.2029359e-06
5.2918267e-06 9.426939e-06 3.6102895e-06 2.8799188e-06 2.7127037e-06 3.6021029e-06 6.078051e-06 3.5315754e-06
3.123866e-06 2.852201e-06 2.903678e-06 3.9217184e-06 2.4636802e-06 2.4029378e-06 4.0295e-06 8.479925e-06
1.4925685e-05 2.252651e-06 1.9341855e-06 2.7221693e-06 5.6566705e-06 1.0513932e-05 2.235337e-06 1.7663751e-06
2.0164368e-06 3.7599398e-06 7.066725e-06 2.1682697e-06 1.7489665e-06 1.6725073e-06 2.385445e-06 4.3153445e-06
2.0961202e-06 1.9203317e-06 1.7430856e-06 1.7487324e-06 2.485144e-06 1.8100651e-06 1.8558125e-06 3.4088298e-06
7.549944e-06 1.3300224e-05 1.7213911e-06 1.5480703e-06 2.312168e-06 5.112926e-06 9.521503e-06 1.7335443e-06
1.4523106e-06 1.7066944e-06 3.3315e-06 6.4035776e-06 1.6847173e-06 1.4517549e-06 1.4003367e-06 1.98926e-06
3.753961e-06 1.6336229e-06 1.595721e-06 1.4738825e-06 1.4208821e-06 2.0318957e-06 1.8947003e-06 1.989245e-06
3.7888015e-06 8.285124e-06 1.45428085e-05 1.7075522e-06 1.556495e-06 2.4963695e-06 5.513319e-06 1.0290076e-05
1.678242e-06 1.3696556e-06 1.7363839e-06 3.5890932e-06 6.958642e-06 1.6239094e-06 1.3322116e-06 1.3510345e-06
2.1605226e-06 4.1693056e-06 1.6210781e-06 1.5237615e-06 1.4027465e-06 1.4948058e-06 2.3053333e-06 1.8438869e-06
1.9363622e-06 4.19989e-06 1.0413562e-05 1.9114868e-05 1.7219326e-06 1.517266e-06 2.6291193e-06 6.7353863e-06
1.3301689e-05 1.7354292e-06 1.3883684e-06 1.799837e-06 4.2155607e-06 8.731628e-06 1.6675638e-06 1.3838672e-06
1.3541407e-06 2.3104524e-06 4.9210325e-06 1.5547371e-06 1.5367085e-06 1.3666768e-06 1.3603674e-06 2.3147525e-06
00000000: 2689 9036 a2ce 8c36 a615 db36 7185 5637
00000010: bf53 b837 044e 8036 a253 5f36 2072 9636
00000020: 5ea5 1237 da35 8437 d17b 7136 a349 4036
00000030: 6665 5a36 7e53 c436 3257 3537 803b 6436
00000040: d58a 3636 c5bc 3236 b168 8036 5480 e636
00000050: 047d 6236 dd2a 4936 4e15 3d36 44a4 4836
00000060: 692e 9136 ec7c dd36 567c d136 a033 1437
00000070: 3cc2 8637 d3bd e137 bc7c c336 e469 a636
00000080: 20b3 cc36 621d 3837 0124 a237 3d9c b736
00000090: 5749 9036 def2 9736 39a0 f736 b79c 5e37
000000a0: 131d ae36 471d 8a36 33fd 8136 ff78 aa36
000000b0: a83c 0f37 e37f ad36 e6a8 9836 7cb9 8c36
000000c0: b5fd 8f36 b9a8 bf36 aa8a 5036 1a7d 4b36
000000d0: ef9a a436 314a 2837 bb46 9337 a4fe 3936
000000e0: 9c80 2036 51c6 5d36 ecba e136 d138 5137
000000f0: 6f3b 3436 e625 0e36 513b 2136 55a8 9436
00000100: d4e0 0d37 577e 2d36 f4fe 0a36 b279 0636
00000110: 8b57 4136 dcdc b036 13f3 2a36 8236 1a36
00000120: f910 0f36 b32d 1336 510d 5436 7cb7 9536
00000130: 3614 8f36 13db d036 92f3 4137 50f2 a137
00000140: 28a1 8636 1001 6536 b5e0 9036 72e4 0337
00000150: 422d 6737 6a90 7f36 16a1 4836 05f2 5636
00000160: 7290 b136 6528 1e37 4d48 7236 a144 4136
00000170: e50b 3636 a8bb 7136 0ff2 cb36 0100 6d36
00000180: 9ca3 5136 7168 3f36 cfdc 4236 4e97 8336
00000190: b455 2536 2842 2136 2435 8736 0045 0e37
000001a0: 5469 7a37 402c 1736 0ecd 0136 83ae 3636
000001b0: 6ece bd36 fe64 3037 cc02 1636 3014 ed35
000001c0: 1f52 0736 4653 7c36 b51e ed36 9782 1136
000001d0: 08be ea35 ea7a e035 a215 2036 87cc 9036
000001e0: 12ab 0c36 0cdf 0036 f7f3 e935 fdb5 ea35
000001f0: 73c6 2636 5df1 f235 3b15 f935 40c3 6436
00000200: 8655 fd36 0724 5f37 8c0a e735 4ac7 cf35
00000210: be2a 1b36 b38f ab36 8bbe 1f37 21ac e835
00000220: 03ed c235 9311 e535 bc92 5f36 50de d636
00000230: 721e e235 ebd9 c235 34f3 bb35 3a7f 0536
00000240: 8fec 7b36 db42 db35 8e2c d635 38d2 c535
00000250: 23b5 be35 b45b 0836 684d fe35 f87e 0536
00000260: 1d43 7e36 5600 0b37 e3fc 7337 0c2f e535
00000270: c3e8 d035 4d87 2736 0dff b836 8aa3 2c37
00000280: f53f e135 02d5 b735 b20d e935 27dc 7036
00000290: 487e e936 1af5 d935 71ce b235 3155 b535
000002a0: 7ffd 1036 10e6 8b36 d293 d935 0c84 cc35
000002b0: 0146 bc35 23a1 c835 53b5 1a36 797b f735
000002c0: 73f2 0136 c8ec 8c36 e9b5 2e37 de58 a037
000002d0: 271d e735 dda4 cb35 ed6f 3036 8700 e236
000002e0: 522a 5f37 e5ec e835 fa57 ba35 ee91 f135
000002f0: 6473 8d36 0f7e 1237 0ed1 df35 51bd b935
00000300: ecbf b535 450d 1b36 591f a536 5cac d035
00000310: e740 ce35 a86e b735 de95 b635 2557 1b36

exp_avg f4 [8]
-0.008993619 0.0098649245 0.007457021 0.008025915 0.0061841425 -0.0050559277 -0.006273507 0.0062605087
00000000: f959 13bc 7ea0 213c 075a f43b 217f 033c
00000010: 59a4 ca3b 32ac a5bb fe91 cdbb f424 cd3b

exp_avg_sq f4 [8]
0.00076953275 0.0011116382 0.00058203423 0.0007559405 0.0004518598 0.0003315791 0.00038525308 0.00039246623
00000000: 78ba 493a 63b4 913a a893 183a 4f2a 463a
00000010: 99e7 ec39 cbd7 ad39 cbfb c939 edc3 cd39
