checkpoints/model-epoch=35-validation_loss=0.03.ckpt (torch, 38814 bytes, 18 tensors)

model.bias f4 [8]
-0.7181597 -0.71868885 -1.7906926 -0.035121527 0.65207654 0.46192446 0.7149363 -0.8947847
00000000: 50d9 37bf fefb 37bf 6a35 e5bf 97db 0fbd
00000010: 7dee 263f 5d81 ec3e 1106 373f 9c10 65bf

model.input_layers.0.weight f4 [8, 1, 5, 5]
-0.4399996 -0.09442447 0.13352919 -0.38229197 -0.5015182 0.015215527 0.22269736 0.51810396
-0.13956596 -0.13298061 0.76917344 0.92661697 1.158747 0.302922 0.3819177 -0.069889046
0.19474185 0.43030208 -0.085275516 -0.16087508 -0.6391483 -0.1897577 0.23500863 -0.25734854
-0.4734759 0.012949517 0.0677098 0.28381133 -0.27290413 0.09685671 -0.019817868 -0.24667683
0.13279034 -0.6299775 -0.1033969 0.28312382 0.13087736 0.6037103 0.2188427 0.47479352
-0.2508775 -0.3179291 0.024972305 -0.19828922 0.027815048 0.47864175 -0.043063484 0.49947307
-0.08430975 0.37677234 0.5005715 0.05444671 -0.112441696 -0.27579904 -0.24701227 0.41152766
0.12911269 -0.07621669 -0.39538836 -0.14430541 0.0493159 -0.28769395 -0.4579289 -0.21544199
-0.22124694 -0.04482668 -0.032898277 -0.30573124 -0.20741846 -0.47302446 -0.04962446 -0.30432102
-0.2934847 -0.58575845 -0.26888487 -0.15002248 -0.009168627 0.15765794 0.12776883 -0.16672854
0.027645018 0.10943758 0.2033184 0.095914245 0.07486206 0.3438418 0.21388555 0.6198503
0.16540445 -0.057341296 -0.04665642 0.2608812 0.19631585 0.12154985 -0.27934232 0.04665871
0.11939388 0.28966936 -0.021079663 -0.054396946 0.23399727 0.045039315 0.48940697 -0.08846595
-0.3644735 0.1336572 -0.20668955 0.5131884 -0.3522798 -0.26785213 0.6854319 0.021368816
0.99170727 0.006322188 -0.06383426 0.034062266 -0.06549527 0.46024552 -0.1587445 -0.21824425
0.16505744 0.025999518 0.6929956 -0.20266394 -0.36773783 0.8156806 0.7780057 0.51890665
-0.07965687 -0.17875373 0.5962818 0.322345 0.2956645 -0.014228831 -0.29081783 0.22020167
0.41723648 0.19851866 0.22578476 -0.2562688 0.29637453 0.2655992 0.18705949 -0.2572975
-0.2276191 -0.46760288 -0.23133293 -0.3002859 -0.5423244 -0.5910209 -0.0037510493 -0.08552193
0.3130927 0.037121363 -0.1899925 -0.16510981 0.032192912 0.08915551 0.001154942 0.11836593
0.37382463 0.11197943 0.6428993 0.19564722 0.14208838 0.113160335 0.106915176 0.067935854
-0.021817246 0.067225024 0.036984615 0.008005366 0.40173987 0.023784503 -0.28578165 -0.08004045
0.10503963 0.474245 0.15822004 0.0963621 -0.94698393 -0.27301618 -0.13675416 -0.4450861
0.23858361 -0.1662115 0.49445233 0.5411853 0.5725012 0.7059691 -0.9893557 -0.48463672
0.06160073 -0.33687764 0.31486598 -1.054902 -0.4423874 -0.1973774 -0.51853836 -0.028472457
00000000: a147 e1be 9e61 c1bd e0bb 083e c6bb c3be
00000010: 7f63 00bf 8c4a 793c c70a 643e 76a2 043f
00000020: 61ea 0ebe 122c 08be 8de8 443f c536 6d3f
00000030: d251 943f 9818 9b3e b78a c33e fd21 8fbd
00000040: 686a 473e 8e50 dc3e eea4 aebd 70bc 24be
00000050: 399f 23bf d84f 42be 1aa6 703e 30c3 83be
00000060: 6f6b f2be 362a 543c 70ab 8a3d b84f 913e
00000070: 17ba 8bbe d05c c63d 1559 a2bc da98 7cbe
00000080: 31fa 073e 3546 21bf c1c1 d3bd 9bf5 903e
00000090: b704 063e c28c 1a3f 4d18 603e 2318 f33e
000000a0: 0473 80be 9ac7 a2be b892 cc3c 540c 4bbe
000000b0: 62dc e33c 8810 f53e 5663 30bd efba ff3e
000000c0: 97aa acbd 4ee8 c03e 7425 003f 8303 5f3d
000000d0: d547 e6bd 8835 8dbe c9f0 7cbe c1b3 d23e
000000e0: 1e36 043e 7f17 9cbd 5870 cabe ccc4 13be
000000f0: 78ff 493d 9f4c 93be a875 eabe d39c 5cbe
00000100: 8f8e 62be 2e9c 37bd 58c0 06bd ce88 9cbe
00000110: 8165 54be 4330 f2be 0543 4bbd f7cf 9bbe
00000120: a043 96be 44f4 15bf 47ab 89be 7e9f 19be
00000130: 0238 16bc 1571 213e d5d5 023e e3ba 2abe
00000140: ce77 e23c cf20 e03d b332 503e b06e c43d
00000150: 4851 993d 080c b03e d004 5b3e 82ae 1e3f
00000160: c95f 293e b5de 6abd cd1a 3fbd 3892 853e
00000170: 0607 493e 21ef f83d f505 8fbe 341d 3f3d
00000180: c784 f43d 8b4f 943e 42af acbc 55cf 5ebd
00000190: fb9c 6f3e 257b 383d 8d93 fa3e a32d b5bd
000001a0: 459c babe 6fdd 083e 6da6 53be 5160 033f
000001b0: 055e b4be ea23 89be 7778 2f3f a80d af3c
000001c0: 87e0 7d3f 5b2a cf3b 89bb 82bd e084 0b3d
000001d0: 6222 86bd 4da5 eb3e eb8d 22be 6c7b 5fbe
000001e0: d104 293e f1fc d43c 2968 313f 2387 4fbe
000001f0: 2248 bcbe 72d0 503f 622b 473f 11d7 043f
00000200: 2423 a3bd 380b 37be eda5 183f 670a a53e
00000210: 5661 973e 0b20 69bc 13e6 94be 8c7c 613e
00000220: 05a0 d53e 7a48 4b3e 1f34 673e aa35 83be
00000230: 67be 973e 9efc 873e 868c 3f3e 7fbc 83be
00000240: fb14 69be a569 efbe 8ae2 6cbe 13bf 99be
00000250: c6d5 0abf 254d 17bf 2ad4 75bb 1f26 afbd
00000260: b04d a03e 920c 183d 658d 42be 8c12 29be
00000270: b7dc 033d 2a97 b63d 6c61 973a d669 f23d
00000280: f165 bf3e 7955 e53d 0c95 243f bf57 483e
00000290: 9e7f 113e 9bc0 e73d 58f6 da3d f421 8b3d
000002a0: 15ba b2bc 46ad 893d 2e7d 173d f028 033c
000002b0: d9b0 cd3e b8d7 c23c f951 92be 3fec a3bd
000002c0: 041f d73d 3ed0 f23e 6f04 223e 7e59 c53d
000002d0: 8a6d 72bf c7c8 8bbe 4809 0cbe 53e2 e3be
000002e0: 434f 743e 5933 2abe db28 fd3e 1f8b 0a3f
000002f0: 708f 123f 64ba 343f 6a46 7dbf 4e22 f8be
00000300: 0c51 7c3d 3a7b acbe 1d36 a13e 0707 87bf
00000310: 9a80 e2be 4d1d 4abe eebe 04bf 123f e9bc

model.input_layers.0.bias f4 [8]
1.6320186 0.37788433 0.2243647 -1.3946067 0.31332976 1.1762394 -0.6803219 -0.1466269
00000000: fce5 d03f 0e7a c13e dcbf 653e 7982 b2bf
00000010: c26c a03e 038f 963f 9329 2ebf 5d25 16be

model.hidden_layers.0.weight f4 [8, 8, 5, 5]
-0.0551936 -0.049867995 -0.0060475613 -0.021700578 -0.011898871 -0.016478358 -0.060466584 -0.051999
0.04461256 -0.054356594 -0.037748568 -0.088991195 -0.009755005 0.03982378 0.045369904 -0.07668658
0.006308209 -0.040589698 0.017976988 -0.039707385 -0.06369453 -0.013119683 -0.090925224 -0.03673731
0.033017363 -0.05719354 -0.013419752 -0.03464371 0.003155674 0.044613793 0.075058855 0.06386568
0.04103399 0.0553703 -0.0036316842 0.046746604 0.063393004 0.027327018 0.06562287 0.06650674
-0.047343884 0.018941008 0.022141824 0.0016120995 -0.038245596 -0.0266843 0.050807774 0.041901
0.026089171 -0.05081488 -0.3692781 -0.42286265 -0.3957733 -0.38261783 -0.4700125 -0.41906226
-0.3542502 -0.45349875 -0.44853973 -0.4337718 -0.42452168 -0.39079013 -0.38405195 -0.39917788
-0.33431414 -0.40492138 -0.4222494 -0.43560836 -0.39506492 -0.34793663 -0.4668917 -0.41055283
-0.38129056 -0.45271266 -0.32738864 -0.63609004 -0.5328235 -0.49132133 -0.527711 -0.5352857
-0.5681458 -0.5149792 -0.45865503 -0.5116076 -0.52854097 -0.5262513 -0.4372172 -0.44295922
-0.5483716 -0.48398468 -0.56289774 -0.5328069 -0.46826255 -0.47839138 -0.59124374 -0.53144073
-0.54403585 -0.48409867 -0.5862057 -0.52533454 0.13884898 0.10267954 0.069315515 0.06851332
0.08864508 0.1264993 0.15306228 0.09175433 0.0636139 0.057832584 0.20232381 0.199412
0.16265133 0.13012482 0.15639538 0.18141563 0.11632743 0.17222045 0.15498772 0.10750976
0.18703556 0.12039665 0.14332058 0.18214987 0.15032321 -0.04772327 -0.03562992 0.04119261
-0.10887913 0.008689341 -0.0363937 -0.050791886 -0.062411293 -0.031571165 -0.021092646 0.011410785
-0.093676254 -0.045834213 -0.015524479 -0.072517455 -0.0064996053 -0.09512327 -0.066103235 -0.06320581
-0.05219274 -0.061547123 -0.041646942 0.049647387 -0.08866862 0.060766894 -0.08393575 -0.07272788
-0.056491837 0.008857503 -0.07493548 -0.07435653 0.025258211 0.038950223 0.064892866 -0.002992045
0.0903314 0.083445 0.06352433 0.10804383 0.11426496 -0.032620367 -0.025378099 0.04735237
0.087502524 0.10712252 -0.06488115 0.02117896 0.07472988 0.04393488 0.018266415 -0.13183051
-0.08693143 -0.13832375 -0.07755109 -0.10820572 -0.14836349 -0.060650535 -0.14689425 -0.08162668
-0.034055524 -0.15426825 -0.12865213 -0.08531164 -0.14815755 -0.119639814 -0.10134362 -0.10038107
-0.06441507 -0.018630924 -0.089606084 -0.05577469 -0.079663806 0.0049585253 -0.022186743 -0.13110064
0.1270564 0.073776014 0.08510289 0.21895301 0.27257034 0.11945816 0.15378414 -0.015000096
0.16820167 0.3215987 0.18079339 0.06791679 0.018925218 0.22107486 0.29004672 0.21042202
0.11556882 0.03814339 0.28174734 0.35209048 0.23877306 0.14953342 0.14499156 0.30285165
0.38792095 -0.09980395 -0.1589174 -0.33023158 -0.18835801 -0.033625193 -0.12302135 -0.08696193
-0.31286237 -0.1613121 -0.11812537 -0.0459284 -0.050542943 -0.31817144 -0.18970671 -0.08917612
-0.009722561 -0.0851222 -0.17725432 -0.17623036 -0.06980308 -0.087487794 -0.04581287 -0.19833216
-0.12583563 -0.06197405 -0.55645376 -0.41959152 -0.28191924 -0.211931 -0.29368323 -0.4191951
00000000: af12 62bd 6242 4cbd 9f2a c6bb 69c5 b1bc
00000010: 7bf3 42bc 9ffd 86bc cfab 77bd e7fc 54bd
00000020: a9bb 363d 05a5 5ebd 3e9e 1abd 0441 b6bd
00000030: 75d3 1fbc 431e 233d cbd5 393d db0d 9dbd
00000040: 18b5 ce3b 6241 26bd 7a44 933c 36a4 22bd
00000050: 4772 82bd f0f3 56bc 0137 babd dd79 16bd
00000060: 373d 073d c643 6abd 85de 5bbc 90e6 0dbd
00000070: 6dcf 4e3b f4bc 363d 75b8 993d 02cc 823d
00000080: 4213 283d f8cb 623d 8d01 6ebb 5e79 3f3d
00000090: 31d4 813d e9dc df3c 4965 863d b034 883d
000000a0: a9eb 41bd 2c2a 9b3c c562 b53c 154d d33a
000000b0: 6aa7 1cbd 0899 dabc d01b 503d 62a0 2b3d
000000c0: f5b8 d53c 4323 50bd 0512 bdbe 7481 d8be
000000d0: cca2 cabe 7ce6 c3be 7aa5 f0be 548f d6be
000000e0: 4860 b5be fd30 e8be 00a7 e5be 5617 debe
000000f0: e85a d9be a515 c8be 75a2 c4be 0b61 ccbe
00000100: 392b abbe db51 cfbe 1331 d8be 0f08 dfbe
00000110: f345 cabe c024 b2be 6e0c efbe fb33 d2be
00000120: 8438 c3be f4c9 e7be 7c9f a7be ccd6 22bf
00000130: 1f67 08bf 788e fbbe 1118 07bf 7c08 09bf
00000140: 0172 11bf add5 03bf d5d4 eabe b7f8 02bf
00000150: 764e 07bf 68b8 06bf efda dfbe 8dcb e2be
00000160: 1562 0cbf d7cc f7be 111a 10bf 0866 08bf
00000170: 1cc0 efbe b7ef f4be c05b 17bf 800c 08bf
00000180: ef45 0bbf c8db f7be 9411 16bf 537c 06bf
00000190: 6d2e 0e3e a749 d23d 4bf5 8d3d b650 8c3d
000001a0: 8d8b b53d 0889 013e 5cbc 1c3e b2e9 bb3d
000001b0: 0148 823d dce1 6c3d f92d 4f3e a932 4c3e
000001c0: 128e 263e 713f 053e 1c26 203e 05c5 393e
000001d0: 133d ee3d 8f5a 303e 1ab5 1e3e 142e dc3d
000001e0: 4086 3f3e 8592 f63d a1c2 123e 7f85 3a3e
000001f0: 54ee 193e 7a79 43bd aef0 11bd 95b9 283d
00000200: 05fc debd bd5d 0e3c 8f11 15bd 270b 50bd
00000210: fca2 7fbd c450 01bd 7cca acbc 4df4 3a3c
00000220: 56d9 bfbd a8bc 3bbd 625a 7ebc 0884 94bd
00000230: a4fa d4bb fdcf c2bd 2261 87bd 0c72 81bd
00000240: 0ec8 55bd d618 7cbd fc95 2abd 0f5b 4b3d
00000250: e597 b5bd b5e6 783d 82e6 abbd 5bf2 94bd
00000260: fc63 67bd 0f1f 113c c677 99bd 3d48 98bd
00000270: 4fea ce3c 458a 1f3d 8de6 843d 2f16 44bb
00000280: abff b83d 36e5 aa3d 0b19 823d 1546 dd3d
00000290: bf03 ea3d ef9c 05bd bbe5 cfbc 8ff4 413d
000002a0: 8634 b33d 0d63 db3d 69e0 84bd 807f ad3c
000002b0: fb0b 993d 10f5 333d 73a3 953c 94fe 06be
000002c0: 1b09 b2bd bea4 0dbe 1bd3 9ebd f69a ddbd
000002d0: 99ec 17be b26c 78bd 726b 16be e42b a7bd
000002e0: ce7d 0bbd 7ff8 1dbe 62bd 03be deb7 aebd
000002f0: 9db6 17be b805 f5bd 3e8d cfbd 9794 cdbd
00000300: 0cec 83bd e19f 98bc 6583 b7bd 0074 64bd
00000310: c726 a3bd 207b a23b f9c0 b5bc 3f3f 06be
00000320: 131b 023e e117 973d 6d4a ae3d 3835 603e
00000330: 578e 8b3e 7ba6 f43d 9779 1d3e f6c2 75bc
00000340: 0f3d 2c3e 96a8 a43e e721 393e f517 8b3d
00000350: 0f09 9b3c 7361 623e 0181 943e df78 573e
00000360: 58af ec3d 3e3c 1c3d 3041 903e 3445 b43e
00000370: ed80 743e 4a1f 193e ab78 143e 5f0f 9b3e
00000380: 939d c63e 0366 ccbd 3ebb 22be 1d14 a9be
00000390: ece0 40be 92ba 09bd 9ef2 fbbd 1919 b2bd
000003a0: 7f2f a0be 002f 25be b7eb f1bd 6b1f 3cbd
000003b0: 1e06 4fbd 5ee7 a2be 7a42 42be f8a1 b6bd
000003c0: 604b 1fbc 8c54 aebd 2882 35be bb75 34be
000003d0: ebf4 8ebd cd2c b3bd 47a6 3bbd 9617 4bbe
000003e0: 0edb 00be 80d8 7dbd c173 0ebf b3d4 d6be
000003f0: b857 90be 7104 59be a65d 96be bda0 d6be

model.hidden_layers.0.bias f4 [8]
0.20749031 0.65905446 -0.54272383 -0.26259848 0.3555646 -0.60916305 -0.271881 0.3670739
00000000: 5778 543e cbb7 283f f3ef 0abf 4f73 86be
00000010: 900c b63e 1cf2 1bbf fd33 8bbe 1cf1 bb3e

model.output_layers.0.weight f4 [1, 8, 5, 5]
-0.20116392 -0.2146639 -0.3870747 -0.15949775 -0.28981087 -0.26246175 -0.14402631 -0.38916978
-0.1365613 -0.28599915 -0.44687217 -0.4298207 -0.44930792 -0.26765776 -0.4555363 -0.3075007
-0.20649742 -0.24191836 -0.17720844 -0.18150766 -0.31496984 -0.22571038 -0.33563885 -0.12240419
-0.15999429 0.39878935 0.16859491 -0.12668118 -0.07687581 -0.08833228 0.23508266 0.16658954
-0.2356428 -0.14390258 -0.018620554 -0.11339276 -0.2617581 -0.603486 -0.31951696 -0.28229755
-0.0018180953 -0.14316203 -0.48989394 -0.18254125 -0.034619827 -0.08620654 -0.21978906 -0.47852102
-0.21902873 -0.06586899 -0.14730933 -0.046187874 -0.06023321 -0.13948117 -0.1609611 0.018008247
-0.038931105 0.041410193 -0.034771714 -0.063314974 -0.012373451 0.08664229 0.15488903 0.09058707
0.037728563 -0.055274267 -0.044518303 0.08118482 -0.08159829 -0.11704432 -0.12875806 -0.050382465
0.01945745 -0.10050208 -0.148587 -0.26992637 -0.1808102 -0.26225334 -0.1801604 -0.2043625
-0.1292365 -0.13579634 -0.12047697 -0.20823924 -0.15892364 -0.16805437 -0.10968877 -0.22063835
-0.14232424 -0.14780094 -0.18566312 -0.16013627 -0.2139741 -0.1817631 -0.241295 -0.16660224
-0.19943567 -0.31959185 -0.24079663 -0.28543732 -0.46260488 -0.19434024 -0.5193807 0.08764623
0.17537805 -0.49044672 -0.0899841 -0.4625887 0.09501158 0.092352815 -1.0724101 -0.70573896
-1.052194 -0.41125387 -0.34015813 -0.4419898 -0.12743331 -0.50593156 0.15978302 0.1789118
-0.19595121 0.05263041 -0.45668986 0.23520046 0.4195822 -0.49159044 -0.2821384 0.010583054
-0.1398757 -0.25115123 -0.3960566 -0.10480241 0.1178967 -0.14894232 -0.23103282 -0.046169918
0.05604978 0.3674898 0.036526576 0.02742406 -0.17425616 0.018873902 0.22782165 0.016718982
-0.04882637 -0.16908057 -0.009180512 0.29732436 -0.03396329 -0.020466646 0.22813748 0.16862269
-0.33439016 0.23273255 0.3132885 -0.074517295 -0.15087488 -0.48837355 -0.08734598 0.061134826
-0.5009424 -0.5744637 -0.99263155 -0.52220976 -0.45670304 -0.029817734 -0.07969319 -0.56069255
-0.07236892 -0.017373405 0.23563738 0.045226194 -0.4337913 -0.089494914 0.15617159 -0.032730397
-0.2819553 -0.512746 -0.2768466 -0.12331926 0.05319886 -0.19246589 -0.40483955 -0.1301952
0.017799482 -0.16741751 -0.28096348 -0.49760753 -0.21000195 -0.10944101 0.0997076 -0.061540745
-0.31269652 -0.0038645614 0.086171314 0.088825814 -0.0020200089 -0.23682125 0.00061699044 0.16123362
00000000: eafd 4dbe dad0 5bbe a82e c6be 6153 23be
00000010: 1762 94be 6361 86be a27b 13be 4341 c7be
00000020: bad6 0bbe 7b6e 92be 6ecc e4be 7511 dcbe
00000030: b00b e6be 700a 89be 0e3c e9be bb70 9dbe
00000040: 0f74 53be 72b9 77be 2176 35be 25dd 39be
00000050: ba43 a1be 9f20 67be dbd8 abbe 0caf fabd
00000060: 8bd5 23be 1e2e cc3e 25a4 2c3e b6b8 01be
00000070: 1171 9dbd 8ee7 b4bd 82b9 703e 7396 2a3e
00000080: 594c 71be 335b 13be 228a 98bc 773a e8bd
00000090: 2805 86be 0f7e 1abf ba97 a3be 4e89 90be
000000a0: 284d eeba 1199 12be 61d3 fabe 18ec 3abe
000000b0: 85cd 0dbd 0e8d b0bd 6210 61be b500 f5be
000000c0: 1149 60be 52e6 86bd 42d8 16be 7f2f 3dbd
000000d0: 19b7 76bd 27d4 0ebe fdd2 24be 0886 933c
000000e0: 3976 1fbd bc9d 293d c96c 0ebd 48ab 81bd
000000f0: 04ba 4abc 8371 b13d 3b9b 1e3e b785 b93d
00000100: 4489 1a3d 4567 62bd d358 36bd 3a44 a63d
00000110: 011d a7bd efb4 efbd 27d9 03be d85d 4ebd
00000120: 3b65 9f3c 09d4 cdbd 3127 18be ca33 8abe
00000130: 4f26 39be 1246 86be f87b 38be 6744 51be
00000140: 9356 04be 320e 0bbe a1bc f6bd ab3c 55be
00000150: e1bc 22be 7216 2cbe 81a4 e0bd 05ef 61be
00000160: 72bd 11be 2159 17be 791e 3ebe c3fa 23be
00000170: 071c 5bbe 1b20 3abe 0916 77be c799 2abe
00000180: dd38 4cbe 8ba1 a3be 6493 76be d724 92be
00000190: 8cda ecbe 2101 47be 22f6 04bf de7f b33d
000001a0: 4e96 333e d51b fbbe 9549 b8bd 6dd8 ecbe
000001b0: 6e95 c23d 7923 bd3d bc44 89bf 4fab 34bf
000001c0: 4bae 86bf de8f d2be 3529 aebe 7d4c e2be
000001d0: e17d 02be bb84 01bf 299e 233e a834 373e
000001e0: 6fa7 48be fc92 573d 41d3 e9be 64d8 703e
000001f0: 7ad3 d63e beb1 fbbe 7274 90be 8c64 2d3c
00000200: 933b 0fbe e596 80be eec7 cabe a5a2 d6bd
00000210: d373 f13d 5684 18be de93 6cbe ab1c 3dbd
00000220: 7494 653d a027 bc3e e49c 153d 6ca8 e03c
00000230: 3570 32be 719d 9a3c 144a 693e 3ff6 883c
00000240: 29fe 47bd 7523 2dbe dc69 16bc e63a 983e
00000250: 171d 0bbd aba9 a7bc df9c 693e 6dab 2c3e
00000260: 3035 abbe 7151 6e3e 5a67 a03e 869c 98bd
00000270: f27e 1abe 190c fabe 73e2 b2bd 8368 7a3d
00000280: c33d 00bf 0e10 13bf 1a1d 7ebf 8aaf 05bf
00000290: fbd4 e9be 5244 f4bc 2f36 a3bd 8c89 0fbf
000002a0: 2836 94bd ac52 8ebc ed4a 713e 1a3f 393d
000002b0: e519 debe 1c49 b7bd 72eb 1f3e 4f10 06bd
000002c0: 725c 90be 5243 03bf d6be 8dbe cf8e fcbd
000002d0: 0ce7 593d c715 45be 2147 cfbe e451 05be
000002e0: 38d0 913c 7f6f 2bbe 72da 8fbe 6ac6 febe
000002f0: c00a 57be 9c22 e0bd 8033 cc3d 2612 7cbd
00000300: c219 a0be 9544 7dbb 967a b03d 4fea b53d
00000310: 2062 04bb 4581 72be 87bd 213a 6d1a 253e

exp_avg f4 [8]
-0.0038799928 -0.0020073312 -0.00010580115 -0.0005197665 -0.0026224828 -0.00059529877 -0.0018229902 -0.0017161405
00000000: 7a47 7ebb 6e8d 03bb 8fe1 ddb8 f040 08ba
00000010: f6dd 2bbb d30d 1cba 67f1 eeba 1ff0 e0ba

exp_avg_sq f4 [8]
0.0002610931 0.00016261755 8.4983384e-08 5.768928e-05 0.001306657 6.61605e-05 0.0005198342 0.00031745993
00000000: 53e3 8839 5184 2a39 1c80 b633 65f7 7138
00000010: 2244 ab3a a6bf 8a38 7c45 083a c070 a639

exp_avg f4 [8, 1, 5, 5]
0.0003233598 0.00024349059 0.00019699974 0.00018302348 0.00013244318 0.0002711904 0.00018559271 0.00016105494
0.00016420714 0.00012651215 0.0002208997 0.00014283169 0.00014852625 0.00016370496 0.00013922325 0.00017431431
0.00013159149 0.00014714932 0.00015261816 0.00012900803 0.0001441482 0.00013431063 0.00015136937 0.00014646504
0.000121638346 -5.5218525e-06 -3.2633383e-05 -7.108365e-05 -0.000108447624 -0.00013399655 4.1493946e-05 4.8443585e-06
-4.1156323e-05 -8.4136635e-05 -0.000110037785 7.619397e-05 3.6451307e-05 -1.7126458e-05 -6.583392e-05 -9.495793e-05
7.154418e-05 3.7455593e-05 -1.4785327e-05 -6.8483896e-05 -0.00010199285 5.5315355e-05 3.073236e-05 -1.0429226e-05
-5.5925415e-05 -8.6660104e-05 2.241083e-06 2.0496411e-06 1.6754794e-06 1.1255776e-06 7.059135e-07 2.572822e-06
2.357025e-06 1.8985293e-06 1.2083038e-06 6.455748e-07 2.6019668e-06 2.378128e-06 1.898922e-06 1.1446095e-06
5.0577654e-07 2.52593e-06 2.2863512e-06 1.8133737e-06 1.1072153e-06 5.311683e-07 2.2803092e-06 2.0331788e-06
1.5970556e-06 9.897731e-07 5.52059e-07 -5.0360366e-05 -5.447611e-05 -5.561433e-05 -4.899699e-05 -2.9364202e-05
-5.0190818e-05 -5.176901e-05 -5.08386e-05 -3.7061647e-05 -2.1895206e-05 -5.0647974e-05 -5.0967905e-05 -4.794922e-05
-2.7589536e-05 -1.758567e-05 -4.5534984e-05 -4.5447134e-05 -3.9654486e-05 -1.5210532e-05 -8.506978e-06 -4.4044355e-05
-4.436797e-05 -3.3047116e-05 -1.0323904e-05 7.5529215e-07 -0.00015160665 -0.00023333925 -0.000275025 -0.0002423746
-0.0002742045 -9.414188e-05 -0.00019298885 -0.0002430797 -0.00024156153 -0.00028481265 -3.300436e-05 -0.00014539371
-0.00021012373 -0.00023913827 -0.0002882478 -7.1916197e-06 -0.00012158098 -0.00019741022 -0.00024432436 -0.00030069813
-3.5628264e-06 -9.9304496e-05 -0.00016988987 -0.00022066152 -0.0002804605 -1.410041e-05 -9.0035155e-06 -1.5440659e-05
-3.1921218e-06 -3.977695e-06 -1.212797e-05 -7.4137633e-06 -1.49718335e-05 -3.6450733e-06 -7.6200236e-06 -1.8080145e-05
-1.5655933e-05 -2.2945356e-05 -1.1430601e-05 -1.6116102e-05 -8.329545e-07 -2.8770764e-06 -1.1462571e-05 -9.1988267e-07
-5.699915e-06 1.4808198e-05 9.600493e-06 -2.5439522e-07 8.669861e-06 2.9329353e-06 -0.0003539774 -0.00037848257
-0.00039111817 -0.0003964675 -0.0003549926 -0.00031891887 -0.00032697248 -0.00033161108 -0.0003343394 -0.00029236346
-0.00026243195 -0.00026175863 -0.00026497457 -0.00026266102 -0.00023352595 -0.00022075429 -0.00022490465 -0.00023490297
-0.00022793266 -0.00021543229 -0.00021721417 -0.00022805619 -0.00023818712 -0.0002203242 -0.00021567839 -5.656182e-05
-5.891129e-05 -3.68543e-05 -3.7180795e-05 -4.3856307e-05 -2.9221626e-05 -3.252163e-05 -2.5308e-05 -3.6456975e-05
-4.7696903e-05 -7.571221e-06 -1.7201206e-05 -2.7751847e-05 -4.650559e-05 -5.952724e-05 2.0376247e-05 -1.377693e-05
-4.5847566e-05 -7.2774346e-05 -8.568052e-05 -2.737866e-05 -8.395649e-05 -0.0001316396 -0.00016444181 -0.00017579983
00000000: 9e88 a939 8251 7f39 b791 4e39 fee9 3f39
00000010: 72e0 0a39 8f2e 8e39 aa9b 4239 dbe0 2839
00000020: 052f 2c39 59a8 0439 50a1 6739 17c5 1539
00000030: b6bd 1b39 37a8 2b39 75fc 1139 24c8 3639
00000040: d2fb 0939 184c 1a39 2008 2039 5446 0739
00000050: 7d26 1739 bcd5 0c39 e8b8 1e39 6994 1939
00000060: 1718 ff38 5a48 b9b6 d4df 08b8 be12 95b8
00000070: 606e e3b8 6d81 0cb9 c909 2e38 b98c a236
00000080: 449f 2cb8 8372 b0b8 16c4 e6b8 53ca 9f38
00000090: 4be3 1838 caaa 8fb7 5110 8ab8 2724 c7b8
000000a0: fd09 9638 a319 1d38 7f0e 78b7 039f 8fb8
000000b0: ffe4 d5b8 6902 6838 9fe6 0038 2ff9 2eb7
000000c0: 7591 6ab8 4abd b5b8 8365 1636 918c 0936
000000d0: 09e1 e035 8d12 9735 027e 3d35 bfa8 2c36
000000e0: 622d 1e36 f8d0 fe35 012d a235 904b 2d35
000000f0: 739d 2e36 ee97 1f36 77de fe35 7ca0 9935
00000100: b3c4 0735 2683 2936 376f 1936 0c63 f335
00000110: a19b 9435 9c95 0e35 6a07 1936 bf71 0836
00000120: 6a5a d635 58d8 8435 3531 1435 083a 53b8
00000130: 477d 64b8 6f43 69b8 1e82 4db8 2553 f6b7
00000140: fb83 52b8 8d22 59b8 883b 55b8 a472 1bb8
00000150: 99ab b7b7 d96e 54b8 5fc6 55b8 151d 49b8
00000160: 1470 e7b7 f084 93b7 d1fc 3eb8 7d9e 3eb8
00000170: ae52 26b8 bd30 7fb7 31b9 0eb7 44bc 38b8
00000180: bf17 3ab8 129c 0ab8 d434 2db7 48bf 4a35
00000190: 9af8 1eb9 87ac 74b9 3b31 90b9 f025 7eb9
000001a0: 1bc3 8fb9 096e c5b8 0d5d 4ab9 36e3 7eb9
000001b0: ae4b 7db9 e852 95b9 296e 0ab8 d474 18b9
000001c0: a954 5cb9 31c1 7ab9 f71f 97b9 8b4f f1b6
000001d0: 4bf9 feb8 e7ff 4eb9 a918 80b9 05a7 9db9
000001e0: e418 6fb6 b241 d0b8 7724 32b9 6061 67b9
000001f0: c50a 93b9 cd90 6cb7 ce0d 17b7 9086 81b7
00000200: 3c38 56b6 2478 85b6 3c79 4bb7 bec3 f8b6
00000210: 892f 7bb7 e29d 74b6 81af ffb6 d1aa 97b7
00000220: dc54 83b7 c77a c0b7 0fc6 3fb7 1131 87b7
00000230: 3398 5fb5 cc13 41b6 5e4f 40b7 dbed 76b5
00000240: e641 bfb6 ba70 7837 ce11 2137 d093 88b4
00000250: c574 1137 72d3 4436 0b96 b9b9 126f c6b9
00000260: fe0e cdb9 f8dc cfb9 4d1e bab9 9134 a7b9
00000270: 816d abb9 16dc adb9 464a afb9 5c48 99b9
00000280: 0597 89b9 a63c 89b9 49ec 8ab9 c4b5 89b9
00000290: a5de 74b9 477a 67b9 62d4 6bb9 4950 76b9
000002a0: 3501 6fb9 aae5 61b9 fcc3 63b9 5e22 6fb9
000002b0: dec1 79b9 d406 67b9 ba27 62b9 cb3c 6db8
000002c0: 8417 77b8 0194 1ab8 93f2 1bb8 5af2 37b8
000002d0: f720 f5b7 d667 08b8 844c d4b7 61e9 18b8
000002e0: 290e 48b8 4b0c feb6 4f4b 90b7 a3cc e8b7
000002f0: ff0e 43b8 e3ac 79b8 a8ed aa37 7723 67b7
00000300: 734c 40b8 6e9e 98b8 61af b3b8 3aab e5b7
00000310: cc11 b0b8 bc08 0ab9 036e 2cb9 e856 38b9

exp_avg_sq f4 [8, 1, 5, 5]
5.147464e-06 5.4342054e-06 5.423809e-06 5.193643e-06 4.9096e-06 5.2774544e-06 5.601716e-06 5.599071e-06
5.3073904e-06 4.9528444e-06 5.222959e-06 5.5720657e-06 5.5811206e-06 5.2692913e-06 4.885365e-06 4.8025204e-06
5.1184666e-06 5.1489146e-06 4.8917595e-06 4.5549646e-06 4.221467e-06 4.4759977e-06 4.5154443e-06 4.335297e-06
4.081401e-06 1.2154325e-06 1.259612e-06 1.3219014e-06 1.3471524e-06 1.3153098e-06 1.0990851e-06 1.1674255e-06
1.2576899e-06 1.3149387e-06 1.3031386e-06 1.0857883e-06 1.1562629e-06 1.2488897e-06 1.3080236e-06 1.2963737e-06
1.0812396e-06 1.1383269e-06 1.2137864e-06 1.2556561e-06 1.2324032e-06 1.0660419e-06 1.1081037e-06 1.1600501e-06
1.1769001e-06 1.1413975e-06 2.416837e-10 1.9937879e-10 1.5031616e-10 9.807243e-11 6.122053e-11 2.1212784e-10
1.7081055e-10 1.245766e-10 7.835793e-11 4.7816796e-11 1.7714974e-10 1.3901777e-10 9.7431056e-11 5.953557e-11
3.5713477e-11 1.3981456e-10 1.0697933e-10 7.2582586e-11 4.3470404e-11 2.6027883e-11 1.05364384e-10 7.836795e-11
5.277218e-11 3.1408445e-11 1.9419034e-11 1.2723375e-05 1.3062969e-05 1.3125821e-05 1.2778665e-05 1.221566e-05
1.3096567e-05 1.3469945e-05 1.3552299e-05 1.3204131e-05 1.2629125e-05 1.33155e-05 1.3716717e-05 1.3820062e-05
1.3480308e-05 1.2907271e-05 1.3211276e-05 1.3626783e-05 1.3748283e-05 1.3431299e-05 1.2882013e-05 1.2917548e-05
1.3334011e-05 1.3468405e-05 1.3179415e-05 1.2666018e-05 5.4115267e-06 6.073417e-06 6.7703295e-06 7.0363994e-06
7.2542484e-06 5.3185036e-06 5.9302124e-06 6.6494604e-06 7.001784e-06 7.3095084e-06 5.4073043e-06 5.968915e-06
6.6726448e-06 7.0292062e-06 7.3512188e-06 5.4297593e-06 5.9583376e-06 6.591515e-06 6.8734603e-06 7.1229156e-06
5.6466947e-06 6.1677815e-06 6.7277288e-06 6.9111197e-06 7.06811e-06 6.173196e-08 6.620849e-08 7.206731e-08
7.173201e-08 7.238083e-08 6.102898e-08 6.58944e-08 7.2063266e-08 7.157587e-08 7.24229e-08 6.720001e-08
7.2345095e-08 8.050082e-08 7.9633146e-08 8.034572e-08 7.350653e-08 7.9226226e-08 8.844558e-08 8.7043695e-08
8.652736e-08 8.02888e-08 8.7467804e-08 9.836789e-08 9.722886e-08 9.61048e-08 4.414309e-05 4.6562942e-05
4.8637867e-05 4.6881043e-05 4.4958793e-05 4.6444962e-05 4.9163624e-05 5.1421375e-05 4.9597747e-05 4.7540052e-05
4.8317208e-05 5.1254352e-05 5.3673088e-05 5.1841587e-05 4.974513e-05 4.6581983e-05 4.946537e-05 5.1869483e-05
5.018143e-05 4.8271635e-05 4.4447188e-05 4.719113e-05 4.9538998e-05 4.8018304e-05 4.6328616e-05 1.8707835e-06
2.2073816e-06 2.4414576e-06 2.4648477e-06 2.4665474e-06 1.7495756e-06 2.1141127e-06 2.38323e-06 2.4494518e-06
2.4924184e-06 1.7090682e-06 2.0848981e-06 2.3763853e-06 2.4675842e-06 2.5382005e-06 1.5410957e-06 1.8844603e-06
2.1561382e-06 2.2468741e-06 2.3260197e-06 1.3479398e-06 1.6554258e-06 1.8902837e-06 1.9530153e-06 2.0093048e-06
00000000: 61b8 ac36 7857 b636 2afe b536 0e45 ae36
00000010: 25bd a436 fd14 b136 60f6 bb36 a7df bb36
00000020: 2316 b236 9c30 a636 e040 af36 aef7 ba36
00000030: 7645 bb36 dece b036 f7ec a336 5625 a136
00000040: 4bbf ab36 d7c4 ac36 e523 a436 d9d6 9836
00000050: 20a6 8d36 8730 9636 5f83 9736 eb77 9136
00000060: f8f2 8836 f121 a335 f00f a935 306c b135
00000070: cecf b435 b389 b035 4784 9335 6fb0 9c35
00000080: e5cd a835 f37c b035 80e7 ae35 67bb 9135
00000090: e430 9b35 869f a735 598f af35 10ff ad35
000000a0: 1c1f 9135 9dc8 9835 62e9 a235 0488 a835
000000b0: 0d69 a535 ec14 8f35 27ba 9435 05b3 9b35
000000c0: fbf5 9d35 1f32 9935 f5dd 842f 2438 5b2f
000000d0: 3d46 252f dfa9 d72e 18a0 862e ae3c 692f
000000e0: e5ce 3b2f 32f9 082f 984f ac2e ed4c 522e
000000f0: 38c7 422f 06da 182f cf40 d62e 8ceb 822e
00000100: cd11 1d2e 4dba 192f 0240 eb2e 5d9c 9f2e
00000110: 532f 3f2e 95f1 e42d e0b2 e72e 3c55 ac2e
00000120: 3118 682e c422 0a2e c7cf aa2d 7b76 5537
00000130: 0629 5b37 f936 5c37 f363 5637 dcf1 4c37
00000140: 54b9 5b37 f9fc 6137 ae5e 6337 5087 5d37
00000150: aee1 5337 a365 5f37 da20 6637 b7dc 6737
00000160: 7b29 6237 4f8c 5837 00a6 5d37 969e 6437
00000170: 6da8 6637 fd56 6137 d31f 5837 72b8 5837
00000180: 24b5 5f37 5cf6 6137 281d 5d37 2280 5437
00000190: a994 b536 41ca cb36 b02c e336 361a ec36
000001a0: 8569 f336 9975 b236 23fc c636 6e1e df36
000001b0: def0 ea36 3344 f536 6470 b536 9748 c836
000001c0: 95e5 df36 6cdc eb36 7daa f636 4731 b636
000001d0: bbed c736 af2c dd36 93a2 e636 6101 ef36
000001e0: bd78 bd36 d7f4 ce36 c0be e136 11e6 e736
000001f0: 9a2a ed36 8191 8433 812e 8e33 6cc3 9a33
00000200: 170b 9a33 c86f 9b33 090f 8333 d481 8d33
00000210: 33c1 9a33 40b5 9933 e986 9b33 994f 9033
00000220: 235c 9b33 cbdf ac33 c902 ab33 878a ac33
00000230: a4da 9d33 1423 aa33 79ef bd33 c7ec ba33
00000240: ebd0 b933 3c6b ac33 efd5 bb33 523e d333
00000250: 22cc d033 2c62 ce33 4826 3938 944c 4338
00000260: 8300 4c38 23a2 4438 2392 3c38 e6cd 4238
00000270: 0a35 4e38 48ad 5738 2d07 5038 be65 4738
00000280: 35a8 4a38 f1f9 5638 0a1f 6138 7b70 5938
00000290: 6da5 5038 0661 4338 0979 4f38 6f8e 5938
000002a0: e679 5238 4677 4a38 ce6c 3a38 17ef 4538
000002b0: 18c8 4f38 4367 4938 f950 4238 a217 fb35
000002c0: 8722 1436 ecd7 2336 c369 2536 f686 2536
000002d0: f6d2 ea35 2ee0 0d36 94ef 1f36 4361 2436
000002e0: 6c43 2736 2363 e535 47ea 0b36 fd79 1f36
000002f0: c698 2536 f455 2a36 a5d7 ce35 90ed fc35
00000300: 2cb2 1036 01c9 1636 b718 1c36 dcea b435
00000310: ff2f de35 a7b5 fd35 8c10 0336 98d7 0636

exp_avg f4 [8]
-0.00016998191 -0.00033307934 -5.6303124e-06 -0.00012210601 -0.00078087056 -5.2996023e-05 -0.0009861737 -0.0004895857
00000000: 2c3d 32b9 27a1 aeb9 04ec bcb6 9509 00b9
00000010: 56b3 4cba 0c48 5eb8 8042 81ba 8a57 00ba

exp_avg_sq f4 [8]
1.5678248e-05 7.969703e-05 4.6712687e-09 4.505642e-05 0.00043845113 4.1007625e-06 0.00034365282 0.00013513885
00000000: c884 8337 0423 a738 ea80 a031 f6fa 3c38
00000010: eadf e539 4899 8936 4d2c b439 0fb4 0d39

exp_avg f4 [8, 8, 5, 5]
9.8174975e-12 3.6175707e-12 2.860432e-13 -1.4215941e-13 7.9535804e-14 8.6112e-12 3.8456825e-12 1.3144306e-12
-4.5201397e-13 -5.3332295e-13 1.2450077e-11 8.371646e-12 1.7326586e-11 -5.02736e-12 -6.0958495e-12 1.0453713e-11
7.659263e-12 1.2344208e-11 -8.898461e-12 -9.18066e-12 1.7958097e-11 1.2135445e-11 2.5717905e-11 3.2600582e-13
6.5857367e-12 -3.160757e-12 4.288889e-12 -4.644427e-12 -4.797293e-13 -7.3016875e-13 -7.210844e-13 5.0194935e-12
-2.0842117e-12 8.8000374e-14 4.2844383e-14 -2.9837072e-12 5.6926295e-12 -1.4050437e-11 -1.2119119e-11 -1.450734e-11
2.4611628e-13 9.8772665e-12 -7.733425e-12 -1.9033824e-12 -8.799092e-12 3.309525e-13 9.7647125e-12 -8.904964e-12
-4.497547e-12 -1.00190715e-11 -1.4146397e-11 -1.4234024e-11 -1.5288869e-11 -7.361154e-13 -6.8638525e-13 -1.4264731e-11
-1.4389273e-11 -1.5653295e-11 -9.37447e-13 -8.9010114e-13 -2.142385e-11 -2.1957637e-11 -4.630886e-11 -2.4375212e-11
-2.4272062e-11 -2.0076201e-11 -2.0623442e-11 -4.429973e-11 -2.3669136e-11 -2.3577033e-11 -1.9973632e-11 -2.055179e-11
-4.4260928e-11 -2.3672916e-11 -2.3587562e-11 -1.0812298e-11 -6.0465973e-12 -4.495318e-12 -8.823694e-13 -9.0232314e-13
-9.389614e-12 -4.958925e-12 -4.3381683e-12 -1.0338167e-12 -1.0409102e-12 -1.6092683e-11 -1.2208479e-11 -3.5495884e-11
-2.4933935e-11 -2.4893183e-11 -1.5158565e-11 -1.1145003e-11 -3.3803325e-11 -2.4147332e-11 -2.4095502e-11 -1.6241748e-11
-1.2024127e-11 -3.4310818e-11 -2.4148294e-11 -2.409308e-11 -1.2520808e-11 -1.3405955e-11 -1.4701936e-11 -9.378429e-13
-1.2476239e-12 -1.2513016e-11 -1.3349737e-11 -1.4719384e-11 -9.892145e-13 -1.3813508e-12 -1.7872571e-11 -1.9349316e-11
-3.854554e-11 -1.9584499e-11 -2.2339306e-11 -1.5974107e-11 -1.7567692e-11 -3.4835038e-11 -1.5903046e-11 -2.056152e-11
-1.6016159e-11 -1.7486974e-11 -3.4738882e-11 -1.6622525e-11 -2.090915e-11 -7.410834e-12 -1.2631237e-11 -1.2658852e-11
3.211644e-14 -8.4358546e-13 -9.178017e-12 -1.3347216e-11 -1.3405305e-11 -8.525934e-13 -1.1073371e-12 -7.218636e-12
-1.1074529e-11 1.7833226e-12 9.424062e-12 8.918768e-12 -7.75594e-12 -1.05943015e-11 -2.8194144e-12 9.646571e-12
7.1164984e-12 -1.1499104e-11 -1.5601426e-11 -5.9050343e-12 3.5575765e-12 -1.7569814e-11 -1.32312095e-11 -1.32665025e-11
-1.4329053e-11 -1.2374306e-12 -1.2766707e-12 -1.3272465e-11 -1.3245139e-11 -1.4404274e-11 -1.3723999e-12 -1.4175659e-12
-1.9542881e-11 -1.982946e-11 -4.1339075e-11 -2.2334124e-11 -2.2464133e-11 -1.7871768e-11 -1.8122333e-11 -3.8717085e-11
-2.1303825e-11 -2.1308573e-11 -1.7706746e-11 -1.7947787e-11 -3.8544494e-11 -2.1285735e-11 -2.1280528e-11 1.1194384e-11
1.2359682e-11 1.1051504e-11 -8.243425e-13 1.277037e-12 9.972649e-12 1.20421815e-11 1.036862e-11 -1.2805262e-12
2.4642636e-13 1.22031395e-11 1.5357453e-11 -1.2818991e-12 -1.3224282e-11 1.6579087e-11 1.460803e-11 1.592061e-11
2.479223e-12 -1.8207436e-12 1.960341e-11 1.4149515e-11 1.5780887e-11 -1.4419078e-12 -1.3538193e-11 1.9294583e-11
-1.23815e-12 -1.4179612e-12 -2.661819e-11 -2.8791542e-11 -2.7656039e-11 -1.2397141e-12 -1.4191316e-12 -2.775026e-11
-3.009116e-11 -3.0331345e-11 -1.247164e-12 -1.4272547e-12 -2.7344392e-11 -3.015027e-11 -3.0778574e-11 -3.039554e-14
-3.5734836e-14 -9.703531e-13 -1.61711e-12 -1.6412922e-12 -3.3631458e-15 -1.8995163e-15 2.9007642e-13 -5.2295364e-13
-2.381393e-13 -1.2203238e-12 -1.3193989e-12 -3.0988025e-11 -2.7985175e-11 -3.0040772e-11 -1.0199865e-12 -8.606946e-13
-2.6217818e-11 -2.1056764e-11 -2.1313236e-11 -1.1879624e-12 -1.2757073e-12 -2.8524565e-11 -2.6959377e-11 -2.8900236e-11
-2.7113826e-14 -3.003451e-14 -1.4242388e-12 -1.1214137e-12 -1.4563727e-12 -8.999576e-16 4.057094e-15 -7.49748e-13
-5.47414e-13 -7.8586096e-13 1.4519824e-12 1.683145e-12 3.083297e-11 2.9490597e-11 2.9399087e-11 1.4525015e-12
00000000: 14b6 2c2d 5c90 7e2c 2b07 a12a a90e 20aa
00000010: 4519 b329 667d 172d d44e 872c 5afd b82b
00000020: 1476 feaa f81d 16ab 2a06 5b2d 8b46 132d
00000030: 0168 982d 6fe2 b0ac 887a d6ac 57e7 372d
00000040: 41be 062d 5f29 592d 1b8b 1cad 0482 21ad
00000050: 0af6 9d2d 307d 552d 9337 e22d 6486 b72a
00000060: 0bb7 e72c 236b 5eac e1e6 962c 4869 a3ac
00000070: 2408 07ab 3486 4dab 9bf7 4aab 949b b02c
00000080: d2a9 12ac c328 c629 36f4 4029 b1f5 51ac
00000090: a64a c82c 8b2d 77ad a933 55ad 4037 7fad
000000a0: 188d 8a2a 41c3 2d2d 400c 08ad 4af0 05ac
000000b0: 96cb 1aad 484f ba2a 5bc8 2b2d 64a8 1cad
000000c0: 4d3e 9eac e341 30ad b5dd 78ad 5868 7aad
000000d0: 797b 86ad b432 4fab 4533 41ab a3f2 7aad
000000e0: 8623 7dad 16b0 89ad 16ef 83ab 8c8a 7aab
000000f0: 3972 bcad 3424 c1ad 24ab 4bae 1968 d6ad
00000100: d37f d5ad 9697 b0ad dd67 b5ad 10d5 42ae
00000110: 2832 d0ad c262 cfad 9fb0 afad 84c6 b4ad
00000120: 60a9 42ae ab3a d0ad 787a cfad 4336 3ead
00000130: e8be d4ac 3a2a 9eac 6b5d 78ab 3cfb 7dab
00000140: 102f 25ad 077a aeac bfa2 98ac 2c7f 91ab
00000150: be7e 92ab 808d 8dad 1ac6 56ad d01c 1cae
00000160: 3b52 dbad 77f6 daad 0e56 85ad a210 44ad
00000170: 29ab 14ae f566 d4ad 3ff2 d3ad 2add 8ead
00000180: db87 53ad 8ce6 16ae 2069 d4ad cbec d3ad
00000190: b544 5cad 0ed7 6bad d151 81ad 5afd 83ab
000001a0: 6396 afab 9d21 5cad dfd9 6aad 1b79 81ad
000001b0: 3538 8bab 6868 c2ab 7435 9dad c932 aaad
000001c0: 6b86 29ae 5f44 acad a57f c4ad 7e82 8cad
000001d0: ed86 9aad c434 19ae 7ae2 8bad 6ddc b4ad
000001e0: 2fe1 8cad 2ad1 99ad 81c8 18ae 9936 92ad
000001f0: 38eb b7ad 6e5f 02ad 0936 5ead 67b2 5ead
00000200: bca3 1029 bd72 6dab 1d76 21ad 84ce 6aad
00000210: 20d4 6bad d4fb 6fab 06d8 9bab b1fb fdac
00000220: 3fd3 42ad f8fa fa2b 34ca 252d 8fe6 1c2d
00000230: a671 08ad 7e60 3aad 0e66 46ac 4bb4 292d
00000240: b863 fa2c 5c4b 4aad 4a3b 89ad d2c3 cfac
00000250: 9a57 7a2c b48b 9aad 12c4 68ad 0463 69ad
00000260: 5114 7cad 2327 aeab e9ac b3ab de7d 69ad
00000270: ce02 69ad 1567 7dad eb25 c1ab 3281 c7ab
00000280: a8e6 abad f96b aead a9cf 35ae fa73 c4ad
00000290: bb98 c5ad a533 9dad de67 9fad 9047 2aae
000002a0: f363 bbad a46e bbad 0cc0 9bad d3de 9dad
000002b0: 3e85 29ae 373b bbad 7d2f bbad 06ef 442d
000002c0: 0f6f 592d 8d6b 422d 2308 68ab 1bba b32b
000002d0: d170 2f2d 2ad9 532d 1d68 362d d237 b4ab
000002e0: c8b9 8a2a 0eae 562d e915 872d 4869 b4ab
000002f0: dfa4 68ad c9d4 912d 5c7e 802d 070a 8c2d
00000300: b675 2e2c 9a1f 00ac f46e ac2d c0eb 782d
00000310: 66cf 8a2d 34ee caab 9a2a 6ead 8ab7 a92d
00000320: 0e41 aeab 708f c7ab d622 eaad ca40 fdad
00000330: dd43 f3ad 6879 aeab 9bb9 c7ab 0818 f4ad
00000340: a257 04ae 0f66 05ae d285 afab 45de c8ab
00000350: 1986 f0ad 309a 04ae 985d 07ae ace3 08a9
00000360: 76ef 20a9 a890 88ab 8796 e3ab c9fd e6ab
00000370: 1757 72a7 e4df 08a7 6b4c a32a c832 13ab
00000380: 7d0f 86aa ccbe abab 5bb0 b9ab 6a49 08ae
00000390: 0329 f6ad e71e 04ae e38c 8fab 9543 72ab
000003a0: 479d e6ad 9e37 b9ad 2479 bbad db30 a7ab
000003b0: 338a b3ab 9ce7 faad 1f23 edad 8c35 fead
000003c0: 3a38 f4a8 6f43 07a9 9c71 c8ab 30d3 9dab
000003d0: 5bf7 ccab 93b2 81a6 162c 9227 0909 53ab
000003e0: 5615 1aab 4033 5dab 2e59 cc2b b1e1 ec2b
000003f0: d79a 072e 76b3 012e 6e4c 012e e26b cc2b

exp_avg_sq f4 [8, 8, 5, 5]
8.751182e-16 8.7867016e-16 8.8468907e-16 8.7242027e-16 8.6027493e-16 9.066225e-16 9.109775e-16 9.171348e-16
9.040325e-16 8.916286e-16 9.155513e-16 9.2027e-16 9.264629e-16 9.135931e-16 9.025264e-16 8.6768843e-16
8.6950833e-16 8.73558e-16 8.6079215e-16 8.5120665e-16 8.207708e-16 8.226703e-16 8.2691094e-16 8.1289593e-16
8.032582e-16 1.0548769e-15 1.0601497e-15 1.0703957e-15 1.0483403e-15 1.0268171e-15 1.0587773e-15 1.0633448e-15
1.0732573e-15 1.0513672e-15 1.0312089e-15 1.0717976e-15 1.0757739e-15 1.0850095e-15 1.0621212e-15 1.0421797e-15
1.0542506e-15 1.0572431e-15 1.0656442e-15 1.0433211e-15 1.0242502e-15 1.0432782e-15 1.0461403e-15 1.0541086e-15
1.0318672e-15 1.0130795e-15 8.8102634e-16 8.8389333e-16 9.013302e-16 8.7551565e-16 8.5122904e-16 8.972548e-16
9.001538e-16 9.178783e-16 8.914161e-16 8.6675796e-16 9.189107e-16 9.219571e-16 9.402611e-16 9.131554e-16
8.88099e-16 8.8422675e-16 8.870986e-16 9.048064e-16 8.788146e-16 8.5496155e-16 8.619407e-16 8.647369e-16
8.8205675e-16 8.570725e-16 8.3410617e-16 2.1741859e-16 2.1951232e-16 2.221953e-16 2.2031899e-16 2.2037362e-16
2.3548765e-16 2.3829821e-16 2.4144415e-16 2.3916566e-16 2.3898873e-16 2.5165322e-16 2.548567e-16 2.5822072e-16
2.5575869e-16 2.557008e-16 2.5516354e-16 2.5849913e-16 2.6169408e-16 2.5932316e-16 2.5941398e-16 2.551778e-16
2.5902125e-16 2.6264512e-16 2.6039767e-16 2.6051822e-16 2.9367027e-16 2.9340708e-16 2.9884739e-16 2.920257e-16
2.8383478e-16 3.0054336e-16 3.0037903e-16 3.0615368e-16 2.9881147e-16 2.9017705e-16 3.1222246e-16 3.1247795e-16
3.1875414e-16 3.1060828e-16 3.013294e-16 3.0675695e-16 3.0712314e-16 3.130763e-16 3.0491357e-16 2.9587144e-16
3.0287328e-16 3.0357198e-16 3.0934866e-16 3.0113625e-16 2.9209277e-16 1.9838356e-16 1.9868778e-16 1.9870028e-16
1.9357534e-16 1.8781612e-16 2.0625905e-16 2.0688172e-16 2.0685263e-16 2.0214043e-16 1.9655986e-16 2.1108545e-16
2.1198516e-16 2.1206321e-16 2.0810705e-16 2.0238014e-16 2.052021e-16 2.0640749e-16 2.0696486e-16 2.0377776e-16
1.9806776e-16 2.0042842e-16 2.0227854e-16 2.036405e-16 2.0085829e-16 1.9507545e-16 1.7114066e-16 1.713818e-16
1.7376813e-16 1.7070529e-16 1.6741735e-16 1.7608464e-16 1.7646398e-16 1.7918136e-16 1.758444e-16 1.7225298e-16
1.7870139e-16 1.7925921e-16 1.8225804e-16 1.7863914e-16 1.7487142e-16 1.7847428e-16 1.7934745e-16 1.8240169e-16
1.7875738e-16 1.7492744e-16 1.7774383e-16 1.7905868e-16 1.82276e-16 1.7871225e-16 1.7488512e-16 5.344738e-16
5.3607794e-16 5.475695e-16 5.3592765e-16 5.2328796e-16 5.2754445e-16 5.300619e-16 5.4121313e-16 5.296341e-16
5.1698254e-16 5.214077e-16 5.2454876e-16 5.363262e-16 5.247955e-16 5.1179573e-16 4.788422e-16 4.817879e-16
4.9241345e-16 4.8278146e-16 4.727188e-16 4.5824795e-16 4.604677e-16 4.7060214e-16 4.613647e-16 4.521157e-16
2.60889e-16 2.687289e-16 2.77584e-16 2.7229632e-16 2.65158e-16 2.6945643e-16 2.773463e-16 2.8657645e-16
2.815699e-16 2.745579e-16 2.754391e-16 2.8372912e-16 2.940809e-16 2.8922443e-16 2.8232977e-16 2.6524032e-16
2.7252817e-16 2.8187803e-16 2.7737266e-16 2.7079109e-16 2.6006678e-16 2.6663602e-16 2.7539524e-16 2.7095734e-16
2.643035e-16 4.240061e-16 4.3301079e-16 4.3406823e-16 4.3193214e-16 4.2400534e-16 4.2852675e-16 4.3685113e-16
4.3830474e-16 4.3671266e-16 4.292365e-16 4.2456169e-16 4.3255233e-16 4.3346413e-16 4.3165064e-16 4.2412078e-16
4.1548885e-16 4.2280878e-16 4.2353122e-16 4.2160536e-16 4.141957e-16 4.1183102e-16 4.188038e-16 4.194094e-16
4.1759555e-16 4.101706e-16 5.045256e-16 5.1419045e-16 5.2971005e-16 5.2169765e-16 5.084905e-16 5.1511975e-16
00000000: 533c 7c26 6a42 7d26 88fe 7e26 4175 7b26
00000010: 16f5 7726 77a8 8226 2349 8326 4d2c 8426
00000020: ea48 8226 4a7f 8026 e2f1 8326 f89f 8426
00000030: 7384 8526 a3a9 8326 5911 8226 1b18 7a26
00000040: 649e 7a26 34c9 7b26 401b 7826 f757 7526
00000050: 3292 6c26 5b1e 6d26 4257 6e26 224d 6a26
00000060: fe85 6726 1706 9826 9fc8 9826 a242 9a26
00000070: ee14 9726 ddfa 9326 fd95 9826 803e 9926
00000080: 35ac 9a26 9a84 9726 e59c 9426 5a76 9a26
00000090: 0d09 9b26 c95d 9c26 5b11 9926 a531 9626
000000a0: fbee 9726 635d 9826 5593 9926 c15b 9626
000000b0: 2a9c 9326 2c5a 9626 c4c3 9626 bee9 9726
000000c0: 2eb5 9426 0900 9226 45f0 7d26 d1c3 7e26
000000d0: 37e5 8126 a759 7c26 9e59 7526 dc4e 8126
000000e0: d0b9 8126 bb47 8426 7377 8026 73d3 7926
000000f0: d26d 8426 37de 8426 8381 8726 7d99 8326
00000100: 24fa 7f26 6bdc 7e26 53b0 7f26 7765 8226
00000110: 124d 7d26 076d 7626 ff6f 7826 523e 7926
00000120: 4d3c 7e26 ca08 7726 2c6a 7026 a4aa 7a25
00000130: 9a14 7d25 3d16 8025 b002 7e25 d012 7e25
00000140: d8bf 8725 9c5e 8925 de2e 8b25 9fde 8925
00000150: 83c4 8925 7611 9125 36ea 9225 a7da 9425
00000160: 526f 9325 c766 9325 7e17 9325 bd03 9525
00000170: 3bdb 9625 587d 9525 bf8a 9525 9919 9325
00000180: ca50 9525 9467 9725 ea1b 9625 b42d 9625
00000190: 154a a925 3e23 a925 1746 ac25 6357 a825
000001a0: 9f9e a325 5f40 ad25 1f28 ad25 4f7c b025
000001b0: ca40 ac25 9346 a725 e7fb b325 9b21 b425
000001c0: cfbf b725 b10d b325 5fb4 ad25 56d5 b025
000001d0: 600b b125 e879 b425 4dc5 af25 eb8e aa25
000001e0: 3598 ae25 51ff ae25 ce53 b225 de97 ad25
000001f0: 4961 a825 7eb8 6425 4812 6525 f915 6525
00000200: 5b2d 5f25 8989 5825 edcc 6d25 b584 6e25
00000210: 1f7c 6e25 530d 6925 3b9e 6225 6e5d 7325
00000220: fa66 7425 037e 7425 5cee 6f25 1354 6925
00000230: f894 6c25 bdf8 6d25 3f9d 6e25 94f0 6a25
00000240: 495b 6425 0714 6725 1636 6925 11c8 6a25
00000250: e792 6725 1ce8 6025 cf4f 4525 fb96 4525
00000260: 4d57 4825 4fcf 4425 e104 4125 0303 4b25
00000270: f972 4b25 0195 4e25 1bbc 4a25 1b98 4625
00000280: 5707 4e25 fbab 4e25 1421 5225 f8f4 4d25
00000290: ef9c 4925 4fc4 4d25 06c6 4e25 7a4b 5225
000002a0: de17 4e25 78ad 4925 b8ec 4c25 cb70 4e25
000002b0: 6126 5225 8c0a 4e25 faa0 4925 350d 1a26
000002c0: 9283 1a26 7fd3 1d26 7b78 1a26 d6d3 1626
000002d0: e90d 1826 aac7 1826 7bfe 1b26 19a8 1826
000002e0: 9402 1526 1949 1626 de30 1726 e395 1a26
000002f0: 1343 1726 dc83 1326 5104 0a26 acdd 0a26
00000300: b3ed 0d26 fc26 0b26 7e40 0826 bb14 0426
00000310: 85b8 0426 4fa4 0726 b5fa 0426 4050 0226
00000320: 6c64 9625 63e9 9a25 2b04 a025 d8f7 9c25
00000330: 6ada 9825 c054 9b25 17e1 9f25 3833 a525
00000340: 6250 a225 9845 9e25 a3c7 9e25 078f a325
00000350: ae86 a925 feb9 a625 85c0 a225 90e6 9825
00000360: 0f1a 9d25 db7d a225 fbe4 9f25 b619 9c25
00000370: 15eb 9525 88b4 9925 2ac1 9e25 3f32 9c25
00000380: 505c 9825 426c f425 1d9d f925 2a39 fa25
00000390: effd f825 256c f425 6307 f725 d9d3 fb25
000003a0: 5daa fc25 6abf fb25 2070 f725 3fbe f425
000003b0: 7559 f925 04e0 f925 64d4 f825 2e7d f425
000003c0: 5583 ef25 90bb f325 2d26 f425 f809 f325
000003d0: 7fc4 ee25 8867 ed25 886c f125 e7c5 f125
000003e0: 3aba f025 7f72 ec25 6b6b 1126 8f34 1426
000003f0: b4ad 1826 7e5e 1626 fa8f 1226 2179 1426

exp_avg f4 [8]
1.9050173e-08 -1.2150665e-09 -1.0802818e-10 -2.9604756e-05 -2.2659615e-06 -3.9437193e-08 -3.0425646e-08 1.3568152e-08
00000000: c6a3 a332 5aff a6b0 758e edae bb57 f8b7
00000010: ec10 18b6 a761 29b3 5aad 02b3 5d19 6932

exp_avg_sq f4 [8]
1.9506914e-13 3.4372746e-14 8.459702e-14 1.6237559e-08 3.8716568e-09 4.557507e-13 1.4155365e-12 7.5704205e-13
00000000: daa0 5b2a 14cd 1a29 dd7e be29 c57a 8b32
00000010: 7407 8531 4d48 002b 1438 c72b a116 552b

exp_avg f4 [1, 8, 5, 5]
-0.000120198914 -0.00014148073 -0.00018277125 -0.000180313 -0.0001953657 -0.00013242537 -0.00016022875 -0.00020517164
-0.00020468692 -0.00022149716 -0.0001578488 -0.0001901609 -0.00023456852 -0.00023456951 -0.00025331313 -0.00014486116
-0.00017440443 -0.00021541926 -0.0002137404 -0.00023212413 -0.0001278173 -0.0001550337 -0.00019347711 -0.00019087682
-0.00021014929 -0.00024455332 -0.00022799415 -0.00022356503 -0.00017891254 -0.00017473075 -0.00026149934 -0.000245262
-0.00024688203 -0.00020359826 -0.00020134734 -0.00029304976 -0.0002807015 -0.00028611565 -0.00024484668 -0.00024349021
-0.0002568806 -0.00024629015 -0.00025430231 -0.0002157733 -0.00021692723 -0.0002497844 -0.00024557454 -0.00025712873
-0.00022257218 -0.00022482098 -0.0010376216 -0.0010392548 -0.0010111389 -0.0010056779 -0.0009792413 -0.0010510557
-0.0010532715 -0.0010251376 -0.0010199657 -0.0009933697 -0.0010443937 -0.0010459237 -0.0010177629 -0.0010128568
-0.0009865391 -0.0010464003 -0.0010492167 -0.0010228354 -0.0010189068 -0.0009936687 -0.0010346164 -0.0010380866
-0.0010128582 -0.001009767 -0.0009853722 -0.0009993915 -0.0010047382 -0.0009839011 -0.0009874562 -0.0009605008
-0.0010158094 -0.0010218107 -0.0009998558 -0.0010027708 -0.00097453676 -0.0010173576 -0.0010225791 -0.0009993822
-0.0010012706 -0.0009717584 -0.0010270727 -0.0010328817 -0.0010099974 -0.0010110659 -0.000981074 -0.0010215029
-0.001026832 -0.0010036412 -0.0010038093 -0.0009737546 -0.00052837573 -0.0005445145 -0.00054450124 -0.00049958244
-0.0004730334 -0.00057496066 -0.0005870203 -0.0005846973 -0.0005295562 -0.0005007865 -0.0006090485 -0.000624287
-0.0006236667 -0.0005648282 -0.0005340959 -0.0006034097 -0.0006244835 -0.00063033 -0.00057082326 -0.0005377748
-0.00059429544 -0.0006242925 -0.0006382122 -0.00058839266 -0.0005581492 -0.00043770036 -0.0004704452 -0.00048388602
-0.00049664534 -0.00050368474 -0.00045735115 -0.00048598213 -0.00049606885 -0.000509687 -0.0005180543 -0.00046210122
-0.0004890952 -0.0004988641 -0.0005132638 -0.0005266882 -0.00049331045 -0.00052108325 -0.0005298388 -0.0005397528
-0.00055068993 -0.0005325672 -0.0005669544 -0.00058056996 -0.00058589096 -0.00058890687 -0.0007293538 -0.0007307967
-0.00071192527 -0.00071363366 -0.0007064245 -0.0007584002 -0.0007582417 -0.00073619146 -0.0007338781 -0.00072357163
-0.00077693624 -0.00077611324 -0.00075200567 -0.00074625685 -0.0007312839 -0.0008024599 -0.00080092996 -0.0007757118
-0.00076524063 -0.00074552064 -0.00081255607 -0.00081016513 -0.00078356627 -0.00077170454 -0.0007507429 0.0005797713
0.0005525268 0.0005023662 0.00046417824 0.00044434148 0.00058575347 0.0005674269 0.00052198506 0.00048730546
0.00046843954 0.0005799011 0.00057177217 0.00054006244 0.0005155452 0.0004996232 0.0005667826 0.00056838786
0.00055041147 0.0005429538 0.0005359772 0.00051315106 0.00051704363 0.0005100057 0.0005161532 0.0005239961
00000000: 4d13 fcb8 725a 14b9 49a6 3fb9 6712 3db9
00000010: 15db 4cb9 aadb 0ab9 1403 28b9 5823 57b9
00000020: 3aa1 56b9 b141 68b9 3784 25b9 ee65 47b9
00000030: 82f6 75b9 c6f6 75b9 1dcf 84b9 dfe5 17b9
00000040: 55e0 36b9 2be2 61b9 801f 60b9 5966 73b9
00000050: b206 06b9 8b90 22b9 1ee0 4ab9 1b26 48b9
00000060: 855b 5cb9 6437 80b9 b711 6fb9 c86c 6ab9
00000070: 789a 3bb9 ee37 37b9 d919 89b9 8296 80b9
00000080: f26f 81b9 fe7c 55b9 c420 53b9 79a4 99b9
00000090: 1e2b 93b9 cb01 96b9 c45e 80b9 6851 7fb9
000000a0: eead 86b9 8120 81b9 e153 85b9 3441 62b9
000000b0: f676 63b9 7ff5 82b9 75c0 80b9 3ccf 86b9
000000c0: 4462 69b9 ecbd 6bb9 ce00 88ba 9b37 88ba
000000d0: 3188 84ba f3d0 83ba e359 80ba 94c3 89ba
000000e0: ed0d 8aba e95d 86ba 5fb0 85ba f533 82ba
000000f0: 0ae4 88ba 6017 89ba 7566 85ba d6c1 84ba
00000100: c24e 81ba 5e27 89ba df85 89ba a910 86ba
00000110: d78c 85ba fd3d 82ba f79b 87ba 6810 88ba
00000120: e2c1 84ba 285a 84ba 9b27 81ba 04fe 82ba
00000130: 6bb1 83ba 3ef6 80ba 886d 81ba 1eca 7bba
00000140: e824 85ba 47ee 85ba 980d 83ba 686f 83ba
00000150: 0e78 7fba db58 85ba 1008 86ba b4fd 82ba
00000160: 113d 83ba 9abd 7eba d79e 86ba c261 87ba
00000170: e461 84ba be85 84ba 6197 80ba f3e3 85ba
00000180: c496 86ba 9c8c 83ba 4092 83ba 9143 7fba
00000190: b282 0aba c0bd 0eba dcbc 0eba 69f6 02ba
000001a0: 7801 f8b9 f5b8 16ba 44e2 19ba 5f46 19ba
000001b0: ead1 0aba 3747 03ba 8ea8 1fba 31a7 23ba
000001c0: 907d 23ba fb10 14ba 9202 0cba 242e 1eba
000001d0: 61b4 23ba bb3c 25ba 4da3 15ba 75f9 0cba
000001e0: 7eca 1bba 8fa7 23ba b24d 27ba 5d3e 1aba
000001f0: c250 12ba 267b e5b9 16a6 f6b9 15b2 fdb9
00000200: 4e31 02ba b609 04ba a2c8 efb9 6bcb feb9
00000210: 9e0a 02ba 849c 05ba 09ce 07ba 2d46 f2b9
00000220: a036 00ba 34c6 02ba 8d8c 06ba 7211 0aba
00000230: 8151 01ba 4e99 08ba e1e4 0aba 327e 0dba
00000240: 2d5c 10ba fb9b 0bba aa9f 14ba 6431 18ba
00000250: 7a96 19ba df60 1aba 1b32 3fba f092 3fba
00000260: 7fa0 3aba 2513 3bba 582f 39ba 60cf 46ba
00000270: bdc4 46ba f9fc 40ba ba61 40ba 12ae 3dba
00000280: 4fab 4bba 1474 4bba 3f22 45ba 73a0 43ba
00000290: a2b3 3fba 2c5c 52ba 80f5 51ba 2359 4bba
000002a0: 6e9a 48ba 0b6f 43ba b701 55ba 4361 54ba
000002b0: 3e68 4dba 374c 4aba 81cd 44ba cbfb 173a
000002c0: 72d7 103a 3ab1 033a f35c f339 81f6 e839
000002d0: 408d 193a 60bf 143a d3d5 083a 087d ff39
000002e0: e498 f539 8104 183a fbe2 153a fa92 0d3a
000002f0: a725 073a 25f9 023a 2394 143a ddff 143a
00000300: 7d49 103a 0355 0e3a d280 0c3a fc84 063a
00000310: 368a 073a e7b1 053a 744e 073a c85c 093a
