outputs/Fiedor_ConvRNN_D3_K5_H10_SS4_1_04_22-42-03/checkpoints/model-epoch=00-validatgion_loss=0.00.ckpt (torch, 243345 bytes, 54 tensors)

model.bias f4 [10]
00000000: 8a79 d3be 84d8 dc3d ac99 603f 5aa8 24bf
00000010: 1f27 bebe 9dcb c3be 9176 87be 070a f23f
00000020: 269f 0440 b28e 26bf
-0.41303664 0.107834846 0.87734485 -0.64319384 -0.37139222 -0.38241282 -0.26457646 1.890931
2.0722136 -0.65061486

model.input_layers.0.weight f4 [10, 1, 5, 5]
00000000: 0744 84be c369 71be dc5c 6f3d 617b 8a3d
00000010: 48ec 60be 3760 b83d b4f7 7abd 5635 023d
00000020: fdf7 c33d d535 f33d e24b 86be 5aa7 f3bd
00000030: 566b 68be 598c aabc b60e e63d bc79 5ebe
00000040: 0885 ffbd 0fc1 88be 8eef c03d 036d 12be
00000050: 44b7 96be 1d5a eebd 7446 903c 27fd 83be
00000060: a0b8 a3bd 86fb ffbd 9f13 04be 7d9f 593d
00000070: c917 84bc 80a7 033d 40bd f7b9 8b59 ed3c
00000080: ab57 8bbd 49bb 7cbd c523 093e f301 17be
00000090: 60a6 f23d cf26 893d 1368 483e 52b7 20be
000000a0: 3749 e5ba 607a e6bd 7455 a43d 309c b1bd
000000b0: 9af8 183d 59ce 743d 0fcb 433e 1741 2bbe
000000c0: 8633 38bd baea 05bd cba7 83be 4a47 15bd
000000d0: 322f 073b 400e 8e3d ae72 6cbd c8f5 46be
000000e0: acf7 883c 324f 033c 5a73 b33b 995a e0bd
000000f0: 5991 8abe a44e a3bd 2f44 5dbe b297 7ebe
00000100: b274 18bd 39a2 8abe 9aae 0d3d 55f8 95be
00000110: 9ec9 11be 1188 103d 1101 a0bd 9b4c fd3b
00000120: d9a4 46bd 80cc 54be 4cc4 9abe 22a1 38be
00000130: 7894 57bd 852e 39be f2d4 783c 377c 69be
00000140: 1b81 94bd d6a9 6cbd 6cc9 993c 389a fb3d
00000150: c7e5 253e 0f9d 9dbd b5f7 98bd f3ea fabd
00000160: c20b 093e 0792 fdbc 0b18 43be f118 18be
00000170: 15b7 943d 0467 1c3e 4a8b 7abd 23fd 5dbd
00000180: 5b52 45be 2eca 37bd 6d1a 24be 85e1 e7bc
00000190: 083a 19bd 8af6 b53c b2a7 6abe 94c4 9f3d
000001a0: e37f cc3d 1707 50be 647c 593d b0f7 56be
000001b0: 068b 11be bb7b 1ebe d2b9 893c 8009 5bbe
000001c0: 1657 3f3d bfb5 f2bd 74ca d33d e1ab c93d
000001d0: 3996 183e 2349 0d3e 7911 89bd e0fd e43d
000001e0: 7c57 60be e17d 75be 542a 3ebe b142 af3d
000001f0: cc0d ea3c 5529 62be 6973 4abe c4e4 25be
00000200: 1419 7dbe 1cec d3bc 180c 143d 0232 61be
00000210: 856c f5bd 2bba 6abe b33f 15be 26ce d4bd
00000220: d682 853d 9bc4 c83d 0191 a83d ea22 d93d
00000230: 7409 af3d 328c 1c3d a1f8 19be f839 cf3d
00000240: ffaa c63d 2a09 ac3d 5aa9 553e 9246 3c3e
00000250: 0d4e 4c3e 9c45 f83d c41b debd 4a66 2dbd
00000260: fdad 453e 8557 443e 4cfb 1fba 1f2f 1b3d
00000270: 5062 bcbd bb79 993b 091c 8cbd 8009 16be
00000280: 4948 94bd f942 b7bd f6be 4a3e 9662 163e
00000290: 6d87 04be 995d e13d cdf6 14be 6972 1f3e
000002a0: 2c7b 3cbe 599f 123e b69f c4bd a476 b7bd
000002b0: 3886 febb 8272 083d 19da 34be 33f2 91be
000002c0: 0af0 b1bd 1527 59bb a799 f2bc 315e 0ebb
000002d0: 8ad7 9bbe e9b5 6abe 5b91 dd3b eaaf fdbd
000002e0: 2a53 34be 67d9 a0be a4ce 81be 1d12 2c3b
000002f0: 9aa6 97be 0594 8fbe 34e0 99bd 8e4d 4dbe
00000300: dc1f 323d ec7d 34be 8952 95be aa3f c33a
00000310: 2372 a53c 5baa 0ebe 08e0 5e3d cee2 08bc
00000320: e214 363e 5cbd f23d ed29 5d3e 76de 033e
00000330: 3ee0 463e 1114 6f3e bed3 00be 35db ca3d
00000340: 01fc 383e 8ca7 f5bc 52b0 5d3e a30a 4abd
00000350: 5ff8 80bd 602b 223d 7e18 563e f8be e2bd
00000360: 33d9 173e 5c7a 143e 3790 493c 08a8 93bc
00000370: db31 10bd 8c82 e53d 818c 213d 8532 e7bc
00000380: 0d95 b6bd 2f13 babd a1f3 96be 49c2 ac3d
00000390: a014 5dbc 8ab3 34be aa2a bcbd 6624 3ebe
000003a0: d1bc 3bbe 1517 56be 3ce3 67bd e12d 19be
000003b0: c190 c7bd 2e88 84be b845 84be f523 5a3d
000003c0: 2fe2 45be f1df 0ebe 10c7 3abe f186 85be
000003d0: b9a8 30be 1f0e 76be d4fd 94bc d3a1 0dbe
000003e0: e7fe 893d ae63 67be
-0.2583315 -0.23575501 0.058438167 0.06761814 -0.21965134 0.090027265 -0.061271384 0.031789146
0.095687844 0.11875502 -0.2622977 -0.11897154 -0.22697195 -0.020818876 0.11233275 -0.21726125
-0.124765456 -0.26709792 0.094206914 -0.14299397 -0.29436696 -0.116382815 0.01761172 -0.25779077
-0.07994199 -0.12499146 -0.1289811 0.053130616 -0.016124623 0.032142162 -0.00047252513 0.028973361
-0.06803831 -0.061702047 0.13392551 -0.14746837 0.1184814 0.06696855 0.19570951 -0.15694931
-0.0017493133 -0.1125381 0.080241114 -0.086723685 0.03734646 0.0597671 0.1912043 -0.16724049
-0.04497101 -0.032694556 -0.25713953 -0.03644494 0.0020627496 0.06936312 -0.057726555 -0.19429696
0.016719662 0.008014487 0.0054763975 -0.1095478 -0.27064016 -0.07973984 -0.21608041 -0.24862555
-0.037220664 -0.2707689 0.03459034 -0.29291025 -0.14237067 0.035286013 -0.078127034 0.0077300793
-0.048497055 -0.20781136 -0.30227888 -0.18030217 -0.052631825 -0.18084152 0.015187489 -0.2280129
-0.072511874 -0.057779156 0.018772803 0.12285274 0.16200934 -0.07695972 -0.07469121 -0.12251844
0.13383391 -0.03095342 -0.1905214 -0.14853264 0.072614826 0.15273672 -0.061167993 -0.054196488
-0.19269697 -0.044870548 -0.16025706 -0.028305778 -0.03740886 0.022212286 -0.22915533 0.07801166
0.0998533 -0.20315205 0.053097144 -0.20992923 -0.1421319 -0.15476887 0.016812239 -0.21390343
0.04671391 -0.118510716 0.10341349 0.098472364 0.14901055 0.1379743 -0.06692786 0.11181235
-0.21908373 -0.239738 -0.18570834 0.08557642 0.028571032 -0.2208608 -0.19770588 -0.16200548
-0.24716598 -0.025869422 0.036144346 -0.21991733 -0.11983589 -0.2292258 -0.1457508 -0.10390882
0.065190956 0.098031245 0.08230782 0.106023625 0.08546725 0.03821964 -0.1503625 0.101184785
0.09700584 0.084001854 0.20865384 0.18386295 0.19951649 0.12122652 -0.108451396 -0.04233388
0.19304653 0.19174011 -0.0006102815 0.037886735 -0.09198439 0.004683701 -0.06841285 -0.14652061
-0.0724035 -0.08948321 0.19799408 0.14686045 -0.12942286 0.110041805 -0.14547272 0.15570988
-0.18406361 0.14318599 -0.09600775 -0.08958176 -0.007767465 0.03331233 -0.17661323 -0.28505096
-0.08688362 -0.0033134867 -0.029614283 -0.0021723623 -0.3043788 -0.22920956 0.0067617125 -0.123870686
-0.1760985 -0.31415865 -0.25352967 0.0026255914 -0.29619294 -0.28042617 -0.075134665 -0.20049116
0.043487415 -0.1762616 -0.29164532 0.0014896293 0.020196026 -0.13932173 0.05441287 -0.008354856
0.17781404 0.11852524 0.21598025 0.12877831 0.19421479 0.23347498 -0.12580773 0.09905092
0.18064882 -0.02998712 0.21649292 -0.04932655 -0.06297373 0.039592147 0.2090778 -0.11071581
0.14828949 0.14499801 0.01230245 -0.01802446 -0.035203796 0.112065405 0.039440636 -0.028222332
-0.08915148 -0.0908569 -0.2948275 0.084354945 -0.013493687 -0.17646614 -0.09187825 -0.18568572
-0.18333746 -0.20907243 -0.056613192 -0.14958908 -0.097444065 -0.25885147 -0.2583444 0.053256948
-0.19324563 -0.13952614 -0.18239999 -0.26079515 -0.17251863 -0.24028824 -0.018187441 -0.13831262
0.06738072 -0.22596619

model.input_layers.0.bias f4 [10]
00000000: 6a27 1dbe a76a 5abd 53ec f03d 799a 733d
00000010: 15ee 04be 251a 4a3c 0151 f7bd cd4d 0c3d
00000020: d8ab 583d 0154 153e
-0.15347067 -0.053324368 0.11763825 0.05947349 -0.12981446 0.012335335 -0.12075997 0.034253884
0.052898258 0.14582826

model.input_layers.1.weight f4 [10, 10, 5, 5]
00000000: ec33 c9bc 89af a2bd 7121 88bd 20f9 493c
00000010: e7ed 863a e138 a7bd dc7f 2ebd dedb a0bd
00000020: ddca 9ebd 92cc d3bc e5f6 f1bd 48d3 babc
00000030: 2588 f5bc d873 91bd 3914 5ebd 98a8 52bd
00000040: 07f3 a1bc 807c f7bd 632e 99bc 869b 0d3b
00000050: d87d 95bd be1d 08bd c130 b7bd 5044 e2bc
00000060: e855 6dbb 2235 ff3c eb2f 37bc dc87 9e3c
00000070: 272d db3a 396b a13c 211e 89bc 549d 513c
00000080: d80c f73b 4b57 49bc a62b 39bd 512d 52bc
00000090: 4ed8 ce3b 34e1 90bc 72c2 71bd 129a 88bd
000000a0: 62a4 62bc 19f0 7cbd 0f79 463b bcf6 12bc
000000b0: d20e 683d 3d4b 1cbd 9a66 153d 4b40 1e3d
000000c0: d4ab 07bd f233 5cbd 819e 2bbd ed0a 9bbc
000000d0: 241e 98bc 6233 e3bd c36b abbd 08ff 85bd
000000e0: 9b8b 94bb 615d b0bd 88e4 83bc 627f e5bd
000000f0: e686 ccbd de75 66bd d36f 26bc 2bf5 b2bd
00000100: 3728 b4bd 87e6 57bd b358 a3bd 282c a3b8
00000110: c249 d2ba 5684 25bd 81db febd ed89 75bb
00000120: 5423 2fbc 01e1 d2bd e8e1 c1bb 8666 473c
00000130: 62ae b8bc d003 b73c b3c4 e7bb 46ae 183d
00000140: 18a0 6b3c 1ac0 82bd 3f00 49bc bc11 123d
00000150: 90bb 61bd f4af fd3a 209c 64bd 99d5 3dbd
00000160: 9576 873b b3d7 44bc bf8a 09bb 0d53 c23c
00000170: efdb febc 5b8e e23c aef7 ac3c 42f8 b3bd
00000180: 875e c5bc 47d9 9cbc 24a5 0a3d 81ad 2bbd
00000190: aa66 a1bd 8c7d 243d 690e 3f3d 9b93 72bd
000001a0: e9e2 73bd 720e 25bd 5203 7dbc f88b 163d
000001b0: 697c 1d3d ed67 1cbd 4e12 82bb 1cca 9a3c
000001c0: c2a5 2dbd 37da 22bc 1bd4 7bbd 63fa 88bc
000001d0: f3ed 113d 8956 a6bc 44a5 bdbc 38ab 973c
000001e0: 8b58 e7bb 80a0 393d 0cbe 37bd fedf adbc
000001f0: e438 543d dcd8 5cbd 497d cbbd 2de6 04bd
00000200: ab1f bbbd e685 bd3b bbd0 e9bd ad6c d0bd
00000210: 2c2d 3fbd 6203 b9bd f3c5 aebd c6ca b7bd
00000220: ac8b dbbd 562d 32bc aee0 9e3c 3bd7 01bc
00000230: c9cf bebc 224d 82bd 8ed8 aebb 554d d03c
00000240: 3056 83bd 6615 78bd adff a93b 6ffe 3ebd
00000250: c973 03bd 0de5 113b e216 50bd 4292 ebbc
00000260: 1bb0 0d3d 92fa a7bc a4bd 4bbd 1d11 8bbd
00000270: b7d4 efbc 6c5d 453d 4c27 0f3b 4db5 963c
00000280: ab3e 24bd 3aee 8f3c 8489 08bd 00a4 283d
00000290: e952 22bd 34bc a0bd 9ecf 17bc 329c c03c
000002a0: e15f 2fbd 3151 4ebd bfc5 a5bd 43ad 60bc
000002b0: 32a4 923c d74d 96bc 2cb9 2bbd 6e59 9fbd
000002c0: d83d 71bc e94d 54bc 0b44 91bd ad5b dc3c
000002d0: 31e4 67bd a0a2 053c 2565 00bd 87ea 81bc
000002e0: 305a c63c b923 33bd c7f7 9a38 6cab 813c
000002f0: 2c58 27bd efed ca3c e1fc 84bd f38d 9cbd
00000300: 8b82 74bd cfdb a2bc e579 8cbc f1c0 12bd
00000310: 0670 aabd 1fdc b43c bb69 fb3c e258 28bc
00000320: a7e9 69bd ac7e 17bd f93f 0bbc 1f50 b7bd
00000330: 9daf cb3b 0748 13bd 6e8b 0cbd 4447 a8ba
00000340: 2b03 96bd 7804 c9bd 4596 ca3c c8a5 c4bd
00000350: 0df3 afbd 5a73 f9bc 9d47 b0bd 1154 93bd
00000360: 39d4 a0bd fd2c 6fbc 242f 96bd 5d54 09bd
00000370: d7a3 b0bd 037e 4dbd 8319 c3bd 0025 25bd
00000380: b2e9 f9bc b20b b1bd f530 843c 5107 15bc
00000390: 29b5 0ebd d1da c33c 5352 04bd a71e a0bd
000003a0: bd6e cebc 0819 a8bc 4dce 0ebd b696 a0bd
000003b0: 91a7 97bc fea1 85bd ef8b b0bd f4c5 a6bd
000003c0: 9fd4 6dbd dcdc d8bc 8600 8cbd d82f b63c
000003d0: d87d 9a3a 5d9e d83b ad77 c5bb 78b0 babd
000003e0: 1f5b 233c 4a32 95bd d1d9 06be ffbf edbc
000003f0: 25e2 76bd 0cc3 23bd e9e4 74bb 2d19 abbd
-0.024560891 -0.07943637 -0.066470034 0.012327462 0.0010294289 -0.08165146 -0.042602405 -0.07854436
-0.07753537 -0.025854383 -0.118146695 -0.022805825 -0.029972145 -0.071021736 -0.054218505 -0.051430315
-0.019769205 -0.12084293 -0.018698877 0.0021607592 -0.072993934 -0.03323149 -0.08944846 -0.027620465
-0.0036214534 0.031153265 -0.011180858 0.019351892 0.001672183 0.019704448 -0.016738 0.012793858
0.007539373 -0.012288879 -0.045207642 -0.012828187 0.0063124066 -0.01768551 -0.059023328 -0.066700116
-0.013833137 -0.061752412 0.003028456 -0.008969959 0.05665476 -0.03815769 0.0364748 0.038635533
-0.033122852 -0.053760476 -0.041899208 -0.018926108 -0.01856906 -0.11093785 -0.08370163 -0.06542784
-0.004533244 -0.086115606 -0.016100183 -0.11205937 -0.09986667 -0.05626475 -0.010158497 -0.08738168
-0.08796733 -0.052710082 -0.079759024 -7.7806704e-05 -0.001604371 -0.04040941 -0.12444211 -0.0037466243
-0.010689575 -0.10296822 -0.0059168227 0.01217044 -0.02254409 0.022340685 -0.007073009 0.037275575
0.014381431 -0.06384297 -0.012268125 0.035661444 -0.055110514 0.0019354806 -0.055812955 -0.04634628
0.004134009 -0.012014317 -0.002098724 0.023721242 -0.031110732 0.027655771 0.021114197 -0.08787586
-0.024092926 -0.019146575 0.033848897 -0.041913513 -0.0788091 0.040158793 0.046644602 -0.0592228
-0.05954257 -0.04029698 -0.015442686 0.03675458 0.038448725 -0.03818505 -0.0039694672 0.018895201
-0.042394407 -0.009939722 -0.061481576 -0.016720956 0.035627317 -0.020304935 -0.023150094 0.01851426
-0.0070601157 0.04531908 -0.044858977 -0.021224972 0.051812068 -0.05391775 -0.099360056 -0.032446075
-0.091368996 0.005783784 -0.11416765 -0.10176978 -0.04667394 -0.09033848 -0.085338496 -0.08974223
-0.1072 -0.010875067 0.019394245 -0.00792485 -0.023292439 -0.06362368 -0.005335874 0.0254275
-0.06412923 -0.060567282 0.0051879496 -0.046629366 -0.032092843 0.002226177 -0.050803073 -0.028756265
0.034591775 -0.020505223 -0.049741402 -0.067903735 -0.029276235 0.048184797 0.002184349 0.018396998
-0.040098827 0.01756965 -0.03333427 0.041172028 -0.03962985 -0.07848397 -0.009265808 0.02351198
-0.042816047 -0.0503704 -0.08094358 -0.013713184 0.01790056 -0.018347664 -0.04192464 -0.07780729
-0.014724217 -0.012958028 -0.07093056 0.026899183 -0.056614105 0.008156449 -0.03134646 -0.015858902
0.024212927 -0.04373524 7.389444e-05 0.01582881 -0.04085557 0.024771659 -0.06493545 -0.07644262
-0.059694808 -0.019880204 -0.017147968 -0.035828535 -0.08322148 0.022077618 0.030690065 -0.010275098
-0.057107594 -0.036986038 -0.008499139 -0.08950829 0.006216003 -0.035957363 -0.034312658 -0.0012838622
-0.07324823 -0.098153055 0.024729857 -0.09601933 -0.0859128 -0.030450512 -0.08607409 -0.07193769
-0.07852978 -0.014598128 -0.0733321 -0.03352772 -0.08625 -0.050169002 -0.0952635 -0.04031849
-0.030506942 -0.08644809 0.016136626 -0.009095983 -0.034840737 0.02390805 -0.032305073 -0.078183465
-0.025199289 -0.020519748 -0.034864713 -0.07841246 -0.01851252 -0.06525038 -0.0862044 -0.08143225
-0.0580641 -0.026472501 -0.06836037 0.02223961 0.0011786772 0.0066106752 -0.0060262294 -0.0911569
0.009970455 -0.072849825 -0.13169028 -0.029022215 -0.060274262 -0.039980933 -0.0037367886 -0.08354411

model.input_layers.1.bias f4 [10]
00000000: c71c 80bc a866 d4bc 280a 963d f0ae 8e3d
00000010: 18e9 b4bd 9f8d 3bbd b7fe d9bd 81e4 4bbd
00000020: b4df 4a3c bbd0 27bc
-0.015638722 -0.025927857 0.07326156 0.069669604 -0.088335216 -0.045789357 -0.10644286 -0.049778465
0.012382437 -0.010242636

model.input_layers.2.weight f4 [10, 10, 5, 5]
00000000: 7f1a 55bc bce2 83bc 0054 e4bd e138 b43b
00000010: e97e a6bd efce a3bd 9cc6 66bd 446f 02bd
00000020: ed37 eaba 109d d6bb 7bc9 47bd c6b7 16bd
00000030: 3364 6ebc c1ae fa3b ca78 8abc 9fe7 98bc
00000040: f7c9 77bd 291d a5bc 9009 8bbc e224 61bd
00000050: d0e7 09bd bcf6 20bd fd46 96bd 8002 71bc
00000060: 09a9 a8bc 17f3 cdbc 94fe d9bc 586d 3f3b
00000070: 364e f5bc ccdf 5cbd a6dd d2bd f577 e6bc
00000080: 90ca 2ebd acdc b2bd 9045 75bc 6d80 a9bd
00000090: 65bd 00bc e50c 143b dd9b 82bb 9f04 dabd
000000a0: f30c a8bc 2cba 9ebd 7a3b 70bd 8f45 9d3a
000000b0: 26ec d8bd 7099 88bd 9aae 92bd 4023 9ebd
000000c0: 5cb0 41bd 23b8 51bd ee6f 0dbd 906e b8bd
000000d0: 59bd 683b 31fe 3ebd 706f 3ebd 17f9 54bd
000000e0: 5ff9 7f3c afa5 b5bd 034e eabd f06a 053b
000000f0: 2364 5b3c c6b2 cfbc 4dab 29bd 0c38 cdbd
00000100: 7522 30bc 3175 8cbb 6647 a0bd 1f7f 9fbd
00000110: f80f 77bd 8479 6fbd acfb e3bc 593e b4bd
00000120: 2d5e 95bc 635f bfbd dae1 b03b 5327 8dbd
00000130: 8b1e 2dbd a799 b2bd 55f4 cfbc ba1d 48bd
00000140: 93c7 86bd 2962 d3bd 2a7f a8bd 24dd bbbd
00000150: db48 87bc f0f2 06be 0ce6 68bd 7799 bbbc
00000160: 3e75 83bd f33c 9cbc c4c7 f6bd 02c1 acbd
00000170: 0889 8bbd 3f5e 9dbd c0c7 8dbc 2851 bfbd
00000180: bae8 a3bc 6dfb 83bc 111c 28bd 801e a2bd
00000190: d7d3 8bbd 43f6 3abd e0d4 3cbd c1da acbd
000001a0: f7c7 98bd d48d 72bc 9223 cabd 1445 83bc
000001b0: 0fd1 f0bd 58fc 82bd d165 493c a2f2 38bd
000001c0: 4235 07bd 6856 84bd 4182 95bd 607d 04bd
000001d0: c5e7 283c 13b3 0ebd aa9a 51bd d175 2ebd
000001e0: c461 043c 9028 253b 5cc7 a2bd 5694 f7bd
000001f0: 88a7 efbd 81b2 de3d a778 753d a995 ef3d
00000200: dc08 f23d b8be 1f3b c99f bc3c 5ea8 953c
00000210: 0a0b 303d fcd6 b33d e00d d33c 774b 7ebd
00000220: 30e2 293d fe13 ac3b 9627 e13b 030b 953d
00000230: 9204 27bd ffa4 e8bd 9722 5c3d ad91 0d3d
00000240: 45be ed3c 0d2f c1bd d443 a0bd 4d27 2bbc
00000250: fff4 c53d d445 f13c 9fee 5e3d 3ad1 393d
00000260: d03c 2b3c df5c da3d dfca cd3d 5113 273d
00000270: be9d 813d b544 b0bd 63e1 02bd af49 b5bd
00000280: 38e6 593c ff05 69bd 7ee7 e5bc 9884 5bbd
00000290: 1ffb d6bd 9183 73bd a70b 03bd f07d 0bbd
000002a0: d336 f0bd 9cfc a6bd 2726 95bc 455c 92bd
000002b0: 8f05 b0bd 7b91 50bc d8cd c4bd ff08 863d
000002c0: d6e9 ae3d 86ae 813c f8a9 df3d 1251 823d
000002d0: 22ee 933d 3ff3 7f3b 854e d83d cb18 aa3d
000002e0: f189 7d3d 99b4 273a cd6a 803d eb33 c23d
000002f0: 85f4 1f3d 6d35 ca3c 4a82 dc3d 1e6c 9e3d
00000300: 1760 e93d c4f6 ef3d 5c4b d73c 187c 053c
00000310: 68d1 1e3c ea97 f63d 2680 5f3d 98ac e73d
00000320: e510 ecbd 9da7 a8bd bddb 8ebd 49e6 c6bd
00000330: cf53 28be 218f 00be 1cb4 56bd 7d04 92bd
00000340: 87da e3bd 2116 08be 6905 1ebe 7907 d5bd
00000350: 7949 6dbd fd47 19be 7d17 02be 07b6 f4bd
00000360: 133a 98bd ffb8 d7bd d336 27be c1e7 04be
00000370: b0f0 05be 0c98 e0bd c72f 19be 7168 1fbe
00000380: 0d76 0abe 1e3b d1bd cbd4 d9bd 1fd0 5cbd
00000390: a102 7b3c ff25 0f3d 1e8f 0abe e7bf 1ebe
000003a0: 8fb8 85bd f690 3dbd b229 dfbd 5294 dfbd
000003b0: decf c5bd 53a4 57bd 8937 92bd e509 16be
000003c0: 7337 46bd 9dc5 23bd 21e1 0bbe d89e afbd
000003d0: 0b95 c1bd 91dd 1ebd 3f08 debd 34e1 79bc
000003e0: 6210 cfbd b52a bbbc b572 56bc 2add 89bc
000003f0: 0fad e2bc 2cb5 54bd eb60 40bc f572 dbbc
-0.013006805 -0.016099326 -0.11148834 0.0054999446 -0.08129675 -0.07998454 -0.056341752 -0.031844392
-0.001786945 -0.006549485 -0.04877613 -0.036796354 -0.014550257 0.007650227 -0.0169033 -0.018665133
-0.060495343 -0.020155506 -0.016972333 -0.054966815 -0.03366834 -0.039297804 -0.07337759 -0.014710069
-0.020588415 -0.025140328 -0.02661065 0.002920946 -0.02994452 -0.053924367 -0.10296182 -0.028133372
-0.042673647 -0.08733496 -0.014970198 -0.082764484 -0.007857655 0.0022590694 -0.0039858655 -0.10645413
-0.020513987 -0.07750353 -0.05865047 0.001199888 -0.10591917 -0.06669891 -0.07162209 -0.07721567
-0.04728733 -0.051200997 -0.034530573 -0.09005463 0.003551325 -0.046629135 -0.046492994 -0.051995363
0.01562342 -0.08869492 -0.11440661 0.002035793 0.013390574 -0.0253538 -0.04142313 -0.10020456
-0.010750403 -0.0042864312 -0.07826118 -0.07787918 -0.060317963 -0.058465496 -0.027829967 -0.08800954
-0.018233383 -0.093443654 0.0053980174 -0.06892266 -0.042265456 -0.08720713 -0.025385061 -0.048856474
-0.065810345 -0.10321457 -0.082273796 -0.091730386 -0.016514232 -0.13178611 -0.056860015 -0.022900326
-0.064188465 -0.019072032 -0.12049821 -0.08435251 -0.06813246 -0.07683992 -0.017307162 -0.09341651
-0.020008434 -0.0161111 -0.04104239 -0.07915974 -0.068275146 -0.04564501 -0.04610145 -0.084401615
-0.07460015 -0.014804322 -0.09870066 -0.01602415 -0.11758625 -0.06395787 0.012292341 -0.045153268
-0.033009775 -0.06461793 -0.073002346 -0.03234613 0.010309164 -0.034838747 -0.05117289 -0.042592827
0.00807995 0.002520118 -0.07948181 -0.1208884 -0.11701876 0.10873891 0.059929516 0.11698467
0.11818096 0.0024375152 0.02302541 0.01826876 0.042979278 0.087812394 0.025763452 -0.062083688
0.041475475 0.0052514067 0.006871174 0.07277491 -0.040775843 -0.113595955 0.053743925 0.034562755
0.029021392 -0.09432802 -0.07825437 -0.010446382 0.0966587 0.029452242 0.054426786 0.04536555
0.010451511 0.10662245 0.1004846 0.040789906 0.06328915 -0.08606855 -0.031953227 -0.08851945
0.013299517 -0.056890484 -0.028064486 -0.053593248 -0.10497116 -0.059451643 -0.031993534 -0.03405565
-0.11729207 -0.0815365 -0.018206669 -0.07146505 -0.0859481 -0.012729998 -0.09609574 0.065446846
0.085406944 0.01583029 0.10921091 0.06363119 0.072231546 0.0039054898 0.105618514 0.0830551
0.06189913 0.00063974556 0.06270371 0.09482559 0.03905155 0.024683679 0.10767038 0.077354655
0.11395281 0.11716989 0.026281051 0.008147262 0.009693481 0.12040694 0.05456557 0.113122165
-0.1152666 -0.08235095 -0.069755055 -0.09711892 -0.1643822 -0.125546 -0.05241786 -0.07129762
-0.11125665 -0.13289692 -0.15431751 -0.10401816 -0.057931397 -0.14968868 -0.12704273 -0.119487815
-0.07432952 -0.10533332 -0.16329508 -0.12979032 -0.13080096 -0.10966501 -0.14959632 -0.15567185
-0.13521595 -0.10216354 -0.1063629 -0.053909417 0.015320451 0.034948345 -0.13531157 -0.15502892
-0.065293424 -0.046280824 -0.108966246 -0.10916962 -0.09658788 -0.052646946 -0.07139499 -0.14652212
-0.048392724 -0.03998338 -0.13660099 -0.08575219 -0.09452256 -0.03878552 -0.108414166 -0.0152514465
-0.10110547 -0.022847513 -0.013088872 -0.016829092 -0.027670411 -0.05193059 -0.011741857 -0.026788214

model.input_layers.2.bias f4 [10]
00000000: a935 96bd 09f1 b3bc 3d8e 493d 7f6f 29bd
00000010: 8eff 883b e862 3ebd 7fbc 0bbd 28dc 113d
00000020: 917a 11bd 638f 49bd
-0.073344536 -0.02196552 0.049207915 -0.041366097 0.004180855 -0.046481043 -0.03411531 0.035610348
-0.03551728 -0.04920901

model.hidden_layers.0.weight f4 [10, 10, 5, 5]
00000000: 3056 13bd 2a56 b6bd e975 8fbd 8adf 87bd
00000010: 529d 1ebd 1129 22bd 9379 64bc b129 e7bd
00000020: 2747 9fbd 30f0 c1bd c228 19bd 8ee7 6ebd
00000030: e001 5bbd f0de 8bbc 903e 08bd 063b d3bd
00000040: ce20 fcbd 484f eabc 6b41 01be 21e8 36bc
00000050: b189 02bc 524c 19bc 1370 a5bc 1b4d 4bbd
00000060: d2e3 e4bd 560d 0abd f778 9bbd 6318 17bc
00000070: 9aba bcbc e003 75bd 8b72 41bc 9906 b1bc
00000080: df9b 4dbd 17db 56bd 009e 493d 5257 85bd
00000090: 19de 3bbd 6563 4bbd ae26 af3b 2c9e f1bc
000000a0: dd9f 28bd cba7 8ebb ec9f ab3c f21e 6fbd
000000b0: 2dd6 8cbc 54ed 363b 0919 e23c 96b1 86bd
000000c0: ac79 113d 18dd 6ebc 3007 74bd 75b4 8bbc
000000d0: c865 293d b4a9 31bd de2e a4bc 8883 623b
000000e0: adda 3c3d 1d9f 0f3d 438f 43bd f427 89bc
000000f0: a99d 26bd cb90 33bd 2547 50bd 3a2e 38bd
00000100: 5f9e 17bd d866 503c b914 84bd c98e babb
00000110: 2812 04bd 6ac3 b8bc fd07 56bd 6c48 c53c
00000120: 7ee6 41bd 84a0 92bd 18df 473d 2f6f 41bd
00000130: 0f34 12bd 7847 02be 8bf7 8bbc 913a 5abd
00000140: 74f9 14bd e777 78bc bf68 d2bd ab4b f1bd
00000150: cd1d c3bd a4c0 c3bc 50aa e6bd af0d f7bd
00000160: 6e51 f7bd 497b 65bd f5c3 f5bd 29b7 72bd
00000170: adae 99bd 4dc4 83bc 2981 81bd 8610 08be
00000180: fa7a ecbd 621a 83bd 3e6a 09be 5596 98bd
00000190: 9e47 98bc af3a ddbd 8208 65bd 5d59 83bd
000001a0: fcdd 7cbd 88cc 04bd e566 8ebd 8d90 c8bd
000001b0: c47f e6bd 1089 23bd 4657 3abd 4bde d6bd
000001c0: 5238 9ebc c5c8 debd 140c 7fbd 4457 b0bd
000001d0: f717 bbbd 9184 62bd 70e5 bbbd d889 06bd
000001e0: e921 273c 7bee 0abd 4e35 bdbd 5372 b6bd
000001f0: d6f3 4dbc a011 33bd d9e7 f3bc 505c 69bc
00000200: 1237 803c 7899 f63c e4e2 763c e0d4 abbc
00000210: 8175 f639 9387 963d 2048 5f3d ff66 1ebd
00000220: 35e8 26bd c897 543d 5887 29bd 1b1b 8c3d
00000230: 682c 80bc d036 0bbd 1818 463c d006 aa3c
00000240: 3876 b1bc 0d9d 19bd 582f 12bd 1e8e 8d3d
00000250: 95a2 14bd 4bc0 8c3d 069b 29bd a084 9fbd
00000260: de48 a4bc c62d 7d3b bd28 f9bc c0b5 ebbd
00000270: 862f 6bbd d286 0fbc 4fde cdbd 7462 16b9
00000280: c4d5 ebbd 379d 84bd 762e d4bd 8c9c 91bb
00000290: 3326 cdbd d485 65bd 952a 80bd 2f06 e7bc
000002a0: b9df 84bd 4e0f e7bd cb9a 52bd 369a b1bd
000002b0: a9d6 6abd aa04 86bd 1ea7 d5bd 0850 8fbd
000002c0: 9bf9 2c3d 0c58 92bd 94c4 983a 62b2 743c
000002d0: f8a1 5cbb f3d3 95bd c6e0 043d c1ed 733c
000002e0: ecf4 96bd bad7 33bd 9cf1 2bbd 4419 823c
000002f0: 557d 0b3d 2f7c 4dbd 5bd3 af3c de37 7ebd
00000300: 9c40 9dbd b579 cbbc fec2 8abd acc7 a83c
00000310: c0c9 84bd 7365 053d fca5 3e3d 4ad2 093d
00000320: d1ff a8bd ec2e 783c 764f 90bd 6fa2 7abd
00000330: 0834 1cbd 8ffb a83c 2b9b 8dbd d268 60bc
00000340: d3bb 0e3c 0bc4 063d ca31 9abb a8e7 37bd
00000350: f753 a0bd de0e ad3c 37e4 3c3c 2316 0bbb
00000360: 2837 b3bc a2bb 883c 0a41 05bd cc65 5cbd
00000370: 748a 233d 59d9 b13c 81a3 0ebd ea5a 0e3d
00000380: 2b5c aebc 3b01 133d 3ddb 613d f43f 643d
00000390: d54b 9e3d af45 0fbd 87f9 2b3d df21 893d
000003a0: 9e93 743c cfa8 5f3d f5a1 08bd 6f5b 133c
000003b0: 17b4 0a3d ad40 573d 3ce3 fcbc 471e a0bc
000003c0: 1eb9 8abc 14bd a43c c8ce 21bd d97c 97bc
000003d0: feb6 b3bc a22e 7bbc 4cc8 27bd c383 2d3d
000003e0: a42d 0abd 8f9a a0bc e74f 413d 133c 953c
000003f0: 3734 aa3c 1a08 b03b 626d d23d 0436 8f3d
-0.035970867 -0.08903153 -0.070049115 -0.066344336 -0.03872425 -0.039589945 -0.013945001 -0.11287249
-0.07777243 -0.0946964 -0.037392385 -0.058326297 -0.053468585 -0.017074078 -0.03326279 -0.10313992
-0.123109445 -0.028602257 -0.12622611 -0.011163742 -0.0079673985 -0.009356575 -0.020195043 -0.04963408
-0.11176266 -0.033704124 -0.075914316 -0.009222123 -0.023038197 -0.05981815 -0.011807094 -0.021609591
-0.05019748 -0.052455034 0.049222946 -0.06510796 -0.045866106 -0.049655337 0.005345187 -0.029494368
-0.041168083 -0.0043534986 0.02095028 -0.05837912 -0.01719197 0.0027912455 0.027599828 -0.065768406
0.035516426 -0.01457908 -0.059577167 -0.017053822 0.04135683 -0.043374732 -0.02004188 0.0034563262
0.046106983 0.03506385 -0.047744047 -0.016742684 -0.0406777 -0.043839257 -0.0508491 -0.04496596
-0.03701627 0.012719832 -0.06449265 -0.005693291 -0.032243878 -0.022554118 -0.052253712 0.024082385
-0.047338955 -0.07159522 0.048796743 -0.047225174 -0.03569418 -0.12722576 -0.017085811 -0.05327851
-0.03637071 -0.015165306 -0.10273885 -0.11782011 -0.095271684 -0.02389557 -0.11262953 -0.12063157
-0.12076078 -0.056025777 -0.120002665 -0.059256706 -0.0750402 -0.016084814 -0.063234635 -0.13287553
-0.115468934 -0.064015165 -0.13419434 -0.074505486 -0.018588837 -0.10802209 -0.055916317 -0.06413529
-0.06173514 -0.03242162 -0.06953219 -0.09793196 -0.11254838 -0.039925635 -0.045493387 -0.10491618
-0.019313965 -0.108781375 -0.062267378 -0.086103946 -0.0913543 -0.055302206 -0.09174621 -0.0328463
0.010200956 -0.03391884 -0.09238683 -0.08908524 -0.012570342 -0.04371798 -0.02977364 -0.0142432
0.01565126 0.030102476 0.015068743 -0.02097553 0.00047008324 0.073500775 0.054512143 -0.038672443
-0.040748794 0.051902562 -0.04138884 0.068411075 -0.015646175 -0.03398782 0.012090705 0.020755202
-0.021662816 -0.03750329 -0.03568968 0.06911872 -0.036287863 0.068726145 -0.041407607 -0.07788968
-0.020054277 0.003863202 -0.030414933 -0.115092754 -0.05741837 -0.008760171 -0.100521676 -0.00014341791
-0.11515382 -0.06475299 -0.10360424 -0.0044437107 -0.100170515 -0.05603583 -0.06258122 -0.02820119
-0.06487984 -0.11282216 -0.051417153 -0.086719915 -0.057333622 -0.06543858 -0.10432266 -0.069976866
0.04223023 -0.071457 0.0011655265 0.014935108 -0.0033665877 -0.07315817 0.032440923 0.014888228
-0.07370934 -0.043906905 -0.041978464 0.015881188 0.034055073 -0.05016726 0.021463087 -0.062064998
-0.07678339 -0.024838308 -0.06775473 0.020603023 -0.06483793 0.032567453 0.046545014 0.033647813
-0.08251918 0.015147906 -0.07046406 -0.061190065 -0.03813556 0.020627765 -0.069143616 -0.013696866
0.008711773 0.032901805 -0.0047056424 -0.04489866 -0.07828515 0.021125253 0.01152902 -0.0021222911
-0.021876886 0.016691033 -0.03253273 -0.05380802 0.03992696 0.021710085 -0.0348239 0.03475467
-0.021284183 0.035889845 0.055140723 0.055725053 0.077293076 -0.034978565 0.041986015 0.066959135
0.014927773 0.054604348 -0.03335758 0.008993967 0.033863153 0.052551914 -0.030870073 -0.019545687
-0.016933974 0.02010969 -0.039503843 -0.01849215 -0.021937843 -0.015330942 -0.040962502 0.042361986
-0.033734933 -0.01960495 0.04719534 0.018217122 0.020776851 0.0053720595 0.10274769 0.069927245

model.hidden_layers.0.bias f4 [10]
00000000: 4c8c 9abd dbbd 89bd 1f33 53bd 5d23 8dbd
00000010: 61fc c9bd 167b cbbd 46e0 c6bd d5c3 7bbd
00000020: e61f 8dbd cdee a1bb
-0.07546291 -0.06725665 -0.051562425 -0.06891511 -0.098625906 -0.09935586 -0.097107455 -0.061466057
-0.0689085 -0.0049417973

model.hidden_layers.1.weight f4 [10, 10, 5, 5]
00000000: 0244 20bd 7cbc b7bd b969 7bbd e429 bbbd
00000010: b56f cabc 2dc7 a1bd 4186 8dbd 5512 15bd
00000020: a524 e2bc fcc3 b3bd a5d4 c1bd 6d9d 02bd
00000030: 64d4 52bd 46c8 24bd 517d 27bd ba84 b7bd
00000040: cdb4 0abb 6b5c 0bbc f739 c9bb a675 f7bc
00000050: 2717 393c abfe 23bb e4d1 1ebd f71a 96bc
00000060: 05d0 c2bd 284e d5bd dbb5 55bd fcf5 aabd
00000070: d371 c2bd 0030 77bc eca7 c6bd 8c0b 7fbb
00000080: ede4 383b 2ab7 dcbd 2236 d9bd 8ff8 b2bd
00000090: 5873 b8bd f067 91bd 3729 6ebd 77b9 bbbd
000000a0: 90a2 85bd b275 3dbd 9f86 dcbc a1c3 01bc
000000b0: 262a bfbd df53 57bc 24c8 663d 0b40 8e3c
000000c0: b038 303d c2db fd3c 19e6 c6bd 64e2 82bc
000000d0: f6da 75bc c712 82bc d73d 90bd 13b6 3fbc
000000e0: 106b f6bc b136 0cbd c6df a5bd d897 c4bd
000000f0: b727 bcbd 8100 cd3b a2a8 6cbd c1df a9bc
00000100: d02b 313c f11c 87bd 1e35 50bd 297c c1bc
00000110: 2768 553b 4d94 91bd 3b6b 1cbd f186 98bd
00000120: 3adb 9cbd 8245 cbbd ee3b 9fbd 6cc4 9fbc
00000130: f8e6 4dbd febe cabd c6d1 903b 170c 92bd
00000140: 1a21 73bd af83 cabd 756a c9bd efd2 cbbd
00000150: 263b a6bd 0d92 80bd 99a1 073c d932 cabc
00000160: 9061 46bd a600 97ba 1da6 92bb 047f 29bd
00000170: 15e4 91bd 603b b4bd a4f0 66bd 3fd8 adbb
00000180: d134 c4bd b4af afbd 1a49 cbbb b0f7 24bd
00000190: 6ec8 0bbd 5d22 cfbd 28d0 17bc b95a b5bd
000001a0: 827e c8bd 4c1f b2bd 2e92 1fbd 282c 883b
000001b0: b34a b2bd 6a19 60bc be4b e2bd 0db6 50bd
000001c0: 5ce2 8dbd f5b7 2fbd 2a95 21bd c7cd 43bd
000001d0: 50ad c0ba f2f8 ecbb f680 f4bc d322 12bd
000001e0: 74c2 84bd 7241 40bd 882f 21bd 981d c9bd
000001f0: 3c19 0fbd 33f1 c4bd bfa6 45bd 70dc a7bd
00000200: 1e19 d7bd 86a8 763a 0fb9 df3b aff3 fbbc
00000210: 2d4a 85ba 3743 f6bc 76a7 dcbd 58a3 e6b9
00000220: 67fa 99bc 83ce 8dbd e0d8 c3bb f88e 7bbd
00000230: b8fd 493b 6cd2 cabd 6f28 003c 975a a2bd
00000240: 4bda c7bd f132 07bc c537 c73a 2012 90bd
00000250: dcca 4fbd 8587 9fbd 0d2c 2b3d 45ca 8dbd
00000260: acc2 98bd 6578 cdbd 070d 86bc 8b51 bbbd
00000270: e20d ddbd 462b e9bc d8ff 63bd 58de 703c
00000280: 8d26 d73b 4b8b 75bd 48d0 15bd 9956 a3bd
00000290: af7b d7bd 0039 b5bd df12 9ebb c368 9ebd
000002a0: b9b4 f5bc a4a0 cdbd cde2 093b d02f d3bd
000002b0: 8a4d 82bc aba5 d5bd c3b1 82bd c861 9ebd
000002c0: 3d0d 1cbd b54a c4bd 0d42 cd3b 4cfb 89bd
000002d0: 4024 e1bd c611 eebd 4735 42bd ed83 d4bd
000002e0: 47ac 8abd c7bf 80bd d39e 91bd 3cce a7bd
000002f0: 9419 9abb 73e9 27bd 4e69 0bbd a5c1 b2bc
00000300: a95e a2bd a7b2 d1bd a229 0fbc e3aa 93bd
00000310: ed41 0fbd e8a1 a3bd 8188 0b3c dd3b ca3b
00000320: 21dd 58bd c57b 78bd c038 183c 51a5 293c
00000330: f9ec db3b 5613 88bd 9b03 9bbd ca3d bcbd
00000340: 828b 54bd 0e41 2f3b a688 2bbd abed a2bd
00000350: 0c94 ddbd 42e2 91bd cce6 b0bd 04aa 9cbd
00000360: 8a7d 32bd ad2c abbd 6011 28bd 1316 52bd
00000370: 8f45 e0bd 7ce6 b3bd 61c9 33bd 6e3d 1cbd
00000380: 1df0 55bd e655 143c 5f14 443c b99b 9dbc
00000390: b186 4cbd 7267 85bd ca31 a0bd c84f bebd
000003a0: eea2 ee3b ffd3 113c ce18 e5bc f930 67bd
000003b0: 5ca1 4ebd 279a d3bd a328 54bd a838 3abd
000003c0: 6325 98bd caf9 03bd 224f bfbd 3591 a03b
000003d0: 98c3 69bd 5cf5 b43b db02 dabd 049d 99bc
000003e0: 366e 99b8 cb3f 7bbc e36d 4ebd 8fa1 d3bd
000003f0: dc40 30bd d285 dfbd be7b f8bd c719 f7bd
-0.039127357 -0.089714974 -0.06138012 -0.091388494 -0.02471147 -0.07899318 -0.069103725 -0.036394436
-0.027605364 -0.087776154 -0.09464387 -0.031888414 -0.051472083 -0.040230058 -0.040890995 -0.089608625
-0.0021164895 -0.008505921 -0.006140943 -0.030207466 0.011297024 -0.002502362 -0.038774386 -0.018323405
-0.09512333 -0.10415298 -0.052175384 -0.08347699 -0.094943665 -0.015087128 -0.09699997 -0.0038916795
0.0028212622 -0.10777123 -0.10606028 -0.08738815 -0.09006375 -0.07099903 -0.058144774 -0.09166234
-0.06525147 -0.04625482 -0.026919661 -0.007920177 -0.09334211 -0.013142555 0.056343213 0.017364522
0.04302281 0.030988578 -0.097118564 -0.015977092 -0.015005818 -0.015878094 -0.07043045 -0.011701125
-0.030080348 -0.034231845 -0.08099322 -0.095992744 -0.091872625 0.0062561636 -0.05777801 -0.020736577
0.010813668 -0.06597317 -0.050831906 -0.023618774 0.00325633 -0.07108364 -0.0381882 -0.07447613
-0.07659002 -0.09925367 -0.077751026 -0.019502841 -0.050269097 -0.0989971 0.004419538 -0.07131212
-0.05935774 -0.09888398 -0.09834758 -0.09952342 -0.081167504 -0.06277857 0.008278274 -0.02468245
-0.048432887 -0.0011520579 -0.0044753687 -0.041380897 -0.07123581 -0.088003874 -0.056381837 -0.0053053196
-0.095803864 -0.085784346 -0.0062037827 -0.040275276 -0.03412669 -0.10113976 -0.009265937 -0.088551946
-0.097897545 -0.08697376 -0.038957767 0.0041556545 -0.08705654 -0.013677934 -0.11049603 -0.050954867
-0.0692794 -0.042900044 -0.039448895 -0.047803666 -0.0014700089 -0.007231825 -0.02984665 -0.035677742
-0.064824015 -0.046937414 -0.03935197 -0.09820098 -0.034936175 -0.096163176 -0.048254725 -0.08196342
-0.105028376 0.0009409267 0.0068274806 -0.030755846 -0.0010169201 -0.030061347 -0.10774128 -0.0004399072
-0.018796159 -0.069241546 -0.0059767812 -0.061415642 0.0030821394 -0.09903416 0.00782214 -0.07927435
-0.09758433 -0.0082518915 0.0015199116 -0.07034707 -0.05073057 -0.0778952 0.041790057 -0.069233455
-0.07459006 -0.10032729 -0.016363634 -0.091464125 -0.107936636 -0.028463017 -0.055663913 0.014701448
0.006565875 -0.059947293 -0.036575586 -0.079755016 -0.10521638 -0.088487625 -0.004824027 -0.077348255
-0.029993402 -0.100404054 0.0021039725 -0.10311854 -0.015906114 -0.10431989 -0.063815616 -0.07733494
-0.038098563 -0.09584562 0.0062639774 -0.06737384 -0.10993242 -0.11624484 -0.04741409 -0.10376725
-0.067711405 -0.062865786 -0.071103714 -0.08193633 -0.004702756 -0.04099412 -0.034035973 -0.021820853
-0.07928211 -0.10239153 -0.008737953 -0.072103284 -0.03497498 -0.079898655 0.008516432 0.006171687
-0.05294526 -0.06066491 0.009290874 0.010354356 0.006711599 -0.06644313 -0.07569047 -0.09191473
-0.051890858 0.0026741656 -0.041878365 -0.07955488 -0.10819253 -0.071232334 -0.08637771 -0.076496154
-0.043576755 -0.083581306 -0.041032195 -0.051290583 -0.10950767 -0.08784196 -0.04389322 -0.03814452
-0.052230943 0.009053683 0.0119677475 -0.019239293 -0.04993314 -0.06513871 -0.078219965 -0.09292561
0.0072826063 0.008900641 -0.02796593 -0.05644319 -0.050446853 -0.103321366 -0.051796567 -0.045464188
-0.07429006 -0.03222064 -0.09341265 0.0049001225 -0.0570713 0.005522413 -0.10645076 -0.018751629
-7.316137e-05 -0.015335034 -0.050397765 -0.10333549 -0.043030605 -0.10914196 -0.12132977 -0.120654635

model.hidden_layers.1.bias f4 [10]
00000000: 955f debd e5f0 4abd 72ac bb3c a48e cbbd
00000010: cc25 07be 7dc8 52bd 427c 03be 13aa 18be
00000020: f569 4c3d ba81 cabd
-0.108580746 -0.04954614 0.022909377 -0.09939316 -0.13198012 -0.05146073 -0.1284037 -0.14908628
0.049905736 -0.09888025

model.hidden_layers.2.weight f4 [10, 10, 5, 5]
00000000: 647f 7cbd 097d cdbb b7fc cdbd fd9a ccbd
00000010: 84a6 94bc 7b33 2dbd 9ed0 44bd 93ab c3bd
00000020: 9873 59bd c1b5 a4bd 306c b8bd ba14 27bc
00000030: 1524 08bb 5619 cabd 88a7 83bc 94be cfbb
00000040: 7c59 82bd 7e7e 49bc 268a 70bc 9044 bbbc
00000050: 03f5 45bc 39be 4f3b fc95 f0bc 2e22 6bbc
00000060: 8a1c 3abd d166 ab3a dd8c eeba f9c8 a73d
00000070: 37ee 023d 61c6 b53d 1685 163d 7d15 eb3d
00000080: 39e2 ab3d 4e35 f1ba 1d64 6b3c 13b3 f23d
00000090: f859 b83d 26ae 663d 3d8e e13d 8c4c 593d
000000a0: 83c1 b93c fc1b f83d 5826 8b3d b793 9b3d
000000b0: dafa 613c ea69 bd3d 2547 5d3d 39a5 6e3d
000000c0: 1e02 2cbb 075e cd3d b91d 6bbd 0254 2e3c
000000d0: c98d 20bc 0db4 abbd 6bde ecbc 99a0 aabc
000000e0: 197d 3fbd ee42 df3c 5c5c 42bc 8bba 27bd
000000f0: d2fc aebc 2d84 e4bc 7ea1 5ebd 5988 5fbd
00000100: 436c 8ebd 64fa c1bd 7ed0 b03b 55ad 6dbd
00000110: dab6 c7ba 3987 95bc 5e52 9ebb 1a52 963b
00000120: 485c 43bd 6673 80bd b40c 46bd 5906 4dbb
00000130: 61b1 633d f76c 293d 9ec2 a13d e9e0 7f3d
00000140: 626f cf3d 011d ca3d d6c4 b93b 372e 383c
00000150: f4af 163d dc82 e83d 64c1 ec3c d0e4 5c3d
00000160: 2127 4f3a 0c01 ab3d 6e28 233d b8ee 9c3d
00000170: 0f96 f43d aa8a 5b3c 253f a33d 0f8c c43d
00000180: 593a b53d 14e5 f43c a2ef c43d d444 853d
00000190: 9d14 50bd dd0d 1abc 7876 a3bd 190f a6bd
000001a0: 626e 20bd 53ee 9dbd 3cab 4bbd 17f3 0b3d
000001b0: 1a0c a93b 2651 4a3c 4250 46bd 6b79 8bbd
000001c0: 2b7f 8d3c f93f a73a 25ab 59bc 5787 f0bc
000001d0: a422 cd3a 4bf8 0b3d a7bb b639 023b 043c
000001e0: 2502 ccbc bbf1 febc cdce 22bd dcbf 863c
000001f0: c352 603b b3d2 b93d 498c a83d 98d5 fa3c
00000200: a5fd 583c e77a ee3d 1a43 e23d bb54 d33c
00000210: 6731 a73d 6056 983a aae9 943d a298 dc3d
00000220: 405c be3d b748 633d 118f f13c 5450 163d
00000230: a056 c43d 69b2 1c3c 5917 453c 958b 2c3d
00000240: b5f5 e33d b682 8e3d 1586 ec3c 754a e23d
00000250: 65c1 e63d ab9b aa3b 81cd bb3c cf3e 02bd
00000260: bcdd 033d f543 d23b c57f 86bd 4798 66bd
00000270: 5457 20bd 9a62 f6bc 25e4 153d 4179 313c
00000280: e8be e03c 7d93 fd3c c30e 57bc 8956 063d
00000290: bb37 94bd a769 9d3c 886e 9c3b f3c2 0b3b
000002a0: 9826 673b 66d0 16bc e1da 51bd 14be 12bd
000002b0: 57fa 90bd 404d 87bd 4646 5b3c c90a 813c
000002c0: b952 a1bd 7281 95bd fa0e a63b f1f8 a7bd
000002d0: e78d e4bc b7e9 16bd a37a e83c 02a4 3fbd
000002e0: 1621 c13b eed4 bc3c 9448 85bc ba95 863c
000002f0: 4984 71bd 500b bfbd d57b a0bd bbe8 90bd
00000300: 972f dbbc 3248 08bc 944e 933c 5d9d 093b
00000310: 997d 8abd 8d28 2dbd 2c1e 773c c74c a7b9
00000320: b33f 22bd 4bba 0e3c fcac ac3c dc45 bebd
00000330: 6533 8abd 36b8 24bd 19fc a2bd 374f 40ba
00000340: e6ce a0bd 8087 54bd 8567 98bd b13c c8bd
00000350: b8a4 7bbd 3e79 80bd 5ac4 23bd 7ecc 83bd
00000360: 5941 113c ddda e2bb fadc 40bd 4b13 a5bd
00000370: 6443 8cbd 57f5 03bd 0b64 debc 4e23 bcbd
00000380: c4c2 f2bc 7a3d a6bd f6b8 b5bd a0c5 acbd
00000390: 4b05 3cbb 2d58 59bd c3ce 31bd 5e26 f2bc
000003a0: 40db 833c 0385 b5bd 0df8 c23b ef65 18bd
000003b0: 1e3f 2a3d ac64 fc3c 3f49 0b3d 20b4 dcbc
000003c0: 066b 853b 50aa 5cbd cbd1 7ebd 959f a0bd
000003d0: 29f4 b7bd 561b 33bc 3764 26bc b584 b6bb
000003e0: e358 2e3c 5972 8fbc a781 74bd 1207 9abc
000003f0: 4ae5 2b3d 103d 43bd ff2d 62bd a0e3 55bd
-0.061644927 -0.006271009 -0.10057967 -0.09990499 -0.018145807 -0.042285424 -0.048050515 -0.095542096
-0.053088754 -0.08042479 -0.0900501 -0.010197813 -0.002077346 -0.09868114 -0.016071096 -0.0063398574
-0.06364724 -0.0122982245 -0.014681375 -0.022859842 -0.012082341 0.0031699075 -0.029368393 -0.014351411
-0.045437373 0.0013076906 -0.001819994 0.08192629 0.03196546 0.088757284 0.036748014 0.11478708
0.08392758 -0.0018402727 0.014367131 0.11850562 0.09001535 0.056318425 0.11013458 0.053051516
0.022675281 0.121147126 0.06794423 0.07596534 0.013792718 0.09248717 0.054022927 0.058263037
-0.002624638 0.100277 -0.057401393 0.010640146 -0.009799429 -0.08383951 -0.02891465 -0.020828532
-0.04675016 0.027253594 -0.0118628405 -0.040949386 -0.021360788 -0.027895058 -0.05435323 -0.05457339
-0.06954243 -0.09471586 0.005395948 -0.05802663 -0.0015236989 -0.018252956 -0.0048315963 0.004587424
-0.047695428 -0.062720105 -0.04835196 -0.00312843 0.055589084 0.041363683 0.078984484 0.06247035
0.101286665 0.09868813 0.0056692166 0.011241487 0.036788896 0.113530844 0.02890081 0.05392915
0.0007902254 0.08349809 0.03983348 0.076627195 0.11942684 0.013399759 0.07971028 0.095970266
0.088490196 0.02989439 0.09616019 0.065072685 -0.05080091 -0.009402719 -0.079815805 -0.081083484
-0.03916777 -0.07711472 -0.04972385 0.034167375 0.0051589133 0.012348449 -0.048416384 -0.06810268
0.017272552 0.0012760154 -0.013285433 -0.02936141 0.0015650582 0.034172338 0.00034853557 0.008070709
-0.024903366 -0.031121125 -0.039748 0.016448908 0.0034229017 0.09073391 0.08229882 0.030619428
0.013244067 0.116445355 0.11047955 0.025797239 0.081637196 0.0011622421 0.072711304 0.107713
0.09294939 0.05548927 0.029487165 0.0366977 0.09586835 0.009564021 0.012029492 0.042125303
0.11130849 0.06958525 0.028872529 0.11049358 0.11267356 0.0052065453 0.02292514 -0.03179818
0.032193884 0.0064167925 -0.06567339 -0.056297567 -0.039145783 -0.030076314 0.03659453 0.010832132
0.027434781 0.030954117 -0.013126078 0.03279737 -0.07237192 0.019215418 0.0047739185 0.0021325916
0.0035270806 -0.0092049595 -0.05123413 -0.035825804 -0.070789985 -0.06606531 0.013383454 0.015752213
-0.07877106 -0.0730008 0.0050677033 -0.08201779 -0.027899696 -0.03684398 0.02837879 -0.04678727
0.0058938367 0.023050752 -0.01626996 0.016428817 -0.058964048 -0.093283296 -0.07836119 -0.0707564
-0.026756091 -0.008317994 0.017981805 0.0020998337 -0.06762237 -0.042275 0.015082877 -0.00031909926
-0.03961153 0.008711408 0.02107858 -0.09290668 -0.06748084 -0.04021474 -0.0795824 -0.00073360227
-0.07851963 -0.051887035 -0.0744162 -0.09777201 -0.061436385 -0.06273125 -0.039982177 -0.06435488
0.008865678 -0.006923063 -0.04708574 -0.080603205 -0.06848791 -0.032216396 -0.027147314 -0.09186421
-0.029633887 -0.081171945 -0.08873169 -0.084361315 -0.0028689678 -0.053062607 -0.043410074 -0.02955931
0.016095757 -0.088632606 0.00594998 -0.037206586 0.0415641 0.030809723 0.0340054 -0.026941359
0.004071596 -0.05387336 -0.062211793 -0.07842938 -0.08982117 -0.01093181 -0.010155729 -0.005570019
0.010641309 -0.01751058 -0.05969396 -0.0188022 0.041966714 -0.047665656 -0.055219647 -0.052219033

model.hidden_layers.2.bias f4 [10]
00000000: 8d88 a9bd 482c aebd 2f7c d6bc 9bf4 4ebc
00000010: e423 a6bc 9e2c 17bd 221f 35bd 4355 e2bc
00000020: bb2a eabc c77c 89bd
-0.08277998 -0.0850454 -0.026182262 -0.012631561 -0.020280786 -0.036907785 -0.044219144 -0.027628547
-0.028584829 -0.067132525

model.output_layers.0.weight f4 [10, 10, 5, 5]
00000000: 5933 1cbd 9ca7 67bd b007 1dbd 8a66 5abd
00000010: 5c44 13bd 27d2 1c3c c3eb 29bc 5b98 97bd
00000020: d759 afbd 7283 26bd 8da5 8dbc 8432 13bd
00000030: 981a dc3c b6a1 42bc 4789 85bd ef65 67bd
00000040: ac1c fdbc 8115 c2bd 9d7b 3bbd 2c10 dd3c
00000050: 2e71 e8bc dde5 e23c 5015 953c 7928 47bb
00000060: 3608 2cbd c2f0 ddbc 65c1 07be c6b2 87bd
00000070: 44d5 29bd 2ba1 aabd b33b 92bd ae65 b2bd
00000080: d86e 0fbe a1ef 03be 4f58 02be 1ed1 4ebd
00000090: c22b 96bd 8edc 5fbd 83b4 f6bd 4b90 b4bd
000000a0: afd4 ebbd e917 bbbd f929 d0bd 0497 b9bd
000000b0: c713 8bbd 74c7 00be cc46 14be 733b 00bd
000000c0: 9395 e0bc 14b4 b3bd 6428 86bd f150 09be
000000d0: f146 c3bc aa85 a0bd 17c1 3abd fc21 36bd
000000e0: 4f8d 13be 0d31 08bd 9d9b 16bd 2f1e 53bd
000000f0: 5e87 09be 9046 dcbd 67da afbd 0f1e b5bd
00000100: 9107 9ebd bbac 09bd dc97 24bd 37a6 d2bd
00000110: 2bb5 0bbd 4709 3ebd b4db e0bd e5f4 9fbd
00000120: 41c9 8cbd 3f58 dfbd 78b5 0fbe ceca b23c
00000130: 231c cb3c a45e 93bd e897 5cbd 8661 33bc
00000140: 17bf ff3a 110b 0abc a487 1ebd 1ba9 97bc
00000150: 15bc 86bd f46b 0b3c a22b e1bc 5cb2 26bd
00000160: e444 34bd d4dc a1bd d2ce 70bd 1aa7 a8bd
00000170: 74a7 83bd 5a43 93bc c75c 35bd 5b72 2bbd
00000180: 37de 99bd 4b42 8cbd d4f6 82bb b7b0 9ebc
00000190: 7db3 37bd e0d2 debc 8c0a 7bbd acfb 403c
000001a0: 1fb7 a7bd 8bcf 6a3c d81c 7fbd b5e6 d23c
000001b0: c3fc ecbc 0616 3bbd 8b7f 8bbd fb34 90ba
000001c0: 6d03 25bc 2008 30bd 6ad9 bdbb ce28 b6bd
000001d0: fc53 b4bc 2b2c 6cbd fee0 38bc 6b39 89bc
000001e0: 1a84 babd c7ca b8bd 4ca0 65bd 9442 193c
000001f0: e50b aebd 604d 073e f9ef d33d 4018 a63d
00000200: eba0 f13d 7376 da3c 1689 083d 3b8b 033e
00000210: 6c01 073e 24a5 dc3d 0ce0 253d 8595 b13d
00000220: a80c 423d 94e0 433d 9cbe 983c d52f e93d
00000230: 65c1 4e3d 514f d23d 3182 b93d be2e 683d
00000240: deed 0d3e b02a b13c 0532 713d 16ed 933d
00000250: 3d32 8c3d 786f 043e 4e6c 533c 1e5c b9bd
00000260: 2b87 a8bd 0db6 28bd f96e 7abd 6481 973c
00000270: 8cfb a9bd 4c64 beba 762f 9abd 9184 be3c
00000280: 0752 c43a 2883 b9bd 0f9b e0bb b47b c3bd
00000290: 7c78 9bbd 313d 343c 17d4 e8bc 2fef 89bd
000002a0: 7003 63bc ecc0 8fbd 6415 bdbd 8672 043c
000002b0: 9dca 05bd 2b28 63bd 3872 383a ea63 4bbd
000002c0: 24a7 02be d183 83bd 11d9 9cbd 7931 12bd
000002d0: b9c2 04be 5812 22bd 4cc5 99bc 2ff8 94bd
000002e0: 745e 74bd 1fef 09be 5a2c adbc e428 11be
000002f0: 85ac d9bc 5b99 a3bc 3919 afbc 96f4 0dbe
00000300: a8ee abbd 6820 52bd ff47 ddbc badb b1bd
00000310: 3141 c4bd ad5a f3bd ba8e c5bd 295f 03be
00000320: 758a 03be 841b d7bd 1678 0cbd 45f0 ddbd
00000330: a2e1 8abd c437 98bd 25c0 a2bc 1eda a5bd
00000340: d48a a6bd c75d 0fbd d11f d7bd 591f e8bd
00000350: 0f73 c8bd 0b4f 0bbe 955b 94bd a0f5 37bd
00000360: c90b d0bd f7be 01be 83db 12be 45ab babd
00000370: 2b5b 60bd 8b06 9ebd f903 91bd afd9 f5bd
00000380: 945f f0bc c698 0e3e c71f 133e 2288 523d
00000390: 601c 4d3d 1bc2 9e3d f82f 0b3e f47f 0e3e
000003a0: 6d0f b93d c74b d83d a57b 1d3d 9e75 833d
000003b0: 62a9 cd3d 0eed ac3d ddf5 9b3d 1896 433d
000003c0: 1b82 9c3d 9743 de3d dd6b 6c3d 5b7b 173d
000003d0: fbdd 003e ef5e ea3c 2f2c 9d3d ec04 c13d
000003e0: 4e63 113d 9567 e53d ed76 3d3d e952 59bd
000003f0: 3e8c 6f3c 7c0d c7bc 4fe3 a4bd b59a 55bd
-0.038134906 -0.05655633 -0.03833741 -0.053320445 -0.035953864 0.009571589 -0.010371151 -0.074021064
-0.085620575 -0.0406527 -0.017290855 -0.035936847 0.02686815 -0.011879375 -0.06520324 -0.056493696
-0.03089746 -0.09476758 -0.045772184 0.02698525 -0.02837428 0.027697498 0.01819864 -0.0030389114
-0.042000018 -0.027092341 -0.13257368 -0.06625895 -0.04146315 -0.083315216 -0.07140293 -0.087108
-0.14007127 -0.1288438 -0.12729 -0.0504924 -0.07332565 -0.054653697 -0.12046149 -0.08816584
-0.115151756 -0.0913542 -0.10164256 -0.09062007 -0.067908816 -0.12576085 -0.14480132 -0.031306695
-0.027415073 -0.087745816 -0.06550673 -0.13409783 -0.023837538 -0.078379944 -0.0455943 -0.044466004
-0.14409374 -0.033249903 -0.0367695 -0.051542457 -0.13430545 -0.10755646 -0.08586579 -0.08843624
-0.07716287 -0.033611994 -0.040183887 -0.10285609 -0.034108322 -0.046395566 -0.10979405 -0.07810382
-0.06874324 -0.109055035 -0.14034069 0.02182522 0.02479369 -0.07195786 -0.053855807 -0.010948544
0.0019511905 -0.00842549 -0.038703576 -0.018513253 -0.065788426 0.008509625 -0.027486626 -0.04069744
-0.04401101 -0.07903448 -0.05879099 -0.08234997 -0.064284235 -0.017976452 -0.044277932 -0.041857105
-0.07513087 -0.06848582 -0.0039967094 -0.019371374 -0.044848908 -0.027200162 -0.061289355 0.011778753
-0.081892245 0.014331709 -0.062283367 0.025744775 -0.02892912 -0.0456753 -0.06811436 -0.0011002118
-0.010071618 -0.0429765 -0.00579374 -0.088945016 -0.022012703 -0.05765931 -0.011284111 -0.016751012
-0.091072276 -0.09023052 -0.056061074 0.009354252 -0.084983625 0.1321311 0.103485055 0.08110094
0.11798271 0.02666781 0.03333386 0.12846081 0.13184136 0.107736856 0.04049687 0.08671097
0.04737535 0.047821596 0.018645577 0.11386076 0.050477404 0.10269035 0.09058035 0.0566852
0.1386027 0.0216268 0.058885593 0.07222955 0.0684552 0.12933147 0.01290424 -0.09050773
-0.08228906 -0.041189242 -0.061140988 0.018494315 -0.08299932 -0.001452574 -0.07528584 0.023256572
0.0014978059 -0.09058219 -0.006854422 -0.09545079 -0.0759134 0.011000917 -0.028421445 -0.06735074
-0.0138558 -0.07019219 -0.092325956 0.008083945 -0.03266393 -0.05545823 0.0007036063 -0.049655832
-0.12759072 -0.06421626 -0.0765859 -0.035691712 -0.12964906 -0.039568275 -0.018770836 -0.072739
-0.05966039 -0.13470124 -0.021139313 -0.14175755 -0.026571522 -0.019970587 -0.021374332 -0.13862833
-0.083951294 -0.051300436 -0.02701187 -0.08684488 -0.09582747 -0.118825294 -0.096463636 -0.1282927
-0.12845786 -0.10503295 -0.03429421 -0.108368434 -0.06781317 -0.074325114 -0.019867012 -0.08098243
-0.08131948 -0.035001542 -0.105041154 -0.11334104 -0.09787571 -0.13604371 -0.072440304 -0.04491198
-0.10158498 -0.12670504 -0.1434155 -0.09114698 -0.054774445 -0.07716092 -0.07080836 -0.120044105
-0.02934245 0.13925466 0.14367591 0.051399358 0.05007589 0.077518664 0.13592517 0.13915998
0.09036145 0.105613284 0.038447995 0.06418918 0.10042073 0.08443652 0.07615254 0.047750562
0.07642003 0.108527355 0.057720054 0.036982875 0.12584679 0.028609721 0.07674443 0.09424767
0.035495095 0.11201397 0.046255995 -0.053057585 0.014620839 -0.024298422 -0.08051168 -0.052149493

model.output_layers.0.bias f4 [10]
00000000: 4868 a3bd 33f0 00be 7251 02bd 0982 03be
00000010: 3337 c1bc b071 a7bc e5b5 c8bd 7e44 1abd
00000020: 2652 7dbd f60d e3bd
-0.079788744 -0.12591629 -0.031815954 -0.12842573 -0.023585891 -0.020439953 -0.09800319 -0.037662975
-0.06184592 -0.11086647
