outputs/Fiedor_ConvRNN_D3_K5_H10_SS4_1_04_22-42-03/checkpoints/model-epoch=02-validatgion_loss=0.00.ckpt (torch, 243982 bytes, 54 tensors)

model.bias f4 [10]
-0.4130379 0.10783528 0.87734514 -0.64319485 -0.37139374 -0.3824132 -0.2645777 1.890931
2.0722136 -0.65061516
00000000: b479 d3be bed8 dc3d b199 603f 6ba8 24bf
00000010: 5227 bebe aacb c3be ba76 87be 070a f23f
00000020: 269f 0440 b78e 26bf

model.input_layers.0.weight f4 [10, 1, 5, 5]
-0.25833264 -0.23575619 0.05843694 0.067616925 -0.21965252 0.09002604 -0.061272606 0.031787917
0.09568663 0.118753806 -0.26229882 -0.118972756 -0.22697315 -0.020820102 0.11233153 -0.21726242
-0.12476663 -0.26709905 0.09420574 -0.14299513 -0.2943681 -0.11638397 0.017610531 -0.25779188
-0.07994314 -0.12499032 -0.12897995 0.05313178 -0.01612345 0.032143317 -0.00047135018 0.028974535
-0.06803715 -0.061700877 0.13392666 -0.14746726 0.118482545 0.06696971 0.19571066 -0.15694816
-0.0017481553 -0.11253696 0.08024227 -0.08672253 0.03734763 0.05976824 0.19120541 -0.16723934
-0.044969846 -0.03269339 -0.2571408 -0.036446285 0.0020614027 0.069361776 -0.05772788 -0.19429828
0.016718311 0.0080131395 0.005475045 -0.10954914 -0.27064142 -0.07974119 -0.21608172 -0.24862686
-0.03722201 -0.27077016 0.03458898 -0.2929115 -0.142372 0.03528467 -0.07812839 0.007728715
-0.048498407 -0.20781267 -0.30228013 -0.18030123 -0.052630857 -0.18084063 0.015188419 -0.22801204
-0.072510906 -0.057778172 0.01877375 0.12285365 0.16201021 -0.07695873 -0.074690215 -0.12251751
0.1338348 -0.030952487 -0.19052044 -0.14853168 0.072615795 0.15273765 -0.061167046 -0.054195486
-0.192696 -0.044869553 -0.1602561 -0.028304797 -0.037408825 0.02221243 -0.22915518 0.0780118
0.099853374 -0.20315205 0.053097337 -0.209929 -0.1421317 -0.15476875 0.016812295 -0.21390328
0.046714153 -0.118510514 0.103413634 0.098472364 0.14901066 0.13797446 -0.06692771 0.111812435
-0.21908373 -0.23973788 -0.18570821 0.08557655 0.028571129 -0.22086185 -0.19770695 -0.16200656
-0.24716705 -0.025870537 0.036143374 -0.2199183 -0.1198369 -0.22922678 -0.14575177 -0.10390956
0.06519017 0.098030426 0.082307 0.106022805 0.08546691 0.038219307 -0.15036286 0.10118435
0.097005315 0.08400207 0.2086542 0.18386328 0.19951685 0.121226594 -0.108450346 -0.042332813
0.1930475 0.19174111 -0.0006092096 0.03788781 -0.09198332 0.004684764 -0.068411805 -0.14651957
-0.072402425 -0.08948211 0.19799513 0.1468615 -0.12942179 0.1100429 -0.14547165 0.15571094
-0.18406254 0.14318706 -0.096006654 -0.08958064 -0.0077663446 0.033313453 -0.17661215 -0.2850522
-0.08688499 -0.0033149205 -0.029615702 -0.0021737658 -0.30438003 -0.22921088 0.006760288 -0.12387206
-0.17609982 -0.3141599 -0.253531 0.0026241562 -0.29619423 -0.28042743 -0.07513608 -0.20049258
0.043485973 -0.17626297 -0.2916466 0.0014881403 0.02019455 -0.13932317 0.05441143 -0.008356286
0.17781454 0.11852577 0.21598075 0.12877882 0.19421524 0.23347549 -0.12580723 0.099051446
0.18064931 -0.029986612 0.21649341 -0.04932603 -0.062973216 0.03959265 0.20907825 -0.11071532
0.14828993 0.14499846 0.012302935 -0.018023998 -0.035203334 0.112065874 0.039441098 -0.028221874
-0.08915106 -0.09085827 -0.29482877 0.08435357 -0.013495065 -0.17646746 -0.09187963 -0.18568705
-0.18333879 -0.20907375 -0.056614567 -0.14959043 -0.097445436 -0.25885272 -0.25834566 0.053255573
-0.193247 -0.13952747 -0.18240131 -0.2607964 -0.17251995 -0.24028961 -0.018188855 -0.13831395
0.06737935 -0.22596751
00000000: 2d44 84be 126a 71be 935b 6f3d be7a 8a3d
00000010: 97ec 60be 935f b83d fcf8 7abd 0c34 023d
00000020: 5af7 c33d 3235 f33d 084c 86be fda7 f3bd
00000030: a66b 68be eb8e aabc 130e e63d 0a7a 5ebe
00000040: a685 ffbd 35c1 88be f0ee c03d 516d 12be
00000050: 6ab7 96be b85a eebd f643 903c 4cfd 83be
00000060: 3bb9 a3bd edfa ffbd 5213 04be b6a0 593d
00000070: 5315 84bc b6a8 033d 8d1f f7b9 015c ed3c
00000080: 1057 8bbd 0fba 7cbd 1224 093e a801 17be
00000090: faa6 f23d 6a27 893d 6068 483e 05b7 20be
000000a0: 5c22 e5ba c779 e6bd 0f56 a43d 959b b1bd
000000b0: d4f9 183d 8bcf 743d 5acb 433e ca40 2bbe
000000c0: 4d32 38bd 81e9 05bd f5a7 83be b348 15bd
000000d0: 9918 073b 8c0d 8e3d 1274 6cbd 21f6 46be
000000e0: d7f4 883c 8b49 033c 0268 b33b 4d5b e0bd
000000f0: 8391 8abe 594f a3bd 8744 5dbe 0a98 7ebe
00000100: 1b76 18bd 63a2 8abe 2dad 0d3d 7ff8 95be
00000110: f7c9 11be a886 103d c701 a0bd 2941 fd3b
00000120: 44a6 46bd d8cc 54be 76c4 9abe e3a0 38be
00000130: 7493 57bd 492e 39be d9d8 783c fd7b 69be
00000140: 9980 94bd cea8 6cbd 68cb 993c b29a fb3d
00000150: 01e6 253e 8a9c 9dbd 2ff7 98bd 76ea fabd
00000160: fd0b 093e 1290 fdbc ca17 43be b018 18be
00000170: 97b7 943d 4267 1c3e 4c8a 7abd 16fc 5dbd
00000180: 1a52 45be 23c9 37bd 2d1a 24be 76df e7bc
00000190: ff39 19bd d8f6 b53c a8a7 6abe a7c4 9f3d
000001a0: ed7f cc3d 1707 50be 987c 593d a1f7 56be
000001b0: f98a 11be b37b 1ebe f0b9 893c 7609 5bbe
000001c0: 5757 3f3d a4b5 f2bd 87ca d33d e1ab c93d
000001d0: 4096 183e 2d49 0d3e 6511 89bd ebfd e43d
000001e0: 7c57 60be d97d 75be 4b2a 3ebe c242 af3d
000001f0: 000e ea3c 9c29 62be b173 4abe 0ce5 25be
00000200: 5c19 7dbe 73ee d3bc 130b 143d 4332 61be
00000210: 0c6d f5bd 6dba 6abe f43f 15be 89ce d4bd
00000220: 6d82 853d 2dc4 c83d 9390 a83d 7c22 d93d
00000230: 4609 af3d d98b 1c3d b9f8 19be be39 cf3d
00000240: b9aa c63d 4709 ac3d 72a9 553e a846 3c3e
00000250: 254e 4c3e a645 f83d 371b debd 2c65 2dbd
00000260: 3eae 453e c857 443e 5db3 1fba 4030 1b3d
00000270: c061 bcbd a682 993b 7d1b 8cbd 3a09 16be
00000280: b947 94bd 6642 b7bd 3cbf 4a3e dc62 163e
00000290: 2587 04be 2c5e e13d 85f6 14be b072 1f3e
000002a0: e47a 3cbe a19f 123e 239f c4bd 0e76 b7bd
000002b0: d27c febb b073 083d d1d9 34be 5df2 91be
000002c0: c2f0 b1bd 233f 59bb a19c f2bc bd75 0ebb
000002d0: b3d7 9bbe 42b6 6abe 6885 dd3b a2b0 fdbd
000002e0: 8353 34be 91d9 a0be d1ce 81be 09fa 2b3b
000002f0: c5a6 97be 2f94 8fbe f2e0 99bd ed4d 4dbe
00000300: 591e 323d 487e 34be b452 95be b40d c33a
00000310: 0a6f a53c bcaa 0ebe 85de 5e3d cee8 08bc
00000320: 0415 363e a4bd f23d 0f2a 5d3e 98de 033e
00000330: 5ce0 463e 3314 6f3e 9cd3 00be 7cdb ca3d
00000340: 22fc 383e 7ca6 f5bc 73b0 5d3e 170a 4abd
00000350: 1af8 80bd e72b 223d 9c18 563e b7be e2bd
00000360: 51d9 173e 7a7a 143e 4092 493c 10a7 93bc
00000370: 5f31 10bd cb82 e53d fd8c 213d 8f31 e7bc
00000380: d594 b6bd e713 babd ccf3 96be 91c1 ac3d
00000390: 681a 5dbc e3b3 34be 632b bcbd bf24 3ebe
000003a0: 2abd 3bbe 6e17 56be ade4 67bd 3c2e 19be
000003b0: 7991 c7bd 5888 84be e245 84be 8422 5a3d
000003c0: 8be2 45be 4ae0 0ebe 69c7 3abe 1b87 85be
000003d0: 12a9 30be 7b0e 76be cb00 95bc 2ca2 0dbe
000003e0: 2ffe 893d 0764 67be

model.input_layers.0.bias f4 [10]
-0.15346959 -0.05332562 0.117638946 0.05947222 -0.1298153 0.01233655 -0.1207612 0.03425424
0.052899044 0.14582844
00000000: 2227 1dbe f76b 5abd b0ec f03d 2499 733d
00000010: 4dee 04be 3e1f 4a3c a651 f7bd 2d4e 0c3d
00000020: abac 583d 0d54 153e

model.input_layers.1.weight f4 [10, 10, 5, 5]
-0.024562178 -0.079437606 -0.06647125 0.012326282 0.0010282616 -0.08165272 -0.042603675 -0.07854559
-0.07753653 -0.025855554 -0.11814797 -0.022807121 -0.029973421 -0.07102295 -0.054219697 -0.05143161
-0.019770505 -0.1208442 -0.018700134 0.0021595196 -0.072995216 -0.033232786 -0.08944973 -0.027621746
-0.0036227126 0.0311522 -0.011181935 0.019350812 0.0016710814 0.019703338 -0.01673906 0.012792791
0.007538298 -0.012289963 -0.04520874 -0.012829249 0.0063113454 -0.01768657 -0.059024394 -0.06670119
-0.013834202 -0.061753456 0.0030273923 -0.008971034 0.056653682 -0.03815875 0.03647375 0.038634483
-0.033123918 -0.053761553 -0.041900426 -0.01892733 -0.018570289 -0.110939085 -0.08370287 -0.06542903
-0.0045344657 -0.08611682 -0.016101426 -0.11206061 -0.09986785 -0.056265943 -0.010159712 -0.087382905
-0.087968566 -0.052711267 -0.079760216 -7.9027384e-05 -0.0016056148 -0.040410668 -0.124443285 -0.0037478372
-0.010690793 -0.10296945 -0.005918086 0.0121693015 -0.022545226 0.022339556 -0.0070741447 0.037274435
0.014380292 -0.063844085 -0.012269253 0.03566032 -0.05511165 0.0019343339 -0.055814095 -0.046347406
0.00413288 -0.012015452 -0.0020998747 0.023720097 -0.031111864 0.027654642 0.021113064 -0.08787698
-0.024094079 -0.01914772 0.033847757 -0.041914653 -0.07881022 0.04015765 0.046643462 -0.059223942
-0.059543714 -0.040298123 -0.015443826 0.036753442 0.03844759 -0.038186193 -0.0039706198 0.018894065
-0.04239554 -0.009940856 -0.061482716 -0.016722115 0.035626177 -0.020306068 -0.023151226 0.018513123
-0.007061281 0.045317937 -0.04486012 -0.021226116 0.051810924 -0.05391828 -0.09936058 -0.0324466
-0.09136952 0.005783246 -0.114168175 -0.101770304 -0.04667447 -0.090339005 -0.08533902 -0.08974275
-0.107200526 -0.0108756125 0.019393701 -0.007925398 -0.023292985 -0.06362421 -0.005336428 0.025426948
-0.06412977 -0.06056783 0.0051873955 -0.046629913 -0.032093395 0.002225615 -0.050804216 -0.028757412
0.034590635 -0.020506367 -0.04974255 -0.06790485 -0.029277382 0.04818366 0.0021832073 0.018395845
-0.04009997 0.017568497 -0.03333541 0.041170888 -0.039630994 -0.0784851 -0.009266976 0.023510827
-0.04281719 -0.050371546 -0.08094473 -0.013714368 0.01789939 -0.01834883 -0.041925795 -0.07780846
-0.014725412 -0.012959218 -0.07093172 0.026898002 -0.05661528 0.008155261 -0.031347625 -0.015860075
0.024211753 -0.043736417 7.270901e-05 0.015827639 -0.040856723 0.024770487 -0.06493661 -0.07644378
-0.059695963 -0.019881364 -0.017149132 -0.03582972 -0.083222635 0.022076445 0.030688899 -0.010276267
-0.05710818 -0.036986616 -0.008499726 -0.08950886 0.00621541 -0.035957932 -0.03431322 -0.0012844375
-0.07324877 -0.098153606 0.024729285 -0.096019864 -0.08591334 -0.03045107 -0.08607463 -0.071938224
-0.07853032 -0.014598679 -0.07333263 -0.03352827 -0.086250536 -0.050169554 -0.09526403 -0.040319026
-0.030507483 -0.08644921 0.016135467 -0.00909715 -0.03484189 0.023906877 -0.032306217 -0.07818459
-0.025200447 -0.020520916 -0.03486588 -0.07841358 -0.018513678 -0.06525151 -0.08620554 -0.0814334
-0.05806525 -0.02647367 -0.06836151 0.022238439 0.0011774936 0.006609498 -0.0060274093 -0.09115805
0.009969271 -0.07285098 -0.13169135 -0.029023407 -0.06027544 -0.03998206 -0.0037378985 -0.08354516
00000000: 9f36 c9bc 2fb0 a2bd 1422 88bd 2df4 493c
00000010: bcc6 863a 8b39 a7bd 3181 2ebd 83dc a0bd
00000020: 79cb 9ebd 07cf d3bc 90f7 f1bd 00d6 babc
00000030: d28a f5bc 7b74 91bd 7915 5ebd f4a9 52bd
00000040: c1f5 a1bc 2a7d f7bd 0631 99bc ba86 0d3b
00000050: 847e 95bd 1a1f 08bd 6c31 b7bd 0047 e2bc
00000060: 086b 6dbb e632 ff3c 6f34 37bc 9885 9e3c
00000070: 3008 db3a e568 a13c 5a20 89bc db98 513c
00000080: d403 f73b d75b 49bc cd2c 39bd c531 52bc
00000090: 67cf ce3b 6de3 90bc 90c3 71bd a29a 88bd
000000a0: d9a8 62bc 31f1 7cbd 3767 463b 3efb 12bc
000000b0: b10d 683d 594c 1cbd 8065 153d 313f 1e3d
000000c0: f2ac 07bd 1335 5cbd c89f 2bbd 7d0d 9bbc
000000d0: b820 98bc 0834 e3bd 696c abbd a8ff 85bd
000000e0: db95 94bb 045e b0bd 23e7 83bc 0880 e5bd
000000f0: 8487 ccbd 1e77 66bd ec74 26bc cff5 b2bd
00000100: dd28 b4bd c5e7 57bd 5359 a3bd 81bb a5b8
00000110: 7e73 d2ba a885 25bd 1fdc febd 469e 75bb
00000120: 7028 2fbc a6e1 d2bd 81ec c1bb c061 473c
00000130: c4b0 b8bc 7201 b73c 3ace e7bb 14ad 183d
00000140: 519b 6b3c b0c0 82bd fa04 49bc 8e10 123d
00000150: c1bc 61bd 7a89 fd3a 529d 64bd c7d6 3dbd
00000160: 1c6d 873b 75dc 44bc 0d9e 09bb a650 c23c
00000170: 4fde febc fd8b e23c 4ef5 ac3c d9f8 b3bd
00000180: f260 c5bc aedb 9cbc f2a3 0a3d b3ae 2bbd
00000190: 4167 a1bd 597c 243d 370d 3f3d ce94 72bd
000001a0: 1ce4 73bd a50f 25bd 1a08 7dbc c78a 163d
000001b0: 387b 1d3d 2069 1cbd f91b 82bb bac7 9a3c
000001c0: f2a6 2dbd f9de 22bc 4dd5 7bbd d1fc 88bc
000001d0: c1ec 113d e958 a6bc a4a7 bdbc d5a8 973c
000001e0: 5162 e7bb 4d9f 393d 3fbf 37bd 64e2 adbc
000001f0: b137 543d 6ad9 5cbd 8f7d cbbd bae6 04bd
00000200: f11f bbbd 6281 bd3b 01d1 e9bd f36c d0bd
00000210: bb2d 3fbd a803 b9bd 39c6 aebd 0ccb b7bd
00000220: f38b dbbd a02f 32bc 8adf 9e3c 87d9 01bc
00000230: eed0 bebc 694d 82bd 34dd aebb 2d4c d03c
00000240: 7856 83bd f915 78bd 07fb a93b 02ff 3ebd
00000250: 5d74 03bd a0db 113b 1518 50bd aa94 ebbc
00000260: e9ae 0d3d f8fc a7bc d8be 4bbd b311 8bbd
00000270: 1fd7 efbc 3b5c 453d 2414 0f3b e2b2 963c
00000280: de3f 24bd cfeb 8f3c b68a 08bd cea2 283d
00000290: 1c54 22bd ccbc a0bd 84d4 17bc c799 c03c
000002a0: 1461 2fbd 6552 4ebd 5ac6 a5bd 3bb2 60bc
000002b0: bea1 923c 4950 96bc 62ba 2bbd 0b5a 9fbd
000002c0: db42 71bc e652 54bc a644 91bd 3359 dc3c
000002d0: 6de5 67bd a59d 053c 5e66 00bd fdec 81bc
000002e0: ba57 c63c f524 33bd 5a7b 9838 f7a8 813c
000002f0: 6159 27bd 7aeb ca3c 7cfd 84bd 8e8e 9cbd
00000300: c183 74bd 3ede a2bc 567c 8cbc 2fc2 12bd
00000310: a170 aabd a9d9 b43c 4967 fb3c ca5d 28bc
00000320: 44ea 69bd 477f 17bd 6f42 0bbc 6c50 b7bd
00000330: a3aa cb3b a048 13bd 058c 0cbd 925a a8ba
00000340: 7303 96bd c204 c9bd 1295 ca3c 10a6 c4bd
00000350: 55f3 afbd 8674 f9bc e547 b0bd 5954 93bd
00000360: 81d4 a0bd 4c2f 6fbc 6b2f 96bd f054 09bd
00000370: 1fa4 b0bd 977e 4dbd ca19 c3bd 9025 25bd
00000380: d4ea f9bc 490c b1bd 872e 843c 360c 15bc
00000390: 5fb6 0ebd 5bd8 c33c 8653 04bd 3e1f a0bd
000003a0: 2b71 cebc 7b1b a8bc 86cf 0ebd 4d97 a0bd
000003b0: ffa9 97bc 95a2 85bd 888c b0bd 8ec6 a6bd
000003c0: d4d5 6dbd 4fdf d8bc 1f01 8cbd 632d b63c
000003d0: 2156 9a3a 7d94 d83b 9381 c5bb 12b1 babd
000003e0: 2756 233c e532 95bd 19da 06be 7fc2 edbc
000003f0: 61e3 76bd 3bc4 23bd 88f7 74bb ba19 abbd

model.input_layers.1.bias f4 [10]
-0.015639499 -0.025928503 0.07326117 0.06967062 -0.08833598 -0.045789767 -0.10644333 -0.049778912
0.012383585 -0.010243698
00000000: 681e 80bc 0368 d4bc f409 963d 78af 8e3d
00000010: 7fe9 b4bd 0d8e 3bbd f6fe d9bd f9e4 4bbd
00000020: 85e4 4a3c 2fd5 27bc

model.input_layers.2.weight f4 [10, 10, 5, 5]
-0.013008023 -0.016100546 -0.11148957 0.005498695 -0.081297986 -0.07998575 -0.056342974 -0.031845633
-0.001788199 -0.00655074 -0.04877736 -0.03679759 -0.014551512 0.0076489667 -0.016904559 -0.018666351
-0.060496565 -0.020156754 -0.016973585 -0.054968074 -0.03366956 -0.039299034 -0.07337882 -0.014711329
-0.020589674 -0.025141552 -0.026611881 0.0029196916 -0.029945774 -0.05392563 -0.102963045 -0.02813461
-0.042674907 -0.0873362 -0.014971462 -0.08276572 -0.007858906 0.0022578002 -0.003987137 -0.10645536
-0.020515239 -0.07750477 -0.058651738 0.0011986083 -0.10592042 -0.066700146 -0.071623325 -0.07721692
-0.0472886 -0.051202267 -0.034531794 -0.090055846 0.0035500813 -0.04663037 -0.046494234 -0.05199659
0.015622183 -0.08869615 -0.114407845 0.0020345405 0.013389333 -0.025355043 -0.04142438 -0.100205794
-0.010751658 -0.0042876787 -0.07826242 -0.07788042 -0.060319223 -0.05846676 -0.027831215 -0.08801078
-0.01823465 -0.09344489 0.0053967466 -0.0689239 -0.04226672 -0.08720837 -0.02538632 -0.048857734
-0.0658116 -0.103215806 -0.08227503 -0.09173162 -0.01651549 -0.13178734 -0.05686128 -0.022901608
-0.06418971 -0.019073302 -0.120499484 -0.084353775 -0.06813372 -0.07684117 -0.017308444 -0.0934178
-0.020009734 -0.0161124 -0.041043676 -0.07916099 -0.06827634 -0.045646217 -0.046102673 -0.084402844
-0.07460139 -0.014805528 -0.09870185 -0.01602537 -0.11758748 -0.06395911 0.012291126 -0.04515448
-0.033010997 -0.06461916 -0.07300358 -0.03234733 0.010307947 -0.034839973 -0.05117413 -0.04259408
0.008078723 0.0025188827 -0.07948304 -0.120889634 -0.117019996 0.10873929 0.059929907 0.11698506
0.11818135 0.0024379268 0.023025777 0.01826915 0.04297967 0.08781278 0.025763856 -0.06208404
0.041475806 0.0052517946 0.0068715727 0.0727753 -0.04077621 -0.11359628 0.053744107 0.034563124
0.029021796 -0.09432838 -0.07825472 -0.010446748 0.09665898 0.029452637 0.054427173 0.045365904
0.010451875 0.10662282 0.10048497 0.040790286 0.063289374 -0.086069085 -0.031953637 -0.088519834
0.013299043 -0.056891125 -0.02806506 -0.053593744 -0.10497161 -0.059452053 -0.03199398 -0.0340561
-0.11729249 -0.08153693 -0.018207079 -0.07146544 -0.08594849 -0.012730424 -0.09609614 0.06544723
0.08540733 0.015830703 0.109211296 0.06363158 0.07223193 0.0039059105 0.1056189 0.08305549
0.06189954 0.000640163 0.062704094 0.094825976 0.03905196 0.024684096 0.10767077 0.07735504
0.113953196 0.117170274 0.026281467 0.008147667 0.009693886 0.12040733 0.054565977 0.11312255
-0.115267836 -0.08235218 -0.069756284 -0.09712015 -0.1643834 -0.12554719 -0.052419104 -0.07129885
-0.11125788 -0.1328981 -0.1543187 -0.104019396 -0.057932645 -0.14968987 -0.12704392 -0.11948907
-0.07433077 -0.10533456 -0.16329627 -0.12979151 -0.1308022 -0.10966626 -0.14959756 -0.15567307
-0.13521717 -0.10216501 -0.10636435 -0.053910904 0.015319073 0.034947034 -0.13531305 -0.15503033
-0.065294795 -0.046282295 -0.10896763 -0.10917111 -0.09658905 -0.05264767 -0.071395636 -0.1465229
-0.048394296 -0.039984673 -0.13660169 -0.085752726 -0.094523154 -0.038787197 -0.108415626 -0.015252574
-0.10110636 -0.022848368 -0.013089287 -0.01682951 -0.027670829 -0.051931 -0.011742273 -0.026788631
00000000: 9a1f 55bc 4be5 83bc a554 e4bd 662e b43b
00000010: 8f7f a6bd 92cf a3bd e4c7 66bd 9170 02bd
00000020: 0062 eaba 97a7 d6bb c5ca 47bd 12b9 16bd
00000030: 7769 6ebc 2fa4 fa3b 6e7b 8abc 2dea 98bc
00000040: 3fcb 77bd c71f a5bc 300c 8bbc 3426 61bd
00000050: 18e9 09bd 06f8 20bd a347 96bd c907 71bc
00000060: adab a8bc a8f5 cdbc 2901 dabc 4c58 3f3b
00000070: d750 f5bc 1fe1 5cbd 4ade d2bd 8e7a e6bc
00000080: e2cb 2ebd 52dd b2bd dd4a 75bc 1381 a9bd
00000090: a4c2 00bc 9af7 133b 88a6 82bb 4505 dabd
000000a0: 930f a8bc d2ba 9ebd ce3c 70bd 9f1a 9d3a
000000b0: ceec d8bd 169a 88bd 40af 92bd e823 9ebd
000000c0: b1b1 41bd 78b9 51bd 3671 0dbd 336f b8bd
000000d0: 7ba8 683b 7dff 3ebd bd70 3ebd 60fa 54bd
000000e0: 2ff4 7f3c 54a6 b5bd a94e eabd ed55 053b
000000f0: ef5e 5b3c 61b5 cfbc 9cac 29bd b238 cdbd
00000100: b927 30bc a87f 8cbb 0c48 a0bd c57f 9fbd
00000110: 4a11 77bd d77a 6fbd 4afe e3bc ff3e b4bd
00000120: d560 95bc 0960 bfbd 31d7 b03b f927 8dbd
00000130: de1f 2dbd 4d9a b2bd f9f6 cfbc 0c1f 48bd
00000140: 3bc8 86bd cf62 d3bd d07f a8bd cadd bbbd
00000150: 7e4b 87bc 43f3 06be 60e7 68bd 279c bbbc
00000160: e575 83bd 9d3f 9cbc 6fc8 f6bd acc1 acbd
00000170: b189 8bbd e75e 9dbd 70ca 8dbc d551 bfbd
00000180: 74eb a3bc 27fe 83bc 6a1d 28bd 281f a2bd
00000190: 77d4 8bbd 87f7 3abd 28d6 3cbd 66db acbd
000001a0: 9dc8 98bd e392 72bc 3224 cabd a347 83bc
000001b0: b4d1 f0bd fefc 82bd b860 493c e7f3 38bd
000001c0: 8a36 07bd 0d57 84bd e782 95bd a27e 04bd
000001d0: aae2 283c 5cb4 0ebd f79b 51bd 2177 2ebd
000001e0: 9f5c 043c d713 253b 01c8 a2bd fc94 f7bd
000001f0: 2ea8 efbd b4b2 de3d 1079 753d dd95 ef3d
00000200: 1009 f23d a0c5 1f3b 8ea0 bc3c 2fa9 953c
00000210: 730b 303d 30d7 b33d b90e d33c d64b 7ebd
00000220: 89e2 293d 3f17 ac3b ee2a e13b 370b 953d
00000230: f504 27bd 2ba5 e8bd c822 5c3d 1092 0d3d
00000240: 1ebf ed3c 3d2f c1bd 0344 a0bd d628 2bbc
00000250: 25f5 c53d a846 f13c 07ef 5e3d 99d1 393d
00000260: 573e 2b3c 115d da3d 10cb cd3d b713 273d
00000270: dc9d 813d fd44 b0bd d1e1 02bd e349 b5bd
00000280: 3be4 593c ab06 69bd b2e8 e5bc 1d85 5bbd
00000290: 5bfb d6bd ff83 73bd 1f0c 03bd 697e 0bbd
000002a0: 0c37 f0bd d5fc a6bd 0327 95bc 795c 92bd
000002b0: c305 b0bd 4593 50bc 0ece c4bd 3309 863d
000002c0: 0aea ae3d 64af 813c 2caa df3d 4651 823d
000002d0: 56ee 933d 4efa 7f3b b94e d83d ff18 aa3d
000002e0: 5f8a 7d3d 9dd0 273a 016b 803d 1f34 c23d
000002f0: f3f4 1f3d 4d36 ca3c 7e82 dc3d 526c 9e3d
00000300: 4b60 e93d f8f6 ef3d 3b4c d73c cb7d 053c
00000310: 1bd3 1e3c 1e98 f63d 9380 5f3d ccac e73d
00000320: 8b11 ecbd 42a8 a8bd 62dc 8ebd eee6 c6bd
00000330: 1f54 28be 718f 00be 6ab5 56bd 2205 92bd
00000340: 2cdb e3bd 7116 08be b905 1ebe 1f08 d5bd
00000350: c84a 6dbd 4d48 19be cd17 02be afb6 f4bd
00000360: bb3a 98bd a5b9 d7bd 2337 27be 11e8 04be
00000370: 03f1 05be b498 e0bd 1a30 19be c368 1fbe
00000380: 5f76 0abe e43b d1bd 8dd5 d9bd aed1 5cbd
00000390: d9fc 7a3c 9f24 0f3d 818f 0abe 45c0 1ebe
000003a0: 47b9 85bd 8192 3dbd 6c2a dfbd 1a95 dfbd
000003b0: 7bd0 c5bd 15a5 57bd e037 92bd 190a 16be
000003c0: 1939 46bd f8c6 23bd 50e1 0bbe 209f afbd
000003d0: 5b95 c1bd 53df 1ebd 0309 debd efe5 79bc
000003e0: da10 cfbd 802c bbbc 7374 56bc 0ade 89bc
000003f0: efad e2bc 9ab5 54bd aa62 40bc d573 dbbc

model.input_layers.2.bias f4 [10]
-0.073345564 -0.02196592 0.049208418 -0.041366722 0.004179281 -0.046481453 -0.034116454 0.0356111
-0.035517797 -0.049209457
00000000: 3336 96bd e0f1 b3bc c48e 493d 2770 29bd
00000010: 5af2 883b 5663 3ebd b2bd 0bbd f2dc 113d
00000020: 1c7b 11bd db8f 49bd

model.hidden_layers.0.weight f4 [10, 10, 5, 5]
-0.035971463 -0.08903211 -0.0700497 -0.066344924 -0.038724843 -0.03959054 -0.013945608 -0.11287308
-0.07777303 -0.09469699 -0.037392993 -0.058326904 -0.053469192 -0.017074693 -0.033263404 -0.10314051
-0.12311004 -0.028602872 -0.12622668 -0.011164365 -0.007968006 -0.009357187 -0.020195657 -0.049634695
-0.111763254 -0.03370423 -0.075914405 -0.009222236 -0.023038277 -0.059818182 -0.011807207 -0.0216097
-0.05019758 -0.052455105 0.049222913 -0.06510804 -0.045866206 -0.049655437 0.005345105 -0.029494403
-0.041168153 -0.004353584 0.0209502 -0.058379162 -0.017191974 0.002791184 0.027599772 -0.06576845
0.035516407 -0.014579065 -0.05957731 -0.01705397 0.04135669 -0.043374844 -0.02004196 0.003456174
0.04610684 0.03506371 -0.04774416 -0.016742762 -0.04067784 -0.0438394 -0.05084924 -0.04496607
-0.03701634 0.012719708 -0.06449275 -0.005693417 -0.032243967 -0.022554168 -0.0522538 0.024082288
-0.047339045 -0.071595274 0.04879673 -0.04722585 -0.035694864 -0.12722643 -0.017086534 -0.053279236
-0.03637139 -0.015166001 -0.10273954 -0.11782083 -0.09527242 -0.023896266 -0.11263021 -0.120632276
-0.12076151 -0.056026537 -0.12000333 -0.0592574 -0.07504092 -0.016085573 -0.06323539 -0.13287619
-0.115469635 -0.06401589 -0.13419506 -0.07450625 -0.01858932 -0.108022556 -0.0559168 -0.06413574
-0.06173556 -0.032422096 -0.06953267 -0.097932436 -0.11254884 -0.039926063 -0.04549384 -0.10491665
-0.019314453 -0.10878184 -0.062267806 -0.08610436 -0.091354735 -0.05530266 -0.09174664 -0.032846708
0.010200569 -0.033919226 -0.092387214 -0.08908562 -0.012570704 -0.043717764 -0.029773412 -0.01424297
0.015651464 0.030102652 0.015068972 -0.020975305 0.0004703123 0.07350095 0.05451231 -0.038672227
-0.040748578 0.05190278 -0.041388646 0.06841123 -0.01564597 -0.033987626 0.012090915 0.020755384
-0.021662667 -0.037503112 -0.035689503 0.069118895 -0.036287706 0.06872626 -0.041408155 -0.07789022
-0.020054832 0.0038626418 -0.030415487 -0.11509329 -0.057418924 -0.0087607335 -0.10052221 -0.00014398442
-0.115154356 -0.064753525 -0.10360478 -0.004444278 -0.10017105 -0.05603639 -0.062581755 -0.028201759
-0.06488038 -0.1128227 -0.05141771 -0.08672045 -0.05733418 -0.06543912 -0.10432319 -0.06997709
0.042230006 -0.071457215 0.0011653078 0.01493492 -0.003366825 -0.07315838 0.0324407 0.014888016
-0.073709495 -0.04390713 -0.041978687 0.015880961 0.034054868 -0.050167434 0.021462876 -0.062065206
-0.07678359 -0.024838498 -0.06775487 0.020602828 -0.06483811 0.03256726 0.046544846 0.033647686
-0.082519405 0.01514766 -0.07046428 -0.06119028 -0.03813575 0.020627523 -0.06914384 -0.013697109
0.008711548 0.032901615 -0.004705888 -0.044898894 -0.078285374 0.021125028 0.0115288235 -0.00212252
-0.021877112 0.016690806 -0.032532923 -0.053808186 0.03992676 0.02170988 -0.0348241 0.034754496
-0.021284332 0.035890076 0.055140954 0.055725284 0.07729328 -0.034978386 0.041986246 0.06695936
0.014928008 0.05460456 -0.033357404 0.008994203 0.03386338 0.05255214 -0.03086986 -0.019545503
-0.01693376 0.020109905 -0.03950363 -0.018491955 -0.02193768 -0.01533074 -0.04096231 0.04236218
-0.03373476 -0.019604806 0.04719575 0.018217541 0.02077727 0.0053724777 0.10274808 0.06992763
00000000: d056 13bd 7856 b6bd 3876 8fbd d9df 87bd
00000010: f19d 1ebd b129 22bd 1f7c 64bc 002a e7bd
00000020: 7747 9fbd 7ff0 c1bd 6529 19bd 31e8 6ebd
00000030: 8302 5bbd 3ae0 8bbc 353f 08bd 553b d3bd
00000040: 1e21 fcbd 9250 eabc 9141 01be beea 36bc
00000050: 3d8c 02bc e34e 19bc 5d71 a5bc c04d 4bbd
00000060: 22e4 e4bd 720d 0abd 0379 9bbd dd18 17bc
00000070: c5ba bcbc e903 75bd 0473 41bc d306 b1bc
00000080: fa9b 4dbd 2adb 56bd f79d 493d 5d57 85bd
00000090: 34de 3bbd 8063 4bbd fe25 af3b 3f9e f1bc
000000a0: f09f 28bd 82a8 8ebb c19f ab3c fd1e 6fbd
000000b0: 2fd6 8cbc 4cec 363b eb18 e23c 9cb1 86bd
000000c0: a779 113d 08dd 6ebc 5607 74bd c4b4 8bbc
000000d0: a265 293d d2a9 31bd 092f a4bc fa80 623b
000000e0: 87da 3c3d f79e 0f3d 618f 43bd 1e28 89bc
000000f0: cf9d 26bd f190 33bd 4b47 50bd 582e 38bd
00000100: 729e 17bd 5266 503c c614 84bd d88f babb
00000110: 4012 04bd 85c3 b8bc 1508 56bd 3848 c53c
00000120: 96e6 41bd 8ba0 92bd 14df 473d e56f 41bd
00000130: c734 12bd a547 02be 0ff9 8bbc 543b 5abd
00000140: 2bfa 14bd d27a 78bc 1c69 d2bd 0c4c f1bd
00000150: 301e c3bd 1ac2 c3bc abaa e6bd 0e0e f7bd
00000160: d051 f7bd 157c 65bd 4ec4 f5bd e3b7 72bd
00000170: 0eaf 99bd e4c5 83bc 8e81 81bd b210 08be
00000180: 587b ecbd c31a 83bd 6e6a 09be bc96 98bd
00000190: a148 98bc ee3a ddbd 0409 65bd 9959 83bd
000001a0: 6dde 7cbd 08cd 04bd 2567 8ebd cd90 c8bd
000001b0: 0280 e6bd 8389 23bd c057 3abd 8ade d6bd
000001c0: 5839 9ebc 03c9 debd 870c 7fbd 7c57 b0bd
000001d0: 3118 bbbd 0b85 62bd aae5 bbbd 458a 06bd
000001e0: 4a20 273c e3ee 0abd 8235 bdbd 8672 b6bd
000001f0: 5bf5 4dbc 6611 33bd 5fe7 f3bc 595b 69bc
00000200: 8037 803c d699 f63c d9e3 763c 67d4 abbc
00000210: 4094 f639 ab87 963d 4d48 5f3d c566 1ebd
00000220: fbe7 26bd 0298 543d 2487 29bd 301b 8c3d
00000230: fa2b 80bc 9c36 0bbd f918 463c 3207 aa3c
00000240: e875 b1bc dd9c 19bd 282f 12bd 358e 8d3d
00000250: 6ba2 14bd 5ac0 8c3d 999b 29bd e884 9fbd
00000260: 084a a4bc 6024 7d3b e629 f9bc 08b6 ebbd
00000270: 1b30 6bbd 2e89 0fbc 97de cdbd 86fa 16b9
00000280: 0cd6 ebbd 7f9d 84bd be2e d4bd 4ea1 91bb
00000290: 7b26 cdbd 6a86 65bd dd2a 80bd 6007 e7bc
000002a0: 01e0 84bd 960f e7bd 609b 52bd 7e9a b1bd
000002b0: 3fd7 6abd f204 86bd 66a7 d5bd 2650 8fbd
000002c0: 5ff9 2c3d 2958 92bd 3ebd 983a 98b1 743c
000002d0: f3a5 5cbb 10d4 95bd 8ae0 043d ddec 733c
000002e0: 01f5 96bd f6d7 33bd d8f1 2bbd ca18 823c
000002f0: 1e7d 0b3d 5e7c 4dbd ead2 af3c 1638 7ebd
00000300: b740 9dbd 1b7a cbbc 11c3 8abd 43c7 a83c
00000310: d8c9 84bd 3f65 053d cfa5 3e3d 28d2 093d
00000320: efff a8bd e42d 783c 944f 90bd a9a2 7abd
00000330: 3b34 1cbd 0dfb a83c 499b 8dbd d769 60bc
00000340: e1ba 0e3c d8c3 063d da33 9abb e7e7 37bd
00000350: 1554 a0bd 650e ad3c 64e3 3c3c fa19 0bbb
00000360: a137 b3bc 28bb 883c 3e41 05bd f965 5cbd
00000370: 3e8a 233d ebd8 b13c b7a3 0ebd bb5a 0e3d
00000380: 7b5c aebc 7901 133d 7bdb 613d 3240 643d
00000390: f04b 9e3d 7f45 0fbd c5f9 2b3d fd21 893d
000003a0: 9b94 743c 08a9 5f3d c6a1 08bd 6c5c 133c
000003b0: 54b4 0a3d ea40 573d cae2 fcbc e41d a0bc
000003c0: abb8 8abc 87bd a43c 8fce 21bd 717c 97bc
000003d0: a6b6 b3bc c92d 7bbc 18c8 27bd f783 2d3d
000003e0: 762d 0abd 429a a0bc 5550 413d f43c 953c
000003f0: 1835 aa3c 9c0b b03b 966d d23d 3836 8f3d

model.hidden_layers.0.bias f4 [10]
-0.07546313 -0.06725704 -0.051562894 -0.068915576 -0.09862714 -0.09935634 -0.09710804 -0.061466545
-0.06890898 -0.004941935
00000000: 6a8c 9abd 0fbe 89bd 9d33 53bd 9c23 8dbd
00000010: 07fd c9bd 567b cbbd 94e0 c6bd 58c4 7bbd
00000020: 2720 8dbd f5ef a1bb

model.hidden_layers.1.weight f4 [10, 10, 5, 5]
-0.03912786 -0.08971546 -0.061380625 -0.09138898 -0.024711985 -0.07899366 -0.06910421 -0.03639494
-0.02760588 -0.08777664 -0.09464435 -0.031888917 -0.051472586 -0.04023056 -0.0408915 -0.08960911
-0.0021170073 -0.008506439 -0.0061414614 -0.030207982 0.011296506 -0.0025028796 -0.03877489 -0.01832392
-0.09512381 -0.10415344 -0.052175853 -0.08347745 -0.09494413 -0.015087614 -0.09700046 -0.0038921891
0.0028207528 -0.10777172 -0.106060766 -0.087388635 -0.090064235 -0.07099951 -0.058145273 -0.091662824
-0.06525195 -0.046255317 -0.026920157 -0.007920675 -0.093342595 -0.013142555 0.056343213 0.017364522
0.04302281 0.030988578 -0.09711905 -0.015977608 -0.0150063345 -0.01587861 -0.070430934 -0.011701642
-0.030080864 -0.03423235 -0.080993704 -0.09599323 -0.09187311 0.006255646 -0.05777851 -0.020737093
0.010813151 -0.065973654 -0.05083241 -0.02361929 0.0032558122 -0.07108413 -0.038188703 -0.074476615
-0.0765905 -0.09925415 -0.07775151 -0.019503357 -0.0502696 -0.098997585 0.0044190204 -0.07131261
-0.059358243 -0.09888446 -0.098348066 -0.0995239 -0.08116799 -0.062779054 0.008277756 -0.024682965
-0.04843339 -0.0011525765 -0.004475887 -0.0413814 -0.0712363 -0.08800436 -0.05638234 -0.005305838
-0.09580435 -0.08578483 -0.006204301 -0.04027578 -0.034127194 -0.101140246 -0.009266451 -0.08855243
-0.09789803 -0.08697424 -0.03895827 0.0041551385 -0.087057024 -0.013678451 -0.11049651 -0.05095537
-0.06927989 -0.042900547 -0.039449397 -0.04780417 -0.0014705268 -0.007232343 -0.029847166 -0.035678245
-0.0648245 -0.046937916 -0.039352473 -0.09820146 -0.034936678 -0.09616366 -0.048255228 -0.081963904
-0.10502886 0.00094040827 0.006826963 -0.030756362 -0.0010174385 -0.030061863 -0.107741766 -0.0004404259
-0.018796675 -0.06924203 -0.0059772995 -0.061416145 0.0030816216 -0.099034645 0.007821622 -0.07927483
-0.097584814 -0.008252409 0.0015193931 -0.070347555 -0.050731074 -0.077895686 0.041790485 -0.0692339
-0.074590534 -0.100327775 -0.016364135 -0.09146461 -0.10793712 -0.028463531 -0.055664416 0.014700933
0.006565359 -0.059947796 -0.03657609 -0.0797555 -0.10521686 -0.08848811 -0.00482454 -0.07734874
-0.029993916 -0.10040454 0.0021045269 -0.103118986 -0.01590661 -0.10432038 -0.0638161 -0.077335425
-0.038099065 -0.0958461 0.006263459 -0.06737433 -0.10993291 -0.11624532 -0.047414593 -0.10376774
-0.06771189 -0.06286627 -0.0711042 -0.081936814 -0.0047032745 -0.04099462 -0.034036476 -0.021821368
-0.0792826 -0.10239202 -0.008738471 -0.07210377 -0.034975484 -0.07989914 0.008515914 0.0061711688
-0.052945763 -0.060665414 0.009290356 0.010353838 0.0067110807 -0.066443615 -0.075690955 -0.09191521
-0.05189136 0.0026736478 -0.041878868 -0.07955536 -0.10819302 -0.07123282 -0.086378194 -0.07649664
-0.043577258 -0.08358179 -0.041032698 -0.051291086 -0.10950816 -0.08784244 -0.043893725 -0.038145024
-0.052231446 0.009053165 0.01196723 -0.01923981 -0.049933642 -0.0651392 -0.07822045 -0.09292609
0.007282088 0.008900124 -0.027966445 -0.05644369 -0.050447356 -0.10332185 -0.05179707 -0.04546469
-0.074290544 -0.032221142 -0.09341314 0.0048996042 -0.0570718 0.0055218954 -0.10645124 -0.018752145
-7.368012e-05 -0.015335551 -0.050398175 -0.10333588 -0.043031015 -0.10914235 -0.12133016 -0.12065502
00000000: 8944 20bd bdbc b7bd 406a 7bbd 252a bbbd
00000010: ca70 cabc 6ec7 a1bd 8286 8dbd dc12 15bd
00000020: ba25 e2bc 3dc4 b3bd e6d4 c1bd f49d 02bd
00000030: ebd4 52bd cdc8 24bd d87d 27bd fb84 b7bd
00000040: 7dbd 0abb 975e 0bbc 503e c9bb bb76 f7bc
00000050: fb14 393c 5a07 24bb 6bd2 1ebd 0c1c 96bc
00000060: 46d0 c2bd 664e d5bd 59b6 55bd 3af6 aabd
00000070: 1172 c2bd 0a32 77bc 2da8 c6bd 1914 7fbb
00000080: 61dc 383b 6bb7 dcbd 6336 d9bd d0f8 b2bd
00000090: 9973 b8bd 3168 91bd bd29 6ebd b8b9 bbbd
000000a0: d0a2 85bd 3776 3dbd a987 dcbc b8c5 01bc
000000b0: 672a bfbd df53 57bc 24c8 663d 0b40 8e3c
000000c0: b038 303d c2db fd3c 5ae6 c6bd 79e3 82bc
000000d0: 21dd 75bc dc13 82bc 183e 90bd 3eb8 3fbc
000000e0: 256c f6bc 3837 0cbd 07e0 a5bd 1998 c4bd
000000f0: f827 bcbd 29fc cc3b 29a9 6cbd d6e0 a9bc
00000100: a429 313c 321d 87bd a535 50bd 3e7d c1bc
00000110: 775f 553b 8e94 91bd c26b 1cbd 3287 98bd
00000120: 7bdb 9cbd c345 cbbd 2f3c 9fbd 81c5 9fbc
00000130: 7fe7 4dbd 3fbf cabd 6ecd 903b 580c 92bd
00000140: a121 73bd f083 cabd b66a c9bd 30d3 cbbd
00000150: 673b a6bd 4e92 80bd 6d9f 073c ee33 cabc
00000160: 1762 46bd 0d12 97ba 76aa 92bb 8b7f 29bd
00000170: 56e4 91bd a13b b4bd 2bf1 66bd 98dc adbb
00000180: 1235 c4bd f5af afbd 734d cbbb 37f8 24bd
00000190: f5c8 0bbd 9e22 cfbd 50d2 17bc fa5a b5bd
000001a0: c37e c8bd 8d1f b2bd b592 1fbd d427 883b
000001b0: f44a b2bd 951b 60bc ff4b e2bd 94b6 50bd
000001c0: 9de2 8dbd 7cb8 2fbd b195 21bd 4ece 43bd
000001d0: b1be c0ba 4afd ecbb 0b82 f4bc 5a23 12bd
000001e0: b5c2 84bd f941 40bd 0f30 21bd d91d c9bd
000001f0: c319 0fbd 74f1 c4bd 46a7 45bd b1dc a7bd
00000200: 5f19 d7bd bb85 763a b7b4 df3b c4f4 fbbc
00000210: 925b 85ba 4c44 f6bc b7a7 dcbd f7e8 e6b9
00000220: 7cfb 99bc c4ce 8dbd 39dd c3bb 7f8f 7bbd
00000230: 08f5 493b add2 cabd 4326 003c d85a a2bd
00000240: 8cda c7bd 1d35 07bc 5f26 c73a 6112 90bd
00000250: 63cb 4fbd c687 9fbd 802c 2b3d 81ca 8dbd
00000260: ecc2 98bd a678 cdbd 140e 86bc cc51 bbbd
00000270: 230e ddbd 5a2c e9bc 5f00 64bd 2fdc 703c
00000280: 3922 d73b d28b 75bd cfd0 15bd da56 a3bd
00000290: f07b d7bd 4139 b5bd 2d17 9ebb 0469 9ebd
000002a0: cdb5 f5bc e5a0 cdbd 1aec 093b 0c30 d3bd
000002b0: 944e 82bc eca5 d5bd 04b2 82bd 0962 9ebd
000002c0: c40d 1cbd f64a c4bd b43d cd3b 8dfb 89bd
000002d0: 8124 e1bd 0712 eebd ce35 42bd 2e84 d4bd
000002e0: 88ac 8abd 08c0 80bd 149f 91bd 7dce a7bd
000002f0: ed1d 9abb fae9 27bd d569 0bbd bac2 b2bc
00000300: ea5e a2bd e8b2 d1bd ce2b 0fbc 24ab 93bd
00000310: 7442 0fbd 29a2 a3bd 5586 0b3c 8437 ca3b
00000320: a8dd 58bd 4c7c 78bd 9436 183c 25a3 293c
00000330: a0e8 db3b 9713 88bd dc03 9bbd 0b3e bcbd
00000340: 098c 54bd 5e38 2f3b 2d89 2bbd eced a2bd
00000350: 4d94 ddbd 83e2 91bd 0de7 b0bd 45aa 9cbd
00000360: 117e 32bd ee2c abbd e711 28bd 9a16 52bd
00000370: d045 e0bd bde6 b3bd e8c9 33bd f53d 1cbd
00000380: a4f0 55bd ba53 143c 3312 443c ce9c 9dbc
00000390: 3887 4cbd b367 85bd 0b32 a0bd 0950 bebd
000003a0: 959e ee3b d3d1 113c e319 e5bc 8031 67bd
000003b0: e3a1 4ebd 689a d3bd 2a29 54bd 2f39 3abd
000003c0: a425 98bd 51fa 03bd 634f bfbd dc8c a03b
000003d0: 1fc4 69bd 04f1 b43b 1c03 dabd 199e 99bc
000003e0: b784 9ab8 f741 7bbc 516e 4ebd c3a1 d3bd
000003f0: 4a41 30bd 0686 dfbd f27b f8bd fb19 f7bd

model.hidden_layers.1.bias f4 [10]
-0.10858123 -0.049546782 0.022909885 -0.09939355 -0.13198134 -0.05146149 -0.12840492 -0.14908747
0.049906258 -0.09888195
00000000: d65f debd 91f1 4abd 83ad bb3c d88e cbbd
00000010: 1e26 07be 49c9 52bd 947c 03be 63aa 18be
00000020: 816a 4c3d 9f82 cabd

model.hidden_layers.2.weight f4 [10, 10, 5, 5]
-0.06164543 -0.006271527 -0.100580156 -0.099905476 -0.018146323 -0.042285927 -0.04805102 -0.09554258
-0.053089257 -0.08042528 -0.090050586 -0.010198331 -0.0020778645 -0.09868162 -0.016071612 -0.0063403756
-0.063647725 -0.012298743 -0.014681893 -0.022860358 -0.01208286 0.003169389 -0.02936891 -0.01435193
-0.045437876 0.0013081072 -0.0018195792 0.08192668 0.03196587 0.08875767 0.03674842 0.11478747
0.08392797 -0.0018398573 0.014367544 0.11850601 0.09001574 0.05631883 0.11013497 0.053051922
0.022675691 0.12114751 0.067944616 0.075965725 0.0137931295 0.09248756 0.054023333 0.058263443
-0.0026242237 0.10027739 -0.057401896 0.010639638 -0.009799938 -0.08384 -0.02891516 -0.02082904
-0.046750665 0.027253086 -0.011863349 -0.04094989 -0.021361299 -0.027895568 -0.054353733 -0.054573894
-0.069542915 -0.09471635 0.005395437 -0.058027133 -0.0015242121 -0.018253468 -0.004832107 0.004586913
-0.04769593 -0.06272059 -0.04835246 -0.003128011 0.055589493 0.041364092 0.07898487 0.06247076
0.10128705 0.09868852 0.005669635 0.011241905 0.036789306 0.11353123 0.028901229 0.05392956
0.00079064583 0.08349848 0.03983389 0.07662758 0.11942723 0.0134001775 0.07971067 0.09597065
0.08849058 0.029894808 0.096160576 0.06507307 -0.05080218 -0.009404054 -0.079817176 -0.08108491
-0.03916931 -0.07711596 -0.04972512 0.034166068 0.005157518 0.01234696 -0.048417646 -0.068103924
0.017271256 0.0012746479 -0.013286898 -0.029362708 0.0015637417 0.034171015 0.00034713943 0.00806923
-0.024904719 -0.031122508 -0.039749406 0.016447445 0.0034213606 0.09073416 0.0822991 0.030619895
0.013244536 0.116445735 0.11047986 0.025797568 0.08163763 0.0011626905 0.072711684 0.10771331
0.09294969 0.055489678 0.029487565 0.03669805 0.0958687 0.009564378 0.012029907 0.042125694
0.111308835 0.069585614 0.028872909 0.110493965 0.11267394 0.005206907 0.022923935 -0.031799376
0.03219267 0.0064155553 -0.065674625 -0.05629876 -0.03914698 -0.030077528 0.036593307 0.010830887
0.027433563 0.030952899 -0.013127305 0.03279614 -0.07237316 0.019214178 0.004772671 0.0021313392
0.0035258213 -0.009206229 -0.051235393 -0.03582707 -0.07079124 -0.06606656 0.013382159 0.015750982
-0.0787723 -0.07300208 0.005066351 -0.08201916 -0.027900904 -0.03684521 0.028377531 -0.046788562
0.00589248 0.023049546 -0.016271172 0.016427584 -0.058965314 -0.09328459 -0.078362405 -0.07075761
-0.026757319 -0.008319261 0.017980505 0.002098579 -0.06762361 -0.042276263 0.015081591 -0.00032042188
-0.039612025 0.008710909 0.021078078 -0.09290717 -0.067481324 -0.04021524 -0.079582885 -0.0007341091
-0.07852011 -0.051887535 -0.07441668 -0.097772494 -0.061436884 -0.062731735 -0.039982677 -0.064355366
0.008865172 -0.0069235703 -0.04708624 -0.08060369 -0.0684884 -0.032216895 -0.02714782 -0.0918647
-0.029634394 -0.08117341 -0.088733286 -0.08436253 -0.0028703257 -0.053063985 -0.043411374 -0.029560778
0.016094584 -0.088633925 0.0059486222 -0.03720781 0.041562796 0.030808663 0.03400405 -0.026942722
0.0040702955 -0.05387467 -0.062212724 -0.078430794 -0.089822575 -0.010933245 -0.010157172 -0.005570982
0.0106398305 -0.017512077 -0.05969396 -0.0188022 0.041966714 -0.047665656 -0.055219647 -0.052219033
00000000: eb7f 7cbd 6281 cdbb f8fc cdbd 3e9b ccbd
00000010: 99a7 94bc 0234 2dbd 25d1 44bd d4ab c3bd
00000020: 1f74 59bd 02b6 a4bd 716c b8bd e716 27bc
00000030: c82c 08bb 9719 cabd 9da8 83bc edc2 cfbb
00000040: bd59 82bd ab80 49bc 538c 70bc a545 bbbc
00000050: 30f7 45bc 86b5 4f3b 1197 f0bc 5b24 6bbc
00000060: 111d 3abd cb74 ab3a f27e eeba 2dc9 a73d
00000070: a5ee 023d 95c6 b53d 8385 163d b115 eb3d
00000080: 6de2 ab3d 5e27 f1ba d965 6b3c 47b3 f23d
00000090: 2c5a b83d 93ae 663d 718e e13d f94c 593d
000000a0: 5fc2 b93c 301c f83d 8c26 8b3d eb93 9b3d
000000b0: 94fc 613c 1e6a bd3d 9247 5d3d a6a5 6e3d
000000c0: 2bfb 2bbb 3b5e cd3d 401e 6bbd e051 2e3c
000000d0: eb8f 20bc 4eb4 abbd 7cdf ecbc aaa1 aabc
000000e0: a07d 3fbd dd41 df3c 7e5e 42bc 12bb 27bd
000000f0: e4fd aebc 3f85 e4bc 05a2 5ebd e088 5fbd
00000100: 846c 8ebd a5fa c1bd 35cc b03b dcad 6dbd
00000110: 12c8 c7ba 4c88 95bc a756 9ebb d14d 963b
00000120: cf5c 43bd a773 80bd 3b0d 46bd 51ff 4cbb
00000130: cfb1 633d 656d 293d d2c2 a13d 57e1 7f3d
00000140: 966f cf3d 351d ca3d 58c8 b93b f82f 383c
00000150: 62b0 163d 1083 e83d 45c2 ec3c 3ee5 5c3d
00000160: 5843 4f3a 4001 ab3d dc28 233d ecee 9c3d
00000170: 4396 f43d 6b8c 5b3c 593f a33d 438c c43d
00000180: 8d3a b53d f5e5 f43c d6ef c43d 0845 853d
00000190: f215 50bd 7613 1abc 3077 a3bd d80f a6bd
000001a0: 0070 20bd f9ee 9dbd 91ac 4bbd b8f1 0b3d
000001b0: 6600 a93b e74a 4a3c 9551 46bd 127a 8bbd
000001c0: 737c 8d3c 1612 a73a 4ab1 59bc 108a f0bc
000001d0: 77f6 cc3a e8f6 0b3d 4400 b639 ce34 043c
000001e0: fb04 ccbc a1f4 febc 46d0 22bd cbbc 863c
000001f0: e838 603b d5d2 b93d 6e8c a83d 93d6 fa3c
00000200: 9cff 583c 1a7b ee3d 4443 e23d 6c55 d33c
00000210: a131 a73d 6b65 983a dde9 943d cc98 dc3d
00000220: 685c be3d 2549 633d e88f f13c b250 163d
00000230: cf56 c43d e9b3 1c3c 1619 453c fe8b 2c3d
00000240: e3f5 e33d e782 8e3d e186 ec3c a94a e23d
00000250: 98c1 e63d b49e aa3b faca bb3c 1040 02bd
00000260: 76dc 033d 9439 d23b 6b80 86bd 8799 66bd
00000270: 9558 20bd 2665 f6bc dde2 153d 0874 313c
00000280: 5abc e03c ef90 fd3c e813 57bc 3f55 063d
00000290: 6138 94bd 0d67 9d3c 1164 9c3b f0ad 0b3b
000002a0: 7711 673b b9d5 16bc 34dc 51bd 68bf 12bd
000002b0: fffa 90bd e84d 87bd d840 5b3c 3408 813c
000002c0: 5f53 a1bd 1d82 95bd a203 a63b a9f9 a7bd
000002d0: 7090 e4bc 01eb 16bd ff77 e83c 5da5 3fbd
000002e0: b415 c13b 67d2 bc3c 1f4b 85bc 2493 863c
000002f0: 9d85 71bd fe0b bfbd 787c a0bd 5ee9 90bd
00000300: 2a32 dbbc 824d 08bc da4b 933c 5088 093b
00000310: 3f7e 8abd e029 2dbd c718 773c 4cfe a7b9
00000320: 3840 22bd 33b8 0e3c efab ac3c 1d46 bebd
00000330: a633 8abd bcb8 24bd 5afc a2bd 3a71 40ba
00000340: 27cf a0bd 0688 54bd c667 98bd f23c c8bd
00000350: 3ea5 7bbd 7f79 80bd e0c4 23bd bfcc 83bd
00000360: 3a3f 113c 1edf e2bb 80dd 40bd 8c13 a5bd
00000370: a543 8cbd ddf5 03bd 1b65 debc 8f23 bcbd
00000380: d4c3 f2bc 3f3e a6bd ccb9 b5bd 43c6 acbd
00000390: 131c 3cbb 9f59 59bd 20d0 31bd 7229 f2bc
000003a0: cad8 833c b485 b5bd a9ec c23b 3767 18bd
000003b0: c03d 2a3d 7362 fc3c d547 0b3d fcb6 dcbc
000003c0: 1d60 853b b0ab 5cbd c5d2 7ebd 53a0 a0bd
000003d0: e6f4 b7bd 5a21 33bc 446a 26bc c98c b6bb
000003e0: af52 2e3c 7d75 8fbc a781 74bd 1207 9abc
000003f0: 4ae5 2b3d 103d 43bd ff2d 62bd a0e3 55bd

model.hidden_layers.2.bias f4 [10]
-0.08278123 -0.085045785 -0.02618278 -0.012632816 -0.02028238 -0.036907993 -0.044220455 -0.027629007
-0.028585248 -0.06713291
00000000: 3589 a9bd 7c2c aebd 457d d6bc dff9 4ebc
00000010: 3c27 a6bc d62c 17bd 8220 35bd 3a56 e2bc
00000020: 9c2b eabc fb7c 89bd

model.output_layers.0.weight f4 [10, 10, 5, 5]
-0.038135223 -0.05655664 -0.038337857 -0.053320896 -0.035954315 0.009571125 -0.010371615 -0.074021526
-0.08562104 -0.04065317 -0.01729132 -0.0359373 0.026867671 -0.011879859 -0.06520371 -0.056494143
-0.030897908 -0.09476803 -0.04577265 0.026984777 -0.02837473 0.027697051 0.018198168 -0.0030393943
-0.042000484 -0.027092863 -0.13257416 -0.06625957 -0.04146378 -0.083315834 -0.07140357 -0.08710864
-0.1400719 -0.12884443 -0.12729062 -0.05049304 -0.07332629 -0.054654352 -0.120462134 -0.08816649
-0.11515236 -0.091354795 -0.101643205 -0.09062072 -0.067909464 -0.12576142 -0.14480188 -0.031307355
-0.02741573 -0.08774646 -0.06550732 -0.1340984 -0.02383818 -0.07838057 -0.045594934 -0.04446663
-0.14409433 -0.03325051 -0.036770105 -0.05154306 -0.13430603 -0.10755707 -0.08586638 -0.08843683
-0.07716346 -0.033612635 -0.040184528 -0.10285669 -0.034108933 -0.046396177 -0.109794684 -0.07810445
-0.06874383 -0.10905563 -0.14034125 0.021825055 0.024793524 -0.071958244 -0.053856213 -0.010948953
0.0019507724 -0.008425904 -0.038704026 -0.01851371 -0.06578886 0.008509208 -0.027487041 -0.04069789
-0.044011462 -0.07903491 -0.058791373 -0.08235034 -0.06428467 -0.017976899 -0.04427838 -0.04185749
-0.075131245 -0.06848625 -0.0039971597 -0.01937182 -0.044849347 -0.0272006 -0.06128984 0.0117782615
-0.081892714 0.014331211 -0.062283862 0.02574427 -0.028929621 -0.0456758 -0.06811484 -0.001100712
-0.010072121 -0.042976998 -0.0057942434 -0.088945486 -0.02201319 -0.05765981 -0.01128461 -0.01675151
-0.091072746 -0.09023099 -0.056061573 0.009353754 -0.0849841 0.1321317 0.10348567 0.08110155
0.11798332 0.026668442 0.03333448 0.12846138 0.13184191 0.10773744 0.040497456 0.08671156
0.04737597 0.04782218 0.01864617 0.113861345 0.050478037 0.10269097 0.09058094 0.05668581
0.13860327 0.021627437 0.058886226 0.07223014 0.068455786 0.12933204 0.012903801 -0.090508156
-0.08228953 -0.04118973 -0.06114148 0.018493824 -0.082999796 -0.0014530801 -0.07528632 0.023256067
0.0014973074 -0.09058267 -0.0068549267 -0.09545127 -0.075913884 0.0110004265 -0.028421931 -0.06735122
-0.013856303 -0.07019267 -0.092326425 0.008083454 -0.03266443 -0.05545873 0.0007030997 -0.04965646
-0.1275913 -0.06421688 -0.076586515 -0.035692338 -0.12964962 -0.039568894 -0.018771432 -0.07273958
-0.059660986 -0.1347018 -0.021139946 -0.14175811 -0.026572118 -0.019971183 -0.021374978 -0.13862894
-0.08395189 -0.051301043 -0.02701248 -0.08684551 -0.0958281 -0.11882589 -0.09646423 -0.12829326
-0.12845844 -0.10503356 -0.034294836 -0.10836905 -0.06781379 -0.07432571 -0.019867646 -0.08098301
-0.08132006 -0.03500214 -0.10504175 -0.113341644 -0.09787629 -0.13604428 -0.072440885 -0.044912618
-0.10158561 -0.1267056 -0.14341606 -0.09114758 -0.05477508 -0.07716155 -0.070808955 -0.1200447
-0.029343061 0.13925527 0.14367652 0.051399976 0.050076507 0.07751926 0.13592574 0.13916054
0.09036203 0.10561386 0.038448572 0.06418978 0.100421324 0.084437095 0.076153114 0.04775114
0.07642065 0.10852797 0.05772065 0.03698347 0.12584735 0.028610356 0.07674505 0.09424825
0.03549569 0.112014554 0.046255995 -0.05305802 0.014621403 -0.024299074 -0.08051234 -0.052149948
00000000: ae33 1cbd efa7 67bd 2808 1dbd 0367 5abd
00000010: d544 13bd 35d0 1c3c b5ed 29bc 9998 97bd
00000020: 155a afbd f083 26bd 87a6 8dbc fe32 13bd
00000030: 9719 dc3c bda3 42bc 8689 85bd 6766 67bd
00000040: 9c1d fdbc be15 c2bd 1a7c 3bbd 2e0f dd3c
00000050: 1f72 e8bc ede4 e23c 5314 953c 9330 47bb
00000060: b308 2cbd daf1 ddbc 85c1 07be 19b3 87bd
00000070: edd5 29bd 7ea1 aabd 093c 92bd 0466 b2bd
00000080: 026f 0fbe cbef 03be 7958 02be cad1 4ebd
00000090: 182c 96bd 3edd 5fbd dab4 f6bd a290 b4bd
000000a0: 00d5 ebbd 3918 bbbd 502a d0bd 5b97 b9bd
000000b0: 1e14 8bbd 9ac7 00be f246 14be 243c 00bd
000000c0: f496 e0bc 6bb4 b3bd b428 86bd 1751 09be
000000d0: 4948 c3bc fe85 a0bd c1c1 3abd a422 36bd
000000e0: 778d 13be b031 08bd 409c 16bd d11e 53bd
000000f0: 8587 09be e246 dcbd b6da afbd 5e1e b5bd
00000100: e007 9ebd 67ad 09bd 8898 24bd 87a6 d2bd
00000110: cfb5 0bbd eb09 3ebd 09dc e0bd 3af5 9fbd
00000120: 91c9 8cbd 8f58 dfbd 9eb5 0fbe 75ca b23c
00000130: ca1b cb3c d85e 93bd 5598 5cbd 3d63 33bc
00000140: 0fb1 ff3a ce0c 0abc 1d88 1ebd 10aa 97bc
00000150: 4fbc 86bd 356a 0b3c 812c e1bc d5b2 26bd
00000160: 5d45 34bd 0edd a1bd 39cf 70bd 4ca7 a8bd
00000170: aea7 83bd 4a44 93bc 3f5d 35bd c272 2bbd
00000180: 69de 99bd 8542 8cbd 9bfa 82bb a7b1 9ebc
00000190: f3b3 37bd cbd3 debc 0e0b 7bbd 9cf9 403c
000001a0: 5eb7 a7bd 75cd 6a3c 5d1d 7fbd a6e5 d23c
000001b0: d0fd ecbc 8c16 3bbd cb7f 8bbd c445 90ba
000001c0: 8a05 25bc a608 30bd a3dd bdbb 0d29 b6bd
000001d0: 0155 b4bc b12c 6cbd 16e3 38bc 763a 89bc
000001e0: 5984 babd 06cb b8bd d2a0 65bd 7d40 193c
000001f0: 250c aebd 884d 073e 4cf0 d33d 9218 a63d
00000200: 3da1 f13d c777 da3c bc89 083d 618b 033e
00000210: 9101 073e 72a5 dc3d a9e0 253d d595 b13d
00000220: 4e0d 423d 31e1 433d dabf 983c 2330 e93d
00000230: 0fc2 4e3d a54f d23d 8082 b93d 612f 683d
00000240: 04ee 0d3e 062c b13c af32 713d 65ed 933d
00000250: 8c32 8c3d 9e6f 043e 776a 533c 575c b9bd
00000260: 6a87 a8bd 90b6 28bd 7d6f 7abd 5c80 973c
00000270: ccfb a9bd 4775 beba b72f 9abd 8283 be3c
00000280: 4d41 c43a 6883 b9bd 4b9f e0bb f57b c3bd
00000290: bd78 9bbd 223b 343c 1cd5 e8bc 70ef 89bd
000002a0: 8c05 63bc 2dc1 8fbd a315 bdbd 7770 043c
000002b0: 23cb 05bd b128 63bd 3950 383a 9264 4bbd
000002c0: 4ba7 02be 2484 83bd 64d9 9cbd 2132 12bd
000002d0: dfc2 04be fe12 22bd 8cc6 99bc 7df8 94bd
000002e0: 145f 74bd 45ef 09be ae2d adbc 0a29 11be
000002f0: c5ad d9bc 9b9a a3bc 941a afbc bff4 0dbe
00000300: f8ee abbd 0b21 52bd 4749 ddbc 0fdc b1bd
00000310: 8641 c4bd fd5a f3bd 0a8f c5bd 4f5f 03be
00000320: 9c8a 03be d61b d7bd be78 0cbd 98f0 ddbd
00000330: f5e1 8abd 1438 98bd 79c1 a2bc 6cda a5bd
00000340: 228b a6bd 675e 0fbd 2120 d7bd aa1f e8bd
00000350: 5d73 c8bd 314f 0bbe e35b 94bd 4bf6 37bd
00000360: 1e0c d0bd 1dbf 01be a9db 12be 95ab babd
00000370: d65b 60bd e006 9ebd 4904 91bd ffd9 f5bd
00000380: dc60 f0bc ef98 0e3e f01f 133e c888 523d
00000390: 061d 4d3d 6bc2 9e3d 1e30 0b3e 1a80 0e3e
000003a0: ba0f b93d 144c d83d 407c 1d3d ee75 833d
000003b0: b2a9 cd3d 5bed ac3d 2af6 9b3d b396 433d
000003c0: 6e82 9c3d ea43 de3d 7d6c 6c3d fb7b 173d
000003d0: 21de 003e 4460 ea3c 822c 9d3d 3a05 c13d
000003e0: ee63 113d e367 e53d ed76 3d3d 5e53 59bd
000003f0: 9c8e 6f3c da0e c7bc a7e3 a4bd 2f9b 55bd

model.output_layers.0.bias f4 [10]
-0.079789326 -0.12591691 -0.031816456 -0.1284262 -0.023586506 -0.02044045 -0.09800403 -0.03766343
-0.061846416 -0.11086697
00000000: 9668 a3bd 5df0 00be f951 02bd 2882 03be
00000010: 7d38 c1bc bb72 a7bc 56b6 c8bd f844 1abd
00000020: ab52 7dbd 390e e3bd
