outputs/ConvRNN_D3_K7_H8_SS4_2_04_18-37-04/checkpoints/model-epoch=00-validation_loss=1.62.ckpt (torch, 301393 bytes, 54 tensors)

model.bias f4 [8]
0	0xbe75e676	-0.24013695
1	0xbd7c05ef	-0.061529096
2	0xbf821490	-1.0162525
3	0xbfee365a	-1.8610337
4	0x3f418e16	0.7560743
5	0xbe3ff86e	-0.18747112
6	0xbf88a4ba	-1.067527
7	0xbf988edd	-1.1918598

model.input_layers.0.weight f4 [8, 1, 7, 7]
0	0xbcf431e7	-0.029808952
1	0x3d8f20df	0.069886915
2	0xbdee66f3	-0.1164073
3	0xbcf9b174	-0.030480124
4	0x3cc90760	0.02453965
5	0xbd55d2ff	-0.052203175
6	0x3e1b240e	0.15150473
7	0x3d1579a8	0.036492974
8	0xbe0d43b3	-0.13795356
9	0x3ca8128c	0.020516656
10	0xbd717bf5	-0.058956105
11	0xbd352360	-0.04422319
12	0xbdd3f5a2	-0.10349585
13	0xbbae5c9f	-0.0053211
14	0xbdae8f3b	-0.08523413
15	0xbd90d816	-0.07072465
16	0x3d73c5af	0.059514698
17	0xbdbdbba9	-0.09264309
18	0xbe3f0594	-0.18654472
19	0xbe19bf9f	-0.15014504
20	0xbd11e45f	-0.035618182
21	0x3cddd278	0.027077898
22	0xbe028f63	-0.1275001
23	0x3c573539	0.013135248
24	0xbe0d30ea	-0.1378819
25	0xbd03a2f6	-0.032137834
26	0x3d176725	0.0369636
27	0xbdfada0d	-0.12248621
28	0xbde57ab5	-0.11205045
29	0xbe0ce981	-0.1376095
30	0xbdb1617d	-0.086611725
31	0xbc11245f	-0.008858769
32	0x3c428b21	0.011873991
33	0x3ba8469c	0.0051353704
34	0xbe406feb	-0.18792693
35	0x3af7ade8	0.0018896433
36	0xbbe65363	-0.0070289834
37	0xbe60eaea	-0.21964613
38	0xbd3571bb	-0.044297915
39	0xbe6632a5	-0.22480257
40	0xbdbfdaf6	-0.09367935
41	0xbe60a3e8	-0.21937525
42	0x3da6eb6a	0.081503704
43	0xbd856382	-0.0651312
44	0xbd856a97	-0.06514471
45	0xbd16359b	-0.036672216
46	0xbde5ee33	-0.112270735
47	0xbe8cc111	-0.27491048
48	0xbe4e9900	-0.20175552
49	0x3d27e6a7	0.04099145
50	0xbd8409f8	-0.06447214
51	0x3d9a17cd	0.07524071
52	0xbd818e69	-0.06325991
53	0xbbaf8337	-0.005356218
54	0x3d0d91ce	0.03456288
55	0xbd994408	-0.07483679
56	0x3d224c34	0.039623454
57	0x3c461d58	0.012091957
58	0xbd3814c6	-0.044941686
59	0x3d19bfdd	0.03753649
60	0x3d59605d	0.053070415
61	0x3d0f134c	0.034930512
62	0x3cac7e09	0.021056192
63	0x3d827548	0.06370026
64	0xbdfe3574	-0.12412539
65	0x3cc02239	0.023453819
66	0x3d43f031	0.047836486
67	0xbdb23e2d	-0.08703265
68	0x3cd6ad30	0.02620563
69	0xbc2905f7	-0.010316364
70	0xbbdcd233	-0.006738925
71	0xbe3f541f	-0.18684433
72	0xbded9653	-0.11600938
73	0xbe2338bc	-0.15939611
74	0xbda906f5	-0.0825328
75	0xbd1daac2	-0.038492925
76	0xbe17fad6	-0.1484178
77	0xbe03d32e	-0.12873527
78	0x3d93db60	0.07219577
79	0xbe0f18df	-0.13974331
80	0xbe363dcf	-0.17797016
81	0xbe2a73ce	-0.16645738
82	0xbc29ad2e	-0.010356231
83	0xbdbc800e	-0.09204112
84	0xbe1d10a6	-0.15338382
85	0xbd71e07e	-0.059051983
86	0xbe3850b0	-0.1799953
87	0xbdf8cf59	-0.121489234
88	0xbda1767e	-0.07883929
89	0xbe39500a	-0.18096939
90	0xbe2a0799	-0.16604461
91	0xbdd50c2c	-0.10402712
92	0xbdc345d4	-0.09534803
93	0xbe0c4c1c	-0.13700908
94	0xbc8edd17	-0.017439408
95	0xbd5f9b0f	-0.054591235
96	0xbe02b969	-0.12766041
97	0xbe52c980	-0.20584679
98	0xbdd6b259	-0.10483236
99	0x3d94470f	0.07240116
100	0xbe5ba5dc	-0.21449989
101	0xbe342470	-0.17592025
102	0x3ca8dae9	0.020612197
103	0xbe2b126f	-0.1670625
104	0xbdb21199	-0.08694763
105	0x3d1f92d2	0.038958378
106	0xbddd9108	-0.10818678
107	0x3d17116d	0.036881853
108	0x3d7b1c81	0.06130648
109	0xbdc8feca	-0.09814222
110	0xbe49ad2d	-0.19694968
111	0xbe44ed02	-0.19231036
112	0xbdcc59c2	-0.099780574
113	0xbe1852b8	-0.14875305
114	0xbd127f00	-0.035765648
115	0xbdc307c7	-0.09522968
116	0x3c83e4d0	0.016100317
117	0xbe10970b	-0.14120118
118	0xbd6b84fd	-0.057499874
119	0xbe272acd	-0.16324921
120	0x3d1d7849	0.03844479
121	0xbe3c4581	-0.18385889
122	0x3d0fbd8e	0.035092883
123	0xbda1a162	-0.078921095
124	0xbdf27eb7	-0.11840575
125	0x3cf6d6de	0.030131754
126	0xbdefa5e0	-0.1170156
127	0xbdf2efa6	-0.118621156
128	0xbe1bbc77	-0.15208612
129	0xbe460b4b	-0.19340245
130	0xbdfb4961	-0.12269855
131	0xbd1f9db7	-0.038968768
132	0xbde134a1	-0.10996366
133	0xbe07a874	-0.13247854
134	0xbdf4e48d	-0.11957655
135	0xbe70741d	-0.23481794
136	0x3c92d616	0.01792435
137	0xbd29d810	-0.04146582
138	0x3ce77649	0.028254645
139	0xbdbb3b7e	-0.091422066
140	0xbe2a25ed	-0.1661603
141	0xbd65a0c7	-0.056061532
142	0xbe1c0fe4	-0.15240437
143	0xbe29a277	-0.16565882
144	0xbc6adf7f	-0.014335512
145	0x3c78dc1f	0.0151892
146	0xbe6462fb	-0.22303383
147	0x3e1be16e	0.15222713
148	0x3dccc1f9	0.09997935
149	0x3e268643	0.16262154
150	0x3c16a8fa	0.009195561
151	0x3df2a7fb	0.11848446
152	0xbd399358	-0.045306534
153	0x3da100d9	0.0786149
154	0x3dbf8c9e	0.093529925
155	0xbdbf3a6f	-0.09337317
156	0x3caf7397	0.021417422
157	0x3d5e970a	0.05434326
158	0x3da240e9	0.07922537
159	0x3df3438a	0.118781164
160	0x3e26dca0	0.162951
161	0xbd0ff3e3	-0.035144698
162	0x3e21fbe3	0.15818743
163	0xbce01606	-0.027354252
164	0x3cbc26bd	0.02296769
165	0x3c340cb5	0.010989358
166	0xbb2425e2	-0.0025046994
167	0x3d05b43f	0.0326426
168	0x3df4c96f	0.11952483
169	0xbd93641f	-0.07196831
170	0x3d3b8439	0.045780394
171	0xbd7973b9	-0.060901377
172	0x3d63747e	0.055531017
173	0xbdbb778e	-0.091536626
174	0x3d88681a	0.06660481
175	0xbd4873a6	-0.048938416
176	0xbb25f1b8	-0.0025321078
177	0x3e194d1a	0.14970818
178	0xbb01a4f2	-0.0019782153
179	0x3df91e56	0.12163989
180	0xbd94aaba	-0.07259126
181	0xbdc58d1e	-0.096460566
182	0x3d0c91d7	0.03431877
183	0xbd94688a	-0.07246502
184	0x3d6d5feb	0.057952803
185	0x3d5efbd7	0.054439392
186	0xbd75d2b9	-0.060015414
187	0xbdd679a1	-0.104724176
188	0x3cde9f45	0.027175555
189	0xbdc54302	-0.09631921
190	0x3e1b50a6	0.15167484
191	0xbdaecf32	-0.08535613
192	0xbcc2286b	-0.023700913
193	0x3e0aa879	0.1354083
194	0xbcba5162	-0.022743884
195	0xbdb741c5	-0.089480914
196	0xbcd1dba3	-0.025617426
197	0x3d6a1a9c	0.057154283
198	0x3d76df9a	0.060271837
199	0x3dfffa95	0.124989666
200	0x3e26aebe	0.16277596
201	0x3daf81fd	0.08569715
202	0x3e0f2a9f	0.13981102
203	0x3d9fd946	0.078051135
204	0x3d648801	0.055793766
205	0x3e2b3e39	0.16722955
206	0x3dbb8636	0.09156458
207	0x3d1eaa02	0.03873635
208	0x3e2b0914	0.16702682
209	0x3dfcaab7	0.12337249
210	0x3dcc74de	0.09983228
211	0xbd61e97b	-0.055154305
212	0x3da3f1a8	0.08005077
213	0x3e13261e	0.1437001
214	0x3da6aa9a	0.081380084
215	0x3e153b95	0.1457351
216	0x3da7e447	0.08197837
217	0xbdf85c36	-0.12126963
218	0xbdea1f79	-0.11431784
219	0x3d9dc654	0.07703844
220	0xbcf1bec9	-0.029509919
221	0xbd4ec265	-0.050478358
222	0xbda52f19	-0.08065624
223	0x3dc03c07	0.09386449
224	0xbe051246	-0.12995252
225	0x3d9c3c5d	0.07628701
226	0xbe03a59f	-0.12856148
227	0xbddb3fb0	-0.10705507
228	0xbd82c1cc	-0.0638462
229	0x3cf84e73	0.030310845
230	0x3d62c4fe	0.055363648
231	0x3d942f79	0.07235617
232	0xbd7777f4	-0.06041713
233	0x3caea615	0.021319428
234	0x3ccacfda	0.024757314
235	0xbdd31067	-0.10305863
236	0xbd16f466	-0.03685417
237	0x3dc04f51	0.093901284
238	0x3dd05791	0.10172952
239	0xbd84e480	-0.064888954
240	0xbdb2b31c	-0.08725569
241	0xbd2e75bf	-0.04259276
242	0xbe068e08	-0.13140118
243	0x3d1ac29c	0.03778325
244	0x3dfec858	0.12440556
245	0x3dd94a5c	0.10609886
246	0x3c4abf4d	0.012374711
247	0x3d564a40	0.052316904
248	0xbd28b724	-0.04119028
249	0x3d735a1a	0.0594121
250	0xbd9cb824	-0.076523095
251	0x3e4a554f	0.19759105
252	0x3dff85ea	0.12476714
253	0xbd9020be	-0.07037495
254	0x3d9de7de	0.07710241
255	0x3e035f8b	0.12829416

model.input_layers.0.bias f4 [8]
0	0xbe87ec70	-0.26547575
1	0x3e32a9df	0.17447613
2	0xbd58cf64	-0.052932158
3	0x3da45c8e	0.08025466
4	0x3ca3b6c4	0.01998461
5	0xbd7b9661	-0.06142271
6	0x3d172d4c	0.036908433
7	0xbd1d8ded	-0.03846543

model.input_layers.1.weight f4 [8, 8, 7, 7]
0	0xbc518c01	-0.012789727
1	0xbda4d334	-0.08048096
2	0xbda61141	-0.0810876
3	0xbcea252b	-0.028582176
4	0xbd22ab3e	-0.03971409
5	0xbd8b8beb	-0.068137966
6	0xbd00d5df	-0.031453963
7	0xbd83b930	-0.06431806
8	0xbd752f7a	-0.05985973
9	0xbd610f8a	-0.05494646
10	0xbd1b508e	-0.03791862
11	0xbc7f71e2	-0.015591117
12	0xbd4af99c	-0.049554452
13	0xbce3c226	-0.027802538
14	0xbd9eca90	-0.077534795
15	0xbdc5ed31	-0.09664381
16	0xbc380c3c	-0.011233386
17	0xbdb3ef78	-0.087859094
18	0xbddf144a	-0.10892542
19	0xbdcfff04	-0.10156062
20	0xbc791530	-0.015202805
21	0xbd575886	-0.052574657
22	0xbdd78aa4	-0.105244905
23	0xbdd7ac86	-0.10530953
24	0xbca7f4df	-0.020502506
25	0xbd7d8020	-0.061889768
26	0xbc9357fe	-0.017986294
27	0xbda7fefe	-0.08202933
28	0xbd04b134	-0.032395557
29	0xbd0cdb18	-0.03438863
30	0xbd1d9319	-0.03847036
31	0xbd2b8c25	-0.0418817
32	0xbc9a7db1	-0.018858762
33	0xbdd8b101	-0.10580636
34	0xbd5e14e5	-0.054219145
35	0xbdb2c97b	-0.087298356
36	0xbcc48b95	-0.02399234
37	0xbddecf72	-0.10879411
38	0xbdc59920	-0.09648347
39	0xbd127eb8	-0.03576538
40	0xbdd0bab3	-0.1019186
41	0xbc8cf1c7	-0.017205132
42	0xbd388bad	-0.04505508
43	0xbd9f7a15	-0.07786957
44	0xbdbf3672	-0.093365565
45	0xbd6420b9	-0.05569527
46	0xbd6031ae	-0.05473488
47	0xbd6c2fb8	-0.057662696
48	0xbdca39b6	-0.09874289
49	0x3d2810c3	0.04103161
50	0x3d59257b	0.05301426
51	0x3d5d078a	0.053962268
52	0x3d1b283f	0.03788018
53	0x3d176b4b	0.036967557
54	0x3d988c08	0.07448584
55	0x3db1a117	0.086733036
56	0x3d5be535	0.053685386
57	0x3d419bff	0.04726791
58	0x3d94868c	0.07252225
59	0x3dde33f0	0.1084975
60	0x3de1a4f7	0.11017793
61	0x3c751a5f	0.014959901
62	0x3d8ae6b4	0.067822844
63	0x3dd67065	0.10470656
64	0x3dbbde71	0.09173287
65	0x3cc76815	0.024341622
66	0x3daca3b8	0.084296644
67	0x3d1df4b2	0.038563438
68	0x3d36cd95	0.044629652
69	0x3dc1d9aa	0.09465344
70	0x3c729d3f	0.014807998
71	0x3db72a94	0.08943668
72	0x3d583eee	0.05279439
73	0xbd3ce3ed	-0.046115804
74	0xbd3e127f	-0.046404358
75	0xbdb6b40c	-0.0892106
76	0xbccd682a	-0.025074083
77	0x3d8061b8	0.06268638
78	0x3cb4f2c5	0.022088418
79	0x3d022227	0.03177085
80	0xbde10533	-0.1098732
81	0xbd86ac99	-0.06575889
82	0xbdb7ed25	-0.089807786
83	0xbdca387f	-0.09874057
84	0x3dd657fe	0.10466002
85	0x3d306839	0.043068144
86	0x3d948181	0.072512634
87	0xbd6cac19	-0.057781313
88	0xbdaaed95	-0.083460964
89	0xbdc5dd1e	-0.096613154
90	0xbd405883	-0.04695941
91	0x3cd10c61	0.025518598
92	0x3d19379a	0.03740654
93	0x3ddb433a	0.10706182
94	0xbddd9b3d	-0.10820625
95	0xbda34fcd	-0.07974205
96	0xbce78f5d	-0.028266603
97	0xbc98dfc7	-0.018661393
98	0xbdd53209	-0.10409934
99	0xbd770f4b	-0.06031732
100	0xbd9041e8	-0.070438206
101	0xbd739734	-0.05947037
102	0xbdca8126	-0.09887914
103	0xbd9afc2f	-0.075676315
104	0xbc42b51f	-0.011884003
105	0xbd65c2fe	-0.056094162
106	0xbda1632d	-0.078802444
107	0xbd67559e	-0.056478135
108	0xbd041780	-0.032248974
109	0xbc9ed023	-0.019386357
110	0xbdb5a7d9	-0.08869905
111	0xbd939f5c	-0.0720813
112	0xbd3c8702	-0.04602719
113	0xbde07207	-0.10959249
114	0xbdae7b81	-0.0851965
115	0xbd1c2b7e	-0.038127415
116	0xbd97bddd	-0.074092604
117	0xbd231e8c	-0.039824054
118	0xbda20a06	-0.07912068
119	0xbd4be9b1	-0.049783412
120	0xbd9c443b	-0.076302014
121	0xbd8a8557	-0.06763714
122	0xbd023493	-0.03178842
123	0xbcc830bd	-0.024437303
124	0xbce9c7d2	-0.028537665
125	0xbc940337	-0.01806794
126	0xbc3bd25d	-0.011463729
127	0xbdd97d36	-0.10619585
128	0xbd884f5e	-0.06655763
129	0xbdbc1812	-0.091842785
130	0xbd865b4e	-0.06560384
131	0xbdc6fd37	-0.09716266
132	0xbdcff6a7	-0.10154467
133	0xbd172ad2	-0.03690607
134	0xbdc0c6d8	-0.094129264
135	0xbdb88cf0	-0.09011257
136	0xbd650d92	-0.055921145
137	0xbdc7ae0d	-0.097499944
138	0xbd247406	-0.04014971
139	0xbd2bdd23	-0.04195894
140	0x3db7b7c1	0.08970595
141	0x3d7e584b	0.06209592
142	0x3d8ee5ef	0.0697745
143	0x3d35ed8e	0.044416003
144	0xbdbfa31b	-0.09357282
145	0xbdc142d5	-0.09436575
146	0xbd94b999	-0.072619624
147	0xbc359445	-0.0110827135
148	0xbc87b94b	-0.016567847
149	0xbdd35f88	-0.103209555
150	0xbcb091e1	-0.021553935
151	0xbd918646	-0.07105689
152	0xbd9453e0	-0.072425604
153	0xbc901db5	-0.01759229
154	0xbcc10e15	-0.023566285
155	0xbdd298a6	-0.10283022
156	0xbd2634b9	-0.040577624
157	0xbd1b7cf6	-0.03796097
158	0xbc3621c8	-0.0111164525
159	0xbd9c4eb9	-0.07632203
160	0xbde0a4fa	-0.10968967
161	0xbdb0558f	-0.08610069
162	0xbd4a6f12	-0.04942233
163	0xbd23cacb	-0.03998832
164	0xbd9825a5	-0.07429055
165	0xbd1b56d2	-0.037924595
166	0xbd956d65	-0.07296256
167	0xbd3cc06d	-0.04608195
168	0xbdae7292	-0.08517946
169	0xbd1542ea	-0.036440767
170	0xbd1fde90	-0.03903061
171	0xbdbfd1e0	-0.09366202
172	0xbdde2bf8	-0.1084823
173	0xbc57a0c8	-0.013160892
174	0xbc8db44a	-0.017297883
175	0xbdd4248c	-0.10358533
176	0xbd530cb8	-0.0515258
177	0xbd96b28e	-0.07358275
178	0xbd1dcf7d	-0.038527954
179	0xbd903d1e	-0.07042907
180	0xbcdbc378	-0.026826605
181	0xbd116cca	-0.03550414
182	0x3ca5a1ad	0.020218695
183	0x3d52a4c9	0.051426683
184	0x3d6103bb	0.0549352
185	0xbd6aee89	-0.05735639
186	0xbd9fa282	-0.07794668
187	0xbdc97801	-0.09837342
188	0xbd445ac7	-0.047938135
189	0x3d2f362b	0.042776268
190	0x3dc87035	0.09787027
191	0x3d6a1725	0.05715098
192	0xbd92fbe7	-0.07176953
193	0xbdbde449	-0.092720576
194	0xbd00e5c4	-0.03146912
195	0xbd360d73	-0.04444642
196	0x3d1991d1	0.037492577
197	0x3da3c947	0.07997375
198	0x3d690534	0.056889728
199	0x3d29ac5f	0.04142415
200	0x3d9cf106	0.07663159
201	0x3dcca852	0.09993042
202	0x3dd058f4	0.101732165
203	0x3d16c2fd	0.03680705
204	0x3d82fb85	0.0639563
205	0x3ddfdf77	0.109312944
206	0x3dbe3b7c	0.092886895
207	0x3db550a2	0.0885327
208	0x3dba0814	0.09083572
209	0x3da3020a	0.07959373
210	0x3cca0938	0.024662599
211	0x3d4a6045	0.049408216
212	0x3d7dc024	0.061950818
213	0x3dae53a6	0.085120484
214	0x3d7a1d62	0.061063178
215	0x3d022fb3	0.03178377
216	0x3cf43a83	0.029813057
217	0x3d8e9173	0.06961336
218	0x3d9acef9	0.07559008
219	0x3dd25185	0.10269455
220	0x3d438291	0.04773194
221	0x3d8d2700	0.06892204
222	0x3d3fe1b4	0.046846107
223	0x3db37579	0.087626405
224	0xbc63aab8	-0.013895683
225	0x3cec1205	0.028817186
226	0x3cd44ca9	0.02591546
227	0x3dc45021	0.09585596
228	0x3b627a9b	0.0034557942
229	0x3cfc4f5e	0.030799564
230	0x3d87f83d	0.066391446
231	0xbd07e50a	-0.033177413
232	0x3c826067	0.015915109
233	0x3d226c10	0.039653838
234	0x3dbe7cef	0.09301173
235	0x3cc6d7c1	0.024272801
236	0x3d34a972	0.04410691
237	0x3db3c2f5	0.087774195
238	0x3d3175b4	0.04332514
239	0x3db285bb	0.08716913
240	0x3da08f33	0.07839813
241	0x3d916444	0.07099202
242	0x3b52674d	0.003210503
243	0x3cafaa05	0.021443376
244	0x3d296794	0.041358545
245	0xbd7b166d	-0.061300684
246	0xbd845b6a	-0.06462748
247	0xbdca2ce2	-0.09871842
248	0xbd4a47e5	-0.04938497
249	0xbd794c9d	-0.06086408
250	0xbd157467	-0.036487963
251	0xbd8eca5d	-0.069721915
252	0xbd9f17e0	-0.07768226
253	0xbd6f90bf	-0.05848765
254	0xbd211a5e	-0.039331786
255	0xbdc28f20	-0.09499955

model.input_layers.1.bias f4 [8]
0	0xbd90167c	-0.070355386
1	0xbc294c7a	-0.010333175
2	0xbc44493a	-0.011980349
3	0xbdcda39d	-0.100409724
4	0xbd6dcb32	-0.05805511
5	0xbda2b5be	-0.07944821
6	0x3d2f5554	0.042805985
7	0x3db90acf	0.09035265

model.input_layers.2.weight f4 [8, 8, 7, 7]
0	0xbcdbe3e7	-0.02684207
1	0xbdc5a5ec	-0.09650788
2	0xbc90a075	-0.017654637
3	0xbd7d3b37	-0.06182405
4	0xbdb5cc5c	-0.08876869
5	0xbdb06dda	-0.086147025
6	0xbcce8997	-0.025212092
7	0xbd8dd3d2	-0.06925167
8	0xbd0e9d69	-0.034818087
9	0xbd83faee	-0.064443454
10	0xbda7128c	-0.081578344
11	0xbd5aeaab	-0.053446453
12	0xbdd80cb1	-0.10549296
13	0xbd8fbe6e	-0.070187435
14	0xbd54a4e0	-0.05191505
15	0xbcb5f531	-0.022211643
16	0xbd1bb078	-0.03801009
17	0xbda06c24	-0.07833126
18	0xbdc67513	-0.09690299
19	0xbd2a7f07	-0.04162505
20	0xbd6f2011	-0.05838019
21	0xbdb6db0a	-0.08928497
22	0xbcea4b84	-0.028600462
23	0xbc1efce5	-0.009703849
24	0xbd98a7e1	-0.07453895
25	0xbd98b3e2	-0.07456185
26	0xbd98defd	-0.07464407
27	0xbd9bb0c0	-0.07602072
28	0xbca033a5	-0.019555876
29	0xbd45c33f	-0.048281904
30	0xbd7b0de0	-0.06129253
31	0xbdaf97a4	-0.08573845
32	0xbd240998	-0.04004821
33	0xbd2e8b50	-0.042613328
34	0xbdbf1173	-0.093295
35	0xbd9fec8d	-0.0780879
36	0xbc3fc0f6	-0.01170372
37	0xbd995dcd	-0.07488594
38	0xbd901d21	-0.07036806
39	0xbc4facf0	-0.012675509
40	0xbda4c155	-0.08044688
41	0xbd8ca580	-0.06867504
42	0xbdb3b217	-0.08774202
43	0xbdcf240c	-0.10114297
44	0xbc25f8d5	-0.010130127
45	0xbdb32ff8	-0.08749384
46	0xbdcf1578	-0.10111517
47	0xbddf17bd	-0.108931996
48	0xbd044f38	-0.03230211
49	0xbda6e336	-0.08148806
50	0xbdaa90ec	-0.08328423
51	0xbdd9ec25	-0.10640744
52	0xbd827595	-0.06370083
53	0xbdb5b2c7	-0.0887199
54	0xbce0802e	-0.02740487
55	0xbdd6516d	-0.104647495
56	0xbdc38496	-0.09546773
57	0xbcb439d0	-0.022000223
58	0xbdca7891	-0.098862775
59	0xbd0aa38f	-0.033847388
60	0xbcf5a532	-0.029985998
61	0xbda5bd98	-0.08092803
62	0xbd61bfb6	-0.05511447
63	0xbdb0ddfe	-0.08636092
64	0xbd922cdb	-0.07137462
65	0xbdc3409e	-0.09533809
66	0xbdcba21b	-0.099430285
67	0xbc616313	-0.013756531
68	0xbddc70df	-0.10763716
69	0xbd540771	-0.05176491
70	0xbd3ed414	-0.046588972
71	0xbcc2ea15	-0.02379326
72	0xbd8e8a81	-0.06960011
73	0xbdd5de4d	-0.10442791
74	0xbd788e27	-0.060682442
75	0xbda923c1	-0.08258773
76	0xbcc417e4	-0.023937173
77	0xbdc81989	-0.097704954
78	0xbd2de402	-0.042453773
79	0xbdb28894	-0.087174565
80	0xbdaea147	-0.08526855
81	0xbd817dfc	-0.06322858
82	0xbd446f65	-0.047957797
83	0xbda7089b	-0.08155938
84	0xbd3d15bd	-0.04616331
85	0xbd0c5122	-0.03425706
86	0xbd3f966d	-0.046774317
87	0xbce0bb8e	-0.027433183
88	0xbd7b77b1	-0.061393443
89	0xbdaab199	-0.08334655
90	0xbd044320	-0.032290578
91	0xbd51f0fd	-0.051255215
92	0xbddccb8f	-0.10781013
93	0xbc4d007d	-0.012512323
94	0xbd8d7aad	-0.06908164
95	0xbd787e1a	-0.060667135
96	0xbc8edd93	-0.01743964
97	0xbc2632ba	-0.01014393
98	0xbd32ee86	-0.043684505
99	0xbc702778	-0.014657848
100	0xbd44ce9d	-0.048048604
101	0xbd9518b1	-0.072801
102	0xbc8267fb	-0.015918722
103	0xbd82661e	-0.063671336
104	0xbc9eca0e	-0.019383457
105	0xbdda351a	-0.106546596
106	0xbd8eb1c3	-0.06967499
107	0xbdd45f11	-0.10369695
108	0xbc94270f	-0.01808503
109	0xbd8bd7b0	-0.068282485
110	0xbc366ce5	-0.011134361
111	0xbce56e9a	-0.02800684
112	0xbc8f2677	-0.017474396
113	0xbdcb7467	-0.09934311
114	0xbdba62ee	-0.091009006
115	0xbd8a4e4b	-0.067532144
116	0xbdde1ff9	-0.10845942
117	0xbd767ecf	-0.060179528
118	0xbdbbfeb8	-0.09179443
119	0xbd67b9d9	-0.056573723
120	0xbcb7ab14	-0.022420444
121	0xbd15edb8	-0.03660366
122	0xbd7602c5	-0.060061235
123	0xbdac09b6	-0.0840029
124	0xbddaf704	-0.10691646
125	0xbdddeeb9	-0.10836548
126	0xbd70b0bf	-0.05876231
127	0xbc3b4c5a	-0.011431778
128	0xbdac4717	-0.08411997
129	0xbd946d43	-0.072474025
130	0xbcabfc94	-0.020994462
131	0xbd5d9f30	-0.05410689
132	0xbd4ae2bb	-0.049532633
133	0xbd01e7b0	-0.031715095
134	0xbd8b0e35	-0.06789819
135	0xbde0c3c7	-0.109748416
136	0xbdce7ee8	-0.10082799
137	0xbdc63162	-0.09677388
138	0xbdcd566a	-0.10026248
139	0xbd3cb3b5	-0.04606982
140	0xbd21daac	-0.039515182
141	0xbda13009	-0.0787049
142	0xbdd93a52	-0.10606827
143	0xbc9844e8	-0.018587545
144	0xbcd20344	-0.025636323
145	0xbd30738e	-0.04307895
146	0xbd7089c8	-0.05872515
147	0xbd87684b	-0.06611689
148	0xbc5d7149	-0.013515779
149	0xbde1ecda	-0.11031504
150	0xbd9ef2ac	-0.0776113
151	0xbd68fac8	-0.05687979
152	0xbd23ac92	-0.039959498
153	0xbd7ee49d	-0.06222974
154	0xbdba4fa5	-0.09097222
155	0xbd824989	-0.06361682
156	0xbc81ec8c	-0.015859865
157	0xbd33dfa0	-0.043914437
158	0xbd9f1c3d	-0.07769058
159	0xbd5c9424	-0.053852215
160	0xbd11f54c	-0.035634324
161	0xbcc2d7be	-0.023784515
162	0xbd056b53	-0.032573055
163	0xbd684364	-0.056704894
164	0xbd39eadc	-0.045389995
165	0xbd927abe	-0.071523175
166	0xbd3d8bd5	-0.046275932
167	0xbd673877	-0.056450333
168	0xbccc1713	-0.024913346
169	0xbd32530c	-0.04353623
170	0xbd1ca305	-0.038241405
171	0xbd9ffa10	-0.078113675
172	0xbdadc7b0	-0.08485353
173	0xbdd580c7	-0.10424953
174	0xbcf4e5b0	-0.02989468
175	0xbdab123f	-0.083530895
176	0xbc201646	-0.009770935
177	0xbd82ca74	-0.06386271
178	0xbcbb9bdb	-0.022901466
179	0xbd6631ac	-0.056199715
180	0xbdcc87f5	-0.09986869
181	0xbd807fa6	-0.06274347
182	0xbd833fe4	-0.064086705
183	0xbc783eeb	-0.01515172
184	0xbd912a19	-0.070881076
185	0xbd91999f	-0.07109379
186	0xbc654745	-0.013994043
187	0xbdc60d94	-0.096705586
188	0xbd5abe9a	-0.053404428
189	0xbd92a26b	-0.07159885
190	0xbd9d0b86	-0.076682135
191	0xbd09150e	-0.033467345
192	0xbdbe7381	-0.09299374
193	0xbd7d488f	-0.061836775
194	0xbdca7b7b	-0.09886833
195	0xbd2e9f51	-0.042632405
196	0xbcf6c145	-0.030121455
197	0x3c29d114	0.0103647895
198	0x3d1e3434	0.038624004
199	0xbdcd7e20	-0.10033822
200	0xbdd6a6a8	-0.10481006
201	0xbdd58f1a	-0.10427685
202	0xbd47987f	-0.048729416
203	0x3d0cd502	0.034382828
204	0x3cb31980	0.021862745
205	0x3c858744	0.016299851
206	0xbdbd5df3	-0.09246435
207	0xbceaafd5	-0.028648296
208	0xbdd419ea	-0.10356505
209	0xbd836339	-0.064154096
210	0x3c926cdc	0.017874174
211	0x3b55ed34	0.0032642605
212	0xbd22610c	-0.039643332
213	0xbd9bd3e4	-0.07608774
214	0xbdc08ba4	-0.09401634
215	0xbdcd4686	-0.10023217
216	0xbd9a099f	-0.07521366
217	0x3b0586f0	0.0020374618
218	0xbca269d1	-0.019825848
219	0x3cbe6aed	0.023244346
220	0xbd98427a	-0.074345544
221	0xbd903838	-0.07041973
222	0xbc7d870a	-0.01547409
223	0xbdb3b9a6	-0.08775644
224	0xbdb6eac1	-0.089314945
225	0xbd8a091c	-0.06740019
226	0xbd3ae4ce	-0.04562836
227	0xbd8ddbc4	-0.069266826
228	0xbd8c2767	-0.06843453
229	0xbd7c2891	-0.061562125
230	0xbd9168ec	-0.071000904
231	0xbb79c3f0	-0.0038111173
232	0xbbaa46d7	-0.005196433
233	0xbd8b49a8	-0.06801158
234	0xbd2afd19	-0.04174528
235	0xbc93c03f	-0.018036006
236	0xbc764869	-0.015031912
237	0xbdce1345	-0.10062269
238	0x3d12252e	0.03567999
239	0x3c820c98	0.015875146
240	0xbd1bfa63	-0.038080584
241	0xbd3a63ae	-0.04550522
242	0xbd06d424	-0.032917157
243	0xbd8779e1	-0.066150434
244	0xbce66d1d	-0.028128201
245	0xbd1d53bb	-0.03840993
246	0xbdb11c99	-0.08648033
247	0xbda4b321	-0.080419786
248	0xbd98430a	-0.07434662
249	0xbdc7bdd7	-0.09753006
250	0xbcc1c499	-0.023653315
251	0xbd328fb3	-0.043594074
252	0xbda5e67d	-0.08100603
253	0xbd0a1161	-0.03370798
254	0xbc52e289	-0.012871393
255	0xbda762f1	-0.081731685

model.input_layers.2.bias f4 [8]
0	0xbdd92943	-0.10603573
1	0x3de7a2f6	0.11310379
2	0xbd0c51f2	-0.034257837
3	0xbc344481	-0.011002661
4	0x3ddf2088	0.10894877
5	0x3bb487e7	0.005509365
6	0xbd1a2d2f	-0.037640747
7	0x3d07160e	0.032980017

model.hidden_layers.0.weight f4 [8, 8, 7, 7]
0	0x3da3c2f3	0.07996168
1	0x3df49fdd	0.11944554
2	0x3da96101	0.08270455
3	0x3d957a0a	0.07298668
4	0x3ad2c1c9	0.0016079481
5	0x3da2fd40	0.0795846
6	0x3cb323a4	0.02186758
7	0xbd360be5	-0.044444937
8	0xbd085275	-0.033281762
9	0x3cb1180e	0.021617915
10	0xbcc6e816	-0.02428059
11	0xbd2dae0a	-0.042402305
12	0xbddb0dba	-0.106959775
13	0xbd900788	-0.070326865
14	0xbd258538	-0.04041025
15	0xbd1bea07	-0.038064983
16	0xbd5c41a3	-0.053773534
17	0x3b90fa30	0.004424356
18	0xbc927f0b	-0.017882844
19	0xbddb7fd3	-0.1071774
20	0xbdad69fd	-0.08467481
21	0x3b364323	0.0027811013
22	0x3c7549c0	0.014971197
23	0x3c9d42b2	0.019196842
24	0xbc8643d7	-0.01638977
25	0xbcb06f8c	-0.021537565
26	0xbd302d4a	-0.04301194
27	0xbde99d5f	-0.11406969
28	0x3c263c6f	0.010146244
29	0xbc05db5c	-0.008169975
30	0xbd89eca6	-0.0673459
31	0xba7f9ed0	-0.0009751143
32	0xbb89a7e3	-0.004200922
33	0xbd88b8c9	-0.0667587
34	0xbd4e9c7d	-0.050442208
35	0xbdd694e9	-0.10477621
36	0xbd49be5e	-0.049253814
37	0xbd1985ec	-0.037481233
38	0xbd417028	-0.0472261
39	0xbd752908	-0.059853584
40	0xbd21f6bf	-0.039541956
41	0xbd7ee0f8	-0.062226266
42	0xbd06b9e4	-0.032892123
43	0xbddb9ab0	-0.10722864
44	0xbde0102a	-0.10940583
45	0xbdab051f	-0.08350586
46	0xbe01b603	-0.12667088
47	0xbd94b477	-0.072609834
48	0xbdba42c2	-0.09094764
49	0xbd949bcb	-0.07256278
50	0xbdc45170	-0.095858455
51	0xbd123645	-0.035696287
52	0xbd39efa6	-0.045394562
53	0xbd934fc8	-0.071929514
54	0xbdcf0552	-0.10108437
55	0xbd84e1df	-0.06488394
56	0x3d4b9629	0.04970375
57	0x3b99d439	0.0046944884
58	0x3cd96132	0.026535604
59	0xbce9502b	-0.02848061
60	0xbcd7743e	-0.026300546
61	0x3c8091ed	0.015694583
62	0x3d6e2716	0.058142744
63	0xbc9c07db	-0.019046715
64	0x3d669724	0.056296483
65	0x3d0c6e32	0.034284778
66	0x3d3be634	0.045873836
67	0x3d74542b	0.05965058
68	0xbcd956d1	-0.026530655
69	0xbb2c43ac	-0.0026285453
70	0x3d3605ac	0.044439003
71	0x3dd555a5	0.10416726
72	0x3db9d0f5	0.090730585
73	0x3d0100e2	0.031494983
74	0x3dc06692	0.09394564
75	0x3de480e6	0.11157398
76	0x3dd53a88	0.104115546
77	0x3df9a8dd	0.12190411
78	0x3dc48662	0.09595944
79	0x3d518f7b	0.051162224
80	0x3dce2b10	0.10066807
81	0x3dfe17f4	0.124069124
82	0x3dea3927	0.11436682
83	0x3d93998c	0.07207021
84	0x3ce4c4fb	0.027925959
85	0x3ce36f15	0.027762929
86	0x3c845c42	0.016157273
87	0x3cde8228	0.027161673
88	0x3d1e9c2f	0.038723167
89	0x3d381722	0.044943936
90	0x3daec5f2	0.08533849
91	0x3ca57b9d	0.020200545
92	0x3c1b084f	0.00946243
93	0x3d86ad82	0.06576063
94	0x3d6c1276	0.057634793
95	0x3d7fd6d9	0.062460754
96	0x3d832b75	0.06404773
97	0x3d28f693	0.041250776
98	0x3ddcedea	0.10787566
99	0x3df86e3c	0.121304005
100	0x3deca9a8	0.11555797
101	0x3e110bfc	0.14164728
102	0x3e064de7	0.13115655
103	0x3e0d0633	0.13771896
104	0x3e04fedf	0.1298785
105	0x3c5b3e6a	0.01338158
106	0xbaeeba17	-0.0018213418
107	0x3c3a9cbe	0.011389909
108	0x3d4d710a	0.05015663
109	0xbd38f28e	-0.045153193
110	0xbd3af945	-0.04564788
111	0x3d485470	0.04890865
112	0xbd61c03b	-0.055114966
113	0xbd870395	-0.0659248
114	0xbd2018e5	-0.03908624
115	0xbd23ee4e	-0.040022187
116	0xbd9e4b05	-0.077291526
117	0xbdb43419	-0.08798999
118	0xbdb8fff8	-0.09033197
119	0xbc049d25	-0.008094107
120	0xbd2b3bd4	-0.041805103
121	0x3c9b7ec9	0.018981354
122	0xbd7ca85f	-0.06168401
123	0xbd5d233d	-0.053988684
124	0xbdcd0083	-0.10009863
125	0xbdd96b05	-0.106161155
126	0xbd87e231	-0.066349395
127	0x3bf87c41	0.0075831716
128	0x3c068573	0.008210528
129	0x3c9d1a35	0.019177536
130	0xbdd569dc	-0.10420582
131	0xbd866431	-0.06562079
132	0xbdd7a11c	-0.10528776
133	0xbd57e7dc	-0.052711353
134	0xbd42c8fa	-0.047554947
135	0xbdd0398a	-0.10167225
136	0xbd46c0fb	-0.048523884
137	0xbcd2483e	-0.025669213
138	0xbdb87212	-0.09006132
139	0xbcf14098	-0.029449746
140	0xbdd12913	-0.102129124
141	0xbd96438c	-0.07337102
142	0xbd918e3f	-0.071072094
143	0xbce02251	-0.027360113
144	0xbd2533bb	-0.040332537
145	0xbd9b5f4a	-0.07586534
146	0xbd01b941	-0.031670813
147	0x3d9f9bcb	0.07793387
148	0x3d8c02fc	0.06836507
149	0x3e0d9fa0	0.13830423
150	0x3ddf4a68	0.10902864
151	0x3cf83826	0.030300211
152	0x3d448875	0.047981698
153	0x3d938c0f	0.072044484
154	0xbcef62d8	-0.029221937
155	0xbcccb9be	-0.024990913
156	0x3c96081a	0.01831441
157	0xbcc972f6	-0.02459095
158	0xbce4e9cc	-0.027943514
159	0xbc795023	-0.01521686
160	0xbcc74331	-0.024324032
161	0xbca9e98c	-0.020741247
162	0xbd75bc00	-0.059993744
163	0xbd8a49f1	-0.067523845
164	0xbcf5420c	-0.02993872
165	0xbda0858a	-0.078379706
166	0xbccff045	-0.025383124
167	0xbd5e7da4	-0.05431904
168	0xbc4d3eb8	-0.01252716
169	0xbd8799da	-0.06621142
170	0xbc5e7f12	-0.013580101
171	0x3c6844f2	0.014176594
172	0xbd5d887a	-0.054085232
173	0xbe026340	-0.12733173
174	0xbd90e81d	-0.07075522
175	0xbd88d1e2	-0.06680657
176	0xbd092632	-0.03348369
177	0xbd0bcff1	-0.034133855
178	0xbd627ff4	-0.055297807
179	0xbb897780	-0.0041951537
180	0xbcfa8ef8	-0.030585751
181	0xbd648ac9	-0.05579642
182	0xbd2a386c	-0.041557714
183	0xbd95bd5d	-0.07311509
184	0xbce2a0ac	-0.027664505
185	0xbd196529	-0.03744999
186	0xbdeb8386	-0.114996955
187	0xbd74ce75	-0.059767205
188	0xbd709844	-0.05873896
189	0xbd86164d	-0.06547222
190	0xbda92dbe	-0.08260678
191	0xbded7909	-0.11595351
192	0xbddf7003	-0.109100364
193	0xbde35276	-0.110997126
194	0xbd4a24a7	-0.04935136
195	0xbd91e3a0	-0.07123494
196	0xbde6daed	-0.112722255
197	0xbdddec11	-0.10836042
198	0xbdbec5f5	-0.09315101
199	0xbe0860c0	-0.13318157
200	0xbdf87e43	-0.121334575
201	0xbd7b8cf5	-0.061413724
202	0xbd4941de	-0.04913508
203	0x3c8e46c7	0.017367734
204	0x3d683b0f	0.056696948
205	0x3ce97b54	0.02850119
206	0x3c7d3a40	0.015455782
207	0x3d8097f3	0.06278982
208	0x3ca8422b	0.020539364
209	0x3d36e362	0.044650443
210	0x3bf7b3dd	0.007559283
211	0x3d46476d	0.04840796
212	0x3d8e0785	0.06935028
213	0x3d1956ff	0.03743648
214	0x3d84c55b	0.06482955
215	0x3d7aaeb8	0.06120178
216	0x3d64e79a	0.055884935
217	0x3b1083e6	0.0022051274
218	0x3d1f54e1	0.038899306
219	0x3babb1df	0.0052397097
220	0x3d140389	0.036136184
221	0x3dfd8c1e	0.12380241
222	0x3dde8c59	0.10866613
223	0x3d82f673	0.06394663
224	0x3ce8e779	0.028430687
225	0x3d6fb2e9	0.05852023
226	0xba1c732c	-0.00059680897
227	0xbc73a437	-0.014870695
228	0x3cd6560a	0.026164073
229	0x3d8d5f74	0.06902972
230	0x3dc5c016	0.09655778
231	0x3e02416a	0.12720266
232	0x3db3cd46	0.08779387
233	0x3d6cb20b	0.057786983
234	0x3dba5d13	0.09099784
235	0x3d7e5c67	0.06209984
236	0x3dba530a	0.0909787
237	0x3dfd84c5	0.123788394
238	0x3d917692	0.071026936
239	0x3d36f2c1	0.044665102
240	0x3d515083	0.051102173
241	0x3ce233a4	0.027612515
242	0x3d70c1de	0.058778636
243	0x3d856698	0.06513709
244	0x3dba5325	0.0909789
245	0xbdfad8e1	-0.122483976
246	0xbd3a9a3b	-0.045557242
247	0xbd80df40	-0.062925816
248	0xbd754612	-0.059881277
249	0xbd947b20	-0.07250047
250	0xbdd69172	-0.1047696
251	0xbe19df3b	-0.15026562
252	0xbcee38b5	-0.029079774
253	0x3b1786e8	0.0023121182
254	0xbc305e6f	-0.010764702
255	0x3cd81f04	0.026381977

model.hidden_layers.0.bias f4 [8]
0	0x3d1b76bb	0.037955027
1	0x3d7ce36f	0.061740335
2	0xbd430807	-0.047615077
3	0xbd6d9408	-0.0580025
4	0xbdce391d	-0.10069487
5	0x3d2776d2	0.0408848
6	0xbcb5f70f	-0.022212533
7	0xbddd8150	-0.1081568

model.hidden_layers.1.weight f4 [8, 8, 7, 7]
0	0xbce2b367	-0.027673436
1	0xbd083274	-0.03325124
2	0x3cdfd2f4	0.02732227
3	0x3c26b53c	0.010175046
4	0xbc988fff	-0.01862335
5	0xbd48bb19	-0.049006555
6	0x3a84e203	0.0010138158
7	0x3cfef104	0.031120785
8	0x3cbdd61c	0.023173384
9	0xbd7ffd4a	-0.062497415
10	0xbdab4348	-0.08362442
11	0xbc90d765	-0.017680833
12	0xbcb1e248	-0.021714345
13	0x3ca40253	0.02002064
14	0xbd267eb8	-0.040648192
15	0xbdc31a07	-0.09526449
16	0xbd89942d	-0.067177154
17	0xbd99b332	-0.07504882
18	0xbca1c673	-0.019747948
19	0xbd41299c	-0.047158822
20	0xbd97d4fa	-0.07413669
21	0xbdcbdc09	-0.09954078
22	0xbd3d0f44	-0.046157137
23	0xbdbb2ad8	-0.09139031
24	0xbdd7f748	-0.10545212
25	0xbd183f4c	-0.03716974
26	0xbd01ee25	-0.031721253
27	0xbd42a3c9	-0.04751948
28	0xbda65128	-0.08120948
29	0xbd369bab	-0.04458205
30	0xbd017dd1	-0.03161413
31	0xbc0ed3d6	-0.008717498
32	0xbd9e331a	-0.077245906
33	0xbc3e5995	-0.011618038
34	0xbd1c1a25	-0.03811087
35	0xbcfbec88	-0.030752435
36	0xbd8bb3d8	-0.06821412
37	0xbcb8414c	-0.022492073
38	0xbdbccf53	-0.092192315
39	0xbd396fb4	-0.045272544
40	0xbc8839e5	-0.016629169
41	0xbd889b0a	-0.06670196
42	0xbd39591c	-0.045250997
43	0xbd66e6be	-0.056372397
44	0xbcad3134	-0.021141626
45	0xbcf29bb1	-0.029615255
46	0xbd603153	-0.05473454
47	0xbd4d8c0d	-0.05018239
48	0x3cd6a587	0.026201976
49	0x3c8fd67f	0.017558334
50	0xbb20dc46	-0.0024545356
51	0x3988ee76	0.0002611761
52	0x3b9fc004	0.004875185
53	0xbdaac994	-0.08339229
54	0xbd5b2001	-0.05349732
55	0xbc09b3eb	-0.008404712
56	0xbc9dda9d	-0.019269282
57	0xbc9d1368	-0.019174293
58	0xbd781747	-0.060569074
59	0xbda3cfd9	-0.07998628
60	0xbda0009c	-0.07812616
61	0xbd36b786	-0.044608615
62	0xbd3da125	-0.046296258
63	0xbc69eec8	-0.014278121
64	0xbcb7cbed	-0.022436107
65	0x3b072ee6	0.002062732
66	0xbd84096b	-0.06447109
67	0xbb39973d	-0.0028318905
68	0xbcbd381d	-0.023098046
69	0x3b3f69df	0.0029207391
70	0x3c3f89fc	0.011690613
71	0xbd3c2cfb	-0.045941334
72	0xbce792a6	-0.02826817
73	0xbd1fd0f5	-0.039017636
74	0xbc883d53	-0.016630804
75	0xbd980148	-0.074221194
76	0xbd68a9fe	-0.056802742
77	0x3b4c9277	0.003121523
78	0xbca455f1	-0.020060511
79	0xbdb42f43	-0.08798077
80	0xbd70439e	-0.058658235
81	0xbd93f29c	-0.072240084
82	0xbcbcf392	-0.023065362
83	0xbca8eda3	-0.020621127
84	0xbd047319	-0.03233633
85	0x3c86e9c3	0.016468888
86	0x3db9882d	0.090591766
87	0x3bf65161	0.0075170253
88	0x3d86bbaa	0.06578763
89	0x3dc6661b	0.09687444
90	0x3d461024	0.048355237
91	0xbd2a3fa8	-0.041564614
92	0xbd29d18e	-0.041459613
93	0xbc0c4646	-0.008561676
94	0xbcf09571	-0.029368134
95	0xbca594f1	-0.020212622
96	0x3c22dd0c	0.009940397
97	0xbd42456e	-0.047429495
98	0xbdaa78e5	-0.0832384
99	0xbdb64207	-0.088993125
100	0xbda1ff88	-0.07910067
101	0xbd085a74	-0.033289388
102	0xbd61caa9	-0.055124912
103	0xbdbba644	-0.09162572
104	0xbd830c9b	-0.06398889
105	0xbd952c5f	-0.07283854
106	0xbdd82a8a	-0.10554989
107	0xbc9d7740	-0.019221902
108	0xbd07c9d1	-0.03315145
109	0xbd9980b6	-0.07495253
110	0xbd6fec11	-0.05857474
111	0xbd9e092a	-0.07716592
112	0xbd51a406	-0.051181816
113	0xbd6a65ee	-0.057226114
114	0xbd1f9f2d	-0.03897016
115	0xbdc94c11	-0.09828962
116	0xbd704021	-0.058654908
117	0xbd216fea	-0.03941337
118	0xbd5a79e4	-0.0533389
119	0xbdbf6653	-0.09345689
120	0xbd3da6b3	-0.046301555
121	0xbd7617cd	-0.060081292
122	0xbdd3c3b1	-0.103400595
123	0xbcb5cd1e	-0.022192534
124	0xbd84807b	-0.06469818
125	0xbd54ea0b	-0.051981013
126	0xbda592ce	-0.080846414
127	0xbda59d06	-0.080865905
128	0xbd393032	-0.04521198
129	0xbd71af58	-0.05900511
130	0xbd8bb727	-0.06822043
131	0xbdac70c1	-0.084199436
132	0xbdd9f48f	-0.10642349
133	0x3d032aa2	0.03202308
134	0xbd5cd8f1	-0.05391783
135	0xbd6e4b79	-0.058177445
136	0xbdcc368d	-0.09971342
137	0xbd80c648	-0.06287819
138	0xbcb5b6bf	-0.022181867
139	0xbd732af5	-0.05936714
140	0x3d1697a7	0.03676572
141	0xbd6e37e1	-0.05815876
142	0xbd1b77f9	-0.03795621
143	0x3db79617	0.08964174
144	0xbdc7ffd2	-0.09765591
145	0xbd6e3c17	-0.058162775
146	0xbd573288	-0.052538425
147	0xbc059538	-0.008153252
148	0x3caf4122	0.021393362
149	0x3d411458	0.047138542
150	0x3d44aa40	0.048013926
151	0x3db6cd15	0.08925835
152	0x3bdf72fa	0.006819126
153	0x3c44ec60	0.012019247
154	0x3c1fb283	0.00974715
155	0x3d8c9618	0.068645656
156	0x3d78108b	0.06056265
157	0x3da2efc6	0.079558894
158	0x3c8bb526	0.017054152
159	0x3d8bd2c3	0.06827309
160	0x3d98ebc2	0.07466842
161	0xbd4eaf86	-0.05046036
162	0x3ddbc1a1	0.10730291
163	0x3d033d0b	0.032040637
164	0x3d301a3a	0.04299376
165	0x3da86599	0.08222503
166	0x3d75a46d	0.05997126
167	0x3db2a25f	0.08722376
168	0xbbc1da03	-0.0059158816
169	0xbc24ff1f	-0.010070591
170	0x3dd12897	0.1021282
171	0x3d720ffc	0.059097275
172	0x3ca8344c	0.02053275
173	0xbc0e1c0b	-0.008673678
174	0x3d295ce4	0.041348353
175	0x3c7229c3	0.014780465
176	0xbb4e5195	-0.0031481732
177	0x3da1815d	0.07886002
178	0x3c367e4a	0.011138508
179	0xbc40e770	-0.011773929
180	0xbbb72e2f	-0.0055902223
181	0x3d9c1284	0.07620719
182	0x3d4a48d1	0.04938585
183	0xbb5adc18	-0.0033395346
184	0x3d0992d1	0.03358728
185	0xbcc6339b	-0.02419453
186	0x3cc80aeb	0.024419269
187	0x3d47b722	0.048758633
188	0x3d242abf	0.04007983
189	0x3cab6eca	0.020926852
190	0x3d5752a6	0.052569054
191	0x3d50802c	0.050903484
192	0xbcdc4294	-0.026887216
193	0xbc6e41be	-0.014542041
194	0xbc323d60	-0.010878891
195	0x3b5e3213	0.0033904358
196	0xbd610d2c	-0.054944202
197	0xbd87be9f	-0.06628155
198	0xbd259379	-0.040423844
199	0xbc5f8bb9	-0.013644152
200	0xbcad6e5f	-0.021170793
201	0xbd411f35	-0.047148902
202	0xbd11f353	-0.035632443
203	0xbd626f98	-0.055282205
204	0xbda714db	-0.08158275
205	0xbdc871b2	-0.09787311
206	0xbc2db7b7	-0.010602883
207	0xbd8bacf6	-0.06820099
208	0xbc73f177	-0.014889113
209	0xbdafef3f	-0.085905544
210	0xbd24199a	-0.040063478
211	0xbd3ce20b	-0.04611401
212	0xbd8e3d05	-0.06945232
213	0xbcd8bb70	-0.026456565
214	0xbd47da2e	-0.048792057
215	0xbd3adb6c	-0.045619413
216	0xbd3911c9	-0.045182977
217	0xbc85f603	-0.01635266
218	0xbcf0c36a	-0.029390056
219	0xbcbf00e9	-0.023315864
220	0xbdcfe3ba	-0.10150857
221	0xbd57d038	-0.052688807
222	0xbde18fd6	-0.11013763
223	0xbcedfa89	-0.029050129
224	0xbd5a983f	-0.05336785
225	0xbd8971a8	-0.06711131
226	0xbda96a66	-0.08272247
227	0xbdd18c8f	-0.102318875
228	0xbcb25489	-0.021768825
229	0xbc834f3a	-0.01602899
230	0xbce267d0	-0.027637392
231	0xbd0024e3	-0.031285178
232	0xbd01cba1	-0.031688336
233	0xbc77fdc1	-0.015136183
234	0xbd3e35c5	-0.046437997
235	0xbdc511b3	-0.096225165
236	0xbd26f4f2	-0.04076094
237	0xbde15f9d	-0.11004565
238	0xbdaa32e7	-0.0831049
239	0xbdd895ed	-0.10575471
240	0xbc37ddff	-0.011222362
241	0xbdde3f4c	-0.10851917
242	0xbd9d9c18	-0.07695788
243	0x3dd9cfe7	0.10635357
244	0xbd6f714b	-0.058457654
245	0xbd859f4d	-0.06524525
246	0xbd8ecbe7	-0.06972485
247	0xbd26e7e1	-0.04074848
248	0xbcd1a76e	-0.025592532
249	0xbd45ba8f	-0.04827362
250	0xbd708fe9	-0.058730993
251	0xbdf5c3b2	-0.120002165
252	0xbd9e8d30	-0.07741773
253	0xbd85d632	-0.06534995
254	0xbda33b13	-0.07970252
255	0xbdbcc53d	-0.09217308

model.hidden_layers.1.bias f4 [8]
0	0xbd5b405e	-0.053528182
1	0xbd874200	-0.066043854
2	0x3d9efa5e	0.077625975
3	0xbdbeb35d	-0.093115546
4	0xbd021391	-0.03175694
5	0x3d14766b	0.036245745
6	0xbd29d44f	-0.04146224
7	0x3d583e06	0.052793525

model.hidden_layers.2.weight f4 [8, 8, 7, 7]
0	0x3ba752c0	0.0051063
1	0xbd1f9852	-0.038963623
2	0xbd058ea0	-0.03260672
3	0x3d34daa2	0.044153817
4	0xbd147028	-0.036239773
5	0xbd3ad470	-0.045612752
6	0xbaa0bfa0	-0.001226414
7	0xbc8f332c	-0.017480455
8	0x3c31334c	0.010815453
9	0xbc5cffc4	-0.013488714
10	0xbd10594b	-0.035241406
11	0xbce2dc83	-0.027693039
12	0xbc331920	-0.010931283
13	0xbd3ddd3c	-0.046353564
14	0xbb20b8c0	-0.0024524182
15	0x3c7edc88	0.015555508
16	0x3d35b086	0.0443578
17	0xbcf416a3	-0.02979595
18	0x3d394676	0.045233212
19	0x3c75df10	0.0150067955
20	0xbd20535a	-0.03914199
21	0xbcee5318	-0.029092357
22	0x3d315b34	0.04329987
23	0xbc81f296	-0.015862744
24	0xbd12c5c3	-0.03583313
25	0xbd31f426	-0.04344573
26	0xbbba56b0	-0.0056866035
27	0x3c042bbc	0.008067068
28	0xbb3dbb40	-0.002895072
29	0xbd075ea6	-0.03304925
30	0x3bd67598	0.00654478
31	0xbd07833e	-0.033084147
32	0xbc624110	-0.013809457
33	0x3d2d6358	0.04233107
34	0xbd4e4a59	-0.050363872
35	0xbd82a459	-0.06379003
36	0xbd16c86d	-0.036812235
37	0xbbfdbe31	-0.00774362
38	0xbd49f6e8	-0.049307734
39	0x3c8353a0	0.016031086
40	0x3d1d7bd8	0.038448185
41	0xbb56edd0	-0.0032795556
42	0xbcfd0157	-0.030884428
43	0xbdb64bf3	-0.08901205
44	0xbd94567e	-0.072430596
45	0xbdcca09a	-0.0999157
46	0xbc3e33ec	-0.011609059
47	0xbc189214	-0.0093121715
48	0xbb72a130	-0.0037022345
49	0xbd9b20ad	-0.07574592
50	0xbd839fd1	-0.06426967
51	0xbdc6a39b	-0.09699174
52	0xbd7b135d	-0.061297763
53	0xbda1fc77	-0.07909482
54	0xbdd607ff	-0.10450744
55	0xbd8974cf	-0.067117326
56	0xbd409b70	-0.047023237
57	0xbd62ace3	-0.05534066
58	0xbbbaa2d4	-0.00569568
59	0xbcf3f7aa	-0.029781181
60	0xbccc6fb4	-0.024955608
61	0xbd08ac68	-0.033367544
62	0xbd83215d	-0.06402848
63	0xbdc7f55e	-0.09763597
64	0xbd8e4492	-0.069466725
65	0xbc2e54c2	-0.010640325
66	0xbd3be9bf	-0.045877215
67	0xbc808a60	-0.015690982
68	0xbcdd36c4	-0.027003653
69	0xbd468642	-0.048467882
70	0xbdcfb122	-0.10141207
71	0xbd3ef076	-0.04661604
72	0xbdc5cba8	-0.09657985
73	0xbd94aec5	-0.07259897
74	0xbdce8e61	-0.1008575
75	0xbc9dc06b	-0.019256791
76	0xbd65e517	-0.05612668
77	0xbd322b4c	-0.043498322
78	0xbd863650	-0.06553328
79	0xbd86bb81	-0.06578732
80	0xbd75cfb1	-0.060012523
81	0xbd11387d	-0.035454262
82	0xbd90f953	-0.07078805
83	0xbdb14cd1	-0.0865723
84	0xbdc007f8	-0.0937652
85	0xbda7d2f8	-0.08194536
86	0xbd160933	-0.036629867
87	0xbdcaacf2	-0.09896268
88	0xbdcf38ec	-0.10118279
89	0xbdcc683e	-0.0998082
90	0xbd52bfff	-0.051452633
91	0xbd49cda9	-0.0492684
92	0xbd89f6b3	-0.06736507
93	0xbc0f0fc9	-0.008731791
94	0xbd9fb44b	-0.0779806
95	0xbd73efd8	-0.059554905
96	0xbd8a09ab	-0.06740125
97	0xbcb77f87	-0.022399677
98	0xbd37fe3b	-0.044920187
99	0xbdb82073	-0.08990564
100	0xbd881d01	-0.06646157
101	0xbc50875a	-0.012727583
102	0xbd91eb84	-0.07124999
103	0xbc96f77f	-0.018428562
104	0xbd92f3f9	-0.0717544
105	0xbd05c45d	-0.03265797
106	0xbd2590b1	-0.04042119
107	0xbd4ea438	-0.05044958
108	0xbd1e70ac	-0.03868167
109	0xbcdfb670	-0.027308673
110	0xbd39b5ff	-0.04533958
111	0xbd63ab27	-0.055583145
112	0xbdcf62be	-0.101262555
113	0xbccafe1f	-0.024779378
114	0xbd44b416	-0.048023306
115	0xbd5b5cbb	-0.05355523
116	0xbd21bfb2	-0.039489456
117	0xbd38c33b	-0.04510806
118	0xbdc31d36	-0.09527056
119	0xbd850aad	-0.06496177
120	0xbcbf7d32	-0.023375127
121	0xbd91c266	-0.07117157
122	0xbd8d9a28	-0.069141686
123	0xbd82044d	-0.063484766
124	0xbcaf181a	-0.021373797
125	0xbcc268a5	-0.023731539
126	0xbd011b10	-0.03151995
127	0xbda5f6e3	-0.081037305
128	0xbc690072	-0.014221298
129	0xbca68601	-0.02032757
130	0xbd9f2ef3	-0.07772627
131	0xbdd2df80	-0.102965355
132	0xbd64576d	-0.05574744
133	0xbcd47bd3	-0.02593795
134	0xbd955fd0	-0.072936654
135	0xbc485807	-0.012228019
136	0xbcd7fc6f	-0.026365487
137	0xbd255d55	-0.04037221
138	0xbd019855	-0.031639416
139	0xbc8320ca	-0.016006846
140	0xbcb3c573	-0.021944737
141	0xbbe8a466	-0.007099676
142	0xbca0eef2	-0.019645188
143	0xbd31b603	-0.04338647
144	0xbcf4edd3	-0.02989856
145	0xbdbf875b	-0.09351989
146	0xbc612578	-0.013741843
147	0xbd003e40	-0.031309366
148	0xbd966716	-0.07343881
149	0xbc093bd6	-0.008376082
150	0xbd999c90	-0.07500565
151	0xbcb3845e	-0.021913704
152	0xbdad4e0d	-0.08462153
153	0xbdd79fa1	-0.10528494
154	0xbdcafc54	-0.09911409
155	0xbdc8681d	-0.09785483
156	0xbd7f219b	-0.062287908
157	0xbcac319b	-0.021019747
158	0xbd9f8100	-0.07788277
159	0xbc5474c3	-0.012967291
160	0xbc54743b	-0.012967165
161	0xbd87809a	-0.06616326
162	0xbd74314f	-0.059617337
163	0xbd049d97	-0.032376852
164	0xbcb8f589	-0.022578018
165	0xbd91c0bc	-0.07116839
166	0xbc9d9b36	-0.01923905
167	0xbdc129c0	-0.09431791
168	0xbdc3bbec	-0.09557328
169	0xbcea707a	-0.028618086
170	0xbbe9d933	-0.007136488
171	0xbd87664a	-0.06611307
172	0xbc18c55e	-0.0093244
173	0xbdd70db2	-0.10500659
174	0xbdac9b46	-0.084280536
175	0xbcd17bca	-0.025571723
176	0xbd0549c1	-0.03254104
177	0xbd3d44a8	-0.046208054
178	0xbd3ace41	-0.045606855
179	0xbd97881b	-0.07399007
180	0xbd77f551	-0.060536686
181	0xbd84f923	-0.064928316
182	0xbd9f7d71	-0.07787598
183	0xbd955164	-0.07290915
184	0xbd2efabb	-0.042719584
185	0xbdafbdd1	-0.085811265
186	0xbd291cf0	-0.041287363
187	0xbd9c12a8	-0.07620746
188	0xbd8809ea	-0.06642516
189	0xbdb0c90a	-0.08632095
190	0xbd878614	-0.0661737
191	0xbd7b3d47	-0.061337736
192	0xbdd70e85	-0.10500816
193	0xbcc96e40	-0.024588704
194	0xbd144cb3	-0.03620596
195	0xbcd1240a	-0.02552988
196	0x3b9a4da0	0.0047089607
197	0x3d367eda	0.04455457
198	0xbc983eca	-0.018584628
199	0xbd175e39	-0.036955092
200	0x3d4156e6	0.047202013
201	0xbcba5079	-0.02274345
202	0xbcbf9496	-0.023386281
203	0xbd212669	-0.03934327
204	0x3d139c34	0.03603764
205	0x3d2dbd18	0.042416662
206	0x3cb2cc54	0.021825947
207	0x3c362738	0.011117749
208	0xbcf67442	-0.030084733
209	0xbd2bca48	-0.041940957
210	0x3ce19758	0.027537987
211	0x3d1e5968	0.038659483
212	0xbc916b2a	-0.017751295
213	0x3d4a9b0a	0.049464263
214	0x3cfa453c	0.030550592
215	0xbccc948f	-0.024973182
216	0x3c845b44	0.0161568
217	0x3c05ad4c	0.008158993
218	0x3aa6ec80	0.0012735277
219	0xbbe2c1c8	-0.006920073
220	0xbd0e05c0	-0.034673452
221	0xbd472245	-0.048616666
222	0x3cf81ab0	0.030286163
223	0x3c72e9e8	0.014826275
224	0xbd1ef038	-0.03880331
225	0x3ceb5408	0.028726593
226	0x3d0516c0	0.0324924
227	0xbd2addd9	-0.041715477
228	0x3cfa0cac	0.03052362
229	0xbba03998	-0.004889678
230	0xbb1c7c00	-0.002387762
231	0x3d05afe6	0.032638453
232	0x3a042200	0.0005040467
233	0xbcc19b66	-0.02363367
234	0xbce7e52d	-0.028307522
235	0xbc8a12ae	-0.01685461
236	0xbd14c986	-0.036325
237	0x3d05e9dc	0.03269373
238	0x3d4848d2	0.04889757
239	0x3d4734fe	0.04863452
240	0x3cddb658	0.027064487
241	0x3d43c7ee	0.04779809
242	0xbd07226c	-0.03299181
243	0x3d4af590	0.049550593
244	0xbd1c6e8a	-0.038191356
245	0xbd554749	-0.052069936
246	0xbcb80f86	-0.02246834
247	0x3cb69cf0	0.02229163
248	0xbd0587e9	-0.032600317
249	0x3d242bce	0.040080838
250	0xbce94a94	-0.028477944
251	0x3cd7b8e4	0.02633328
252	0x3d0e0688	0.034674197
253	0x3d35b4d0	0.04436189
254	0x3ce20540	0.027590394
255	0x3d31c1c6	0.043397687

model.hidden_layers.2.bias f4 [8]
0	0xbdd36166	-0.10321312
1	0xbdcbba18	-0.09947604
2	0xbc9fe607	-0.019518865
3	0xbdd80019	-0.105468936
4	0x3d9883bd	0.07447002
5	0x3c786dfe	0.015162943
6	0xbdb13b30	-0.08653867
7	0x3dbee63d	0.09321258

model.output_layers.0.weight f4 [8, 8, 7, 7]
0	0xbd4d17af	-0.050071415
1	0x3cadceec	0.021216832
2	0x3dbd8004	0.09252933
3	0x3d5a780e	0.05333715
4	0x3d89ec5b	0.06734534
5	0x3c926072	0.017868254
6	0x3c59c049	0.013290473
7	0x3cb53848	0.022121564
8	0xbbda4448	-0.006660972
9	0x3d6c0092	0.05761773
10	0x3dab6f6e	0.08370863
11	0x3dd3cc74	0.10341731
12	0x3dd8cdb2	0.10586108
13	0x3c4e2e36	0.01258426
14	0x3d06899c	0.03284608
15	0xbd309be7	-0.04311743
16	0x3dafd175	0.08584873
17	0x3d64e988	0.055886775
18	0x3dd865f7	0.10566323
19	0x3d16062b	0.036626976
20	0x3d9dcefc	0.07705495
21	0x3d1be082	0.038055904
22	0xbd0a4a3c	-0.0337622
23	0x3d0c8602	0.034307487
24	0x3d88631f	0.06659531
25	0x3dd399e2	0.10332085
26	0x3bfdca6f	0.007745079
27	0x3dcabf92	0.098998204
28	0x3d3e5c38	0.046474665
29	0x3b165af0	0.0022942387
30	0x3d6d3b6b	0.057917994
31	0x3dcbd1a1	0.09952093
32	0x3d003e10	0.031309187
33	0x3d89a5de	0.0672109
34	0x3d8c0ec2	0.06838752
35	0xbcdacbcc	-0.026708506
36	0x3cbe21f4	0.02320955
37	0x3da43294	0.080174595
38	0x3daeba9c	0.08531687
39	0x3ccf8491	0.025331767
40	0x3c6f22c1	0.014595688
41	0x3ce887c6	0.028385054
42	0xbd273a5c	-0.04082714
43	0x3ca46d78	0.02007173
44	0x3d09d2ec	0.033648416
45	0x3b793940	0.0038028508
46	0x3d07247c	0.03299378
47	0xbd1dd9e6	-0.038537882
48	0x3d26e00a	0.040741004
49	0x3d45c33e	0.0482819
50	0xba83fea0	-0.0010070391
51	0xbd48a128	-0.048981816
52	0xbbf51c32	-0.007480168
53	0xbda37d19	-0.07982845
54	0xbd7164b8	-0.058933944
55	0xbdcb11e8	-0.09915525
56	0x3af3abc0	0.0018590614
57	0xbc57a9f8	-0.013163082
58	0xbd2bcfbc	-0.041946158
59	0xbd7ab1c3	-0.061204683
60	0xbc824506	-0.015902054
61	0xbda03359	-0.07822294
62	0xbc48c633	-0.012254286
63	0x3cb3be90	0.021941453
64	0x3ca2a1a0	0.01985246
65	0xbcaa4926	-0.020786833
66	0xbcb68f30	-0.022285074
67	0xbd846410	-0.06464398
68	0xbd748278	-0.059694737
69	0xbbd733c5	-0.0065674507
70	0xbd00508d	-0.03132682
71	0xbd4140c5	-0.04718091
72	0xbda58c54	-0.08083406
73	0xbd6fb10a	-0.058518447
74	0xbd2bf0ff	-0.04197788
75	0xbcd5c588	-0.026095167
76	0xbd9d20e9	-0.07672293
77	0xbba6b960	-0.0050880164
78	0xbc1586c0	-0.009126365
79	0xbd7851a3	-0.06062473
80	0xbc6dad91	-0.0145067135
81	0xbd9751d7	-0.073886566
82	0xbdc9c700	-0.09852409
83	0xbc9409ab	-0.018071016
84	0x3d055348	0.032550126
85	0xbd34f4ce	-0.044178776
86	0xbcb9d722	-0.022685591
87	0xbd33c1b0	-0.043885887
88	0xbc2e9eea	-0.010658005
89	0xbc056e26	-0.008143937
90	0xbdb53db0	-0.088496566
91	0xbd20d5cc	-0.039266393
92	0xbd4cc4f3	-0.049992513
93	0xbcb34766	-0.021884631
94	0xbced1d41	-0.028944613
95	0x3d221848	0.039573938
96	0xbce45f66	-0.02787752
97	0xbd3217d1	-0.043479744
98	0xbcd17ac4	-0.025571235
99	0x3c4d1da8	0.012519278
100	0x3c989553	0.01862589
101	0x3bfbffb3	0.007690394
102	0x3d60d3e8	0.05488959
103	0x3da4aa84	0.08040336
104	0x3d88bb9e	0.0667641
105	0x3cad27d4	0.021137156
106	0x3badcae8	0.0053037293
107	0x3da8baf4	0.082387835
108	0x3c42ceab	0.011890094
109	0x3d46cb25	0.048533577
110	0x3dbca818	0.09211749
111	0x3dbeb990	0.09312737
112	0xbcdede39	-0.027205573
113	0x3d3d1898	0.046166033
114	0x3d12b78d	0.03581958
115	0x3d110865	0.035408396
116	0x3c590867	0.013246632
117	0x3d4c0c10	0.04981619
118	0x3cab7da6	0.020933937
119	0x3b1ed4c0	0.0024235696
120	0x3cf472c0	0.029839873
121	0x3dc0b541	0.094095714
122	0x3dae1cc0	0.085015774
123	0x3da95efe	0.082700714
124	0x3dc7b305	0.09750942
125	0x3da61691	0.08109773
126	0x3ce09cd4	0.027418531
127	0x3d47e2f0	0.04880041
128	0x3c131479	0.008977049
129	0x3cb7c2c3	0.022431737
130	0x3cb29117	0.0217977
131	0x3d80ae11	0.062832005
132	0x3c3e9384	0.01163185
133	0xbc586780	-0.01320827
134	0x3bb67dc0	0.00556919
135	0x3d1217af	0.035667118
136	0x3dcfd8d0	0.101487756
137	0x3cad5e6d	0.02116319
138	0x3d5516e0	0.05202377
139	0x3d87e08e	0.06634627
140	0xbd1cb383	-0.038257133
141	0x3c569778	0.013097636
142	0x3d2f10a0	0.042740464
143	0x3d36bed6	0.04461559
144	0xbb79eaa0	-0.0038134232
145	0xbc798ee4	-0.015231822
146	0xbbb48270	-0.0055087134
147	0xbcda915c	-0.02668064
148	0xbd29c6af	-0.041449245
149	0x3d9a6453	0.075386666
150	0x3daf5c2c	0.08562502
151	0x3d4c87dc	0.049934253
152	0x3d957b2a	0.07298882
153	0x3bda10df	0.006654843
154	0x3d0c44e2	0.03424538
155	0x3d250e32	0.04029674
156	0x3bf3253d	0.0074202106
157	0x3d99d73f	0.07511758
158	0x3dbbe1c0	0.09173918
159	0x3d4d3ead	0.0501086
160	0x3cfe7906	0.031063568
161	0x3b817dc8	0.003951762
162	0x3b864078	0.0040970407
163	0x3c0259da	0.007955993
164	0x3d4e3e42	0.050352342
165	0x3d89d133	0.06729355
166	0x3dc45d98	0.09588164
167	0x3da136bb	0.07871767
168	0x3c6e2380	0.014534831
169	0x3ca2706c	0.019828998
170	0x3d0c1b9f	0.03420603
171	0x3d2f3fd1	0.04278547
172	0x3d77bd94	0.06048353
173	0x3dc5b973	0.09654512
174	0x3d8877f6	0.06663506
175	0x3d178958	0.036996216
176	0xbd342fd7	-0.043990936
177	0x3c9efa67	0.01940651
178	0x3db59450	0.08866179
179	0x3d9cc126	0.07654028
180	0x3d93189a	0.07182427
181	0x3c6b398b	0.014356981
182	0xbc24575c	-0.010030594
183	0xbca5225e	-0.02015799
184	0x3da45d4a	0.08025606
185	0x3d904e4c	0.07046184
186	0x3c13fbaf	0.009032174
187	0x3cb224a1	0.021745982
188	0x3cb0f0c9	0.02159919
189	0x3b486c80	0.003058225
190	0x3baa24e8	0.005192388
191	0x3d0bbd34	0.034115985
192	0x3d482a70	0.048868597
193	0xbcbdc157	-0.02316348
194	0x3d2c797a	0.042108037
195	0x3c3bd4c8	0.011464305
196	0xbd43a7f7	-0.047767606
197	0xbd1a313a	-0.037644602
198	0xbcf8fcaf	-0.030393926
199	0xbcafa139	-0.021439182
200	0xbd8f1c38	-0.06987804
201	0xbd56d5c8	-0.05244997
202	0xbdc260ca	-0.09491117
203	0xbc34ab4c	-0.0110271685
204	0xbc822fd6	-0.01589195
205	0xbdc51f93	-0.09625163
206	0xbda3a5eb	-0.07990631
207	0xbd796afe	-0.06089305
208	0xbd5cbede	-0.053892963
209	0xbdd8fdfd	-0.105953194
210	0x3c2db234	0.010601569
211	0x3ca962c0	0.02067697
212	0xbda0a9f6	-0.078449175
213	0xbdc222c0	-0.09479284
214	0xbd89e519	-0.0673315
215	0xbd222b6c	-0.03959219
216	0xbd30beea	-0.04315082
217	0x3c2a0cd4	0.010379035
218	0xbcd754e5	-0.026285598
219	0xbd0924e5	-0.03348245
220	0xbd7bce79	-0.061476205
221	0xbdbce846	-0.0922399
222	0xbd720c79	-0.059093926
223	0xbcd71ea2	-0.026259724
224	0xbd49e1de	-0.04928767
225	0xbd223d5b	-0.039609294
226	0xbd6aae8a	-0.05729536
227	0xbdbc53d4	-0.091956764
228	0xbdaf60a1	-0.085633524
229	0xbd7df051	-0.06199676
230	0xbdc420f8	-0.09576601
231	0xbc4df08c	-0.012569558
232	0x3bd4d278	0.0064948164
233	0xbdb7cdef	-0.089748256
234	0xbc1480ed	-0.009063941
235	0xbd45a36b	-0.04825155
236	0xbbb61ece	-0.0055578714
237	0xbdcfc98a	-0.101458624
238	0xbcd35188	-0.025795713
239	0xbc8595ee	-0.016306844
240	0xbc43ed00	-0.011958361
241	0xbd2691c2	-0.04066635
242	0xbc2b9628	-0.010472812
243	0xbd2b566f	-0.041830476
244	0xbd4d478f	-0.05011707
245	0x3ad02380	0.001587972
246	0xbcf0efed	-0.02941128
247	0xbd0853a2	-0.033282883
248	0xbcce6775	-0.025195817
249	0xbdc2b775	-0.09507648
250	0xbc70a9a1	-0.01468888
251	0xbdab9afa	-0.08379169
252	0xbcffd4d3	-0.031229412
253	0x3d14ff38	0.036376208
254	0xbd6ced43	-0.057843458
255	0xbcde2ca2	-0.027120892

model.output_layers.0.bias f4 [8]
0	0xbdc49b7e	-0.0959997
1	0x3cfa02f2	0.030518983
2	0xbe842d0d	-0.2581562
3	0xbc82c364	-0.01596231
4	0x3c8c7e75	0.017150143
5	0xbc890a12	-0.016728435
6	0x3d9eb497	0.077492885
7	0xbd964d68	-0.07338983
