outputs/ConvLSTM_D1_K7_H8_SS8.4_05_18-55-17/checkpoints/model-epoch=00-validation_loss=0.02.ckpt (torch, 178333 bytes, 9 tensors)

model.combined_conv_layers.0.weight f4 [32, 9, 7, 7]
000000 f1 c2 99 be 1e a3 3a be 34 59 40 be 90 a3 29 be
       -0.3003154 -0.18226287 -0.18784028 -0.165663
000010 28 91 ec bd 85 3a 06 bd 22 cb 6c bd 96 a7 89 be
       -0.11551124 -0.032770652 -0.05781091 -0.2688567
000020 ea 1f 34 be 15 7c 11 be 2e 8d 14 be 13 a2 c4 bd
       -0.17590299 -0.1420749 -0.14506981 -0.09601226
000030 c6 7f 1a bd 7d 82 7c bd f6 af 9d be c6 71 5e be
       -0.03771951 -0.06164788 -0.3079831 -0.21723089
000040 b7 e7 1f be da 87 2d be a7 46 8b bd 65 e7 9e bd
       -0.15615736 -0.16946355 -0.06800585 -0.07758979
000050 2d 6c 8e bd 68 f3 7b be 14 9e 5f be 57 6e 2d be
       -0.06954227 -0.24604571 -0.21837646 -0.16936623
000060 0d e7 2b be 66 50 90 bd 61 ee 1e bd fc bc b0 bd
       -0.16787358 -0.07046585 -0.038801555 -0.08629796
000070 d3 76 58 be 66 21 54 be 82 17 2b be 02 23 d4 bd
       -0.21139078 -0.20715865 -0.16708186 -0.1035824
000080 0d c3 65 bd 31 dd ee bd 1d 3f b4 bd 58 3e 49 be
       -0.056094218 -0.11663283 -0.088011004 -0.19652689
000090 50 fd 12 be 2d d0 2f be 5c 91 32 be e8 08 d9 bd
       -0.14354444 -0.17169257 -0.17438263 -0.10597402
0000a0 91 96 11 bd 38 9e bd bc ff 2e 8f be 40 25 0c be
       -0.035543982 -0.023146734 -0.27965543 -0.13686085
0000b0 cc 46 27 be bb f6 c6 bd 8c d6 0f be 7b 14 dc bd
       -0.163356 -0.09715029 -0.14046687 -0.10746094
0000c0 f3 cb 03 be 70 d5 ad 3c 3e fe e3 bc 6d 90 38 bd
       -0.12870769 0.021219939 -0.027831193 -0.04505961
0000d0 ce b2 72 3a 40 47 34 3d 0e da 0f 3d 49 4a 8e bc
       0.00092582114 0.04401326 0.035120063 -0.017369406
0000e0 4d 6d 81 bc ec 67 fc bc e1 98 77 bc 6c 31 c4 bc
       -0.015799189 -0.030811273 -0.015112133 -0.023949347
0000f0 97 51 4a 3d 4b d8 a6 3b de 2b c8 3b ba 61 13 bd
       0.049394216 0.005091702 0.006108745 -0.03598187
000100 63 af b1 bb c2 a2 0e 3d 20 8e 2d bd 61 b4 b8 3c
       -0.005422519 0.034823187 -0.04237187 0.022546949
000110 ab 88 63 3b d5 f9 73 3d 78 5b f7 3c 66 35 62 3c
       0.0034718912 0.05956443 0.030194983 0.0138066765
000120 1b a1 cb bb fe cb aa 3c b0 3f 5b 3d a4 67 ea bc
       -0.0062142736 0.020849224 0.053527534 -0.028613873
000130 a4 56 80 3d b0 6f b1 bb bd de 1d 3c cd ed 17 bd
       0.062665254 -0.0054149255 0.0096356245 -0.03709202
000140 1a 25 0b bd f7 98 08 bd ab 51 45 3b 08 7d b7 3c
       -0.03397093 -0.033349004 0.0030108492 0.022398487
000150 95 c6 e6 3a 93 02 25 bd eb 5d 11 3d 3b d7 13 3d
       0.001760679 -0.040285658 0.035489958 0.03609393
000160 e3 8b 43 bb b0 79 1c 3c 0c ec 2f 3d c5 13 15 bd
       -0.0029838018 0.009550497 0.04294972 -0.036395807
000170 0f 05 cb 3c c8 b6 9f bc a0 c2 45 3d 0b 0a b1 bc
       0.024782686 -0.019496337 0.048281312 -0.021611234
000180 f2 09 0f 3d 3e c4 86 3d df 0f c4 bd ea 9e 00 be
       0.034921594 0.06580399 -0.0957334 -0.12560621
000190 1b 53 3b bd ab 61 ca bc c4 38 8a bd db 9b 6b bd
       -0.045733552 -0.024704775 -0.067491084 -0.057521682
0001a0 5b 15 76 bd d8 5c d6 bd c2 bc 6f bd 76 89 ad bd
       -0.06007896 -0.10466927 -0.058529623 -0.08473484
0001b0 03 7e 23 bd fa 7d 92 bd 16 a0 8e bd 70 8c e9 bc
       -0.039915096 -0.07152934 -0.06964128 -0.028509349
0001c0 c9 80 e3 bd 22 3c ad bd 37 03 13 bd 94 fd b1 bd
       -0.11108548 -0.08458735 -0.035891738 -0.08690944
0001d0 43 5e c5 bd f8 8e aa bd 8d 57 13 bd eb bd 01 be
       -0.096371196 -0.083280504 -0.035972167 -0.12670104
0001e0 8a 91 ec bd 06 4b 72 bd 80 7b 5f bd 7c 9c 73 bc
       -0.11551197 -0.05915358 -0.05456114 -0.014868852
0001f0 0c ce af bd b1 f7 7d bc 98 c0 03 be ed 44 bc bd
       -0.08584222 -0.015500949 -0.12866437 -0.09192834
000200 96 62 53 bd 90 8f 2e bd 02 70 cd bd 76 cf 3b bd
       -0.05160769 -0.04261738 -0.100311294 -0.045852147
000210 d0 3e df bd 55 3f a1 bd 63 2c f3 bd c0 c5 fd bd
       -0.109006524 -0.07873408 -0.118737005 -0.123912334
000220 a5 00 8d bd 47 40 9a bd 89 7e 83 bd 99 9f b4 bd
       -0.068848886 -0.07531791 -0.06420619 -0.08819503
000230 de f4 f2 bd 94 ee de bd db ca 4c bd 4f b2 e7 bd
       -0.11863111 -0.10885349 -0.049998146 -0.113133065
000240 37 65 65 bd ca ac c9 bd 7f b5 5a bd 3e ba 27 bc
       -0.05600473 -0.0984741 -0.053395744 -0.010237275
000250 b6 f0 ef bb 9d 63 e0 bb ff 21 9b bd 83 24 42 bd
       -0.007322396 -0.0068478123 -0.075748436 -0.0473981
000260 0e ad 76 bd 19 4d b2 bc fa a4 b9 bd d9 bd 4f bc
       -0.06022363 -0.021765279 -0.0906467 -0.012679541
000270 c8 51 2d bd c5 60 de bb e0 79 23 39 00 07 d1 3b
       -0.04231432 -0.006786438 0.00015590293 0.0063790083
000280 28 01 a6 bd 93 3c 91 bd 8a 0f f7 bc 56 ab 02 bd
       -0.08105689 -0.07091632 -0.030158777 -0.03190168
000290 5d b8 ad bd 86 da 2d bd 40 ee 5d bd 9a cd 8e bd
       -0.0848243 -0.04244473 -0.05418229 -0.06972809
0002a0 45 eb cc bd ad c6 ba bd c6 7c 81 bc 18 e7 0e bd
       -0.100058116 -0.09119926 -0.015806567 -0.034888357
0002b0 32 93 10 bc b8 d5 3f bd 63 34 f9 3b 64 ef c6 bd
       -0.008824157 -0.046834677 0.007605122 -0.09713629
0002c0 cd c6 0e bd 82 b2 aa bd 1b c2 b2 bd 7f 84 86 bd
       -0.03485756 -0.08334829 -0.08728429 -0.065682404
0002d0 67 48 e3 bc f0 4c 88 bd 9b 78 7a bd ae 87 8e 3b
       -0.027744485 -0.066553 -0.061150175 0.0043496704
0002e0 76 b5 a4 bb 4e f8 74 bd cd bb 19 bd 90 09 7e bd
       -0.0050265146 -0.059807114 -0.037532616 -0.06202084
0002f0 89 d3 89 bd 03 01 69 bd 62 1d 4a bc 39 ef a5 bd
       -0.067298 -0.05688573 -0.012336107 -0.08102269
000300 d0 ee 99 bb f8 47 10 bc 03 e4 43 bd 7e a0 67 bd
       -0.004697658 -0.008806221 -0.04782487 -0.05654954
000310 ed e3 0d 3c cc 72 4d bc cb c6 0c bd 23 99 40 3c
       0.008660299 -0.012539577 -0.03436927 0.011755261
000320 cc c8 05 bd 96 28 38 bd 48 87 26 bd f1 09 a8 bc
       -0.032662198 -0.04496058 -0.040656358 -0.020512553
000330 33 da d5 bc 9a 6c 0a bc 10 97 ac 3b bd 55 4d bd
       -0.026105022 -0.008448744 0.0052670315 -0.050130595
000340 d7 ab 7d 3c 32 f1 a7 3b fc e6 04 bd ba 3a 81 bd
       0.015482864 0.0051251883 -0.032446846 -0.06310029
000350 6b 7f 12 bd 30 98 7a bc 0c 43 55 bd 03 9a 27 3c
       -0.035766046 -0.015295073 -0.052065894 0.01022959
000360 00 2a db bb 39 9d b2 bb 5b 71 d5 3b ee 8c 39 bc
       -0.0066883564 -0.0054508713 0.006513757 -0.011325104
000370 3c ac 4f 3c da 75 f5 3b 15 66 28 bd bf 4f 1a bc
       0.012675341 0.0074908556 -0.041112978 -0.009418427
000380 27 02 ef bc b9 ec ca bb 96 ea d8 bb b2 43 52 bd
       -0.029175831 -0.0061927703 -0.0066197617 -0.05133409
000390 2c 4f 09 bd 0b 7e 69 bd f6 7a 45 bb 8c a8 d1 3a
       -0.03352277 -0.05700497 -0.0030133105 0.0015995665
0003a0 ae 6e 50 bc 24 7c f7 bc 6e e4 db 3b 27 ca 9f bc
       -0.012721701 -0.030210562 0.0067105806 -0.019505573
0003b0 67 fa 7c bc 60 7e a6 bb 21 74 35 3b 7d b2 2a bc
       -0.01544056 -0.005080983 0.0027687626 -0.0104185315
0003c0 ec 9f 16 bd 55 53 05 bd bd c2 74 bd 1f b0 3b 3c
       -0.036773607 -0.032550175 -0.05975603 0.011455565
0003d0 9b 48 3d bd 8e 8a 37 3d b2 a9 00 3d 85 06 0c 3d
       -0.04621182 0.04480987 0.031411834 0.034185905
0003e0 fe 4c 81 3d 69 49 eb 3c fd 42 db 3c 67 80 68 3d
       0.06313513 0.028721528 0.026765341 0.05676308
0003f0 b9 a4 82 3d 5f 28 8c 3d d8 f9 58 3d 17 70 14 3d
       0.063790746 0.06843638 0.052972645 0.03623971

model.combined_conv_layers.0.bias f4 [32]
000000 48 22 56 be 40 38 62 bd 4e 2e 54 3e 99 b3 9d bd
       -0.20911515 -0.055229425 0.20720789 -0.07700271
000010 27 e1 72 bc 80 18 53 be 09 64 ef bd 3f 4a 10 bf
       -0.014824188 -0.20614815 -0.11689002 -0.5636329
000020 9d d6 d5 be 74 57 bf bd a9 d6 aa be 73 9e b4 be
       -0.417653 -0.09342852 -0.33366898 -0.35277137
000030 95 dc a9 be ca ab 46 be 2f 6f df bd 70 22 ec be
       -0.33176103 -0.1940147 -0.109098785 -0.46120024
000040 cc 0c 51 be 2b 8e d3 3a 93 89 a9 3c 4a 30 74 be
       -0.20415038 0.0016140392 0.020695483 -0.23846546
000050 5b 62 9f bd c1 0d 94 be 96 f1 19 3c 7a df 8d be
       -0.07782432 -0.28916743 0.0093959775 -0.27709562
000060 10 87 41 3e 83 b5 87 3e d8 c0 f0 be a4 fb 9a be
       0.18899179 0.2650567 -0.47022128 -0.30270112
000070 75 71 63 be 15 b9 8c bd 3a 3c 6d 3e 87 c4 3c 3e
       -0.22211249 -0.06871239 0.23167506 0.18434344

mapping_layer.weight f4 [1, 8, 1, 1]
000000 e1 c2 f8 3e d5 7a be 3f 97 d6 16 bf 0d a9 84 bd
       0.4858618 1.4881235 -0.5892119 -0.064775564
000010 00 a9 80 3d 4c c5 97 3f b5 89 02 bf 59 36 27 bf
       0.06282234 1.1857085 -0.50991374 -0.653173

exp_avg f4 [32, 9, 7, 7]
000000 a8 39 e8 b6 38 80 0d b7 20 a7 2b b7 96 4b 50 b7
       -6.920851e-06 -8.434108e-06 -1.0231306e-05 -1.2415365e-05
000010 5e a5 64 b7 f2 2e 6b b7 11 66 6a b7 98 ce 01 b7
       -1.3628362e-05 -1.4018022e-05 -1.3971251e-05 -7.7371005e-06
000020 1e 3d 1b b7 b2 ce 3a b7 30 f3 5e b7 12 dc 72 b7
       -9.25295e-06 -1.1134589e-05 -1.3288853e-05 -1.4475563e-05
000030 ee 62 79 b7 2c 31 78 b7 98 17 13 b7 18 84 29 b7
       -1.486459e-05 -1.4793401e-05 -8.767376e-06 -1.010394e-05
000040 40 57 46 b7 20 2c 67 b7 e0 53 7a b7 df a5 80 b7
       -1.1822034e-05 -1.3778947e-05 -1.492069e-05 -1.5336029e-05
000050 e3 47 80 b7 cb d8 1c b7 8a 7b 2e b7 6e 82 44 b7
       -1.5292264e-05 -9.348801e-06 -1.0399972e-05 -1.1712878e-05
000060 b0 e8 60 b7 b3 2e 74 b7 a6 ee 7c b7 5d 25 7e b7
       -1.3405617e-05 -1.4554406e-05 -1.5075935e-05 -1.5148279e-05
000070 dd 7e 36 b7 39 ab 43 b7 22 e9 52 b7 24 1d 6a b7
       -1.0877583e-05 -1.1662772e-05 -1.2571256e-05 -1.3954272e-05
000080 10 6d 7b b7 47 9a 82 b7 5a 32 84 b7 0f 87 4e b7
       -1.4986159e-05 -1.5569049e-05 -1.5759073e-05 -1.2310003e-05
000090 c9 de 59 b7 0b b8 64 b7 66 2a 76 b7 1e 55 82 b7
       -1.2986079e-05 -1.363271e-05 -1.4672614e-05 -1.5536843e-05
0000a0 81 7b 87 b7 ed d5 89 b7 24 64 66 b7 55 bb 72 b7
       -1.6150765e-05 -1.643129e-05 -1.3732384e-05 -1.4467941e-05
0000b0 d7 a9 7b b7 32 30 84 b7 1b 35 89 b7 7f 10 8d b7
       -1.500031e-05 -1.5758069e-05 -1.6356402e-05 -1.6816191e-05
0000c0 08 78 8f b7 9c 39 ad 36 b0 5c 8a 36 0f 2c 01 36
       -1.7102822e-05 5.1625084e-06 4.1235107e-06 1.9248143e-06
0000d0 03 13 f0 b5 4c 18 1e b6 e2 4e 2a b6 c8 af 21 b6
       -1.7886927e-06 -2.3557977e-06 -2.537789e-06 -2.4093188e-06
0000e0 f6 a4 89 36 2f 69 4c 36 fa ca 63 35 38 44 43 b6
       4.102122e-06 3.0459594e-06 8.485946e-07 -2.9096973e-06
0000f0 43 99 68 b6 3f b1 71 b6 c8 64 62 b6 dd ff 3d 36
       -3.4659904e-06 -3.601497e-06 -3.3735287e-06 2.8312127e-06
000100 37 1f e6 35 00 ee 10 b5 25 0e 94 b6 52 24 a8 b6
       1.714542e-06 -5.3990516e-07 -4.4123904e-06 -5.0110184e-06
000110 b0 1a ac b6 53 17 a2 b6 ed 7b b2 35 69 54 83 33
       -5.1291063e-06 -4.8306915e-06 1.3298101e-06 6.115517e-08
000120 38 ae 1b b6 44 da d3 b6 39 45 e6 b6 18 7b e9 b6
       -2.3198209e-06 -6.3136995e-06 -6.8625927e-06 -6.958271e-06
000130 87 02 df b6 38 05 30 36 f3 cb af 35 43 68 97 b5
       -6.646212e-06 2.6229081e-06 1.3097873e-06 -1.1280721e-06
000140 a1 c7 a9 b6 cc 12 bc b6 3c 7b c0 b6 ce f1 b8 b6
       -5.0598323e-06 -5.605025e-06 -5.7363923e-06 -5.511777e-06
000150 3d 4e 71 36 2e 51 1d 36 97 e7 e0 b3 b2 f0 85 b6
       3.595734e-06 2.3442076e-06 -1.0472939e-07 -3.9917295e-06
000160 f5 ad 99 b6 be 4a 9f b6 bc 7e 99 b6 94 fe 8b 36
       -4.5800066e-06 -4.7472704e-06 -4.574509e-06 4.1721596e-06
000170 63 88 4f 36 77 a1 48 35 b9 18 4d b6 58 3b 79 b6
       3.0924791e-06 7.474077e-07 -3.056177e-06 -3.7138434e-06
000180 d1 ed 84 b6 d4 99 81 b6 97 6c e9 b6 cc 48 00 b7
       -3.961592e-06 -3.8624075e-06 -6.9565826e-06 -7.646344e-06
000190 25 71 22 b7 53 85 5f b7 f4 4f 60 b7 5d 2d 61 b7
       -9.682296e-06 -1.3322878e-05 -1.3370056e-05 -1.3421607e-05
0001a0 58 d9 60 b7 a8 5d ee b6 c5 2b 03 b7 b6 bd 25 b7
       -1.3402045e-05 -7.1038558e-06 -7.818399e-06 -9.878937e-06
0001b0 97 16 64 b7 4e bd 66 b7 a0 2e 69 b7 e0 07 69 b7
       -1.3595119e-05 -1.3753144e-05 -1.3898738e-05 -1.3889716e-05
0001c0 8a 39 08 b7 9a 9d 15 b7 66 a6 37 b7 0b df 72 b7
       -8.119629e-06 -8.9177865e-06 -1.0946393e-05 -1.4476255e-05
0001d0 82 81 72 b7 e7 b3 74 b7 4e 5e 75 b7 06 23 25 b7
       -1.4454477e-05 -1.458542e-05 -1.4625095e-05 -9.842921e-06
0001e0 c5 e1 30 b7 20 5c 50 b7 90 45 84 b7 03 08 82 b7
       -1.0542984e-05 -1.2419216e-05 -1.5768019e-05 -1.5500938e-05
0001f0 4b 69 82 b7 f1 2b 83 b7 c1 80 30 b7 60 73 37 b7
       -1.5546239e-05 -1.5636879e-05 -1.0520395e-05 -1.0934513e-05
000200 f1 bb 51 b7 02 73 82 b7 2f fd 7d b7 a0 be 7d b7
       -1.2501129e-05 -1.5550762e-05 -1.5138924e-05 -1.51243585e-05
000210 f7 cc 7f b7 98 88 44 b7 51 db 49 b7 d5 95 5f b7
       -1.52469065e-05 -1.1714314e-05 -1.2031597e-05 -1.3326721e-05
000220 ba c0 86 b7 37 1f 82 b7 ec d3 80 b7 6b 95 80 b7
       -1.606379e-05 -1.5511743e-05 -1.5357473e-05 -1.5328367e-05
000230 7a fc 51 b7 ac dd 5a b7 1d d3 70 b7 58 d6 8e b7
       -1.2516155e-05 -1.3045425e-05 -1.4354268e-05 -1.702753e-05
000240 f0 d5 89 b7 bf eb 85 b7 20 d5 82 b7 0b 95 1c 37
       -1.6431295e-05 -1.5964613e-05 -1.5596452e-05 9.333026e-06
000250 e2 db 23 37 97 5f 39 37 ec c1 5f 37 95 3f 54 37
       9.766753e-06 1.10491155e-05 1.3336987e-05 1.26509885e-05
000260 51 e0 49 37 70 b5 43 37 87 46 3a 37 d3 31 40 37
       1.2032761e-05 1.166515e-05 1.1102885e-05 1.1455692e-05
000270 d8 4d 55 37 cd 6f 7c 37 98 7e 71 37 b3 87 65 37
       1.2713914e-05 1.5046401e-05 1.4394194e-05 1.3681059e-05
000280 f4 a5 5d 37 ce 82 61 37 1c b2 67 37 71 df 7b 37
       1.32112655e-05 1.34415e-05 1.3810142e-05 1.501279e-05
000290 5e eb 90 37 a2 0c 8b 37 12 89 84 37 d5 8c 7f 37
       1.7275739e-05 1.6575974e-05 1.5799455e-05 1.5231974e-05
0002a0 a3 ce 85 37 47 a0 89 37 52 f0 92 37 ba 95 a4 37
       1.5951058e-05 1.6406308e-05 1.7516464e-05 1.9620045e-05
0002b0 2a d1 9c 37 55 9d 95 37 97 7c 90 37 08 c1 8f 37
       1.8694049e-05 1.7835448e-05 1.7224154e-05 1.7136816e-05
0002c0 f5 dd 93 37 b7 e7 9b 37 29 e0 ab 37 75 a3 a2 37
       1.7627122e-05 1.858534e-05 2.0489171e-05 1.938802e-05
0002d0 a6 d9 9a 37 0d c3 95 37 40 4b 99 37 ed e4 9e 37
       1.8459581e-05 1.7853012e-05 1.8274062e-05 1.894167e-05
0002e0 58 73 a6 37 ca 29 b5 37 7d 22 ab 37 9b f0 a1 37
       1.9842453e-05 2.1596341e-05 2.0400848e-05 1.9304736e-05
0002f0 ad d3 9b 37 8c bb 9e 37 47 df a5 37 ff 2f ae 37
       1.857601e-05 1.8922401e-05 1.9773504e-05 2.0764766e-05
000300 42 fb bc 37 bb 19 b3 37 6a 85 a8 37 b7 bc a0 37
       2.2528347e-05 2.1350445e-05 2.0089286e-05 1.9161364e-05
000310 7b 14 3a 35 12 38 41 35 59 ae 3e 35 24 a0 35 35
       6.93202e-07 7.1979696e-07 7.1034225e-07 6.766079e-07
000320 fb 20 23 35 8b b9 1f 35 f3 ef 1d 35 37 45 68 35
       6.0770225e-07 5.9502116e-07 5.883623e-07 8.6527456e-07
000330 41 63 71 35 c4 78 6e 35 61 47 63 35 65 79 52 35
       8.992393e-07 8.8837646e-07 8.466796e-07 7.840775e-07
000340 d2 76 51 35 82 09 52 35 31 03 8b 35 39 fd 8f 35
       7.8031474e-07 7.824493e-07 1.0357236e-06 1.0728028e-06
000350 5c c1 8e 35 34 dd 88 35 0c a6 81 35 bc 47 82 35
       1.06361e-06 1.0197168e-06 9.659575e-07 9.706632e-07
000360 f5 b6 83 35 ff 5e 9b 35 b8 c8 9f 35 4b 89 9f 35
       9.813508e-07 1.1576047e-06 1.190484e-06 1.1886381e-06
000370 34 0f 9b 35 b2 be 95 35 9c f0 97 35 9a b3 9a 35
       1.1552825e-06 1.1156865e-06 1.1320403e-06 1.1526165e-06
000380 f2 85 9e 35 87 77 a3 35 e2 39 a6 35 69 ad a5 35
       1.18109e-06 1.2179233e-06 1.238481e-06 1.2343927e-06
000390 f6 6c a3 35 24 82 a7 35 1a 61 ab 35 61 0b a0 35
       1.2176158e-06 1.2480346e-06 1.2768753e-06 1.1924241e-06
0003a0 e6 65 a5 35 9b 6b aa 35 c4 7f ad 35 cc 31 ae 35
       1.2323114e-06 1.2697304e-06 1.2926689e-06 1.2978503e-06
0003b0 9f bf b3 35 e3 97 b8 35 2d 03 a1 35 9b d7 a6 35
       1.3392308e-06 1.3753273e-06 1.1996359e-06 1.2430713e-06
0003c0 e6 00 ad 35 c0 28 b2 35 da 36 b5 35 83 c3 bb 35
       1.2889766e-06 1.3273893e-06 1.3501515e-06 1.3989487e-06
0003d0 f2 8f c1 35 46 c5 94 b6 63 9f 99 b6 00 d0 98 b6
       1.4421514e-06 -4.4337094e-06 -4.5783104e-06 -4.5541674e-06
0003e0 4f 68 91 b6 d8 99 8b b6 25 97 83 b6 9c 5e 77 b6
       -4.33348e-06 -4.1604326e-06 -3.9216998e-06 -3.6860938e-06
0003f0 09 3e 95 b6 38 21 9a b6 22 86 98 b6 0d 15 90 b6
       -4.447768e-06 -4.593425e-06 -4.545568e-06 -4.293985e-06

exp_avg_sq f4 [32, 9, 7, 7]
000000 00 06 ab 31 e7 dd b5 31 8c 13 be 31 1c b1 c2 31
       4.977437e-09 5.2930207e-09 5.53195e-09 5.666278e-09
000010 ba f6 b9 31 1c a9 af 31 21 ca a3 31 9b 5c b4 31
       5.412258e-09 5.112396e-09 4.7669038e-09 5.2492175e-09
000020 cd 75 c1 31 88 8f cb 31 a1 81 d1 31 bd c6 c8 31
       5.6304317e-09 5.924395e-09 6.0974377e-09 5.84336e-09
000030 be 03 be 31 00 86 b1 31 6b 7a bc 31 68 94 cb 31
       5.5301532e-09 5.166612e-09 5.4854374e-09 5.9249494e-09
000040 8d 67 d7 31 9e c7 de 31 6f 4b d6 31 49 6b cb 31
       6.269096e-09 6.483744e-09 6.2367955e-09 5.9202745e-09
000050 54 b3 be 31 bf f7 c2 31 55 a0 d3 31 7c fa e0 31
       5.550115e-09 5.6743086e-09 6.159136e-09 6.547735e-09
000060 17 d7 e9 31 8f 08 e2 31 27 92 d7 31 53 dd ca 31
       6.8056454e-09 6.5784387e-09 6.273939e-09 5.9041354e-09
000070 06 19 bc 31 35 ca cc 31 17 a8 da 31 74 90 e4 31
       5.474365e-09 5.9601697e-09 6.3637446e-09 6.6520958e-09
000080 1a 43 de 31 44 ff d4 31 d0 f7 c8 31 16 a9 b2 31
       6.468679e-09 6.1990324e-09 5.848939e-09 5.1997047e-09
000090 5a a1 c2 31 13 73 d0 31 6d f7 da 31 a7 02 d6 31
       5.6644867e-09 6.066679e-09 6.372764e-09 6.2285213e-09
0000a0 75 f8 cd 31 1c cf c2 31 f7 78 a7 31 d7 23 b6 31
       5.9945315e-09 5.6696887e-09 4.874092e-09 5.3009717e-09
0000b0 80 49 c3 31 40 ba cd 31 56 99 c9 31 da 87 c2 31
       5.683603e-09 5.9874594e-09 5.867302e-09 5.6615876e-09
0000c0 59 61 b8 31 67 d2 77 33 0b ba 81 33 ce b3 86 33
       5.366172e-09 5.770053e-08 6.0408716e-08 6.2725675e-08
0000d0 80 44 8a 33 86 79 86 33 79 51 81 33 59 94 76 33
       6.438586e-08 6.261966e-08 6.0218504e-08 5.741126e-08
0000e0 6b 5e 82 33 eb c6 88 33 64 41 8e 33 02 21 92 33
       6.070771e-08 6.3691765e-08 6.624285e-08 6.804659e-08
0000f0 fd 21 8e 33 1d 98 88 33 00 14 82 33 99 b9 87 33
       6.618573e-08 6.360663e-08 6.057235e-08 6.3201874e-08
000100 ec a2 8e 33 ce 8b 94 33 b4 ae 98 33 5c 84 94 33
       6.6420256e-08 6.9172174e-08 7.10983e-08 6.915863e-08
000110 a4 a5 8e 33 e0 b7 87 33 49 57 8b 33 9b 8a 92 33
       6.64252e-08 6.319874e-08 6.488569e-08 6.823867e-08
000120 1e b5 98 33 9e 03 9d 33 9c c3 98 33 e9 b4 92 33
       7.1109966e-08 7.31154e-08 7.113633e-08 6.831562e-08
000130 5d 8b 8b 33 b8 74 86 33 fd 70 8d 33 d0 6e 93 33
       6.498042e-08 6.261092e-08 6.5863766e-08 6.8653776e-08
000140 73 a4 97 33 7c 99 93 33 3a cb 8d 33 51 e9 86 33
       7.0613986e-08 6.8731396e-08 6.602791e-08 6.282301e-08
000150 a3 90 7f 33 18 5d 86 33 77 0a 8c 33 20 1a 90 33
       5.950336e-08 6.256795e-08 6.5211616e-08 6.710275e-08
000160 e2 5c 8c 33 67 fb 86 33 79 92 80 33 95 9a 6f 33
       6.536153e-08 6.285591e-08 5.987108e-08 5.5787115e-08
000170 b5 c2 7b 33 4d 2d 83 33 54 13 87 33 54 b3 83 33
       5.8617577e-08 6.108403e-08 6.289943e-08 6.1327825e-08
000180 7e a9 7d 33 ae fb 71 33 d0 ec d1 31 37 e1 d4 31
       5.9060305e-08 5.6341086e-08 6.109623e-09 6.195616e-09
000190 30 94 d7 31 9f b9 d9 31 15 e4 d2 31 49 92 cb 31
       6.2741705e-09 6.336634e-09 6.1377343e-09 5.9247083e-09
0001a0 03 6b c4 31 ab 4b d7 31 98 73 da 31 2c 71 dd 31
       5.7165166e-09 6.265926e-09 6.3577765e-09 6.4448127e-09
0001b0 81 e9 df 31 f8 11 d9 31 b7 c7 d1 31 c1 a2 ca 31
       6.5167005e-09 6.317574e-09 6.1054055e-09 5.8974767e-09
0001c0 f5 43 dc 31 c1 9b df 31 ad db e2 31 cf b0 e5 31
       6.4105685e-09 6.5078614e-09 6.60244e-09 6.684878e-09
0001d0 46 e5 de 31 42 b7 d7 31 e6 99 d0 31 69 c9 df 31
       6.4871157e-09 6.2781575e-09 6.071093e-09 6.513052e-09
0001e0 8c 2a e3 31 82 9e e6 31 a4 e7 e9 31 17 59 e3 31
       6.6114065e-09 6.7119013e-09 6.807527e-09 6.616698e-09
0001f0 07 4f dc 31 18 4f d5 31 4c 9a d9 31 4a e3 dc 31
       6.411827e-09 6.208108e-09 6.3330727e-09 6.4286825e-09
000200 d4 69 e0 31 63 c4 e3 31 2f a0 dd 31 21 f8 d6 31
       6.5312893e-09 6.628896e-09 6.4501573e-09 6.2564287e-09
000210 f8 52 d0 31 b1 f2 d2 31 22 52 d6 31 f2 e1 d9 31
       6.063029e-09 6.139395e-09 6.237557e-09 6.341218e-09
000220 3f 37 dd 31 79 5b d7 31 cb 0a d1 31 91 d5 ca 31
       6.4382273e-09 6.267723e-09 6.0839276e-09 5.9032534e-09
000230 90 31 cc 31 95 9f cf 31 21 26 d3 31 28 71 d6 31
       5.942816e-09 6.0426353e-09 6.145243e-09 6.241084e-09
000240 f2 d1 d0 31 10 dd ca 31 a1 f8 c4 31 b1 5e a3 32
       6.0774648e-09 5.9041056e-09 5.7326166e-09 1.9018758e-08
000250 2e 0a ae 32 12 fd b7 32 45 51 bf 32 c1 c6 bc 32
       2.0260895e-08 2.1419087e-08 2.2272284e-08 2.1976463e-08
000260 03 09 b7 32 19 1b af 32 fb 79 ac 32 de 00 b8 32
       2.1308102e-08 2.0385004e-08 2.0078906e-08 2.1420814e-08
000270 c3 bc c2 32 cc a4 ca 32 1d 0d c8 32 25 fe c1 32
       2.2670411e-08 2.3590836e-08 2.3289028e-08 2.2583729e-08
000280 95 98 b9 32 30 f3 b3 32 8b 2e c0 32 f2 90 cb 32
       2.160622e-08 2.0948931e-08 2.2372907e-08 2.3698224e-08
000290 d7 f3 d3 32 e3 4e d1 32 4c ff ca 32 82 42 c2 32
       2.4674518e-08 2.4366676e-08 2.363199e-08 2.2614817e-08
0002a0 4c d8 b8 32 51 8c c5 32 6a 5f d1 32 ea 19 da 32
       2.151878e-08 2.2997627e-08 2.4374192e-08 2.5390325e-08
0002b0 71 6f d7 32 82 fb d0 32 f0 0f c8 32 98 52 b3 32
       2.5079972e-08 2.432876e-08 2.3290312e-08 2.0875902e-08
0002c0 b8 df bf 32 c2 8a cb 32 bc 29 d4 32 56 a0 d1 32
       2.2337062e-08 2.369541e-08 2.4699027e-08 2.4403715e-08
0002d0 ac 5e cb 32 b9 bd c2 32 0b 49 ab 32 16 81 b7 32
       2.3675362e-08 2.2670848e-08 1.9940236e-08 2.1362705e-08
0002e0 fd dd c2 32 14 49 cb 32 eb ec c8 32 23 f0 c2 32
       2.2685521e-08 2.3665542e-08 2.3390802e-08 2.2693774e-08
0002f0 4a af ba 32 f4 de a1 32 32 98 ad 32 f5 86 b8 32
       2.1732962e-08 1.8844254e-08 2.0209061e-08 2.148179e-08
000300 95 a5 c0 32 a6 7d be 32 73 d8 b8 32 f0 04 b1 32
       2.242704e-08 2.217605e-08 2.1518849e-08 2.0607757e-08
000310 2f 58 a9 32 35 49 b4 32 7f 91 bd 32 87 c0 c3 32
       1.971429e-08 2.0988049e-08 2.206866e-08 2.2788539e-08
000320 b4 f2 be 32 01 37 b7 32 36 a4 ad 32 8e 58 b3 32
       2.222928e-08 2.1329017e-08 2.0214525e-08 2.0878613e-08
000330 4a 2b bf 32 aa 33 c9 32 0e de cf 32 1f ef ca 32
       2.2255012e-08 2.3422974e-08 2.419895e-08 2.3624635e-08
000340 44 de c2 32 9f e0 b8 32 e0 8a bb 32 cc 1a c8 32
       2.2685647e-08 2.1522565e-08 2.1832818e-08 2.329525e-08
000350 72 ce d2 32 6e ef d9 32 80 f5 d4 32 61 b4 cc 32
       2.4541098e-08 2.5371005e-08 2.4791689e-08 2.3830752e-08
000360 a0 70 c2 32 d0 d3 c0 32 e1 de cd 32 e6 0d d9 32
       2.2635788e-08 2.2448063e-08 2.3966495e-08 2.5268445e-08
000370 18 9a e0 32 22 ba db 32 1e 7b d3 32 62 26 c9 32
       2.6147106e-08 2.5579599e-08 2.461962e-08 2.3416934e-08
000380 d7 b1 ba 32 9d 8e c7 32 59 ad d2 32 87 55 da 32
       2.1734122e-08 2.3231502e-08 2.4526047e-08 2.5417433e-08
000390 e3 d7 d5 32 1f 05 ce 32 76 1e c4 32 b2 02 b2 32
       2.4894637e-08 2.3983885e-08 2.2831255e-08 2.0723153e-08
0003a0 72 7b be 32 a1 58 c9 32 83 f7 d0 32 5b ef cc 32
       2.2175048e-08 2.3439783e-08 2.4326942e-08 2.3857572e-08
0003b0 31 a7 c5 32 76 4f bc 32 5c a7 a7 32 76 95 b3 32
       2.3009848e-08 2.1922215e-08 1.9517465e-08 2.090631e-08
0003c0 62 0a be 32 10 77 c5 32 50 d8 c1 32 e9 22 bb 32
       2.2123633e-08 2.2987962e-08 2.2566525e-08 2.178554e-08
0003d0 89 6b b2 32 2e c6 97 32 58 a8 a1 32 d2 27 aa 32
       2.0770829e-08 1.7668835e-08 1.881942e-08 1.9808713e-08
0003e0 8e c3 af 32 b4 10 ad 32 c9 20 a7 32 41 ef 9e 32
       2.046161e-08 2.0147446e-08 1.9456268e-08 1.8502421e-08
0003f0 0b 38 a1 32 3f bf ab 32 f3 cb b4 32 b2 c7 ba 32
       1.8768352e-08 1.9993989e-08 2.1047503e-08 2.174406e-08

exp_avg f4 [32]
000000 a4 a2 4e b8 92 2d f4 b6 46 9d 6b 39 7a 45 6c 36
       -4.9265698e-05 -7.2770717e-06 0.00022469935 3.520718e-06
000010 8c 60 eb 37 d8 44 3c 36 95 34 31 b7 89 25 23 37
       2.8059141e-05 2.8054255e-06 -1.0562265e-05 9.724296e-06
000020 f6 29 17 39 21 b5 71 b8 aa 53 73 39 c5 cd 76 b8
       0.00014416114 -5.7627567e-05 0.00023205453 -5.884261e-05
000030 29 e0 13 38 d1 4c 87 37 a0 23 94 36 7e 74 9c b8
       3.5256297e-05 1.6129025e-05 4.414891e-06 -7.460358e-05
000040 e2 09 49 38 1c bc 33 b9 05 cd 44 39 52 7b 84 b8
       4.793134e-05 -0.00017140846 0.00018768392 -6.317221e-05
000050 92 3e d1 37 97 ea 91 b8 f3 b0 29 b8 42 a4 04 b8
       2.4943878e-05 -6.9578346e-05 -4.0457537e-05 -3.162423e-05
000060 ad 0d 93 b9 87 a4 64 b9 37 7a 8d b7 d2 7f 09 38
       -0.00028048214 -0.00021805066 -1.686542e-05 3.2782387e-05
000070 49 c9 98 38 c2 b0 59 b7 3c 72 af 36 f2 5f 35 b8
       7.285417e-05 -1.2975363e-05 5.228705e-06 -4.324312e-05

exp_avg_sq f4 [32]
000000 d6 49 ec 33 72 e9 30 34 a2 54 0c 35 f0 0b 1c 35
       1.1003037e-07 1.6476204e-07 5.227722e-07 5.81319e-07
000010 74 13 90 33 1c 89 06 34 49 ce 85 33 e3 d2 81 34
       6.709061e-08 1.2529603e-07 6.230818e-08 2.4181563e-07
000020 ba 1d 38 34 38 36 1f 35 20 42 bd 35 23 b6 11 34
       1.714715e-07 5.9311014e-07 1.4100842e-06 1.3570438e-07
000030 f2 9c 94 35 40 89 b9 33 1d 3e 96 34 5a 76 73 36
       1.1072536e-06 8.6396994e-08 2.798487e-07 3.6278711e-06
000040 02 71 59 35 15 74 b5 35 e4 34 41 36 8a 08 b1 33
       8.100325e-07 1.3519335e-06 2.8790027e-06 8.243758e-08
000050 26 0c 8e 35 f0 5a 04 37 e4 cc de 34 6f b5 60 36
       1.058336e-06 7.888986e-06 4.14998e-07 3.348421e-06
000060 1d 6b d0 35 db 5c 3e 37 04 f5 f9 35 17 65 75 35
       1.5528382e-06 1.1346502e-05 1.8623255e-06 9.141672e-07
000070 74 c4 7e 36 e9 cc 23 37 08 67 fd 35 b8 ce a5 37
       3.79633e-06 9.7632665e-06 1.8879955e-06 1.9765794e-05

exp_avg f4 [1, 8, 1, 1]
000000 39 2a 99 ba d5 a7 2f bb bc bd 2b 3b 9e 7c 64 b7
       -0.0011685557 -0.0026802917 0.002620562 -1.3618874e-05
000010 de b6 4f ba 86 60 be ba 1e f6 86 39 ff 4b 9f 38
       -0.00079236727 -0.0014524616 0.00025741843 7.595866e-05

exp_avg_sq f4 [1, 8, 1, 1]
000000 67 d0 21 37 23 31 ab 38 79 78 e3 39 47 a7 ca 36
       9.64487e-06 8.163068e-05 0.00043386573 6.0395428e-06
000010 44 9c f0 37 8b b8 bb 38 72 60 f6 37 f6 39 94 38
       2.8682996e-05 8.951229e-05 2.9370396e-05 7.067986e-05
