outputs/ConvRNN_D1_K7_H8_SS7.6_04_22-24-16/checkpoints/model-epoch=01-validation_loss=0.08.ckpt (torch, 61726 bytes, 18 tensors)

model.bias f4 [8]
-2.6146019 -0.12651022 0.22569202 -0.34322256 0.3886723 -0.13186571 -0.5733481 -0.600808
00000000: a355 27c0 e58b 01be cf1b 673e deba afbe
00000010: 0e00 c73e ce07 07be f1c6 12bf 8ece 19bf

model.input_layers.0.weight f4 [8, 1, 7, 7]
0.015606315 0.17413403 0.17225303 0.1383508 0.0996643 -0.19245483 -0.07658393 0.07311438
0.21324034 0.2793517 0.10493002 0.125372 0.082118966 -0.13566726 0.14716886 0.15252559
0.3216754 0.21943869 0.24674408 0.018029792 -0.054156367 0.16386141 0.35029936 0.34995162
0.27060625 0.33352926 0.090891816 0.25277323 0.27276757 0.36503613 0.12764513 0.2673478
0.007503673 0.048576638 0.07010549 0.13263975 0.13953185 0.24569865 0.116480365 -0.035244614
0.020871015 -0.10475002 0.21534742 0.18344027 0.12899607 0.22555624 0.18820146 0.005332886
-0.06331059 -0.12871245 -0.12902866 -0.19526203 0.0061915764 -0.18617494 -0.06899235 -0.17436214
-0.14370008 -0.037805963 -0.058921147 -0.006189193 -0.14878082 -0.056416992 -0.09989185 -0.1235623
-0.104438856 0.015942799 0.03707263 -0.2105124 0.03766691 -0.0802511 -0.1133097 -0.10749522
-0.08232579 -0.03128823 -0.10099019 -0.0276864 -0.121929884 0.054318175 -0.043874156 -0.1886624
-0.08533857 -0.0030978657 0.0031267633 -0.18786214 -0.1142097 0.044553433 -0.21619728 -0.12183285
0.0060995906 -0.1803144 -0.09341724 -0.104535684 -0.15043086 -0.1341276 -0.18433928 -0.09700718
-0.038187813 -0.048675932 -0.83829474 -0.18516298 -0.20010641 -0.29733837 0.036401134 0.32855567
0.39333645 -0.5919951 -0.29138517 -0.14316612 -0.24843532 0.11768284 0.42128435 0.2404009
-0.631528 -0.46861467 -0.2644674 -0.37402734 -0.08499217 0.30169588 0.23757586 -0.8413884
-0.5922832 -0.49424198 -0.66858035 -0.25854215 0.026839526 -0.10271886 -0.3238076 0.05348039
-0.095298655 -0.27586287 -0.003302157 0.30198792 0.2925835 -0.084471814 0.39904475 0.2301368
-0.2513606 0.28862658 0.37245524 0.25984785 0.060471196 0.30601355 0.42868122 -0.15285441
0.27762643 0.35422975 0.2883466 0.024308776 -0.09902393 -0.05012885 -0.01572678 0.2509815
0.17973849 0.10945999 0.011594985 -0.09788629 -0.10813665 0.041074783 0.0725875 0.13435167
0.122939974 -0.105254546 -0.18954968 -0.3445709 -0.105170265 -0.044499855 0.08009323 0.082809605
-0.45358038 -0.35963655 -0.46673024 -0.45953616 -0.38626957 -0.1766025 -0.23247959 -0.30801576
-0.2897179 -0.16071627 -0.22708973 0.012455287 0.030422417 0.026179647 -0.135387 0.046613995
-0.058352146 -0.20555799 0.17927451 0.048087306 -0.012558782 -0.03761424 0.15273823 0.012611016
-0.16141349 0.025625031 0.078127526 0.22260694 -0.27406484 -0.118136674 -0.049966466 -0.2199727
-0.04353308 -0.13231105 -0.052572865 -0.113458715 -0.21170597 -0.18435422 -0.054866962 -0.20063113
0.026530582 -0.031001499 -0.19293466 -0.260939 -0.101436906 -0.24189784 -0.24880709 -0.11028649
-0.065070845 -0.2032013 -0.2176783 -0.1788055 -0.09194314 -0.068660036 0.01765182 -0.066227764
-0.18207724 -0.2238084 -0.16873853 -0.18498302 -0.12803254 -0.06771178 0.01384544 -0.1335215
-0.100227855 -0.05578199 -0.11077672 -0.046470948 0.03240976 -0.14682183 -0.107226275 -0.0022078312
-0.08718987 -0.14608334 -0.0031635463 -0.067894384 -0.11577129 0.015662787 -0.19777925 -0.014766565
-0.06636929 -0.04083309 0.016675733 -0.023562694 -0.022627804 0.045064244 0.039148334 0.049109366
00000000: a1b1 7f3c 3150 323e 1963 303e d5ab 0d3e
00000010: cc1c cc3d e112 45be 09d8 9cbd febc 953d
00000020: ad5b 5a3e 3007 8f3e 8de5 d63d 8461 003e
00000030: fd2d a83d 5cec 0abe 6fb3 163e ab2f 1c3e
00000040: a3b2 a43e 89b4 603e 7baa 7c3e 37b3 933c
00000050: 11d3 5dbd 49cb 273e 705a b33e dc2c b33e
00000060: e78c 8a3e 59c4 aa3e 7d25 ba3d 7e6b 813e
00000070: 31a8 8b3e 04e6 ba3e 68b5 023e d0e1 883e
00000080: 5fe1 f53b 4cf8 463d 7893 8f3d b7d2 073e
00000090: 70e1 0e3e 6d98 7b3e 428d ee3d a85c 10bd
000000a0: b1f9 aa3c 2e87 d6bd 0984 5c3e c4d7 3b3e
000000b0: 8c17 043e 37f8 663e e2b7 403e 7dbf ae3b
000000c0: fca8 81bd 32cd 03be 1720 04be c5f2 47be
000000d0: b5e2 ca3b a5a4 3ebe dc4b 8dbd fd8b 32be
000000e0: 1d26 13be 6dda 1abd 4d57 71bd b7ce cabb
000000f0: 005a 18be 8115 67bd 1994 ccbd 3b0e fdbd
00000100: 0ae4 d5bd 799a 823c 78d9 173d 9090 57be
00000110: 9e48 1a3d b05a a4bd ea0e e8bd 7426 dcbd
00000120: 6c9a a8bd 1628 00bd f2d3 cebd 97ce e2bc
00000130: 60b6 f9bd bc7c 5e3d 63b5 33bd b730 41be
00000140: fdc5 aebd 9005 4bbb 62ea 4c3b ef5e 40be
00000150: c6e6 e9bd a97d 363d d262 5dbe 8083 f9bd
00000160: 13df c73b 57a4 38be 8a51 bfbd ce16 d6bd
00000170: 8c0a 1abe bf58 09be 70c3 3cbe b3ab c6bd
00000180: d36a 1cbd 6a60 47bd 7c9a 56bf 5d9b 3dbe
00000190: b2e8 4cbe bc3c 98be 5b19 153d 7338 a83e
000001a0: 6563 c93e fe8c 17bf 7030 95be 249a 12be
000001b0: d465 7ebe b303 f13d 95b2 d73e a72b 763e
000001c0: d2ab 21bf 43ee efbe 4568 87be 8380 bfbe
000001d0: 6010 aebd e277 9a3e 1647 733e 3b65 57bf
000001e0: df9f 17bf 490d fdbe 1528 2bbf a35f 84be
000001f0: 91de db3c 445e d2bd 1cca a5be 410e 5b3d
00000200: f12b c3bd e63d 8dbe 0069 58bb 299e 9a3e
00000210: 81cd 953e 8fff acbd 984f cc3e fba8 6b3e
00000220: 56b2 80be ddc6 933e 74b2 be3e c70a 853e
00000230: a5b0 773d cfad 9c3e 1b7c db3e de85 1cbe
00000240: 0d25 8e3e 9a5d b53e 2aa2 933e 3323 c73c
00000250: 0fcd cabd e953 4dbd 73d5 80bc a680 803e
00000260: 5e0d 383e 8f2c e03d e4f8 3d3c 9b78 c8bd
00000270: bf76 ddbd 083e 283d c1a8 943d 7c93 093e
00000280: f4c7 fb3d b28f d7bd 5019 42be 996b b0be
00000290: 8263 d7bd 7b45 36bd eb07 a43d 1598 a93d
000002a0: b03b e8be 4822 b8be 44f7 eebe 5348 ebbe
000002b0: 20c5 c5be 49d7 34be 210f 6ebe 3eb4 9dbe
000002c0: e855 94be ce92 24be 368a 68be 4311 4c3c
000002d0: 6f38 f93c b376 d63c e4a2 0abe 51ee 3e3d
000002e0: a902 6fbd cb7d 52be bd93 373e 32f7 443d
000002f0: 59c3 4dbc 6411 1abd 6967 1c3e 6f9e 4e3c
00000300: 9449 25be 96eb d13c 5301 a03d 13f3 633e
00000310: 3a52 8cbe a4f1 f1bd a3a9 4cbd 8640 61be
00000320: be4f 32bd 8c7c 07be a556 57bd 0b5d e8bd
00000330: 73c9 58be 5ac7 3cbe 2ebc 60bd 3f72 4dbe
00000340: aa56 d93c dbf6 fdbc aa90 45be cc99 85be
00000350: 27be cfbd 11b4 77be 49c7 7ebe e2dd e1bd
00000360: dd43 85bd 0014 50be 0fe7 5ebe ca18 37be
00000370: af4c bcbd a29d 8cbd 8d9a 903c 6ca2 87bd
00000380: 7572 3abe 072e 65be cbc9 2cbe 306c 3dbe
00000390: f61a 03be 79ac 8abd fcd7 623c dcb9 08be
000003a0: 4344 cdbd a87b 64bd e8de e2bd 5258 3ebd
000003b0: 19c0 043d 7658 16be 7399 dbbd 43b1 10bb
000003c0: 9a90 b2bd df96 15be 8053 4fbb 360c 8bbd
000003d0: 8019 edbd 3f4f 803c a586 4abe 76ef 71bc
000003e0: 9fec 87bd 9940 27bd 8c9b 883c 8d06 c1bc
000003f0: f25d b9bc 4995 383d 015a 203d e726 493d

model.input_layers.0.bias f4 [8]
-0.59364027 0.36631304 -1.065477 -2.103634 -0.47868887 -0.2713685 0.028032195 0.45956692
00000000: cff8 17bf 628d bb3e 8d61 88bf f1a1 06c0
00000010: b516 f5be d0f0 8abe c6a3 e53c 5b4c eb3e

model.hidden_layers.0.weight f4 [8, 8, 7, 7]
-0.0051599666 0.078642644 0.084997885 0.08208566 0.01831341 0.057763506 0.028421478 0.050142985
0.026587673 0.004633582 0.074499875 -0.0026589097 0.073556155 0.027018247 0.08241421 0.047175325
0.034205917 0.027010579 0.060540214 0.0042338306 0.05716802 0.0048549506 0.08252521 0.033568207
0.044737708 0.087397724 0.024767393 0.057524275 0.001943793 -0.00028641702 0.047170587 0.039385054
0.08498617 0.024922514 0.029245798 0.058576934 0.01306611 -0.009126597 0.07210134 0.07953839
0.021640915 0.030616688 0.01136914 0.06766751 0.07961116 0.08236223 0.05270545 0.059680812
0.06632511 -0.04868114 -0.04061005 -0.044197295 -0.078400254 -0.05688025 0.02926698 0.0074852537
-0.13122588 -0.13097948 -0.083109796 -0.08884322 -0.06586415 -0.031770155 -0.041640613 -0.17181833
-0.11908803 -0.15773347 -0.13915117 -0.07744547 -0.022752022 -0.06324598 -0.1493352 -0.16789722
-0.1182676 -0.14743285 -0.124924354 -0.10529919 -0.03274668 -0.16848382 -0.09534881 -0.1187085
-0.07413581 -0.12181621 -0.10002987 -0.09160739 -0.13715786 -0.15057008 -0.16921076 -0.10628195
-0.103495255 -0.12801307 -0.050918408 -0.15389644 -0.095041715 -0.14574009 -0.095515534 -0.16299072
-0.076732665 -0.106567554 -0.0036227393 0.00454185 -0.07609248 0.0036331213 -0.042660296 -0.02528219
-0.049235657 -0.06120514 -0.053069785 -0.034214903 -0.05608772 -0.06464001 -0.03961952 -0.033814628
-0.08067935 -0.019588577 -0.06859687 -0.054951478 -0.0679652 -0.07432101 -0.026491726 -0.06346025
-0.09041897 -0.08707346 -0.017979909 -0.08681448 0.005445327 -0.065806955 0.0009691902 -0.07149661
-0.04805492 -0.025978623 -0.0077920845 -0.042196564 0.0046592867 -0.032737266 -1.2275252e-05 -0.040521547
-0.060946226 -0.046861194 -0.09032574 -0.09313018 -0.019798653 -0.039497033 -0.05409109 -0.054268297
-0.035187718 -0.051867772 -0.006925397 0.0045186235 -0.048177037 -0.0008066444 -0.0633796 -0.005087473
-0.01688851 -0.029729487 -0.02503739 -0.07927484 -0.054694105 -0.057810526 -0.069092095 -0.05484281
-0.013676773 -0.07627662 -0.0301512 -0.072301246 -0.071099654 -0.08049704 -0.026210861 -0.07312128
0.0054617915 0.0018040708 -0.055979863 -0.08798609 -0.02935954 -0.062655196 -0.03548379 -0.05028431
-0.06995185 -0.07608408 -0.05784229 -0.004071561 0.004480931 -0.08091415 -0.020085562 -0.028111538
-0.042212456 -0.050790694 -0.08118833 -0.01573982 -0.03892978 -0.08434058 -0.044443168 -0.010795853
-0.050552327 -0.013975493 -0.039497335 -0.012539138 -0.08151868 -0.06845664 -0.037086155 -0.09111412
-0.08187169 -0.03410881 -0.08229797 -0.048201613 -0.054120686 -0.0030409384 -0.011148496 -0.058217812
-0.0194744 -0.0226657 -0.045329817 -0.014703218 -0.05236872 -0.09637922 -0.022845952 -0.052614365
-0.03850906 -0.09582971 -0.052223746 -0.086535364 -0.042224936 -0.024946881 -0.08325804 -0.006714491
-0.07711599 -0.07773306 -0.0029695034 -0.079632394 -0.074670054 -0.0358877 -0.03463499 -0.006393853
-0.05161166 -0.01184072 -0.07058499 -0.016216468 0.0009975249 -0.025553321 -0.0066043013 -0.09100857
-0.07522729 -0.059224013 -0.052544493 -0.06455869 -0.004067869 -0.0054113655 -0.006908968 0.0565194
-0.019762497 0.028774472 0.015460497 -0.017906958 0.04659701 -0.015402811 -0.033493802 0.025422052
00000000: f014 a9bb 650f a13d 5f13 ae3d 871c a83d
00000010: 0106 963c 6d99 6c3d 29d4 e83c bb62 4d3d
00000020: 64ce d93c 4ed5 973b 6493 983d 1a41 2ebb
00000030: 9ca4 963d 5f55 dd3c c8c8 a83d ea3a 413d
00000040: 811b 0c3d 4a45 dd3c 04f9 773d f2bb 8a3b
00000050: 0429 6a3d 4716 9f3b fa02 a93d d17e 093d
00000060: e33e 373d 94fd b23d fde4 ca3c 939e 6b3d
00000070: dfc6 fe3a 3e2a 96b9 f235 413d 3952 213d
00000080: 3b0d ae3d 4d2a cc3c e294 ef3c 5eee 6f3d
00000090: 3d13 563c b987 15bc dea9 933d 06e5 a23d
000000a0: 4a48 b13c d9cf fa3c a145 3a3c 4395 8a3d
000000b0: 2d0b a33d 87ad a83d ace1 573d de73 743d
000000c0: 76d5 873d e065 47bd b956 26bd 3908 35bd
000000d0: 5090 a0bd 44fb 68bd 4ec1 ef3c dc46 f53b
000000e0: 1460 06be 7c1f 06be 7835 aabd 6ff3 b5bd
000000f0: c9e3 86bd 6c21 02bd 598f 2abd 25f1 2fbe
00000100: 6de4 f3bd e284 21be a57d 0ebe bb9b 9ebd
00000110: 7362 babc 1c87 81bd 54eb 18be 40ed 2bbe
00000120: 4936 f2bd a3f8 16be 57d8 ffbd 1aa7 d7bd
00000130: 6221 06bd 0687 2cbe 3d46 c3bd 711d f3bd
00000140: 84d4 97bd c77a f9bd 76dc ccbd a89c bbbd
00000150: 1c73 0cbe 0b2f 1abe 9645 2dbe 5aaa d9bd
00000160: 52f5 d3bd dc15 03be d28f 50bd 0797 1dbe
00000170: 3ba5 c2bd e43c 15be a69d c3bd 0ae7 26be
00000180: 0426 9dbd 1740 dabd 7b6b 6dbb cdd3 943b
00000190: 60d6 9bbd a919 6e3b 90bc 2ebd 981c cfbc
000001a0: 54ab 49bd 3eb2 7abd b45f 59bd ed24 0cbd
000001b0: 3dbc 65bd fb61 84bd 1448 22bd 3581 0abd
000001c0: 373b a5bd 3978 a0bc 847c 8cbd cd14 61bd
000001d0: 5731 8bbd 9d35 98bd 2d05 d9bc 73f7 81bd
000001e0: 952d b9bd 9253 b2bd 9a4a 93bc cacb b1bd
000001f0: b76e b23b ccc5 86bd 4111 7e3a d16c 92bd
00000200: 3cd5 44bd 1fd1 d4bc be54 ffbb 4ed6 2cbd
00000210: eeac 983b 8317 06bd cef1 4db7 ecf9 25bd
00000220: c0a2 79bd 86f1 3fbd b4fc b8bd 09bb bebd
00000230: c930 a2bc a4c7 21bd 9e8e 5dbd 6f48 5ebd
00000240: ff20 10bd 4d73 54bd 71ee e2bb f610 943b
00000250: 4955 45bd fd74 53ba 2acd 81bd d1b4 a6bb
00000260: c659 8abc 418b f3bc 361b cdbc d95a a2bd
00000270: ed06 60bd bbca 6cbd 2880 8dbd dba2 60bd
00000280: 8b14 60bc eb36 9cbd a6ff f6bc ad12 94bd
00000290: b29c 91bd a2db a4bd 29b8 d6bc 9cc0 95bd
000002a0: d4f8 b23b 9276 ec3a 244b 65bd 0d32 b4bd
000002b0: 6b83 f0bc 5e51 80bd 7357 11bd ecf6 4dbd
000002c0: ea42 8fbd f8d1 9bbd 09ec 6cbd bb6a 85bb
000002d0: c6d4 923b 51b6 a5bd 7a8a a4bc 2b4a e6bc
000002e0: f8e6 2cbd e709 50bd 1146 a6bd ccf0 80bc
000002f0: d574 1fbd c1ba acbd 0a0a 36bd 17e1 30bc
00000300: f50f 4fbd 77f9 64bc f5c7 21bd f570 4dbc
00000310: 44f3 a6bd ff32 8cbd a7e7 17bd 0a9a babd
00000320: 58ac a7bd aeb5 0bbd d78b a8bd 0e6f 45bd
00000330: a7ad 5dbd 7b4a 47bb 2ea8 36bc cd75 6ebd
00000340: c788 9fbc 6bad b9bc c2ab 39bd c4e5 70bc
00000350: 9580 56bd 7862 c5bd 6f27 bbbc 2982 57bd
00000360: adbb 1dbd 5e42 c4bd 91e8 55bd 7439 b1bd
00000370: 0ef4 2cbd 675d ccbc 3183 aabd 3c05 dcbb
00000380: fdee 9dbd 8332 9fbd 009c 42bb 4f16 a3bd
00000390: 9dec 98bd fbfe 12bd 6bdd 0dbd 8783 d1bb
000003a0: bf66 53bd 94ff 41bc dd8e 90bd 66d8 84bc
000003b0: 62bf 823a 3355 d1bc e568 d8bb b362 babd
000003c0: c410 9abd e194 72bd e538 57bd 5937 84bd
000003d0: c24b 85bb d351 b1bb a064 e2bb e380 673d
000003e0: f6e4 a1bc 71b8 eb3c 064e 7d3c 9db1 92bc
000003f0: 82dc 3e3d 125c 7cbc cc30 09bd e841 d03c

model.hidden_layers.0.bias f4 [8]
-0.074166946 0.31739432 -0.022659115 -0.012417752 0.05495709 -0.20630875 0.1541393 -0.13729118
00000000: d7e4 97bd 8281 a23e 9c9f b9bc d473 4bbc
00000010: b01a 613d 9a42 53be b1d6 1d3e 0f96 0cbe

model.output_layers.0.weight f4 [1, 8, 7, 7]
-0.16174978 -0.1463306 -0.058917735 -0.1442398 -0.07472903 -0.14239065 -0.1558691 -0.1264038
-0.044510044 -0.12683217 -0.097700514 -0.04162691 -0.0787026 -0.08740734 -0.16671497 -0.088904195
-0.07183084 -0.09611251 -0.037014514 -0.107502006 -0.16868943 -0.18443976 -0.17648533 -0.17323738
-0.21984635 -0.20200367 -0.1532154 -0.22498108 -0.18869965 -0.12776679 -0.054004848 -0.12054476
-0.08523876 -0.13385747 -0.10257868 -0.20082305 -0.053140737 -0.061736975 -0.18883269 -0.07227792
-0.15176201 -0.20626302 -0.22556655 -0.15220155 -0.1382773 -0.27085996 -0.2072795 -0.20862623
-0.1877684 -0.035779737 -0.06991812 0.006853209 -0.015534748 -0.052628316 -0.041125387 -0.04066507
-0.04857077 0.017888306 -0.034926236 -0.014915071 0.024352772 -0.0057550166 -0.0072727297 -0.015886009
-0.0009696208 -0.053040016 0.0052402616 -0.057140112 -0.071531385 -0.021791393 -0.0017026942 0.016681263
-0.021021117 0.08521357 0.05044204 -0.012781247 0.028452164 -0.004174755 -0.01805048 -0.028001416
0.07260823 -0.0056727575 -0.009549458 -0.080650695 -0.032108728 0.0011656763 -0.048708264 -0.036021173
0.0014932026 -0.016004875 -0.045941792 -0.06143241 -0.032376617 -0.0015619914 0.024634091 -0.030930141
-0.07433227 -0.031398304 0.18446188 0.15190561 0.15672447 0.18259808 0.09083006 0.117641665
0.08301428 0.22561495 0.14119168 0.10720484 0.14202194 0.06822619 0.003205933 0.078899615
0.199866 0.11615507 0.09626829 0.07704469 0.037375256 0.0526154 0.10936451 0.26217386
0.15675251 0.12313457 0.08171976 0.09634777 0.07228524 0.09700072 0.16128027 0.09904519
0.015992612 0.05083052 0.060196266 -0.014966415 0.09715365 0.12514688 0.10416638 0.058748804
0.09965221 -0.007471384 0.06687196 0.017732942 0.12087571 0.08309889 0.045220472 0.109303
0.018621845 0.03367482 0.09377555 0.47979102 0.3876027 0.411105 0.47412196 0.3914689
0.37497324 0.33104226 0.4674188 0.3769111 0.4398067 0.47173166 0.36031935 0.32828447
0.33075413 0.4848149 0.4031218 0.44205624 0.4599865 0.35498336 0.35125902 0.4080206
0.49891412 0.47728944 0.50599265 0.54850376 0.43950364 0.36861357 0.37674063 0.45223582
0.42418924 0.36689878 0.4669907 0.38829246 0.37445712 0.36666563 0.3827109 0.34525922
0.3419596 0.36920813 0.39884797 0.3310233 0.35741502 0.43672833 0.42308384 0.371646
0.3786087 0.39667073 0.3911531 0.37735665 0.15047003 0.1255423 0.064397946 0.1465937
0.10613266 0.121574 0.08910945 0.08338901 0.08564466 0.10839672 0.12886417 0.08238517
0.04918087 0.031055452 0.09587836 0.07423566 0.08628389 0.043967567 0.06817156 0.021703783
0.08737771 0.0643021 0.07084746 0.062472045 0.07913237 0.04662322 0.031128863 0.061066292
0.05132258 0.041376017 0.081208624 0.039338943 0.0667915 0.02146545 0.038858037 0.12092765
0.030613597 0.059129782 0.11412832 -0.0046922816 0.09282049 0.018068392 0.08312814 0.102307834
0.070204265 0.06960425 0.07585339 0.024835588 0.07110078 0.11865629 0.14606293 0.17482385
0.101925366 0.1860396 0.14952666 0.11853366 0.121240154 0.20479554 0.2492463 0.1555674
00000000: bca1 25be b0d7 15be b953 71bd 99b3 13be
00000010: 890b 99bd dbce 11be 269c 1fbe ff6f 01be
00000020: 2a50 36bd 4be0 01be 3517 c8bd fb80 2abd
00000030: d42e a1bd 9f02 b3bd 54b7 2abe 6713 b6bd
00000040: 0c1c 93bd a3d6 c4bd 889c 17bd 032a dcbd
00000050: ecbc 2cbe c7dd 3cbe 92b8 34be 2465 31be
00000060: 671f 61be 0dda 4ebe 7fe4 1cbe 7161 66be
00000070: 7b3a 41be 4cd5 02be 3034 5dbd 2ce0 f6bd
00000080: a991 aebd ef11 09be c514 d2bd 8fa4 4dbe
00000090: 1aaa 59bd e9df 7cbd 5b5d 41be 7206 94bd
000000a0: 8067 1bbe 9d36 53be ebfa 66be b9da 1bbe
000000b0: 9198 0dbe 28ae 8abe 1441 54be 1da2 55be
000000c0: 5c46 40be c68d 12bd 3b31 8fbd e290 e03b
000000d0: 7585 7ebc ca90 57bd 1873 28bd 6b90 26bd
000000e0: 25f2 46bd 7f8a 923c d00e 0fbd 585e 74bc
000000f0: 777f c73c 9494 bcbb 1450 eebb 6023 82bc
00000100: 272e 7eba 7d40 59bd 80b6 ab3b c00b 6abd
00000110: 0c7f 92bd dd83 b2bc f02c dfba 25a7 883c
00000120: 7a34 acbc 7484 ae3d 509c 4e3d 6f68 51bc
00000130: 8314 e93c 62cc 88bb 9ade 93bc 3a63 e5bc
00000140: a0b3 943d 8ae2 b9bb 5475 1cbc 312c a5bd
00000150: 7184 03bd 9bc9 983a 5182 47bd f08a 13bd
00000160: 91b7 c33a a81c 83bc 762d 3cbd 8da0 7bbd
00000170: 589d 04bd bcbb ccba 6fcd c93c 3561 fdbc
00000180: 843b 98bd 829b 00bd 93e3 3c3e 258d 1b3e
00000190: 617c 203e fefa 3a3e 1c05 ba3d 1dee f03d
000001a0: 6403 aa3d 9b07 673e 8d94 103e 368e db3d
000001b0: 336e 113e 2cba 8b3d a11a 523b 1f96 a13d
000001c0: aca9 4c3e b6e2 ed3d 4f28 c53d 9bc9 9d3d
000001d0: cc16 193d 3f83 573d 80fa df3d a73b 863e
000001e0: bb83 203e fa2d fc3d b15c a73d fb51 c53d
000001f0: 490a 943d 50a8 c63d a826 253e 34d8 ca3d
00000200: f002 833c aa33 503d 5c90 763d b235 75bc
00000210: 7ef8 c63d 8126 003e 2f55 d53d 96a2 703d
00000220: 7516 cc3d 83d2 f4bb 2bf4 883d ad44 913c
00000230: af8d f73d c02f aa3d 1a39 393d 40da df3d
00000240: d78c 983c 9cee 093d 650d c03d 2ba7 f53e
00000250: dc73 c63e 5b7c d23e 1dc0 f23e 9d6e c83e
00000260: 7efc bf3e 5f7e a93e 8451 ef3e 7efa c03e
00000270: 582e e13e d086 f13e c77b b83e e714 a83e
00000280: 9b58 a93e a939 f83e fb65 ce3e 3255 e23e
00000290: 5a83 eb3e 61c0 b53e 39d8 b33e 13e8 d03e
000002a0: ac71 ff3e 485f f43e bc88 013f be6a 0c3f
000002b0: 9f06 e13e ebba bc3e 26e4 c03e 748b e73e
000002c0: 552f d93e 28da bb3e 6819 ef3e 45ce c63e
000002d0: d8b8 bf3e 99bb bb3e aff2 c33e d1c5 b03e
000002e0: 5415 af3e d908 bd3e cd35 cc3e e37b a93e
000002f0: 1aff b63e db9a df3e 729e d83e 6248 be3e
00000300: 00d9 c13e 6d18 cb3e 3845 c83e e434 c13e
00000310: d114 1a3e 298e 003e 12e3 833d a91c 163e
00000320: 145c d93d cafb f83d 047f b63d dbc7 aa3d
00000330: 7866 af3d 19ff dd3d f8f4 033e 8eb9 a83d
00000340: e171 493d 0168 fe3c e05b c43d de08 983d
00000350: 9cb5 b03d 5617 343d 889d 8b3d 22cc b13c
00000360: 16f3 b23d d2b0 833d 7918 913d b0e2 7f3d
00000370: 2710 a23d fdf7 3e3d f501 ff3c a620 7a3d
00000380: a037 523d e679 293d b550 a63d df21 213d
00000390: fbc9 883d 50d8 af3c 9b29 1f3d eaa8 f73d
000003a0: 5ec9 fa3c 1232 723d 1cbc e93d b6c1 99bb
000003b0: ab18 be3d 2a04 943c 163f aa3d c586 d13d
000003c0: 41c7 8f3d ac8c 8e3d 0659 9b3d 0174 cb3c
000003d0: 499d 913d 1202 f33d 8591 153e 0605 333e
000003e0: 3fbe d03d 2a81 3e3e 841d 193e c7c1 f23d
000003f0: c24c f83d ecb5 513e 6c3a 7f3e 0f4d 1f3e

exp_avg f4 [8]
-0.00045962035 1.2119757e-07 -0.0016235353 -0.004060384 1.2345838e-10 -0.0014714837 -2.6876563e-07 0.00064883905
00000000: 33f9 f0b9 8922 0234 cecc d4ba f80c 85bb
00000010: 72be 072f cdde c0ba de4a 90b4 da16 2a3a

exp_avg_sq f4 [8]
0.00019285562 4.703219e-06 0.0017922256 0.01944644 0.00010268953 0.0024264136 1.084249e-06 0.00015338798
00000000: 4939 4a39 58d0 9d36 1de9 ea3a 244e 9f3c
00000010: 065b d738 7704 1f3b 8386 9135 c6d6 2039

exp_avg f4 [8, 1, 7, 7]
0.00020009448 7.4600954e-05 2.4903202e-05 1.3863281e-05 2.4818502e-05 2.7912098e-05 3.214553e-05 0.00011574499
1.5418656e-05 -3.0330682e-05 -3.9902156e-05 -2.7055976e-05 -2.317263e-05 -1.9401814e-05 5.2189782e-05 -3.2615746e-05
-7.696435e-05 -8.518341e-05 -7.0769136e-05 -6.663423e-05 -6.425675e-05 4.836586e-07 -7.622539e-05 -0.00011890029
-0.00012663215 -0.00011157965 -0.00010705624 -0.00010541841 1.5172362e-05 -5.3474163e-05 -9.244486e-05 -0.00010025326
-8.6237065e-05 -8.218923e-05 -8.138067e-05 2.6534874e-05 -3.4078053e-05 -6.7469366e-05 -7.3126095e-05 -5.8454287e-05
-5.3645694e-05 -5.2144514e-05 2.2442471e-05 -3.254458e-05 -5.9984897e-05 -6.0288745e-05 -4.183785e-05 -3.397408e-05
-2.9419203e-05 -2.1114465e-08 -2.0774696e-08 -2.3597512e-08 -4.1537955e-08 -3.245611e-08 -2.8202999e-08 -2.6124027e-08
-1.796705e-08 -1.8146244e-08 -2.1064633e-08 -3.8589572e-08 -3.047041e-08 -2.7053753e-08 -2.5933613e-08 -1.8103052e-08
-1.8321746e-08 -2.1612525e-08 -3.8997484e-08 -3.1844703e-08 -2.8961765e-08 -2.8484587e-08 -2.7301192e-08 -2.7331017e-08
-3.2574878e-08 -5.5103694e-08 -4.8705875e-08 -4.6003134e-08 -4.664475e-08 -2.2291392e-08 -2.103789e-08 -2.2360268e-08
-3.874481e-08 -3.3519235e-08 -3.4007616e-08 -3.579536e-08 -1.9256325e-08 -1.6839804e-08 -1.5154209e-08 -2.7695712e-08
-2.4135018e-08 -2.7781656e-08 -3.142523e-08 -1.6386846e-08 -1.3340896e-08 -1.1830224e-08 -2.4764613e-08 -2.0843821e-08
-2.4144315e-08 -2.7819816e-08 1.646243e-05 -4.104792e-06 -7.020388e-06 2.4227906e-05 3.672167e-05 5.585876e-05
7.9565776e-05 4.944946e-05 3.0658928e-05 2.9507573e-05 6.0474096e-05 6.855686e-05 8.314066e-05 0.00010284768
8.2153674e-05 6.963104e-05 7.085929e-05 9.9464334e-05 0.00010310528 0.000112952606 0.00012854449 0.00010047608
9.222052e-05 9.52102e-05 0.00012545873 0.00012934336 0.00013746839 0.00015058584 0.00010105654 9.359027e-05
9.773752e-05 0.00013057869 0.00013770745 0.00014769909 0.00016072327 9.706283e-05 8.931082e-05 9.6211996e-05
0.00013196902 0.0001410569 0.00015210344 0.00016558311 9.849672e-05 9.183261e-05 0.00010055765 0.00013735372
0.00014630833 0.00015763151 0.00016998759 0.00011637862 0.00016364997 0.00018602988 0.00030824312 0.0003528891
0.00040978444 0.00046936065 0.00012364256 0.00019551624 0.00021633583 0.00034639504 0.00039466028 0.00045330834
0.00051505526 0.00016193185 0.000251094 0.00027692647 0.00040956505 0.00046269537 0.0005245014 0.0005850055
0.00020761127 0.0002933678 0.00032433175 0.00046148425 0.0005175233 0.00058276125 0.00064492476 0.00022359875
0.0003004298 0.00033627692 0.00047776636 0.0005374588 0.0005993619 0.0006618252 0.00023824687 0.00030788145
0.0003402593 0.00048091228 0.00054116966 0.00059971854 0.00065620407 0.0002645808 0.00033027236 0.0003600982
0.0004957812 0.00054824335 0.0006006927 0.00064710836 -6.912938e-13 -5.94726e-13 -4.3463887e-13 -2.739741e-13
-1.3904138e-13 -3.4072985e-14 -4.1354293e-14 -7.471364e-13 -6.5307585e-13 -4.940422e-13 -3.2772892e-13 -2.1174479e-13
-1.4140334e-13 -1.5848226e-13 -7.482882e-13 -6.8927524e-13 -5.499335e-13 -3.8586113e-13 -2.7024658e-13 -2.2452857e-13
-2.4650038e-13 -6.445147e-13 -6.4940094e-13 -5.735556e-13 -8.043806e-13 -6.846077e-13 -6.3429443e-13 -6.7259696e-13
-4.9684714e-13 -5.757438e-13 -5.738391e-13 -8.817972e-13 -7.9621444e-13 -7.517736e-13 -7.705318e-13 -3.6354955e-13
-4.743881e-13 -5.6231967e-13 -8.2314396e-13 -8.721107e-13 -8.7293687e-13 -8.31283e-13 -2.7933108e-13 -3.930114e-13
-5.405094e-13 -7.1481384e-13 -8.555446e-13 -8.293108e-13 -7.68955e-13 3.812532e-06 6.568175e-05 0.00017954124
0.0002857277 0.00029528578 0.0003333278 0.00037902876 4.1760763e-05 0.00011658528 0.00023513666 0.0003526701
00000000: 74d0 5139 1573 9c38 38e7 d037 5796 6837
00000010: 5431 d037 c624 ea37 00d4 0638 1ebc f238
00000020: 5057 8137 a56e feb7 9d5c 27b8 44f6 e2b7
00000030: d862 c2b7 14c1 a2b7 5ae6 5a38 e4cc 08b8
00000040: ec67 a1b8 7fa4 b2b8 e469 94b8 fbbd 8bb8
00000050: 94c1 86b8 c4d4 0135 32db 9fb8 1b5a f9b8
00000060: 8fc8 04b9 deff e9b8 6283 e0b8 1414 ddb8
00000070: cc8c 7e37 7249 60b8 f5de c1b8 0f3f d2b8
00000080: 2cda b4b8 025d acb8 eaaa aab8 3597 de37
00000090: 08ef 0eb8 577e 8db8 465b 99b8 d02c 75b8
000000a0: a001 61b8 bfb5 5ab8 d742 bc37 7a80 08b8
000000b0: 4b98 7bb8 8cde 7cb8 0d7b 2fb8 647f 0eb8
000000c0: 42c9 f6b7 335f b5b2 0a74 b2b2 7ab3 cab2
000000d0: 7767 32b3 df65 0bb3 0d43 f2b2 5867 e0b2
000000e0: f655 9ab2 03e0 9bb2 9ef1 b4b2 afbd 25b3
000000f0: 92de 02b3 d563 e8b2 9ec4 deb2 0881 9bb2
00000100: f261 9db2 72a6 b9b2 307e 27b3 9fc5 08b3
00000110: 98c7 f8b2 45ae f4b2 f583 eab2 8bc5 eab2
00000120: 75e8 0bb3 27ab 6cb3 ad30 51b3 fb94 45b3
00000130: 7256 48b3 4a7b bfb2 cfb6 b4b2 c012 c0b2
00000140: 5e68 26b3 caf6 0fb3 c50f 12b3 6abd 19b3
00000150: 1b69 a5b2 1fa7 90b2 752c 82b2 84e7 edb2
00000160: 7751 cfb2 82a4 eeb2 68f8 06b3 0ec3 8cb2
00000170: e231 65b2 e03d 4bb2 f6b9 d4b2 0c0c b3b2
00000180: e965 cfb2 6cf8 eeb2 cd18 8a37 e5bb 89b6
00000190: ac90 ebb6 083d cb37 9805 1a38 e349 6a38
000001a0: 8ddc a638 f467 4f38 c697 0038 0887 f737
000001b0: 91a5 7d38 2fc6 8f38 cd5b ae38 eeaf d738
000001c0: eb49 ac38 e106 9238 4b9a 9438 8297 d038
000001d0: 3a3a d838 f8e0 ec38 e6c9 0639 afb6 d238
000001e0: 8466 c138 96ab c738 928d 0339 58a0 0739
000001f0: 6425 1039 94e6 1d39 51ee d338 e545 c438
00000200: 6ef8 cc38 f3eb 0839 9065 1039 acdf 1a39
00000210: d387 2839 368e cb38 624c bb38 6cc5 c938
00000220: 2a61 0a39 ace8 1339 f57d 1f39 61a0 2d39
00000230: 0690 ce38 4296 c038 7ae2 d238 9c06 1039
00000240: 586a 1939 e349 2539 b23e 3239 4c10 f438
00000250: 7499 2b39 0411 4339 b19b a139 f903 b939
00000260: 56d8 d639 8514 f639 0ca6 0139 7e03 4d39
00000270: 35d8 6239 5b9c b539 68ea ce39 04aa ed39
00000280: c604 073a 40cc 2939 44a5 8339 7130 9139
00000290: e4ba d639 ec95 f239 b17e 093a 0e5b 193a
000002a0: 3ab2 5939 29cf 9939 120b aa39 5ef3 f139
000002b0: 67aa 073a 72c4 183a 2b10 293a d575 6a39
000002c0: 0183 9d39 534e b039 b77c fa39 40e4 0c3a
000002d0: 7f1e 1d3a 567e 2d3a e8d1 7939 266b a139
000002e0: d564 b239 f422 fc39 48dd 0d3a 6e36 1d3a
000002f0: 1c05 2c3a 6fb7 8a39 6828 ad39 90cb bc39
00000300: 50f7 013a fdb7 0f3a ce77 1d3a b5a2 293a
00000310: f894 42ab 8666 27ab 10ae f4aa d43b 9aaa
00000320: f38b 1caa 7a73 19a9 413e 3aa9 da4c 52ab
00000330: 13d3 37ab 7e0f 0bab b77e b8aa 4867 6eaa
00000340: bd34 1faa 676f 32aa d99f 52ab 8403 42ab
00000350: e3ca 1aab 7338 d9aa a322 98aa f4cb 7caa
00000360: 73c4 8aaa 2e6a 35ab 45ca 36ab 0971 21ab
00000370: bb69 62ab 2fb3 40ab bb89 32ab b851 3dab
00000380: 9cd9 0bab b70e 22ab 7785 21ab 2f34 78ab
00000390: 4c1d 60ab ff9a 53ab abe2 58ab 03a9 ccaa
000003a0: 4487 05ab 6747 1eab c6b1 67ab 337a 75ab
000003b0: bbb5 75ab 41fc 69ab da3f 9daa e93e ddaa
000003c0: cf23 18ab c433 49ab 7cd0 70ab 246e 69ab
000003d0: 0c71 58ab cdda 7f36 9fbe 8938 3c43 3c39
000003e0: b9cd 9539 96d0 9a39 80c2 ae39 61b8 c639
000003f0: 4728 2f38 3f7f f438 048f 7639 94e6 b839

exp_avg_sq f4 [8, 1, 7, 7]
2.1768952e-05 2.2554908e-05 2.3011093e-05 2.3118058e-05 2.2320706e-05 2.1359554e-05 2.0308607e-05 2.2725844e-05
2.3591905e-05 2.4110379e-05 2.425219e-05 2.3429478e-05 2.2411872e-05 2.128171e-05 2.345979e-05 2.43809e-05
2.4947305e-05 2.5127576e-05 2.4300818e-05 2.325367e-05 2.207007e-05 2.3847591e-05 2.4795521e-05 2.5381756e-05
2.5582664e-05 2.4757344e-05 2.3706483e-05 2.250747e-05 2.3271126e-05 2.418842e-05 2.4752326e-05 2.4943705e-05
2.4137547e-05 2.312418e-05 2.1973774e-05 2.2413318e-05 2.3279921e-05 2.3809667e-05 2.3982164e-05 2.3201428e-05
2.2237075e-05 2.1156744e-05 2.1418495e-05 2.2223634e-05 2.2712242e-05 2.2871587e-05 2.2135086e-05 2.1236858e-05
2.02391e-05 3.2054825e-08 3.1380683e-08 3.009254e-08 2.8366228e-08 2.662137e-08 2.4818785e-08 2.3106095e-08
3.4242834e-08 3.3520884e-08 3.205903e-08 3.0222505e-08 2.8395469e-08 2.6480297e-08 2.4703443e-08 3.5849425e-08
3.529475e-08 3.377309e-08 3.1808696e-08 2.9850895e-08 2.7843761e-08 2.6026033e-08 3.670083e-08 3.6551583e-08
3.5268787e-08 3.3196724e-08 3.1038187e-08 2.8983562e-08 2.714057e-08 3.681395e-08 3.7129457e-08 3.6330857e-08
3.4308666e-08 3.196569e-08 2.9835075e-08 2.7925367e-08 3.65966e-08 3.7221586e-08 3.686225e-08 3.508311e-08
3.2713494e-08 3.0440756e-08 2.8369627e-08 3.592841e-08 3.6736058e-08 3.6637545e-08 3.5181426e-08 3.2984136e-08
3.063323e-08 2.8446669e-08 6.0206384e-07 6.132367e-07 6.01218e-07 5.894028e-07 5.5094716e-07 5.1419045e-07
4.8075873e-07 6.361625e-07 6.57244e-07 6.417069e-07 6.211114e-07 5.7374433e-07 5.2962173e-07 4.8905275e-07
6.353737e-07 6.612043e-07 6.5073266e-07 6.285979e-07 5.751287e-07 5.2726125e-07 4.8548526e-07 5.993875e-07
6.176957e-07 6.13181e-07 5.9956375e-07 5.505179e-07 5.073992e-07 4.7043088e-07 5.3860805e-07 5.4620807e-07
5.4356167e-07 5.3927465e-07 5.029803e-07 4.7057307e-07 4.4070774e-07 4.9165186e-07 4.9079244e-07 4.874883e-07
4.8786643e-07 4.623e-07 4.3766184e-07 4.125312e-07 4.5716877e-07 4.5379565e-07 4.51099e-07 4.5397113e-07
4.3244012e-07 4.115806e-07 3.8889718e-07 1.0616332e-05 1.1225532e-05 1.137943e-05 1.1320905e-05 1.0706035e-05
1.0058535e-05 9.569375e-06 1.2107709e-05 1.2933521e-05 1.3158378e-05 1.3002559e-05 1.2170946e-05 1.1316814e-05
1.0653578e-05 1.3618253e-05 1.4654998e-05 1.4904422e-05 1.4630953e-05 1.3609914e-05 1.2531112e-05 1.1636002e-05
1.4693959e-05 1.5740572e-05 1.5907668e-05 1.556249e-05 1.441824e-05 1.3191672e-05 1.2137224e-05 1.453724e-05
1.5361738e-05 1.5396547e-05 1.5031629e-05 1.3918031e-05 1.2724715e-05 1.1692765e-05 1.3568152e-05 1.415472e-05
1.413888e-05 1.3855819e-05 1.2918584e-05 1.1881065e-05 1.0979001e-05 1.2290126e-05 1.27377525e-05 1.2771656e-05
1.2612368e-05 1.1865286e-05 1.1016213e-05 1.02666445e-05 2.9128057e-07 3.111418e-07 3.3350315e-07 3.5293323e-07
3.5043735e-07 3.4852312e-07 3.4330677e-07 3.032766e-07 3.2445925e-07 3.4644845e-07 3.6398882e-07 3.589505e-07
3.542245e-07 3.4694756e-07 3.1058215e-07 3.3239039e-07 3.5326377e-07 3.6780833e-07 3.600556e-07 3.5289818e-07
3.4311685e-07 3.1625126e-07 3.3749816e-07 3.563289e-07 3.681462e-07 3.5748667e-07 3.4874665e-07 3.3710663e-07
2.9382272e-07 3.12777e-07 3.3025816e-07 3.406565e-07 3.3015496e-07 3.2153665e-07 3.1074617e-07 2.6672296e-07
2.8233592e-07 2.984104e-07 3.0893244e-07 3.002233e-07 2.9307407e-07 2.8367793e-07 2.4019923e-07 2.5267943e-07
2.6670082e-07 2.7665632e-07 2.6992296e-07 2.6464178e-07 2.5668658e-07 1.9197743e-05 1.9828838e-05 1.9666846e-05
1.9389136e-05 1.8571822e-05 1.7513537e-05 1.6307662e-05 2.0318277e-05 2.1137346e-05 2.1077434e-05 2.0813788e-05
00000000: 789c b637 4c34 bd37 f207 c137 a7ed c137
00000010: 5a3d bb37 4b2d b337 675c aa37 61a3 be37
00000020: 3be7 c537 a540 ca37 2e71 cb37 6c8a c437
00000030: 2101 bc37 2086 b237 84cb c437 9685 cc37
00000040: ee45 d137 0fc9 d237 9cd9 cb37 e010 c337
00000050: 1d23 b937 500c c837 faff cf37 e8ea d437
00000060: 5a9a d637 fead cf37 49dd c637 6cce bc37
00000070: 5d36 c337 3de8 ca37 37a3 cf37 333e d137
00000080: fd7a ca37 ccfa c137 5254 b837 3c04 bc37
00000090: 4049 c337 dfba c737 4e2d c937 b0a0 c237
000000a0: c189 ba37 c379 b137 deab b337 e46c ba37
000000b0: 2b86 be37 5cdc bf37 bcae b937 ce25 b237
000000c0: 23c7 a937 a7ac 0933 6dc7 0633 193f 0133
000000d0: ffa9 f332 03ad e432 1631 d532 d77a c632
000000e0: 6512 1333 9af8 0f33 47b1 0933 ffcd 0133
000000f0: 4cea f332 ca76 e332 7233 d432 dcf8 1933
00000100: fd96 1733 e80d 1133 089e 0833 6835 0033
00000110: 142d ef32 da8f df32 fda0 1d33 e4fc 1c33
00000120: 717a 1733 2f94 0e33 d94e 0533 87f7 f832
00000130: bf22 e932 5e1d 1e33 4578 1f33 330a 1c33
00000140: c75a 1333 a64a 0933 0324 0033 88e0 ef32
00000150: 632e 1d33 91dd 1f33 7952 1e33 4aae 1633
00000160: de80 0c33 f7bd 0233 78b1 f332 b44f 1a33
00000170: b9c7 1d33 685b 1d33 631a 1733 71aa 0d33
00000180: 9891 0333 e35a f432 839d 2135 4e9d 2435
00000190: 6363 2135 7437 1e35 cde4 1335 e606 0a35
000001a0: 7d0d 0135 c1c4 2a35 776d 3035 c341 2c35
000001b0: 73ba 2635 6903 1a35 542b 0e35 7347 0335
000001c0: 8c8e 2a35 9d7d 3135 02ae 2e35 ebbc 2835
000001d0: 8b62 1a35 1e89 0d35 4b52 0235 98e5 2035
000001e0: bacf 2535 7a99 2435 b5f1 2035 4dc7 1335
000001f0: 3534 0835 878f fc34 dd94 1035 229f 1235
00000200: 46e9 1135 acc2 1035 8b04 0735 12a3 fc34
00000210: 699a ec34 0ffa 0335 00bf 0335 f1db 0235
00000220: edf5 0235 0732 f834 c9f7 ea34 db79 dd34
00000230: cc70 f534 33a1 f334 932e f234 51b9 f334
00000240: 1e2a e834 35f7 dc34 9fc9 d034 cc1c 3237
00000250: 4b55 3c37 48ea 3e37 ebee 3d37 129e 3337
00000260: 14c1 2837 278c 2037 3722 4b37 0dfd 5837
00000270: cec2 5c37 9125 5a37 d131 4c37 59dd 3d37
00000280: c5bc 3237 f479 6437 bdde 7537 010e 7a37
00000290: 7777 7537 2356 6437 b73c 5237 3f38 4337
000002a0: 1386 7637 9f0a 8437 7571 8537 318c 8237
000002b0: dfe5 7137 cd51 5d37 fba0 4b37 f8e4 7337
000002c0: 15dd 8037 d527 8137 5b30 7c37 7d81 6937
000002d0: 3c7c 5537 0b2c 4437 c5a2 6337 0f7a 6d37
000002e0: 0736 6d37 4a76 6837 e5bc 5837 c954 4737
000002f0: 7332 3837 b031 4e37 3bb4 5537 d845 5637
00000300: b599 5337 0411 4737 46d2 3837 e73e 2c37
00000310: 4c61 9c34 010b a734 530c b334 c67a bd34
00000320: be23 bc34 a71c bb34 b94f b834 05d2 a234
00000330: 5731 ae34 83ff b934 3e6a c334 c8b5 c034
00000340: 3f2c be34 1c44 ba34 16be a634 6373 b234
00000350: 34a8 bd34 3177 c534 aa4d c134 f575 bd34
00000360: 9f35 b834 3ec9 a934 6531 b534 794d bf34
00000370: a1a5 c534 98ec bf34 603b bb34 95fb b434
00000380: b0be 9d34 beeb a734 564e b134 79e3 b634
00000390: 2740 b134 a99f ac34 a1d4 a634 2032 8f34
000003a0: f493 9734 3735 a034 5adb a534 602e a134
000003b0: cb57 9d34 664c 9834 bbf4 8034 ffa7 8734
000003c0: 152f 8f34 5b87 9434 eee9 9034 1714 8e34
000003d0: bcce 8934 d70a a137 1b56 a637 3bfa a437
000003e0: daa5 a237 afca 9b37 09ea 9237 70cc 8837
000003f0: 2b71 aa37 1b50 b137 72cf b037 4599 ae37

exp_avg f4 [8]
-0.00054023153 2.0476321e-07 -4.0490613e-05 -0.00017620207 5.0993164e-12 -0.0014028283 7.571614e-07 0.00034231594
00000000: 539e 0dba e2dc 5b34 77d4 29b8 e2c2 38b9
00000010: 8f6a b32c 1bdf b7ba bc3f 4b35 de78 b339

exp_avg_sq f4 [8]
0.00018094784 2.544651e-07 7.489726e-06 6.225768e-05 2.7286505e-06 0.0003327403 2.5584656e-08 0.00011384861
00000000: d1bc 3d39 6b9d 8834 4250 fb36 5690 8238
00000010: dc1d 3736 a673 ae39 41c5 db32 02c2 ee38

exp_avg f4 [8, 8, 7, 7]
-5.3099278e-17 -5.504302e-17 -5.083058e-17 -4.879423e-17 -5.1624014e-17 -3.0702996e-17 1.1658706e-17 -7.052443e-17
-7.2365347e-17 -6.680752e-17 -6.1275085e-17 -6.147992e-17 -3.7093267e-17 1.01844735e-17 -9.16652e-17 -9.552269e-17
-9.040308e-17 -8.343836e-17 -7.6518025e-17 -4.6092883e-17 6.628667e-18 -1.168773e-16 -1.1974731e-16 -1.163206e-16
-1.1305603e-16 -1.02578535e-16 -6.507003e-17 -3.3764255e-18 -1.3261416e-16 -1.3310198e-16 -1.2970266e-16 -1.2806368e-16
-1.1776367e-16 -7.9964456e-17 -1.324093e-17 -1.1253144e-16 -1.124697e-16 -1.09517416e-16 -1.05605024e-16 -9.671015e-17
-5.905512e-17 3.4289672e-18 -7.811774e-17 -7.9356664e-17 -7.717383e-17 -7.2441097e-17 -6.033025e-17 -2.385883e-17
2.3352786e-17 -3.1961018e-17 -3.1475096e-17 -3.1509695e-17 -3.1509937e-17 -2.9605552e-17 -2.880401e-17 -2.0977994e-17
-3.6405906e-17 -3.6148782e-17 -3.6180357e-17 -3.618079e-17 -3.3332725e-17 -3.157001e-17 -2.2768072e-17 -4.090119e-17
-4.071625e-17 -4.0779415e-17 -4.078025e-17 -3.79257e-17 -3.5435292e-17 -2.5170027e-17 -4.2528525e-17 -4.2359727e-17
-4.2423466e-17 -4.24243e-17 -3.955839e-17 -3.706025e-17 -2.6374381e-17 -4.257836e-17 -4.2408968e-17 -4.2472704e-17
-4.2473547e-17 -3.9609157e-17 -3.7112385e-17 -2.6378037e-17 -4.228091e-17 -4.211071e-17 -4.2174445e-17 -4.2175286e-17
-3.92832e-17 -3.673205e-17 -2.6006774e-17 -4.178613e-17 -4.1618557e-17 -4.168224e-17 -4.1683084e-17 -3.8797305e-17
-3.6249976e-17 -2.5458048e-17 -3.8117694e-17 -3.6843432e-17 -3.6799982e-17 -3.678664e-17 -3.45504e-17 -3.3564862e-17
-2.4416236e-17 -4.333397e-17 -4.233919e-17 -4.2284626e-17 -4.2264085e-17 -3.8922127e-17 -3.685578e-17 -2.6577862e-17
-4.831797e-17 -4.777585e-17 -4.7713584e-17 -4.7655255e-17 -4.4304846e-17 -4.1386063e-17 -2.9392983e-17 -5.0131708e-17
-4.975392e-17 -4.9649018e-17 -4.9582486e-17 -4.6218283e-17 -4.329039e-17 -3.0803826e-17 -4.9795436e-17 -5.015256e-17
-4.9813607e-17 -4.9641623e-17 -4.6279124e-17 -4.3352814e-17 -3.0808957e-17 -4.8967418e-17 -4.9698854e-17 -4.94345e-17
-4.9295898e-17 -4.589888e-17 -4.2908138e-17 -3.037492e-17 -4.824299e-17 -4.8998235e-17 -4.88407e-17 -4.8719552e-17
-4.533006e-17 -4.2343816e-17 -2.973165e-17 5.608117e-17 5.523025e-17 5.5290734e-17 5.529114e-17 5.1964813e-17
5.060086e-17 3.6885744e-17 6.3832304e-17 6.3381556e-17 6.343677e-17 6.3437513e-17 5.846478e-17 5.5387425e-17
3.9951722e-17 7.1682334e-17 7.135782e-17 7.1468266e-17 7.146973e-17 6.6485787e-17 6.213889e-17 4.4145614e-17
7.4524804e-17 7.422849e-17 7.4339986e-17 7.434145e-17 6.933756e-17 6.497721e-17 4.624843e-17 7.460983e-17
7.431249e-17 7.4423954e-17 7.442542e-17 6.942422e-17 6.506626e-17 4.6253687e-17 7.40849e-17 7.378616e-17
7.389763e-17 7.3899105e-17 6.885014e-17 6.4398075e-17 4.5601322e-17 7.321707e-17 7.29229e-17 7.303427e-17
7.303573e-17 6.7997807e-17 6.355245e-17 4.4640155e-17 -7.0596755e-17 -6.9523425e-17 -6.959984e-17 -6.960036e-17
-6.5393915e-17 -6.366708e-17 -4.6403807e-17 -8.041389e-17 -7.984589e-17 -7.991565e-17 -7.991659e-17 -7.3625943e-17
-6.973243e-17 -5.0291655e-17 -9.034263e-17 -8.9934074e-17 -9.00736e-17 -9.007543e-17 -8.3770486e-17 -7.826998e-17
-5.5597046e-17 -9.3936946e-17 -9.356406e-17 -9.3704846e-17 -9.37067e-17 -8.7376623e-17 -8.185904e-17 -5.825585e-17
-9.4046975e-17 -9.367276e-17 -9.381356e-17 -9.381542e-17 -8.748871e-17 -8.197416e-17 -5.826405e-17 -9.338978e-17
-9.3013826e-17 -9.315462e-17 -9.3156465e-17 -8.6768586e-17 -8.113394e-17 -5.744389e-17 -9.229679e-17 -9.192664e-17
-9.20673e-17 -9.206918e-17 -8.569521e-17 -8.006901e-17 -5.623161e-17 2.2430159e-17 2.2091125e-17 2.2115162e-17
2.2115329e-17 2.07942e-17 2.025241e-17 1.4766388e-17 2.551127e-17 2.5331716e-17 2.5353657e-17 2.5353951e-17
00000000: 90e0 74a4 54d7 7da4 286a 6aa4 0f06 61a4
00000010: e112 6ea4 b397 0da4 af10 5723 479e a2a4
00000020: f6dc a6a4 330c 9aa4 6d4a 8da4 57c3 8da4
00000030: 0010 2ba4 d1de 3b23 955d d3a4 a542 dca4
00000040: 8f74 d0a4 5065 c0a4 4570 b0a4 df90 54a4
00000050: fd8d f422 17c0 06a5 2b0f 0aa5 c81b 06a5
00000060: 4058 02a5 ae87 eca4 910a 96a4 e022 79a2
00000070: cbe4 18a5 c574 19a5 7889 15a5 baa5 13a5
00000080: b3c5 07a5 af62 b8a4 8640 74a3 6bbd 01a5
00000090: 32ab 01a5 ac87 fca4 3482 f3a4 99ff dea4
000000a0: fd2b 88a4 5c03 7d22 9320 b4a4 e8fb b6a4
000000b0: 63f3 b1a4 ad09 a7a4 b21c 8ba4 120f dca3
000000c0: 3564 d723 e964 13a4 3c27 11a4 1550 11a4
000000d0: 5e50 11a4 1188 08a4 c6d5 04a4 e37c c1a3
000000e0: 82e4 27a4 f3b4 26a4 3ada 26a4 bdda 26a4
000000f0: 56b8 19a4 4a97 11a4 97ff d1a3 9a9f 3ca4
00000100: 43c5 3ba4 d60f 3ca4 d210 3ca4 c3e6 2ea4
00000110: 9c6a 23a4 0c27 e8a3 d220 44a4 8a59 43a4
00000120: caa4 43a4 c6a5 43a4 4e6e 36a4 05e9 2aa4
00000130: bf42 f3a3 a85b 44a4 ac93 43a4 ebde 43a4
00000140: eadf 43a4 3daa 36a4 9226 2ba4 614b f3a3
00000150: 7dfc 42a4 8d33 42a4 cc7e 42a4 ca7f 42a4
00000160: 6b29 35a4 8d65 29a4 c2de efa3 5bb4 40a4
00000170: 85ee 3fa4 b439 40a4 b33a 40a4 c6eb 32a4
00000180: 6b2c 27a4 1ecf eaa3 6ec9 2fa4 0ce9 29a4
00000190: c0b5 29a4 00a6 29a4 ea55 1fa4 65ca 1aa4
000001a0: 3533 e1a3 b9d7 47a4 4b41 43a4 e000 43a4
000001b0: a0e8 42a4 237f 33a4 a0f7 29a4 3423 f5a3
000001c0: cad3 5ea4 c553 5ca4 420a 5ca4 65c5 5ba4
000001d0: ee51 4ca4 0adc 3ea4 1c8d 07a4 1331 67a4
000001e0: 1073 65a4 37f7 64a4 aba8 64a4 eb24 55a4
000001f0: 46a4 47a4 bd0e 0ea4 13a4 65a4 b149 67a4
00000200: 87b9 65a4 7cee 64a4 bf6c 55a4 f8ed 47a4
00000210: cc14 0ea4 86d2 61a4 0d32 65a4 f5f9 63a4
00000220: 5356 63a4 d5ab 53a4 fde0 45a4 6014 0ca4
00000230: 457b 5ea4 e8f6 61a4 ec3c 61a4 e5ad 60a4
00000240: 4a0c 51a4 c146 43a4 f01c 09a4 7b50 8124
00000250: 5fb4 7e24 c7fb 7e24 42fc 7e24 39a5 6f24
00000260: f45a 6924 001b 2a24 f12f 9324 de25 9224
00000270: 7646 9224 e646 9224 84cf 8624 ee6d 7f24
00000280: ab3e 3824 c849 a524 398a a424 6bcb a424
00000290: 48cc a424 484e 9924 5448 8f24 f195 4b24
000002a0: aed7 ab24 c428 ab24 956a ab24 726b ab24
000002b0: ace1 9f24 c6d3 9524 8248 5524 df09 ac24
000002c0: 5a5a ab24 269c ab24 039d ab24 d414 a024
000002d0: 5708 9624 b74e 5524 02d4 aa24 a923 aa24
000002e0: 7665 aa24 5566 aa24 f3c1 9e24 ea7d 9424
000002f0: 8a4c 5224 bbd3 a824 1526 a824 d367 a824
00000300: af68 a824 d2ca 9c24 bf8a 9224 cbdd 4d24
00000310: f8c8 a2a4 634f a0a4 7e7c a0a4 cd7c a0a4
00000320: c1c9 96a4 69ce 92a4 f2ff 55a4 fb6b b9a4
00000330: b21c b8a4 e045 b8a4 6e46 b8a4 16c5 a9a4
00000340: c3ca a0a4 e8ed 67a4 e050 d0a4 b55f cfa4
00000350: 12b2 cfa4 26b3 cfa4 5e29 c1a4 717a b4a4
00000360: b432 80a4 969a d8a4 79be d7a4 9411 d8a4
00000370: ac12 d8a4 0e7a c9a4 0cc1 bca4 2f54 86a4
00000380: 89db d8a4 a3fe d7a4 c051 d8a4 d952 d8a4
00000390: 38bc c9a4 0105 bda4 0659 86a4 9957 d7a4
000003a0: ac79 d6a4 c8cc d6a4 dfcd d6a4 2213 c8a4
000003b0: 0615 bba4 e374 84a4 69d2 d4a4 e9f7 d3a4
000003c0: f14a d4a4 0d4c d4a4 8699 c5a4 67a0 b8a4
000003d0: 49a9 81a4 b7e1 ce23 32c1 cb23 f3f9 cb23
000003e0: 58fa cb23 ebca bf23 a7cb ba23 2632 8823
000003f0: c84c eb23 d3a4 e923 a1d8 e923 53d9 e923

exp_avg_sq f4 [8, 8, 7, 7]
1.372963e-07 1.3959237e-07 1.4057639e-07 1.4174178e-07 1.4199186e-07 1.4219759e-07 1.4020011e-07 1.3827714e-07
1.4057703e-07 1.4155107e-07 1.427199e-07 1.4298216e-07 1.4320243e-07 1.4119824e-07 1.38795e-07 1.4109408e-07
1.4206022e-07 1.4322688e-07 1.4349015e-07 1.4371174e-07 1.4169683e-07 1.3903647e-07 1.413357e-07 1.4229083e-07
1.4344515e-07 1.4369508e-07 1.439029e-07 1.4187007e-07 1.3737407e-07 1.3964278e-07 1.4057287e-07 1.4169423e-07
1.4192267e-07 1.4210276e-07 1.4006898e-07 1.3362106e-07 1.3583215e-07 1.3672503e-07 1.3779956e-07 1.3799604e-07
1.381398e-07 1.3612645e-07 1.2817985e-07 1.3029455e-07 1.3114297e-07 1.3216236e-07 1.323303e-07 1.3245104e-07
1.3049109e-07 1.5332428e-10 1.5741955e-10 1.5518764e-10 1.8900705e-10 2.6796512e-10 3.785206e-10 4.5886925e-10
9.053663e-11 9.1673974e-11 8.915142e-11 1.0992404e-10 1.642473e-10 2.4731514e-10 3.112024e-10 5.3700683e-11
5.3557474e-11 5.240037e-11 6.069257e-11 8.942646e-11 1.4316806e-10 1.8888871e-10 5.1032168e-11 5.0748388e-11
5.2446908e-11 4.9172996e-11 5.1942266e-11 7.508666e-11 1.00947826e-10 7.2851024e-11 7.326187e-11 7.830643e-11
6.652973e-11 4.903114e-11 4.742005e-11 5.641182e-11 1.04433455e-10 1.0626293e-10 1.14458526e-10 9.730469e-11
6.62093e-11 4.7364983e-11 4.4138148e-11 1.3820317e-10 1.4196196e-10 1.530316e-10 1.318541e-10 9.045801e-11
5.835686e-11 4.573596e-11 1.2757235e-07 1.2933562e-07 1.2998193e-07 1.3059324e-07 1.301851e-07 1.2985409e-07
1.276381e-07 1.288549e-07 1.3063892e-07 1.3129018e-07 1.3190845e-07 1.3150215e-07 1.3117169e-07 1.2893386e-07
1.2968486e-07 1.3148275e-07 1.3213904e-07 1.3276104e-07 1.3235628e-07 1.3202603e-07 1.2977101e-07 1.3029306e-07
1.32102e-07 1.327617e-07 1.3338578e-07 1.3298228e-07 1.3264993e-07 1.3038249e-07 1.2911e-07 1.309021e-07
1.3155345e-07 1.3217117e-07 1.3177535e-07 1.3144528e-07 1.2919212e-07 1.2590432e-07 1.276514e-07 1.2828238e-07
1.2888351e-07 1.2849723e-07 1.2817065e-07 1.2595817e-07 1.2104421e-07 1.2271784e-07 1.2332283e-07 1.239025e-07
1.2353085e-07 1.2321718e-07 1.2107674e-07 1.2189835e-07 1.2365409e-07 1.2441502e-07 1.250626e-07 1.2457295e-07
1.2409792e-07 1.2181435e-07 1.2323665e-07 1.2502767e-07 1.2581506e-07 1.264899e-07 1.2601484e-07 1.2554939e-07
1.2324877e-07 1.240512e-07 1.2586854e-07 1.2667994e-07 1.273764e-07 1.2691889e-07 1.2646709e-07 1.2416015e-07
1.2452341e-07 1.2635944e-07 1.2718755e-07 1.2789845e-07 1.274588e-07 1.2702247e-07 1.2471521e-07 1.2318448e-07
1.2500774e-07 1.2583322e-07 1.2654448e-07 1.2612729e-07 1.2570862e-07 1.2343021e-07 1.1996366e-07 1.2174615e-07
1.225515e-07 1.2324946e-07 1.2285076e-07 1.2244658e-07 1.2022024e-07 1.1524035e-07 1.16951576e-07 1.17727865e-07
1.184057e-07 1.1802726e-07 1.1764447e-07 1.1549713e-07 4.288828e-08 4.365057e-08 4.4039464e-08 4.432848e-08
4.4148404e-08 4.3907878e-08 4.2974108e-08 4.3259156e-08 4.405981e-08 4.4485503e-08 4.4810367e-08 4.4660247e-08
4.444144e-08 4.350862e-08 4.330364e-08 4.4135472e-08 4.459642e-08 4.4959858e-08 4.485072e-08 4.466634e-08
4.3750067e-08 4.3101352e-08 4.3951147e-08 4.443872e-08 4.4836135e-08 4.4773028e-08 4.4628315e-08 4.3739437e-08
4.2333593e-08 4.317657e-08 4.3671967e-08 4.40907e-08 4.4067107e-08 4.3959343e-08 4.311096e-08 4.1005823e-08
4.182033e-08 4.2303615e-08 4.272599e-08 4.272894e-08 4.265224e-08 4.1855237e-08 3.9234582e-08 4.0008405e-08
4.0470173e-08 4.0883254e-08 4.0901284e-08 4.084622e-08 4.0101682e-08 1.1479144e-09 1.1598059e-09 1.1573453e-09
1.138334e-09 1.1088626e-09 1.083769e-09 1.0545335e-09 1.1564646e-09 1.1690164e-09 1.1677034e-09 1.1480623e-09
00000000: b86b 1334 dce2 1534 58f1 1634 af31 1834
00000010: 6d76 1834 faae 1834 ea89 1634 5579 1434
00000020: 85f1 1634 43fd 1734 8c3e 1934 a386 1934
00000030: 2fc3 1934 479c 1734 ae07 1534 a57f 1734
00000040: 3789 1834 e8c9 1934 4612 1a34 2f4f 1a34
00000050: 5425 1834 0e4a 1534 10c2 1734 9bc8 1834
00000060: e705 1a34 9a4a 1a34 ba83 1a34 f354 1834
00000070: 1981 1334 b7f0 1534 60f0 1634 9d24 1834
00000080: 6863 1834 e994 1834 de65 1634 7a79 0f34
00000090: 42d9 1134 b1ce 1234 0ef6 1334 102c 1434
000000a0: 9453 1434 272a 1234 cfa1 0934 18e7 0b34
000000b0: 4ed0 0c34 83e8 0d34 ad16 0e34 dd37 0e34
000000c0: 1e1d 0c34 f394 282f aa15 2d2f 70a1 2a2f
000000d0: c1d0 4f2f bd50 932f 0a18 d02f 1b44 fc2f
000000e0: 9717 c72e dc97 c92e ca0b c42e bcb9 f12e
000000f0: 8197 342f 83f6 872f d815 ab2f 982d 6c2e
00000100: 5b8c 6b2e 9275 662e e176 852e 9fa6 c42e
00000110: 3a6a 1d2f 72af 4f2f 1d71 602e 9b31 5f2e
00000120: f8a9 662e df43 582e cb71 642e 081e a52e
00000130: 93fc dd2e 7b33 a02e c41a a12e 9a32 ac2e
00000140: e94c 922e 28a4 572e 3b8e 502e 101a 782e
00000150: cfa6 e52e b6ac e92e 6cb2 fb2e acf9 d52e
00000160: 8698 912e 3b50 502e 231f 422e bcf4 172f
00000170: bd16 1c2f 9142 282f a1f9 102f 55eb c62e
00000180: fe53 802e 1d26 492e d2fa 0834 81df 0a34
00000190: 2991 0b34 3239 0c34 02c9 0b34 056e 0b34
000001a0: e50c 0934 5d5b 0a34 c145 0c34 c5f8 0c34
000001b0: b8a2 0d34 0933 0d34 33d8 0c34 1271 0a34
000001c0: 813f 0b34 b42d 0d34 1ae2 0d34 148d 0e34
000001d0: d11d 0e34 0ac3 0d34 2f57 0b34 afe6 0b34
000001e0: ecd7 0d34 428d 0e34 ce38 0f34 e4c9 0e34
000001f0: 896e 0e34 44ff 0b34 7da1 0a34 188e 0c34
00000200: 2341 0d34 efea 0d34 227e 0d34 6723 0d34
00000210: 0fb8 0a34 5130 0734 8d10 0934 febd 0934
00000220: 3b63 0a34 0df9 0934 489f 0934 1e3f 0734
00000230: 61f8 0134 6cc4 0334 b96a 0434 0f0a 0534
00000240: e7a3 0434 ae4d 0434 5201 0234 2ae3 0234
00000250: c7c5 0434 f196 0534 f248 0634 5ac2 0534
00000260: c73f 0534 13cc 0234 0853 0434 583f 0634
00000270: c817 0734 47d1 0734 b24e 0734 c1ce 0634
00000280: 5d56 0434 ef32 0534 7b26 0734 8405 0834
00000290: f5c4 0834 3347 0834 02cb 0734 e250 0534
000002a0: bcb4 0534 6bad 0734 0c91 0834 7554 0934
000002b0: 9cdb 0834 ac63 0834 75e9 0534 b144 0434
000002c0: de39 0634 c61c 0734 48e0 0734 9b6d 0734
000002d0: 86fa 0634 3d88 0434 5ccf 0034 54b9 0234
000002e0: b396 0334 8e56 0434 f6e8 0334 dc79 0334
000002f0: e315 0134 0d7a f733 cf26 fb33 94d1 fc33
00000300: 3946 fe33 2c76 fd33 bba3 fc33 3807 f833
00000310: 2a34 3833 4f7a 3b33 e725 3d33 ae63 3e33
00000320: af9d 3d33 3995 3c33 8892 3833 f2cb 3933
00000330: 463c 3d33 5410 3f33 8575 4033 76d0 3f33
00000340: e1df 3e33 3cde 3a33 dbfc 3933 778f 3d33
00000350: 488a 3f33 e319 4133 e3a1 4033 29d7 3f33
00000360: b5e7 3b33 701e 3933 ccc4 3c33 e4dc 3e33
00000370: da91 4033 774c 4033 5aad 3f33 05dc 3b33
00000380: 47d2 3533 2471 3933 d691 3b33 3d5e 3d33
00000390: 4c44 3d33 cfcd 3c33 0029 3933 611e 3033
000003a0: f09d 3333 51b1 3533 b981 3733 f784 3733
000003b0: a230 3733 52c4 3333 e182 2833 b5d5 2b33
000003c0: 6dd1 2d33 9d97 2f33 70ab 2f33 e56e 2f33
000003d0: 443c 2c33 a6c4 9d30 0b67 9f30 7810 9f30
000003e0: 9173 9c30 a266 9830 bbf3 9430 19ef 9030
000003f0: 7bf1 9e30 1cab a030 e97c a030 dac9 9d30

exp_avg f4 [8]
-2.24906e-16 1.2119006e-07 -8.078983e-13 -1.7532863e-12 1.23506e-10 -1.8352095e-14 -2.6876995e-07 -1.4140465e-18
00000000: 44a6 81a5 7820 0234 3567 63ab ccc0 f6ab
00000010: d9cb 072f 0d4d a5a8 764b 90b4 2bad d0a1

exp_avg_sq f4 [8]
1.3914264e-07 1.2237374e-06 2.436218e-08 1.768695e-08 1.3405175e-05 1.395136e-10 5.5705407e-08 5.0822944e-08
00000000: 3d67 1534 4c3f a435 0045 d132 04ee 9732
00000010: cae6 6037 9665 192f be40 6f33 6b48 5a33
