outputs/ConvLSTM_D1_K7_H8_SS8.4_05_21-18-49/checkpoints/model-epoch=00-validation_loss=0.11.ckpt (torch, 178333 bytes, 9 tensors)

model.combined_conv_layers.0.weight f4 [32, 9, 7, 7]
000000 41 25 20 bf c7 d0 08 bf 0a dd c6 be d0 8e 8c be
       -0.62556845 -0.5344357 -0.38840514 -0.27452707
000010 42 45 58 be 7b 30 25 be 28 03 7b bd 66 c4 0d bf
       -0.2112017 -0.16131775 -0.061282307 -0.55377805
000020 d8 d6 e8 be 2e f3 a8 be 48 51 82 be ae 95 41 be
       -0.45476413 -0.3299803 -0.25452638 -0.18904755
000030 d7 03 cb bd d3 63 d9 bd b2 46 0b bf f4 ba d9 be
       -0.09912842 -0.10614743 -0.5440475 -0.42525446
000040 3f 94 9d be ce df 65 be dd 1b 38 be b2 af 22 bd
       -0.30777165 -0.22448656 -0.17979379 -0.039718337
000050 90 86 f7 3b 62 5a de be f9 f1 b2 be 14 16 8f be
       0.007553883 -0.43428332 -0.34950235 -0.27946532
000060 0e 27 7e be 28 a1 34 be 08 20 c3 bd 3f ff ee bc
       -0.24819586 -0.17639601 -0.09527594 -0.029174445
000070 19 36 e2 be e8 50 9d be 67 2c 55 be 83 6d 34 be
       -0.44181898 -0.3072579 -0.2081772 -0.176199
000080 d0 ae 05 be f1 96 d1 bd 20 3f ad bc 11 a2 d3 be
       -0.13054967 -0.10233868 -0.021148264 -0.41334584
000090 1f c4 97 be be e1 38 be 06 1e e3 bd e5 9f f9 bd
       -0.29641816 -0.18054864 -0.11089711 -0.121887006
0000a0 df 2b 98 bc 47 2e bc bc 26 6e c6 be fe fc 97 be
       -0.018575607 -0.022971286 -0.38755912 -0.29685205
0000b0 ed 81 42 be 28 d1 2c be c9 6c f0 bd ba 1e 9d bd
       -0.18994875 -0.16876662 -0.11739499 -0.07671876
0000c0 2c ee 53 bd 94 b3 bd bd 63 61 62 3c 46 9b 66 3d
       -0.05174081 -0.092627674 0.013817164 0.056300424
0000d0 93 e3 a6 3c c0 fa 0c 3d d6 fc 6b 3d d3 48 e1 3d
       0.020372188 0.03441882 0.05761417 0.11000218
0000e0 4e 0d 81 bd bc 61 c6 ba bc 15 bf 3d 04 df c1 3d
       -0.06301366 -0.0015135328 0.093303174 0.09466365
0000f0 f8 cd 0d 3e 12 77 c0 3d 2e 70 aa 3d 2c bf d6 bd
       0.13848102 0.09397711 0.08322178 -0.10485682
000100 8c 34 87 3a 81 c5 a4 3d 3e 57 fb 3d 16 52 ef 3d
       0.0010315343 0.080454834 0.122724995 0.116855785
000110 ea ba ed 3d 95 4c 05 3e 2b 4f 5d bd 45 9e de 3c
       0.11607917 0.13017495 -0.05403058 0.027175078
000120 8f 75 ea 3d 47 c3 f7 3d 38 2e 19 3e 5b bf 0c 3e
       0.11448204 0.12097793 0.14959037 0.13744871
000130 61 25 0e 3e 06 e0 26 bd 5d 1f 89 3d 8d f7 ca 3d
       0.13881446 -0.04074099 0.06695435 0.09910498
000140 a7 b1 f4 3d f3 11 a3 3d 1e c7 95 3d 04 8d f0 3d
       0.11947947 0.07962408 0.07313369 0.117456466
000150 32 bf c9 bc e9 3d 7e 3d 29 e1 99 3d 2b 03 20 3e
       -0.024627302 0.06207076 0.07513649 0.15626208
000160 41 1e 0d 3e 40 c2 b3 3d 83 b8 be 3d e2 5a 4b bd
       0.13781072 0.087772846 0.093125366 -0.04964722
000170 52 d3 9b bc fe af 87 3d 09 f7 c6 3d 9e c3 ed 3d
       -0.019021664 0.06625365 0.09715087 0.11609577
000180 d3 5e 9e 3d 49 7f c5 3d a4 be 1d 3e d0 41 23 3e
       0.0773293 0.09643418 0.15404755 0.15943074
000190 ad 9c 17 3e fc c1 06 3e e5 f7 00 3e 53 1f 5f 3d
       0.14805861 0.13159937 0.12594564 0.054473232
0001a0 c6 a1 96 3d 3e 0e dc 3d cd 23 11 3e b6 cd 15 3e
       0.073550746 0.10744904 0.14173813 0.14629254
0001b0 bc 05 8a 3d de 1e 99 3d c2 1d 90 3d f0 4b e9 3d
       0.06739375 0.074765906 0.07036926 0.11391437
0001c0 e0 9e 2b 3e 93 02 07 3e b3 f0 14 3e fb d3 13 3e
       0.16759825 0.13184576 0.14544944 0.14436333
0001d0 e0 46 81 3d ba 82 f3 3d df d5 ff 3d 62 f3 24 3e
       0.063123465 0.118901685 0.124919645 0.16108468
0001e0 f7 48 ef 3d 72 40 a9 3d cd 04 e3 3d 0e ff 8c 3d
       0.11683839 0.08264245 0.110849 0.06884585
0001f0 f8 d4 ce 3d fd 61 9d 3d ec af 42 3e 5b 3d dc 3d
       0.10099214 0.076847054 0.19012421 0.1075389
000200 e5 9b 24 3e 85 31 0c 3e 78 01 eb 3d 70 c7 4e 3d
       0.16075094 0.13690765 0.114748895 0.050483167
000210 6c 8e 00 3e d0 03 20 3e 92 0b 20 3e 82 e0 9a 3d
       0.1255433 0.15626454 0.15629414 0.07562353
000220 a0 94 bf 3d cb cf 7c 3d 24 d8 ce 3d 49 94 cf 3d
       0.0935452 0.061721604 0.10099819 0.10135705
000230 92 cc f0 3d 6d a3 91 3d b5 21 d0 3d 7b 8a 73 3d
       0.11757769 0.07111249 0.10162679 0.059458237
000240 2c 11 9a 3d e4 82 fc 3d cf ba 90 3d 8f 5b 15 bd
       0.075228065 0.12329653 0.07066881 -0.03646427
000250 45 00 34 3d 5e ad 75 3c 2d 38 4a 3d 74 8e b0 3d
       0.04394557 0.014994947 0.04936998 0.08620921
000260 6b 0f 02 3e 82 f3 ad 3d 8e 24 14 bb 29 99 85 3d
       0.12701194 0.08493711 -0.0022604796 0.065233536
000270 5c a4 b4 3d ed 76 43 3d 35 e2 86 3d 44 87 d5 3d
       0.088204116 0.04772084 0.06586114 0.104261905
000280 ec a1 e7 3d d3 b5 6e 3c 09 24 7b 3d 2c 4c 72 3c
       0.11310181 0.014569717 0.061313663 0.014788669
000290 a4 4e da 3d de 07 02 3e e3 a8 c8 3d 86 b6 d0 3d
       0.10659531 0.12698314 0.097978376 0.101910636
0002a0 d6 01 a1 3b b5 62 19 3d 79 b2 9b 3d 6c a7 55 3d
       0.004913549 0.03744765 0.076024 0.05216162
0002b0 24 0b e2 3d 2e 0e a3 3d f6 d4 b3 3d 69 74 cb 3c
       0.11037281 0.07961689 0.087808535 0.024835782
0002c0 71 17 a2 3d 80 df 04 3e 1c 9f 16 3e 4b d4 1a 3e
       0.07914627 0.12975883 0.14709133 0.15120046
0002d0 0a 9b 31 3e 3f 65 e1 3d b5 43 9a 3b e0 5f e3 3d
       0.17344299 0.11005639 0.0047077783 0.11102271
0002e0 bc dc a7 3d 6c 92 28 3e 9c 0c ce 3d 77 03 11 3e
       0.081963986 0.16462106 0.10060999 0.14161478
0002f0 4d 26 c5 3d 1f 63 56 3d db 57 d9 3d aa be d4 3d
       0.09626446 0.052340623 0.1061246 0.10387929
000300 bb b3 ca 3d 07 5a d0 3d e6 1c 10 3e bc 49 36 3e
       0.09897562 0.10173421 0.14073524 0.17801565
000310 06 ae e0 be de 38 b7 be c3 ca 6d be 32 d2 84 be
       -0.4388277 -0.35785574 -0.23221879 -0.25941616
000320 93 d5 74 be c5 ac 42 be a8 1a 89 be c8 12 c7 be
       -0.23909597 -0.19011219 -0.2677815 -0.38881516
000330 39 9c a9 be 98 1d 44 be 31 a5 17 be 4c 12 36 be
       -0.33127 -0.19151914 -0.1480911 -0.17780417
000340 29 95 69 be 70 98 77 be d6 b7 a0 be f2 34 7f be
       -0.22810806 -0.24179244 -0.31390256 -0.24922541
000350 33 b1 32 be 0b 1e 25 be f4 03 43 be ef 78 3e be
       -0.17450409 -0.16124742 -0.19044477 -0.1860082
000360 06 f9 0b be 1e df 93 be 25 96 63 be 63 1f 5d be
       -0.13669214 -0.28881162 -0.22225244 -0.21594004
000370 a8 6b 2e be 56 13 c8 bd 33 8f 19 be 67 74 1c be
       -0.17033255 -0.09769313 -0.14996032 -0.15278779
000380 39 2f bb be 52 7c 90 be 61 7a 6c be 5a fd 10 be
       -0.36559466 -0.2821985 -0.23093559 -0.14159146
000390 e1 ee 07 be d1 3a 30 be 2a 2a cd bd 17 a2 a2 be
       -0.13274719 -0.17209937 -0.10017808 -0.3176429
0003a0 a4 aa 80 be 96 6e 42 be 2b 24 1f be 79 77 3c be
       -0.25130188 -0.18987498 -0.1554114 -0.1840495
0003b0 82 a4 34 be 16 90 00 be 59 a8 af be dc c5 8f be
       -0.1764088 -0.12554964 -0.34308127 -0.28080642
0003c0 91 e9 4f be 1a db 5b be 92 f5 5d be 10 eb 62 be
       -0.20303942 -0.214703 -0.21675709 -0.22159982
0003d0 97 58 26 be 60 d0 4f be 2a b3 14 be b5 be 4c be
       -0.16244732 -0.20294333 -0.1452147 -0.19994624
0003e0 5f 87 89 be d2 42 61 be 33 01 2e be 10 2c 87 be
       -0.26861092 -0.21998146 -0.16992645 -0.26400805
0003f0 c9 bb 3d be 57 62 33 be c1 b2 75 be a2 8e 59 be
       -0.18528666 -0.17517982 -0.2399397 -0.21245816

model.combined_conv_layers.0.bias f4 [32]
000000 f2 42 eb bd 51 50 34 be 92 5b 47 be 11 e3 39 3d
       -0.11487378 -0.17608763 -0.19468525 0.045382563
000010 d8 07 d9 bd 77 71 c2 be b2 09 b4 3d 01 92 11 be
       -0.10597199 -0.37977192 0.08790912 -0.14215852
000020 89 6c f1 bd 2c 1c 81 be 84 88 c7 bd 78 9f a1 3e
       -0.117882796 -0.25216806 -0.09742835 0.31566978
000030 29 a0 ab 3c 4a 3c 54 be ae 63 0d be be 75 91 be
       0.020950394 -0.20726123 -0.13807556 -0.28410143
000040 c3 ef 20 bd fe d1 ee be 86 0c 86 be da d7 00 3e
       -0.039291155 -0.46644586 -0.2618143 0.12582341
000050 9f 25 d7 bd ff 15 28 bb af f7 35 be 56 6d ef be
       -0.105052225 -0.0025647876 -0.17770265 -0.46763104
000060 2e 5c 7b 3d 07 01 91 3d e6 9b 23 3e da 27 9b 3e
       0.061367206 0.07080274 0.1597744 0.30303842
000070 ac 9a e7 3e 14 99 af 3e 08 5f 48 be 31 4b f1 3c
       0.45235193 0.34296477 -0.19567502 0.0294548

mapping_layer.weight f4 [1, 8, 1, 1]
000000 e0 d4 a0 3f 70 9a 20 bf 1e 49 66 3f f3 8c 5a 3f
       1.2564964 -0.6273565 0.8995532 0.8537132
000010 f6 9f 77 bf 6c ab 58 3f 2e 1b 7b 3f 6a ad 37 3e
       -0.96728456 0.8463657 0.9808835 0.17937246

exp_avg f4 [32, 9, 7, 7]
000000 f7 d4 29 37 b1 7f 23 37 ae 10 17 37 78 4d 05 37
       1.012277e-05 9.745288e-06 9.004185e-06 7.945455e-06
000010 26 04 f2 36 7e b8 d7 36 43 bc c9 36 ce 3b 26 37
       7.212645e-06 6.428977e-06 6.0121833e-06 9.908295e-06
000020 b7 ed 22 37 b2 8f 14 37 91 29 02 37 d9 a8 ea 36
       9.7113e-06 8.854944e-06 7.758282e-06 6.9934e-06
000030 62 55 cd 36 19 04 bc 36 45 c0 1f 37 6d 6e 21 37
       6.119416e-06 5.6033136e-06 9.521905e-06 9.622058e-06
000040 84 50 12 37 fc 48 00 37 75 f7 e4 36 5a 42 c4 36
       8.721025e-06 7.6463875e-06 6.8237373e-06 5.8489795e-06
000050 14 74 af 36 71 90 21 37 f0 25 1e 37 fb b4 0d 37
       5.2289197e-06 9.629978e-06 9.426367e-06 8.446393e-06
000060 00 c0 f9 36 23 5a dd 36 eb ac bc 36 9e 31 a6 36
       7.44313e-06 6.5968065e-06 5.622967e-06 4.9529617e-06
000070 cc 78 1a 37 1a 3b 13 37 8f 59 04 37 d7 55 e7 36
       9.2072405e-06 8.775643e-06 7.888665e-06 6.8943295e-06
000080 92 54 cf 36 b6 5d af 36 a6 4a 97 36 79 23 0b 37
       6.178926e-06 5.226316e-06 4.508841e-06 8.293305e-06
000090 e5 85 03 37 48 dd ed 36 70 e8 ce 36 27 d0 b9 36
       7.839383e-06 7.088911e-06 6.1663377e-06 5.5376618e-06
0000a0 f6 9d 99 36 f3 dc 80 36 8c 78 f2 36 2d 44 e4 36
       4.5781444e-06 3.840419e-06 7.2261955e-06 6.802866e-06
0000b0 92 15 d0 36 16 99 b4 36 85 18 a1 36 a4 7a 82 36
       6.201394e-06 5.3822396e-06 4.8010284e-06 3.888579e-06
0000c0 b5 27 55 36 2d c2 b4 36 b7 10 9a 36 9b f0 68 36
       3.1762586e-06 5.387023e-06 4.5915035e-06 3.4710745e-06
0000d0 44 74 19 36 a6 33 f3 35 6e 8d 96 35 6d d7 2f 35
       2.2866452e-06 1.8119943e-06 1.1217032e-06 6.5506066e-07
0000e0 d4 75 94 36 a0 f9 70 36 05 01 28 36 17 00 b6 35
       4.4244607e-06 3.5908088e-06 2.5034544e-06 1.3560083e-06
0000f0 c3 61 83 35 98 ce a1 34 1e 7c e6 b3 74 08 5f 36
       9.788713e-07 3.0138904e-07 -1.07327864e-07 3.323451e-06
000100 c7 ee 23 36 29 05 bb 35 d5 96 b1 34 ae f1 b0 33
       2.442788e-06 1.3934088e-06 3.3078564e-07 8.2396e-08
000110 24 93 0e b5 1f 46 6a b5 91 ed 1a 36 d0 d4 c0 35
       -5.311324e-07 -8.727383e-07 2.308607e-06 1.4367051e-06
000120 9a aa c9 34 77 3a 1c b5 94 13 4e b5 f6 11 b4 b5
       3.7563296e-07 -5.8199606e-07 -7.676947e-07 -1.3416272e-06
000130 80 73 dd b5 16 2c cf 35 aa 4d 53 35 f0 5e 76 b4
       -1.6499398e-06 1.5435533e-06 7.871664e-07 -2.2945073e-07
000140 2e 02 9d b5 d5 67 c1 b5 e7 91 09 b6 8d 66 20 b6
       -1.1698046e-06 -1.440984e-06 -2.0499517e-06 -2.390155e-06
000150 aa 2d 6f 35 1d 5b 62 34 76 a2 47 b5 9a 5c e2 b5
       8.910089e-07 2.1081037e-07 -7.436969e-07 -1.6865263e-06
000160 67 b7 0d b6 95 d0 3b b6 98 20 55 b6 05 bd 82 34
       -2.1117391e-06 -2.7986582e-06 -3.1758445e-06 2.4351917e-07
000170 d6 ba bc b4 6f 9f 9f b5 d6 77 0e b6 b9 6b 31 b6
       -3.515367e-07 -1.1892824e-06 -2.1229403e-06 -2.6437758e-06
000180 89 76 64 b6 8a 36 81 b6 0b 77 e2 b6 37 94 d8 b6
       -3.4043644e-06 -3.8508488e-06 -6.7491833e-06 -6.454556e-06
000190 40 73 ca b6 2c 38 b8 b6 7e 29 a6 b6 0c 20 8d b6
       -6.033486e-06 -5.4901666e-06 -4.952016e-06 -4.205858e-06
0001a0 a9 e7 76 b6 8a a4 c4 b6 e3 e4 be b6 a2 fa b2 b6
       -3.67917e-06 -5.86041e-06 -5.689087e-06 -5.333991e-06
0001b0 b6 71 a4 b6 c0 29 93 b6 0c d8 73 b6 c4 ac 4f b6
       -4.9008186e-06 -4.3858017e-06 -3.6335578e-06 -3.0945967e-06
0001c0 69 da aa b6 34 f6 aa b6 7f b7 9f b6 43 55 92 b6
       -5.091821e-06 -5.0950566e-06 -4.759931e-06 -4.361065e-06
0001d0 ba 1e 80 b6 c8 4e 50 b6 af 02 29 b6 af db 94 b6
       -3.8182743e-06 -3.1040272e-06 -2.5184524e-06 -4.4363182e-06
0001e0 f8 00 97 b6 17 f2 8b b6 14 d4 77 b6 26 2c 4f b6
       -4.5002635e-06 -4.170706e-06 -3.6929314e-06 -3.0871101e-06
0001f0 73 6f 1f b6 a0 1d f0 b5 88 e9 72 b6 33 6d 6f b6
       -2.3757718e-06 -1.7890015e-06 -3.6196743e-06 -3.5677338e-06
000200 f3 d4 58 b6 ed 87 3a b6 eb 77 10 b6 3f c1 b7 b5
       -3.231046e-06 -2.779528e-06 -2.1527474e-06 -1.3690805e-06
000210 62 7f 41 b5 a0 f4 3d b6 99 3c 33 b6 a0 a5 1c b6
       -7.208347e-07 -2.8305585e-06 -2.670835e-06 -2.3342218e-06
000220 e9 69 fe b5 b9 38 ad b5 60 6b ec b4 b5 f5 8b 34
       -1.8955299e-06 -1.2906013e-06 -4.403655e-07 2.6069543e-07
000230 10 9b 0c b6 fe f8 fc b5 88 ae cc b5 4d 04 8a b5
       -2.0951884e-06 -1.8847929e-06 -1.524998e-06 -1.0283053e-06
000240 09 b4 e4 b4 3e 4b e9 34 1f d4 98 35 ee 8c 88 35
       -4.2599302e-07 4.3454378e-07 1.1386618e-06 1.0173806e-06
000250 bd 95 29 b3 1c 3e ad b5 61 c1 26 b6 7d 7c 36 b6
       -3.9484565e-08 -1.2907581e-06 -2.484849e-06 -2.7192575e-06
000260 3f 44 45 b6 20 f0 4e b6 33 e1 d3 b4 fb b7 d2 b5
       -2.9395012e-06 -3.0836163e-06 -3.9465667e-07 -1.5699765e-06
000270 3f 45 3e b6 17 1c 85 b6 6d e7 89 b6 2d 5c 8f b6
       -2.8352513e-06 -3.966979e-06 -4.1098597e-06 -4.272463e-06
000280 fa 96 91 b6 b9 fd 01 b6 82 52 59 b6 31 e0 95 b6
       -4.3389127e-06 -1.9370184e-06 -3.2383546e-06 -4.4666454e-06
000290 87 3c b8 b6 23 30 b8 b6 1e 8f bd b6 e1 40 be b6
       -5.4906736e-06 -5.489231e-06 -5.6493e-06 -5.669994e-06
0002a0 6a bb 5f b6 ab fd 9b b6 8d 11 c3 b6 58 b8 e2 b6
       -3.3338679e-06 -4.648891e-06 -5.813496e-06 -6.7567853e-06
0002b0 0a e3 e2 b6 db d5 e7 b6 d0 a7 e6 b6 4f a2 90 b6
       -6.7617557e-06 -6.9092325e-06 -6.87407e-06 -4.3104296e-06
0002c0 cb 84 ba b6 dc ee e1 b6 b4 e0 00 b7 c4 2c 02 b7
       -5.558691e-06 -6.7333294e-06 -7.681712e-06 -7.759027e-06
0002d0 5f 7a 05 b7 62 40 05 b7 94 ce a4 b6 f3 1d cb b6
       -7.9559095e-06 -7.942408e-06 -4.9116297e-06 -6.053358e-06
0002e0 44 e6 f3 b6 fe 57 0b b7 3b 15 0f b7 8b d3 13 b7
       -7.268771e-06 -8.305533e-06 -8.528407e-06 -8.8111365e-06
0002f0 35 1b 15 b7 09 53 b6 b6 22 4d d6 b6 74 c1 fd b6
       -8.887427e-06 -5.4336892e-06 -6.3866764e-06 -7.5625085e-06
000300 59 7d 11 b7 46 98 17 b7 06 08 1e b7 5b ed 20 b7
       -8.671858e-06 -9.035755e-06 -9.419402e-06 -9.592007e-06
000310 03 e7 2a 36 ea 44 85 35 19 cf 57 b5 39 3c 1b b6
       2.546644e-06 9.929329e-07 -8.039511e-07 -2.3131854e-06
000320 17 43 37 b6 75 ae 29 b6 c9 5e 12 b6 7f fb c7 35
       -2.7308176e-06 -2.528451e-06 -2.1810868e-06 1.489985e-06
000330 83 fb a1 b4 00 bf 08 b6 9a 31 61 b6 ae 47 6c b6
       -3.0171586e-07 -2.0376756e-06 -3.3556485e-06 -3.5208463e-06
000340 52 ae 50 b6 df 5d 2f b6 f1 4c 12 34 ce f6 ec b5
       -3.1095883e-06 -2.6131672e-06 1.36253e-07 -1.76552e-06
000350 a1 0c 5d b6 77 65 93 b6 07 7d 95 b6 de 49 82 b6
       -3.2938917e-06 -4.3927535e-06 -4.455101e-06 -3.882901e-06
000360 e1 6f 57 b6 31 62 97 b5 f8 37 45 b6 c8 e1 92 b6
       -3.2102619e-06 -1.1278954e-06 -2.9387866e-06 -4.3774235e-06
000370 42 2e b2 b6 33 99 b3 b6 1f 10 9f b6 ee 4a 87 b6
       -5.3101985e-06 -5.3524504e-06 -4.740446e-06 -4.0320365e-06
000380 4b 07 10 b6 74 b5 7c b6 d4 ad ab b6 bb 05 c8 b6
       -2.1461917e-06 -3.7656546e-06 -5.1164334e-06 -5.9611316e-06
000390 3b d5 c7 b6 ee 2d b4 b6 28 09 a0 b6 39 63 3a b6
       -5.9554854e-06 -5.369765e-06 -4.7694375e-06 -2.7773915e-06
0003a0 87 85 8e b6 05 ba b9 b6 da 81 d5 b6 f1 f8 d6 b6
       -4.2474744e-06 -5.535085e-06 -6.3630114e-06 -6.4066776e-06
0003b0 2a 6a c7 b6 58 78 b8 b6 07 f7 55 b6 03 52 92 b6
       -5.9430213e-06 -5.497637e-06 -3.1883262e-06 -4.3606865e-06
0003c0 ac 1b b7 b6 0a 1d d5 b6 9b 64 dc b6 b3 bf d3 b6
       -5.4570464e-06 -6.3512753e-06 -6.568223e-06 -6.3106068e-06
0003d0 50 af cb b6 b7 f0 04 b7 3e cd 00 b7 33 b0 ec b6
       -6.0702805e-06 -7.923859e-06 -7.677181e-06 -7.0538604e-06
0003e0 c7 3c d8 b6 f6 09 e7 b6 f4 37 ea b6 11 22 f0 b6
       -6.444377e-06 -6.885496e-06 -6.9802572e-06 -7.156523e-06
0003f0 e8 4d 00 b7 e6 3d f8 b6 9c 2f e3 b6 39 fd cc b6
       -7.6475335e-06 -7.398182e-06 -6.7706696e-06 -6.1091528e-06

exp_avg_sq f4 [32, 9, 7, 7]
000000 0c bf 8b 32 f1 bb 8b 32 b6 4c 8a 32 e4 7f 88 32
       1.6268608e-08 1.6267196e-08 1.6100199e-08 1.5890642e-08
000010 a2 20 82 32 62 53 79 32 77 d7 6f 32 5c 6c 8e 32
       1.5148832e-08 1.4512667e-08 1.3960622e-08 1.6580252e-08
000020 40 03 8f 32 d6 13 8e 32 c0 b5 8c 32 1c a5 86 32
       1.6648869e-08 1.6539996e-08 1.6380795e-08 1.5674736e-08
000030 2c 64 81 32 31 6f 79 32 7e e4 8f 32 bc 22 91 32
       1.506313e-08 1.451899e-08 1.6751297e-08 1.6896017e-08
000040 67 da 90 32 51 2b 90 32 3e 97 8a 32 66 99 85 32
       1.6863124e-08 1.6783504e-08 1.6134091e-08 1.5552995e-08
000050 02 02 81 32 83 7f 90 32 38 48 92 32 6d af 92 32
       1.501849e-08 1.6821792e-08 1.7029478e-08 1.7076411e-08
000060 00 cd 92 32 1c d2 8d 32 36 36 89 32 af d2 84 32
       1.708986e-08 1.6510107e-08 1.5973551e-08 1.546263e-08
000070 1e fd 89 32 5b 18 8c 32 5b 28 8d 32 de 1d 8e 32
       1.6064003e-08 1.630922e-08 1.6432912e-08 1.6544558e-08
000080 56 f2 89 32 7c f1 85 32 ea f0 81 32 c3 b7 82 32
       1.60591e-08 1.5593052e-08 1.5127132e-08 1.5217557e-08
000090 67 1a 85 32 57 b3 86 32 4d 4c 88 32 bd df 84 32
       1.5495244e-08 1.5681207e-08 1.5867181e-08 1.5468567e-08
0000a0 c0 7c 81 32 1d ca 7b 32 0d d7 76 32 8b 18 7c 32
       1.5074306e-08 1.4656078e-08 1.43679815e-08 1.4673911e-08
0000b0 20 08 80 32 59 08 82 32 02 72 7e 32 01 bf 78 32
       1.4904856e-08 1.5137788e-08 1.4810668e-08 1.4478929e-08
0000c0 84 77 72 32 a1 9d 56 32 03 d6 5b 32 fc 88 61 32
       1.4113429e-08 1.249228e-08 1.2796138e-08 1.312787e-08
0000d0 51 9b 66 32 88 3e 64 32 ca e8 5e 32 96 22 58 32
       1.3423077e-08 1.3285565e-08 1.2975031e-08 1.2580719e-08
0000e0 8d c4 5d 32 9d 1a 64 32 a1 c7 6a 32 d3 6f 70 32
       1.29085835e-08 1.3277398e-08 1.3665983e-08 1.39952645e-08
0000f0 ce 81 6d 32 48 4e 67 32 3b cc 5f 32 84 26 62 32
       1.382473e-08 1.3463769e-08 1.3026745e-08 1.3163689e-08
000100 1e 1d 6a 32 9e 39 72 32 0d c3 78 32 a3 6c 75 32
       1.3627213e-08 1.4099355e-08 1.4479849e-08 1.4285578e-08
000110 9f 8e 6e 32 4a 82 66 32 f4 a0 62 32 31 a1 6b 32
       1.3885852e-08 1.3417386e-08 1.3191528e-08 1.3715451e-08
000120 84 06 75 32 18 87 7c 32 4a 77 79 32 6e e7 72 32
       1.4262358e-08 1.4699047e-08 1.4520831e-08 1.4138875e-08
000130 b1 fb 6a 32 d2 09 58 32 29 7f 60 32 9d 8b 69 32
       1.3677821e-08 1.2575088e-08 1.3067429e-08 1.3594129e-08
000140 2b 0d 71 32 b8 10 6f 32 7f e2 69 32 c1 25 63 32
       1.403104e-08 1.3915432e-08 1.3613884e-08 1.3221723e-08
000150 72 50 4c 32 4a b3 53 32 d6 94 5b 32 3b 8c 62 32
       1.1892654e-08 1.2322582e-08 1.2781319e-08 1.3186816e-08
000160 7a 6e 61 32 53 b6 5d 32 c6 75 58 32 38 fc 3f 32
       1.3121843e-08 1.2905349e-08 1.2599633e-08 1.1175011e-08
000170 4d 55 46 32 cf 55 4d 32 1b ee 53 32 b4 3b 53 32
       1.1544512e-08 1.1952081e-08 1.2335955e-08 1.2295391e-08
000180 e1 35 50 32 96 22 4c 32 70 0e 97 31 0e 8c 97 31
       1.2119444e-08 1.1882227e-08 4.3963198e-09 4.4106008e-09
000190 61 c5 96 31 d1 03 95 31 25 91 8f 31 83 72 89 31
       4.388014e-09 4.3369046e-09 4.178349e-09 4.0002432e-09
0001a0 d4 09 83 31 76 3b 9d 31 ab a0 9d 31 ca 95 9c 31
       3.813719e-09 4.5760613e-09 4.587567e-09 4.5572266e-09
0001b0 0c 70 9a 31 c6 4e 94 31 3b 96 8d 31 fa bf 86 31
       4.494728e-09 4.3163224e-09 4.1207193e-09 3.9217385e-09
0001c0 65 44 a2 31 3b b1 a2 31 74 7f a1 31 32 0d 9f 31
       4.722596e-09 4.7349693e-09 4.7002064e-09 4.629009e-09
0001d0 88 54 98 31 bf 03 91 31 73 a1 89 31 a4 6d a5 31
       4.4333923e-09 4.2204813e-09 4.0055794e-09 4.8145967e-09
0001e0 96 db a5 31 1e 89 a4 31 d5 10 a2 31 c3 32 9b 31
       4.827096e-09 4.7886166e-09 4.716734e-09 4.5168647e-09
0001f0 2d a1 93 31 8d e6 8b 31 0f 60 9e 31 9d 95 9e 31
       4.2965866e-09 4.071643e-09 4.609326e-09 4.6154143e-09
000200 d5 28 9d 31 1e 05 9b 31 95 c1 94 31 3b e4 8d 31
       4.5739434e-09 4.5116755e-09 4.3293746e-09 4.129587e-09
000210 3a dc 86 31 4e f1 94 31 6a dc 94 31 2e 7e 93 31
       3.92495e-09 4.3348e-09 4.332425e-09 4.292608e-09
000220 ca ca 91 31 bb 47 8c 31 1c 78 86 31 67 91 80 31
       4.24311e-09 4.082691e-09 3.913568e-09 3.7418206e-09
000230 ea d4 8a 31 a5 9e 8a 31 96 7c 89 31 07 37 88 31
       4.040534e-09 4.0343644e-09 4.0013886e-09 3.964377e-09
000240 1a 64 83 31 ca f4 7c 31 3e 14 73 31 50 19 47 31
       3.823982e-09 3.6809973e-09 3.537266e-09 2.89727e-09
000250 d6 d3 47 31 d3 fc 45 31 37 fd 42 31 fb cf 3b 31
       2.9078726e-09 2.8810987e-09 2.8374652e-09 2.7330305e-09
000260 ad e5 33 31 a9 e6 2b 31 92 72 48 31 89 f4 48 31
       2.6178484e-09 2.501489e-09 2.9168956e-09 2.9242833e-09
000270 30 e4 46 31 91 c1 43 31 ec 99 3c 31 ed cb 34 31
       2.8942502e-09 2.8486264e-09 2.7445095e-09 2.6309366e-09
000280 d1 fe 2c 31 9c b4 47 31 a6 a9 47 31 3f 4b 45 31
       2.517414e-09 2.9060976e-09 2.9054745e-09 2.8710045e-09
000290 57 13 42 31 72 1d 3b 31 64 df 33 31 2d b9 2c 31
       2.824171e-09 2.722882e-09 2.6174911e-09 2.5134554e-09
0002a0 ec 12 45 31 07 b2 44 31 8a 6e 42 31 28 82 3f 31
       2.8678029e-09 2.862295e-09 2.829355e-09 2.7868143e-09
0002b0 5c eb 38 31 8b 4c 32 31 9f dd 2b 31 59 f9 39 31
       2.690931e-09 2.5945919e-09 2.5009752e-09 2.706278e-09
0002c0 ef a3 39 31 8b d9 37 31 8f 91 35 31 c4 c7 2f 31
       2.7014229e-09 2.6753664e-09 2.6421707e-09 2.5579405e-09
0002d0 5c 00 2a 31 d8 78 24 31 05 86 2e 31 55 5c 2e 31
       2.473846e-09 2.3933833e-09 2.5396514e-09 2.5372817e-09
0002e0 9f e5 2c 31 89 31 2b 31 f8 18 26 31 b5 e2 20 31
       2.5159819e-09 2.4911933e-09 2.4170372e-09 2.3411932e-09
0002f0 a3 f4 1b 31 fb 08 24 31 ac 0a 24 31 6d b1 22 31
       2.2694528e-09 2.3870246e-09 2.3871207e-09 2.3674958e-09
000300 08 4c 21 31 7a 92 1c 31 e5 ac 17 31 a7 1f 13 31
       2.3471802e-09 2.278425e-09 2.2071671e-09 2.1409308e-09
000310 d5 44 45 31 a3 75 45 31 9f 6b 45 31 be b7 46 31
       2.87064e-09 2.8734142e-09 2.8728449e-09 2.8917237e-09
000320 76 1c 3f 31 a3 7f 36 31 a2 22 2e 31 12 f6 46 31
       2.7810336e-09 2.6557039e-09 2.534002e-09 2.8952667e-09
000330 ac 32 48 31 b2 3f 4a 31 01 7f 4c 31 dd ee 44 31
       2.9132634e-09 2.9431075e-09 2.97581e-09 2.8657532e-09
000340 93 09 3c 31 c7 6a 33 31 6c f5 45 31 74 a7 48 31
       2.7363043e-09 2.6108624e-09 2.880678e-09 2.9199017e-09
000350 f9 4d 4d 31 f9 b0 50 31 3b 87 49 31 b4 df 40 31
       2.9875749e-09 3.036858e-09 2.932622e-09 2.8066838e-09
000360 09 16 38 31 4a 77 43 31 f6 6a 47 31 ed 75 4d 31
       2.678805e-09 2.8444043e-09 2.9019112e-09 2.989846e-09
000370 5c 0d 52 31 5c cc 4b 31 07 ab 43 31 af e1 3a 31
       3.0566616e-09 2.9656553e-09 2.8473452e-09 2.7194849e-09
000380 8b 30 38 31 b3 73 3c 31 07 7e 42 31 a0 6f 47 31
       2.6803118e-09 2.7423368e-09 2.8302354e-09 2.9021763e-09
000390 65 7f 42 31 5b 6a 3b 31 a4 70 33 31 8c 68 2d 31
       2.830313e-09 2.7272538e-09 2.6111957e-09 2.5234241e-09
0003a0 c3 7d 31 31 4f 1f 37 31 d9 c1 3b 31 c5 89 37 31
       2.5828377e-09 2.6647802e-09 2.7322271e-09 2.6708318e-09
0003b0 85 9a 31 31 1c c6 2a 31 9e eb 22 31 34 b1 26 31
       2.5844724e-09 2.4850868e-09 2.3708036e-09 2.4256908e-09
0003c0 2d 93 2b 31 35 a6 2f 31 42 0a 2c 31 49 19 27 31
       2.4967435e-09 2.556033e-09 2.5035125e-09 2.4316071e-09
0003d0 20 75 21 31 54 cd 26 32 71 8a 29 32 08 9a 2b 32
       2.3495161e-09 9.709158e-09 9.868573e-09 9.988533e-09
0003e0 3b 70 2d 32 57 12 2a 32 0a b1 25 32 89 59 20 32
       1.0095444e-08 9.899472e-09 9.644518e-09 9.333584e-09
0003f0 2b a1 2b 32 b1 43 2f 32 15 40 32 32 10 c9 34 32
       9.990155e-09 1.0201732e-08 1.0375534e-08 1.0523095e-08

exp_avg f4 [32]
000000 5a f4 82 b6 3d e5 7b b6 06 a3 9a 36 fa 62 cc 36
       -3.902748e-06 -3.7535349e-06 4.608536e-06 6.091196e-06
000010 e0 c8 30 38 ed a5 18 38 ec 37 2a b6 bd 5f be 34
       4.214875e-05 3.6394154e-05 -2.5364525e-06 3.5459917e-07
000020 30 08 bf b8 82 b9 d9 b7 1a b9 0f 37 71 ff 26 b9
       -9.109115e-05 -2.59548e-05 8.5665615e-06 -0.00015926153
000030 a3 ec f3 37 14 e1 c2 38 62 c0 c6 b7 51 59 39 36
       2.907805e-05 9.292565e-05 -2.3693025e-05 2.7619137e-06
000040 80 14 17 b8 79 8d b1 38 f6 d3 d8 37 dc 6f db b6
       -3.6020298e-05 8.466369e-05 2.5847909e-05 -6.5397307e-06
000050 ba ee 57 b9 6e ef b0 39 c5 49 e2 b8 86 73 b4 b6
       -0.0002059293 0.00033747725 -0.000107902604 -5.3778667e-06
000060 44 97 88 b8 cf 45 5c b8 1a 1b 75 37 16 ca a9 38
       -6.513161e-05 -5.25171e-05 1.4609448e-05 8.0961894e-05
000070 3f ed b3 b9 4f aa 96 b8 9e b8 60 38 08 82 23 37
       -0.00034318303 -7.18428e-05 5.35777e-05 9.745832e-06

exp_avg_sq f4 [32]
000000 71 d4 82 33 75 5e a6 33 e7 4e a6 33 74 66 d6 33
       6.0922396e-08 7.747159e-08 7.7443296e-08 9.983788e-08
000010 2a 68 48 34 24 a6 24 35 35 f0 01 34 c0 82 10 33
       1.8664346e-07 6.133653e-07 1.2101448e-07 3.364653e-08
000020 df a5 99 34 7f 65 5e 34 35 ae 84 34 91 e3 8e 34
       2.8619158e-07 2.0712285e-07 2.4713668e-07 2.6615137e-07
000030 13 da 02 35 33 0e 82 35 8c 9a aa 34 a3 de 5a 33
       4.8746114e-07 9.689887e-07 3.1777415e-07 5.0959567e-08
000040 4b 52 91 34 c7 21 03 37 4b 89 fc 33 89 33 05 37
       2.706823e-07 7.816073e-06 1.1759638e-07 7.939417e-06
000050 b2 67 2c 36 e2 c9 60 36 3b 56 1c 35 17 4a 67 34
       2.5690356e-06 3.3496112e-06 5.824001e-07 2.1540505e-07
000060 58 e7 1b 36 4f cb 13 37 4c 8d 46 36 2b 94 b3 36
       2.323146e-06 8.809219e-06 2.9586545e-06 5.3518647e-06
000070 92 ed 2b 38 5b e2 69 36 88 29 2a 36 0d 87 c9 36
       4.099083e-05 3.4851462e-06 2.5356148e-06 6.005989e-06

exp_avg f4 [1, 8, 1, 1]
000000 9a d1 94 ba 0c 45 fe 37 a2 9a e1 b9 d1 c3 44 3a
       -0.001135397 3.0311312e-05 -0.00043030555 0.00075059856
000010 0c 30 4a 3b 1e d0 19 3a cc e6 6d ba 9e 4b 30 b5
       0.0030851392 0.00058674987 -0.0009075224 -6.5675147e-07

exp_avg_sq f4 [1, 8, 1, 1]
000000 8b 32 48 37 30 ce d8 37 bf cf 12 37 71 5e 61 39
       1.1932697e-05 2.584522e-05 8.750648e-06 0.00021492854
000010 2c 56 65 38 d3 ee 8c 38 65 6d 10 37 8a 1f 14 37
       5.467811e-05 6.720205e-05 8.608539e-06 8.828831e-06
